best_model/xasnet_gnn_model_4.pt (torch, 248186 bytes, 20 tensors)

batch_norms.0.weight f4 [256]
0.21643837 0.104919925 0.14687903 0.12670062 0.052540958 0.07848258 0.108044915 0.09998015
0.054600548 0.10122228 0.118829206 0.120870665 0.057217598 0.016410207 0.10218692 0.056040987
0.05847371 0.110585645 0.03631829 0.10989381 0.036377564 0.10770681 0.06883224 0.16704074
0.0063393167 0.07564603 0.10145878 0.10881008 0.117618114 0.09310089 0.12835397 0.1163159
0.035710864 0.068538226 0.094196685 0.087514594 0.096418746 0.014310863 0.052141376 0.09162048
0.107686065 0.14355032 0.15636061 0.08304508 0.08830794 0.04877138 0.12617436 0.10088772
0.0902408 0.06808354 0.09216608 0.107077494 0.08138181 0.07550639 0.120859616 0.06529047
0.1011638 0.11364463 0.10278299 0.14687607 0.11252777 0.050651003 0.06003678 0.17570528
0.04608059 0.05184221 0.081531465 0.08275814 0.055663686 0.11816848 0.10642182 0.033321973
0.06918284 0.08900828 0.08424846 0.101227514 -0.01014278 0.09529853 0.093692206 0.1572587
0.11963194 0.11364391 0.10268507 0.08471341 0.05236814 0.080128886 -0.0074786674 0.092434935
0.11560286 0.07745067 0.124684334 0.06495351 0.18250957 0.0861104 0.07592301 0.15935083
-0.013076119 0.095611215 0.1363922 0.15265164 0.1118348 0.009822446 0.05328177 0.09903796
0.08942978 0.16762552 0.05310249 0.04055138 0.09081475 0.08851261 0.1122465 0.14569455
0.12902632 0.077469245 0.15020852 0.124985486 0.01866192 0.013680759 0.047506653 0.06735096
0.16799523 0.12458441 0.07951586 0.026913121 0.074556135 0.058538817 0.074724145 0.1430091
0.11635665 0.11593672 0.09893811 0.13078901 0.071872346 0.06124042 0.07140134 0.07372668
0.09428859 0.095854275 0.16715601 0.0043029278 0.117363036 0.18118249 0.15359342 0.087891005
0.08868061 0.087723084 0.121031925 0.08776061 0.08283599 0.12143496 0.09779009 0.13491113
0.124802634 0.06847638 0.10451978 0.09009227 0.12943062 0.16999139 0.13101286 0.08848304
0.10606879 0.10134527 0.1572358 0.078485996 0.07493901 0.071961686 0.11915445 0.06815776
0.1538093 0.007756265 0.113238916 0.09923049 0.18059117 0.119338796 0.013345622 0.06649239
0.08942765 0.1435863 0.07929843 0.19072533 0.03974272 0.02069033 0.09146042 0.02964042
0.037914515 0.04511654 -0.032127757 0.11809795 0.1086167 0.025508974 0.021272596 0.11236808
0.0030881672 0.087514706 0.07255768 0.088545024 0.13417299 0.12198725 0.049726732 0.12740621
0.11799624 0.06762079 0.0608344 0.11274851 0.11393347 0.020574994 0.09798899 0.10213485
0.039461337 0.13203166 -0.022863304 0.049041104 0.11885062 0.08097208 0.0961343 0.11868529
0.09172402 0.04813577 0.08977399 0.11291215 0.091968566 0.14171353 0.09224815 0.14189817
0.07220663 0.1427337 0.076169506 0.08518271 0.09380574 0.08475225 0.15665169 0.0672575
0.12889393 0.10845238 0.0067487108 0.09734757 0.12129563 0.11439432 0.13083825 0.06050647
0.10383763 0.12336291 0.11033631 0.12867296 -0.008038179 0.02724231 0.09331572 0.024646621
0.10771404 0.10927763 0.09823146 0.10207294 0.08286118 0.13238654 0.055104464 0.10800237
00000000: 05a2 5d3e 42e0 d63d 7567 163e cfbd 013e
00000010: 3035 573d 7abb a03d a746 dd3d 65c2 cc3d
00000020: d3a4 5f3d a04d cf3d ba5c f33d 0a8b f73d
00000030: 005d 6a3d b36e 863c 6047 d13d 3c8b 653d
00000040: 2182 6f3d ba7a e23d 7dc2 143d 0110 e13d
00000050: a400 153d 6395 dc3d ebf7 8c3d ba0c 2b3e
00000060: 0bba cf3b 4eec 9a3d 9fc9 cf3d d2d7 de3d
00000070: c4e1 f03d aeab be3d 396f 033e 0837 ee3d
00000080: 8e45 123d c55d 8c3d 31ea c03d da3a b33d
00000090: 3177 c53d 1c78 6a3c 3292 553d 85a3 bb3d
000000a0: 838a dc3d dbfe 123e ff1c 203e 8a13 aa3d
000000b0: cbda b43d 80c4 473d da33 013e 399e ce3d
000000c0: 2bd0 b83d 626f 8b3d 92c1 bc3d 724b db3d
000000d0: 82ab a63d 18a3 9a3d 3f85 f73d 03b7 853d
000000e0: f72e cf3d 84be e83d e37f d23d ae66 163e
000000f0: f674 e63d 6d77 4f3d 20e9 753d 16ec 333e
00000100: 00bf 3c3d 7f58 543d f8f9 a63d 1a7d a93d
00000110: 9bff 633d 5102 f23d aff3 d93d 9f7c 083d
00000120: bcaf 8d3d f949 b63d 758a ac3d 5f50 cf3d
00000130: e72d 26bc e02b c33d b3e1 bf3d 6d08 213e
00000140: 9701 f53d 23be e83d 8d4c d23d 397e ad3d
00000150: fa7f 563d 9d1a a43d 9c0f f5bb 874e bd3d
00000160: 31c1 ec3d 759e 9e3d 805a ff3d 5906 853d
00000170: cae3 3a3e a65a b03d 867d 9b3d dd2c 233e
00000180: 383d 56bc d0cf c33d 66aa 0b3e b650 1c3e
00000190: a509 e53d 53ee 203c fc3d 5a3d 6ad4 ca3d
000001a0: f626 b73d 06a6 2b3e ff81 593d 3419 263d
000001b0: 15fd b93d 1946 b53d 7ee1 e53d f430 153e
000001c0: 7a1f 043e 32a8 9e3d 43d0 193e 64f8 ff3d
000001d0: e2e0 983c 4325 603c 5696 423d 4def 893d
000001e0: f106 2c3e 1c26 ff3d 36d9 a23d e878 dc3c
000001f0: e3b0 983d 66c6 6f3d f908 993d fa70 123e
00000200: 654c ee3d 3b70 ed3d 10a0 ca3d 8eed 053e
00000210: cf31 933d 3cd7 7a3d de3a 923d 03fe 963d
00000220: 601a c13d 3f4f c43d f22a 2b3e 93ff 8c3b
00000230: 085c f03d e787 393e 9847 1d3e 3300 b43d
00000240: 2e9e b53d 29a8 b33d 96df f73d d6bb b33d
00000250: eaa5 a93d e4b2 f83d 2c46 c83d 2526 0a3e
00000260: 8698 ff3d 583d 8c3d 770e d63d 4c82 b83d
00000270: 7689 043e 3912 2e3e 3c28 063e 9936 b53d
00000280: 983a d93d 1c8e cf3d 6c02 213e 44bd a03d
00000290: a079 993d a660 933d 4007 f43d 4c96 8b3d
000002a0: 2f80 1d3e 4428 fe3b cee9 e73d 5b39 cb3d
000002b0: e4ec 383e e667 f43d 99a7 5a3c 2a2d 883d
000002c0: d825 b73d 4908 133e 3767 a23d 804d 433e
000002d0: 43c9 223d c47e a93c 9a4f bb3d 77d0 f23c
000002e0: 404c 1b3d 1fcc 383d 6598 03bd 57dd f13d
000002f0: 6f72 de3d 32f8 d03c de43 ae3c 3c21 e63d
00000300: d962 4a3b e93a b33d 1f99 943d 1857 b53d
00000310: a564 093e 74d4 f93d 42ae 4b3d c676 023e
00000320: 03a8 f13d c57c 8a3d 7e2d 793d b1e8 e63d
00000330: f355 e93d e48c a83c 74ae c83d 142c d13d
00000340: 36a2 213d 4f33 073e d34b bbbc 53df 483d
00000350: f467 f33d b1d4 a53d 0fe2 c43d 4611 f33d
00000360: ced9 bb3d 032a 453d 6ddb b73d 7c3e e73d
00000370: 045a bc3d 5a1d 113e 99ec bc3d c14d 113e
00000380: 12e1 933d c828 123e c2fe 9b3d 4674 ae3d
00000390: 391d c03d 9692 ad3d 4d69 203e 4dbe 893d
000003a0: c5fc 033e 481c de3d 4a24 dd3b 2a5e c73d
000003b0: d869 f83d 9247 ea3d 76fa 053e a2d5 773d
000003c0: d3a8 d43d b1a5 fc3d 01f8 e13d d8c2 033e
000003d0: 91b2 03bc 442b df3c 501c bf3d b6e7 c93c
000003e0: 2e99 dc3d f3cc df3d 932d c93d 9e0b d13d
000003f0: 1fb3 a93d 5690 073e 38b5 613d 5930 dd3d

batch_norms.0.bias f4 [256]
-0.19103861 -0.087666705 -0.10477146 -0.10862159 -0.02581457 -0.024325702 -0.09013817 -0.060725342
-0.05220967 -0.059535503 -0.0852291 -0.18537895 -0.016356295 -0.035169642 -0.030528741 -0.09209702
-0.051362745 -0.05214864 0.003178069 -0.118924074 -0.02613702 -0.081410795 0.011276214 -0.09817527
-0.10285593 -0.023896955 -0.09753381 -0.08094183 -0.046064895 -0.08687676 -0.018080644 -0.060899638
-0.01958016 -0.07886931 -0.032292772 -0.026278824 -0.049892448 -0.12279219 -0.0791001 -0.053043935
-0.11120526 -0.15075539 -0.13494495 -0.0478643 -0.098900534 -0.074554265 -0.055798355 -0.122722365
-0.07646644 -0.05582781 -0.073460385 -0.036789 -0.09565038 -0.08448914 -0.03919862 -0.048615593
-0.017655749 -0.060609385 -0.10612376 -0.046905115 -0.02599334 -0.01659341 -0.034007024 -0.11500553
-0.10253209 -0.061609384 -0.05601853 -0.06124995 0.010601971 -0.092808865 -0.09160894 -0.0420308
-0.059109192 -0.042612787 -0.069718294 -0.082006 -0.06708201 -0.08663789 -0.072683066 -0.16683061
-0.08051129 -0.0016631526 -0.06511698 -0.08233605 -0.030598888 -0.052793395 -0.10414777 -0.053020153
-0.032762058 -0.044722207 -0.03536641 -0.07127738 -0.094994724 -0.039356247 -0.09728215 -0.045566436
-0.018487466 -0.069903105 -0.073666066 -0.08981501 -0.079407066 -0.11855322 -0.010535356 -0.067336276
-0.043421585 -0.1425661 -0.0886599 -0.03998268 -0.077591345 -0.06457072 -0.051963087 -0.10348035
-0.081835814 0.003947856 -0.06087089 -0.05346886 -0.05223517 -0.10651597 -0.05460192 -0.037828583
-0.14090377 -0.035402223 -0.056578867 -0.05588181 -0.081920415 -0.04913572 -0.0613751 -0.12192369
-0.0751756 -0.06935607 -0.0255345 -0.088670366 -0.011899614 -0.025127849 -0.05507592 -0.06150766
-0.013183924 -0.09078501 -0.11317097 -0.05637487 -0.082898065 -0.15068881 -0.20446406 -0.07553979
-0.042138774 -0.05977718 -0.108783394 -0.037125807 -0.090852655 -0.010993199 -0.059424758 -0.10459625
-0.07605088 -0.020647475 -0.061374217 -0.067857124 -0.07610352 -0.02634076 -0.11610163 -0.02789488
-0.05561156 -0.078565985 -0.16681407 -0.00090420555 -0.038171336 -0.07583985 -0.07954422 -0.032053616
-0.116361335 -0.14326897 -0.07753268 -0.06548989 -0.1141825 -0.06113593 -0.007258203 -0.04795406
-0.056287218 -0.12325191 0.022577925 -0.14208892 -0.18445961 -0.0772712 -0.04554622 -0.009892877
-0.068058446 -0.10324376 -0.057541523 -0.080342375 -0.05867085 -0.047628958 -0.099633366 -0.057693772
-0.08110583 -0.07861851 -0.092193045 -0.08085028 -0.091820635 -0.10446904 -0.083838955 -0.06438431
-0.0618818 -0.058968734 -0.059817236 -0.105126664 -0.10717845 -0.025921104 -0.008423023 -0.14320366
-0.031941127 -0.07633535 -0.019070614 -0.04075221 -0.08284186 -0.11711915 -0.09064764 -0.04975092
-0.10228257 -0.06095624 -0.063527994 -0.03277701 -0.01593009 -0.07506145 -0.026880924 -0.086417705
-0.042252414 -0.07949155 -0.037932266 -0.058651507 -0.10206469 -0.13564293 -0.13616739 -0.08146313
-0.08328641 -0.11763375 -0.06472898 -0.039808277 -0.0706657 -0.0867964 -0.095714286 -0.027776953
-0.0841422 -0.1163444 -0.04320849 -0.09714095 -0.0463952 -0.08468518 -0.09154405 -0.007951054
-0.05040051 -0.058624193 -0.10729489 -0.02909752 -0.08108334 -0.15844123 -0.050534774 -0.08003879
00000000: a09f 43be 9a8a b3bd 6b92 d6bd ff74 debd
00000010: 1479 d3bc b246 c7bc 5c9a b8bd 23bb 78bd
00000020: cfd9 55bd 80db 73bd 988c aebd fbd3 3dbe
00000030: a3fd 85bc 0b0e 10bd 6917 fabc 5d9d bcbd
00000040: be61 52bd d099 55bd 2647 503b 778e f3bd
00000050: 4e1d d6bc b4ba a6bd dfbf 383c 1e10 c9bd
00000060: 21a6 d2bd 8cc3 c3bc cebf c7bd d5c4 a5bd
00000070: 8bae 3cbd 71ec b1bd dc1d 94bc e671 79bd
00000080: 9266 a0bc 3c86 a1bd 6d45 04bd b046 d7bc
00000090: 065c 4cbd 797a fbbd 3cff a1bd 9944 59bd
000000a0: 95bf e3bd 9f5f 1abe 022f 0abe 5b0d 44bd
000000b0: 5d8c cabd e8af 98bd d18c 64bd dd55 fbbd
000000c0: 709a 9cbd b4ab 64bd 6672 96bd 10b0 16bd
000000d0: 59e4 c3bd a408 adbd bb8e 20bd 2521 47bd
000000e0: caa2 90bc 8c41 78bd 6a57 d9bd 941f 40bd
000000f0: fcef d4bc e7ee 87bc f34a 0bbd 0588 ebbd
00000100: 58fc d1bd 1f5a 7cbd b073 65bd 3ae1 7abd
00000110: e4b3 2d3c 9312 bebd 789d bbbd 7d28 2cbd
00000120: 7b1c 72bd bf8a 2ebd 77c8 8ebd c3f2 a7bd
00000130: 4b62 89bd 356f b1bd dcda 94bd a5d5 2abe
00000140: 1ae3 a4bd 24fe d9ba 0d5c 85bd ce9f a8bd
00000150: 85aa fabc e33d 58bd 6d4b d5bd a92b 59bd
00000160: 8231 06bd a22e 37bd 5edc 10bd e0f9 91bd
00000170: 988c c2bd 0434 21bd dd3b c7bd dfa3 3abd
00000180: 0773 97bc 5c29 8fbd 3cde 96bd eff0 b7bd
00000190: 2ca0 a2bd 08cc f2bd 7c9c 2cbc 9ae7 89bd
000001a0: d5da 31bd d9fc 11be 5293 b5bd e1c4 23bd
000001b0: 36e8 9ebd a73d 84bd 3fd7 54bd 81ed d3bd
000001c0: 8999 a7bd 045d 813b c153 79bd 2a02 5bbd
000001d0: 8cf4 55bd 0b25 dabd 43a6 5fbd 25f2 1abd
000001e0: 1449 10be ec01 11bd 3ebf 67bd 53e4 64bd
000001f0: e4c5 a7bd 8942 49bd 7564 7bbd 21b3 f9bd
00000200: aaf5 99bd 8e0a 8ebd ba2d d1bc cf98 b5bd
00000210: 99f6 42bc ebd8 cdbc 4a97 61bd 75ef 7bbd
00000220: 6301 58bc 7eed b9bd 2ec6 e7bd 56e9 66bd
00000230: 76c6 a9bd 2b4e 1abe 075f 51be 9bb4 9abd
00000240: b599 2cbd ebd8 74bd d4c9 debd 3b11 18bd
00000250: f510 babd d21c 34bc 6067 73bd 8f36 d6bd
00000260: 90c0 9bbd e524 a9bc 8863 7bbd adf8 8abd
00000270: 2adc 9bbd 94c8 d7bc b1c6 edbd ce83 e4bc
00000280: f2c8 63bd 34e7 a0bd 4fd1 2abe 3508 6dba
00000290: 8c59 1cbd ec51 9bbd 14e8 a2bd a74a 03bd
000002a0: da4e eebd 1ab5 12be 74c9 9ebd 901f 86bd
000002b0: 84d8 e9bd ab69 7abd 38d6 edbb 7a6b 44bd
000002c0: 6d8d 66bd 7f6b fcbd 57f5 b83c c27f 11be
000002d0: fbe2 3cbe 5d40 9ebd ac8e 3abd bc15 22bc
000002e0: 3a62 8bbd 7771 d3bd a9b0 6bbd 8b8a a4bd
000002f0: d850 70bd 9516 43bd 940c ccbd 4e50 6cbd
00000300: d01a a6bd be02 a1bd b5cf bcbd d594 a5bd
00000310: 750c bcbd ddf3 d5bd c2b3 abbd ecdb 83bd
00000320: c577 7dbd 3389 71bd eb02 75bd a64c d7bd
00000330: 6080 dbbd 7f58 d4bc b800 0abc fba3 12be
00000340: b3d4 02bd b555 9cbd fa39 9cbc caeb 26bd
00000350: fea8 a9bd 2adc efbd 78a5 b9bd 9fc7 4bbd
00000360: 8679 d1bd 40ad 79bd f71a 82bd 3041 06bd
00000370: d27f 82bc d1b9 99bd 6235 dcbc c4fb b0bd
00000380: de10 2dbd 77cc a2bd dd5e 1bbd 903c 70bd
00000390: 4b07 d1bd fbe5 0abe 776f 0bbe 24d6 a6bd
000003a0: 1192 aabd f7e9 f0bd a190 84bd 010e 23bd
000003b0: 2eb9 90bd 50c2 b1bd da05 c4bd 7e8c e3bc
000003c0: bf52 acbd f945 eebd 63fb 30bd d6f1 c6bd
000003d0: e508 3ebd 6c6f adbd 727b bbbd 2345 02bc
000003e0: c470 4ebd ec1f 70bd 6cbd dbbd ec5d eebc
000003f0: 060f a6bd 6b3e 22be 8dfd 4ebd 61eb a3bd

batch_norms.0.running_mean f4 [256]
0.04720232 0.021557065 0.009583129 0.07587103 -0.0077106943 0.098228596 0.031182513 -0.062561624
-0.03920101 0.010100671 -0.030616803 0.09944176 0.082180105 -0.043661945 0.038926583 -0.013680886
0.091542736 0.019675532 0.0023490025 0.15656637 0.021083664 0.02542339 0.06871748 0.05086489
0.07339449 0.05063132 -0.014196321 0.07291617 0.06112084 0.026974903 0.0015670068 0.004948003
-0.04121699 0.019532146 -0.060956195 0.010151912 0.0018992566 -0.0347674 -0.0033360755 0.010814291
0.046332315 -0.012608226 0.015690994 0.045212545 -0.015683554 -0.027449293 -0.073121935 0.20547116
0.050949886 -0.044642877 0.078413285 0.13010791 0.10622197 0.03414031 0.17200527 -0.044074297
0.094363235 0.0033218616 0.06161684 0.22398672 0.06992466 0.10984715 0.07443923 0.07746092
0.042558 0.04640742 0.12257891 0.035825808 -0.007124154 -0.020029046 0.025789224 0.004284089
-0.02650016 -0.03415787 -0.12557748 -0.005987181 -0.003481343 0.1181046 0.056682583 0.074712455
0.114403516 0.11241054 -0.108419254 0.02187926 0.109874144 -0.01885452 -0.074455775 0.07120688
0.032267712 0.039782315 0.115622975 0.06241275 0.09709384 0.14309463 -0.0063732304 0.13043156
0.030394543 -0.050032288 0.031764805 0.08372346 0.023451462 -0.007791027 -0.06428178 0.12582496
0.07015606 0.0050651887 0.046275552 -0.0040635946 0.00917645 0.025786625 0.085217625 -0.0061748507
-0.007581859 0.09772658 -0.018340094 -0.030977324 0.1439345 0.016855858 0.057493575 -0.010153307
0.09003763 0.049689148 0.04642524 0.01644781 -0.0042885756 0.15042779 0.05280158 0.006760452
0.0974798 0.18314758 0.085152246 -0.041272882 0.09368376 -0.005464394 0.09422475 0.025007604
0.15598126 -0.07192133 0.04527896 -0.02857267 0.011848237 0.089201376 0.079588644 0.06358151
-0.036340255 0.07717138 -0.039417725 0.07849002 0.04549152 0.08031504 0.023914224 0.1178931
0.038465742 0.055585764 0.03020822 0.09335622 5.660914e-05 0.14355312 -0.0049300482 0.040089726
0.059263058 0.03265021 0.14411311 -0.04978606 0.089716 0.053354427 0.010955924 -0.023514679
0.015271248 -0.0035902974 -0.07419767 -0.005424736 0.022877967 0.0147792185 0.117240705 0.011291405
0.043144017 0.03916095 0.019383907 -0.039350368 0.123243965 0.102564305 -0.026983626 -0.00053691096
-0.04799282 -0.041224204 0.06349823 0.08082081 -0.021219514 -0.04118949 0.11840178 0.03303318
0.037581235 0.04182965 0.04281796 -0.033805177 -0.1530643 0.036988657 -0.017993001 0.12370876
0.01634063 -0.05849596 -0.011789873 0.07565773 -0.048511706 0.029490229 0.097547464 0.07355025
0.045356918 0.012184111 0.04364374 0.0053290017 -0.036842603 -0.013452136 -0.040993713 0.09005422
-0.03653367 -0.032109182 -0.0003347559 0.100847445 0.020020252 -0.021019965 0.12361488 0.017503377
-0.037950292 0.068685494 0.001232661 0.014312299 -0.040163405 0.12152004 -0.03670459 -0.001743112
-0.036274243 0.04059282 -0.05389831 0.19583558 -0.10417591 0.032034434 -0.092544094 -0.012815901
-0.0015800863 0.040558986 0.13030776 0.030476341 0.033547953 -0.03783927 -0.000516495 -0.011601936
0.07660774 0.020792408 0.04058276 0.013556234 0.11980325 0.14940056 0.025992746 0.12286854
00000000: 3857 413d 7198 b03c 8e02 1d3c 4562 9b3d
00000010: fea9 fcbb 132c c93d 7872 ff3c 4f20 80bd
00000020: 3d91 20bd 497d 253c 17d0 fabc 1fa8 cb3d
00000030: 0b4e a83d ded6 32bd 7b71 1f3d cb25 60bc
00000040: c27a bb3d 952e a13c b9f1 193b ef52 203e
00000050: a6b7 ac3c b744 d03c c0bb 8c3d b457 503d
00000060: da4f 963d c962 4f3d b097 68bc 1355 953d
00000070: d959 7a3d 79fa dc3c 0664 cd3a dc22 a23b
00000080: 26d3 28bd e101 a03c 34ad 79bd 3554 263c
00000090: 7af0 f83a 4368 0ebd 0fa2 5abb 6d2e 313c
000000a0: f4c6 3d3d bc92 4ebc 668a 803c ca30 393d
000000b0: cc7a 80bc 57dd e0bc f4c0 95bd 0867 523e
000000c0: d4b0 503d 73db 36bd 2597 a03d 023b 053e
000000d0: e78a d93d b6d6 0b3d 2622 303e 4087 34bd
000000e0: 8341 c13d 97b3 593b f161 7c3d c65c 653e
000000f0: a934 8f3d 8bf7 e03d 9873 983d d5a3 9e3d
00000100: 4c51 2e3d b515 3e3d a70a fb3d 15be 123d
00000110: bc71 e9bb f413 a4bc ec43 d33c 8b61 8c3b
00000120: dd16 d9bc 1fe9 0bbd 6297 00be 1d30 c4bb
00000130: 3e27 64bb d3e0 f13d ff2b 683d d802 993d
00000140: 644c ea3d 7f37 e63d ea0a debd 223c b33c
00000150: b205 e13d cb74 9abc 457c 98bd ead4 913d
00000160: 262b 043d c8f2 223d bdcb ec3d 83a4 7f3d
00000170: 23d9 c63d 6687 123e 88d6 d0bb da8f 053e
00000180: fafd f83c a8ee 4cbd d01b 023d 3577 ab3d
00000190: 481d c03c df4b ffbb 2aa6 83bd 42d8 003e
000001a0: fbad 8f3d e2f9 a53b 6f8b 3d3d e727 85bb
000001b0: d258 163c 793e d33c 9486 ae3d 6756 cabb
000001c0: 3e71 f8bb e024 c83d f73d 96bc 28c4 fdbc
000001d0: 9163 133e 4c15 8a3c 627e 6b3d 0e5a 26bc
000001e0: a665 b83d d986 4b3d 6428 3e3d 8fbd 863c
000001f0: 2e87 8cbb be09 1a3e 7846 583d c886 dd3b
00000200: 7da3 c73d 0a8b 3b3e 4d64 ae3d c10d 29bd
00000210: 45dd bf3d a90e b3bb e8f8 c03d bfdc cc3c
00000220: 8db9 1f3e 7e4b 93bd 6e76 393d 3b11 eabc
00000230: 1c1f 423c 36af b63d 5fff a23d 0637 823d
00000240: 85d9 14bd 070c 9e3d 7b74 21bd 60bf a03d
00000250: 5155 3a3d 367c a43d c3e7 c33c f071 f13d
00000260: 418e 1d3d e6ad 633d 3b77 f73c 8c31 bf3d
00000270: 9a6f 6d38 97ff 123e 3e8c a1bb 2035 243d
00000280: d2bd 723d 3abc 053d 6392 133e 78ec 4bbd
00000290: 06bd b73d 2c8a 5a3d 7a80 333c dba1 c0bc
000002a0: 4234 7a3c 324b 6bbb f3f4 97bd fcc1 b1bb
000002b0: 936a bb3c 8924 723c e51b f03d 96ff 383c
000002c0: c8b7 303d 3b67 203d 00cb 9e3c da2d 21bd
000002d0: 5567 fc3d 3c0d d23d c40c ddbc 7cbf 0cba
000002e0: 1f94 44bd b6da 28bd 5c0b 823d 6185 a53d
000002f0: 8cd4 adbc 50b6 28bd a27c f23d cd4d 073d
00000300: c8ee 193d 9155 2b3d e361 2f3d 4c77 0abd
00000310: e3bc 1cbe 6b81 173d 0f66 93bc 055b fd3d
00000320: c9dc 853c 7699 6fbd 502a 41bc 71f2 9a3d
00000330: 36b4 46bd 7e95 f13c f7c6 c73d 83a1 963d
00000340: 2dc8 393d de9f 473c c7c3 323d e89e ae3b
00000350: 45e8 16bd 5966 5cbc 06e9 27bd 596e b83d
00000360: 54a4 15bd eb84 03bd 2d82 afb9 1b89 ce3d
00000370: 8301 a43c 1032 acbc cc29 fd3d 3e63 8f3c
00000380: c471 1bbd fbaa 8c3d 3d91 a13a 227e 6a3c
00000390: 6282 24bd 80df f83d 8d57 16bd 2279 e4ba
000003a0: 4d94 14bd a844 263d 79c4 5cbd 1f89 483e
000003b0: 2e5a d5bd 8a36 033d c287 bdbd c9f9 51bc
000003c0: e61a cfba 2e21 263d 666f 053e 85a9 f93c
000003d0: 9469 093d 5afd 1abd 6565 07ba 0c16 3ebc
000003e0: 85e4 9c3d d754 aa3c 1c3a 263d f71a 5e3c
000003f0: 685b f53d 76fc 183e bdee d43c 80a2 fb3d

batch_norms.0.running_var f4 [256]
0.0027679703 0.003171344 0.0015556682 0.0010787168 0.00075009104 0.0016205072 0.0029555387 0.0028461707
0.0017095185 0.0030609726 0.001655917 0.0017624297 0.00096541364 0.0018603258 0.003101964 0.0022921814
0.0029971118 0.004149553 0.0025470196 0.0010223167 0.0011943645 0.0014334024 0.002085087 0.0029716014
0.0024073052 0.0017789651 0.0031037834 0.0013227874 0.0031581018 0.0013628238 0.003482772 0.0037455116
0.00094195147 0.0007784339 0.002772919 0.0040077795 0.0007905353 0.0008870801 0.0026569339 0.0013068281
0.0031908753 0.002983625 0.0029826781 0.0012010703 0.00092735025 0.0009438374 0.0040726284 0.0029882551
0.0008757306 0.0015947999 0.0017272403 0.0022103167 0.0051937597 0.0017855751 0.0011425377 0.001029763
0.003699643 0.0027529954 0.002471082 0.0020910455 0.0025953064 0.0015039719 0.0032493141 0.0018859217
0.0032893934 0.0029231552 0.0007578248 0.001570218 0.0016809994 0.0034143827 0.0019487301 0.0035341415
0.0019392542 0.0020393005 0.0012413894 0.0020663182 0.00063451997 0.0022233515 0.0016792855 0.0010763401
0.0020282546 0.0038709876 0.003747886 0.0032692733 0.0063786563 0.0038615603 0.0033352494 0.0025565326
0.0015018133 0.0024347433 0.0013337818 0.0008440239 0.0031569938 0.0025895368 0.002125658 0.0023939086
0.0016096458 0.00331692 0.0014584766 0.0018663311 0.0016572356 0.0018406301 0.0024734105 0.0034631651
0.005185778 0.001598181 0.0018532849 0.0009003214 0.0034510726 0.0013437294 0.0027221804 0.0012854625
0.0047836616 0.0036182345 0.0040258034 0.0024324616 0.004175593 0.0033632123 0.0016303078 0.0020550005
0.0011743982 0.0017283366 0.00041380068 0.00221451 0.0042781243 0.00344605 0.0010657101 0.0018761131
0.0021116773 0.0050810394 0.0026467904 0.0038937281 0.0016313461 0.0018120426 0.0023379931 0.0011905277
0.009949885 0.0022172083 0.004031444 0.00080276147 0.0030052722 0.0017731606 0.0010518993 0.0026222488
0.0039060768 0.001315768 0.0038512447 0.0013344481 0.0025347618 0.003542584 0.0019084448 0.001067987
0.0024049422 0.00231991 0.002877592 0.0027655477 0.0031441243 0.002909316 0.0015388232 0.0019667028
0.0010577036 0.0013110264 0.0019148109 0.0021004423 0.0022498306 0.0014137875 0.0021634202 0.001419824
0.0027571155 0.0048697987 0.0024224026 0.0019766323 0.0013971215 0.0024512091 0.0044003865 0.0016677403
0.00343877 0.0015564193 0.0012308275 0.0044737994 0.0053515593 0.0025837214 0.001982015 0.002251251
0.0019464112 0.002864863 0.0013103206 0.001231007 0.002962187 0.0019509974 0.0032012782 0.0015843129
0.0016366228 0.0018277335 0.0017901269 0.00217193 0.004077949 0.0025124555 0.0021845028 0.0012516251
0.0016834086 0.0023374946 0.0018527614 0.000842666 0.0021018672 0.0007072371 0.0023941314 0.0005822751
0.0016433302 0.0017828238 0.00067822257 0.001117157 0.0020247018 0.0031945196 0.0007788369 0.004648694
0.0026425957 0.0015271433 0.0027746805 0.0021297657 0.003215442 0.0022256686 0.0026421042 0.0031168133
0.002447694 0.0026971502 0.0008353404 0.004220431 0.0033771712 0.0034032024 0.003864028 0.0010521115
0.0013943202 0.0013528074 0.0022567736 0.0042222566 0.006699107 0.0021094636 0.0016788864 0.0006653488
0.002235282 0.0017462816 0.0019600815 0.0054691294 0.00043097237 0.0042370535 0.0028785244 0.001085389
0.0036599583 0.0017517522 0.0006355032 0.0035643966 0.005386936 0.0016616787 0.0037784535 0.0023727855
00000000: d666 353b 53d6 4f3b 90e7 cb3a bb63 8d3a
00000010: c2a1 443a 3367 d43a b6b1 413b d286 3a3b
00000020: ec11 e03a 999a 483b 5b0b d93a 5401 e73a
00000030: d013 7d3a 2dd6 f33a 524a 4b3b 6c38 163b
00000040: 316b 443b f9f8 873b e6eb 263b 42ff 853a
00000050: 398c 9c3a 01e1 bb3a f4a5 083b 33bf 423b
00000060: e1c3 1d3b 2a2c e93a d868 4b3b 6161 ad3a
00000070: 28f8 4e3b c7a0 b23a 383f 643b 4277 753b
00000080: 4bed 763a d10f 4c3a dcb9 353b b153 833b
00000090: ed3b 4f3a f08a 683a f41f 2e3b e049 ab3a
000000a0: 011e 513b ec88 433b 0979 433b 3b6d 9d3a
000000b0: 6c19 733a db6b 773a af73 853b 9ad6 433b
000000c0: 4991 653a 9b08 d13a 9164 e23a f6da 103b
000000d0: 6a30 aa3b f509 ea3a 34c1 953a 1df9 863a
000000e0: b675 723b 996b 343b e0f1 213b ec09 093b
000000f0: 0416 2a3b ec20 c53a 72f2 543b 0831 f73a
00000100: dd92 573b 6892 3f3b c3a8 463a c6cf cd3a
00000110: fb54 dc3a d6c3 5f3b 886c ff3a 0e9d 673b
00000120: 932e fe3a c9a5 053b 1eb6 a23a 116b 073b
00000130: ea55 263a a6b5 113b 791b dc3a fb13 8d3a
00000140: 77ec 043b 65b0 7d3b 189f 753b 4e41 563b
00000150: 0c04 d13b 3b12 7d3b 3394 5a3b 808b 273b
00000160: 7ed8 c43a 3790 1f3b 4ad2 ae3a 7c41 5d3a
00000170: 91e5 4e3b 38b5 293b a04e 0b3b 1fe3 1c3b
00000180: c0fa d23a af60 593b 5b2a bf3a ae9f f43a
00000190: 9937 d93a 4c41 f13a f118 223b 45f6 623b
000001a0: 75ed a93b 0e7a d13a ece9 f23a 8c03 6c3a
000001b0: 642b 623b 1420 b03a 9c66 323b f77c a83a
000001c0: 43c0 9c3b e71f 6d3b e3ea 833b ef69 1f3b
000001d0: 6ad3 883b 5769 5c3b 0db0 d53a 30ad 063b
000001e0: 44ee 993a 5a89 e23a 63f3 d839 5021 113b
000001f0: 822f 8c3b 20d7 613b 4caf 8b3a e9e7 f53a
00000200: 1164 0a3b d97e a63b c675 2d3b eb2d 7f3b
00000210: e4d2 d53a 0f82 ed3a 0439 193b 7b0b 9c3a
00000220: d804 233c 954e 113b 341a 843b 6970 523a
00000230: 1af4 443b 6669 e83a e2df 893a 09da 2b3b
00000240: 18fd 7f3b d975 ac3a 2a65 7c3b a6e8 ae3a
00000250: 3f1e 263b b22a 683b c824 fa3a b2fb 8b3a
00000260: 3c9c 1d3b a209 183b fc95 3c3b 313e 353b
00000270: a70d 4e3b 39aa 3e3b 57b2 c93a cce3 003b
00000280: a5a2 8a3a bfd6 ab3a 64fa fa3a 93a7 093b
00000290: e571 133b d64e b93a 2bc8 0d3b 6319 ba3a
000002a0: b9b0 343b d592 9f3b 2cc1 1e3b 638a 013b
000002b0: 9e1f b73a 77a4 203b 1e31 903b 1498 da3a
000002c0: fd5c 613b c400 cc3a b853 a13a f398 923b
000002d0: 225c af3b a753 293b b2e4 013b b989 133b
000002e0: b91e ff3a 6dc0 3b3b 10bf ab3a be59 a13a
000002f0: 4021 423b 9cb8 ff3a 89cc 513b b8a8 cf3a
00000300: f383 d63a 8f90 ef3a b1a2 ea3a f056 0e3b
00000310: 51a0 853b 02a8 243b e029 0f3b 920d a43a
00000320: d2a5 dc3a a730 193b 5bd8 f23a 5ce6 5c3a
00000330: 7bbf 093b e165 393a dce6 1c3b d2a3 183a
00000340: 0365 d73a a4ad e93a bfca 313a 926d 923a
00000350: dcb0 043b 255b 513b dc2a 4c3a 1254 983b
00000360: 662f 2d3b 6d2a c83a 6ad7 353b 8a93 0b3b
00000370: 2aba 523b 86dc 113b 2727 2d3b 7343 4c3b
00000380: 7e69 203b acc2 303b bffa 5a3a 8b4b 8a3b
00000390: 8853 5d3b 4308 5f3b a23b 7d3b 01e7 893a
000003a0: 9fc1 b63a af50 b13a 61e6 133b db5a 8a3b
000003b0: 2f84 db3b ed3e 0a3b 140e dc3a cd6a 2e3a
000003c0: cf7d 123b 7de3 e43a b674 003b 6236 b33b
000003d0: 22f4 e139 fbd6 8a3b a0a5 3c3b 9d43 8e3a
000003e0: e9db 6f3b 0d9b e53a e697 263a a798 693b
000003f0: e584 b03b afcc d93a ee9f 773b bc80 1b3b

batch_norms.1.weight f4 [128]
0.36284417 0.17893305 0.116558515 0.1940128 0.37690878 0.09629188 0.19677684 0.12930603
0.43259403 0.40292647 0.34420517 0.19986854 0.14347632 0.15127002 0.18908302 0.22208647
0.17150657 0.19832799 0.20733815 0.15474163 0.12814471 0.26830128 0.36814275 0.29461545
0.33815178 0.15341476 0.16469641 0.48612446 0.17401344 0.21585698 0.34089106 0.33725005
0.15881126 0.5075273 0.285231 0.22671974 0.12814938 0.21747103 0.26962477 0.22484437
0.15762232 0.13180077 0.3900944 0.3317401 0.101446696 0.3357461 0.11628492 0.22822344
0.18339317 0.13721068 0.32857546 0.16336137 0.4324515 0.49803188 0.21105985 0.28714502
0.17235434 0.23563236 0.14862886 0.2916525 0.11383309 0.44421092 0.48346755 0.19002427
0.15394618 0.21851684 0.5876394 0.15727732 0.12900601 0.14929944 0.38732547 0.18103404
0.13400178 0.1400346 0.17602247 0.35942733 0.36757997 0.44875672 0.14037022 0.16915703
0.1416837 0.18298523 0.13384832 0.14251238 0.1821826 0.33770415 0.16149706 0.353886
0.1630911 0.34714067 0.16741909 0.2885718 0.3003313 0.24896194 0.12496452 0.15234435
0.22361436 0.33086243 0.0783608 0.24884082 0.15766351 0.1378107 0.13846593 0.31362152
0.14791697 0.44903892 0.42616382 0.17748581 0.45305523 0.3352981 0.3407587 0.10204564
0.109740995 0.5240383 0.2292657 0.1779431 0.6041831 0.20903625 0.12339864 0.36089167
0.4617396 0.45357078 0.16702202 0.16250835 0.14931333 0.25933993 0.19333394 0.14441878
00000000: b6c6 b93e 3a3a 373e 3bb6 ee3d 4bab 463e
00000010: 30fa c03e ad34 c53d de7f 493e cd68 043e
00000020: f77c dd3e 614c ce3e a93b b03e 57aa 4c3e
00000030: 75eb 123e 87e6 1a3e fb9e 413e a36a 633e
00000040: 6b9f 2f3e 7e16 4b3e 7450 543e 9774 1e3e
00000050: 5e38 033e c95e 893e 357d bc3e d6d7 963e
00000060: 3b22 ad3e c218 1d3e 2da6 283e 4ee5 f83e
00000070: 9430 323e 9d09 5d3e 4689 ae3e 0aac ac3e
00000080: 6b9f 223e 4fed 013f cc09 923e 3829 683e
00000090: 9739 033e bab0 5e3e 420c 8a3e 9a3d 663e
000000a0: bf67 213e c8f6 063e 74ba c73e d7d9 a93e
000000b0: 49c3 cf3d eae6 ab3e ca26 ee3d 68b3 693e
000000c0: 6bcb 3b3e f580 0c3e 0b3b a83e 3448 273e
000000d0: 486a dd3e 09fe fe3e 1320 583e ac04 933e
000000e0: a87d 303e 9c49 713e 2a32 183e 7a53 953e
000000f0: 5321 e93d 9d6f e33e 0f89 f73e b995 423e
00000100: 11a4 1d3e e1c2 5f3e 896f 163f 4e0d 213e
00000110: 271a 043e f4e1 183e 864f c63e fd60 393e
00000120: c337 093e 3b65 0f3e 3c3f 343e dc06 b83e
00000130: 7133 bc3e 71c3 e53e 36bd 0f3e 8037 2d3e
00000140: 8815 113e 7b60 3b3e 890f 093e c4ee 113e
00000150: 138e 3a3e 8fe7 ac3e 7c5f 253e 8c30 b53e
00000160: 5a01 273e 6cbc b13e e96f 2b3e afbf 933e
00000170: 06c5 993e e1ef 7e3e 66ed ff3d 2800 1c3e
00000180: 2afb 643e cd66 a93e a17b a03d 21d0 7e3e
00000190: 8b72 213e 401e 0d3e 03ca 0d3e 0093 a03e
000001a0: 8c77 173e 6ee8 e53e 2532 da3e d7be 353e
000001b0: dbf6 e73e 31ac ab3e ed77 ae3e 4efd d03d
000001c0: e3bf e03d 6027 063f a1c4 6a3e b736 363e
000001d0: beab 1a3f 990d 563e 6db8 fc3d cbc6 b83e
000001e0: 2269 ec3e 6e3a e83e d207 2b3e 9768 263e
000001f0: 98e5 183e 34c8 843e 55f9 453e 84e2 133e

batch_norms.1.bias f4 [128]
-0.042448238 0.008779469 0.0042703697 -0.07176982 -0.05004737 -0.026518965 -0.06797828 -0.015911946
-0.079538666 -0.07617901 -0.019986495 0.0017575384 0.0007096424 -0.0058132177 -0.09394029 -0.064384855
-0.016771827 -0.094451435 -0.08406316 -0.055799082 -0.032526247 -0.057945456 -0.041075606 -0.048931867
-0.046028994 -0.04104369 0.02096193 -0.05330539 -0.048711 -0.0050336597 -0.12152816 -0.067601874
-0.009483397 -0.07675797 -0.062811695 -0.017957916 -0.021556424 -0.057759833 0.0046360972 -0.08812209
-0.01145246 -0.022222126 -0.0110818455 -0.052722797 -0.056462917 -0.053948715 -0.05836519 0.0009748012
-0.016322298 -0.04112051 -0.06362878 -0.030039052 -0.06688423 -0.07649012 -0.025543673 -0.04196294
0.024579013 -0.018177327 -0.061558787 -0.05910184 -0.006816985 -0.044006057 -0.058768984 -0.005328023
-0.07087715 0.03792038 -0.05535232 -0.0029374533 -0.025987752 -0.06848072 -0.05367951 -0.047183238
-0.040785596 -0.066153854 -0.025755048 -0.08432905 -0.090341866 -0.06871628 -0.015567732 -0.06502847
-0.10295915 -0.040047098 0.010840176 -0.024964254 -0.069727674 -0.054844975 -0.000728449 -0.104023516
0.00847463 -0.064507805 0.014928826 -0.021356538 -0.02248222 -0.056752704 -0.004174236 -0.007052525
-0.046133094 -0.008389897 0.006789951 -0.13318756 -0.07225367 -0.0055841273 -0.025825417 -0.0255639
-0.028153455 -0.06666461 -0.04383549 -0.03073132 -0.08292971 -0.0801047 -0.069070056 0.0057984483
-0.0084537715 -0.04079977 0.045330476 0.02866184 -0.04478225 -0.06604794 0.014127137 -0.06144835
-0.07276721 -0.04037851 0.007752381 -0.053816885 -0.076932974 -0.04241463 -0.11081893 -0.006392787
00000000: 34de 2dbd c3d7 0f3c 75ee 8b3b 0efc 92bd
00000010: 79fe 4cbd 4d3e d9bc 3238 8bbd c559 82bc
00000020: 2be5 a2bd be03 9cbd b8ba a3bc 345d e63a
00000030: 4c07 3a3a ce7c bebb c463 c0bd 35dc 83bd
00000040: 1265 89bc c16f c1bd 4e29 acbd 948d 64bd
00000050: 3e3a 05bd 3758 6dbd e53e 28bd c86c 48bd
00000060: e688 3cbd 6e1d 28bd 5ab8 ab3c c156 5abd
00000070: 2f85 47bd 66f1 a4bb c2e3 f8bd da72 8abd
00000080: 4060 1bbc 4833 9dbd 6ba3 80bd 7b1c 93bc
00000090: 1997 b0bc 9395 6cbd 67ea 973b 5b79 b4bd
000000a0: 19a3 3bbc 2d0b b6bc a190 35bc dcf3 57bd
000000b0: a945 67bd 54f9 5cbd 5610 6fbd cd89 7f3a
000000c0: 57b6 85bc fb6d 28bd ce4f 82bd 7514 f6bc
000000d0: 99fa 88bd daa6 9cbd f740 d1bc 55e1 2bbd
000000e0: ed59 c93c 9ee8 94bc 1125 7cbd c514 72bd
000000f0: 0461 dfbb b23f 34bd bfb7 70bd b296 aebb
00000100: 0a28 91bd 6652 1b3d 1db9 62bd 4a82 40bb
00000110: 44e4 d4bc 9f3f 8cbd 0cdf 5bbd 3643 41bd
00000120: cc0e 27bd ac7b 87bd 40fc d2bc b5b4 acbd
00000130: 2805 b9bd 1fbb 8cbd cd0f 7fbc a52d 85bd
00000140: 3fdc d2bd 6d08 24bd fe9a 313c d681 ccbc
00000150: 62cd 8ebd 20a5 60bd 63f5 3eba 480a d5bd
00000160: 2dd9 0a3c ab1c 84bd 0998 743c e8f3 aebc
00000170: a22c b8bc 8675 68bd 08c8 88bb de18 e7bb
00000180: 0ef6 3cbd c775 09bc 3d7e de3b 5262 08be
00000190: bbf9 93bd 0efb b6bb d38f d3bc 626b d1bc
000001a0: 13a2 e6bc 7487 88bd d88c 33bd 40c0 fbbc
000001b0: 0dd7 a9bd ef0d a4bd 9a74 8dbd e900 be3b
000001c0: b081 0abc a91d 27bd 73ac 393d 3ccc ea3c
000001d0: 986d 37bd 2444 87bd 8275 673c 44b1 7bbd
000001e0: fa06 95bd f063 25bd af07 fe3b 186f 5cbd
000001f0: 098f 9dbd f7ba 2dbd 09f5 e2bd 967a d1bb

batch_norms.1.running_mean f4 [128]
-0.0072032562 -0.0077133803 -0.00370241 -0.025792228 0.0021408133 -0.02945744 -0.014013083 -0.0057629594
0.00079251005 -0.039013863 0.00068620866 -0.012187426 0.019148702 -0.0135944225 0.0020830443 -0.019478124
-0.0121305445 -0.007578913 -0.029919855 -0.01830502 0.006309296 -0.024652837 -0.01675106 -0.029348481
-0.04136837 -0.039178647 -0.0048707435 -0.073860444 -0.004971812 -0.017501757 -0.07587088 -0.03611373
-0.02044794 -0.033112746 0.03676417 -7.2898874e-05 -0.009038635 -0.05197252 0.004139698 -0.058918573
-0.008097472 0.0026766649 -0.010464972 -0.020809134 0.016294079 -0.022277152 -0.039703358 -0.027743017
-0.02826043 0.02690229 -0.06200215 -0.008191147 0.0010634442 -0.050775915 -0.011363314 0.022306213
-0.022765066 -0.03203589 -0.03486237 -0.046849787 -0.008325228 -0.021861145 -0.03728996 -0.017362228
0.018579952 -0.014643525 -0.06538375 -0.028979383 -0.0065730787 -0.01995022 -0.023966871 -0.0074558617
0.038166992 0.0010062273 -0.019806625 -0.06319215 0.021859376 -0.035044692 0.0069922837 -0.018147616
-0.032252144 -0.014874234 -0.010266985 0.010504541 -0.0102595715 -0.047890153 -0.0319955 -0.06639302
0.0057015494 -0.025635498 -0.008862946 -0.023528986 -0.027081205 0.0015761866 -0.018269189 -0.016528912
0.010050756 -0.009852667 -0.006484874 -0.035554215 -0.009406051 -0.003062209 0.019791592 -0.055259336
-0.017289292 -0.05008119 -0.010858446 -0.019097954 -0.04232087 0.0061746244 0.018580835 -0.003534206
-0.017465709 -0.015360703 -0.04152589 -0.012649627 -0.040264808 -0.010873011 -0.0097568035 0.021009795
-0.03721928 -0.044855602 0.0025623548 -0.0067859064 -0.01727099 -0.011997225 0.0022927548 0.0023947402
00000000: 4b09 ecbb 86c0 fcbb 22a4 72bb 394a d3bc
00000010: e34c 0c3b bb50 f1bc 2197 65bc 35d7 bcbb
00000020: 73c0 4f3a 00cd 1fbd afe2 333a c5ad 47bc
00000030: bddd 9c3c 24bb 5ebc af83 083b 9690 9fbc
00000040: 31bf 46bc 8858 f8bb 7c1a f5bc 69f4 95bc
00000050: 36be ce3b bff4 c9bc 8539 89bc 3a6c f0bc
00000060: e171 29bd ca79 20bd c29a 9fbb 2544 97bd
00000070: 95ea a2bb d85f 8fbc 3162 9bbd feeb 13bd
00000080: 7082 a7bc 3ba1 07bd 0796 163d 49e1 98b8
00000090: c816 14bc 23e1 54bd 4ea6 873b 9a54 71bd
000000a0: 42ab 04bc fc6a 2f3b 4675 2bbc eb77 aabc
000000b0: 297b 853c 937e b6bc fd9f 22bd 5345 e3bc
000000c0: 6b82 e7bc 3162 dc3c f7f5 7dbd 2934 06bc
000000d0: 4463 8b3a 68fa 4fbd 322d 3abc 85bb b63c
000000e0: ce7d babc 1138 03bd d8cb 0ebd 90e5 3fbd
000000f0: 8966 08bc 2516 b3bc 5bbd 18bd 3b3b 8ebc
00000100: fc34 983c 65eb 6fbc eae7 85bd 2c66 edbc
00000110: fb62 d7bb a56e a3bc 2c56 c4bc 4d50 f4bb
00000120: fe54 1c3d 63e3 833a 8141 a2bc e36a 81bd
00000130: 6f12 b33c 068b 0fbd 871f e53b 4faa 94bc
00000140: d31a 04bd 0fb3 73bc db36 28bc 3d1b 2c3c
00000150: c317 28bc 7728 44bd b70d 03bd 10f9 87bd
00000160: 10d4 ba3b 8901 d2bc e435 11bc dcbf c0bc
00000170: 67d9 ddbc 0c98 ce3a 44a9 95bc a467 87bc
00000180: edab 243c 156d 21bc 117f d4bb 4ca1 11bd
00000190: d61b 1abc 58af 48bb fa21 a23c 9d57 62bd
000001a0: 46a2 8dbc ef21 4dbd a0e7 31bc 5073 9cbc
000001b0: a658 2dbd 8154 ca3b d636 983c 239e 67bb
000001c0: 3f14 8fbc 75ab 7bbc 0d17 2abd 6240 4fbc
000001d0: b6ec 24bd b724 32bc 00db 1fbc bc1c ac3c
000001e0: 3e73 18bd 82ba 37bd 2eed 273b 4f5c debb
000001f0: e47b 8dbc 0290 44bc 0b42 163b 13f1 1c3b

batch_norms.1.running_var f4 [128]
0.0011192206 0.0010639466 0.00027869953 0.00033973547 0.00088634755 0.0004418238 0.0008114335 0.0010885281
0.0024494275 0.0012315023 0.0016816836 0.0009799631 0.00024284977 0.00069325446 0.0013322162 0.00057850574
0.0008923373 0.00044130711 0.00095615105 0.00082300836 0.00066498714 0.001085211 0.00094512274 0.0019163148
0.0013720164 0.00096965587 0.00092150667 0.0010277478 0.00074279617 0.0011411543 0.0020931533 0.0012270885
0.0006924976 0.00081849436 0.0026052576 0.0021199426 0.0011886902 0.0011482108 0.0010003445 0.0012280223
0.0006005127 0.00034081863 0.0008377269 0.0007065145 0.0005446625 0.0007618016 0.00047255514 0.00044869585
0.0007682765 0.0006820748 0.0013293806 0.0004341061 0.0010221724 0.0017523397 0.0010109189 0.0016072419
0.00082100445 0.0005001367 0.0010054442 0.0015613224 0.0005836063 0.0010705645 0.0014460752 0.00047214242
0.0014011901 0.0009229729 0.0023522328 0.000702824 0.0005880958 0.00084872026 0.00042032616 0.0005173621
0.00078549195 0.0006984559 0.0006630067 0.0014272736 0.002535469 0.0011509301 0.0008849384 0.0008609098
0.0007629986 0.0004757005 0.0011559929 0.00058099633 0.0008516967 0.0007208734 0.0007352273 0.001963123
0.00087531685 0.0011165901 0.0018812843 0.0015363431 0.0013618603 0.001262678 0.0005296316 0.00094744493
0.00041292945 0.0009239333 0.0002230961 0.0008324061 0.00075826974 0.0004460625 0.00047262525 0.0011132669
0.0008208638 0.0011744717 0.0018331442 0.0007627816 0.0017035258 0.0010931876 0.0023119492 0.000318125
0.00030877668 0.0015916914 0.00071961514 0.0006080034 0.00094181334 0.0010399391 0.00054922386 0.0012961843
0.0009855388 0.0024460275 0.00081368844 0.00051792763 0.0007247567 0.00094999315 0.0009188916 0.00059438933
00000000: d0b2 923a 2074 8b3a 6b1e 9239 861e b239
00000010: c759 683a 96a4 e739 61b6 543a f1ac 8e3a
00000020: 9386 203b 5c6a a13a f06b dc3a 1b72 803a
00000030: 7da5 7e39 85bb 353a c29d ae3a dda6 173a
00000040: beeb 693a 3d5f e739 36a6 7a3a 28bf 573a
00000050: 8852 2e3a a43d 8e3a 1dc2 773a db2c fb3a
00000060: 3bd5 b33a 8130 7e3a 4491 713a 7eb5 863a
00000070: 35b8 423a c992 953a 492d 093b 42d6 a03a
00000080: ba88 353a 3a90 563a f8bc 2a3b bcee 0a3b
00000090: d3cd 9b3a 907f 963a fe1d 833a 97f5 a03a
000000a0: ba6b 1d3a e7af b239 e79a 5b3a 6335 393a
000000b0: aec7 0e3a a4b3 473a 47c1 f739 f03e eb39
000000c0: 2a66 493a 44cd 323a 9c3e ae3a bc98 e339
000000d0: 6afa 853a c3ae e53a cf80 843a 17aa d23a
000000e0: ad38 573a 9b1b 033a 1cc9 833a 49a5 cc3a
000000f0: 28fd 183a 2f52 8c3a 3b8a bd3a e289 f739
00000100: 23a8 b73a aaf3 713a eb27 1a3b b83d 383a
00000110: 712a 1a3a a77c 5e3a 395f dc39 959f 073a
00000120: 79e9 4d3a 9518 373a a0cd 2d3a 5b13 bb3a
00000130: 1c2a 263b ceda 963a 36fb 673a aeae 613a
00000140: f803 483a 7167 f939 af84 973a 014e 183a
00000150: 6644 5f3a fff8 3c3a 45bc 403a bda7 003b
00000160: 8575 653a 8c5a 923a 6d95 f63a 1f5f c93a
00000170: 7380 b23a 7180 a53a fad6 0a3a f45d 783a
00000180: 747e d839 1d34 723a e7ee 6939 d435 5a3a
00000190: 9fc6 463a 7fdd e939 b0ca f739 0aeb 913a
000001a0: 3d2f 573a bbf0 993a 1d46 f03a 68f5 473a
000001b0: d748 df3a 4a49 8f3a 1284 173b 04ca a639
000001c0: 4ee3 a139 4da0 d03a 8ea4 3c3a 6b62 1f3a
000001d0: 06e4 763a 914e 883a caf9 0f3a bae4 a93a
000001e0: 322d 813a 884d 203b b54d 553a 89c5 073a
000001f0: 99fd 3d3a f608 793a c5e1 703a cbd0 1b3a

batch_norms.2.weight f4 [64]
0.19395061 0.23142847 0.23426348 0.33319122 0.36752552 0.37622094 0.35960236 0.41122413
0.31632152 0.5238165 0.38636944 0.3721789 0.23169544 0.3056781 0.32555145 0.2685067
0.30630773 0.29165882 0.23205175 0.40120855 0.35233238 0.39367655 0.41555598 0.44883728
0.41346547 0.26647267 0.32877916 0.26398894 0.2670609 0.4209337 0.26011348 0.32934555
0.49080923 0.14775757 0.44833586 0.44495127 0.4766673 0.23581778 0.2515601 0.19452438
0.4833215 0.16106142 0.4782597 0.32948336 0.28964683 0.4247938 0.28388125 0.41856968
0.30192065 0.28205088 0.26004693 0.2998 0.42934436 0.16174702 0.28714365 0.3245061
0.3490141 0.30934104 0.3764576 0.35388 0.37602913 0.21513326 0.40605953 0.39473274
00000000: fd9a 463e 96fb 6c3e c4e2 6f3e 0a98 aa3e
00000010: 4e2c bc3e 08a0 c03e cd1d b83e f88b d23e
00000020: e5f4 a13e d718 063f 37d2 c53e 3c8e be3e
00000030: 9241 6d3e d781 9c3e aeae a63e b679 893e
00000040: 5ed4 9c3e 4e54 953e f99e 6d3e 356b cd3e
00000050: e964 b43e f98f c93e c1c3 d43e 00ce e53e
00000060: bfb1 d33e 1b6f 883e be55 a83e 8f29 873e
00000070: 35bc 883e 9f84 d73e 982d 853e fb9f a83e
00000080: 594b fb3e c34d 173e 478c e53e a7d0 e33e
00000090: bd0d f43e 377a 713e 7ccc 803e 6631 473e
000000a0: ea75 f73e 49ed 243e 75de f43e 0bb2 a83e
000000b0: 974c 943e 937e d93e e258 913e c44e d63e
000000c0: 5895 9a3e f968 903e df24 853e 637f 993e
000000d0: 06d3 db3e 03a1 253e 7e04 933e aa25 a63e
000000e0: fab1 b23e f361 9e3e 0dbf c03e c22f b53e
000000f0: e486 c03e e54b 5c3e 09e7 cf3e 691a ca3e

batch_norms.2.bias f4 [64]
-0.2904559 -0.27107516 0.2362615 -0.26349777 0.2549196 -0.24959859 -0.23906887 -0.26331073
0.24258906 -0.2684452 0.24382912 -0.06892137 -0.25843188 0.2537077 -0.06108656 0.24955033
0.26463547 0.23854844 0.2739999 0.26975477 0.2620166 -0.2658579 0.2394307 -0.25115958
0.23957613 0.27321863 -0.24513307 0.2482994 -0.24554132 0.24744138 0.2610389 0.27844366
0.2541105 -0.29575846 0.25446042 0.24804796 -0.24979253 0.2538645 0.27882567 0.2691818
0.26112056 0.27341694 0.25499278 0.27492395 -0.2650893 -0.27929455 0.22605373 0.25408828
0.26361048 0.150044 0.27008045 0.23431264 0.26734573 -0.281505 -0.2585975 -0.28184894
-0.26518705 0.27751192 0.27426416 -0.2517851 0.25194764 0.26733243 -0.24495289 -0.04329895
00000000: a3b6 94be 5dca 8abe 89ee 713e 2ee9 86be
00000010: d284 823e c696 7fbe 78ce 74be aad0 86be
00000020: 4469 783e a671 89be 57ae 793e a626 8dbd
00000030: 2f51 84be fae5 813e e735 7abd 1f8a 7f3e
00000040: 4d7e 873e 0b46 743e b749 8c3e 4c1d 8a3e
00000050: 0a27 863e 871e 88be 522d 753e fd97 80be
00000060: 7253 753e 50e3 8b3e 2a04 7bbe 3342 7e3e
00000070: 2f6f 7bbe 4661 7d3e e4a6 853e 2b90 8e3e
00000080: c51a 823e a76d 97be a348 823e 4900 7e3e
00000090: 9dc9 7fbe 87fa 813e 3dc2 8e3e 32d2 893e
000000a0: 98b1 853e 4efd 8b3e 6a8e 823e d5c2 8c3e
000000b0: c9b9 87be b2ff 8ebe a17a 673e dc17 823e
000000c0: f4f7 863e 22a5 193e fc47 8a3e a7ef 6f3e
000000d0: 8ae1 883e 6c21 90be e466 84be 814e 90be
000000e0: 99c6 87be 0b16 8e3e 5a6c 8c3e fae9 80be
000000f0: 48ff 803e ccdf 883e eed4 7abe 3d5a 31bd

batch_norms.2.running_mean f4 [64]
0.011581142 -0.04310181 -0.0755682 0.075791 0.078772664 -0.017730117 0.07513538 -0.035068814
0.07044321 0.15567975 -0.034174275 -0.007103442 0.0029090825 -0.0419612 -0.048743874 -0.041825287
-0.009445737 0.027508974 0.0013438 0.09880502 -0.15138385 -0.004507134 -0.008244763 0.058823414
0.029461617 0.0032436794 -0.00037990283 -0.032088753 -0.008822443 0.045511734 0.027059343 0.06202871
-0.069798045 0.025042534 -0.029336428 -0.037219316 -0.07627833 0.038749713 -0.061117373 0.053474676
-0.09719947 -0.0001301989 -0.11634197 -0.034637824 -0.055011727 0.021920986 -0.0014319724 -0.03460506
-0.03867295 0.10814463 -0.0024085306 -0.084911115 -0.00650406 -0.035203073 -0.007010401 0.03900297
0.053191945 0.03410266 -0.081131525 0.07606925 -0.039222885 -0.021231093 -0.036263898 -0.024005216
00000000: d5be 3d3c 868b 30bd 80c3 9abd 5038 9b3d
00000010: 9053 a13d c03e 91bc 94e0 993d 51a4 0fbd
00000020: 8844 903d 836a 1f3e 53fa 0bbd fec3 e8bb
00000030: 4ea6 3e3b 82df 2bbd a8a7 47bd fe50 2bbd
00000040: 4bc2 1abc 805a e13c 7222 b03a 495a ca3d
00000050: 5e04 1bbe 95b0 93bb 0b15 07bc d2f0 703d
00000060: 7d59 f13c e993 543b b22d c7b9 7f6f 03bd
00000070: 028c 10bc 836a 3a3d 8eab dd3c d111 7e3d
00000080: 47f2 8ebd 0026 cd3c f352 f0bc 4873 18bd
00000090: d037 9cbd 05b8 1e3d 3656 7abd 4308 5b3d
000000a0: 8410 c7bd 0086 08b9 b344 eebd 64e0 0dbd
000000b0: fa53 61bd a493 b33c 05b1 bbba 09be 0dbd
000000c0: 8767 1ebd ef7a dd3d 70d8 1dbb e1e5 adbd
000000d0: 0220 d5bb 1931 10bd 82b7 e5bb 94c1 1f3d
000000e0: ccdf 593d 3baf 0b3d 4928 a6bd 32ca 9b3d
000000f0: 2da8 20bd d4ec adbc 7489 14bd 96a6 c4bc

batch_norms.2.running_var f4 [64]
0.017742975 0.023976648 0.011874756 0.019165354 0.018145652 0.011487142 0.01410821 0.016192738
0.015799405 0.010845887 0.011687108 0.007930386 0.0155162625 0.017655483 0.0084717 0.013973851
0.01860357 0.010471548 0.017145554 0.016905837 0.017544428 0.00863212 0.015119207 0.01143579
0.020245312 0.016466493 0.014658447 0.018026734 0.018854318 0.015306444 0.009473036 0.018786274
0.011279367 0.01203403 0.01253173 0.012669031 0.022791814 0.013373914 0.01736651 0.018079268
0.018559821 0.014174161 0.015744327 0.02926964 0.019671623 0.019945165 0.010615959 0.022490302
0.010895341 0.0077096517 0.010762399 0.010133975 0.021521715 0.011133511 0.023470445 0.032431506
0.019462656 0.024004886 0.018916415 0.028198464 0.013974129 0.010275677 0.014727658 0.008713665
00000000: b759 913c ad6a c43c 568e 423c a900 9d3c
00000010: 31a6 943c 9134 3c3c 1f26 673c a2a6 843c
00000020: c16d 813c f2b2 313c 497b 3f3c 73ee 013c
00000030: ec37 7e3c 3ba2 903c e3cc 0a3c 94f2 643c
00000040: 8466 983c db90 2b3c d574 8c3c 1c7e 8a3c
00000050: 55b9 8f3c bc6d 0d3c 8db6 773c 2e5d 3b3c
00000060: 7fd9 a53c bde4 863c fc29 703c cdac 933c
00000070: 5f74 9a3c e1c7 7a3c cb34 1b3c ace5 993c
00000080: 18cd 383c 612a 453c e351 4d3c c491 4f3c
00000090: e6b5 ba3c 431e 5b3c 3644 8e3c f91a 943c
000000a0: c40a 983c bd3a 683c 3ffa 803c e2c6 ef3c
000000b0: 6226 a13c 0b64 a33c 8fee 2d3c 953d b83c
000000c0: 5f82 323c 3fa1 fc3b c654 303c f908 263c
000000d0: 4f4e b03c 5469 363c 1745 c03c e6d6 043d
000000e0: 2670 9f3c e5a5 c43c 99f6 9a3c 7700 e73c
000000f0: bff3 643c 505b 283c 464c 713c c3c3 0e3c
