best_model/xasnet_gnn_model_16.pt (torch, 102230 bytes, 14 tensors)

batch_norms.0.weight f4 [128]
0	0x3e7873f4	0.24262983
1	0x3e519555	0.20467122
2	0x3e4c4960	0.19949865
3	0x3e4449d1	0.19168784
4	0x3e1f677b	0.15566818
5	0x3e47e76d	0.19521876
6	0x3ea3a89a	0.3196457
7	0x3e4fb63b	0.20284359
8	0x3e3df90a	0.18552032
9	0x3e6508cc	0.22366637
10	0x3e6b95ad	0.23006316
11	0x3e3aa5a9	0.18227257
12	0x3e3ec08f	0.18628143
13	0x3eabdad0	0.33565378
14	0x3e534e00	0.20635223
15	0x3e508997	0.20364986
16	0x3e2f21c3	0.17102723
17	0x3e4e56cd	0.201503
18	0x3e436ceb	0.19084518
19	0x3e66f464	0.22554165
20	0x3e5eeb14	0.21769363
21	0x3e30f595	0.17281182
22	0x3eb39f22	0.35082346
23	0x3e469dfa	0.19396201
24	0x3ea86725	0.32891193
25	0x3e65903f	0.22418307
26	0x3e3d9ff3	0.18518047
27	0x3e8904ed	0.2676157
28	0x3e437145	0.19086178
29	0x3e84ccb4	0.25937426
30	0x3e593772	0.21212557
31	0x3e8875ed	0.2665247
32	0x3e601601	0.21883394
33	0x3ea78a14	0.32722533
34	0x3e373bbe	0.17893884
35	0x3e3ca096	0.18420634
36	0x3e5e0f57	0.21685539
37	0x3e2b9465	0.16755827
38	0x3e713d75	0.235586
39	0x3e75fd54	0.24022418
40	0x3e7e1c0d	0.24815388
41	0x3e6ab6b8	0.22921264
42	0x3e5fab3b	0.21842663
43	0x3e75184d	0.23935051
44	0x3e56d32c	0.20978993
45	0x3e81cc7c	0.25351322
46	0x3e8522a9	0.26003006
47	0x3e854655	0.26030222
48	0x3e591c42	0.21202186
49	0x3e4b14b7	0.19832121
50	0x3e63b54d	0.2223713
51	0x3e693e72	0.22777727
52	0x3e874d94	0.26426375
53	0x3e3f1245	0.18659313
54	0x3e48d1bb	0.19611256
55	0x3e80c852	0.25152832
56	0x3e1e9ac7	0.1548873
57	0x3e2e8761	0.1704383
58	0x3ea34d3a	0.31894857
59	0x3e3a0c29	0.18168701
60	0x3e179e25	0.14806421
61	0x3e28a1fd	0.16468044
62	0x3e55959f	0.20857857
63	0x3e6c8295	0.23096688
64	0x3e65cccb	0.22441404
65	0x3e233af1	0.15940453
66	0x3e7b4998	0.24539793
67	0x3e3a91b8	0.1821965
68	0x3e604e2d	0.21904822
69	0x3e36746e	0.17817852
70	0x3e46c411	0.19410731
71	0x3e614dc4	0.22002321
72	0x3e3ffdfb	0.1874923
73	0x3e59414a	0.21216312
74	0x3eeedc63	0.46652517
75	0x3e35494a	0.17703739
76	0x3e509149	0.20367922
77	0x3e4917b0	0.19637942
78	0x3e91bd5e	0.28464788
79	0x3e683eed	0.22680254
80	0x3e89b202	0.26893622
81	0x3e8ad65f	0.27116677
82	0x3e4d7b46	0.20066556
83	0x3e257206	0.16156778
84	0x3e2e6706	0.17031488
85	0x3e407788	0.18795598
86	0x3e2cbb2c	0.16868275
87	0x3ea3a05b	0.3195828
88	0x3e42786e	0.18991253
89	0x3e298312	0.16553906
90	0x3e3e959d	0.1861176
91	0x3e356c9c	0.17717212
92	0x3e5e2c53	0.21696596
93	0x3e4f4c94	0.20244056
94	0x3e5aa63d	0.21352477
95	0x3e69f85e	0.22848651
96	0x3e84d318	0.25942302
97	0x3e70a0db	0.23498861
98	0x3e29c8f0	0.16580558
99	0x3e39f752	0.18160751
100	0x3e8b89ff	0.2725372
101	0x3e8a50da	0.2701481
102	0x3e5292e9	0.20563854
103	0x3e057f71	0.13036896
104	0x3e653e56	0.2238706
105	0x3e6c5919	0.23080863
106	0x3e671e34	0.22570115
107	0x3e2fdf9c	0.17175144
108	0x3e97e739	0.29668596
109	0x3e405355	0.18781789
110	0x3e4bd7de	0.19906566
111	0x3e817f2c	0.25292337
112	0x3e3cafbb	0.18426411
113	0x3e71b272	0.23603228
114	0x3e7d4026	0.24731502
115	0x3e21fed0	0.1581986
116	0x3e9b9feb	0.30395445
117	0x3e17ec59	0.14836253
118	0x3e6318e3	0.22177462
119	0x3e673a52	0.22580841
120	0x3e73b8b3	0.23800926
121	0x3e388f94	0.1802352
122	0x3e55e178	0.20886791
123	0x3ef44231	0.4770675
124	0x3e9704ac	0.29495752
125	0x3e2ae0e1	0.16687347
126	0x3e203626	0.15645656
127	0x3e43d4c0	0.19124126

batch_norms.0.bias f4 [128]
0	0xbe400c44	-0.18754679
1	0xbc852ec9	-0.01625766
2	0xbd48225b	-0.04886089
3	0xbe234cbf	-0.15947245
4	0xbdd55c4c	-0.10417995
5	0xbd567623	-0.052358758
6	0xbe19d297	-0.1502174
7	0xbd93682f	-0.07197606
8	0xbd702821	-0.05863202
9	0xbe0b59bd	-0.13608451
10	0xbdf59a30	-0.119922996
11	0xbd8ab81f	-0.067733996
12	0xbd3bba1b	-0.04583178
13	0xbdea4b56	-0.114401504
14	0xbdb781f8	-0.089603364
15	0xbd13d514	-0.03609188
16	0xbd0bac1d	-0.034099687
17	0xbcd9dedb	-0.026595524
18	0xbda0d134	-0.07852402
19	0xbe1c7f58	-0.15282953
20	0xbd947f22	-0.07250811
21	0xbcab03ed	-0.020875895
22	0xbd221dd3	-0.039579224
23	0xbe1759fd	-0.14780422
24	0xbe37a54a	-0.17934147
25	0xbdb0cc4f	-0.08632719
26	0xbdb19e15	-0.0867273
27	0xbe1f1501	-0.15535356
28	0xbde77a50	-0.11302626
29	0xbe09682b	-0.13418643
30	0xbe256c49	-0.16154589
31	0xbe06b4b0	-0.13154864
32	0xbd915c78	-0.07097715
33	0xbe127ca7	-0.14305364
34	0xbdb59963	-0.08867147
35	0xbe0d1d7f	-0.13780783
36	0xbe113842	-0.14181617
37	0xbcbbeb37	-0.022939308
38	0xbc8b9f5b	-0.01704376
39	0xbde92a6c	-0.113850445
40	0xbdc9ddb9	-0.09856743
41	0xbceef979	-0.029171692
42	0xbd9be40c	-0.07611856
43	0xbe1fa3c4	-0.15589815
44	0xbdbe2bd2	-0.09285702
45	0xbe07ea68	-0.13273013
46	0xbdecc971	-0.115618594
47	0xbd97826e	-0.07397924
48	0xbdb39edf	-0.08770537
49	0xbd17bb4c	-0.037043855
50	0xbdb0e753	-0.086378716
51	0xbdae95ef	-0.08524691
52	0xbde48b2a	-0.11159356
53	0xbd02cc3e	-0.03193306
54	0xbd7d19a1	-0.06179202
55	0xbe069539	-0.13142861
56	0xbdabe47c	-0.08393189
57	0xbda7a8e6	-0.08186512
58	0xbddfe54f	-0.10932409
59	0xbd937734	-0.072004706
60	0xbd6660c3	-0.056244623
61	0xbdcefcef	-0.10106837
62	0xbc7d91ce	-0.015476657
63	0xbe077e1b	-0.13231699
64	0xbd9a006a	-0.0751961
65	0xbd86c78d	-0.0658103
66	0xbe290c8b	-0.16508691
67	0xbd2f9e66	-0.04287567
68	0xbde30fac	-0.110869735
69	0xbdbd1c81	-0.09233952
70	0xbd39f7dd	-0.045402396
71	0xbde5d446	-0.112221286
72	0xbd8132d7	-0.06308525
73	0xbda2109b	-0.079133235
74	0xbe244176	-0.16040596
75	0xbd64a689	-0.055822883
76	0xbdb07943	-0.08616879
77	0xbe0ef193	-0.13959341
78	0xbe289199	-0.16461791
79	0xbd9da16a	-0.07696803
80	0xbe00cac7	-0.12577353
81	0xbdea9ec5	-0.11456064
82	0xbd667169	-0.0562605
83	0xbd65426c	-0.055971548
84	0xbd86c874	-0.06581202
85	0xbce269dc	-0.027638368
86	0xbd6e1690	-0.058126986
87	0xbdbe12ac	-0.09280905
88	0xbc7d1f11	-0.015449301
89	0xbda0b58a	-0.07847126
90	0xbc1ed8f0	-0.009695277
91	0xbd88c0d8	-0.06677407
92	0xbdbde1bb	-0.0927157
93	0xbd8232c0	-0.06357336
94	0xbdc517de	-0.09623693
95	0xbd849b68	-0.06474954
96	0xbda52781	-0.080641754
97	0xbe22997a	-0.15878859
98	0xbd481928	-0.048852116
99	0xbd0ad49b	-0.033894163
100	0xbd39874f	-0.045295056
101	0xbdaf7363	-0.0856693
102	0xbde4634c	-0.11151752
103	0xbe04ea0d	-0.12979908
104	0xbdedb525	-0.11606816
105	0xbde91cd4	-0.11382452
106	0xbda1a6f1	-0.0789317
107	0xbd7e3300	-0.062060356
108	0xbde77512	-0.11301626
109	0xbdb1f861	-0.08689953
110	0xbdf3e258	-0.11908406
111	0xbd89fa04	-0.0673714
112	0xbcb8e272	-0.022568915
113	0xbdb714b4	-0.08939496
114	0xbdc5f918	-0.096666515
115	0xbd3a7cd7	-0.045529213
116	0xbe25a0e9	-0.16174664
117	0xbd4971b4	-0.0491807
118	0xbdc5123b	-0.09622618
119	0xbdfa05be	-0.122081265
120	0xbdd1d94d	-0.10246525
121	0xbdeed408	-0.116615355
122	0xbd85eee1	-0.06539703
123	0xbdf45df4	-0.11931983
124	0xbe039f38	-0.12853706
125	0xbe15f610	-0.14644647
126	0xbdba08e5	-0.09083728
127	0xbd371993	-0.044702124

batch_norms.0.running_mean f4 [128]
0	0x3d035a8d	0.032068778
1	0x3dfb7cfa	0.12279697
2	0x3db42117	0.08795374
3	0x3dd53cc8	0.10411984
4	0x3d0e9d57	0.03481802
5	0xbdaeba4e	-0.085316285
6	0x3bc2e367	0.0059475186
7	0xbc67df7a	-0.014152402
8	0x3dbba33e	0.09161995
9	0x3ce944c4	0.028475173
10	0x3cf1747c	0.02947449
11	0x3bd6cfca	0.006555532
12	0x3beaeacf	0.0071691046
13	0xbd764ff9	-0.06013486
14	0xbd9faea8	-0.07796985
15	0x3d83985f	0.06425547
16	0x3d635dc6	0.05550935
17	0x3dabcb58	0.08388394
18	0xbd21c48f	-0.039494094
19	0x3db4c275	0.08826152
20	0x3d97d8d2	0.07414402
21	0x3d1894ac	0.03725116
22	0x3d2ed858	0.04268679
23	0x3cbb562e	0.022868242
24	0xbd7d41b6	-0.061830245
25	0x3d211af8	0.03933236
26	0xbd017bfb	-0.031612378
27	0x3b1665f9	0.0022948964
28	0x3bf304b2	0.007416331
29	0x3e0acac9	0.13553919
30	0x3d191ac3	0.037379038
31	0x3d48e64e	0.04904776
32	0xbd09586b	-0.033531588
33	0x3dc66914	0.09688011
34	0x3d8fe6ce	0.070264444
35	0x3c0df0ea	0.008663395
36	0x3d629798	0.055320352
37	0x3cab70c8	0.020927802
38	0x3ba29712	0.0049618566
39	0x3dc65373	0.096838854
40	0x3d3e46bf	0.046454187
41	0x3d3095c5	0.04311158
42	0x3dadf748	0.08494431
43	0xbce729eb	-0.02821823
44	0xbd7f9429	-0.062397156
45	0x3d673738	0.056449145
46	0x3d66e7c4	0.056373373
47	0x3d13b3ff	0.03606033
48	0xbdef52f8	-0.11685747
49	0x3cc30935	0.023808101
50	0x3c8694a5	0.016428301
51	0x3c652b8f	0.013987436
52	0x3c15b89d	0.0091382535
53	0x3da5b805	0.080917396
54	0x3d970f6a	0.07375987
55	0xbc86c2ff	-0.016450403
56	0x3d284138	0.041077822
57	0x3c7a46da	0.015275681
58	0x3ce79b1d	0.028272206
59	0x3bbcab5c	0.0057577323
60	0x3d91f32d	0.0712646
61	0xbde11626	-0.109905526
62	0x3df303df	0.11865973
63	0xbc054046	-0.008133
64	0x3cb19eec	0.021682225
65	0x3de115de	0.10990499
66	0xb9ee2ee4	-0.00045429834
67	0x3d060024	0.032714978
68	0xbd394970	-0.04523605
69	0x3d7a8aff	0.061167713
70	0x3da20e9b	0.07912942
71	0xbd752c3d	-0.059856642
72	0xbd10b86d	-0.035332132
73	0x3daa49cf	0.08314859
74	0xb8a1c966	-7.7145916e-05
75	0x3da555fb	0.0807304
76	0xbd98b063	-0.07455518
77	0x3cbcc3b9	0.023042547
78	0x3dd35ca6	0.10320406
79	0x3e0e1ac4	0.13877398
80	0xbd976167	-0.07391625
81	0x3e31eea9	0.17376198
82	0x3c8b2592	0.016985688
83	0x3dbd679d	0.09248278
84	0xbcbe0956	-0.023197811
85	0x3bdf2710	0.0068100765
86	0xbb454d59	-0.0030105917
87	0x3dd3fcf7	0.103509836
88	0x3d5d1905	0.05397894
89	0x3df2969d	0.118451335
90	0x3d17cb95	0.037059385
91	0xbd9cfff6	-0.07666008
92	0x3d57cacb	0.052683633
93	0xbd93df1c	-0.07220289
94	0x3db3507a	0.08755584
95	0xbabe1083	-0.001450077
96	0x3d701ab3	0.058619212
97	0x3d08ea88	0.03342679
98	0x3dbe6e3b	0.092983685
99	0x3d1c924f	0.03822547
100	0x3d6cbf05	0.057799358
101	0xbd8f6ede	-0.07003568
102	0x3bf8ef2c	0.007596871
103	0xbdaf2ac4	-0.08553079
104	0x3de51e71	0.11187447
105	0x3d59b61f	0.0531522
106	0xbd6dddcb	-0.058072846
107	0xbc6d0ff4	-0.014469136
108	0x3cff3847	0.031154765
109	0xbd1e0f07	-0.03858855
110	0x3a6a5ab9	0.00089399103
111	0x3d36cedd	0.044630874
112	0x3dd6c2f3	0.10486402
113	0x3d0638bb	0.032768946
114	0x3d863dac	0.06554732
115	0x3d1cfa28	0.038324505
116	0x3e000e28	0.125054
117	0x3db61676	0.08891003
118	0x3d06afaf	0.03288239
119	0xbdc7e88d	-0.097611524
120	0x3c7d3234	0.015453864
121	0xbcd83c22	-0.026395861
122	0x3c8f98ce	0.017528918
123	0xbd6946e4	-0.056952372
124	0x3b3bb4af	0.0028641631
125	0x3d06b9cb	0.03289203
126	0x3db3bc00	0.087760925
127	0x3c0cc121	0.008590967

batch_norms.0.running_var f4 [128]
0	0x399a00fc	0.00029373902
1	0x3b7c08a9	0.003845731
2	0x3af90338	0.0018998152
3	0x3a877e82	0.0010337385
4	0x3b38886f	0.0028157493
5	0x3a7190ee	0.00092150166
6	0x3b88b586	0.00417203
7	0x3aa07683	0.001224235
8	0x3b6a9541	0.0035794529
9	0x3ac4fe3b	0.001502938
10	0x3b613d0f	0.003436867
11	0x3a369d34	0.0006966174
12	0x3b1ddfb5	0.0024089639
13	0x3b12ce99	0.0022400974
14	0x3ac435f8	0.0014969697
15	0x3b82bce6	0.0039898036
16	0x3abcdc41	0.0014408902
17	0x3b51f0a0	0.0032034293
18	0x3b28732f	0.002570342
19	0x3a2e1cab	0.0006641845
20	0x3a70b6bc	0.0009182503
21	0x3b0d7b74	0.0021588476
22	0x3b9fe17f	0.004879176
23	0x3ad9a6f6	0.0016605544
24	0x3b62e3f3	0.0034620732
25	0x3a7a022f	0.00095370685
26	0x3b8f5688	0.004374329
27	0x3b7c73f3	0.003852126
28	0x3a91ee8e	0.0011133717
29	0x3b3927bb	0.002825244
30	0x3a6ccab5	0.0009032891
31	0x3b2a0c33	0.0025947213
32	0x3b2cd482	0.0026371782
33	0x3b62a415	0.0034582664
34	0x3adaa815	0.0016682172
35	0x3a7a4197	0.0009546517
36	0x3a72714e	0.0009248451
37	0x3af0b533	0.0018364548
38	0x3ac0c1f3	0.0014706239
39	0x3a45b632	0.0007542103
40	0x3a9d2ce6	0.001199153
41	0x3b8fbc6b	0.004386475
42	0x3b51ec34	0.0032031657
43	0x3b68d871	0.00355294
44	0x3b471728	0.0030378792
45	0x3b5ac4a4	0.0033381367
46	0x3b86bc57	0.0041118073
47	0x3b924de7	0.004464853
48	0x3b8a2add	0.0042165355
49	0x3b350b70	0.0027625225
50	0x3ab1ce6c	0.0013565547
51	0x3b3d1193	0.0028849586
52	0x3b85ac3a	0.004079369
53	0x3b4959d7	0.0030723715
54	0x3b3bab05	0.002863587
55	0x3a5f77c6	0.00085246225
56	0x3aae4822	0.0013296644
57	0x3b033da8	0.0020025764
58	0x3b5ce630	0.0033706538
59	0x3b029ab6	0.001992864
60	0x3b200080	0.002441436
61	0x3aba9737	0.0014235739
62	0x3b420fb2	0.0029611406
63	0x3bb91ff1	0.0056495597
64	0x3b22142c	0.0024731262
65	0x3ab0cbfe	0.0013488529
66	0x3ad21a3f	0.001602955
67	0x3b28ec9b	0.0025775793
68	0x3ad8e3ed	0.0016547419
69	0x3b24ea3e	0.0025164033
70	0x3ad31e4f	0.0016107055
71	0x3b2ba0c8	0.0026188362
72	0x3a9e228a	0.0012064737
73	0x3b1300cd	0.0022430897
74	0x3b5a5388	0.0033313949
75	0x3b3bc9ce	0.002865422
76	0x3b49d31e	0.0030796002
77	0x3aea103a	0.0017857619
78	0x3adaa6ca	0.0016681787
79	0x3bddfcfe	0.006774544
80	0x3b0c3f8c	0.0021400182
81	0x3b297927	0.0025859566
82	0x3b1f9ca2	0.0024354835
83	0x3b02d16c	0.001996125
84	0x3ad5d7cb	0.0016314922
85	0x3aaa7abc	0.0013006548
86	0x3a7cc327	0.0009642117
87	0x3be2a94d	0.006917155
88	0x3afdcdeb	0.0019363737
89	0x3b2f486a	0.0026746043
90	0x3af2922d	0.0018506699
91	0x3aa19787	0.0012328484
92	0x3adc7eec	0.0016822494
93	0x3abe2223	0.0014506023
94	0x3a7b24b0	0.0009580357
95	0x3abdcb0f	0.0014480072
96	0x3aa4f6d7	0.0012585771
97	0x3aae63b0	0.0013304856
98	0x3b58cf81	0.0033082666
99	0x3b1f4e28	0.002430806
100	0x3b315eff	0.0027064679
101	0x3b43c7b8	0.002987368
102	0x3a887d7b	0.0010413373
103	0x3b3a6be9	0.0028445667
104	0x3a9dfbb7	0.0012053166
105	0x3b195e9e	0.0023402344
106	0x3acb0bd5	0.0015491197
107	0x3a619946	0.00086059084
108	0x3b3d06ad	0.002884309
109	0x3adccb2d	0.0016845219
110	0x3b462796	0.0030235997
111	0x3b79cf0d	0.0038117797
112	0x3b05c15b	0.0020409438
113	0x3abf85e1	0.0014612043
114	0x3b262a60	0.0025354847
115	0x3b1841ae	0.0023232508
116	0x3b46cc67	0.0030334236
117	0x3b1afe39	0.0023650064
118	0x3a88abb5	0.0010427149
119	0x3ac9cb6e	0.001539571
120	0x3ad3098f	0.0016100871
121	0x3b313334	0.0027038576
122	0x3a9b0a17	0.0011828569
123	0x3bb6d1c7	0.0055792066
124	0x3b77d21b	0.0037814442
125	0x3aec3b9f	0.001802314
126	0x3b4fe871	0.003172424
127	0x3a242b62	0.0006262568

batch_norms.1.weight f4 [64]
0	0x3ef0a57b	0.47001252
1	0x3eaf82fa	0.34279615
2	0x3e9e3c2c	0.30905282
3	0x3edcfb27	0.43160364
4	0x3ed8eb83	0.4236718
5	0x3edf8238	0.43654037
6	0x3ece0dfa	0.40245038
7	0x3ed6b3c0	0.41934013
8	0x3eb97bcb	0.3622726
9	0x3ed6da76	0.41963547
10	0x3ef06676	0.46953171
11	0x3ebf3a8a	0.3734935
12	0x3eceecb9	0.4041498
13	0x3ea4edf4	0.32212794
14	0x3e9eee38	0.3104112
15	0x3ea586b0	0.3232932
16	0x3e943983	0.28950128
17	0x3ec1b481	0.37833026
18	0x3ed04fab	0.40685782
19	0x3ebef683	0.3729745
20	0x3ebda809	0.37042263
21	0x3eb6416e	0.35596794
22	0x3ecb4b8d	0.39706078
23	0x3edd08c1	0.4317074
24	0x3edce38f	0.43142363
25	0x3ef81ce5	0.48459545
26	0x3ec8eed6	0.39244717
27	0x3eadbd35	0.33933416
28	0x3ec519f2	0.38496357
29	0x3eb974db	0.36221966
30	0x3ec64f29	0.3873227
31	0x3f050889	0.5196615
32	0x3ef01f2d	0.46898785
33	0x3eac3a42	0.33638197
34	0x3ea6ce6d	0.32579365
35	0x3efb071a	0.49028856
36	0x3ed8dab1	0.42354348
37	0x3ecbbd44	0.39792836
38	0x3ebbd194	0.36683333
39	0x3ec66cc6	0.38754863
40	0x3edd86a0	0.43266773
41	0x3eb0e42e	0.34549087
42	0x3eb43d05	0.35202804
43	0x3e970ac0	0.2950039
44	0x3f0278d0	0.50965595
45	0x3ea4f70a	0.32219726
46	0x3e991bea	0.2990411
47	0x3edb9d24	0.42893326
48	0x3ea3ad11	0.31967977
49	0x3eeb88a4	0.46002686
50	0x3ea6df5c	0.32592285
51	0x3ec12907	0.37726614
52	0x3ec9c654	0.39409125
53	0x3eec5ff7	0.46166965
54	0x3ec5f13e	0.38660616
55	0x3ed37304	0.41298687
56	0x3ebd94c2	0.37027556
57	0x3eb01392	0.3438993
58	0x3eb228e3	0.3479682
59	0x3ea412ce	0.32045597
60	0x3ec89ce1	0.3918219
61	0x3eb6a9e4	0.3567649
62	0x3ec8bca5	0.39206424
63	0x3ea3f015	0.32019106

batch_norms.1.bias f4 [64]
0	0xbe79c64c	-0.2439205
1	0x3e74d0a8	0.23907721
2	0x3e8b0e3b	0.27159294
3	0xbe784a7b	-0.24247162
4	0x3e708373	0.23487644
5	0x3e710be1	0.23539688
6	0xbe67bf4f	-0.22631572
7	0x3e77a01e	0.24182174
8	0x3e81964d	0.25309983
9	0x3e7eaade	0.24869868
10	0xbe6e6a52	-0.23282745
11	0xbe79f71a	-0.24410668
12	0x3e6e49de	0.23270366
13	0xbe799be0	-0.24375868
14	0x3e864cd6	0.26230496
15	0x3e7c1465	0.24617155
16	0x3e83eb74	0.25765574
17	0x3e7ff1eb	0.24994628
18	0x3e718ba2	0.23588422
19	0xbe811d8f	-0.25217864
20	0xbe7c10e3	-0.24615817
21	0x3e712a45	0.23551281
22	0xbe7997ab	-0.24374263
23	0x3e383b7b	0.1799144
24	0xbe77e188	-0.24207127
25	0x3ddb31fd	0.10702894
26	0xbe7c69d0	-0.2464974
27	0x3e817f9f	0.2529268
28	0x3e7972e2	0.2436023
29	0x3e77f68d	0.24215145
30	0x3e691049	0.22760119
31	0xbd2f7d14	-0.042843893
32	0x3e153a0c	0.14572924
33	0xbe843a06	-0.25825518
34	0xbe83d011	-0.2574468
35	0xbdd12626	-0.10212354
36	0xbe795d33	-0.24351959
37	0xbe619ddb	-0.22032873
38	0x3e79f6d9	0.24410571
39	0xbe7e6d1c	-0.2484631
40	0x3e7f5975	0.24936469
41	0x3e7a1d2a	0.24425188
42	0x3e77794b	0.24167363
43	0xbe7223a7	-0.23646413
44	0xbe740a26	-0.23831996
45	0x3e810d60	0.25205517
46	0xbe826ee5	-0.2547523
47	0x3e79a11f	0.24377869
48	0xbe839f0d	-0.25707284
49	0x3e77c945	0.24197872
50	0x3e848aeb	0.25887236
51	0xbe6b800f	-0.22998069
52	0xbe42ffb4	-0.19042856
53	0xbd1feb88	-0.03904298
54	0x3e827760	0.254817
55	0x3e7447d3	0.23855524
56	0x3e78efcb	0.24310224
57	0x3e7ce14d	0.2469532
58	0xbe40d4b6	-0.18831143
59	0xbe765380	-0.2405529
60	0xbe78ddab	-0.2430331
61	0xbe69f593	-0.22847585
62	0x3e7d7aa8	0.24753821
63	0x3e87698d	0.26447716

batch_norms.1.running_mean f4 [64]
0	0x3cc8b30b	0.024499437
1	0x3b23ccc7	0.0024993883
2	0x3d13312c	0.035935566
3	0x3da0fba7	0.07860499
4	0xbd7f190f	-0.062279757
5	0x3c94d468	0.01816769
6	0xbcade7fa	-0.02122878
7	0x3cf84316	0.030305427
8	0x3b93c9d1	0.0045101424
9	0xbca501c9	-0.020142453
10	0xbc902519	-0.017595815
11	0xbc180bae	-0.009280128
12	0xbd1dee50	-0.03855735
13	0x3d4a3711	0.04936892
14	0xbd2f9d80	-0.042874813
15	0xbd215b90	-0.03939396
16	0xbca467f0	-0.020069093
17	0xbc4a6e33	-0.012355375
18	0xbcad5188	-0.021157041
19	0x3d146a30	0.03623408
20	0xbc83712b	-0.016045174
21	0x3c47701e	0.012172727
22	0xbd5e7c88	-0.05431798
23	0x3d86b193	0.06576838
24	0xbc4ade05	-0.012382035
25	0xbc7c99c1	-0.015417517
26	0x3c7392f5	0.01486658
27	0x3d326756	0.04355558
28	0x3cf10515	0.029421369
29	0x3b9888af	0.004654966
30	0x3d3253cb	0.043536942
31	0xbcaf6aea	-0.021413285
32	0x3cfc9a16	0.030835193
33	0x3d11de1b	0.035612207
34	0xbca23e83	-0.019805199
35	0x3d1e331c	0.03862296
36	0x3c69b0fb	0.014263387
37	0xbc2a0d64	-0.010379169
38	0xbc1e84f6	-0.009675255
39	0xbd122a05	-0.035684604
40	0x3d1091f6	0.03529545
41	0xbcef5da5	-0.029219458
42	0x3c13373f	0.00898534
43	0xbc298cfd	-0.010348556
44	0xbbdbd191	-0.006708332
45	0x3c8ae405	0.016954431
46	0x3d13dfb8	0.036102027
47	0xbbf9a724	-0.0076188017
48	0xbca5bc02	-0.02023125
49	0xbd18da7e	-0.037317745
50	0x3cd224c1	0.025652291
51	0xbcb2c7f8	-0.021823868
52	0x3d509db4	0.050931647
53	0xbcbf9c46	-0.023389947
54	0x3d205109	0.03913978
55	0xbc30ddec	-0.010795098
56	0xbb29c6ca	-0.002590584
57	0x3b588e92	0.0033043963
58	0xbca3f950	-0.020016342
59	0x3d829402	0.063758865
60	0x3d22183c	0.039573893
61	0xbc527aee	-0.0128466915
62	0x3c591ede	0.013251988
63	0x3d5e3687	0.05425122

batch_norms.1.running_var f4 [64]
0	0x3bc49be1	0.0060000275
1	0x3b8fe4b7	0.0043912786
2	0x3bcf884d	0.006333387
3	0x3b7e4bb8	0.0038802456
4	0x3bc56a6b	0.006024649
5	0x3c048edb	0.0080907
6	0x3b853724	0.004065411
7	0x3b903e9b	0.0044019944
8	0x3bc98882	0.006150306
9	0x3be782ef	0.007065169
10	0x3c181aa3	0.009283694
11	0x3c0940c6	0.00837726
12	0x3ba1cc8f	0.0049377154
13	0x3bc51824	0.0060148407
14	0x3be08d2b	0.006852766
15	0x3bb4b30d	0.0055145086
16	0x3be14487	0.006874624
17	0x3c0071db	0.007839645
18	0x3b916167	0.00443666
19	0x3c0664ce	0.008202745
20	0x3bf8111f	0.0075704004
21	0x3baece99	0.005334687
22	0x3bef6a96	0.007306407
23	0x3b364a22	0.0027815183
24	0x3bbb192c	0.005709788
25	0x3b315403	0.0027058132
26	0x3bfb4be2	0.007668958
27	0x3bdb5d96	0.006694506
28	0x3bd52d81	0.0065056686
29	0x3bd0cafe	0.006371855
30	0x3bb185eb	0.0054175756
31	0x3b108ae5	0.0022055444
32	0x3b0e24db	0.0021689448
33	0x3b816887	0.003949228
34	0x3b99941a	0.0046868445
35	0x3b1a1d79	0.0023516102
36	0x3b9be0ff	0.0047570462
37	0x3c038eb4	0.008029629
38	0x3bd15cbc	0.0063892286
39	0x3bba65c5	0.0056884014
40	0x3bbec277	0.005821522
41	0x3c0b1993	0.008489984
42	0x3c1a96b8	0.009435348
43	0x3b94fb1a	0.004546535
44	0x3c2c9787	0.010534174
45	0x3c018a78	0.007906549
46	0x3bce98bf	0.00630483
47	0x3c094b34	0.008379746
48	0x3c06aa74	0.00821935
49	0x3be973dc	0.007124407
50	0x3c175c22	0.009238275
51	0x3bdb0d37	0.006684925
52	0x3b157f04	0.0022811303
53	0x3b108277	0.002205042
54	0x3c1051fe	0.008808611
55	0x3c1f7932	0.009733485
56	0x3bd1d4b5	0.0064035305
57	0x3c135678	0.008992784
58	0x3b6fe15a	0.0036602826
59	0x3bc7fcd7	0.006103139
60	0x3bdf7cad	0.0068202824
61	0x3be96423	0.007122533
62	0x3bfcd1f2	0.007715457
63	0x3bf3da53	0.0074417978

interaction_layers.0.bias f4 [128]
0	0x372a4492	1.0148755e-05
1	0xb6983296	-4.535842e-06
2	0xb5b07650	-1.3147455e-06
3	0xb6b0d4b8	-5.2699725e-06
4	0x34a386be	3.0459154e-07
5	0xb6866ac2	-4.0059394e-06
6	0x34ea157b	4.3601526e-07
7	0xb53ed542	-7.1090847e-07
8	0xb3fd81fe	-1.1804876e-07
9	0xb666ed20	-3.4410696e-06
10	0xb5cd11a1	-1.5278821e-06
11	0x368f77a2	4.275659e-06
12	0x36d746d3	6.4157443e-06
13	0xb686bf83	-4.015806e-06
14	0x3765ffbc	1.3709006e-05
15	0x360d5582	2.106041e-06
16	0x36ef9be4	7.140903e-06
17	0xb6760a9d	-3.6663034e-06
18	0x35673ffb	8.614731e-07
19	0xb37f707f	-5.947413e-08
20	0x359d74ea	1.1731438e-06
21	0xb60813c9	-2.0277096e-06
22	0xb657fa91	-3.2183345e-06
23	0x356b3e51	8.7635004e-07
24	0xb57536bd	-9.1349267e-07
25	0x35acbe27	1.287034e-06
26	0xb640ad56	-2.8711124e-06
27	0x36a1f007	4.8261168e-06
28	0x335d6434	5.1546706e-08
29	0xb708def1	-8.158139e-06
30	0xb6ba2821	-5.5479036e-06
31	0x369605fb	4.4710446e-06
32	0xb4e49856	-4.2579148e-07
33	0xb484d9a4	-2.474527e-07
34	0xb628928b	-2.511925e-06
35	0x3676efd6	3.679646e-06
36	0x36880d16	4.0546392e-06
37	0xb541a2af	-7.213484e-07
38	0xb67f342e	-3.8028334e-06
39	0xb726420d	-9.90975e-06
40	0xb693dd59	-4.4067096e-06
41	0xb62770da	-2.4950627e-06
42	0x35fd5240	1.8873907e-06
43	0x36d2e60a	6.285268e-06
44	0xb60ae8e8	-2.0699172e-06
45	0x35586eab	8.0627314e-07
46	0xb5c041fb	-1.4324318e-06
47	0x35369ca7	6.802824e-07
48	0x34c369b7	3.6398498e-07
49	0xb6c3ad3c	-5.83162e-06
50	0x35538e79	7.881095e-07
51	0x36427721	2.8977595e-06
52	0x3688d8f2	4.0783716e-06
53	0xb5783f59	-9.247938e-07
54	0xb71ee836	-9.4716e-06
55	0x36436758	2.9117418e-06
56	0xb66a9573	-3.4955708e-06
57	0x3657f0e1	3.2177707e-06
58	0x34a8e2da	3.1457495e-07
59	0x361fe556	2.3826337e-06
60	0xb5226788	-6.050036e-07
61	0x36734260	3.6248457e-06
62	0x363bea01	2.800138e-06
63	0xb5b43405	-1.3426185e-06
64	0xb6856288	-3.9751794e-06
65	0x35b40827	1.3413418e-06
66	0x36ca9411	6.0373063e-06
67	0xb60ce135	-2.0992713e-06
68	0xb6900498	-4.292069e-06
69	0xb50bda5f	-5.2099307e-07
70	0xb5965e53	-1.1203323e-06
71	0xb61450e4	-2.2100803e-06
72	0x35ed7421	1.7691674e-06
73	0xb673d1fd	-3.633205e-06
74	0xb66169ff	-3.358931e-06
75	0x352de327	6.477807e-07
76	0x35a5c572	1.2350922e-06
77	0xb5204cb7	-5.971628e-07
78	0xb6f6d85e	-7.3565598e-06
79	0xb6009963	-1.916277e-06
80	0xb6b9d629	-5.538361e-06
81	0x372a7208	1.015934e-05
82	0xb5b1a5d8	-1.3235795e-06
83	0xb664ae0d	-3.4075958e-06
84	0xb4ed742a	-4.422921e-07
85	0xb5c91ced	-1.4984086e-06
86	0xb5af41eb	-1.3057701e-06
87	0x3564c2b4	8.521995e-07
88	0xb67d8cfb	-3.7782e-06
89	0xb68e0b06	-4.233213e-06
90	0x35365ec1	6.793817e-07
91	0x376cda39	1.4117505e-05
92	0xb3f2896f	-1.1294002e-07
93	0xb62c4134	-2.566795e-06
94	0xb7a9f199	-2.0258873e-05
95	0xb69e6cd7	-4.7214376e-06
96	0xb627e414	-2.5017698e-06
97	0x373bc0ff	1.1191004e-05
98	0xb6100199	-2.1458602e-06
99	0x3596c81e	1.1234113e-06
100	0x36854c09	3.9725605e-06
101	0xb6b1c414	-5.2978376e-06
102	0x354bdfb4	7.5948924e-07
103	0x3696d436	4.495053e-06
104	0xb7377094	-1.0933862e-05
105	0xb5c607f4	-1.4754464e-06
106	0x366e683e	3.552544e-06
107	0xb61f0692	-2.369667e-06
108	0xb610fe65	-2.160575e-06
109	0xb62870ea	-2.5099675e-06
110	0x35bce899	1.4074786e-06
111	0x3611bfe4	2.1718379e-06
112	0x3494c9ec	2.7714066e-07
113	0xb67c082b	-3.755568e-06
114	0xb7755c22	-1.4624589e-05
115	0x368d9fbb	4.2207225e-06
116	0xb68ab3c9	-4.1336502e-06
117	0xb538be55	-6.882231e-07
118	0xb53be2ec	-6.9993143e-07
119	0x368a2ce1	4.117945e-06
120	0xb685e7c9	-3.990692e-06
121	0xb5b513f9	-1.3491364e-06
122	0xb5cdd74f	-1.5336353e-06
123	0x367b80d7	3.747691e-06
124	0x36a4987a	4.9053315e-06
125	0xb5ffd18a	-1.9059964e-06
126	0xb6979ea6	-4.51862e-06
127	0x36254107	2.4624767e-06

interaction_layers.0.lin.weight f4 [128, 15]
0	0x3c8c8146	0.017151486
1	0xbd91a585	-0.071116485
2	0x3e0dc44b	0.13844411
3	0x3ce9bbd9	0.028531956
4	0xbcbaa949	-0.0227858
5	0xbe1c276d	-0.15249415
6	0x3d56a8fd	0.052407254
7	0xbc59e9b9	-0.013300353
8	0xbdf8bdfd	-0.121456124
9	0xbd31d0ad	-0.0434119
10	0x3c704539	0.0146649415
11	0x3c5bc6e9	0.013414123
12	0x3d0dc4ab	0.034611385
13	0x3d4953e7	0.04915228
14	0xbdb39191	-0.08767999
15	0x3c82826c	0.01593133
16	0xbcaef0cc	-0.021355055
17	0xbba18084	-0.0049286503
18	0x3d9312e6	0.07181339
19	0x3cbb7c48	0.02288641
20	0x3c1d6b44	0.009608094
21	0x3dae92f0	0.0852412
22	0xbd27a2b4	-0.04092665
23	0xbc450252	-0.012024479
24	0x3db89930	0.09013593
25	0xbd95688e	-0.07295333
26	0xbd362432	-0.044468112
27	0x3ca9c873	0.020725464
28	0xbc330bd1	-0.01092811
29	0xbc497893	-0.012296814
30	0x3d38ab37	0.04508516
31	0xbc709952	-0.014684992
32	0x3b7d4fa2	0.0038652201
33	0x3c8ba39d	0.01704579
34	0x3b12e7bb	0.0022415954
35	0x3ce7192e	0.028210249
36	0x3ce4e4e3	0.027941173
37	0x3d44fd29	0.048092995
38	0xbc95ac79	-0.018270718
39	0xbd1679e6	-0.036737345
40	0x3d8b1418	0.06790942
41	0x3db18d90	0.08669579
42	0xbc4f4381	-0.0126503715
43	0x3ce45e1f	0.027876912
44	0x3b97f5f1	0.004637473
45	0x3d7fa244	0.062410608
46	0x3c81997d	0.01582026
47	0x3d3747a2	0.04474605
48	0xbd6e39b9	-0.058160517
49	0x3b28730d	0.0025703341
50	0x3db9f2e4	0.09079531
51	0x3d04228d	0.032259513
52	0x3d5e2ec9	0.054243837
53	0x3d0a8a8a	0.033823527
54	0x3cf624df	0.030046878
55	0x3b96e9ce	0.0046055084
56	0xbc20b7f3	-0.009809482
57	0xbd4c7698	-0.049917787
58	0x3db68498	0.08912009
59	0x3d84781f	0.06468224
60	0x3c356b82	0.011072995
61	0x3d504976	0.050851308
62	0x3d53108f	0.051529463
63	0xbd19c755	-0.037543613
64	0xbd30951a	-0.043110944
65	0x3d28c38c	0.041202113
66	0x3cfb758e	0.030695703
67	0x3c411e90	0.011787072
68	0xbc7f51c0	-0.015583456
69	0x3d6d52e7	0.05794039
70	0x3c10a411	0.008828179
71	0xbdb8b476	-0.09018795
72	0x3c75a4ff	0.014992951
73	0x3cafae3c	0.021445386
74	0x3c6313ab	0.01385967
75	0xbc7eeb74	-0.015559066
76	0xbd24d2fe	-0.04024028
77	0xbd81d417	-0.06339281
78	0x3c921808	0.017833725
79	0x3c349be6	0.011023497
80	0xbd1ea097	-0.03872737
81	0xbc97e027	-0.018539501
82	0xbd0cca23	-0.03437246
83	0x3d27bd6b	0.040952127
84	0xbc8dba1e	-0.017300662
85	0x3d0bd6d1	0.03414041
86	0xbd101c5d	-0.0351833
87	0xbd5d6c9c	-0.054058656
88	0xbce19341	-0.027536036
89	0x3d57190b	0.052514117
90	0x3a3d7a74	0.0007228025
91	0xbc718fe8	-0.014743783
92	0xbc457744	-0.012052361
93	0x3d4fecdd	0.050763
94	0xbc5dbe61	-0.013534159
95	0x3ca13321	0.0196777
96	0xbd46992d	-0.048485924
97	0xbca794ad	-0.020456636
98	0xbdcc50c5	-0.09976343
99	0x3d9ac4e0	0.07557082
100	0xbd9f3809	-0.0777436
101	0xbd440522	-0.047856458
102	0x3d2fbcd4	0.04290469
103	0xbd88aa7a	-0.06673141
104	0x3c527dc6	0.01284737
105	0x3b1cb98a	0.00239143
106	0x3cac5684	0.021037348
107	0x3d946fb4	0.07247868
108	0xbddce7c5	-0.10786394
109	0x3b84b5f6	0.0040500117
110	0x3b8b3abf	0.0042489464
111	0xbca3e340	-0.020005822
112	0x3c9d08cf	0.01916924
113	0x3d49e6eb	0.049292486
114	0xbd59c320	-0.0531646
115	0x3d3e1ea8	0.046415955
116	0x3cd616aa	0.026133854
117	0x3d3a9cdd	0.045559753
118	0xbdaf957e	-0.08573435
119	0x3cc6e3b6	0.024278503
120	0x3d7d82cf	0.061892327
121	0xbd7d5091	-0.061844412
122	0xbd263606	-0.040578865
123	0xbbd52302	-0.0065044174
124	0x3db51862	0.08842541
125	0xbb8bb38b	-0.0042633465
126	0xbb4b8c9c	-0.0031059152
127	0xbceba016	-0.028762858
128	0x3d2be12e	0.041962795
129	0x3c941ec6	0.01808108
130	0x3c3e0c3c	0.011599597
131	0xbc3e5236	-0.01161628
132	0x3ce37a65	0.027768323
133	0xbd78064f	-0.06055289
134	0x3b90353c	0.0044008773
135	0xbcf09659	-0.029368566
136	0xbcbf2bd3	-0.023336327
137	0x3dde4e00	0.10854721
138	0xbcfbe3c3	-0.030748254
139	0xbdfca9b1	-0.123370536
140	0xbc1e7441	-0.009671272
141	0x3d872408	0.06598669
142	0xbd6cfaa8	-0.057856232
143	0xbd654fd4	-0.055984333
144	0x3d6df892	0.058098383
145	0x3d57debe	0.052702658
146	0x3b9cea8e	0.0047887033
147	0x3c8a131d	0.016854817
148	0x3bdc0639	0.006714609
149	0xbd42f8aa	-0.047600426
150	0x3ddac498	0.106820285
151	0x3d08309d	0.033249486
152	0x3ce2b706	0.027675163
153	0xbd354e59	-0.04426417
154	0xbc0b0b17	-0.008486531
155	0x3d1051a3	0.035234105
156	0xbd20387f	-0.03911638
157	0xbda3ea0e	-0.08003627
158	0x3d249c0c	0.04018788
159	0x3d63c994	0.05561216
160	0x3dfbb9fc	0.12291333
161	0xbd943f8c	-0.07238683
162	0xbd8104c9	-0.06299741
163	0xbce10d56	-0.02747218
164	0x3d933f3e	0.07189797
165	0x3d233aa6	0.039850853
166	0x3d119595	0.035543043
167	0xbcc59085	-0.024116764
168	0xbd4b3723	-0.04961313
169	0x3d18d6b1	0.03731412
170	0x3d2cd4d1	0.042195145
171	0xbcb7d550	-0.022440583
172	0x3d9b1607	0.07572561
173	0xbb01df9e	-0.0019817124
174	0xbcb83696	-0.022486966
175	0xbd833808	-0.064071715
176	0x3be96083	0.007122101
177	0xbd3c052a	-0.045903362
178	0x3dbd0a9c	0.09230539
179	0x3d82befe	0.06384085
180	0x3b74c841	0.0037350806
181	0xbd11df39	-0.035613272
182	0xbc96290e	-0.018330123
183	0x3c834492	0.016023908
184	0xbd118119	-0.035523508
185	0x3d17a74f	0.037024792
186	0x3d8da47f	0.06916141
187	0xbd9f2ac9	-0.077718325
188	0xbcc3db6c	-0.02390834
189	0x3d073650	0.03301078
190	0xbd641d3e	-0.05569195
191	0x3d022fd3	0.03178389
192	0xbc2178df	-0.009855478
193	0x3cb19629	0.021678047
194	0xbd6ed2b6	-0.05830642
195	0x3ce9f119	0.028557347
196	0x3cfba90c	0.030720256
197	0x3d46f5ac	0.048574135
198	0x39362689	0.00017371228
199	0x3c7dd8dc	0.015493598
200	0xbd398cbf	-0.04530024
201	0x3c8891b1	0.016671034
202	0xbdeefdbe	-0.11669491
203	0x3cf5bffe	0.029998776
204	0xbceb9235	-0.02875624
205	0xbcbf39d9	-0.023343014
206	0xbdccf179	-0.10006995
207	0x3c916dc8	0.017752543
208	0xbd960f88	-0.07327181
209	0xbb83d4af	-0.0040231566
210	0x3d4b486a	0.049629606
211	0xbd2779f9	-0.040887807
212	0xbc71b339	-0.014752203
213	0xbd14cf4f	-0.036330517
214	0xbb7ed51d	-0.003888435
215	0x3c248e29	0.010043659
216	0xbd62c0e8	-0.05535975
217	0xbd016f6a	-0.031600393
218	0x3e23353b	0.15938275
219	0xbcad3465	-0.021143148
220	0x3c073327	0.008251942
221	0x3c963a1a	0.018338252
222	0xbdce6494	-0.100777775
223	0x3dca5aab	0.09880575
224	0x3dae4e4e	0.08511029
225	0x3d662eef	0.056197103
226	0xbc411119	-0.011783862
227	0x3cc0cac8	0.023534194
228	0xbbdc3206	-0.0067198304
229	0xbc89c995	-0.016819755
230	0xbc6ae36e	-0.01433645
231	0x3d8bf73e	0.06834267
232	0xbd94cd3a	-0.07265706
233	0xbc4215cf	-0.01184602
234	0x3d7ca015	0.061676104
235	0xbdadbaf1	-0.08482922
236	0xbd0b2441	-0.03397012
237	0x3bf03941	0.007331044
238	0xbcb974cb	-0.022638699
239	0x3b3dcda4	0.0028961683
240	0x3c99aa71	0.01875803
241	0x3bcf0bfb	0.006318567
242	0x3df14d1c	0.117822856
243	0xbd5397ae	-0.051658325
244	0x3d162b33	0.03666229
245	0xbd5f7e6b	-0.05456392
246	0x3b81e86f	0.003964476
247	0xbb457e6b	-0.0030135165
248	0x3b9be7ef	0.0047578732
249	0xbd06e0cd	-0.03292923
250	0x3d4cbc00	0.04998398
251	0xbcec442b	-0.028841099
252	0x3d95dbb4	0.07317296
253	0xbd00a436	-0.031406604
254	0xbcf2a267	-0.029618455
255	0x3d202194	0.039094523

interaction_layers.1.bias f4 [64]
0	0x364dace3	3.0648014e-06
1	0x366050ee	3.3425708e-06
2	0xb6873321	-4.0292657e-06
3	0x3616ada6	2.2452818e-06
4	0xb3b1b97f	-8.275946e-08
5	0xb602c520	-1.9486251e-06
6	0x363a6dca	2.7780065e-06
7	0x3658b05c	3.2289163e-06
8	0x36a6a4a6	4.966353e-06
9	0xb67f5a1c	-3.8050412e-06
10	0xb61db937	-2.3502632e-06
11	0x367dd94d	3.7826424e-06
12	0x34a29cb4	3.0288868e-07
13	0xb7243125	-9.786604e-06
14	0xb689a9a8	-4.1026688e-06
15	0x3493828c	2.747587e-07
16	0xb3ca0fc0	-9.409223e-08
17	0xb6199f02	-2.2891331e-06
18	0xb6caf6d8	-6.0488055e-06
19	0x364dbe2c	3.0658075e-06
20	0xb5463717	-7.3840914e-07
21	0x363ad281	2.783869e-06
22	0xb58e3db6	-1.0597785e-06
23	0x3711888f	8.6744685e-06
24	0x360b4424	2.0752277e-06
25	0xb70cdbb6	-8.395806e-06
26	0xb5a6210f	-1.2377585e-06
27	0xb6817f73	-3.8593366e-06
28	0xb59e1532	-1.1778086e-06
29	0xb660dac2	-3.3505935e-06
30	0x36569d53	3.198006e-06
31	0xb5aa0c4d	-1.2669567e-06
32	0xb6eda7be	-7.082678e-06
33	0x3623d1ce	2.4411015e-06
34	0xb58cf3e5	-1.0501795e-06
35	0x36cc59d8	6.090133e-06
36	0x3509636f	5.118117e-07
37	0xb53df533	-7.07648e-07
38	0x36a6b54b	4.968291e-06
39	0x368509b2	3.9648376e-06
40	0x362d7513	2.5847155e-06
41	0x358241f3	9.704949e-07
42	0xb612c387	-2.1869507e-06
43	0xb4a10eb5	-2.9999288e-07
44	0x361e4021	2.3581163e-06
45	0x3646fec2	2.9652588e-06
46	0x35bfcd5e	1.4290379e-06
47	0xb533d6c2	-6.699521e-07
48	0xb68aa051	-4.131384e-06
49	0xb4fe5aaa	-4.7377154e-07
50	0xb6503783	-3.1026727e-06
51	0x36e986be	6.959627e-06
52	0xb5c6d48d	-1.481401e-06
53	0x36635ea2	3.388072e-06
54	0x3680e295	3.841075e-06
55	0x35cd5f72	1.5301468e-06
56	0x36a032c0	4.7742797e-06
57	0xb60f5f33	-2.1364074e-06
58	0x3608b8ae	2.0373077e-06
59	0x36ee2d7f	7.098249e-06
60	0x35bf74ea	1.4264635e-06
61	0x352d40cc	6.4541814e-07
62	0x35b590ee	1.3527731e-06
63	0xb63c8c86	-2.8095978e-06

interaction_layers.1.lin.weight f4 [64, 128]
0	0xbd45156b	-0.04811613
1	0xbc4c7d74	-0.012481082
2	0xbbb99663	-0.0056636794
3	0x3d2af193	0.04173429
4	0x3a12ad4c	0.0005595281
5	0x3d01e4c5	0.031712312
6	0x3d030178	0.031983823
7	0x3cad2c0d	0.02113917
8	0xbc50e1c4	-0.012749139
9	0xbcaf7426	-0.021417689
10	0xbbc2b89c	-0.0059424173
11	0x3cb088c8	0.021549597
12	0xbcbe0aef	-0.023198573
13	0xbd17e132	-0.037079997
14	0xbb8dbd5d	-0.0043255524
15	0xbbc31aff	-0.005954146
16	0xbc6a7025	-0.014308964
17	0xbcb765dc	-0.022387438
18	0xbc493897	-0.0122815585
19	0xbb2e4363	-0.0026590459
20	0x3d58b20e	0.05290418
21	0xbcece675	-0.028918484
22	0xbd1a6d52	-0.037701912
23	0x3cfe5f59	0.031051325
24	0x3cc981c5	0.024598012
25	0x3d587529	0.052846108
26	0xbbe619d8	-0.007022124
27	0x3ca739bb	0.02041327
28	0xbd8371a2	-0.06418158
29	0x3c3b0e9f	0.01141706
30	0x3ce94854	0.028476872
31	0xba849712	-0.0010115823
32	0x3d4c59d6	0.04989036
33	0x3d193a37	0.037409034
34	0x3d46f44b	0.04857282
35	0xbbbf40e5	-0.0058365935
36	0xbc9a0158	-0.018799469
37	0x3c91716c	0.01775428
38	0xbbfd3e90	-0.0077284053
39	0x3d21cb10	0.039500296
40	0x3c043b8f	0.0080708405
41	0xbc9d3033	-0.019188022
42	0xbabb1d4a	-0.0014275697
43	0x3c8523b9	0.016252385
44	0xbc8642f4	-0.016389348
45	0x3ca5900b	0.020210287
46	0x3b85c59c	0.0040823948
47	0x3cea19d1	0.028576763
48	0xb9cdc7cb	-0.00039249504
49	0x3c42738a	0.011868367
50	0x3c930047	0.017944468
51	0xbd2dbfb8	-0.042419165
52	0x3cb9f3f3	0.022699332
53	0xbcbcd2e6	-0.023049783
54	0x3cb51ce6	0.022108506
55	0x3d7030aa	0.05864016
56	0xbcc58670	-0.024111956
57	0x3bff3ec4	0.0077894647
58	0x3caaacb5	0.020834306
59	0xbc55e09c	-0.013054039
60	0xbcd54686	-0.026034605
61	0x3c2df355	0.010617097
62	0xbbd7cf9f	-0.0065860297
63	0xbbedcb4d	-0.0072569014
64	0x3c94169a	0.018077184
65	0xbb8cc0e7	-0.0042954567
66	0x3d071fd8	0.032989353
67	0xbbc923b0	-0.0061382875
68	0xbd77a06e	-0.060455732
69	0x3d5aeb97	0.053447332
70	0xbcfdfb5f	-0.031003652
71	0x3c185d9e	0.009299664
72	0xbb3a7b5b	-0.0028454873
73	0xbc1fbdcc	-0.009749841
74	0xbc712aed	-0.014719707
75	0xbc9760a5	-0.0184787
76	0x3d2052f7	0.03914162
77	0x3b89e9f5	0.004208798
78	0x3b98d72f	0.0046643238
79	0xbcad9a0f	-0.021191625
80	0x3d16a085	0.036774177
81	0x3cfaf7e2	0.030635778
82	0x3b768417	0.0037615353
83	0x3c34a933	0.011026668
84	0xbca4fc41	-0.020139815
85	0xbc495b91	-0.012289898
86	0x3d62f845	0.05541255
87	0xbcafee86	-0.021476042
88	0xbcbcada3	-0.023032015
89	0xbca5c4b0	-0.02023539
90	0xbcc20dcd	-0.023688221
91	0x3c73c924	0.014879499
92	0x3ba2fd58	0.0049740486
93	0xbccbece5	-0.024893234
94	0x3d1bfe31	0.038084213
95	0x3c8aadf5	0.016928652
96	0x3d156dab	0.03648154
97	0x3d00f3fe	0.03148269
98	0x3b926b6b	0.0044683716
99	0xbd67a8af	-0.056557354
100	0x3c0adb2b	0.008475105
101	0xbc4e9496	-0.012608668
102	0x3bd8413b	0.006599573
103	0xbcba4121	-0.022736134
104	0x3cba12ea	0.022714097
105	0x3c0afb36	0.008482745
106	0x3d195819	0.037437532
107	0x3cdb0d20	0.026739657
108	0x3d25b80a	0.040458716
109	0xbcf8905f	-0.030342279
110	0xbbcfff29	-0.006347556
111	0xbd07eb8b	-0.033183616
112	0xbcbbe127	-0.02293451
113	0x3d1d8d1e	0.038464658
114	0x3c45cbda	0.012072528
115	0xbc902513	-0.017595803
116	0x3cbada47	0.02280916
117	0xbc873301	-0.016503813
118	0xbc8ed673	-0.017436242
119	0x3c99cf49	0.0187756
120	0x3c771f5c	0.01508316
121	0xbc947cc7	-0.018125905
122	0x3d00e14f	0.03146487
123	0x3d05e873	0.032692384
124	0xba06a691	-0.00051365147
125	0xbd4310c2	-0.047623403
126	0xbb3b7406	-0.002860309
127	0x3be38677	0.0069435197
128	0xbcd2ebfa	-0.025747288
129	0x3c34e11d	0.011039999
130	0x3b1e8330	0.002418708
131	0xbb6e6349	-0.0036375097
132	0x3c3aac52	0.011393623
133	0xbcd270b4	-0.025688507
134	0x3cf453b7	0.029825075
135	0xbc0b1535	-0.008488943
136	0xbbb5df5c	-0.005550308
137	0xbcb82b18	-0.022481486
138	0xbccfb89c	-0.025356583
139	0xbc26a874	-0.010171998
140	0x3aa59875	0.0012633937
141	0xbc71ec01	-0.01476574
142	0xbc1acabd	-0.009447751
143	0xbbb997f8	-0.005663868
144	0xbbf7f285	-0.0075667524
145	0x3b3e7d33	0.0029066324
146	0xbcee30f3	-0.029076075
147	0xbd3f1394	-0.04664953
148	0xbbc0ba68	-0.0058815964
149	0xbb8e47e5	-0.0043420666
150	0x3c834035	0.016021827
151	0xbc8bc696	-0.017062467
152	0xbc3e2f18	-0.011607908
153	0x3cd40a8f	0.025883941
154	0x3c04b8ec	0.008100729
155	0xbcfc803f	-0.030822871
156	0xbd34e4b6	-0.04416343
157	0x3cf0bb3a	0.029386152
158	0xbd094d60	-0.033521056
159	0x3cea28a7	0.028583838
160	0x3c6b67fa	0.014368052
161	0x3ca531ee	0.02016541
162	0x3d10abc1	0.035320047
163	0x3bd8f87e	0.0066214195
164	0x3d0f8917	0.03504285
165	0x3cbe49a5	0.023228476
166	0x3a9ea16c	0.0012102551
167	0xba9a77ca	-0.0011784968
168	0xbc516a90	-0.012781754
169	0x3caa6107	0.02079822
170	0xbcb1924c	-0.021676205
171	0x3c9cb304	0.01912833
172	0xbc30ca0b	-0.010790358
173	0xbc20e618	-0.009820484
174	0xbc98b44b	-0.018640658
175	0x3cb6e6f5	0.022326926
176	0xbcecd098	-0.028908059
177	0xbc1e42ad	-0.009659451
178	0x3b08df6e	0.0020885128
179	0xbd185417	-0.03718957
180	0xbb273699	-0.002551472
181	0x3b4954f4	0.0030720802
182	0xbb463558	-0.0030244198
183	0x3cef7edd	0.029235298
184	0x3cb17f97	0.021667285
185	0xbc5cb515	-0.013470908
186	0x3bf940c0	0.0076065958
187	0xbcf166c4	-0.029467948
188	0x3ce53868	0.027980998
189	0xbd0e2293	-0.03470094
190	0xbc3b8eb2	-0.011447595
191	0x3c4aa42a	0.012368241
192	0xbd2ff196	-0.042955004
193	0xbc5cab0b	-0.013468514
194	0x3cce2cb3	0.025167799
195	0x3cad9858	0.021190807
196	0xbd07afce	-0.033126645
197	0x3cb1f903	0.021725183
198	0x3c0a0f58	0.00842651
199	0x3b9e82e8	0.0048373826
200	0xbd3f5168	-0.046708494
201	0x3be9a3f6	0.0071301414
202	0xb9e3bcb6	-0.00043437415
203	0x3c0e4a15	0.008684655
204	0x3cd2a04b	0.0257112
205	0x3c6c71bc	0.014431413
206	0x3d88913e	0.06668328
207	0x3c9b2332	0.01893768
208	0xbd47af82	-0.04875136
209	0x3ca7e9b1	0.020497175
210	0xbc4507d3	-0.012025791
211	0xbcfc9480	-0.030832529
212	0xbc41da65	-0.0118318545
213	0x3c381cde	0.011237351
214	0xbb5f1947	-0.0034042166
215	0xbc790162	-0.015198084
216	0x3cbf249d	0.023332888
217	0x3c12aade	0.008951871
218	0x3d1a46e7	0.037665274
219	0x3c9bb0ef	0.019005267
220	0xbcaff73e	-0.021480199
221	0xbc889c0f	-0.016675977
222	0x3c31a4b1	0.010842488
223	0x3d0836ca	0.033255376
224	0x3c5b8989	0.01339949
225	0x3cfe97a0	0.03107816
226	0x3cab6b62	0.020925228
227	0x3c814694	0.015780725
228	0xbc96dc5e	-0.018415626
229	0xbc844db4	-0.016150333
230	0x3c9c016c	0.019043647
231	0xbc08b88d	-0.008344782
232	0x3b0e99e6	0.002175921
233	0x3ccbb539	0.024866687
234	0xbd2dcd75	-0.042432267
235	0x3bc9d3c3	0.006159277
236	0xbbf2ccf7	-0.0074096876
237	0x3d006e6a	0.0313553
238	0xbd1c445e	-0.038151138
239	0xb9762bc4	-0.00023476692
240	0x3c06b47a	0.00822174
241	0x3c133418	0.008984588
242	0xbc2f0f97	-0.010684869
243	0x3c228f1e	0.009921817
244	0x3d309ecd	0.043120194
245	0x3cd38da1	0.02582437
246	0xbc417840	-0.011808455
247	0xbd13ce37	-0.036085334
248	0xbcd2a6d9	-0.025714325
249	0x3c728909	0.01480318
250	0x3c255450	0.010090902
251	0x3cec5219	0.028847741
252	0x3d168ae3	0.036753546
253	0xbcef5aae	-0.029218044
254	0x3c5bae49	0.013408252
255	0xbc58ce12	-0.013232725

out.weight f4 [200, 64]
0	0xb9b9e7e7	-0.0003545873
1	0x39ab6a32	0.00032694783
2	0x39acb5d9	0.00032941884
3	0xb9b5e1d6	-0.0003469127
4	0x3989b665	0.0002626657
5	0x396df84a	0.00022694576
6	0xb9811c59	-0.00024625918
7	0x398d77d1	0.00026982886
8	0x39cc3968	0.00038952683
9	0x398da8a6	0.0002701927
10	0xb9813429	-0.0002464366
11	0xb9862d66	-0.00025592296
12	0x399dcc0c	0.000300974
13	0xb98844ad	-0.0002599111
14	0x399d31da	0.00029982516
15	0x398fd958	0.0002743702
16	0x39bd995d	0.00036163154
17	0x39b59344	0.00034632732
18	0x3988a45a	0.00026062393
19	0xb9c17e5a	-0.00036905968
20	0xb9989166	-0.0002910003
21	0x39b22710	0.0003397991
22	0xb98a8346	-0.00026419217
23	0x39566b64	0.00020448636
24	0xb9b4e1c0	-0.00034500472
25	0x393d7f8e	0.00018071962
26	0xb990b76e	-0.00027602486
27	0x3982269a	0.00024824293
28	0x3974c3a4	0.00023342535
29	0x39a23bdd	0.0003094365
30	0x396c575f	0.00022539262
31	0xb718d1f9	-9.108794e-06
32	0x38c9fab7	9.631126e-05
33	0xb9c54d9a	-0.00037632586
34	0xb9a605b1	-0.00031666228
35	0xb91a15de	-0.0001469473
36	0xb9d5c007	-0.00040769597
37	0xb96332a1	-0.00021667268
38	0x398993ac	0.000262407
39	0xb98422bc	-0.0002520288
40	0x39b637f6	0.0003475544
41	0x397c0577	0.00024034629
42	0x3988269f	0.00025968716
43	0xb97c0813	-0.000240356
44	0xb968db5d	-0.00022206963
45	0x398b34d1	0.00026551497
46	0xb9b8e833	-0.00035268217
47	0x399062cf	0.00027539438
48	0xb986c635	-0.00025706147
49	0x399da7a6	0.0003007028
50	0x398a5799	0.00026386676
51	0xb96d6dc2	-0.00022642969
52	0xb98c82fb	-0.0002680047
53	0xb89a434e	-7.355829e-05
54	0x3974d0b1	0.00023347397
55	0x396116f6	0.00021466226
56	0x397f8ca2	0.00024371085
57	0x399d7a0e	0.0003003631
58	0xb96761f4	-0.00022066367
59	0xb9c42f8f	-0.00037419467
60	0xb9a1e5b1	-0.00030879446
61	0xb9963a05	-0.00028653457
62	0x39893389	0.00026169073
63	0x39991a4a	0.0002920202
64	0xb9b70c82	-0.000349138
65	0x39acc65c	0.00032954186
66	0x39d853e8	0.00041261245
67	0xb9c8f40b	-0.000383288
68	0x398bcd29	0.00026665002
69	0x3992fc2c	0.00028035173
70	0xb96efccf	-0.00022791627
71	0x399a3617	0.0002941347
72	0x39c4a796	0.00037508894
73	0x39af1fbe	0.0003340225
74	0xb9858fc8	-0.00025474862
75	0xb9924952	-0.00027901918
76	0x39a3a231	0.00031210625
77	0xb99282a2	-0.0002794462
78	0x39ab7fd6	0.00032710907
79	0x3994f93c	0.00028414454
80	0x39bb234c	0.00035693718
81	0x39d39223	0.00040353936
82	0x398e82f6	0.00027181924
83	0xb9c80756	-0.00038152438
84	0xb98a0e66	-0.0002633214
85	0x39a9a748	0.00032358826
86	0xb992a92d	-0.00027973336
87	0x3950edb1	0.00019924973
88	0xb9b212e2	-0.00033964874
89	0x392aec31	0.00016300452
90	0xb98ec196	-0.00027228583
91	0x3980d7a0	0.00024574716
92	0x397e2d21	0.0002424014
93	0x39c238b9	0.00037044825
94	0x397b7745	0.00023981657
95	0xb7366006	-1.0870403e-05
96	0x38d30adb	0.00010063286
97	0xb9c2eaf6	-0.00037177623
98	0xb9b6413b	-0.00034762346
99	0xb91f7e00	-0.0001521036
100	0xb9c1fa6f	-0.00036998416
101	0xb96fc47f	-0.00022866017
102	0x3992d164	0.00028003298
103	0xb9888300	-0.00026037544
104	0x39bbb76f	0.00035804088
105	0x3982c394	0.0002494125
106	0x39a8c2ec	0.00032188685
107	0xb97fc787	-0.00024393025
108	0xb9671405	-0.00022037335
109	0x3995687c	0.00028497342
110	0xb9c79532	-0.00038067397
111	0x399ca9b7	0.00029881086
112	0xb98a7785	-0.0002641046
113	0x39bb2131	0.0003569215
114	0x39a31a48	0.00031109364
115	0xb96d1e00	-0.00022613257
116	0xb9965ecc	-0.0002868086
117	0xb896d556	-7.192294e-05
118	0x3985d5df	0.00025527083
119	0x39665522	0.00021966224
120	0x3980cc66	0.0002456635
121	0x39977b14	0.00028892665
122	0xb952fec8	-0.00020122074
123	0xb99f6e1b	-0.00030408878
124	0xb9b10d0f	-0.000337698
125	0xb9aaea5e	-0.00032599544
126	0x3989e6c1	0.000263026
127	0x39a7c264	0.00031997554
128	0xb98cf07b	-0.00026882053
129	0x398389f5	0.00025089053
130	0x398da112	0.00027013622
131	0xb986df4b	-0.00025724838
132	0x39386d28	0.00017588271
133	0x393188cf	0.00016931
134	0xb921356d	-0.00015374059
135	0x396c5bd5	0.00022540924
136	0x3995837d	0.0002851746
137	0x395ec489	0.00021244785
138	0xb93b4d01	-0.00017862396
139	0xb93df312	-0.00018114995
140	0x398906f2	0.0002613585
141	0xb94478b7	-0.00018736986
142	0x3972d373	0.0002315769
143	0x395d1ae3	0.00021086218
144	0x39840ece	0.00025188032
145	0x398774f4	0.00025836343
146	0x39779f76	0.0002361516
147	0xb98e1e3a	-0.0002710687
148	0xb936d44b	-0.00017435958
149	0x39743cf1	0.00023292356
150	0xb95c4716	-0.00021007317
151	0x392e65c5	0.00016631845
152	0xb98adb5f	-0.00026484855
153	0x38efc43d	0.0001143296
154	0xb95e06c9	-0.00021174097
155	0x393c18d4	0.00017938326
156	0x394093bf	0.00018365587
157	0x397a3cb7	0.00023864476
158	0x39437f35	0.00018644037
159	0xb796300d	-1.7903769e-05
160	0x38884a29	6.498799e-05
161	0xb9825161	-0.00024856164
162	0xb965c147	-0.00021911143
163	0xb8d7792a	-0.000102745675
164	0xb992d8a9	-0.00028008714
165	0xb92c2cff	-0.0001641996
166	0x3951e67d	0.00020017657
167	0xb9489545	-0.00019129094
168	0x399dde6d	0.00030111094
169	0x393ba183	0.00017893878
170	0x394894b9	0.0001912889
171	0xb94104af	-0.00018407659
172	0xb91fcf04	-0.00015240541
173	0x3940196c	0.00018320017
174	0xb9940857	-0.00028234973
175	0x394b5a23	0.00019393167
176	0xb943ab25	-0.00018660405
177	0x399461d9	0.00028301662
178	0x3968db52	0.00022206947
179	0xb9229dd4	-0.0001550832
180	0xb94c8ce7	-0.00019507446
181	0xb898ddec	-7.289261e-05
182	0x39279b57	0.0001598423
183	0x391fdd2c	0.00015245815
184	0x39331913	0.00017080111
185	0x396d085b	0.00022605194
186	0xb93c1149	-0.00017935516
187	0xb95c8421	-0.00021030057
188	0xb987ac63	-0.00025877645
189	0xb9693220	-0.00022239285
190	0x395bf5ae	0.0002097699
191	0x3973e025	0.00023257786
192	0xb940f17a	-0.00018400504
193	0x394b582e	0.00019392438
194	0x39431a21	0.00018606383
195	0xb9328e69	-0.00017028455
196	0x383aedaa	4.4567198e-05
197	0x38c38976	9.323929e-05
198	0xb753f47b	-1.2633503e-05
199	0x39a90d78	0.00032244227
200	0x394c0009	0.00019454969
201	0x38825707	6.215093e-05
202	0xb8dae4ce	-0.00010437668
203	0xb9071b98	-0.00012884883
204	0x392d36be	0.00016518959
205	0xb8c7d5c9	-9.52888e-05
206	0x3937978f	0.000175087
207	0x397897b1	0.00023707632
208	0x394f44f6	0.00019766748
209	0x39607f8b	0.00021409818
210	0x38c7e21d	9.531176e-05
211	0xb98266c5	-0.00024872101
212	0xb907c740	-0.0001294883
213	0x38cefeb7	9.87029e-05
214	0xb964e84c	-0.00021830312
215	0x393bf055	0.0001792324
216	0xb9a1c7ea	-0.0003085726
217	0x38052dea	3.1752432e-05
218	0xb83ec1af	-4.5479912e-05
219	0x38e40dcc	0.00010874457
220	0x397ae87a	0.00023928462
221	0x38bcae52	8.997008e-05
222	0x39161ab3	0.00014315061
223	0xb8208bbe	-3.8277118e-05
224	0x35ee708d	1.7765138e-06
225	0xb93050ae	-0.00016814723
226	0xb932df53	-0.00017058598
227	0xb769d3c7	-1.39371905e-05
228	0xb9324030	-0.00016999315
229	0xb823a5bf	-3.901659e-05
230	0x38c025cb	9.162313e-05
231	0xb8f8ec5e	-0.00011869588
232	0x398a03b2	0.00026324164
233	0x39270236	0.00015927185
234	0x391d3d2a	0.00014995472
235	0xb7647b22	-1.3618528e-05
236	0xb8a3f77c	-7.818543e-05
237	0x3894cc54	7.095249e-05
238	0xb92300f3	-0.00015545245
239	0x38a68cb7	7.941707e-05
240	0xb8fec411	-0.00012148184
241	0x3950035d	0.00019837679
242	0x389700bc	7.200378e-05
243	0xb89166c7	-6.9332826e-05
244	0xb89474fe	-7.0789814e-05
245	0xb8fb7760	-0.00011990848
246	0x386ff525	5.721035e-05
247	0x3828c684	4.0239203e-05
248	0x3812c952	3.4996607e-05
249	0x3907d7bb	0.00012954969
250	0xb933b774	-0.00017139112
251	0xb920867e	-0.00015308891
252	0xb9574a86	-0.0002053176
253	0xb981c52e	-0.00024751708
254	0x38908971	6.8920555e-05
255	0x38f3a888	0.00011618534
