best_model/xasnet_gnn_model_10.pt (torch, 102230 bytes, 14 tensors)

batch_norms.0.weight f4 [128]
000000 71 6c f0 3d ff cc e9 3d 10 af 15 3e b0 76 16 3e
       0.117394336 0.11416053 0.14617562 0.14693713
000010 8c 2a 14 3e fc 28 d6 3d e4 34 18 3e ef 0d 4e 3e
       0.14469355 0.10457036 0.14863926 0.20122503
000020 34 ed f6 3d 70 e5 4c 3d a8 b4 1f 3e d4 88 d2 3d
       0.12056962 0.050023496 0.15596259 0.10280004
000030 48 9e b9 3d c8 e1 ae 3d d6 c4 11 3e ef 70 38 3e
       0.09063393 0.08539158 0.14235243 0.18011831
000040 e6 e5 ff 3d 6f 1b 2c 3e 1b c1 6a 3c d1 60 2a 3e
       0.124950215 0.1680734 0.0143282665 0.16638495
000050 24 bd da 3d b3 09 1b 3e 51 9d ce 3d fa cd 17 3e
       0.10680607 0.15140419 0.100885995 0.14824668
000060 09 bd 34 3e 44 2b bb 3d c0 14 8b 3a a4 98 c8 3d
       0.17650236 0.09139112 0.0010611042 0.09794739
000070 c6 de be 3d b5 09 24 3e b7 f4 01 3e 9b 94 e0 3d
       0.093198344 0.16019328 0.12691008 0.10965844
000080 0f a9 24 3d 87 62 3a 3e cb cc ea 3d 5c b3 ae 3d
       0.04020029 0.18201648 0.114648424 0.08530304
000090 c7 d9 2b 3e bf e6 f2 3d 79 05 20 3e c0 b0 a8 3d
       0.16782294 0.118604176 0.15627088 0.082368374
0000a0 82 77 6f 3d 0a 33 d9 3d 03 e8 03 3e ba 9e f2 3d
       0.05846358 0.10605438 0.12881474 0.11846681
0000b0 5d ce 29 3e 47 35 00 3e 94 f2 eb 3d 84 89 04 3e
       0.16582628 0.12520324 0.115208775 0.12943083
0000c0 d8 ea 15 3e a6 19 2f 3e c0 bd fe 3d dc 2c 51 3e
       0.14640367 0.17099628 0.12438536 0.20427269
0000d0 2f ef 8e 3d 53 f1 b5 3d f9 c3 ac 3d 40 9a 13 3e
       0.069792144 0.088839196 0.08435816 0.1441431
0000e0 c1 e3 03 3d f2 f1 29 3e 71 ba d3 3c f3 49 d8 3d
       0.032199625 0.16596201 0.025845738 0.1056098
0000f0 06 7e 0e 3e ca 76 35 3e 28 6d dd 3d 81 b2 dd 3d
       0.13915262 0.17721096 0.108118355 0.108250625
000100 38 6e 93 3d 3e 99 ab 3d aa 8a f9 3d 40 26 17 3d
       0.07198757 0.08378838 0.12184651 0.036901712
000110 05 21 e0 3d 97 7c 16 3e 72 5b fb 3d 15 d4 f8 3d
       0.10943798 0.14695965 0.12273301 0.121498264
000120 e6 f5 e2 3d cb c9 f7 3d 3b 70 e9 3d b5 f5 00 3e
       0.11082058 0.12099036 0.113983594 0.1259373
000130 78 de 11 3e 3c 73 c0 3d bb b6 18 3e 06 b4 bd 3d
       0.14245021 0.09396979 0.14913456 0.09262852
000140 62 e3 a5 3c 6a 39 ab 3d 3e 3a 02 3e c2 22 db 3d
       0.020250026 0.0836056 0.1271753 0.10699989
000150 84 5d 0c 3e a6 ae 0f 3e 3c dc 0b 3e 43 1d 2e 3e
       0.13707548 0.14031467 0.13658231 0.1700335
000160 7f 6a 12 3e 6f 02 6f 3d 1f be 09 3e e1 17 b5 3d
       0.14298438 0.05835193 0.13451432 0.08842445
000170 36 a5 89 3d 00 e2 b4 3d 07 cd 89 3d 83 dc 9e ba
       0.067209646 0.088321686 0.06728559 -0.0012120161
000180 55 d3 a6 3d 28 c3 14 3e 8a 03 df 3d f2 7a 25 3e
       0.08145777 0.14527571 0.10889347 0.16160181
000190 8f e3 28 3e 50 70 d9 bb a7 0f 20 3e 8b a8 86 3d
       0.16493057 -0.006635703 0.15630971 0.06575116
0001a0 d2 72 16 3e 6f 43 08 3e c0 e0 f4 3d 96 8a 1e 3e
       0.14692238 0.13306974 0.1195693 0.15482554
0001b0 0c aa 00 3e a6 62 f9 3d c8 15 fa 3d 83 2d f9 3d
       0.12564868 0.12177019 0.12211186 0.12166884
0001c0 48 f2 bc 3d 35 88 d7 3d d4 f9 2b 3e f8 34 77 3d
       0.09225899 0.10524026 0.1679452 0.06035325
0001d0 97 8f 08 3e fd f5 a3 3d 54 49 01 3e 72 5e dd 3d
       0.13336025 0.08005903 0.12625629 0.1080903
0001e0 4b fb ff 3d 10 6c 8c 3d 1b a9 c8 3d a8 30 16 3e
       0.12499102 0.06856549 0.09797879 0.14666998
0001f0 17 87 ca 3d 47 67 a4 3d 25 73 01 3e e3 bb ef 3d
       0.098890476 0.08027511 0.1264158 0.117057584

batch_norms.0.bias f4 [128]
000000 7d f3 4a bc 5a b0 c0 bc 03 0c 93 bd 56 84 d4 bd
       -0.012387154 -0.023521591 -0.071800254 -0.103768036
000010 84 ca cd bd 50 52 44 bd ec 6c a4 bd c2 d5 c4 bd
       -0.100483924 -0.04793006 -0.08028588 -0.096110836
000020 f5 7a aa bd 47 17 9a bd 06 e2 ad bd b1 22 11 bb
       -0.083242334 -0.07523971 -0.08490376 -0.0022145922
000030 63 60 98 bc a3 ee 41 bd 34 b3 0a be a5 fa 00 be
       -0.018600648 -0.047346722 -0.13544923 -0.12595613
000040 a1 26 1f be a6 e8 15 be 97 68 b1 bc 95 b8 ea bd
       -0.1554208 -0.1463953 -0.021656318 -0.114609875
000050 2b fc d2 bd ca 37 de bd ba b1 25 bd 7e eb 6b bd
       -0.103020035 -0.10850485 -0.040452696 -0.05759763
000060 dd 4f c6 bd 67 d9 77 bd 4b 4d 53 bd aa 53 98 bd
       -0.096832015 -0.060510065 -0.051587384 -0.07437833
000070 3d a2 27 bd 28 89 a7 bd e3 6b 4f bd 23 e8 0f be
       -0.040926207 -0.08180457 -0.05064 -0.14053397
000080 1c a0 f5 bd 96 18 ef bd 03 69 20 bd 41 ff b0 3c
       -0.11993429 -0.11674611 -0.039162647 0.02160609
000090 1d 70 e8 bd 3a 8e b5 bd 70 c7 3f bd ff 88 b5 bd
       -0.11349509 -0.08865018 -0.046821058 -0.088640206
0000a0 f6 06 aa bc 08 01 a3 bd 40 bb 03 be 2a 90 7e bd
       -0.020755272 -0.07959181 -0.12864399 -0.062149204
0000b0 e0 0a ad bd d6 17 4f bd e4 ca 4b bd e6 e7 81 bd
       -0.0844934 -0.05055984 -0.04975404 -0.06343059
0000c0 25 ac 1a be 84 25 fb bd 30 bc 88 bd 0b 1f a2 bd
       -0.1510473 -0.12263015 -0.06676519 -0.07916077
0000d0 0a cc 79 bc 36 00 12 bd e4 db 9c bd f4 5a cc bd
       -0.015246401 -0.035644732 -0.07659128 -0.099782854
0000e0 36 25 b8 bd d6 7e 15 be 09 1e de bd b3 a7 72 bd
       -0.089914724 -0.14599165 -0.108455725 -0.05924196
0000f0 3c c1 d9 bd 19 6a d9 bd af 38 a7 bd 94 e2 6c bd
       -0.1063256 -0.1061594 -0.081651084 -0.05783327
000100 b0 f2 7b bc 12 9e ef bc d3 61 a1 bd 29 32 d5 bd
       -0.015377685 -0.029250178 -0.078799866 -0.10409958
000110 33 e7 96 bd 65 39 9d bc fa 05 17 bd ac 9b b3 bd
       -0.073683165 -0.019192407 -0.036870934 -0.087699264
000120 f1 f3 a2 bc 0a 11 9a bd 62 30 98 bd 6e db 81 bd
       -0.019891711 -0.07522781 -0.07431103 -0.06340681
000130 c5 5a a0 bd 6e 7f 76 bd 33 91 28 bc a7 68 cc bc
       -0.07829813 -0.06018012 -0.010288524 -0.024952246
000140 2b c2 3e bd d9 a8 ee bc 6b 19 10 bd 64 23 c5 bd
       -0.04657189 -0.029133247 -0.03518049 -0.09625891
000150 96 5c e3 bd 0a ba e6 bd 86 e8 85 bd fb 37 aa bd
       -0.11101644 -0.11265953 -0.06538491 -0.08311459
000160 af 49 f7 bd 18 87 4e bd 23 1b b5 bd fa 0a 44 bd
       -0.12074601 -0.050421804 -0.088430665 -0.04786203
000170 16 00 80 3c 16 b7 b2 bc 4f 8b 4c bd 20 f6 0f bd
       0.015625041 -0.021815818 -0.049937543 -0.035146832
000180 2c c1 de bd 50 9a f6 bd b0 0e 25 bd 95 89 cc bd
       -0.10876688 -0.120411515 -0.04029721 -0.09987179
000190 58 f0 a4 bd e9 7b 8d bd c0 bf 87 bd 12 d1 6a be
       -0.080536544 -0.069083996 -0.0662837 -0.22931316
0001a0 93 9b c8 bd 63 7a 40 bd 72 10 3f bd c1 f2 fc bd
       -0.097952984 -0.046991717 -0.046646543 -0.12350989
0001b0 82 d1 fa bc 3e 55 e1 bd 30 55 c3 bd 3f 84 aa bd
       -0.03061748 -0.11002587 -0.095377326 -0.08326005
0001c0 01 87 49 bb cc 28 4f bd 2f 16 a6 bd 58 fd 84 bd
       -0.0030750635 -0.050576016 -0.081097 -0.06493634
0001d0 7e 47 ab bd 54 33 df bc 23 f1 0e be 2a 1a a1 bd
       -0.083632454 -0.027246155 -0.13959174 -0.078663185
0001e0 97 01 ae bd d6 e6 ac bd 9d 25 65 bd f2 56 92 bd
       -0.08496397 -0.08442466 -0.055944074 -0.0714549
0001f0 a1 af f4 bd 59 d6 c9 bc 06 45 2f bc aa d5 00 bd
       -0.11947561 -0.024638342 -0.010697609 -0.031453766

batch_norms.0.running_mean f4 [128]
000000 db e6 ba 3d 8a 24 00 3c f0 38 0e 3c d5 76 c6 3c
       0.091260634 0.007821212 0.008680567 0.024226585
000010 18 34 cb bc c9 b9 6f 3d 9c b5 af 3d 7f b4 45 3d
       -0.024805114 0.058526788 0.08579561 0.048267838
000020 4e 22 2d 3b 56 18 02 3e 5a 8f f4 3c 61 5e 07 3e
       0.0026418152 0.12704596 0.029853512 0.13219596
000030 fc 0b 60 bc 3c 73 8a 3c 31 88 68 bd 46 05 28 3d
       -0.013674732 0.016900651 -0.056770507 0.041020654
000040 2a 7d e5 3d 81 da cb 3d a3 a7 bc 3c 01 80 41 3d
       0.11205514 0.09953786 0.023029154 0.047241215
000050 90 32 19 bd 40 03 66 3d 2a e4 65 3d bf 6f 94 3d
       -0.037401736 0.056155443 0.056125797 0.072478764
000060 ea fd 9e 3d 2f 92 d7 3d a5 74 30 bd ab 8c e6 3d
       0.07763274 0.10525929 -0.04307999 0.11257299
000070 7d 46 b2 bc 7e 62 db 3d ca 0d 54 3d 61 3d 30 3b
       -0.021762127 0.10712145 0.051770963 0.0026892053
000080 0f 12 8a 3d ff b1 a1 bc 65 f0 9c 3d 58 a7 19 3d
       0.06741726 -0.019738195 0.07663039 0.037513107
000090 69 50 61 3d 8d 4a c1 3d 82 c7 8e 3c a3 8a b3 3d
       0.055008326 0.094380476 0.017429117 0.08766677
0000a0 33 ad f3 3d cb 32 5b bd b5 97 76 3d 6a 39 bb bc
       0.118982695 -0.053515237 0.060203273 -0.022854526
0000b0 3f d8 1e 3d b7 9e 8c 3d 1f 11 10 3e 61 0b 3e 3d
       0.038780447 0.0686621 0.14069031 0.04639757
0000c0 31 f3 5c 3c b6 86 28 3d 6c 42 16 3d a9 f3 f8 bc
       0.013485716 0.041144095 0.03668444 -0.030389624
0000d0 cd c5 13 bd ba df 79 3d f3 dd ae 3c 76 bf 88 3d
       -0.03607731 0.061004378 0.021346068 0.06677143
0000e0 80 9b a9 3b 18 14 89 3c 47 9b a5 3d 61 99 15 3e
       0.0051760077 0.016733214 0.080862574 0.1460929
0000f0 92 eb 75 3d c2 94 0c 3e fa 0c 81 3d 6a 2f 00 3d
       0.06003911 0.13728622 0.06301303 0.031295218
000100 38 58 2c 3e 20 38 6d bc 0c d8 ca bc 68 a5 1c bc
       0.16830528 -0.014478713 -0.024761222 -0.00956092
000110 20 ef b9 3d 6c ba b9 3d b1 5b 65 bc 07 24 b2 3d
       0.090788126 0.0906876 -0.013998912 0.08698278
000120 36 de a7 3d 99 bd 29 3d 60 d1 88 3d eb 6c e9 3d
       0.0819668 0.04144058 0.0668056 0.113977276
000130 07 11 e3 3d e5 80 1b bd 3e 9c de 3c 4d 22 c9 3d
       0.11087232 -0.03796472 0.027174111 0.098209955
000140 eb a8 cb bc 18 16 2d 3e e5 46 8f 3d d5 0e cf 3b
       -0.02486082 0.1690296 0.06995944 0.006318907
000150 69 d5 81 3d a6 bf 4f 3d b6 16 49 3c 86 e4 bf bd
       0.06339533 0.05071988 0.012273481 -0.09369759
000160 83 f4 6a 3b 30 fa 0e 3d 55 be 83 3d 7b a3 f2 3c
       0.0035851307 0.034906566 0.06432787 0.02961897
000170 26 8b 6a 3c 11 55 cd 3d f5 ed ad 3b f0 0a 30 3c
       0.014315402 0.10025991 0.0053079077 0.010744795
000180 fe 4d a1 bd 28 a6 55 3d 03 dc ef 3d 3f f4 a4 3d
       -0.07876204 0.052160412 0.11711886 0.08054399
000190 9a de cc 3d 30 54 a9 bc a8 37 9b bd c4 03 42 bd
       0.100033954 -0.020670027 -0.07578975 -0.047366872
0001a0 96 c4 71 3b 48 24 80 3d 33 35 be 3c ac 4c f3 3d
       0.0036890856 0.0625692 0.023218727 0.118798584
0001b0 fd f2 a3 3d 6d 88 81 bc 69 39 07 3e 31 13 6f 3d
       0.08005331 -0.015812123 0.13205494 0.05836791
0001c0 65 ec 00 bd e0 29 9b bc 9d 97 65 3d 10 f9 bb 3d
       -0.031475443 -0.018940866 0.056052793 0.09178364
0001d0 39 75 78 3d b2 26 a4 3d 15 f1 ac 3d a6 5a de bc
       0.060658667 0.08015193 0.0844442 -0.027142834
0001e0 e5 cf d9 bc c1 4b 8a 3c f4 6a 52 bd f7 cd bc 3d
       -0.02658839 0.016881825 -0.05137153 0.09218972
0001f0 fe da a8 3b 73 41 95 bc d6 92 3e 3d 84 b2 2c bc
       0.005153059 -0.018219685 0.046526752 -0.010540608

batch_norms.0.running_var f4 [128]
000000 28 e9 41 3b d6 99 49 3b 82 ee bf 3b f3 38 e4 3a
       0.0029588435 0.003076186 0.00585729 0.0017411992
000010 1c 2a 6f 3b f2 55 9f 3b 04 e7 4b 3b 99 81 57 3b
       0.0036493605 0.0048625404 0.0031113038 0.0032883643
000020 a9 04 f1 3a 9f 92 dc 3b e3 c2 1e 3b 4f 1d 3d 3b
       0.001838823 0.006731346 0.0024225048 0.002885658
000030 fb 89 7d 3b 08 da 4a 3b 4b be 89 3b b1 d7 d1 3b
       0.003868698 0.003095271 0.004203593 0.0064038862
000040 95 0e 00 3b 0d e0 a6 3b 3f 7d a8 39 45 9d ae 3b
       0.0019539942 0.005092627 0.00032136773 0.0053288066
000050 92 e9 39 3b 0a 94 f9 3a bc 04 cd 3a 05 49 27 3b
       0.0028367979 0.0019041311 0.001564167 0.00255257
000060 d5 3b db 3b 0c 0f 0c 3b 4a 2d b9 3a 72 61 f0 3b
       0.006690482 0.0021371273 0.0014127877 0.007335835
000070 7e 8c 57 3b 37 78 15 3b 89 d7 8e 3b ee 93 83 3b
       0.0032890136 0.002280725 0.00435919 0.0040154373
000080 50 c5 7d 3b e1 bf 4d 3b 85 26 b8 3b 4a 6e d4 3a
       0.0038722344 0.0031394886 0.0056198263 0.0016207185
000090 9e 44 1c 3b eb e1 09 3b 87 23 b6 3b a2 37 a3 3b
       0.002384461 0.0021039199 0.0055584344 0.004980997
0000a0 b1 e5 51 3b d1 0e 7d 3b bd 7b 11 3b ec da 94 3b
       0.0032027776 0.0038613568 0.0022198998 0.004542699
0000b0 5f cd d4 3b 22 54 16 3c c6 5d 87 3b 43 05 8b 3b
       0.0064942087 0.009175332 0.0041310517 0.0042425706
0000c0 ee c3 16 3b e2 d0 0d 3b df 72 48 3b 23 6a 65 3b
       0.0023004967 0.0021639396 0.0030586047 0.003500589
0000d0 dc 5b be 3a a1 33 b5 3b 2d ed 33 3b b8 b2 bf 3a
       0.0014523226 0.0055298363 0.00274546 0.0014625406
0000e0 74 69 8a 3b e6 c8 2f 3b 27 0e 48 3b 19 c6 a6 3b
       0.004223997 0.0026822626 0.0030526014 0.005089533
0000f0 22 7a 7f 3a 46 8e 62 3b c3 31 22 3b bd ef 21 3b
       0.0009745677 0.0034569665 0.0024748899 0.0024709546
000100 30 e5 ae 3b 6b a6 3d 3b 28 f6 44 3b c1 73 2d 3b
       0.00533738 0.0028938304 0.0030053947 0.00264667
000110 11 1c c7 3b 2a 2a 6c 3b 9c ac 7b 3b b1 30 12 3c
       0.006076344 0.0036035874 0.0038402444 0.008922742
000120 cc d2 f3 3a e2 83 ca 3a cf 83 95 3b 62 f1 de 3b
       0.0018602251 0.0015450681 0.004562832 0.0068036774
000130 b3 89 df 3b 50 bb 39 3b 36 aa 81 3b 22 01 2b 3b
       0.006821835 0.0028340407 0.0039570583 0.0026093205
000140 5c 5e 69 3a af c6 48 3b a1 71 67 3b b6 40 a2 3b
       0.0008902305 0.0030636003 0.003531553 0.004951562
000150 5b bf 2b 3b ed 06 09 3b 0e 37 5e 3b 72 d5 32 3b
       0.0026206586 0.002090867 0.0033907327 0.0027287868
000160 1f c0 43 3b 8e 22 e3 3a 2b 52 bc 3a 80 e7 11 3b
       0.0029869152 0.0017329024 0.001436775 0.002226323
000170 f6 24 18 3b 67 20 f1 3b 23 0d 22 3b 21 75 86 3a
       0.002321539 0.007358599 0.0024727068 0.0010258296
000180 d8 61 8e 3b 4c 1a cd 3a ce 85 97 3b d3 94 59 3b
       0.00434516 0.0015648096 0.004624105 0.0033200278
000190 6c dc c1 3b 58 d6 c6 3a b3 73 5d 3b e4 4f 06 3c
       0.005916169 0.0015170081 0.0033790886 0.008197758
0001a0 d4 2f 1f 3b b0 f3 b8 3b 72 f1 c8 3a e0 30 fd 3a
       0.0024289982 0.005644284 0.0015330745 0.0019316934
0001b0 0f cc 46 3b c0 50 85 3b 08 fc 26 3c 21 26 96 3a
       0.003033403 0.004068464 0.010191925 0.0011455455
0001c0 a3 4b 56 3b cb e0 ec 3b b5 ce 4b 3b 80 08 d9 3b
       0.0032698892 0.007228946 0.0031098549 0.0066233277
0001d0 18 29 05 3b 81 60 fc 3b 26 a0 e6 3b d5 f2 40 3b
       0.0020318683 0.007701934 0.007038134 0.0029441614
0001e0 30 bf db 3a 98 1c b4 3a c3 73 98 3b 6f be 55 3b
       0.0016765352 0.0013741432 0.0046524717 0.0032614728
0001f0 c5 6a a9 3b 69 d3 41 3b 4c d9 36 3b 69 9d 08 3b
       0.0051701986 0.0029575473 0.0027900515 0.0020845777

batch_norms.1.weight f4 [64]
000000 be 6b 43 3e e0 93 58 3e 65 be 91 3e 77 84 7b 3e
       0.19084069 0.2115016 0.28465572 0.2456225
000010 4c 5b 74 3e 14 64 97 3e 9c e1 95 3e 34 b0 8d 3e
       0.23862952 0.2956854 0.2927369 0.27673495
000020 fe 4d 5d 3e 72 43 3e 3e 9d 3b 5d 3e 88 b9 ab 3e
       0.21611783 0.18580416 0.21604772 0.33539987
000030 04 58 98 3e 9b 9c 71 3e dc 9f a6 3e 5e 09 8e 3e
       0.2975465 0.23594896 0.32543838 0.27741522
000040 1e 3f 4b 3e 6a 44 81 3e de d4 82 3e 11 78 ab 3e
       0.19848296 0.25247508 0.2555303 0.3349004
000050 39 1d fe 3d 11 45 69 3e 10 ff af 3e 05 22 72 3e
       0.124079175 0.22780253 0.34374285 0.2364579
000060 c3 7c 59 3e 29 ad 55 3e 72 49 bd 3e d3 64 62 3e
       0.21238999 0.20866837 0.36970097 0.22108774
000070 d0 64 41 3e 7b f1 89 3e b3 1f 98 3e f1 ce bb 3e
       0.18886113 0.26942047 0.29711685 0.3668132
000080 7d dc 84 3e 8e e2 18 3e a5 5d a9 3e 8b 19 8d 3e
       0.2594947 0.14930174 0.33079258 0.2755855
000090 41 6d be 3e 2c 9f 5c 3e e5 84 9d 3e 32 43 07 3e
       0.3719273 0.21545094 0.30765453 0.13209227
0000a0 96 fd 57 3e ab e0 aa 3e fc e7 9e 3e 75 26 95 3e
       0.21092829 0.33374533 0.31036365 0.29130903
0000b0 9f 22 a7 3d f6 1d 90 3e fd 8c 89 3e 53 6b 74 3e
       0.081609 0.28147858 0.26865378 0.23869066
0000c0 68 a1 28 3e 64 08 bd 3e 49 c0 92 3e e1 40 ac 3d
       0.16467822 0.36920464 0.28662327 0.08410812
0000d0 1b ac 7b 3e a6 b7 ee 3d 99 e7 47 3e 9f d4 97 3e
       0.24577372 0.11656122 0.19521941 0.29654405
0000e0 67 4e 6e 3e c4 44 96 3e 8d f9 aa 3e 20 b2 0c 3e
       0.23272096 0.2934934 0.33393517 0.13739824
0000f0 18 d1 8b 3e ad e9 91 3e 5f f8 89 3e 40 61 94 3e
       0.27307963 0.28498593 0.26947305 0.28980446

batch_norms.1.bias f4 [64]
000000 f2 81 81 be 75 02 92 be f9 ab 85 be 16 9b 89 3e
       -0.25294453 -0.285175 -0.26107767 0.26876134
000010 2e 16 93 3e af f1 81 be 26 5f 8a 3e 1f 80 88 be
       0.2872786 -0.25379702 0.27025717 -0.2666025
000020 37 08 8a 3e 27 97 8f 3e ec 60 7b be b5 26 80 3e
       0.26959392 0.28045008 -0.24548692 0.2502953
000030 17 47 8f be 01 e1 94 3e eb 37 ad bc 83 98 83 3e
       -0.27983925 0.29077914 -0.021144828 0.25702295
000040 81 9c 94 3e ca 1a 8f 3e 05 e2 80 3e 50 42 53 3e
       0.29025653 0.27950126 0.2517244 0.20630765
000050 2f 44 a9 be a4 aa 8f 3e 1c 7e 80 bd 19 8a 8a be
       -0.33059832 0.28059876 -0.062740535 -0.27058485
000060 a5 2f 8a 3e 66 d4 95 3e e9 97 81 be 0e b0 8a be
       0.26989475 0.2926361 -0.2531121 -0.27087444
000070 a0 f4 98 be a5 d8 88 be 1c bf 67 3e e5 5c 75 be
       -0.29874134 -0.26727787 0.22631496 -0.23961218
000080 8e e2 91 3e 3a 73 96 3e 60 81 90 3e e5 17 8f be
       0.2849316 0.29384786 0.28223705 -0.27947918
000090 15 6f 83 3e 97 7e 7e be 77 20 7a 3e a6 39 9b be
       0.25670686 -0.24852978 0.24426447 -0.3031742
0000a0 6c 87 8c 3e 43 d4 c6 3d f9 35 8e be 50 13 15 be
       0.2744707 0.097084545 -0.27775553 -0.14558148
0000b0 5c 80 97 be 86 a4 86 be 41 6b 89 be c3 ee 91 be
       -0.29590118 -0.26297396 -0.2683964 -0.28502473
0000c0 36 9e 8f 3e 04 47 70 be c9 53 3c be cb 58 a0 3e
       0.28050393 -0.2346459 -0.18391337 0.31317744
0000d0 c2 fc 90 3e ee 4e 96 be ac 71 93 be 8d 09 6f 3e
       0.2831784 -0.29357094 -0.28797662 0.23343487
0000e0 63 e6 83 be a4 52 8f be 90 db 8f 3e 7c 10 90 be
       -0.2576171 -0.27992737 0.280972 -0.28137577
0000f0 2a f9 8e 3e 3f 93 82 3e ea f0 90 3e b6 a4 8b 3e
       0.27924472 0.25502965 0.28308803 0.27274102

batch_norms.1.running_mean f4 [64]
000000 bd 49 81 3b 09 af a0 3c bf 51 f1 bb 07 6e 91 3c
       0.003945558 0.019614713 -0.007364481 0.01775266
000010 4d 45 49 3c f2 8a ca 3c a6 70 60 3b 5c 8d 6b 3b
       0.012284589 0.024724457 0.0034246831 0.003594241
000020 54 cb dd ba 14 77 01 3c 49 68 58 3a 96 59 97 bb
       -0.0016921558 0.007901926 0.0008255286 -0.004618834
000030 d8 d9 73 bc 83 29 d4 3b 48 45 59 bc 0d 57 35 bc
       -0.014883481 0.006474675 -0.013261147 -0.011068118
000040 a4 03 16 3c 9a 91 5d 3a c5 52 86 3c 5c 6b 17 bc
       0.009156141 0.0008452177 0.01639689 -0.009241905
000050 a6 c0 09 3c 47 e4 0c 3b 68 5c 14 3d e6 62 7b bb
       0.008407747 0.0021498369 0.036220938 -0.0038358509
000060 52 ee 08 bb 0b 4e 94 bb d4 47 95 bc 8c 16 b8 ba
       -0.0020894003 -0.004525905 -0.018222727 -0.0014044805
000070 d6 32 ee bb 1d 8d 71 bc 2d c6 b3 bc 0e 8e d5 bb
       -0.0072692437 -0.014743117 -0.021945084 -0.0065171784
000080 07 63 c0 3c f1 8b 25 3c e5 2b 69 bc c5 73 b5 3b
       0.02348472 0.010104165 -0.014231657 0.0055374824
000090 8e e3 37 bb c1 90 5e bc a7 e4 49 bc dc 49 1b bc
       -0.0028059217 -0.013584317 -0.012322581 -0.009478059
0000a0 58 06 c8 3b 4a a5 45 3b f2 83 b7 3b 46 18 85 3c
       0.006104272 0.0030158334 0.005600446 0.016246926
0000b0 98 aa a2 3b 00 46 81 ba 68 b9 2e 3c a3 5e 4f bc
       0.004964184 -0.000986278 0.0106643215 -0.0126568405
0000c0 dc c8 10 3b 10 d5 3e 3c b6 02 0b bc de 5e b6 3b
       0.0022092378 0.011647478 -0.008484533 0.0055655083
0000d0 a8 4f c0 3b 8c 33 2c 3c 50 69 10 bc 4e b7 94 3c
       0.0058688708 0.010510337 -0.008814171 0.018153813
0000e0 a0 5b ab bb bb 6a 7c 3c 85 74 aa 3a fc 9b b5 3a
       -0.0052294284 0.015406306 0.0013004696 0.0013855691
0000f0 80 7b da bb 51 47 57 bc ff cf c3 bc ed 52 30 3c
       -0.0066675544 -0.013139562 -0.023902891 0.010761959

batch_norms.1.running_var f4 [64]
000000 33 5f 17 3b 24 08 a4 3a 9a a6 f1 3a 70 3d 24 3b
       0.0023097515 0.0012514633 0.0018436492 0.0025061034
000010 65 18 20 3b 7f 09 d8 3a e9 fa 14 3b ca 08 a0 3a
       0.0024428603 0.0016482322 0.0022732562 0.0012209651
000020 fb 78 b5 3a c9 4d a3 3a 82 b7 b8 3a dc 84 a9 3a
       0.0013845259 0.0012459095 0.0014092776 0.0012933272
000030 47 40 fe 3a c3 e9 e0 3a 57 d3 c8 3a 00 f2 b3 3a
       0.0019397818 0.001715951 0.0015321773 0.0013728738
000040 21 63 d5 3a 9a b8 00 3b e2 c9 d8 3a b1 cb cb 3a
       0.0016280153 0.001964128 0.0016539658 0.0015548376
000050 5d 07 2b 3a a6 6b 88 3a 6d 86 d3 3a 15 44 a8 3a
       0.00065242295 0.0010408058 0.0016138084 0.0012837673
000060 50 b9 d4 3a 47 95 bd 3a bb 53 0a 3b 04 d8 8d 3a
       0.0016229544 0.0014464044 0.0021107036 0.0010821824
000070 4e 98 e2 3a 57 76 be 3a 49 d5 0b 3b 1a 49 d1 3a
       0.0017287822 0.0014531118 0.0021336845 0.001596722
000080 4d a2 04 3b ad 52 a1 3a 14 9e d1 3a 32 ac 04 3b
       0.002023834 0.0012307964 0.0015992546 0.0020244238
000090 26 1c 03 3b ad b2 cc 3a 01 eb da 3a d3 c0 90 3a
       0.0020005791 0.0015617214 0.0016702117 0.0011043794
0000a0 8c b4 d7 3a 4c 82 e8 3a c4 5d b4 3a 41 a4 0f 3b
       0.0016457005 0.0017739027 0.0013760854 0.0021917971
0000b0 30 f5 93 3a 37 07 df 3a 8f 62 ae 3a a3 89 db 3a
       0.0011288282 0.00170157 0.0013304519 0.0016749393
0000c0 dd 03 cc 3a e0 7a b6 3a 5a 6c e2 3a 3c 7c 68 3a
       0.0015565116 0.0013922118 0.0017274723 0.000886861
0000d0 07 89 3f 3b af c5 e6 3a 87 71 9a 3a 01 69 f3 3a
       0.0029225962 0.0017606522 0.0011783101 0.0018570722
0000e0 2e 4e 26 3b a9 9a 18 3b c2 f5 c8 3a 46 8f 78 3a
       0.0025376189 0.0023285544 0.0015332031 0.00094817986
0000f0 87 6b ae 3a 0c 20 e8 3a 24 fa c5 3a 71 79 b3 3a
       0.0013307192 0.0017709746 0.0015104455 0.0013692809

interaction_layers.0.bias f4 [128]
000000 3b 38 25 36 15 12 24 34 a2 91 2e 37 80 ce 13 b7
       2.4619646e-06 1.5280268e-07 1.0405116e-05 -8.809962e-06
000010 b7 7c e0 b5 2b e1 7f b6 c9 4a 94 36 4e d1 93 35
       -1.6725597e-06 -3.8129026e-06 4.41945e-06 1.1013269e-06
000020 8c cb 06 b6 f1 f0 9e 35 c0 29 16 b5 bb 29 28 b6
       -2.0086036e-06 1.184204e-06 -5.594011e-07 -2.505824e-06
000030 2e 02 0e b6 e1 7c 60 b4 34 76 97 b5 57 78 91 36
       -2.1160918e-06 -2.0907056e-07 -1.1284778e-06 4.335346e-06
000040 aa c7 0a 37 9b 05 a5 b5 9a 42 b5 b2 03 dd 04 36
       8.271929e-06 -1.2295089e-06 -2.110146e-08 1.9798179e-06
000050 cd 6d a2 35 19 79 e5 b6 65 6b 6e 35 e0 ff b3 35
       1.2101897e-06 -6.8388294e-06 8.881819e-07 1.3411009e-06
000060 7e 2a 3d b5 e7 b9 6c 36 7f c3 0b b2 73 9f 22 b3
       -7.046982e-07 3.527495e-06 -8.1353155e-09 -3.7863582e-08
000070 7d 94 74 b6 03 18 7a b6 39 b2 5e 36 76 3e b9 34
       -3.6445265e-06 -3.726688e-06 3.3184317e-06 3.4504382e-07
000080 7d 78 e8 b4 09 36 af b6 25 73 30 36 2a 13 9d b6
       -4.3301034e-07 -5.221697e-06 2.6293067e-06 -4.6811956e-06
000090 84 ff 0f 37 41 93 63 37 92 3f f7 35 fb 06 1e 35
       8.582956e-06 1.356454e-05 1.8421435e-06 5.8869745e-07
0000a0 34 b8 67 35 ff 42 14 b6 ec b9 d4 b5 1e 39 75 35
       8.6322257e-07 -2.2092715e-06 -1.5849341e-06 9.135273e-07
0000b0 9c 8f d5 b4 3c 06 6a 35 57 04 a5 b5 66 68 46 36
       -3.977883e-07 8.7180865e-07 -1.2294721e-06 2.9565067e-06
0000c0 c6 9b 33 36 b3 c3 9e 34 be 38 c6 b4 56 25 6a b6
       2.676375e-06 2.9572183e-07 -3.692166e-07 -3.489045e-06
0000d0 ac 6f cf 35 0d 87 e5 35 ec 0f 13 34 01 8c 0f 36
       1.5455203e-06 1.7101135e-06 1.3696234e-07 2.1390154e-06
0000e0 a0 9a b4 b4 87 de 06 35 51 2c 94 b3 6a fe 78 b6
       -3.3640117e-07 5.024271e-07 -6.899848e-08 -3.7102968e-06
0000f0 61 ae 1c 35 54 c1 19 37 4e cd 5e 36 de 75 31 36
       5.8368283e-07 9.164523e-06 3.320008e-06 2.6443663e-06
000100 2c bc f1 b6 b6 4b aa b6 2c 82 8b 36 f0 e6 bf b3
       -7.204266e-06 -5.0752087e-06 4.157677e-06 -8.936138e-08
000110 be de ba 36 66 62 f2 b6 95 71 5f 35 40 bd 5d b6
       5.5691626e-06 -7.223617e-06 8.323926e-07 -3.3041724e-06
000120 dd 16 98 36 57 6d 9d 36 01 12 87 36 65 56 f5 35
       4.5326146e-06 4.6916934e-06 4.0254095e-06 1.8279067e-06
000130 5f 92 06 b7 1e 75 c7 b6 88 a8 b3 35 8f c9 3b 37
       -8.021102e-06 -5.9442964e-06 1.3385588e-06 1.1192998e-05
000140 13 12 2a b4 a2 8d 1e b7 0a ce c7 b5 f6 fe 92 36
       -1.5839059e-07 -9.45051e-06 -1.4886621e-06 4.3808204e-06
000150 a4 57 ea b6 d2 54 b3 b6 46 cb 2a 36 f7 ef be 36
       -6.983946e-06 -5.34449e-06 2.5450295e-06 5.690377e-06
000160 9f 30 93 b4 05 a0 a9 b4 29 44 b8 b6 36 72 52 35
       -2.741626e-07 -3.1595133e-07 -5.491562e-06 7.8397295e-07
000170 62 b4 6b 35 b4 98 e5 35 4b f3 10 34 08 ba 7f b1
       8.7806814e-07 1.7106272e-06 1.3499555e-07 -3.721313e-09
000180 5b 2b cb b5 c1 9f 9f b6 b5 97 88 b5 2e 25 44 36
       -1.5137297e-06 -4.757167e-06 -1.0176942e-06 2.9227917e-06
000190 9b 77 a4 35 4e 96 21 33 44 e4 ee b6 19 7d 6f 35
       1.2253762e-06 3.7622435e-08 -7.1195263e-06 8.921648e-07
0001a0 42 44 f2 b5 65 b7 08 b7 bb 39 8b b6 e3 79 97 b7
       -1.8050271e-06 -8.148932e-06 -4.1492435e-06 -1.805736e-05
0001b0 1d e5 81 b6 93 ea 0a b5 ef 41 5f 36 fa 2b 2b b6
       -3.871172e-06 -5.1750357e-07 3.3267968e-06 -2.5506583e-06
0001c0 4b 0b 05 b6 e5 98 c3 35 74 48 66 b4 1c ac 6a b5
       -1.9825118e-06 1.457313e-06 -2.1446778e-07 -8.7422245e-07
0001d0 19 8a 82 35 cd 58 32 36 c9 93 63 b6 b3 c2 76 b6
       9.725946e-07 2.6575756e-06 -3.3911658e-06 -3.6770186e-06
0001e0 1e fb 6a b6 84 0d c5 36 67 4e cb 34 52 fb be 32
       -3.5014887e-06 5.872631e-06 3.7868742e-07 2.2233198e-08
0001f0 4a 87 97 36 4c 45 ec b4 1e 80 5b 36 01 5a 85 b5
       4.5159004e-06 -4.4008846e-07 3.2708117e-06 -9.935467e-07

interaction_layers.0.lin.weight f4 [128, 15]
000000 e7 9e 63 3d 50 9d 6e bd 39 0f 89 3c 21 08 9c 3c
       0.055571463 -0.058255494 0.016730892 0.019046845
000010 84 76 b1 b9 4b bd 24 bd 9e e0 7e 3d 9c b7 13 bd
       -0.00033848372 -0.040219586 0.06222593 -0.036063775
000020 d4 c4 02 bd b1 ce 98 3d 80 dc 8d bd 81 26 0c bd
       -0.03192599 0.07461298 -0.06926823 -0.034216408
000030 1e f4 eb 3c 47 74 e0 3c 43 9e 37 bd 00 bf 05 3d
       0.028802928 0.027399195 -0.044828665 0.032652855
000040 d2 86 d2 bc 1b 8f 55 bd 2f 5c 83 3d 1f 7f 5a 3d
       -0.025699053 -0.05213843 0.06414067 0.05334389
000050 71 b8 f8 bc ea 72 33 bd 4c 04 3e 3b 56 ef 78 3d
       -0.030361386 -0.043810762 0.002899426 0.060775124
000060 ad 7b 46 bd ad ab 75 3d f1 8f c2 bc ec 08 00 bd
       -0.04845779 0.059978176 -0.023750277 -0.03125851
000070 35 dd cf 3c f2 86 0a 3d 70 4b b2 3d 33 4b 8e bc
       0.025374034 0.0338201 0.08705795 -0.017369842
000080 32 39 ac 3d b8 89 de bd a0 c0 b8 bc 6d 83 e6 3d
       0.08409347 -0.108661115 -0.022552788 0.11255536
000090 00 91 af bb 48 c8 4f bc 9c 6b 12 3e 16 7e 99 3c
       -0.0053578615 -0.012682028 0.14298862 0.01873688
0000a0 00 8f 06 3d 9b bf 13 3c 5e 9e 14 be a0 b9 23 3e
       0.03285122 0.00901785 -0.14513537 0.15988779
0000b0 3a 48 d8 3d a5 04 cf 3d 16 df 68 bd da aa f6 3c
       0.10560651 0.10108308 -0.056853376 0.030110765
0000c0 f0 da 7f bd 59 34 33 3d 31 ab 85 ba 39 2d b4 bc
       -0.062464654 0.043751094 -0.0010198114 -0.02199422
0000d0 78 64 1f bc 50 e3 55 3d 00 c0 12 3d 9b c3 e1 3c
       -0.009728543 0.052218735 0.035827637 0.027559092
0000e0 1b fe e6 3c e1 a3 dc bd c9 ee ab 3d 83 67 e4 3d
       0.028197339 -0.10773445 0.08395154 0.11152556
0000f0 b5 17 d6 3d 25 3f 72 bd 80 30 14 3d 20 09 64 bd
       0.104537405 -0.05914225 0.036179066 -0.055672765
000100 54 89 31 3d e9 2d 05 3d 3a 90 a7 bc 79 e6 b5 bc
       0.043343857 0.032514486 -0.020454515 -0.022204624
000110 2e 0e b6 3d 49 ca 2f bc 23 d2 12 3d d5 0a 36 3d
       0.08889423 -0.010729381 0.035844933 0.044443924
000120 dd 51 fd bd 5b 9b f2 3d dc 69 8a 3d 45 cb 1d 3d
       -0.1236913 0.11846038 0.06758472 0.03852393
000130 b1 e1 5f bc e6 cc 8d 3c cd 67 2f 3d fd 29 82 bd
       -0.013664649 0.017309617 0.0428236 -0.06355665
000140 4a 2d 22 ba b1 59 50 bd 85 72 cf 3d 4f 1d 04 bd
       -0.0006186558 -0.050866786 0.10129265 -0.032254513
000150 47 7e 59 bc 73 87 50 3d a5 e6 0f bd c8 1f 84 3d
       -0.013274736 0.050910424 -0.03513207 0.06451374
000160 32 77 8c bc f2 06 ad bc b5 94 9c 3d 20 b5 3b bc
       -0.01714668 -0.021121476 0.07645551 -0.011456758
000170 b6 f3 6c 3d 8b 11 e2 bd 4d 74 82 bc 4d ae de 3d
       0.05784961 -0.11038502 -0.015924597 0.10873089
000180 46 26 81 ba f1 04 bb 3d 2c 96 14 bd 1a 7f 6c 3d
       -0.0009853325 0.09131802 -0.036276028 0.0577384
000190 58 97 45 3c 24 8b 02 bc bb 7c a2 bd 2d c6 1c 3e
       0.012060009 -0.007967744 -0.07933947 0.15309973
0001a0 70 44 aa 3c 9d 24 ba 3d 3c bf 5b bd fe ec 9e bb
       0.020784587 0.09089015 -0.053649172 -0.004850029
0001b0 d4 98 99 bd 59 97 ef 3b b3 84 f2 3d c5 44 09 bd
       -0.07499853 0.007311743 0.118417166 -0.03351285
0001c0 14 8a 63 3d 3c 02 60 bc 44 e7 0a be 18 08 10 3d
       0.055551603 -0.013672408 -0.13564783 0.03516397
0001d0 42 79 f9 3c a7 5f b7 3d 9d 46 cf bd 47 46 cd 3c
       0.030453328 0.08953791 -0.1012089 0.025057925
0001e0 35 b8 51 bc d9 d3 22 bd d1 c5 96 3d ff 75 14 be
       -0.012800266 -0.039752815 0.07361949 -0.14498137
0001f0 ae 66 f6 3c f3 91 92 bc 97 fc 11 bd f0 8f 52 bb
       0.030078258 -0.01789186 -0.03564128 -0.003212925
000200 94 40 b4 bc 3a d3 9e 3b 4b c6 f2 3d a7 b3 00 3d
       -0.02200345 0.0048469575 0.11854228 0.03142133
000210 00 e6 79 3d fe 6e d8 bd ef 3b b3 3c 7b a1 2c 3d
       0.06101036 -0.10568045 0.021879165 0.042146187
000220 96 7d 96 bc 0b a6 71 3c 97 65 20 bd 2f f9 8c 3d
       -0.01837043 0.01474906 -0.039159384 0.068834655
000230 d2 56 bf bc 22 4b 18 3d b2 d3 83 bd bf b4 2d 3d
       -0.023356829 0.037181027 -0.06436862 0.0424087
000240 8b 0b ce 3c cf cf 26 bb 3f c6 9a 3d 0f 30 0e 3d
       0.025151988 -0.0025453453 0.07557344 0.0347138
000250 4f ac 80 bc 25 bb 43 bc 49 ec ee 3c 53 52 c8 bc
       -0.015707163 -0.011946474 0.029165404 -0.024453318
000260 bf 7e d1 3c b0 c3 ef bd 3c bc d3 3d f8 bb 13 bb
       0.025573133 -0.11707246 0.10338637 -0.0022542458
000270 71 78 dc bd 34 8f 49 3d b8 1b 7b 3d 2e a1 2d 3d
       -0.1076516 0.049208835 0.06130573 0.04239004
000280 4a 02 ba bb 53 b4 9e 3c 7c dd a7 bd ac 2d 85 3d
       -0.0056765424 0.019373095 -0.08196542 0.06502852
000290 4b 1a c8 3c 28 85 50 3d 8c a6 96 bc 51 b7 d6 3d
       0.0244266 0.050908238 -0.018389963 0.104841836
0002a0 c2 61 b9 3c f9 8c ae bc da 88 91 bd 0f bf cd 3d
       0.022629622 -0.021307455 -0.071061805 0.10046207
0002b0 ea 2c fe bd f0 24 80 3d e4 2c 33 3d 8e 55 72 bc
       -0.124109104 0.06257045 0.043743983 -0.014790906
0002c0 7d a1 2e bd e0 5b 9e 3d 64 77 82 3c e7 35 57 bd
       -0.042634476 0.077323675 0.01592607 -0.05254164
0002d0 41 5a 32 3d 08 1a 22 bd 98 6f f9 3c a8 11 eb 3c
       0.043543104 -0.039575607 0.03044872 0.028694943
0002e0 4a c3 37 bd a3 72 27 3c ca ea 69 bd 6d 6e 6e 3d
       -0.044863977 0.010220203 -0.057108678 0.05821078
0002f0 81 2b f9 3c ac 67 2a bd a9 86 1e 3d db 4a 7b bd
       0.030416252 -0.041602775 0.03870264 -0.061350685
000300 1d e9 17 3d 71 05 d5 bc 4a 2a 26 bc e4 ff 05 bd
       0.03708755 -0.026003571 -0.010141918 -0.03271474
000310 4a 3a 20 3d 3e f2 81 3c a6 34 a9 bd 59 aa ba 3d
       0.03911809 0.01586258 -0.08261995 0.091145225
000320 b1 44 6f bb 26 a2 6b bd 1e fb 48 3d 39 91 3e 3c
       -0.003650945 -0.057527684 0.04906761 0.0116313035
000330 48 ee 14 3d 5e b2 f9 bc 02 cc 54 3d bb ea 2f bd
       0.036360055 -0.03048056 0.05195237 -0.042948466
000340 35 7a ae 3d 4a a6 1f bd e8 ed c8 bc c4 10 e2 bb
       0.08519403 -0.038976945 -0.024527505 -0.0068989713
000350 9c f5 cb 3d e1 72 78 bd 6b 71 be bc 92 58 37 bd
       0.09958956 -0.060656432 -0.023247441 -0.0447622
000360 64 78 cb bd a2 9d b6 3d 05 b4 fa 3c e7 ce 85 3d
       -0.09935072 0.08916785 0.030603418 0.06533604
000370 d7 7c 80 bd 33 58 fb bb 9e 53 64 3b 63 f6 57 3d
       -0.06273811 -0.0076704263 0.0034839879 0.052725207
000380 23 e7 95 bd 83 4b ed 3d c7 df da bd 5c 02 41 bd
       -0.073194765 0.11586668 -0.106872134 -0.04712139
000390 53 68 62 bd 78 7e c5 b9 ed c4 e6 3d 7c f2 5c bd
       -0.055275273 -0.00037668995 0.11268029 -0.05394219
0003a0 64 94 a4 3c df 80 86 3c d5 f9 c6 bd 66 27 c3 3d
       0.02009029 0.016418872 -0.097156204 0.09528999
0003b0 e3 70 3b 3d d7 07 9e 3d af 42 a7 bd de a9 8a 3b
       0.045761954 0.07716339 -0.08167016 0.0042316755
0003c0 f6 0f 1b 3e c9 8c a9 bc 84 1c c7 3d 48 ca 0d bc
       0.15142807 -0.020697014 0.09722236 -0.008654185
0003d0 db 01 96 bc c0 f7 8d 3d e8 c1 8e 3c ab 27 d0 bc
       -0.018311432 0.0693202 0.017426446 -0.02540954
0003e0 51 e5 c7 3d 63 ee 11 3d 01 5c 33 3d 3a e5 5c 3a
       0.097605355 0.035627734 0.043788914 0.00084264914
0003f0 5f d6 bc bd 4e 7f e9 3d b5 0a b7 3d 91 2d 88 3d
       -0.092205755 0.114012346 0.08937589 0.06649316

interaction_layers.1.bias f4 [64]
000000 dd 59 e1 b5 15 a3 59 b6 bc 27 d1 b6 bc 76 98 35
       -1.678996e-06 -3.2430446e-06 -6.233311e-06 1.1359439e-06
000010 1c b3 d6 b6 4c 1d 60 b6 d5 7f 8f 36 62 80 42 b7
       -6.398548e-06 -3.3395654e-06 4.2766137e-06 -1.15931925e-05
000020 b2 52 13 b6 18 a2 55 36 be a3 10 36 5f 1d bf 36
       -2.1952842e-06 3.1833824e-06 2.1552983e-06 5.695663e-06
000030 ec 16 70 b7 56 06 57 b5 76 be 34 b6 3b dd 33 37
       -1.4310452e-05 -8.010296e-07 -2.6932953e-06 1.0720741e-05
000040 1a 68 2d 36 1d 95 9b 36 4a 7d 4b b7 bc 19 c3 36
       2.5839604e-06 4.636719e-06 -1.2128914e-05 5.8144487e-06
000050 08 00 b8 b6 bd f7 e5 35 eb df 16 b6 96 4b 05 b7
       -5.483631e-06 1.7133931e-06 -2.248208e-06 -7.9450165e-06
000060 de c4 74 b6 86 75 d5 36 44 70 24 b7 ab e0 5b 36
       -3.6473425e-06 6.361576e-06 -9.801301e-06 3.2764317e-06
000070 d3 85 96 36 cd 14 2a b7 3f 60 67 36 7c e6 3b 37
       4.4859275e-06 -1.0137633e-05 3.4477705e-06 1.1199732e-05
000080 1a 4e b3 b6 b5 ff 11 37 20 6f 96 36 bb ec 08 37
       -5.343708e-06 8.70221e-06 4.483285e-06 8.16135e-06
000090 18 5e 8f b4 50 9e e0 35 e9 b8 c3 36 c4 72 20 36
       -2.6704288e-07 1.6735376e-06 5.8329792e-06 2.390866e-06
0000a0 ef 14 78 35 69 ca 14 35 bf cf f4 35 6e 28 90 b6
       9.241766e-07 5.542884e-07 1.8239879e-06 -4.296241e-06
0000b0 96 a0 e1 b6 2e 0b b6 b6 80 e9 bd b4 f9 03 6f b7
       -6.724217e-06 -5.425324e-06 -3.5373887e-07 -1.4246435e-05
0000c0 ea 72 bf b5 8c 7a 8b 32 fd f5 a0 b6 6b e4 01 37
       -1.4264053e-06 1.6237458e-08 -4.7970084e-06 7.742182e-06
0000d0 a5 3c 50 36 7d 18 13 b6 0a 88 d9 33 2b 9b 03 37
       3.1029715e-06 -2.191896e-06 1.0129595e-07 7.844336e-06
0000e0 b4 4b 19 35 01 e3 67 b6 67 c2 59 37 00 c0 5c 36
       5.7107104e-07 -3.4553816e-06 1.2979471e-05 3.2894313e-06
0000f0 a9 a4 f3 36 d8 61 d4 b5 81 ed 17 34 c8 24 55 b7
       7.2611333e-06 -1.5823707e-06 1.4149374e-07 -1.2704353e-05

interaction_layers.1.lin.weight f4 [64, 128]
000000 c3 f1 92 bc 9f 60 82 bd a8 7f 46 bd 2e 2c 0b bd
       -0.017937547 -0.06366085 -0.048461586 -0.03397768
000010 58 6d d2 bc 37 e6 a4 3c de 88 20 3c 38 51 e2 3b
       -0.025686905 0.020129306 0.009798257 0.0069066547
000020 ba 57 43 bd 5d 49 76 3c ee 4c 5f 3d 49 54 87 3c
       -0.047691084 0.01503214 0.054516725 0.016519682
000030 70 4d 24 bd d9 96 f8 3c 5b e2 26 3d 5d 0d 93 bc
       -0.040112913 0.030345367 0.040743213 -0.017950708
000040 d9 b0 5f 3c f1 0a 0c 3d 81 3f ae b9 9c be a7 bb
       0.013653004 0.034190122 -0.0003323518 -0.005119158
000050 0d 51 a9 3d ea 1a 6f bd 3b 67 ba bc df a3 f6 bc
       0.08267412 -0.058375277 -0.022754302 -0.030107437
000060 87 3a 04 bd ae c4 4f 3d 56 79 9d b9 cd 1f dc 3a
       -0.03228238 0.050724678 -0.00030035776 0.0016794145
000070 e0 eb 67 3b 35 ba 78 3c c3 16 2c 3d eb 79 ca 3c
       0.0035388395 0.015181114 0.042013895 0.024716338
000080 a0 89 bf bb ae b8 39 bb cd ac bb bc 55 80 dd bb
       -0.0058452636 -0.0028338837 -0.022909546 -0.006759683
000090 c5 d6 39 3d 76 a6 cd bc 39 26 17 3d fd f4 f8 3b
       0.045370836 -0.025103789 0.036901686 0.0075975643
0000a0 d2 4c 0b bd e5 d3 0c bc 83 6a 16 3d 3c 7c 3c bd
       -0.03400881 -0.0085954415 0.03672267 -0.046016917
0000b0 8f d1 83 bd 76 ee 8c 3c 90 20 ee 3c 0e ed 3d 3c
       -0.064364545 0.01720355 0.029068261 0.011592163
0000c0 91 67 91 3c c3 77 80 bd d2 62 46 bd 4f b1 25 bd
       0.01774958 -0.06272843 -0.048434086 -0.040452298
0000d0 58 27 0c 3d c6 20 de 3c c4 e4 ec 3c ce 2d b4 bc
       0.03421721 0.027115237 0.028917678 -0.021994498
0000e0 5c de 2f bc 71 24 0f 3c 2e 43 b0 39 da 82 2c 3d
       -0.010734167 0.008736716 0.0003361939 0.042116977
0000f0 70 02 c2 bc 51 82 81 3d 79 7e f3 bc d0 e7 1c bd
       -0.023682803 0.06323684 -0.029723393 -0.03830701
000100 58 79 86 bc 9d 9e 23 3c 17 67 97 3d 95 2b d0 b9
       -0.016415283 0.009986547 0.0739271 -0.00039705323
000110 39 29 d9 3c 1b 08 aa ba 0d 86 01 bd 61 ce 3d bc
       0.026508914 -0.0012972386 -0.03162198 -0.011584849
000120 71 c1 e3 3c 71 83 b4 bb af 84 16 3d 84 8f 41 3d
       0.027802201 -0.005508833 0.03674763 0.047256008
000130 a1 fd 31 bb 3a 6c c6 bc 54 96 d7 3d 99 20 0b bd
       -0.0027159231 -0.024221528 0.1052672 -0.033966634
000140 0c 3e 37 bb a1 1e 92 3d 79 4a 59 3c 56 32 02 bd
       -0.0027960567 0.07134748 0.013262385 -0.031786285
000150 e5 e1 69 3c f1 43 09 bd 48 c1 c8 bc 16 4e cc bc
       0.014275049 -0.03351206 -0.024506226 -0.024939578
000160 e1 b5 54 3c 88 0a e1 bc 4c 1a 66 bd db e3 84 3c
       0.012982816 -0.027470842 -0.056177422 0.016221931
000170 d1 b6 1f bd 31 45 9c bc 44 30 50 3d aa 1c 37 b9
       -0.038992707 -0.019075962 0.05082728 -0.00017462918
000180 79 f5 ec 3c 7c 2d 5a bd 87 a5 28 3d ef cb 8d ba
       0.028925644 -0.053266034 0.041173484 -0.0010818223
000190 79 6f 59 3c cb eb cd 3a 4a 45 5b 3c 94 1f 06 3d
       0.013271206 0.001571053 0.013383219 0.03274496
0001a0 29 12 cf 3c 51 8a b2 3b 25 51 ae bc a0 d9 09 bd
       0.025277214 0.0054486175 -0.021278927 -0.03365481
0001b0 d5 0b 00 3c a7 52 47 bc f7 bc 55 3c c2 f8 0e bd
       0.007815321 -0.012165702 0.013045541 -0.034905203
0001c0 66 55 e4 bc c1 99 ca bb b5 4f 9f 3d 83 89 e0 ba
       -0.027872752 -0.0061828797 0.07778875 -0.0017130825
0001d0 eb 60 01 3d a9 40 15 3c 8f e2 f7 3c 27 88 b2 bc
       0.03158657 0.009109654 0.030259399 -0.021793438
0001e0 14 d8 60 b9 72 65 81 3c 39 08 34 3c 30 1b 0d 3c
       -0.000214428 0.015795443 0.010988289 0.008612439
0001f0 6c e2 54 bc 27 8e c2 bc fa 4a 12 3d e2 4e 56 3b
       -0.012993436 -0.023749424 0.035716034 0.0032700826
000200 d7 c7 e0 3c 48 bf ab 3c 4f 09 3c 3c 04 93 74 3b
       0.027439041 0.020965233 0.011476829 0.0037319073
000210 fa 7c 89 3c 46 49 31 bd 18 43 fe 3c 9c d7 21 bc
       0.016783226 -0.04328277 0.031037852 -0.009878065
000220 06 f9 c3 3c 6a 6a 98 3c 71 c2 1a 3d 26 01 01 3c
       0.023922455 0.01860543 0.03778309 0.007873809
000230 53 f7 60 3c c4 21 3d 3d 6c 5d c8 3b eb db 16 3c
       0.013730842 0.04617478 0.0061146524 0.009207706
000240 a3 05 f1 3c 3c 3d a5 bb cb e9 66 ba 71 ff 04 bd
       0.029421633 -0.0050427 -0.00088086416 -0.03247017
000250 67 5c 90 bb 72 44 18 3c 61 fb f3 3b 22 08 35 bc
       -0.0044055465 0.009293662 0.007445738 -0.011049302
000260 89 82 d4 ba 0f 32 d7 bb e0 4c 1c bc e8 83 26 bc
       -0.0016213219 -0.0065672467 -0.009539813 -0.010163285
000270 8f 53 c3 bc eb f8 4b 3d e1 e7 21 bc 46 01 23 3d
       -0.023843555 0.049797934 -0.009881944 0.039796136
000280 f2 1d 0f 3c 03 a7 4c 3a 37 0e 00 bd 9c 62 f9 3c
       0.008735167 0.0007806869 -0.031263556 0.030442528
000290 d1 7d 8e bc de 57 00 3d ea 0c bd bc 5d e3 b1 3a
       -0.017393978 0.031333797 -0.023077447 0.0013571788
0002a0 d4 0d 5e 3c 94 bc 85 3c 57 56 d2 3b d2 cc 92 3c
       0.013553102 0.016325273 0.006418984 0.017919932
0002b0 0d fd c5 3c 9e 42 46 bd ab e4 45 3c 21 2d 82 bc
       0.024168516 -0.048403375 0.0120784445 -0.01589066
0002c0 ec 56 11 bd 4c 09 cf 3c 2d d9 55 bb df 92 e0 3c
       -0.035483286 0.025272988 -0.0032630668 0.027413784
0002d0 9c 88 b9 ba b6 38 e5 bb 64 ce ff 3c 2f 38 e2 3c
       -0.0014155093 -0.006995286 0.031226344 0.027614681
0002e0 b1 5d 65 bc 71 bf d5 bc 5e c6 48 bc 16 45 55 3c
       -0.013999389 -0.026092263 -0.012254326 0.01301696
0002f0 22 d8 93 3c 37 ca b0 bc ba 4a 8c 3c 9f 70 f6 3c
       0.018047396 -0.021580799 0.017125476 0.030082999
000300 5d 65 d0 3b c5 e4 30 bd 11 c5 de bb cf 49 97 bb
       0.0063597397 -0.04318692 -0.0067983945 -0.004616953
000310 c5 e3 c2 bc ad f2 ce 3c 47 90 2c bc 49 6b f1 bb
       -0.02379025 0.025262201 -0.010532445 -0.0073675257
000320 f6 f7 42 bc 73 1f c7 3c ee 93 34 3c 6a 04 f6 3b
       -0.011899939 0.024306988 0.011021597 0.0075078504
000330 db 8d 85 bc 27 a5 83 3c dc 33 39 bd 39 c9 3b bd
       -0.016302994 0.016069962 -0.045215473 -0.045846198
000340 8f f9 b4 bb 1f 84 94 bc 56 a9 28 3d 02 5e ef 3c
       -0.0055229138 -0.018129406 0.041177116 0.029219631
000350 b0 e9 32 3c 25 3a 25 bd eb 0d 26 3d cc 41 02 3d
       0.010919973 -0.040338654 0.040540617 0.03180103
000360 a2 d9 78 3c 0c f7 25 3d 1b 4b 13 3d 1a f2 a9 ba
       0.015188606 0.040518805 0.035960298 -0.0012965829
000370 3b 6c 07 3d d2 5b a9 bb 53 ce 8e 3c a7 1c 02 3c
       0.0330622 -0.0051684165 0.017432367 0.007941402
000380 29 ae 23 3d 41 6f fc 3c 48 e9 4b bc e4 1a b0 3c
       0.039961014 0.030814769 -0.012445755 0.021497197
000390 a1 6a e0 bc 65 59 83 3b f5 97 bd 3c 02 0b 06 3c
       -0.027394595 0.0040084594 0.023143748 0.008181335
0003a0 27 db 0e bb b6 c9 b4 bb 15 9e 30 3d dc b0 bf 3c
       -0.0021798105 -0.00551721 0.04311951 0.023399763
0003b0 40 59 9a bc 25 cf ad bc 13 85 94 bc 63 a3 09 3d
       -0.018841386 -0.021216938 -0.018129861 0.033603083
0003c0 a7 9e 6d 3c 12 87 be 3b 4f 1d 00 3c 55 a7 a7 bc
       0.014503158 0.0058144415 0.007819488 -0.020465532
0003d0 41 c0 83 3d 08 58 f8 3b 53 e3 63 bb e3 09 0b 3d
       0.06433154 0.0075788535 -0.0034772947 0.033944976
0003e0 7b f5 17 3d 77 36 10 3b e7 c4 e8 3c 64 5d 37 bc
       0.037099343 0.002200512 0.028414203 -0.0111917
0003f0 f9 fa af 3c 69 82 31 3d cc 68 8d 3c 40 9f 55 bc
       0.021481978 0.04333726 0.017261885 -0.013038456

out.weight f4 [200, 64]
000000 f4 72 04 3c 8d 15 32 3c 61 7f 65 3c 48 df 36 bc
       0.008084048 0.010869396 0.01400742 -0.011161633
000010 1e 34 7a bc 1c 05 27 3c 28 41 53 bc 59 be d6 3b
       -0.015271215 0.010194089 -0.012893952 0.006553453
000020 1e 91 19 bc e5 86 2c bc 48 f2 43 3c 7a b4 13 bc
       -0.009372978 -0.010530208 0.01195962 -0.009015197
000030 23 47 3f 3c b8 8a 5f bc 39 c0 03 ba 2e 0d 1a bc
       0.011674675 -0.013643913 -0.0005025897 -0.009402556
000040 74 38 41 bc 04 58 37 bc af ca 32 bc 61 a9 44 bc
       -0.011793245 -0.011190418 -0.010912581 -0.012003274
000050 4d 4a 53 3c 41 20 61 bc 24 00 9d ba 60 d6 21 3c
       0.012896133 -0.0137406 -0.0011978191 0.009877771
000060 4d df 59 bc b3 e0 3c bc cc 80 79 3c 0c 65 43 3c
       -0.013297868 -0.011528182 0.0152284615 0.011925947
000070 01 0a 59 3c e5 3b 36 3c f3 fb 5f bc b3 ce 2a 3c
       0.013247014 0.011122678 -0.013670909 0.0104252575
000080 b4 4a 13 bc 9e 79 7d bc 5d 64 4e bc 09 1d 64 3c
       -0.008989979 -0.01547089 -0.012597171 0.013922938
000090 c7 3b 0c bc a8 b0 31 3c 4d fd 48 bc 12 3c 36 3c
       -0.008559174 0.010845341 -0.012267423 0.01112272
0000a0 3e 2b 6b bc a9 e3 89 bb ac d1 5e 3c ba 74 b3 3b
       -0.014353571 -0.0042080474 0.013599794 0.0054765614
0000b0 33 7e 4a 3c d4 21 7a 3c 02 40 f9 3b 1d 01 48 3c
       0.01235919 0.015266854 0.0076065073 0.012207297
0000c0 d6 93 42 bc 23 50 43 3c c3 f2 15 3c 59 72 44 bc
       -0.011876067 0.011920962 0.009152117 -0.011990153
0000d0 e3 11 89 bc 79 53 40 3c e1 2d 44 3c 6d 29 25 bc
       -0.016732162 0.011738651 0.011973829 -0.010080677
0000e0 4b ca 4d 3c 87 48 3f 3c d4 0c 45 bc a9 a7 48 3c
       0.012560437 0.011675007 -0.012026984 0.012247005
0000f0 dd da 31 bc 9a 24 91 bc d4 c1 56 bc c3 6b 51 bc
       -0.010855404 -0.017717648 -0.013107736 -0.01278204
000100 00 74 bb b7 ed 42 1e b8 be 8b 65 b8 44 39 d0 36
       -2.2346154e-05 -3.7732465e-05 -5.4728e-05 6.2055497e-06
000110 bb 59 ab 37 0e 72 f5 b7 98 ca 91 37 41 35 8e b7
       2.0426573e-05 -2.9259387e-05 1.7379687e-05 -1.6952517e-05
000120 c8 ca 2e 38 3c 3d 13 38 f8 77 20 b8 d8 ba 96 37
       4.1673688e-05 3.510456e-05 -3.8258702e-05 1.79684e-05
000130 15 4e 83 b6 43 80 d1 37 a7 65 22 b7 7c 16 fc 37
       -3.913194e-06 2.4974468e-05 -9.67962e-06 3.0051211e-05
000140 f6 d1 05 37 d5 ec dd 37 79 24 54 37 be 22 2f 38
       7.976303e-06 2.6455536e-05 1.2644677e-05 4.1755608e-05
000150 f3 b4 4c b8 5f 2b 12 38 6c aa f9 b7 aa 39 a7 b6
       -4.8805912e-05 3.4849505e-05 -2.9762472e-05 -4.983701e-06
000160 10 a9 df 36 0c 70 1f 38 67 8f 6c b7 e4 67 5c b7
       6.6655994e-06 3.8012906e-05 -1.4100085e-05 -1.3137211e-05
000170 e4 ec d1 b7 08 85 83 b7 48 73 5d 38 84 c2 fc b7
       -2.5025052e-05 -1.5678364e-05 5.279787e-05 -3.013132e-05
000180 c6 e0 df 37 11 e7 12 38 14 55 32 38 6e eb a6 b7
       2.668834e-05 3.502431e-05 4.2517742e-05 -1.9898373e-05
000190 9b d9 65 38 e8 5e 0a b8 69 12 35 38 db da b7 b7
       5.4800515e-05 -3.2990152e-05 4.317091e-05 -2.1917213e-05
0001a0 6a f1 70 37 41 17 a3 37 26 04 96 b8 ba d6 31 b7
       1.4361323e-05 1.9441943e-05 -7.15333e-05 -1.0600017e-05
0001b0 de 3e e3 b7 6f 74 c2 b7 d0 e9 45 b7 65 f3 39 b7
       -2.7089784e-05 -2.318082e-05 -1.1796554e-05 -1.1083529e-05
0001c0 5f 74 c5 37 d9 fa df b7 0e 58 e2 b7 67 78 17 38
       2.353842e-05 -2.6700482e-05 -2.6982303e-05 3.611334e-05
0001d0 9d 04 54 37 93 6d 1a b8 da d0 43 b8 a9 a4 1c 38
       1.2637259e-05 -3.681851e-05 -4.668613e-05 3.734665e-05
0001e0 51 b9 f6 b7 b7 f2 4d b5 d4 dd b4 b5 81 4c fa b7
       -2.941178e-05 -7.672165e-07 -1.3475606e-06 -2.9837947e-05
0001f0 86 f4 d0 37 ff e2 b3 37 8d 14 80 38 44 64 11 38
       2.4909397e-05 2.1444166e-05 6.1073435e-05 3.4664074e-05
000200 65 49 64 b6 81 3e 73 b8 29 b1 b7 b8 8e f3 8a b7
       -3.4017369e-06 -5.7993926e-05 -8.759119e-05 -1.6564296e-05
000210 bc b1 e0 b4 97 fc bf b7 d6 2f 60 b6 e8 fe fe 37
       -4.185257e-07 -2.2886596e-05 -3.3406445e-06 3.039786e-05
000220 b3 18 92 38 e6 b6 56 38 b2 c8 60 b8 9a 54 25 37
       6.966423e-05 5.1191913e-05 -5.3592674e-05 9.854464e-06
000230 75 e1 0d b6 38 3e e2 37 d3 df c3 b6 43 a2 97 37
       -2.114187e-06 2.6970272e-05 -5.8375094e-06 1.8076162e-05
000240 36 fa ca 37 ac aa 95 37 59 b4 ca 37 77 87 8f 38
       2.419679e-05 1.784166e-05 2.4164257e-05 6.844004e-05
000250 4e 47 38 b8 05 f7 9c 37 4c 06 1c b7 ea 63 a8 b7
       -4.3935426e-05 1.8711677e-05 -9.299791e-06 -2.0073687e-05
000260 b3 0b 05 b6 89 30 73 38 10 d5 ff b7 d2 3b d9 35
       -1.9825354e-06 5.7980917e-05 -3.0497584e-05 1.618517e-06
000270 e3 8d 00 b8 18 c3 03 b8 0f 6b c8 38 74 0b b4 36
       -3.064972e-05 -3.141453e-05 9.5566844e-05 5.3657513e-06
000280 56 4f 2c 38 64 e4 43 38 b0 f2 5b 38 a3 41 96 b7
       4.1081883e-05 4.670433e-05 5.243969e-05 -1.7911958e-05
000290 77 71 dc 38 ca 8a 40 b8 57 0d 83 38 f4 e3 07 b8
       0.00010511552 -4.5905625e-05 6.2490515e-05 -3.2398806e-05
0002a0 8d 44 b5 37 e3 c4 0f 38 c0 6e db b8 1f 79 c3 b6
       2.1608803e-05 3.4277222e-05 -0.000104633626 -5.825553e-06
0002b0 df 77 e5 b7 2e 8f 18 b8 27 c0 b0 b7 46 08 c2 b6
       -2.7354747e-05 -3.637297e-05 -2.1070313e-05 -5.7826137e-06
0002c0 40 e4 83 37 7d cb 55 b7 d7 c9 51 b8 c7 ec 47 38
       1.5722704e-05 -1.2743168e-05 -5.001746e-05 4.7665813e-05
0002d0 b6 eb d5 36 32 56 3c b8 73 f2 a6 b8 eb 79 a0 38
       6.375335e-06 -4.490297e-05 -7.9606565e-05 7.6521035e-05
0002e0 a8 00 ea b7 b7 e7 82 b5 6f 40 ed b6 cf b5 cd b7
       -2.789528e-05 -9.753193e-07 -7.0706515e-06 -2.4522566e-05
0002f0 91 6a 23 38 86 cd c2 37 d4 b4 a6 38 3f 9c 68 38
       3.8961476e-05 2.3222306e-05 7.949179e-05 5.5458626e-05
000300 90 b9 1e b9 d7 c8 c9 37 9f cb ec 39 f9 7e d8 39
       -0.00015137182 2.405459e-05 0.00045165137 0.00041293332
000310 3a a3 db 38 fc d8 4f 39 96 6b bb 39 88 68 c9 b9
       0.00010473137 0.00019821891 0.00035747577 -0.0003841559
000320 b8 e4 f5 b9 1c 9a b8 39 69 e2 3b 39 42 94 10 ba
       -0.0004690045 0.00035210035 0.00017918054 -0.0005515256
000330 f9 86 1f ba 84 31 fa 39 21 18 87 39 7e 38 ae b9
       -0.0006085481 0.00047720608 0.00025767184 -0.00033229956
000340 5c ba 8a 39 24 7b a6 3a 52 81 47 3a d0 57 19 ba
       0.0002646026 0.0012701494 0.0007610518 -0.0005849572
000350 d4 b1 51 39 44 3e 9d 3a a1 36 61 3a 1d ae 3d b9
       0.0001999804 0.0011996706 0.0008591209 -0.00018089307
000360 5d 80 99 3a 9c db 1f b8 31 cb a1 b9 00 cf 02 ba
       0.0011711229 -3.811308e-05 -0.00030859702 -0.0004989952
000370 c6 73 18 b8 86 e0 8e ba a3 c6 1c ba ef 11 a2 b8
       -3.6347446e-05 -0.0010900653 -0.0005980527 -7.728102e-05
000380 e7 4d ff 36 6a dd c6 b8 f4 a7 36 ba bb 30 b7 b8
       7.6086612e-06 -9.482617e-05 -0.0006967776 -8.735197e-05
000390 05 67 4d ba c5 51 2a 38 f4 f7 f6 b9 ca 14 70 ba
       -0.00078354805 4.0607312e-05 -0.00047105516 -0.0009158371
0003a0 ab 89 f9 3a f9 8b b9 3a 7b a5 b9 b9 95 4d a5 39
       0.0019038221 0.0014156095 -0.00035409242 0.00031529056
0003b0 95 05 ef b8 5f 41 b3 38 8c 86 9c 37 e5 23 a5 ba
       -0.00011397448 8.5475614e-05 1.8659302e-05 -0.0012599198
0003c0 96 ad 17 b9 e8 12 7e 39 3e e9 a2 39 76 53 3e b9
       -0.00014465148 0.00024230371 0.00031072827 -0.00018150904
0003d0 41 0c 86 39 da 47 4a b9 fd 05 5b b9 f3 89 fb b9
       0.00025567602 -0.00019290988 -0.00020887698 -0.0004797723
0003e0 53 1e 8a 39 a7 d4 a6 ba 9b ca af 39 d2 b3 0d ba
       0.00026344004 -0.001272817 0.00033529554 -0.00054055185
0003f0 0e 20 53 39 ec 46 d2 38 52 73 e4 b9 8e e5 b3 38
       0.0002013447 0.000100267906 -0.0004357347 8.578143e-05
