best_model/xasnet_model.pt (torch, 247822 bytes, 16 tensors)

interaction_layers.0.bias f4 [256]
000000 d3 9e 53 3c 3b 33 18 39 e0 90 ba bd ad 21 af 3b
       0.012916285 0.00014514934 -0.09109664 0.0053445906
000010 d5 30 2e 3c ac a3 e9 39 0c 6e e1 ba bb d1 2a bc
       0.01063176 0.00044563168 -0.0017198934 -0.01042598
000020 dc 6e 08 ba c7 53 88 bb b1 68 1c bc e8 08 63 3b
       -0.00052045076 -0.0041603777 -0.009546445 0.003464276
000030 eb cc 16 3c 64 bd cc 3b 2a e6 13 bc 52 5b 8f bb
       0.00920413 0.006248163 -0.009027043 -0.0043749
000040 b3 b1 54 bb 2c 9a 36 bc 56 7b 02 3d 75 d5 31 3c
       -0.003245455 -0.011145156 0.031855904 0.010854115
000050 92 a0 c6 3b 65 95 45 bc 6d 72 d4 bb ee 4e 01 bc
       0.006061622 -0.012059544 -0.006483367 -0.007892353
000060 a9 63 d7 bb 22 b4 e6 3b 3e 02 61 b8 11 1a 80 3c
       -0.0065731597 0.0070405165 -5.364627e-05 0.01563743
000070 72 a6 3f 3d 2c 9d a1 bc e5 7e 1b 3c 73 17 ba 39
       0.046789594 -0.019728266 0.009490703 0.00035494156
000080 01 9f 65 3b 7d f5 7a bc 37 6e 9a bc 6d 7b 1f bd
       0.00350374 -0.015317318 -0.018851383 -0.038936067
000090 dd 07 b3 bb 9a 88 3e 3b 13 cd e8 b8 4f a7 d4 bb
       -0.005463584 0.002907312 -0.0001110082 -0.0064896713
0000a0 8d 61 e7 3b d4 89 bf bc a0 d5 62 bb d3 fd df bc
       0.0070611895 -0.023381151 -0.0034612194 -0.027342713
0000b0 2e d4 01 bb 25 34 77 bc 3f f3 f0 3b 5d fa 05 3b
       -0.0019810307 -0.015088116 0.007353216 0.0020443418
0000c0 89 4e da 3b 0d 37 a2 3b 30 91 92 bc 82 a7 b2 3b
       0.006662194 0.00495041 -0.017891496 0.0054520974
0000d0 b3 6d 12 bc 7f 88 38 bc 70 52 cc bb 48 03 37 bb
       -0.008937287 -0.011263012 -0.0062354133 -0.002792554
0000e0 89 a9 6c bc 3b 3c eb bb 88 85 22 bb 40 73 80 bb
       -0.014444717 -0.007178811 -0.002479883 -0.003919989
0000f0 74 7a 4e 3c 40 98 9c bb c3 33 27 3b 13 a9 a3 3b
       0.012602437 -0.004778892 0.002551303 0.0049945205
000100 74 94 8e bc 15 f8 c7 b9 25 27 26 bc 88 67 56 bb
       -0.017404772 -0.00038141073 -0.010141169 -0.0032715518
000110 b8 e3 d9 3c 60 2b e5 3a 6f 40 7b 3c 6f 40 fd bc
       0.026597843 0.001748424 0.015335186 -0.030914513
000120 48 07 b3 bb e8 f0 d7 bb 70 53 2f bc 0f a9 84 ba
       -0.0054635145 -0.0065899976 -0.010701045 -0.0010121184
000130 b7 dd fa 3b 89 b7 be ba 8a 57 3b 3b d0 fa 6c bc
       0.007655825 -0.0014550547 0.0028586113 -0.014464095
000140 14 a2 a9 bc 54 71 25 3c 23 14 42 3c 66 d7 8f 3c
       -0.020707168 0.01009782 0.011845621 0.017558765
000150 68 d2 2a 3c f6 10 4f bb 38 23 c3 ba c7 ab cb bc
       0.010426141 -0.0031595803 -0.0014887815 -0.024862183
000160 b2 c2 92 ba a2 9f fb 3b d2 20 a2 39 60 62 a1 bb
       -0.001119694 0.007678942 0.000309235 -0.0049250573
000170 05 b2 6a bb f9 ab 92 3b d3 62 c0 b8 f8 28 1c 3c
       -0.0035811674 0.004476067 -9.173681e-05 0.009531252
000180 96 a6 5b 3d ed f7 0e ba 10 23 34 bc 90 8c 0d 3a
       0.053625666 -0.0005453814 -0.010994688 0.00053996686
000190 d4 03 28 ba b0 ee 44 bc 2f 49 c8 3c 9c 00 30 3b
       -0.0006409262 -0.012019798 0.02444896 0.0026855832
0001a0 ca bf 89 3c 31 09 7b bc 62 86 06 bc 8f 07 77 3c
       0.016815085 -0.015322016 -0.00821075 0.015077486
0001b0 23 75 fe 3b 52 7e ae 3b 4b 0c 93 bc fc 3f fe 3a
       0.0077654286 0.005325117 -0.017950198 0.0019397731
0001c0 56 40 ce bc 10 9b 9f 39 d5 18 cd 3a 6e 4b 44 3c
       -0.025177162 0.00030442374 0.0015647659 0.011980874
0001d0 54 62 b9 b8 39 2a 82 bc fe a1 8b bb 1a 22 d5 39
       -8.8398025e-05 -0.015889274 -0.0042612543 0.00040651934
0001e0 8b f0 d9 bb 7a 4c 65 3a 1b 32 cc ba 69 26 9c 3a
       -0.0066509894 0.00087470526 -0.0015578897 0.0011913303
0001f0 49 54 8b 3c 4c 4f 98 bc 2e 27 67 bc 9e 98 ca 3b
       0.017007964 -0.0185925 -0.014108462 0.006182744
000200 c1 df dd ba 40 db db bc c8 2f 32 bb 80 48 41 3c
       -0.0016927646 -0.026837945 -0.0027189124 0.0117970705
000210 59 bc 64 bc 32 7f b0 bb 89 75 2f b9 81 a2 65 3d
       -0.013960921 -0.0053862566 -0.00016733086 0.05606318
000220 fe 9a 6c 38 ba c1 3c bc ce 26 f2 bb e4 26 3a 3c
       5.6411132e-05 -0.011520797 -0.00738988 0.011361811
000230 73 9b a6 bc d6 6a 32 bd 88 03 14 bd fa 81 3c 3d
       -0.020337796 -0.043558918 -0.03613618 0.046022393
000240 3f 4b 7e bb 98 8c 86 3c 49 f2 dc 3b 34 49 18 3b
       -0.0038802174 0.016424462 0.00674275 0.0023236992
000250 25 d1 6a 3d 57 b8 b6 3b 10 cd 8a bb 5e 1e 5f bc
       0.057328362 0.0055761742 -0.004235871 -0.01361808
000260 79 86 8d bb 54 07 a1 ba c3 93 27 bc 9f 7f 25 3b
       -0.004319009 -0.0012285509 -0.0102281 0.002525307
000270 11 e3 85 3b fc 65 ba 3c 69 be 81 3b 76 b4 b3 bb
       0.0040859063 0.022753708 0.0039594662 -0.005484159
000280 80 53 29 3c e0 85 4b bc 72 cb 8b bc b4 9d 13 3c
       0.010334849 -0.012422055 -0.017064784 0.009009767
000290 d4 d8 01 bc 17 73 41 3c 45 3e 9b 39 38 67 4e 3b
       -0.007925231 0.011807225 0.00029610298 0.0031494629
0002a0 7c 39 02 3c d6 7c 35 3c 00 5f 0d 3b 1d 2d 9f 3b
       0.007948276 0.0110771265 0.0021571517 0.004857673
0002b0 a9 51 25 3c 24 26 4d bb 93 fd c5 3c eb 8b 38 3c
       0.01009027 -0.003130325 0.024168765 0.011263828
0002c0 69 6b ca 3b 7a c9 8f 3b ff f0 9d 3b 7e 6a 2f 3c
       0.006177355 0.0043880315 0.0048199887 0.010706542
0002d0 29 f2 81 3b d5 5d 88 3c 45 55 ac bb 78 a9 5b bc
       0.0039656353 0.016646305 -0.0052591884 -0.013407104
0002e0 33 53 1f 3c b2 db a8 bc b1 de 2f bd 26 18 d5 bb
       0.009724426 -0.020612571 -0.042936984 -0.006503123
0002f0 82 72 a1 3c 12 a0 11 bc 0a 02 be 3c 43 70 51 ba
       0.019707922 -0.008888261 0.023194332 -0.00079894456
000300 54 9e ac bc 65 8b fb bb 7b 27 50 3c 3d d5 67 bd
       -0.02107159 -0.007676529 0.012704725 -0.056599844
000310 cf db 59 bc 14 f7 14 3d 8b 5e ed bc 6b d4 b6 3b
       -0.013297035 0.036368445 -0.028975746 0.0055795214
000320 48 55 10 3c e5 2f 61 3b 74 fd ec bb 99 f1 4f 3c
       0.008809395 0.0034360823 -0.0072323624 0.012691879
000330 62 f2 60 3b df 9e 05 3c 96 84 01 3b de 2d a5 bc
       0.003432416 0.008155554 0.0019762865 -0.020163473
000340 ec a6 03 3c 22 5a d6 3b f4 e6 2c 3c ed a3 77 3b
       0.008035403 0.0065415064 0.01055311 0.0037786916
000350 49 7c 5d bd 09 1b 3c 39 31 92 f6 bc 8a d0 c9 3b
       -0.054073606 0.00017939149 -0.030099006 0.006158893
000360 c6 17 ed 3a a0 f8 5d bb 7f 35 56 3c 40 7f 5a 3b
       0.001808875 -0.0033870116 0.013074278 0.0033340007
000370 5c 97 e1 bb 98 cd b8 bc 11 15 a0 bb 10 43 b8 3c
       -0.0068844985 -0.022558972 -0.004885324 0.022492915
000380 18 28 0b bc 43 cc 61 bc 88 8d 24 3c 9a 33 07 bc
       -0.008493446 -0.01378161 0.010043509 -0.008252049
000390 28 24 4f bc c1 07 3c 39 33 fd ad bb e3 d9 bc bc
       -0.012642898 0.00017931966 -0.0053097247 -0.023053115
0003a0 44 db 80 3c 7c 99 bf 3b e5 f9 00 bc bf bb e0 3b
       0.015729554 0.005847154 -0.0078720795 0.0068583186
0003b0 7f f0 03 3c c1 cd 52 3c 85 34 8e ba 78 15 f5 bb
       0.008052944 0.012866438 -0.0010849392 -0.007479366
0003c0 f2 08 9d bc f8 bf 78 3a ba f6 d7 ba 17 bb d8 bc
       -0.019169305 0.0009489055 -0.0016476728 -0.026456399
0003d0 53 d9 b5 39 33 fb 06 bb a2 ea 21 3d 31 40 2a bc
       0.0003468493 -0.0020596504 0.039530404 -0.010391281
0003e0 49 3c af 3b 69 38 62 3c ae cd 0b 3c 00 22 76 3b
       0.0053477627 0.013807395 0.008532925 0.0037556887
0003f0 c0 fc 22 3c 22 4c 2f bd b1 9c ad 3c 49 03 1b 3b
       0.009947956 -0.042797215 0.02119288 0.002365308

interaction_layers.0.lin.weight f4 [256, 17]
000000 8b 08 fc bd 39 59 2b 3c 87 af 3a 3c cc be 81 3d
       -0.12306317 0.010458284 0.011394388 0.0633522
000010 8d a1 23 3d 9c e0 84 bd c2 ef 98 bd e7 d0 b4 3d
       0.03994899 -0.06488153 -0.07467605 0.088289075
000020 42 b3 08 be 49 fb fa 3a 0d 26 1e bc 37 e1 2b 3d
       -0.13349631 0.0019148375 -0.009652627 0.04196283
000030 6a 5d 61 bd 7b 0a 16 bd 50 d1 65 3d 34 19 59 bd
       -0.055020727 -0.03663109 0.05610782 -0.05300255
000040 d2 4d a7 3d 42 43 aa bd a2 0c 94 3d 46 5d 6b 3d
       0.0816914 -0.0831361 0.07228972 0.057462
000050 10 c1 07 3e ac 7f 55 bd cb b9 43 bd b4 71 14 be
       0.13257241 -0.05212371 -0.047784608 -0.144965
000060 46 31 58 bb f8 98 c0 bd 11 89 0d bd 85 fe 1d ba
       -0.0032988354 -0.094041765 -0.034554545 -0.0006027001
000070 a1 21 22 bd 0e c9 9b bc 1c 7a 14 3c 6f db 0a be
       -0.039582852 -0.019016769 0.009062316 -0.1356027
000080 8f f7 7b be 25 3d 8e 3e c5 f7 25 be 33 fd 33 3e
       -0.24606155 0.27781025 -0.16207798 0.17577057
000090 a9 b1 52 ba 8b 9b 0b bd 1d ea 1b be e9 dd 14 be
       -0.00080373377 -0.034083884 -0.15226026 -0.14537777
0000a0 6c b7 ef 3c 6e 66 2e bb f5 5c 09 3d de 76 28 bd
       0.029262267 -0.0026611346 0.033535916 -0.041128986
0000b0 92 b3 4e bd 46 a8 13 3d da 95 42 bc 85 e2 2f 3d
       -0.05046422 0.03604915 -0.011876548 0.042940635
0000c0 c8 65 ca bc 79 53 79 be 00 0f 43 3e c9 68 d0 bc
       -0.024706736 -0.24348249 0.19048691 -0.02544059
0000d0 57 ba 01 3e 90 35 1d bd 23 df 7c bc fe 56 4c 3d
       0.1266874 -0.03838116 -0.015434059 0.04988765
0000e0 74 8a 5e 3c 63 22 29 ba 6f 6a d4 3c a5 59 2a bc
       0.0135828145 -0.00064519624 0.025929658 -0.0103973495
0000f0 ec fa 79 bc 1f 79 76 3d 13 a5 50 3d 9c f7 43 3d
       -0.015257578 0.060174104 0.050938677 0.04784356
000100 4c 09 45 3c 39 9a b3 bd cc 17 2e be 81 53 92 3e
       0.012026142 -0.0876965 -0.17001265 0.28579333
000110 5c ec 15 be 69 f7 c6 3d d4 2c 27 3e 58 74 6b bc
       -0.14640945 0.097151585 0.16325694 -0.014371
000120 09 af 4d 3d 1c c2 b1 3a e7 d4 c3 bd e8 cd ef bd
       0.050215755 0.0013561877 -0.09562092 -0.117091954
000130 71 2c 1c 3d 40 86 fc bd a9 c4 11 bb a8 df 43 3d
       0.03812832 -0.12330294 -0.0022242463 0.047820717
000140 30 f6 8e bd f4 14 25 bd 2e 5d 07 be e2 b3 c4 bd
       -0.0698055 -0.040303186 -0.13219139 -0.096046224
000150 46 cd 6d 3d f0 54 45 bc b5 72 8d 3d c0 6b d9 3c
       0.058057092 -0.012044176 0.06906644 0.026540637
000160 56 3b 38 3e b5 56 58 bd e4 f5 1d be 6c 4f b3 bc
       0.17991385 -0.052817065 -0.15425831 -0.021888457
000170 be 80 cd ba 50 0a 61 be b6 50 8f bd 23 4d f5 bc
       -0.0015678627 -0.2197659 -0.06997816 -0.029944008
000180 26 4f 26 3d f5 e2 31 bd f9 2f 28 bd a1 f1 b4 bc
       0.040602826 -0.043429334 -0.041061375 -0.022087874
000190 30 a3 ac bc ec 8a 91 3e ca b8 28 bd 13 8b ce 3d
       -0.021073908 0.284263 -0.041191854 0.1008512
0001a0 6f 24 58 bd 73 9d a0 3d 15 9d 49 3d 09 91 d7 3c
       -0.05276912 0.07842531 0.04922207 0.026314275
0001b0 7a 03 6d bd c7 65 d5 bd 13 3e 6c bc 52 3b 31 be
       -0.057864644 -0.10419803 -0.0144190965 -0.17307785
0001c0 fc a7 14 3d ee 3d 06 3e 49 03 6f bd 12 93 13 3e
       0.036293015 0.13109562 -0.058352742 0.14411572
0001d0 00 ac 4b bd 7e f2 12 be 32 fd 58 3e e6 bc a4 bc
       -0.04972458 -0.14350316 0.21190336 -0.020109605
0001e0 35 87 fd 3d 83 67 13 3d 1d fc d9 3d 05 81 8d 3d
       0.12379304 0.03598739 0.1064379 0.06909374
0001f0 e9 9d 0c bc d0 bf be bd 69 b6 96 ba c6 a9 88 bb
       -0.008582571 -0.09313929 -0.0011498454 -0.004170629
000200 2b 9c e3 bd d4 78 8b 3d af 52 8e 3c b1 dc ab bd
       -0.11113771 0.068101555 0.017373411 -0.08391703
000210 93 2d dc 3d f7 bb 86 bd c5 39 0e be 6d d5 ff 3d
       0.1075088 -0.0657882 -0.13889225 0.124918796
000220 fa 07 72 bd a7 11 bc 3d a2 6a 82 bd 29 27 ae 3d
       -0.05908964 0.091830544 -0.06367995 0.08503563
000230 76 6c aa 3c 75 46 39 bd 0c 04 d7 bd 79 f6 09 3e
       0.020803671 -0.04523321 -0.10498819 0.13472928
000240 bf 81 92 bd 36 d8 10 3e 41 84 63 be 9b 87 07 bc
       -0.07153653 0.14144978 -0.2221842 -0.008272077
000250 d6 ad d5 bd aa aa 85 bd 48 f4 88 bd 8e a3 5f bd
       -0.10433547 -0.06526692 -0.06687218 -0.054599337
000260 ef c4 91 3d 78 17 0c be 53 37 ab 3d cc cf 0d 3d
       0.0711764 -0.13680828 0.08360162 0.034622
000270 1d d7 8a 3b 5c 6d 1e 3d 09 c2 c6 3c 34 92 2d bc
       0.0042370693 0.038678512 0.024262445 -0.01059394
000280 b4 1f 7c 3c 4c 9d 58 3a 3b 1b 98 bc a4 77 cf ba
       0.015388418 0.0008263185 -0.018567672 -0.0015828502
000290 90 bf 0b 3d 79 64 26 bd f3 0b dc 3c 27 42 b4 bd
       0.034118235 -0.040623162 0.026861167 -0.0880168
0002a0 24 49 19 be 19 d6 93 3e 39 89 74 bc 6f d5 b2 3d
       -0.14969307 0.2887428 -0.014925295 0.087321155
0002b0 df d7 a7 3d 0f 80 22 3e 91 1c 82 bc ed 88 12 bd
       0.08195471 0.15869163 -0.015882762 -0.035775114
0002c0 e2 f4 84 3d 70 2f db bc 65 ca fe bc 67 a9 99 3d
       0.0649202 -0.026756018 -0.031102369 0.07503014
0002d0 eb 48 66 bd dd 92 5d 3c 0d 91 78 bd db 75 89 bd
       -0.056221884 0.0135237845 -0.060685206 -0.06711932
0002e0 4c 3d 1b 3e dc 0a 0f 3e e5 17 46 be bc 07 ca bd
       0.15160102 0.13968986 -0.19345053 -0.098647565
0002f0 a2 9e e7 3d 7a 0f 50 bd 20 38 1c 3d 46 ed ed bd
       0.11309554 -0.05079601 0.038139462 -0.11617522
000300 b8 03 7e 3c 74 a1 7a bc 18 e9 8e bd 86 f3 65 bd
       0.015503816 -0.0152972825 -0.06978053 -0.056140445
000310 7a 72 3a 3d 84 d9 a2 bd 3b 1d d8 bd 50 b4 0a 3e
       0.04551933 -0.07951644 -0.1055245 0.13545346
000320 9b 6d 65 3d ed ad 2d be 05 59 03 bc 67 8e 38 3e
       0.05601273 -0.16960879 -0.008016829 0.18023072
000330 e2 80 07 3e 35 6e a0 bd 6d e0 f6 bc 19 92 e7 bd
       0.13232759 -0.0783352 -0.030136311 -0.11307163
000340 13 58 fd bc 16 2c 9f 3d 00 52 cd bd 94 61 b0 bb
       -0.030925786 0.077720806 -0.10025406 -0.005382726
000350 8a 2a c3 3c 30 43 2c 3d 6a e6 31 3d 20 5c 28 be
       0.023823995 0.042056262 0.04343263 -0.16441393
000360 22 3b 2b 3d 25 7f 88 3d 35 89 24 bd 4a 03 2e 3d
       0.04180444 0.06664876 -0.040169913 0.042483605
000370 2a f5 17 bc 7d 1d 10 be 07 26 f9 3d eb 13 b8 3d
       -0.00927476 -0.14073749 0.12165456 0.08988174
000380 45 05 a5 3d 94 ae b4 bd f3 da 40 bd 0b f8 4b 3c
       0.08057646 -0.08822361 -0.047083806 0.012449275
000390 91 07 fc bc 73 ff 1a 3d 72 03 5a bd 3b 43 a5 3c
       -0.030765327 0.03784127 -0.053225942 0.02017366
0003a0 c9 47 98 3d a4 85 a3 bd c7 b6 13 bd 88 e7 63 bd
       0.07435567 -0.07984474 -0.036062982 -0.055640727
0003b0 25 f9 f2 bc c7 09 f3 3d 71 5f 33 be 15 fa 3b 3e
       -0.029659817 0.11867099 -0.17516877 0.18357117
0003c0 f5 f8 9d bd 20 9b df bb 87 0e 87 bd a8 65 b5 bb
       -0.077135004 -0.0068239123 -0.06594568 -0.0055358
0003d0 95 52 0d 3d f4 40 f3 bd 26 15 e9 3b 2b 60 8d 3c
       0.034502584 -0.11877623 0.007113117 0.01725777
0003e0 f9 2e 26 bd fd 2e 38 3d 60 9c 23 3d 90 83 6b bd
       -0.04057214 0.044966687 0.039944053 -0.057498515
0003f0 2d 97 47 bd 6c b4 11 be 36 84 f1 3d 96 07 a5 3d
       -0.048728157 -0.14228982 0.11792795 0.080580875

interaction_layers.1.weight f4 [256]
000000 e8 76 88 3f b6 fe 8f 3f 08 9f 8c 3f 78 26 96 3f
       1.0661287 1.1249607 1.0986032 1.173049
000010 9d f6 5b 3f 8b 5b 7a 3f 21 a3 54 3f 4d 81 68 3f
       0.85923177 0.97795933 0.83061415 0.908223
000020 31 4c 79 3f 3c 44 9d 3f 9b 78 76 3f 9a bc 6c 3f
       0.97381884 1.2286448 0.9627778 0.92475283
000030 54 f7 57 3f c3 17 8e 3f 68 a6 50 3f 23 f1 6e 3f
       0.8436177 1.1101002 0.81503916 0.93336695
000040 f4 cb 56 3f 97 1f 8b 3f e8 c8 99 3f 54 50 51 3f
       0.8390496 1.0869015 1.2014437 0.81763196
000050 62 0f 90 3f 1a 90 86 3f 79 d2 8f 3f 98 5d 98 3f
       1.1254694 1.0512726 1.1236106 1.1903563
000060 25 b9 55 3f ff 6e 56 3f 21 a3 6d 3f 49 fd 43 3f
       0.83485633 0.83763117 0.9282704 0.7655836
000070 69 d0 7d 3f a9 8a 6e 3f e4 8f 78 3f cb 65 89 3f
       0.99146134 0.9318033 0.9709456 1.073419
000080 27 f9 9b 3f 16 02 98 3f ef 3e 72 3f 12 1c 4b 3f
       1.218541 1.1875637 0.9462728 0.79339707
000090 13 68 3f 3f c4 84 7f 3f 0e 58 51 3f 74 bf 69 3f
       0.7476818 0.9981196 0.81774986 0.9130776
0000a0 92 d2 8f 3f f3 2f 98 3f ce c7 4d 3f 19 1d 71 3f
       1.1236136 1.1889633 0.80383 0.94185024
0000b0 89 4f 55 3f 5e ec 6a 3f dc 70 7d 3f 97 7c 56 3f
       0.83324486 0.9176692 0.99000335 0.8378386
0000c0 f0 1e 49 3f 12 0c 4d 3f eb a1 72 3f 81 2f 4d 3f
       0.7856283 0.8009654 0.9477832 0.8015061
0000d0 9f 4f 95 3f a5 ea 68 3f 65 60 7c 3f 0c 46 87 3f
       1.1664923 0.9098304 0.98584586 1.0568252
0000e0 9a 9a 46 3f 47 68 84 3f ed fc 9a 3f 7a 4e 6c 3f
       0.77579653 1.0344323 1.2108437 0.92307246
0000f0 46 fb 6a 3f 59 a8 a4 3f 02 d2 83 3f f8 f0 3c 3f
       0.9178966 1.2863876 1.0298464 0.7380519
000100 cf 3b 5f 3f d9 48 99 3f 22 be 58 3f 77 33 44 3f
       0.87200636 1.1975356 0.8466512 0.7664103
000110 81 f9 47 3f 0d d7 a8 3f ec ec 4e 3f 9b db 78 3f
       0.7811509 1.3190628 0.80830264 0.9721009
000120 bf 5f 58 3f 03 ae 49 3f 51 e8 41 3f 80 2d 85 3f
       0.84521097 0.78781146 0.7574511 1.040451
000130 37 02 5e 3f 2c bd 50 3f 82 22 9c 3f 2b 72 8d 3f
       0.8672213 0.81538653 1.2198031 1.1050466
000140 b0 78 8a 3f 12 09 77 3f d3 e8 8c 3f 65 20 85 3f
       1.0818081 0.96498215 1.1008552 1.0400511
000150 4d 7c 4b 3f fe a9 50 3f aa 07 76 3f c9 47 8f 3f
       0.7948654 0.8150939 0.96105444 1.1193782
000160 b5 e7 3b 3f 47 55 7a 3f 42 5c 65 3f ec 1f 69 3f
       0.7340043 0.9778637 0.895939 0.91064334
000170 4e fc 91 3f 06 27 90 3f 63 d3 59 3f 06 57 8b 3f
       1.1405122 1.1261909 0.85088176 1.0885932
000180 cf f9 a3 3f 0b 55 9a 3f db 58 92 3f a8 41 85 3f
       1.281061 1.2057203 1.1433367 1.0410662
000190 db 7b 79 3f bd 6f 59 3f c6 c2 89 3f c1 9b 93 3f
       0.97454613 0.84936124 1.0762565 1.1531907
0001a0 b5 01 92 3f 67 09 58 3f ec 7a 56 3f fc e3 43 3f
       1.1406771 0.84389347 0.83781314 0.7651975
0001b0 b3 06 82 3f 71 39 54 3f f8 9b 9f 3f c3 ec 80 3f
       1.0158294 0.8290015 1.2469473 1.0072254
0001c0 56 19 55 3f 70 8a 63 3f fb 93 9a 3f ed e2 5c 3f
       0.83241785 0.88883114 1.207641 0.8628376
0001d0 ac 2d 68 3f 78 1d 5e 3f 0a 77 81 3f 00 b5 40 3f
       0.9069469 0.86763716 1.0114453 0.75276184
0001e0 60 1a 57 3f 90 1c 41 3f 51 83 60 3f 84 87 4f 3f
       0.8402462 0.7543421 0.8770037 0.81066155
0001f0 80 88 53 3f 56 76 60 3f 3b 76 67 3f 28 ed 83 3f
       0.8263016 0.87680566 0.9041478 1.0306749
000200 95 da 80 3f e5 75 95 3f 39 b4 89 3f ed c1 9d 3f
       1.0066706 1.1676604 1.0758125 1.2324806
000210 59 de 52 3f c6 56 6d 3f eb 2d 60 3f 82 0a 87 3f
       0.82370526 0.9271053 0.87570065 1.0550082
000220 96 ba 5e 3f 2a 76 55 3f 88 55 5c 3f 8b 45 82 3f
       0.8700346 0.8338343 0.8606801 1.0177473
000230 59 dd 72 3f f3 97 4f 3f 49 d5 8a 3f 39 6c 73 3f
       0.94869 0.8109123 1.084634 0.9508701
000240 5a 03 8b 3f 1c 7d 81 3f 6b f3 81 3f 62 d7 76 3f
       1.0860398 1.0116305 1.015241 0.964224
000250 93 c1 68 3f 19 76 7a 3f e0 9d 74 3f 21 e1 6a 3f
       0.9092037 0.9783645 0.955534 0.9174977
000260 0c 9e 70 3f 37 38 95 3f 7a 32 78 3f 3c 91 5f 3f
       0.9399116 1.165778 0.9695202 0.87330985
000270 dd 01 81 3f b2 13 63 3f 18 50 64 3f c1 83 5c 3f
       1.0078694 0.8870193 0.89184713 0.8613854
000280 0c 27 a1 3f e7 c5 51 3f 89 2c a6 3f 86 05 59 3f
       1.2590041 0.819426 1.2982341 0.84774053
000290 6d 71 78 3f 3d 6c 8d 3f f1 30 4b 3f da c0 47 3f
       0.97048074 1.1048657 0.79371554 0.78028643
0002a0 72 e3 91 3f 2d ec 95 3f 2c 86 71 3f dc 7b 56 3f
       1.1397536 1.17127 0.94345355 0.83782744
0002b0 d1 ae 6e 3f 19 9b 8a 3f 6e 96 94 3f 83 04 57 3f
       0.932355 1.0828582 1.1608407 0.8399126
0002c0 7f 80 7b 3f 02 ca 8f 3f 74 7d 88 3f e4 3f 48 3f
       0.98242944 1.1233523 1.0663285 0.7822249
0002d0 f6 57 4b 3f 9c 8e 8f 3f ef 56 99 3f 93 ae 63 3f
       0.7943109 1.1215396 1.1979655 0.88938254
0002e0 37 17 62 3f ff a2 91 3f 84 51 99 3f ca 27 58 3f
       0.88316673 1.1377867 1.1978002 0.84435713
0002f0 01 8c 85 3f 4d 9c a1 3f e0 10 6e 3f ff 6b 6a 3f
       1.0433351 1.2625824 0.929945 0.9157104
000300 c5 78 54 3f 88 0d 56 3f 1c 56 93 3f 97 7d 8b 3f
       0.8299678 0.836144 1.1510653 1.0897702
000310 90 56 6c 3f 7b ab 61 3f 00 06 5f 3f 06 1c 3b 3f
       0.92319584 0.88152283 0.8711853 0.73089635
000320 90 ba 45 3f 13 65 84 3f 4c 05 67 3f 02 18 5f 3f
       0.77237797 1.0343345 0.9024246 0.8714601
000330 67 b6 4c 3f 2c f7 56 3f fe ba 58 3f d8 c2 80 3f
       0.79965824 0.83970904 0.8466033 1.0059462
000340 ee 99 86 3f b6 a0 4d 3f 47 ff 53 3f 01 48 43 3f
       1.0515726 0.8032335 0.828114 0.76281744
000350 0d ef a2 3f bb 0d 5a 3f 4f d1 99 3f 44 46 65 3f
       1.2729203 0.851772 1.2017001 0.8956034
000360 51 76 4a 3f 82 f9 99 3f bc a6 74 3f 3c f7 86 3f
       0.79086787 1.2029269 0.95566916 1.05442
000370 e8 82 65 3f 34 fe 8b 3f bf 77 62 3f b3 81 45 3f
       0.8965287 1.0936952 0.8846397 0.7715103
000380 df 7e 83 3f 91 88 54 3f 3f 64 87 3f 37 db 59 3f
       1.0273093 0.83020884 1.0577468 0.8510012
000390 48 3d 78 3f 90 4b 61 3f 03 74 54 3f 5d b5 6b 3f
       0.9696851 0.88005924 0.8298952 0.92073613
0003a0 a1 81 99 3f 3c c2 69 3f 3b 1c 78 3f 92 71 75 3f
       1.1992685 0.91312003 0.96918076 0.9587642
0003b0 6b 9f 95 3f 2a 3e 49 3f 25 2f 37 3f 9d 33 7e 3f
       1.1689276 0.7861048 0.7155631 0.99297506
0003c0 98 31 90 3f d7 e2 8f 3f 6b 47 74 3f cb 61 88 3f
       1.1265135 1.1241101 0.95421475 1.0654844
0003d0 eb 3c 94 3f b5 a9 66 3f a5 62 94 3f d8 f5 63 3f
       1.1581091 0.901027 1.1592604 0.89047
0003e0 eb cb 62 3f af 7f 88 3f 80 e9 58 3f b2 05 67 3f
       0.88592404 1.0663966 0.8473129 0.90243065
0003f0 68 99 83 3f 55 10 81 3f 01 a6 56 3f f7 5e 9d 3f
       1.0281191 1.0083109 0.8384705 1.2294606

interaction_layers.1.bias f4 [256]
000000 25 82 d6 bd 8a 92 97 bd fb ff 9f 3c 55 04 3a be
       -0.10474042 -0.07400997 0.01953124 -0.18165715
000010 98 41 13 be e8 2c a6 bd e7 1e 6c be d7 79 15 be
       -0.14380491 -0.08114034 -0.23058663 -0.1459726
000020 b9 18 f2 bd 46 ab 9c bd fa 87 af bd ad 8d f4 bd
       -0.11821122 -0.07649855 -0.08570857 -0.11941085
000030 6e 2e fe bd 8a 76 8b bd 44 25 5f be 0b 6e 07 be
       -0.124111995 -0.06809719 -0.2179156 -0.13225572
000040 70 ce da bd 6b c0 ab bd b0 6f 9d 3c 55 83 e2 bd
       -0.10683906 -0.0838631 0.019218296 -0.11060206
000050 8e bd 3b 3d fd c5 47 3d e1 15 20 bd 11 07 99 bd
       0.04583507 0.0487728 -0.039083365 -0.07472051
000060 8e 86 24 be 55 87 12 be 50 c2 e4 bd 8b dd 0b be
       -0.16066954 -0.14309438 -0.11169875 -0.1365873
000070 25 7b 12 be dc db 0e be 0f bf ba bd 7c 18 b8 bd
       -0.14304788 -0.13951057 -0.09118473 -0.08989045
000080 f1 59 da bd 11 7d dc bd cc a3 1f be 83 c4 77 be
       -0.10661686 -0.10766042 -0.15589827 -0.24196057
000090 d1 74 41 be c3 f8 22 be 7d 6a 35 be 82 e9 0c be
       -0.18892218 -0.15915208 -0.17716403 -0.13760951
0000a0 98 35 21 3d d9 70 82 bd 56 ae 4b be ba 26 fc bd
       0.03935775 -0.0636918 -0.19890723 -0.12312074
0000b0 72 ec da bd b4 a3 07 be 8c 53 17 be ce c8 cd bd
       -0.106896296 -0.13246042 -0.14777964 -0.10048066
0000c0 72 a2 4d be 26 02 27 be e6 9a 24 be 52 01 4a be
       -0.20081499 -0.16309413 -0.16074714 -0.19727066
0000d0 c7 06 ac bd c5 84 de bd a9 2c 82 bd 0c ab 0e bd
       -0.0839973 -0.108651675 -0.063561745 -0.03483109
0000e0 26 f2 45 be e6 9a 86 bd 7e 0d 92 bc 2a 4b b3 bd
       -0.19330654 -0.06572513 -0.0178287 -0.08754571
0000f0 00 04 dc bd a4 2d b9 bd 1c 32 23 bd 51 36 58 be
       -0.107429504 -0.090419084 -0.03984271 -0.2111447
000100 ea f0 1a be 84 2c 79 3d 5c 85 10 be f7 74 6a be
       -0.15130964 0.06083347 -0.14113373 -0.22896181
000110 65 4b 2f be 16 0b 98 3a 68 2e 0e be fc 75 a3 bd
       -0.17118604 0.0011599984 -0.1388489 -0.07981488
000120 68 67 58 be 8d 09 45 be 13 f4 21 be 87 66 85 bc
       -0.21133196 -0.19241925 -0.15815763 -0.01628424
000130 67 29 1a be 7d 9a 3d be f4 45 df bb d1 d9 b5 bd
       -0.15054856 -0.18515964 -0.006813759 -0.08879436
000140 1a d8 fc bd 40 43 de bd 98 6f 8b bc 76 d0 16 be
       -0.123459056 -0.10852671 -0.017020985 -0.14727959
000150 1c 8b 77 be 81 07 4a be ad 3d 62 bd a2 ea fc bd
       -0.2417416 -0.19729425 -0.0552346 -0.1234944
000160 01 17 33 be 15 fb e0 bd 46 f3 66 bd 45 20 13 be
       -0.17489244 -0.1098539 -0.056384347 -0.14367779
000170 1e ce a0 bd d3 0e 3c bd 09 d9 5a be d9 32 b9 3c
       -0.07851814 -0.045912575 -0.21371855 0.022607254
000180 02 d6 0b 3d 76 b1 df bb 96 64 b1 3c c1 39 40 bd
       0.03413964 -0.006826575 0.021654408 -0.04693008
000190 07 a5 8f bd 95 b3 1e be 14 7a 06 bd c5 f8 08 bd
       -0.07013898 -0.15498193 -0.032831267 -0.03344037
0001a0 6c 1c 88 bd 54 4d 36 be 63 90 36 be e7 50 72 be
       -0.06646046 -0.17802936 -0.17828517 -0.23663674
0001b0 fe 77 23 be 88 63 49 be 6c 6f 99 3c a5 d2 ad bd
       -0.15963742 -0.19666874 0.018729888 -0.08487443
0001c0 56 4d 38 be ce 97 f9 bd 6c 98 1b bd 3e c3 35 be
       -0.17998251 -0.121871576 -0.037987158 -0.1775026
0001d0 4d 21 2c be cf fc c8 bd be a9 40 bd 65 30 87 be
       -0.16809578 -0.098138444 -0.04703688 -0.2640411
0001e0 a5 b4 04 be 14 d9 1d be 15 4a cd bd 33 2f 73 be
       -0.12959535 -0.1541484 -0.10023896 -0.23748474
0001f0 0b 9a 4f be 6e 61 1b be 6c 34 27 be 8b 3b b0 bd
       -0.20273606 -0.15173885 -0.16328591 -0.08605107
000200 de 37 19 bd 0d f2 b9 bd c1 ff a2 bd 6f 6c 04 be
       -0.037406795 -0.09079371 -0.079589374 -0.12931989
000210 72 a5 26 be 65 dd 02 bc 14 a7 d1 bd 4d 7a 51 bd
       -0.1627405 -0.007987355 -0.10236946 -0.051142026
000220 ce 76 45 be b1 d0 e1 bd 13 0c 10 be 38 2b 6a bd
       -0.19283602 -0.11026133 -0.14067106 -0.057170123
000230 ad 59 38 bd 87 86 27 be 5b 1e f3 bd 1e d0 ac bc
       -0.045007396 -0.16359912 -0.11871024 -0.021095332
000240 f4 9a 9a bd 7f f6 32 bd 73 ee ad bd c7 01 f2 bd
       -0.07549086 -0.04369211 -0.08492746 -0.11816745
000250 1d 7f 82 bd df 0c 8c bd 5a 13 c9 bd 0c 3b 3e be
       -0.06371901 -0.068383925 -0.09818144 -0.18577212
000260 de e5 01 be ee 6b 0e bb 38 7b 94 bd 56 a5 04 be
       -0.12685344 -0.0021731812 -0.072500646 -0.12953696
000270 86 91 ca bd 95 11 d9 bd 59 54 46 be e2 cd 03 be
       -0.09891038 -0.10599057 -0.19368114 -0.12871507
000280 03 17 0a be 37 ae 14 be ff 3e 9a bd 42 b6 19 be
       -0.13485341 -0.14519583 -0.07531547 -0.15010932
000290 fe ff 8b bd ec ed 0c 3d bf 30 2e be 9b 28 70 be
       -0.06835936 0.034406587 -0.17010783 -0.2345299
0002a0 3f ef 98 bd fe 21 6c bd 98 6d 2b be 12 59 36 be
       -0.074675076 -0.057649605 -0.16741025 -0.17807415
0002b0 57 62 c9 bd 3a af 43 bc 26 9a cd 3c 60 60 35 be
       -0.0983321 -0.011943633 0.025097918 -0.17712545
0002c0 f7 26 f3 bd eb 22 9d bd e5 2a f6 bd fa 09 50 be
       -0.11872666 -0.07672676 -0.120199 -0.20316306
0002d0 7a 63 4a be be 2a 94 bd 3a 26 4b 3c b9 47 24 be
       -0.1976451 -0.07234715 0.012399251 -0.16042985
0002e0 54 72 d6 bd 8c f2 ab bd 9b 95 f0 bb d9 24 2a be
       -0.10471025 -0.083958715 -0.007342053 -0.16615619
0002f0 e6 03 11 be 7a 82 22 3d ae 48 4e bd a9 0e 0e be
       -0.14161643 0.039675213 -0.05036228 -0.1387278
000300 04 99 4d be 8d 2e 53 be a5 b9 73 bc 51 8d 07 be
       -0.20077902 -0.20623226 -0.014875804 -0.13237502
000310 6a ef 08 be 79 9d 51 be 29 84 12 be 6e 68 77 be
       -0.13372579 -0.20470227 -0.14308228 -0.2416093
000320 a1 d2 3f be f0 92 99 bd e3 f2 30 be 2e 88 a6 bd
       -0.18732692 -0.07498729 -0.17280154 -0.08131443
000330 a9 90 65 be fd e0 e2 bd d0 78 2f be 8a fa 8d bd
       -0.22418465 -0.11078069 -0.1713593 -0.06932552
000340 89 bd b1 bd 94 4e 53 be 34 bc 51 be 77 b0 7f be
       -0.08678729 -0.20635444 -0.2048195 -0.2496966
000350 54 dd 8b 3d d3 f2 17 be 1c 80 55 bd bd 14 33 bd
       0.06829324 -0.14838724 -0.052124128 -0.04372095
000360 78 0a 37 be 2c 67 47 3b 6b 39 0e be 28 01 98 bd
       -0.17875087 0.0030426485 -0.1388909 -0.074220955
000370 3a 53 a7 bd d3 cf ba bd d8 58 4c be 66 3c 69 be
       -0.08170171 -0.091216706 -0.19955766 -0.22776946
000380 a8 de c9 bd c2 f5 1b be 7f 4a 43 bd 90 0c 1a be
       -0.098569214 -0.15230468 -0.047678467 -0.15043855
000390 c9 7c 61 bd 06 87 ee bd 35 a7 1d be 9f 00 a8 bd
       -0.055050645 -0.116468474 -0.15395816 -0.082032435
0003a0 a9 93 6f 3d 44 92 d8 bd cb 35 e2 bd d5 07 d2 bd
       0.05849043 -0.10574773 -0.110454164 -0.102554
0003b0 f1 42 22 be fa 7f e2 bd 20 a7 6a be 21 55 4e bd
       -0.15845849 -0.11059566 -0.22915316 -0.050374154
0003c0 e8 79 aa bd 8e c4 2a be 87 f8 91 bd 51 a3 ab bd
       -0.08324033 -0.16676542 -0.07127481 -0.083807595
0003d0 af 11 fe bb 29 15 4d be 8b c6 25 bd 67 07 28 be
       -0.007753573 -0.20027603 -0.04047255 -0.16409074
0003e0 3c 5c 48 be ab d5 28 be e2 98 ee bd 20 15 17 be
       -0.19566435 -0.16487758 -0.11650254 -0.14754152
0003f0 0d 7f 5d bd 44 b0 e4 bd 3b e5 68 be 21 17 2e 3d
       -0.054076243 -0.111664325 -0.22743694 0.042502526

interaction_layers.1.running_mean f4 [256]
000000 b0 83 96 bd 8b 4d a3 be 3a ca ad be 4d 4b 0f bc
       -0.07349336 -0.31895098 -0.3394335 -0.00874598
000010 4e cc 89 be 68 d8 34 be d5 a9 58 3c 1d 87 19 bd
       -0.26913685 -0.17660677 0.013224085 -0.03748237
000020 54 76 ed bd e6 7b 11 be 12 d3 90 3d dd f6 9a be
       -0.11594835 -0.1420742 0.070715085 -0.30266467
000030 d0 61 a9 3c b7 f3 2d be 0a 30 86 be 31 1a 28 be
       0.020676523 -0.16987501 -0.26208526 -0.16416241
000040 fe 4f f6 3d 89 76 81 be aa 7d 7f be ea 12 16 3e
       0.12026976 -0.25285748 -0.24950281 0.14655653
000050 ca c2 a6 be 0d b5 06 be 0f db 01 bd f2 a8 56 be
       -0.32570487 -0.13155003 -0.03170305 -0.20962885
000060 06 14 84 3d 86 cf 3b 3e c4 56 5f bd 45 15 ba be
       0.06449132 0.18340883 -0.054526106 -0.36344352
000070 40 fa 53 be 4c 48 0a 3d ee 15 6f bd 86 84 50 be
       -0.20700932 0.033760354 -0.058370523 -0.20363054
000080 11 6e d6 bd 3d bc bf be 18 2b 93 bd 7c 53 66 3e
       -0.10470212 -0.37448302 -0.07185954 0.22492784
000090 92 5b 7c bd 42 09 99 3b 13 b6 67 be 09 82 d9 ba
       -0.061610766 0.004670293 -0.2262805 -0.001659454
0000a0 b2 0b 16 be a3 05 91 be 35 37 1d be 72 f1 de 3d
       -0.14652899 -0.28324613 -0.15353091 0.10885896
0000b0 e0 99 3d 3e 50 1c 27 be db ab 9a be a7 47 8d be
       0.1851573 -0.16319394 -0.3020924 -0.2759373
0000c0 23 47 12 3e e6 ee 08 be 4d 13 f1 bd 4b 27 94 be
       0.14284949 -0.13372383 -0.117712595 -0.28936228
0000d0 67 25 5b be 3e 7f a0 bd 59 30 63 be e6 17 ea bd
       -0.21400987 -0.078367695 -0.22186412 -0.114303395
0000e0 87 5b 91 3e 55 21 5a be 83 39 4c be 80 dd 8d be
       0.28390142 -0.21301778 -0.19943814 -0.27708054
0000f0 70 af 88 be f6 ac 8b be f1 c5 42 3c 6c 6a 8b 3c
       -0.26696348 -0.27280396 0.011888013 0.01701852
000100 23 ed 54 be d4 16 af be 94 ca df bd 11 da ad bd
       -0.20793585 -0.34197104 -0.109273106 -0.084888585
000110 9c 3f 46 3e 98 da 06 bd 9a 8f d8 3d 2e 37 c4 bd
       0.19360203 -0.03292331 0.10574265 -0.09580837
000120 f7 7d 1a be db 1b 8a 3e 29 1f 26 be de a9 b7 3d
       -0.15087114 0.26974377 -0.16222824 0.089679465
000130 e1 62 99 3b be 0b c3 be 97 39 16 bd 92 e7 fd bd
       0.0046809767 -0.38094896 -0.036676016 -0.12397684
000140 4e 31 2b be f7 23 7b bc 8a 38 57 be 8e 1f cd 3a
       -0.16718027 -0.015328399 -0.21017662 0.0015649663
000150 20 de 63 bd 69 18 80 bd 24 84 d0 3d 08 9c 7d be
       -0.055631757 -0.06254656 0.10181454 -0.24766552
000160 78 31 05 3d c0 07 88 bd 31 af 98 be 62 6a 94 be
       0.03251788 -0.06642103 -0.2982116 -0.28987414
000170 ab 39 35 be 64 00 b9 bd 28 72 02 bd b3 f5 08 be
       -0.1769778 -0.09033278 -0.03184715 -0.13374977
000180 09 82 01 be 11 b6 c0 bd 40 53 10 be 82 63 51 be
       -0.1264726 -0.094097264 -0.14094257 -0.20448115
000190 d9 4a db bd 70 22 01 be 26 e2 3d be d4 4b a7 bd
       -0.107076354 -0.12610793 -0.185433 -0.0816876
0001a0 59 05 03 3c 57 cb 90 3e 5c 25 c7 bd 84 01 2f bd
       0.00799688 0.28280136 -0.097239226 -0.042726055
0001b0 05 f3 82 be 40 19 3f bd cc 5b 8d be f6 40 0d be
       -0.25576034 -0.04665494 -0.27609098 -0.13794312
0001c0 3b 0d f8 3d 80 bb 2c be ea 0c 48 be 5b 10 5c 3d
       0.121118985 -0.168684 -0.19536176 0.053726535
0001d0 20 e8 41 bc c8 55 89 3c c0 8e f2 bd f1 49 6b 3d
       -0.011835128 0.016764536 -0.11843634 0.057443563
0001e0 12 90 57 be 17 d7 2f bd 1c 66 f0 3d 22 7e 65 bd
       -0.21051052 -0.042929735 0.11738226 -0.056028493
0001f0 b4 d9 a7 3b 62 3e c5 bc 8e 97 4a bd dd 64 16 bd
       0.005122388 -0.024077598 -0.04946094 -0.036717284
000200 4a c6 7f be c3 b1 ab be 2f 79 d0 bd 60 1e c7 bd
       -0.24977985 -0.3353406 -0.10179364 -0.097225904
000210 26 80 df bd 02 36 26 be 41 21 27 be 6a 52 e4 bd
       -0.10913114 -0.1623154 -0.16321279 -0.11148532
000220 60 09 37 be a8 dc a1 be 74 35 20 be 3a d5 12 be
       -0.1787467 -0.3161366 -0.15645391 -0.14339152
000230 64 3b 67 bd f1 65 c5 3d df ce 94 be f9 b5 7f be
       -0.056453124 0.096385844 -0.2906408 -0.24971761
000240 ab ad 89 be 43 0b 10 bd bf f4 a6 be c8 a2 58 bd
       -0.2689031 -0.03516699 -0.326086 -0.052889615
000250 6d 3f 76 3d b3 77 db 3c 0b 7d f4 bd e6 55 d0 3d
       0.06011908 0.026790475 -0.119379126 0.10172634
000260 bc 1a b6 be 93 be 4c be 5e b4 92 be 66 0c e5 bd
       -0.35567272 -0.19994573 -0.28653234 -0.111840054
000270 96 56 94 be 8b f0 c6 be a5 a3 5d be 89 14 f7 bd
       -0.2897231 -0.38855395 -0.21644457 -0.12064464
000280 79 41 1e be 3c 3d 9a bd 89 7a b3 bd d3 60 65 be
       -0.15454663 -0.07531211 -0.08763606 -0.22400217
000290 7e 04 27 ba ae 4d a0 bd 4d 38 11 3e a0 29 c7 bd
       -0.0006371214 -0.07827316 0.14181633 -0.09724736
0002a0 60 2f 92 bc fc 54 af bc 83 42 0d 3d a4 df 93 be
       -0.017844856 -0.021402828 0.03448726 -0.28881562
0002b0 a0 32 cb bd eb ff 52 be 20 62 24 be 9b c9 9f 3a
       -0.09921765 -0.20605437 -0.16053057 0.001219082
0002c0 d4 0b 70 bd d8 13 f4 bd e1 e3 06 be 05 ca f4 3d
       -0.05860503 -0.119178474 -0.13172866 0.11952595
0002d0 7c a4 65 3e 03 4b b0 bd 13 02 05 be 1d 90 ac bd
       0.22426027 -0.08608057 -0.12989073 -0.08425925
0002e0 ef db 7d be 2d ce 85 be 5e 8c 3f be c2 01 d5 bd
       -0.2479093 -0.26133862 -0.1870589 -0.10400726
0002f0 00 c8 db bd 80 ce 16 bd 98 e1 c9 be 7f 39 e3 bd
       -0.10731506 -0.036818027 -0.39429927 -0.11094951
000300 4f 6a 52 bd a7 16 39 3e 57 4a 67 bd 79 52 60 be
       -0.051370915 0.18075047 -0.05646738 -0.21906461
000310 06 ca 64 bc fc b4 c1 bd b5 5f 66 be be d1 cb 3e
       -0.013964182 -0.09458348 -0.22497447 0.39808458
000320 64 80 67 3e 79 6b b3 be 26 c6 d0 bd 62 f0 44 3d
       0.22607571 -0.35042933 -0.10194044 0.04808081
000330 2f 8a 8e bd 86 d2 9a bd 5f fb 8c be 4f 15 25 be
       -0.0695995 -0.075596854 -0.2753553 -0.1612141
000340 46 36 d7 bd 8c 85 88 3d 48 2b 1b bd ae 50 44 bd
       -0.10508399 0.06666097 -0.037883073 -0.047928505
000350 3c 88 3b be 3a 5c 60 3d 88 fe 3f be fd a9 9e be
       -0.18313688 0.054775454 -0.1874944 -0.30989066
000360 44 33 17 be 62 06 0a be cc 26 85 be a5 5e b4 be
       -0.1476565 -0.13478997 -0.26006162 -0.35228458
000370 ef 43 ae 3b 8e 24 0a be 4f 49 d8 bb d6 c1 13 be
       0.005318157 -0.13490507 -0.006600536 -0.14429411
000380 ef 5d 9d 3d 7c f2 86 3c 7a 50 7e bd 06 54 1b 3e
       0.07683932 0.016473047 -0.062088467 0.15168771
000390 69 a9 9f bc 0f cb c3 be 73 95 b8 bd 6f 72 8a be
       -0.01948996 -0.3824086 -0.0901288 -0.2704043
0003a0 55 d0 d4 39 7b c1 29 be 92 61 9d be b3 6e 9f bd
       0.0004059101 -0.16577713 -0.30738503 -0.07784786
0003b0 9c ca b4 bd 64 46 fa 3d a9 03 88 bb ec 8a 71 be
       -0.08827707 0.12220457 -0.004150827 -0.2358815
0003c0 c9 0d 64 be f3 81 3b be 01 f7 1f be 02 22 94 bd
       -0.22270884 -0.1831129 -0.15621568 -0.07233049
0003d0 41 d6 5a be 0a b2 f6 3d ba 09 68 be 3e a7 5c be
       -0.21370794 0.12045677 -0.2265996 -0.21548173
0003e0 69 0c bf 3d e5 6f 63 be eb db 72 3d a8 8e 73 ba
       0.09328539 -0.22210653 0.05929176 -0.0009290972
0003f0 12 c8 04 3d fc e3 a7 be 64 e3 1e 3d 99 a2 8b be
       0.032417364 -0.32791126 0.038791075 -0.2727249

interaction_layers.1.running_var f4 [256]
000000 66 6f ae 3b 40 d3 12 3c 32 a9 18 3c c2 37 06 3b
       0.0053233383 0.008961499 0.009317683 0.0020480012
000010 9c 96 f9 3b 01 2a 3a 3c 2e 02 8d 3c 75 a4 0c 3c
       0.007616831 0.011362554 0.017212953 0.0085841315
000020 71 23 d9 3b c2 42 96 3b a4 02 6d 3b 41 2d 95 3c
       0.0066265394 0.004585595 0.0036164904 0.018210055
000030 05 e5 07 3c 8a ed 21 3c 50 12 1c 3c 8b f4 ad 3b
       0.008294349 0.009883294 0.00952585 0.005308693
000040 28 08 79 3c 93 bc 34 3c 35 b5 cf 3b f9 40 b0 3c
       0.0151996985 0.011031288 0.0063387402 0.021515356
000050 0e 5d 65 3c 62 cb c0 3b 3a 5f 97 3b 40 86 cc 3b
       0.013999237 0.00588362 0.004619506 0.00624159
000060 28 cc 44 3c 43 ae a5 3b 9b ad 3b 3c 24 99 89 3c
       0.012011565 0.005056174 0.011454965 0.016796656
000070 46 28 d1 3b 5a 5a d3 3b 0c 2b 09 3c 9c 87 23 3c
       0.006382975 0.0064499797 0.00837208 0.009981062
000080 ce 86 a7 3b 01 cd 70 3c ab 30 34 3c 26 fc 58 3c
       0.0051125055 0.014697314 0.0109979315 0.013243711
000090 84 34 4c 3c 32 df 40 3b 98 e7 52 3c 67 31 cb 3b
       0.012463693 0.002942991 0.012872599 0.0062009576
0000a0 fa 59 34 3c d9 72 2e 3c eb 1e 31 3c e1 ec b0 3b
       0.01100778 0.010647499 0.010810594 0.005399332
0000b0 28 17 c6 3c a0 48 21 3c 05 38 0d 3c 70 d0 6b 3c
       0.024180964 0.009843975 0.008619313 0.014392957
0000c0 b6 4f 5e 3c 59 1b b2 3c b8 c6 95 3b e2 92 ef 3c
       0.013568809 0.021741556 0.0045708083 0.029244844
0000d0 e3 ad 49 3c 95 dc 55 3c 16 be 4b 3c 5c 7b 25 3c
       0.012309524 0.013053079 0.012435457 0.010100212
0000e0 61 9e 54 3c 7c cb c5 3b 97 12 06 3c 52 62 00 3d
       0.012977214 0.00603622 0.008183143 0.031343766
0000f0 d3 aa 87 3c 6d 05 dc 3b e7 df fa 3b 63 6c 3f 3c
       0.016560948 0.006714514 0.007656086 0.011683556
000100 cc 49 1b 3c ac 06 68 3c 2d 4a 36 3b 9a 70 a1 3c
       0.009478044 0.014161747 0.0027815208 0.019707013
000110 4a cb 3f 3b 4b b7 f6 3a af 2a b1 3b 32 93 74 3c
       0.0029265457 0.0018822936 0.0054066996 0.014927672
000120 32 38 eb 3b 94 0c c4 3c a2 e1 2d 3c f8 b1 43 3b
       0.00717833 0.023931779 0.010612877 0.0029860716
000130 cb e4 05 3c 36 63 14 3c 2d c3 dc 3b 0d b9 52 3b
       0.008172224 0.009056857 0.006737134 0.0032153756
000140 ce 28 77 3b 49 e5 e6 3b 02 78 b5 3b 6c 73 37 3c
       0.003771353 0.007046376 0.0055379877 0.011196952
000150 e1 ea 4c 3c 3e f2 1f 3c ee 30 03 3c 1f d0 18 3c
       0.012507171 0.009762345 0.008007271 0.009326964
000160 5e 0d 74 3c a2 f8 43 3b fa 9f ce 3c 40 31 62 3c
       0.014895765 0.0029902835 0.025222767 0.013805687
000170 d7 1f 1d 3b 2c 42 99 3b f4 76 3a 3c 26 5a 23 3c
       0.0023975277 0.0046770778 0.0113809 0.0099702235
000180 4e 92 83 3b 92 31 67 3c e8 0e fe 3b 64 b6 6a 3c
       0.0040152436 0.01411094 0.007753242 0.014325712
000190 a8 d7 8b 3b c8 ee d9 3b 58 a2 02 3c 2f 23 05 3c
       0.0042676516 0.0066507794 0.007973276 0.008126064
0001a0 d5 95 b7 3b 7d e7 ec 3c 54 e3 4d 3c c6 26 6c 3c
       0.005602578 0.028918976 0.012566406 0.014413541
0001b0 24 32 30 3c a2 c0 65 3c 2d 8a 10 3c fe 7d 68 3b
       0.010754142 0.014022978 0.008822006 0.0035475488
0001c0 26 f4 3f 3c dd 4e 21 3c 2b 1b d6 3b 3c 03 0d 3c
       0.011715924 0.009845463 0.0065340004 0.008606728
0001d0 65 51 81 3b 7b 6c a7 3b 0c e1 02 3c 44 7d 8d 3c
       0.0039464706 0.0051093674 0.007988226 0.017271645
0001e0 3f 96 8f 3c 87 71 8e 3c 49 c2 38 3c f8 2e 1b 3c
       0.017527698 0.017388118 0.01127679 0.009471647
0001f0 78 42 4b 3c 84 f7 f4 3b 5a bf 02 3c 51 d1 39 3c
       0.012405984 0.007475795 0.007980192 0.011341409
000200 ef 50 34 3c 88 b2 0d 3c ec 13 04 3c c4 96 31 3b
       0.011005624 0.008648522 0.00806139 0.002709792
000210 65 2f bc 3b 63 f6 0c 3c 25 6d b4 3c 24 91 d8 3b
       0.0057429546 0.008603665 0.0220247 0.006609099
000220 8f f2 16 3c c4 47 dd 3c a4 8e 7a 3c ca a9 4e 3c
       0.009213104 0.02701176 0.015292797 0.012613723
000230 71 88 ed 3b 77 27 21 3c e0 d0 bc 3b 92 08 2c 3c
       0.007248931 0.009836069 0.0057622045 0.01050009
000240 11 c6 3a 3c f8 ff 07 3c d0 d4 8b 3c 3e 70 30 3c
       0.011399762 0.008300774 0.01706925 0.010768948
000250 5d 4b d6 3b 62 9e 41 3c b4 cc 67 3c e5 aa 34 3b
       0.0065397457 0.011817547 0.014147926 0.0027567681
000260 75 22 78 3c ac c2 06 3c eb 62 50 3c ed f9 55 3c
       0.015144934 0.008225124 0.012718896 0.013060075
000270 62 43 90 3c f7 ab c8 3c c2 28 30 3c c7 3b a0 3b
       0.017610256 0.024496062 0.010751905 0.0048899385
000280 15 00 b4 3b fe 95 e3 3b 70 ea 38 3b 63 02 23 3c
       0.005493174 0.0069453707 0.0028215908 0.0099492995
000290 cb 8c b7 3b f7 d9 04 3c c1 60 2f 3c 6b c4 b0 3c
       0.0056015006 0.0081086075 0.01070422 0.021578034
0002a0 8e e0 92 3b 35 6f 80 3b 1c 88 f7 3b cb 4f a8 3c
       0.0044823354 0.003919507 0.0075540673 0.02054586
0002b0 b5 43 0b 3c 25 b1 79 3c e4 98 f1 3b 7b 2b 02 3c
       0.008500029 0.015239988 0.0073729623 0.007944937
0002c0 0d 08 19 3c 6e 6c ed 3b f0 d4 36 3c 81 bc 57 3c
       0.009340298 0.007245592 0.011159167 0.013167501
0002d0 2a 47 14 3c b2 a9 04 3c 1a af e2 3b c4 8d 83 3c
       0.00905017 0.008097099 0.0069178464 0.01605881
0002e0 87 70 4b 3c 0d 14 84 3b 03 92 c5 3b 68 54 3a 3c
       0.012416965 0.0040307106 0.006029369 0.011372663
0002f0 b8 6e 54 3b 79 76 4a 3b ff e0 99 3c 5e fd 64 3c
       0.0032414626 0.003089337 0.018784044 0.013976423
000300 f8 ae 09 3c c5 c9 01 3d e7 7f f3 3b 1f 7e d6 3b
       0.008403532 0.031686563 0.0074310186 0.0065457965
000310 89 00 45 3c 60 7e 22 3c 64 5c 39 3c 4d ee c5 3c
       0.012024053 0.009917825 0.011313532 0.024161482
000320 d0 53 82 3c f9 2c 9e 3b 54 68 da 3b c3 78 7e 3b
       0.015909106 0.0048271385 0.006665269 0.0038829304
000330 40 c8 68 3c 99 e7 39 3c 56 89 8d 3b cb 6e 5d 3c
       0.0142079 0.011346721 0.0043193502 0.013515185
000340 e1 6d e8 3b c9 f8 00 3c 39 8b 45 3c be 97 01 3c
       0.0070931767 0.007871815 0.012057119 0.007909713
000350 2c 2c 3a 3b ce 89 3f 3c 16 6a fe 3b 30 07 1f 3d
       0.0028407676 0.01169057 0.0077641113 0.038825214
000360 13 21 b5 3c ad e0 c3 3b 08 1c 1d 3c 02 2b 38 3c
       0.022110498 0.005977711 0.009589203 0.011240723
000370 5c da 2c 3c 93 91 15 3c b4 bf 2c 3c 49 a1 9e 3c
       0.010550108 0.009128946 0.010543752 0.019364016
000380 ec 16 57 3c b4 81 84 3c 98 7c 54 3b 0c 4b f4 3b
       0.013128024 0.016175129 0.0032422896 0.0074552353
000390 cf d6 d8 3b 20 8f 98 3c cd b9 4f 3c 1b 97 65 3c
       0.006617404 0.018622935 0.012678576 0.014013077
0003a0 9c d3 b1 3b 18 26 69 3c df b7 2e 3c ba 9c 58 3c
       0.005426837 0.014230274 0.0106639555 0.01322096
0003b0 98 43 c9 3b b3 7c b4 3c f9 26 6f 3c ca 79 48 3c
       0.006142091 0.022032117 0.014596694 0.012236068
0003c0 ba f2 c8 3b 49 c2 2b 3c f2 2a ea 3b 57 46 e6 3b
       0.006132451 0.010483333 0.0071462328 0.007027428
0003d0 64 67 8b 3b 53 74 97 3b c3 4a a9 3b 4c d5 89 3c
       0.0042542685 0.004622021 0.005166383 0.01682534
0003e0 93 07 39 3b ea 3b 30 3c 67 cf 56 3c 0e 89 37 3c
       0.0028233274 0.010756472 0.013110972 0.01120211
0003f0 43 4d 09 3c 18 9c 0e 3c bf 01 03 3c 61 76 e4 3b
       0.008380237 0.008704208 0.007996022 0.0069721197

interaction_layers.3.bias f4 [128]
000000 e3 39 1d bb 86 c7 5c 3a dd 1c b3 ba 47 3c 88 ba
       -0.0023990802 0.00084220653 -0.0013665218 -0.0010393941
000010 68 54 f0 b9 f1 b1 29 3a 7c d0 05 ba 47 2b b4 b9
       -0.00045839255 0.0006473354 -0.0005104614 -0.0003436452
000020 e6 e6 6a 3a c5 cf 0e 3a 50 f8 33 38 f0 e9 75 39
       0.0008960798 0.000544783 4.2908185e-05 0.00023452169
000030 24 8d ad ba 27 bd 68 b9 ac bd 6a b9 59 00 d4 39
       -0.0013240916 -0.00022195709 -0.00022386637 0.0004043605
000040 a5 4d 4b 39 c2 7d 3b b9 33 05 94 39 1b 3b af 39
       0.00019388513 -0.00017880558 0.00028232633 0.00033422638
000050 06 cc 2b 3a 03 c9 ab 38 70 54 05 3b cb e5 18 3a
       0.0006553534 8.191357e-05 0.0020344518 0.00058325817
000060 6d 01 73 3a 26 6f 0e 3a ed b1 34 ba f9 76 3b 3a
       0.0009269927 0.00054334325 -0.0006892968 0.0007151212
000070 6e 15 83 b9 15 3f a3 ba 99 ee 5e b9 94 a6 ca 38
       -0.00025002233 -0.0012454713 -0.00021260454 9.663138e-05
000080 3d 7a 78 3a 6c 47 71 b8 ec d1 1d ba b2 dd 95 b9
       0.0009478664 -5.7525394e-05 -0.00060203555 -0.0002858467
000090 7a 34 61 3a 10 f6 c6 b8 71 3f 80 ba ab 80 51 3a
       0.00085908885 -9.4872084e-05 -0.0009784532 0.00079918903
0000a0 e3 b7 35 3a c3 b5 a4 ba a1 4c 25 3b fa 8d 34 3b
       0.00069320033 -0.0012566376 0.0025222676 0.0027550445
0000b0 89 51 30 b9 29 03 84 3a c9 47 93 b8 67 34 13 3a
       -0.00016815042 0.0010071743 -7.022877e-05 0.00056154135
0000c0 09 a2 07 3a ba 48 0b 3a 53 00 c3 3a f8 a3 96 3a
       0.00051739864 0.00053132663 0.0014877416 0.0011492958
0000d0 31 d6 3e ba ce d7 73 ba ce 11 83 3a 07 20 74 b8
       -0.0007279842 -0.0009301872 0.0009999813 -5.820396e-05
0000e0 91 a5 ac b9 b5 42 d9 3a 8e 81 fd ba 1c 98 d8 38
       -0.00032929753 0.0016575666 -0.0019340978 0.00010328015
0000f0 c6 ce 04 ba b3 2f a2 39 52 4f be b9 1a 44 90 b9
       -0.0005066212 0.00030934587 -0.00036298722 -0.0002751656
000100 d0 a8 14 ba 30 62 06 3a 87 4d 21 ba ef a5 ca ba
       -0.0005670907 0.00051263254 -0.0006153215 -0.0015460829
000110 7d 41 90 39 e6 a3 3a b9 83 3c 40 b9 e5 46 51 ba
       0.00027514613 -0.00017799399 -0.00018333089 -0.00079832814
000120 d4 88 03 ba 8a 37 06 3a 8c 0c 26 3a 20 cc 18 3a
       -0.00050176424 0.00051199703 0.0006334267 0.0005828757
000130 d9 95 8f b9 d0 61 1c ba f5 9a 5a 39 38 61 91 ba
       -0.0002738673 -0.0005965503 0.00020847826 -0.0011091596
000140 11 c3 6b 39 a6 5e 2d bb 62 38 82 b9 2c 60 48 ba
       0.00022484014 -0.002645412 -0.0002483754 -0.0007643725
000150 3b 4b f9 39 ef 9c 85 3a 49 e3 4f ba be 77 bb ba
       0.00047549032 0.0010193865 -0.00079302915 -0.0014302654
000160 be 29 1d 3b 96 b7 04 bb d5 e8 08 bb b7 09 ab ba
       0.002398118 -0.0020251027 -0.0020890732 -0.001304916
000170 f9 8d f3 b9 83 04 41 3a c9 6a 35 ba 3b c0 b9 3a
       -0.0004645435 0.0007363038 -0.0006920514 0.0014171669
000180 f4 7f 24 ba c7 29 88 3a 6e d1 87 3a 64 47 71 b9
       -0.000627517 0.0010388427 0.0010362098 -0.00023010146
000190 a7 b9 96 3a 62 3c 6b ba c2 5d ce b6 fb 7e 6b 39
       0.001149942 -0.00089735363 -6.1501933e-06 0.0002245865
0001a0 09 a8 fd 3a 02 7c 75 3a 2b c0 74 b9 89 4c 40 3a
       0.0019352447 0.0009364487 -0.00023341241 0.00073356234
0001b0 74 14 f3 39 67 5c 00 bb 1e 2f 8a ba 03 42 cf b9
       0.0004636381 -0.0019586326 -0.0010542606 -0.000395313
0001c0 07 16 06 3a 8a 35 c0 39 7e 4f 6c ba 49 53 98 ba
       0.00051149767 0.00036660983 -0.0009014531 -0.0011621501
0001d0 21 4e 4d ba 56 9d b4 b9 56 36 1f 39 f0 7d 48 3a
       -0.00078317715 -0.000344495 0.00015183663 0.00076481607
0001e0 64 8f 25 3a 4b 22 c2 b8 15 d9 64 b8 ac f4 67 3a
       0.00063156174 -9.2570284e-05 -5.456161e-05 0.00088484096
0001f0 3b 55 74 3a 30 99 20 ba 73 e6 b6 ba 74 c0 86 b9
       0.00093205617 -0.00061263423 -0.0013954177 -0.0002570186
