best_model/xasnet_gnn_model_8.pt (torch, 102210 bytes, 14 tensors)

batch_norms.0.weight f4 [128]
0.11209193 0.11123701 0.18074557 0.19248755 0.107186005 0.102661505 0.1054787 0.19858927
0.12529524 0.09208901 0.10166269 0.15877157 0.10756802 0.14823908 0.14549853 0.15542322
0.1498696 0.14550222 0.11456784 0.09996953 0.11908969 0.09421246 0.13103452 0.12774774
0.12201704 0.12941031 0.072582945 0.09878043 0.19419745 0.12593906 0.14960575 0.13933556
0.12575579 0.103523724 0.05908241 0.16329862 0.14937985 0.136815 0.11853078 0.1522074
0.11141341 0.1347913 0.054042336 0.14565414 0.10933545 0.13356374 0.14959294 0.13258487
0.091590516 0.17747654 0.1314332 0.17142962 0.17117546 0.20692068 0.23735014 0.06640263
0.1285793 0.17122105 0.1445563 0.15434644 0.14514929 0.15351596 0.1622438 0.14467867
0.08946175 0.10061044 0.119205415 0.12655893 0.115843594 0.13316661 0.1712418 0.075047374
0.10971357 0.14111227 0.093786 0.15767421 0.17434323 0.13731423 0.124945685 0.13045774
0.106051624 0.14974622 0.10230469 0.14854302 0.1094214 0.12471183 0.12345116 0.12332644
0.117747664 0.12879474 0.070943 0.1252838 0.17284183 0.16034377 0.11356714 0.15586677
0.08557603 0.14336193 0.07888445 0.12632601 0.11296301 0.11687813 0.17979795 0.115474075
0.15349795 0.17068557 0.15691975 0.06823326 0.12986536 0.17438638 0.14472961 0.07020254
0.09951515 0.165823 0.17068598 0.13595867 0.046775322 0.16217172 0.13992056 0.12698503
0.13150612 0.109856114 0.07930073 0.11892378 0.093056194 0.18646099 0.16132556 0.09058529
00000000: 7490 e53d 3bd0 e33d 5e15 393e 751b 453e
00000010: 5684 db3d 3240 d23d 3705 d83d fc5a 4b3e
00000020: 654d 003e 2a99 bc3d 8734 d03d 0495 223e
00000030: 9f4c dc3d fccb 173e 91fd 143e 4427 1f3e
00000040: 6b77 193e 89fe 143e 8ba2 ea3d d3bc cc3d
00000050: 4ce5 f33d 76f2 c03d ea2d 063e 4ed0 023e
00000060: 12e4 f93d 2384 043e 5ea6 943d 654d ca3d
00000070: b2db 463e 2bf6 003e 4032 193e fbad 0e3e
00000080: 20c6 003e 3f04 d43d 6600 723d c137 273e
00000090: 08f7 183e 3b19 0c3e 44c0 f23d 42dc 1b3e
000000a0: b72c e43d bb06 0a3e 7f5b 5d3d 5c26 153e
000000b0: 44eb df3d efc4 083e e42e 193e 54c4 073e
000000c0: cf93 bb3d 69bc 353e 6d96 063e 3f8b 2f3e
000000d0: 9f48 2f3e 04e3 533e ea0b 733e 1afe 873d
000000e0: 4baa 033e 9254 2f3e 9106 143e fe0c 1e3e
000000f0: 04a2 143e 4a33 1d3e 3d23 263e a526 143e
00000100: b937 b73d d90c ce3d f821 f43d aa98 013e
00000110: 683f ed3d d45c 083e 035a 2f3e 70b2 993d
00000120: 82b1 e03d bc7f 103e e012 c03d 5975 213e
00000130: 0887 323e 1a9c 0c3e 86e3 ff3d b796 053e
00000140: 9831 d93d 1357 193e 1f85 d13d a91b 183e
00000150: 5418 e03d ea68 ff3d f6d3 fc3d 9392 fc3d
00000160: b025 f13d c5e2 033e 904a 913d 654a 003e
00000170: 73fd 303e 2831 243e e495 e83d 8a9b 1f3e
00000180: 7c42 af3d 78cd 123e 2c8e a13d 9b5b 013e
00000190: 2759 e73d cd5d ef3d f41c 383e ac7d ec3d
000001a0: 912e 1d3e 33c8 2e3e 92af 203e e1bd 8b3d
000001b0: 6dfb 043e 5892 323e 0034 143e 59c6 8f3d
000001c0: 99ce cb3d 81cd 293e 4ec8 2e3e c038 0b3e
000001d0: 7b97 3f3d 5810 263e 5647 0f3e 5d08 023e
000001e0: 8aa9 063e 3efc e03d 6c68 a23d 508e f33d
000001f0: 3f94 be3d a1ef 3e3e 8732 253e c884 b93d

batch_norms.0.bias f4 [128]
-0.0018706754 -0.057951685 0.04108053 0.014180023 -0.010480187 -0.038308874 -0.02093837 -0.05367596
-0.016931059 -0.020693745 -0.062836386 -0.04617889 -0.040155377 0.005073217 0.012283087 0.011582842
-0.07779695 -0.022400977 -0.07782472 -0.029305434 -0.10468283 -0.012976121 -0.032059908 0.020304471
-0.0171988 -0.046770144 -0.06140669 -0.06877872 -0.07465781 -0.07203798 -0.011111027 -0.049725577
-0.013347483 0.01082205 -0.022742579 -0.069251664 0.0030707768 0.0009925247 -0.052563936 -0.06821425
-0.02048973 -0.03125483 -0.104940176 -0.053802844 -0.02480312 -0.078326546 -0.055725444 -0.04602116
-0.08524932 -0.023990637 -0.05819554 -0.09714824 -0.04381873 -0.06811228 -0.050713085 -0.046685766
-0.011036156 -0.110177375 -0.029107952 -0.09648389 -0.04105073 -0.004891759 -0.0965836 -0.09822521
-0.044783376 -0.039555166 -0.072452076 -0.060058735 0.009002329 0.0018152571 -0.0799985 0.01730863
0.0023254422 0.004700194 -0.04211783 -0.031345487 -0.023264935 -0.079473056 -0.09786064 0.03832287
-0.03626596 -0.011031935 2.4304714e-05 -0.072582915 -0.023334863 -0.076337695 0.012261276 -0.03827663
-0.024517084 -0.017269325 -0.093202926 0.035309467 0.009971047 -0.029773502 -0.02050388 0.02120432
-0.12279378 -0.038464125 -0.069454275 -0.08886768 -0.013983821 -0.015502427 -0.07594215 -0.024801696
-0.026489139 -0.050664205 -0.014607228 -0.06153438 -0.030013304 -0.09961323 -0.11546585 -0.04252206
-0.033372905 -0.10574789 -0.057758503 0.011107949 -0.07058835 -0.050265633 -0.064453304 -0.063874654
-0.083449796 -0.036953207 -0.019708788 -0.059220213 0.004519078 -0.1095505 -0.0040938817 -0.07264062
00000000: 7331 f5ba bf5e 6dbd 0f44 283d 5453 683c
00000010: 17b5 2bbc c4e9 1cbd f286 abbc 53db 5bbd
00000020: 01b3 8abc ee85 a9bc 5db0 80bd 1326 3dbd
00000030: f779 24bd 3b3d a63b 003f 493c f6c5 3d3c
00000040: 0254 9fbd 4182 b7bc 9162 9fbd f311 f0bc
00000050: f463 d6bd cc99 54bc 4051 03bd 9055 a63c
00000060: 7fe4 8cbc 0d92 3fbd 9585 7bbd dcdb 8cbd
00000070: 32e6 98bd a688 93bd 060b 36bc 0cad 4bbd
00000080: 67af 5abc f84e 313c a54e babc d1d3 8dbd
00000090: 163f 493b 9a17 823a 484d 57bd eab3 8bbd
000000a0: 14da a7bc 1105 00bd e0ea d6bd 5f60 5cbd
000000b0: ea2f cbbc ab69 a0bd 5d40 64bd af80 3cbd
000000c0: 3297 aebd 0388 c4bc 725e 6ebd a8f5 c6bd
000000d0: 457b 33bd 737e 8bbd 86b8 4fbd 9339 3fbd
000000e0: fed0 34bc ada4 e1bd cd73 eebc 5999 c5bd
000000f0: cf24 28bd 0c4b a0bb 9fcd c5bd 4d2a c9bd
00000100: c66e 37bd 9904 22bd c161 94bd 2600 76bd
00000110: 817e 133c eced ed3a 41d6 a3bd d4ca 8d3c
00000120: 7266 183b 1604 9a3b bf83 2cbd 2064 00bd
00000130: 1b96 bebc c5c2 a2bd 296b c8bd 71f8 1c3d
00000140: 9e8b 14bd 4abf 34bc fae1 cb37 5aa6 94bd
00000150: c128 bfbc f056 9cbd 85e3 483c f5c7 1cbd
00000160: 0dd8 c8bc 6678 8dbc 2de1 bebd a9a0 103d
00000170: 9a5d 233c 8fe7 f3bc c1f7 a7bc afb4 ad3c
00000180: 4e7b fbbd 8f8c 1dbd 0b3e 8ebd 4200 b6bd
00000190: 651c 65bc e4fd 7dbc 8f87 9bbd ed2c cbbc
000001a0: c0ff d8bc 4585 4fbd 2853 6fbc 790b 7cbd
000001b0: 76de f5bc 0502 ccbd 5c79 ecbd 9d2b 2ebd
000001c0: 07b2 08bd 5a92 d8bd 2e94 6cbd 1dfe 353c
000001d0: a090 90bd 56e3 4dbd 1800 84bd b7d0 82bd
000001e0: bae7 aabd 3f5c 17bd 5374 a1bc e590 72bd
000001f0: c614 943b 035c e0bd f825 86bb 9bc4 94bd

batch_norms.0.running_mean f4 [128]
0.031225462 0.05603782 0.08912165 0.11217036 0.0074541043 0.047563575 0.020197906 0.035288326
0.03830389 -0.036816567 -0.016445564 0.03408173 0.048633534 0.080011375 0.011720167 0.04639167
0.14812844 0.0849669 -0.016501362 -0.10530275 0.12807159 0.032148376 -0.002806275 0.0081178425
-0.028041853 0.03168521 0.0066733845 0.01044295 0.025168044 0.11772381 0.08809254 0.0064219297
0.02835811 -0.051951792 0.08029477 0.022010949 -0.08896774 0.111985795 0.103218265 0.058779493
-0.03658041 0.05059725 0.09113734 0.014675803 0.037782628 0.08922997 0.0055948365 -0.019650748
0.04942223 0.05795084 0.0075376662 0.05869032 0.06752857 0.03332681 -0.04042106 0.030562416
0.045607645 0.029287772 0.038737908 -0.010544431 0.045907237 0.012882076 0.044537105 -0.06926664
0.08182028 0.027551787 -0.014360558 0.08541634 0.07075302 0.08263179 0.044804182 0.037671745
-0.022497337 0.09294508 0.059869975 0.05861406 -0.04019466 0.062278815 0.08006068 0.02042192
0.07672062 0.056850005 0.055479202 0.043034583 -0.00010909592 0.10965519 0.085417025 0.009725728
-0.009471094 0.08716046 0.12166332 0.004220739 0.019979868 0.11253169 -0.015408238 0.021481922
0.053739827 0.041005407 -0.009892694 0.053227477 -0.001191422 0.028581942 -0.016802514 0.12128989
0.029326191 -0.017943611 -0.01442694 0.0031516573 0.005663741 -0.04624501 0.031256203 0.10089421
0.06502401 0.10890365 -0.009430351 0.098005034 0.08824159 -0.024574375 0.047622304 -0.03506938
0.031198857 0.18302284 0.034126427 0.03256092 0.06160354 0.009487182 0.03520881 0.01956213
00000000: 8acc ff3c ea87 653d 6985 b63d 93b9 e53d
00000010: 8f41 f43b 06d2 423d 1476 a53c 7e8a 103d
00000020: 8ae4 1c3d f8cc 16bd d9b8 86bc 4999 0b3d
00000030: f533 473d 01dd a33d f105 403c 3105 3e3d
00000040: fbae 173e 2003 ae3d dd2d 87bc f8a8 d7bd
00000050: 3325 033e 04ae 033d 7be9 37bb b300 053c
00000060: 07b8 e5bc 5ac8 013d 68ac da3b e818 2b3c
00000070: 372d ce3c 2e19 f13d dd69 b43d 0d6f d23b
00000080: 444f e83c 67cb 54bd 9671 a43d 4e50 b43c
00000090: b834 b6bd cf58 e53d 1964 d33d c4c2 703d
000000a0: 57d5 15bd 103f 4f3d 37a6 ba3d c772 703c
000000b0: f5c1 1a3d 34be b63d e454 b73b 9bfa a0bc
000000c0: f76e 4a3d dc5d 6d3d 87fe f63b 4365 703d
000000d0: 6b4c 8a3d b181 083d 8e90 25bd 085e fa3c
000000e0: 15cf 3a3d e9ec ef3c a4ab 1e3d 8dc2 2cbc
000000f0: 3a09 3c3d 580f 533c 8a6c 363d abdb 8dbd
00000100: 6491 a73d 49b4 e13c 8c48 6bbc c3ee ae3d
00000110: f6e6 903d db3a a93d 9784 373d b04d 1a3d
00000120: 564c b8bc fd59 be3d 383a 753d 4c15 703d
00000130: 28a3 24bd 1218 7f3d dbf6 a33d df4b a73c
00000140: b31f 9d3d 8ddb 683d 293e 633d 0845 303d
00000150: 6dca e4b8 e692 e03d 1fef ae3d a958 1f3c
00000160: a62c 1bbc 2f81 b23d 9e2a f93d 204e 8a3b
00000170: d2ac a33c 0477 e63d d672 7cbc dbfa af3c
00000180: 4b1e 5c3d 49f5 273d f714 22bc 0e05 5a3d
00000190: 7d29 9cba ad24 ea3c 6da5 89bc d566 f83d
000001a0: 7b3d f03c 7bfe 92bc f95e 6cbc 098c 4e3b
000001b0: e796 b93b 686b 3dbd 8106 003d a0a1 ce3d
000001c0: 4f2b 853d e008 df3d c281 1abc ddb6 c83d
000001d0: 02b8 b43d 3350 c9bc 9b0f 433d e9a4 0fbd
000001e0: bf94 ff3c 576a 3b3e 27c8 0b3d 995e 053d
000001f0: fe53 7c3d 2070 1b3c 1d37 103d c340 a03c

batch_norms.0.running_var f4 [128]
0.0019829615 0.0020558438 0.0044090813 0.0013031787 0.0033788094 0.0018781298 0.0024783264 0.0023570617
0.0036856271 0.0019088594 0.004215946 0.004805514 0.0027420456 0.0030529178 0.0034850833 0.0013589637
0.010103665 0.0017082756 0.0024945121 0.0016577267 0.005362094 0.001538491 0.0020325044 0.0017953307
0.0012067672 0.00086311443 0.0021446096 0.0021972684 0.004297892 0.00776965 0.006474093 0.0013764178
0.0024219987 0.003934117 0.0037462746 0.0016596025 0.0023739915 0.0062697968 0.0016813186 0.003236398
0.002426967 0.0021758755 0.0031183842 0.0032002237 0.0024583857 0.0030045807 0.002568923 0.0020026623
0.006887601 0.0046070386 0.0041287197 0.0021156496 0.003036691 0.004077337 0.0027582366 0.0035090921
0.0024016947 0.0024989683 0.004915641 0.007461852 0.0036525452 0.0029259243 0.0014572734 0.002818331
0.0054232767 0.0035209535 0.001754506 0.004568287 0.0030560708 0.0018128948 0.0020674819 0.0016135451
0.0043812296 0.002843011 0.0021560935 0.0032657296 0.0020393515 0.0019715137 0.0014152222 0.0019379164
0.004006811 0.002716135 0.002634889 0.0042544156 0.0014555523 0.0010729774 0.0021054714 0.0018586913
0.0014531907 0.005346378 0.0054595894 0.0024757686 0.0011119472 0.0069411984 0.0024981855 0.0018597924
0.0027624697 0.0030954431 0.0014471703 0.0052513704 0.002692417 0.0039972104 0.0030717738 0.0011391446
0.0015792387 0.0060878186 0.001944551 0.0045549916 0.0027927898 0.0025497524 0.002329622 0.0040386803
0.0018775989 0.0021389693 0.0033338396 0.0018227062 0.002356877 0.002280612 0.0009961318 0.0022202064
0.0027236312 0.002404559 0.0034980043 0.0015902739 0.001529835 0.0064946893 0.0022762578 0.0018224304
00000000: 93f4 013b 56bb 063b 0e7a 903b 6ccf aa3a
00000010: 046f 5d3b 942b f63a 6b6b 223b ef78 1a3b
00000020: 908a 713b b132 fa3a eb25 8a3b 9377 9d3b
00000030: e4b3 333b 7613 483b ff65 643b 411f b23a
00000040: d889 253c 38e8 df3a f87a 233b 1448 d93a
00000050: 81b4 af3b 31a7 c93a c433 053b 4d51 eb3a
00000060: 632c 9e3a a142 623a 948c 0c3b 0c00 103b
00000070: 55d5 8c3b 8c98 fe3b a124 d43b eb68 b43a
00000080: 65ba 1e3b c4e9 803b 0f84 753b 0587 d93a
00000090: f894 1b3b de72 cd3b b15f dc3a c019 543b
000000a0: c00d 1f3b 2299 0e3b ce5d 4c3b d8ba 513b
000000b0: de1c 213b 80e8 443b 605b 283b 193f 033b
000000c0: 63b1 e13b a4f6 963b 364a 873b b6a6 0a3b
000000d0: 3903 473b 2f9b 853b 88c3 343b ccf8 653b
000000e0: c065 1d3b bbc5 233b 6313 a13b 8d82 f43b
000000f0: 8a5f 6f3b ddc0 3f3b fb01 bf3a bfb3 383b
00000100: beb5 b13b ccbf 663b 74f7 e53a 92b1 953b
00000110: 5c48 483b a89e ed3a 977e 073b 977d d33a
00000120: 6b90 8f3b cf51 3a3b 3f4d 0d3b da05 563b
00000130: a4a6 053b 8334 013b fa7e b93a af01 fe3a
00000140: 914b 833b 2f01 323b 1aae 2c3b a068 8b3b
00000150: 3bc8 be3a 26a3 8c3a f3fb 093b 559f f33a
00000160: fd78 be3a ab30 af3b 5be6 b23b 8140 223b
00000170: c2be 913a fe72 e33b 99b8 233b 47c4 f33a
00000180: 8d0a 353b ebdc 4a3b faae bd3a b013 ac3b
00000190: 4373 303b 08fb 823b d04f 493b 5a4f 953a
000001a0: 75fe ce3a 537c c73b 4ee0 fe3a 0a42 953b
000001b0: 3d07 373b bf19 273b 92ac 183b e856 843b
000001c0: c419 f63a f32d 0c3b 8c7c 5a3b dfe7 ee3a
000001d0: d675 1a3b 5276 153b a390 823a e280 113b
000001e0: f37e 323b ce95 1d3b c63e 653b bd70 d03a
000001f0: bf84 c83a 67d1 d43b 452d 153b 9ede ee3a

batch_norms.1.weight f4 [64]
0.27359104 0.37617072 0.23980263 0.23222086 0.21085316 0.22732553 0.2408717 0.23421252
0.18796545 0.2547771 0.30718887 0.2539896 0.35571903 0.21053077 0.2801644 0.31148654
0.19202691 0.23647021 0.1891082 0.20718125 0.29018855 0.23455791 0.34070152 0.20534818
0.22654371 0.33639458 0.2926161 0.19921197 0.22701564 0.29328087 0.19923754 0.22183701
0.19988626 0.2855927 0.38661572 0.20935062 0.42231998 0.25846505 0.3295256 0.3793507
0.2509116 0.32309338 0.29676828 0.18097647 0.19683184 0.30662546 0.32078505 0.28229296
0.29971454 0.31605345 0.24533746 0.15476161 0.3349914 0.27781406 0.26028565 0.13630505
0.15054385 0.3009522 0.26108876 0.28359085 0.31297806 0.1284269 0.30303323 0.26793778
00000000: 2014 8c3e 7399 c03e d28e 753e 4ecb 6d3e
00000010: e4e9 573e 06c8 683e 12a7 763e 68d5 6f3e
00000020: 047a 403e 2572 823e dc47 9d3e ed0a 823e
00000030: ce20 b63e 6195 573e b571 8f3e 2a7b 9f3e
00000040: b4a2 443e 3f25 723e 94a5 413e 5227 543e
00000050: 9893 943e f32f 703e 6e70 ae3e cb46 523e
00000060: 13fb 673e e93b ac3e c7d1 953e 39fe 4b3e
00000070: ca76 683e e928 963e ed04 4c3e 3e29 633e
00000080: fcae 4c3e 3539 923e 7ff2 c53e 0260 563e
00000090: 533a d83e 8855 843e 94b7 a83e 413a c23e
000000a0: 7c77 803e 7f6c a53e 03f2 973e e551 393e
000000b0: 498e 493e 03fe 9c3e f03d a43e b488 903e
000000c0: 2f74 993e c2d1 a13e be39 7b3e d479 1e3e
000000d0: fe83 ab3e a53d 8e3e 2944 853e 8d93 0b3e
000000e0: 2b28 1a3e 6816 9a3e 6dad 853e d232 913e
000000f0: a93e a03e 5782 033e 2c27 9b3e 242f 893e

batch_norms.1.bias f4 [64]
-0.23862267 -0.28824374 -0.2499707 0.306263 0.31491283 0.26371258 -0.31902292 -0.28454047
-0.19393656 -0.29402202 -0.27919516 0.24634445 0.2545112 -0.30878386 0.29839352 0.2866
0.22397253 -0.30224755 -0.13291657 -0.26584798 0.26837027 0.2438281 0.2769031 0.24877879
-0.15774378 0.26512703 0.2889556 -0.14479946 0.28385645 -0.29704964 -0.26320368 0.2578629
0.27005395 0.28687042 0.2795878 -0.25626284 0.26890698 0.26898426 0.29025736 -0.25761354
-0.28508446 -0.2755347 -0.28814396 0.20700815 -0.3113897 0.2902771 0.2966597 -0.26916084
-0.27909762 0.28242946 -0.30001962 -0.26620582 0.26123565 -0.27715763 0.28082132 0.24642195
0.22426671 -0.28497848 -0.28592405 -0.2980795 -0.23924829 0.26662496 -0.29765242 -0.2243084
00000000: 8059 74be af94 93be 52f8 7fbe 81ce 9c3e
00000010: 413c a13e 5605 873e f956 a3be 4aaf 91be
00000020: 4e97 46be 0e8a 96be abf2 8ebe b841 7c3e
00000030: 4b4f 823e eb18 9ebe 09c7 983e 3cbd 923e
00000040: 0e59 653e 31c0 9abe 481b 08be 3a1d 88be
00000050: d467 893e 13ae 793e 3ec6 8d3e debf 7e3e
00000060: 9687 21be bbbe 873e fdf1 933e 4f46 14be
00000070: a255 913e e416 98be a2c2 86be 9b06 843e
00000080: 8344 8a3e aee0 923e 2226 8f3e e234 83be
00000090: 2dae 893e 4eb8 893e 9d9c 943e ece5 83be
000000a0: 97f6 91be e212 8dbe 9b87 93be f2f9 533e
000000b0: 796e 9fbe 339f 943e c8e3 973e 73cf 89be
000000c0: e2e5 8ebe 989a 903e 2c9c 99be 214c 88be
000000d0: aec0 853e 9be7 8dbe d0c7 8f3e 0956 7c3e
000000e0: 2ca6 653e b3e8 91be a364 92be e09d 98be
000000f0: 81fd 74be 1183 883e e665 98be 1ab1 65be

batch_norms.1.running_mean f4 [64]
0.016092764 0.013749557 -0.0054687397 -0.012271393 0.006642905 -0.00579788 0.013246604 0.028245872
0.040068097 -0.011741875 -0.008131309 -0.021269517 0.0030108904 0.023841 0.0109293945 -0.030393386
-0.01694159 0.03254763 0.023221157 0.0023027451 0.017963989 -0.010816596 -0.032017794 -0.014098518
0.033010334 -0.002475793 -0.011517738 0.028102217 -0.013585735 0.011976701 0.008000397 -0.0051505286
-0.0032071613 -0.010299451 -0.009292477 0.009974083 -0.01586437 -0.006162723 -0.01367452 -0.0015644939
0.002003008 -0.0070590875 0.012081677 -0.017776573 0.025323184 0.00845518 0.02267116 -0.003979751
-0.007598157 -0.0020102693 0.02383796 0.011033094 0.00045543278 -0.0002259094 -0.035576783 -0.0082228165
0.000481323 0.009000657 0.0071338466 0.01372969 -0.01594896 -0.027828747 0.0011076293 -0.006628941
00000000: f9d4 833c d245 613c 1d33 b3bb f40d 49bc
00000010: baac d93b 24fc bdbb 4908 593c e363 e73c
00000020: 721e 243d fe60 40bc 2f39 05bc 693d aebc
00000030: 5c52 453b 334e c33c 3411 333c 8dfb f8bc
00000040: 17c9 8abc aa50 053d 4c3a be3c a7e9 163b
00000050: 3729 933c 1838 31bc 1725 03bd 78fd 66bc
00000060: d835 073d ea40 22bb e5b4 3cbc 9f36 e63c
00000070: b496 5ebc ed39 443c 1914 033c c4c5 a8bb
00000080: 3d2f 52bb 07bf 28bc 793f 18bc 566a 233c
00000090: fff5 81bc abf0 c9bb 180b 60bc b40f cdba
000000a0: e644 033b eb4f e7bb 3af2 453c 2da0 91bc
000000b0: 9172 cf3c 9887 0a3c deb8 b93c 9268 82bb
000000c0: f6f9 f8bb b9be 03bb d347 c33c 26c4 343c
000000d0: 27c7 ee39 18e2 6cb9 f6b8 11bd feb8 06bc
000000e0: 145a fc39 7e77 133c 0bc3 e93b 7ef2 603c
000000f0: 65a7 82bc 1df9 e3bc df2d 913a 9637 d9bb

batch_norms.1.running_var f4 [64]
0.005701595 0.0075946217 0.00991209 0.006449411 0.008273849 0.0083921505 0.0046366174 0.004998875
0.0064773303 0.009846137 0.011070498 0.006307697 0.0075589605 0.0056553627 0.009428291 0.0054489016
0.0070113433 0.00798352 0.00813666 0.010920689 0.009087352 0.011846879 0.0068324753 0.005969124
0.006726804 0.010044468 0.0102884695 0.010837313 0.0051677204 0.006802443 0.0054113846 0.009120124
0.007177027 0.005663227 0.00849053 0.007178504 0.011468306 0.004909346 0.007977378 0.0077561643
0.008405688 0.01120638 0.008625449 0.008804748 0.007247743 0.009287667 0.007221256 0.006816935
0.0077636316 0.0062026773 0.0081039565 0.007405608 0.0071028336 0.006556209 0.0064415373 0.0058443327
0.011706355 0.008587884 0.0070359996 0.006336527 0.013794539 0.0056217834 0.006864206 0.00737118
00000000: 72d4 ba3b 4edc f83b 5266 223c 9555 d33b
00000010: 0a8f 073c 3b7f 093c c4ee 973b 9acd a33b
00000020: c93f d43b b151 213c 0961 353c ccb0 ce3b
00000030: 28b1 f73b 9f50 b93b 1e79 1a3c b38c b23b
00000040: 69bf e53b 4fcd 023c a04f 053c b1ec 323c
00000050: 1ee3 143c 6919 423c f5e2 df3b a498 c33b
00000060: 866c dc3b 8d91 243c f890 283c fc8e 313c
00000070: fb55 a93b 07e7 de3b fc51 b13b 936c 153c
00000080: 442d eb3b 9792 b93b dd1b 0b3c a839 eb3b
00000090: 90e5 3b3c 94de a03b 8cb3 023c 6c27 fe3b
000000a0: 03b8 093c f79a 373c c151 0d3c ca41 103c
000000b0: 7a7e ed3b 4d2b 183c 49a0 ec3b 9860 df3b
000000c0: 1066 fe3b d43f cb3b 75c6 043c beaa f23b
000000d0: e3be e83b 78d5 d63b 8813 d33b d181 bf3b
000000e0: 03cc 3f3c 32b4 0c3c 3e8e e63b a4a2 cf3b
000000f0: 7d02 623c f036 b83b 22ed e03b f189 f13b

interaction_layers.0.bias f4 [128]
1.2421813e-06 -2.057418e-06 -6.1952746e-06 3.885001e-06 -2.9710893e-07 3.3091333e-06 2.8396298e-06 9.502547e-07
-5.894192e-07 1.7012364e-07 1.4250012e-06 4.2464887e-08 -8.717962e-07 3.415551e-07 -1.2354637e-07 -1.3535173e-06
1.3906119e-07 5.2370497e-06 4.5643696e-06 6.4423887e-07 -1.2481878e-06 5.1480356e-07 9.1282203e-07 3.600428e-07
-1.5340022e-06 6.702121e-06 1.0754806e-06 4.994454e-06 2.6300058e-06 2.8998345e-06 -2.1623503e-06 -8.476868e-07
3.501573e-06 -3.6694053e-07 2.2380486e-06 -1.2652115e-06 2.364809e-06 -4.4811195e-08 7.7691575e-06 2.196706e-07
-1.7501776e-06 1.6401906e-06 -7.97089e-08 3.5952871e-06 5.5553023e-06 9.2630995e-07 -1.8307554e-06 4.742007e-06
-1.7015098e-07 -5.596359e-07 1.6225907e-06 -1.0822706e-05 -3.337169e-08 -8.50136e-06 2.7218834e-06 1.1430806e-06
1.5003866e-06 1.8792396e-06 -1.0905494e-06 -3.8379435e-06 -1.3586201e-06 -1.0497442e-06 -2.156283e-06 1.0327847e-06
-1.9234649e-06 -5.315313e-08 4.3380546e-06 -8.0915235e-08 -8.711688e-07 -8.00506e-08 -9.4294614e-07 -1.3789958e-06
-7.441173e-07 8.108385e-07 -3.1642478e-06 7.657263e-06 4.0315393e-07 -3.1940208e-06 1.9973506e-06 1.2730326e-06
-2.7701813e-06 -6.7978357e-07 -1.6664062e-07 3.5096837e-06 6.4541365e-07 1.7956795e-06 3.5324113e-06 1.0712855e-06
-1.4315958e-07 -2.663139e-06 -7.049892e-07 3.251622e-06 -9.520696e-07 -3.956244e-06 -1.9177241e-06 -3.3537774e-06
1.3695429e-06 4.319092e-06 -1.1657711e-06 1.5534908e-06 5.282094e-07 9.62437e-07 1.8013852e-06 4.049758e-06
-2.142843e-06 -4.820161e-07 -5.0380495e-06 1.5272528e-06 2.2678635e-06 3.0402e-06 -2.4211615e-06 6.6432443e-07
-3.5346236e-06 -1.3926173e-06 -5.505793e-07 -4.7953085e-07 1.8432365e-06 2.9339042e-06 -7.84054e-06 -5.376788e-07
5.962547e-07 -6.3436614e-06 1.0955926e-06 -4.1009025e-06 -2.0270497e-07 5.063074e-07 5.911346e-07 2.7236467e-07
00000000: 06b9 a635 2c12 0ab6 01e1 cfb6 e85b 8236
00000010: 5782 9fb4 7a12 5e36 7890 3e36 0115 7f35
00000020: 9438 1eb5 3bab 3634 ab42 bf35 a362 3633
00000030: 6105 6ab5 fa5e b734 2ba8 04b4 80aa b5b5
00000040: d950 1534 eab9 af36 a327 9936 c2ef 2c35
00000050: 6887 a7b5 0831 0a35 a708 7535 e84b c134
00000060: eae3 cdb5 c8e2 e036 3b59 9035 0896 a736
00000070: 287f 3036 c79a 4236 e51c 11b6 988c 63b5
00000080: 91fc 6a36 ecff c4b4 6231 1636 56d0 a9b5
00000090: 1cb3 1e36 6e76 40b3 4758 0237 98de 6b34
000000a0: a5e7 eab5 8524 dc35 6e2c abb3 9046 7136
000000b0: af67 ba36 89a7 7835 47b8 f5b5 881d 9f36
000000c0: bfb2 36b4 e339 16b5 cbc7 d935 2b93 35b7
000000d0: 9054 0fb3 10a1 0eb7 9aa9 3636 f36b 9935
000000e0: e460 c935 2e3a fc35 fe5e 92b5 afc7 80b6
000000f0: d559 b6b5 f0e4 8cb5 a9b4 10b6 369e 8a35
00000100: e014 01b6 7c4a 64b3 9b8f 9136 9fc3 adb3
00000110: 44da 69b5 48e8 abb3 c41e 7db5 ef15 b9b5
00000120: 5abf 47b5 66a8 5935 5d59 54b6 b277 0037
00000130: 0e71 d834 dc58 56b6 390a 0636 11dd aa35
00000140: 5ae7 39b6 5f7a 36b5 d3ed 32b4 e887 6b36
00000150: 7d40 2d35 1403 f135 5d0e 6d36 17c9 8f35
00000160: 68b7 19b4 61b8 32b6 7d3e 3db5 7136 5a36
00000170: ba91 7fb5 e1bf 84b6 40b2 00b6 7511 61b6
00000180: 23d1 b735 b8ec 9036 9777 9cb5 8a81 d035
00000190: 46ca 0d35 152d 8135 20c7 f135 28e3 8736
000001a0: c3cd 0fb6 e563 01b5 840c a9b6 02fc cc35
000001b0: 9931 1836 3d06 4c36 3d7b 22b6 0754 3235
000001c0: 5f34 6db6 f7e9 bab5 85cb 13b5 1cb9 00b5
000001d0: 2065 f735 17e4 4436 dd8a 03b7 0155 10b5
000001e0: 500e 2035 a3db d4b6 460c 9335 7c9a 89b6
000001f0: 1ea7 59b4 2ee9 0735 76ae 1e35 8439 9234

interaction_layers.0.lin.weight f4 [128, 15]
0.027039384 0.03232498 0.027251046 -0.0025951273 0.045253932 -0.019865928 0.00016146024 0.02255574
0.0760526 -0.01701917 0.012496281 0.028133303 -0.0593135 0.14061499 -0.038022637 -0.0093486225
0.03185687 0.0272869 0.04991225 -0.051861137 0.058950324 -0.002992737 0.033906374 -0.014583653
-0.01260917 0.019122135 0.13446838 -0.030261308 0.034312088 0.08090977 -0.009295891 0.008183395
0.011477305 0.031241596 0.013642149 -0.0006408032 0.042232137 -0.038798746 -0.019904654 0.06336185
-0.058613975 0.05198321 0.022025438 -0.010368933 0.02375348 0.014710193 0.03114655 0.050818287
-0.04598 -0.021886906 0.07379013 -0.002928281 0.0933792 -0.068983644 0.0056855893 0.024061725
-0.06436688 0.07212004 -0.038267933 -0.005866925 -0.009404013 0.026857613 -0.049897734 0.08572254
-0.046852887 0.038875666 -0.031611413 0.087071784 -0.0285397 0.012122449 0.0031778968 -0.016814554
-0.024299677 0.0198272 -0.017728021 0.0074736285 -0.00287302 0.012352913 0.048903044 -0.030026544
-0.0349155 0.09183968 -0.09802389 0.021674667 0.009993566 -0.013657157 -0.03923346 0.028797606
0.010785526 -0.04419101 0.053042438 -0.025632145 0.09550285 -0.029452777 -0.032409072 -0.026701791
0.032848604 -0.04056758 0.057252724 -0.033231802 0.027139585 -0.09754828 0.08774998 -0.056677807
-0.0067476886 0.07913502 -0.0007091003 0.048856825 -0.062077355 0.027036108 0.050614834 -0.078661956
0.015207067 0.14771283 0.04719445 0.0034549462 0.0005517373 -0.06105819 0.15670006 0.019794922
-0.01290687 -0.021104407 0.028796598 0.035155617 -0.010446192 -0.053882465 0.08117229 -0.07169774
-0.0021970207 0.072330296 -0.05508526 -0.03219392 0.0014872166 -0.041974325 0.030119015 -0.020187885
0.031933516 0.08181634 -0.030365363 -0.04773269 -0.008075288 0.023263123 -0.048745964 -0.034632757
0.022411391 -0.013169964 -0.03074423 0.009977723 -0.0010163225 -0.018639753 0.054548822 -0.020532332
0.022348028 -0.10220876 0.016325163 0.099947035 -0.02380782 0.007943453 0.0058995886 0.005143371
0.027227525 0.005599067 -0.12192009 0.13573846 0.006812858 0.070239425 -0.040236734 -0.02173929
-0.008420827 0.02700231 0.03867127 -0.009705956 -0.0053886254 0.02749471 -0.060924724 0.07974044
0.056074332 -0.07086455 0.102029726 0.027784439 -0.0187923 0.029870704 0.0012534676 0.059256513
-0.06376533 0.016225655 0.05737568 -0.025209514 -0.044372916 0.054651815 -0.04392582 0.063675135
-0.038251866 -0.00505954 0.066460796 0.00826017 0.0003908501 -0.010730461 0.08267857 -0.043735158
-0.031290855 0.035434473 -0.04089121 -0.013855078 0.05684527 -0.06208824 -0.045432355 0.042896695
-0.032050297 -0.0047655455 0.036599755 -0.012785396 0.023853395 0.0030203282 -0.07190378 0.054434147
-0.047336668 0.077411 -0.028507274 -0.019408483 0.03680964 -0.028177716 0.028886542 -0.009839688
-0.0017967499 -0.03038087 0.047283772 0.00663843 0.023767745 -0.014379806 0.050817437 -0.038549945
0.08061246 -0.002705033 0.044843398 -0.01119343 0.0014710788 -0.010401599 0.011809937 0.009012387
0.003768525 0.01720704 0.011817482 0.004381761 0.042899072 0.003910631 0.018872881 0.0052334624
-0.019389493 0.06007957 -0.040491745 0.17282005 -0.023756184 0.050509404 -0.020920573 0.02786307
00000000: b381 dd3c 3367 043d 963d df3c 0313 2abb
00000010: 305c 393d dfbd a2bc a74d 2939 d1c6 b83c
00000020: 77c1 9b3d c96b 8bbc 34bd 4c3c d077 e63c
00000030: b6f2 72bd 60fd 0f3e a0bd 1bbd f72a 19bc
00000040: 597c 023d c788 df3c ca70 4c3d 586c 54bd
00000050: e575 713d cc21 44bb 69e1 0a3d 46f0 6ebc
00000060: b196 4ebc 06a6 9c3c 14b2 093e 90e6 f7bc
00000070: d58a 0c3d 06b4 a53d cb4d 18bc a513 063c
00000080: 4e0b 3c3c 60ee ff3c 5283 5f3c 93fb 27ba
00000090: 9bfb 2c3d 6feb 1ebd 160f a3bc dcc3 813d
000000a0: 3515 70bd 59ec 543d b16e b43c 75e2 29bc
000000b0: a896 c23c 0503 713c 0d27 ff3c d626 503d
000000c0: 8655 3cbd 2b4c b3bc 481f 973d 67e8 3fbb
000000d0: 983d bf3d 4c47 8dbd 2e4e ba3b 181d c53c
000000e0: c8d2 83bd acb3 933d d6be 1cbd 563f c0bb
000000f0: 4a13 1abc 7f04 dc3c 9161 4cbd 4d8f af3d
00000100: d0e8 3fbd 173c 1f3d f87a 01bd b152 b23d
00000110: 17cc e9bc 3d9d 463c 4344 503b adbe 89bc
00000120: 1e10 c7bc a76c a23c 5b3a 91bc 57e5 f43b
00000130: 4749 3cbb df63 4a3c 8f4e 483d 3afa f5bc
00000140: 8e03 0fbd 7116 bc3d c0c0 c8bd 128f b13c
00000150: 0ebc 233c 45c2 5fbc 44b3 20bd f5e8 eb3c
00000160: c6b5 303c a201 35bd 0743 593d 81fa d1bc
00000170: 0097 c33d f346 f1bc 60bf 04bd b7bd dabc
00000180: 428c 063d 312a 26bd d581 6a3d 121e 08bd
00000190: d653 de3c 65c7 c7bd 43b6 b33d fd26 68bd
000001a0: b71b ddbb 8b11 a23d eae2 39ba 181e 483d
000001b0: d344 7ebd d47a dd3c 8051 4f3d 8519 a1bd
000001c0: 1027 793c 0842 173e f84e 413d 616c 623b
000001d0: 77a2 103a 2718 7abd fb75 203e f628 a23c
000001e0: 5677 53bc 26e3 acbc d8e6 eb3c 56ff 0f3d
000001f0: 8126 2bbc dcb3 5cbd a83d a63d 44d6 92bd
00000200: e4fb 0fbb e821 943d 15a1 61bd c6dd 03bd
00000210: b5ee c23a 45ed 2bbd 27bc f63c 1061 a5bc
00000220: b8cc 023d 538f a73d c8c0 f8bc 5a83 43bd
00000230: 364e 04bc 4e92 be3c d9a9 47bd 14db 0dbd
00000240: 1898 b73c d5c6 57bc 53db fbbc 9a79 233c
00000250: 2036 85ba 65b2 98bc 966e 5f3d 6c33 a8bc
00000260: 3613 b73c d452 d1bd 59bc 853c 08b1 cc3d
00000270: 9e08 c3bc 4225 023c 5651 c13b b989 a83b
00000280: 420c df3c 6178 b73b 3db1 f9bd 06ff 0a3e
00000290: 653e df3b b0d9 8f3d 46cf 24bd 9816 b2bc
000002a0: 82f7 09bc f333 dd3c c465 1e3d bb05 1fbc
000002b0: 1193 b0bb 963c e13c 348c 79bd f54e a33d
000002c0: 33ae 653d 6f21 91bd f6f4 d03d 319c e33c
000002d0: 4ff2 99bc 68b3 f43c 654b a43a f5b6 723d
000002e0: 6697 82bd aaeb 843c c302 6b3d 2f84 cebc
000002f0: 60c0 35bd 95da 5f3d 90eb 33bd 1c68 823d
00000300: fdad 1cbd 7fca a5bb 991c 883d aa55 073c
00000310: 03eb cc39 d1ce 2fbc 6253 a93d a323 33bd
00000320: d72a 00bd bd23 113d 8b7d 27bd 6900 63bc
00000330: 96d6 683d 3d50 7ebd 4717 3abd 72b4 2f3d
00000340: 2c47 03bd 4b28 9cbb a0e9 153d d679 51bc
00000350: 3268 c33c b3f0 453b 4a42 93bd 57f6 5e3d
00000360: 18e4 41bd a989 9e3d 1688 e9bc 8afe 9ebc
00000370: b4c5 163d f4d4 e6bc 78a3 ec3c a536 21bc
00000380: ec80 ebba 4de1 f8bc a1ac 413d 3087 d93b
00000390: 93b4 c23c 4799 6bbc f225 503d 8ce6 1dbd
000003a0: 2518 a53d ec46 31bb b6ad 373d a664 37bc
000003b0: 37d1 c03a 786b 2abc 777e 413c b1a8 133c
000003c0: 5cf9 763b c7f5 8c3c 1d9e 413c e094 8f3b
000003d0: f0b6 2f3d c024 803b 4d9b 9a3c 777d ab3b
000003e0: b7d6 9ebc ff15 763d acda 25bd bdf7 303e
000003f0: 549c c2bc f3e2 4e3d 9f61 abbc 1841 e43c

interaction_layers.1.bias f4 [64]
2.5924726e-06 -1.5506231e-06 5.1248804e-07 7.6023144e-07 -2.4179926e-06 4.760905e-07 -6.493039e-07 -5.295876e-06
4.5094854e-08 -7.367721e-07 -1.0594727e-06 1.1203784e-06 1.3704538e-06 -3.4036972e-08 3.7872674e-06 -6.186408e-07
-2.7162622e-07 1.528682e-06 -1.2237542e-06 -1.4421678e-06 7.053237e-07 -1.2416491e-06 4.9123096e-06 2.2066912e-07
-1.1762962e-06 -2.1965398e-06 -2.272611e-06 9.2657535e-07 1.21209e-06 -4.3797345e-06 1.3243305e-06 -6.5409256e-07
1.5371738e-06 -4.7821084e-07 8.0890527e-07 -1.0690962e-06 -1.9392123e-06 3.7416653e-06 6.1744083e-07 -1.6414757e-06
-2.9919895e-06 -4.160547e-06 3.010644e-07 4.035103e-07 -1.0998793e-06 -7.484632e-07 -5.536822e-07 1.6650392e-06
2.3632065e-06 4.6379228e-06 -3.6774184e-06 -8.859494e-08 -2.7001508e-06 1.6090584e-06 3.0864516e-07 1.6298004e-06
6.59857e-07 8.201963e-07 3.130372e-06 2.2778902e-06 -4.0857467e-06 1.0667779e-06 3.5316443e-06 -4.5333286e-06
00000000: 57fa 2d36 011f d0b5 e991 0935 b512 4c35
00000010: cc44 22b6 6199 ff34 d34b 2eb5 3ab3 b1b6
00000020: 51ae 4133 98c6 45b5 3433 8eb5 e95f 9635
00000030: 6ff0 b735 0c30 12b3 c228 7e36 ac10 26b5
00000040: 06d4 91b4 1d2d cd35 e03f a4b5 8290 c1b5
00000050: 7a55 3d35 bda6 a6b5 6bd4 a436 11f1 6c34
00000060: 3be1 9db5 4468 13b6 2983 18b6 c6b9 7835
00000070: 18af a235 a2f5 92b6 a6bf b135 e694 2fb5
00000080: e450 ce35 665e 00b5 8c23 5935 de7d 8fb5
00000090: 6a23 02b6 5219 7b36 36be 2535 ad50 dcb5
000000a0: fdc9 48b6 d49a 8bb6 faa1 a134 09a2 d834
000000b0: 919f 93b5 00ea 48b5 c0a0 14b5 507a df35
000000c0: 9497 1e36 749f 9b36 91c9 76b6 9541 beb3
000000d0: 3d34 35b6 d3f6 d735 deb3 a534 84bf da35
000000e0: 0721 3135 762b 5c35 6213 5236 dbdd 1836
000000f0: 4c18 89b6 362e 8f35 3001 6d36 ff1c 98b6

interaction_layers.1.lin.weight f4 [64, 128]
-0.02309299 -0.01414873 -0.014288129 -0.035050616 -0.030681578 0.046448395 0.021284332 -0.018382225
0.024191802 0.012117758 -0.002771079 -0.014146432 0.00054369296 0.0073147314 -0.029086718 -0.07117285
-0.017476927 0.04233443 0.054336168 0.0056274924 -0.009976582 0.018854257 0.025518855 0.017744107
0.016578108 -0.037887633 0.008106356 -0.0042463997 0.047222473 0.011223149 -0.0020429392 0.0080341315
0.038400043 0.012522068 -0.039927702 0.059033934 -0.041035026 -0.016060362 0.020854801 -0.008854319
0.0354475 0.043615352 -0.003992203 -0.03459715 0.01846058 -0.022675416 0.022161385 -0.027695185
0.027360167 0.057073545 -0.0018821409 -0.051044755 -0.027524859 -0.018722413 0.033997513 0.023508444
0.052381217 0.046083543 -0.0017497207 0.0137578 -0.0032575186 0.02171738 -0.022090394 0.0133015765
0.05047412 0.019538688 -0.005338786 0.018602146 -0.02912372 -0.04924353 -0.01125666 0.0469145
0.019502124 -0.022795094 -0.033297885 -0.02193102 0.04832011 0.028284123 -0.028544173 0.031276815
0.055964574 -0.034628592 -0.0007755566 -0.0018718496 0.008468068 -0.013788624 -0.04738201 -0.004666716
0.02391775 0.060514025 0.018772867 0.043885652 -0.06928137 -0.0038631374 -0.01749486 0.020480383
0.03726027 0.08092122 -0.032072663 0.032817896 0.0035590602 0.0002379 0.037542645 -0.032541554
-0.019778112 0.0066577466 0.018049233 -0.039711814 -0.03460617 0.026593242 0.05264778 0.009171458
0.052293546 -0.007142331 -0.005089209 -0.031356923 0.0028175595 0.08988341 0.02010879 -0.04387727
-0.00378332 0.013898527 0.018518118 -0.018315166 -0.03862603 0.00035388835 -0.03159592 -0.04261761
0.0005834256 -0.01928195 0.011900999 -0.060964577 -0.0068289465 0.03904871 0.031638622 -0.022202794
0.009802714 -0.018815596 -0.022197103 -0.027182516 -0.011215374 -0.05529216 0.0014983667 -0.035479687
-0.0025103048 0.04138036 0.055682458 0.01720581 -0.0065062894 -0.015505733 0.013033633 0.0022380233
-0.008136894 -0.009258082 -0.011864364 -0.042771768 0.0045364536 -0.02217037 -0.008373411 0.054527316
0.11262473 0.02051564 -0.028058974 0.07703066 -0.060985956 0.015621965 0.0053483834 -0.027917905
-0.023727229 0.0020526564 -0.023302637 -0.042001687 0.0773957 0.014774545 -0.0070149214 0.02596633
-0.037433397 0.008998019 0.03536979 0.007048576 -0.020148749 -0.01148978 0.04566494 0.012012852
0.013584269 0.076532125 -0.0023934369 0.021024782 -0.044983156 -0.0063620005 -0.04816648 0.03897653
0.040421244 0.05595169 -0.014166844 0.09759032 -0.023396634 0.00672243 -0.016568275 0.08622777
0.013992227 -0.034180857 -0.081348054 -0.025609972 0.037269667 0.04577588 -0.031203825 0.060848374
0.06392305 -0.04054494 0.014456235 -0.037240315 0.005385936 -0.017254181 0.004898607 -0.018000187
0.042258926 0.011998051 0.007826626 0.038831197 -0.040841036 -0.0012966176 -0.032497417 0.042638622
0.038581185 0.043858048 -0.004966649 -0.019405339 0.037235886 0.035968244 -0.00182389 -0.030110104
-0.022455856 -0.028165763 -0.036186848 -0.050381705 0.0027980313 -0.028652601 0.063546866 0.031086013
0.025584921 -0.041371252 -0.0047348654 -0.028585669 -0.032364532 0.067511596 0.033848543 0.009645851
-0.03696355 -0.041567504 0.02822069 -0.020847997 0.0141902445 -0.008424782 -0.02428644 0.028422918
00000000: 832d bdbc 13d0 67bc c218 6abc 3c91 0fbd
00000010: ef57 fbbc ac40 3e3d 7b5c ae3c 5296 96bc
00000020: e32d c63c 9089 463c fe9a 35bb 70c6 67bc
00000030: 9e86 0e3a 6ab0 ef3b 4547 eebc 12c3 91bd
00000040: c62b 8fbc de66 2d3d 9a8f 5e3d d466 b83b
00000050: d174 23bc 3e74 9a3c eb0c d13c 175c 913c
00000060: d0ce 873c 1030 1bbd 85d0 043c 6225 8bbb
00000070: 5a6c 413d 4ce1 373c d5e2 05bb 97a1 033c
00000080: 5d49 1d3d 5c29 4d3c 3b8b 23bd 91cd 713d
00000090: 5814 28bd 0591 83bc b0d7 aa3c b511 11bc
000000a0: 6631 113d 03a6 323d 07d1 82bb beb5 0dbd
000000b0: a43a 973c cbc1 b9bc cb8b b53c 03e1 e2bc
000000c0: 6e22 e03c f3c5 693d 2bb2 f6ba 4e14 51bd
000000d0: d07b e1bc bf5f 99bc fa40 0b3d c894 c03c
000000e0: b08d 563d 19c2 3c3d e256 e5ba 6568 613c
000000f0: 187c 55bb a6e8 b13c eaf6 b4bc dbee 593c
00000100: f3bd 4e3d 990f a03c fcf0 aebb 8763 983c
00000110: de94 eebc 95b3 49bd db6d 38bc 6b29 403d
00000120: ebc2 9f3c c7bc babc 5d63 08bd afa8 b3bc
00000130: 4feb 453d 1bb4 e73c 78d5 e9bc 1e1c 003d
00000140: 1c3b 653d b6d6 0dbd b94e 4bba da58 f5ba
00000150: a7bd 0a3c aee9 61bc a313 42bd 40eb 98bb
00000160: 28ef c33c 8edd 773d 8ec9 993c 71c1 333d
00000170: 64e3 8dbd b12c 7dbb 6151 8fbc 7ac6 a73c
00000180: 3a9e 183d 06ba a53d a05e 03bd 0f6c 063d
00000190: 1f3f 693b cc74 7939 51c6 193d 4b4a 05bd
000001a0: b505 a2bc 3a29 da3b fcdb 933c dba8 22bd
000001b0: 33bf 0dbd 12da d93c 33a5 573d e243 163c
000001c0: c231 563d 370a eabb 61c3 a6bb 1e70 00bd
000001d0: cea6 383b cb14 b83d 30bb a43c a7b8 33bd
000001e0: 94f1 77bb a6b6 633c 4fb3 973c b009 96bc
000001f0: 5436 1ebd 178a b939 b96a 01bd ce8f 2ebd
00000200: 07f1 183a 2ef5 9dbc 68fc 423c feb5 79bd
00000210: 5bc5 dfbb 8af1 1f3d 8097 013d a2e2 b5bc
00000220: 909b 203c 2a23 9abc b3d6 b5bc dead debc
00000230: b0c0 37bc 087a 62bd d864 c43a 2653 11bd
00000240: ed83 24bb 747e 293d 4a13 643d 33f3 8c3c
00000250: b632 d5bb c20b 7ebc 058b 553c cdab 123b
00000260: 9b50 05bc 36af 17bc c062 42bc 7331 2fbd
00000270: 88a6 943b a39e b5bc a230 09bc 0958 5f3d
00000280: cba7 e63d 6a10 a83c efdb e5bc 40c2 9d3d
00000290: 69cc 79bd 45f3 7f3c 7e41 af3b 17b4 e4bc
000002a0: 9b5f c2bc dc85 063b 2ce5 bebc f609 2cbd
000002b0: a381 9e3d ef10 723c 6ddd e5bb 57b7 d43c
000002c0: c353 19bd 6d6c 133c eadf 103d bef7 e63b
000002d0: fd0e a5bc a13f 3cbc 290b 3b3d 8ed1 443c
000002e0: 8e90 5e3c e0bc 9c3d 35db 1cbb 2a3c ac3c
000002f0: 4240 38bd 5478 d0bb 374a 45bd dba5 1f3d
00000300: bf90 253d 992d 653d 0d1c 68bc 6fdd c73d
00000310: 4caa bfbc d447 dc3b 31ba 87bc 2f98 b03d
00000320: a73f 653c 3a01 0cbd cf99 a6bd 01cc d1bc
00000330: 14a8 183d 7d7f 3b3d 2a9f ffbc 253c 793d
00000340: 17ea 823d 7312 26bd d8d9 6c3c 4d89 18bd
00000350: 817c b03b a458 8dbc 7e84 a03b 2175 93bc
00000360: b217 2d3d 7993 443c 403b 003c 760d 1f3d
00000370: ee48 27bd 44f3 a9ba 031c 05bd d6a5 2e3d
00000380: 4e07 1e3d 7fa4 333d 46bf a2bb f2f7 9ebc
00000390: a884 183d 7053 133d 980f efba 77a9 f6bc
000003a0: 58f5 b7bc e3bb e6bc a938 14bd 0c5d 4ebd
000003b0: 2d5f 373b dcb8 eabc dc24 823d 18a8 fe3c
000003c0: 7897 d13c e774 29bd ee26 9bbb 7e2c eabc
000003d0: ac90 04bd 8543 8a3d c5a4 0a3d a209 1e3c
000003e0: 1767 17bd b042 2abd 142f e73c 6bc9 aabc
000003f0: 337e 683c 1908 0abc 5bf4 c6bc 2ed7 e83c

out.weight f4 [200, 64]
-0.00019111924 -0.0003104744 -0.00014784036 0.00030437566 0.00023750773 0.0003357069 -0.00036992162 -0.00036374287
-0.0002689643 -0.00022499001 -0.00030149033 0.00027169217 0.00042990257 -0.000321797 0.00036182298 0.00031459756
0.00038339663 -0.00024373375 -9.866295e-05 -0.00027121458 0.00033435517 0.00022326078 0.00023186332 0.00036456913
-0.00034647662 0.00020173761 0.00033905733 -0.00013914405 0.00045709935 -0.00022145151 -0.00027848364 0.00023893452
0.00033098133 0.0004522778 0.000372941 -0.00028416092 0.0004114666 0.00038312477 0.00031350917 -0.0003107722
-0.0001597367 -0.00025253437 -0.0003056519 0.0002571224 -0.0003233786 0.0003442582 0.00046582284 -0.00029506718
-0.0004566926 0.0003604011 -0.00030797193 -0.00033638524 0.0004021211 -0.00038944196 0.00037306015 0.00034016647
0.00026210153 -0.00033144696 -0.0003487943 -0.00042282173 -0.00019779163 0.0003776896 -0.00036968317 -0.0002713706
-0.00015168481 -0.00019175686 -0.00011783765 0.00018260306 0.00015224748 0.00020586836 -0.00023250436 -0.00024527157
-0.00022006662 -0.0001317419 -0.00013814477 0.00019349695 0.0002918235 -0.00015558631 0.0002490526 0.00022621562
0.0002247326 -0.0001509015 -5.4216984e-05 -0.00020167412 0.00022231405 0.00011604827 0.00018642512 0.000202594
-0.00013144265 0.00013476779 0.00021573952 -0.000112604284 0.00031667462 -0.00017539345 -0.0001889979 0.00015780613
0.00022003929 0.00033023648 0.00025545122 -0.00016911046 0.0002652311 0.0002006037 0.0002332579 -0.00021435016
-7.035577e-05 -0.00015522233 -0.00020962623 0.00017546568 -0.00019393489 0.00021607609 0.0002929498 -0.00013785361
-0.00018507303 0.0002510687 -0.00017770324 -0.00022393987 0.00028438368 -0.0002027743 0.00022701624 0.00024758006
0.0003015307 -0.0001328804 -0.00023831087 -0.0002727959 -7.706007e-05 0.00022080587 -0.00024110884 -0.00018584603
-0.00016680591 -0.0002263828 -0.00013774616 0.00023431236 0.00015746315 0.00024466397 -0.00032452712 -0.0003209277
-0.0001973264 -0.00019257751 -0.00019846692 0.00022000972 0.00034760372 -0.00020095166 0.0002667522 0.00022396995
0.00024585857 -0.00016346453 -8.5254294e-05 -0.00019204537 0.00023833371 0.00014309418 0.00019928202 0.0002405428
-0.00015205551 0.00012713319 0.00024912346 -0.00011672552 0.0003827924 -0.00018240379 -0.00022901515 0.00018625567
0.00025847886 0.0003836387 0.0003562678 -0.00017973868 0.0003099517 0.00023403887 0.00024147712 -0.00020879874
-0.00012040808 -0.00018160339 -0.0002609532 0.00018507153 -0.00023219039 0.00027054045 0.00037308715 -0.00024462395
-0.0002314608 0.00028462947 -0.00017519144 -0.00020801477 0.0003157069 -0.00032602221 0.00027673994 0.0002997273
0.00021798503 -7.763311e-05 -0.00027124473 -0.00034662554 -0.00023773307 0.00026236536 -0.0002890475 -0.00026160685
-3.5907127e-05 -8.082502e-06 1.0932989e-05 -6.420127e-05 -2.1763926e-05 -1.08770055e-05 1.5066565e-05 -4.378547e-05
4.549189e-07 2.8194276e-05 -1.6604425e-05 -2.0213754e-05 4.3485154e-05 8.294496e-05 -4.440818e-05 1.6222917e-06
5.5181095e-05 -1.3336605e-06 2.6804428e-05 5.153449e-05 1.5170622e-05 -1.2483469e-05 2.9414827e-05 -2.4871704e-06
-1.6437505e-05 -2.0089588e-05 -5.8465357e-05 1.9354606e-05 4.5982215e-05 -5.70482e-05 -5.8104797e-05 2.092763e-05
-1.2434212e-05 0.00013149298 0.00015282292 1.6548223e-05 7.273134e-05 9.549835e-05 -7.108964e-05 -0.00011218939
2.3564922e-05 -6.115483e-05 -1.4912601e-05 -1.8247545e-05 2.4714318e-05 1.3306268e-05 8.559616e-05 -9.092381e-05
1.0341882e-05 2.7943834e-05 -4.500787e-06 1.9118828e-05 2.824035e-05 -7.7614015e-05 1.2370114e-05 1.951805e-05
4.1537336e-05 3.5911694e-06 3.9746814e-05 -2.5445666e-05 3.178074e-05 3.491476e-05 -6.0726565e-05 -0.0001400945
00000000: 2e67 48b9 2bc7 a2b9 9805 1bb9 9c94 9f39
00000010: 7f0b 7939 d101 b039 0af2 c1b9 beb4 beb9
00000020: c703 8db9 4ceb 6bb9 5911 9eb9 e871 8e39
00000030: 8c64 e139 ddb6 a8b9 0fb3 bd39 92f0 a439
00000040: a002 c939 c892 7fb9 45e9 ceb8 ce31 8eb9
00000050: 644c af39 1c1b 6a39 5620 7339 a423 bf39
00000060: 4ea7 b5b9 8789 5339 81c3 b139 32e7 11b9
00000070: d6a6 ef39 7035 68b9 7101 92b9 7f8a 7a39
00000080: 9087 ad39 b31f ed39 4b87 c339 6ffb 94b9
00000090: 1dba d739 23de c839 7d5e a439 23ef a2b9
000000a0: fe7e 27b9 9766 84b9 e73f a0b9 62ce 8639
000000b0: 248b a9b9 8e7d b439 af39 f439 3fb3 9ab9
000000c0: 3e70 efb9 38f4 bc39 4b77 a1b9 dd5c b0b9
000000d0: c8d3 d239 042e ccb9 4997 c339 5f58 b239
000000e0: ac6a 8939 0fc6 adb9 61de b6b9 2cae ddb9
000000f0: 4966 4fb9 a404 c639 09d2 c1b9 bf46 8eb9
00000100: 950d 1fb9 5712 49b9 9b1f f7b8 2379 3f39
00000110: 9fa4 1f39 5ede 5739 6acc 73b9 cb97 80b9
00000120: afc1 66b9 3224 0ab9 f4da 10b9 71e5 4a39
00000130: e3ff 9839 e224 23b9 4693 8239 4b34 6d39
00000140: 33a6 6b39 503b 1eb9 0b67 63b8 7c78 53b9
00000150: f91c 6939 f15e f338 1d7b 4339 6a6f 5439
00000160: ded3 09b9 7450 0d39 2338 6239 f725 ecb8
00000170: 5907 a639 d2e9 37b9 bd2d 46b9 c378 2539
00000180: 59ba 6639 9723 ad39 15ee 8539 3e53 31b9
00000190: b70e 8b39 2559 5239 b196 7439 2fc3 60b9
000001a0: f78b 93b8 2dc3 22b9 1dcf 5bb9 36fd 3739
000001b0: 005b 4bb9 7c92 6239 0e97 9939 cc8c 10b9
000001c0: 2a10 42b9 dfa1 8339 da55 3ab9 67d1 6ab9
000001d0: 5519 9539 d09f 54b9 350b 6e39 a2cd 8139
000001e0: c416 9e39 d055 0bb9 16e3 79b9 0c06 8fb9
000001f0: 4f9b a1b8 2088 6739 29d2 7cb9 aadf 42b9
00000200: 9fe8 2eb9 2c61 6db9 f46f 10b9 bfb1 7539
00000210: b11c 2539 3e46 8039 4b25 aab9 3042 a8b9
00000220: 67e9 4eb9 a2ee 49b9 8f1b 50b9 69b2 6639
00000230: 953e b639 8db6 52b9 e0da 8b39 7ad9 6a39
00000240: 94e6 8039 ad67 2bb9 8dca b2b8 c95f 49b9
00000250: 38e9 7939 8d0b 1639 5cf6 5039 373a 7c39
00000260: 1771 1fb9 0e4f 0539 c99c 8239 89ca f4b8
00000270: 87b1 c839 a543 3fb9 c923 70b9 a04d 4339
00000280: 7284 8739 1d23 c939 74c9 ba39 3c78 3cb9
00000290: 0381 a239 5568 7539 0535 7d39 fcf0 5ab9
000002a0: 9983 fcb8 ca6c 3eb9 8cd0 88b9 c30f 4239
000002b0: 2278 73b9 53d7 8d39 e99a c339 df40 80b9
000002c0: 49b4 72b9 523a 9539 98b3 37b9 8a1e 5ab9
000002d0: 7685 a539 f6ed aab9 6817 9139 b824 9d39
000002e0: e992 6439 f5ce a2b8 da35 8eb9 4bbb b5b9
000002f0: fc47 79b9 158e 8939 4c8b 97b9 4728 89b9
00000300: fc9a 16b8 159a 07b7 d56c 3737 cba3 86b8
00000310: ad91 b6b7 627c 36b7 67c6 7c37 4aa6 37b8
00000320: 943b f434 bf82 ec37 bb49 8bb7 b590 a9b7
00000330: d463 3638 bcf2 ad38 ec42 3ab8 85bd d935
00000340: 4072 6738 3a00 b3b5 12da e037 bd26 5838
00000350: 5385 7e37 1770 51b7 dcbf f637 43e9 26b6
00000360: 46e3 89b7 1086 a8b7 b338 75b8 b35b a237
00000370: 07dd 4038 0a47 6fb8 8db5 73b8 be8d af37
00000380: 899c 50b7 61e1 0939 173f 2039 0ad1 8a37
00000390: 5787 9838 4946 c838 f615 95b8 3847 ebb8
000003a0: 49ad c537 4040 80b8 2231 7ab7 4e12 99b7
000003b0: 9851 cf37 fc3d 5f37 1782 b338 59ae beb8
000003c0: 0c82 2d37 ed68 ea37 7705 97b6 5f61 a037
000003d0: b1e5 ec37 b5c4 a2b8 3c89 4f37 b1ba a337
000003e0: 6038 2e38 d2ff 7036 d1b5 2638 2774 d5b7
000003f0: 4f4c 0538 7071 1238 a7b4 7eb8 55e6 12b9

out.bias f4 [200]
-0.0068269093 -0.004361799 -0.004977088 -0.0006303901 -0.0041813594 -0.003894835 -0.006687169 -0.0064124153
-0.0031159762 -0.004425118 -0.0050077015 -0.008260771 -0.0061872327 -0.008731034 -0.004788448 -0.0021762953
-0.0025405018 0.0056533297 0.009759978 0.012154443 0.0163025 0.021217212 0.026022939 0.03187483
0.03793045 0.045244027 0.052289765 0.059998382 0.0676259 0.07489598 0.08306398 0.08996312
0.09757089 0.106240414 0.11591192 0.12759504 0.1420812 0.16039523 0.18314673 0.20994467
0.24200106 0.27796614 0.31562245 0.3560756 0.39614436 0.4259589 0.45867854 0.47916952
0.49179718 0.50283766 0.50878125 0.48665252 0.467034 0.44200724 0.40597314 0.36610064
0.32660523 0.28993118 0.25844964 0.23051475 0.21132301 0.19763446 0.18740945 0.18083636
0.17604953 0.1721316 0.16877148 0.16415937 0.1593539 0.15388238 0.14776297 0.14184771
0.13616563 0.13166708 0.12767094 0.12638038 0.12536505 0.12915795 0.13653299 0.14675547
0.16055417 0.17972714 0.19974655 0.22165337 0.24572305 0.26823577 0.29036543 0.3068145
0.3182551 0.32422683 0.3235623 0.3183116 0.30829608 0.29721364 0.28142545 0.2691987
0.2540832 0.249001 0.24186453 0.24095197 0.24435563 0.2503734 0.25630653 0.26768273
0.27831554 0.29003233 0.30292892 0.31603435 0.32946077 0.34107745 0.35806265 0.3707485
0.38942632 0.4050158 0.4203329 0.43501714 0.45008948 0.4555548 0.4799568 0.4812058
0.4942494 0.50864226 0.51977056 0.50790405 0.50982124 0.5201877 0.533594 0.537487
0.53022635 0.5406206 0.5367736 0.528778 0.51993585 0.5230574 0.5038227 0.5239925
0.50809616 0.50338686 0.51078564 0.49366668 0.4891636 0.4848193 0.4678323 0.48094764
0.46224844 0.4591294 0.44944662 0.44012296 0.43209946 0.42605045 0.4130847 0.40518853
0.39834562 0.39141226 0.37672535 0.37677276 0.3683514 0.3642789 0.3591232 0.3550212
0.3491204 0.34432143 0.33929542 0.33417904 0.3294565 0.32467943 0.3200958 0.31476325
0.3128101 0.3109251 0.30912772 0.30853286 0.31013903 0.3118811 0.3150393 0.319522
0.32466552 0.330658 0.33674523 0.34249339 0.3490184 0.35460007 0.35922343 0.3622694
0.36281258 0.36294279 0.36300898 0.35959288 0.35617113 0.3479935 0.34447008 0.34074408
0.33572027 0.33051923 0.3262663 0.3217904 0.31740588 0.31516942 0.3110309 0.309843
00000000: 44b4 dfbb 6ced 8ebb d716 a3bb c340 25ba
00000010: c903 89bb 7d40 7fbb 0a20 dbbb 3d1f d2bb
00000020: 6835 4cbb 9500 91bb a517 a4bb 2f58 07bc
00000030: 45be cabb 9c0c 0fbc 6ae8 9cbb 2da0 0ebb
00000040: 8c7e 26bb 913f b93b 51e8 1f3c 6e23 473c
00000050: d28c 853c b8cf ad3c 0f2e d53c 2f8f 023d
00000060: f65c 1b3d cd51 393d cb2d 563d ddc0 753d
00000070: 737f 8a3d 1063 993d 731d aa3d 963e b83d
00000080: 3fd3 c73d 9394 d93d 3b63 ed3d 46a8 023e
00000090: bc7d 113e a63e 243e d18a 3b3e bcfb 563e
000000a0: 20cf 773e 9451 8e3e 4499 a13e 8b4f b63e
000000b0: 6fd3 ca3e 4917 da3e ead7 ea3e b555 f53e
000000c0: d7cc fb3e f8b9 003f 7d3f 023f 852a f93e
000000d0: 151f ef3e c64e e23e b6db cf3e 8b71 bb3e
000000e0: cd38 a73e dc71 943e 8353 843e 0f0c 6c3e
000000f0: 0f65 583e b060 4a3e 43e8 3f3e 2b2d 393e
00000100: 5446 343e 4443 303e 6ed2 2c3e 6519 283e
00000110: ab2d 233e 5893 1d3e 2d4f 173e 8740 113e
00000120: 016f 0b3e bcd3 063e 2cbc 023e dc69 013e
00000130: b25f 003e fb41 043e 4ecf 0b3e 1147 163e
00000140: 5068 243e 640a 383e 5c8a 4c3e 1af9 623e
00000150: d39e 7b3e 3356 893e c7aa 943e ca16 9d3e
00000160: 55f2 a23e 0f01 a63e f5a9 a53e bdf9 a23e
00000170: fcd8 9d3e 632c 983e ff16 903e 69d4 893e
00000180: 3117 823e 1efa 7e3e 56ab 773e 1dbc 763e
00000190: 5d38 7a3e f130 803e 9c3a 833e b60d 893e
000001a0: 607f 8e3e 1e7f 943e 8019 9b3e 41cf a13e
000001b0: 15af a83e b4a1 ae3e fd53 b73e bfd2 bd3e
000001c0: e362 c73e 3b5e cf3e e035 d73e 91ba de3e
000001d0: 2172 e63e 7b3e e93e e6bc f53e 9b60 f63e
000001e0: 420e fd3e 6136 023f af0f 053f 0006 023f
000001f0: a583 023f 052b 053f 9e99 083f bf98 093f
00000200: eabc 073f 1d66 0a3f ff69 093f ff5d 073f
00000210: 841a 053f 17e7 053f 86fa 003f 5f24 063f
00000220: 9712 023f f6dd 003f d9c2 023f e1c1 fc3e
00000230: a773 fa3e 3c3a f83e b787 ef3e c53e f63e
00000240: d4ab ec3e 0213 eb3e de1d e63e cc57 e13e
00000250: 243c dd3e 4923 da3e d67f d33e df74 cf3e
00000260: f5f3 cb3e 3067 c83e 25e2 c03e 5ce8 c03e
00000270: 8e98 bc3e c482 ba3e ffde b73e 57c5 b53e
00000280: e9bf b23e e64a b03e 21b8 ad3e 8419 ab3e
00000290: 86ae a83e 623c a63e 99e3 a33e a628 a13e
000002a0: a528 a03e 9331 9f3e fd45 9e3e 05f8 9d3e
000002b0: 8bca 9e3e e1ae 9f3e d54c a13e 6398 a33e
000002c0: 8f3a a63e 014c a93e df69 ac3e 4b5b af3e
000002d0: 8ab2 b23e 248e b53e 22ec b73e 607b b93e
000002e0: 92c2 b93e a3d3 b93e 50dc b93e 8f1c b83e
000002f0: 105c b63e 342c b23e 625e b03e 0276 ae3e
00000300: 87e3 ab3e d139 a93e 600c a73e b6c1 a43e
00000310: 0683 a23e e35d a13e 713f 9f3e bea3 9e3e
