best_model/xasnet_gnn_model_1.pt (torch, 149570 bytes, 14 tensors)

batch_norms.0.weight f4 [64]
0	0x3e3308ab	0.17483775
1	0x3e7ef77a	0.24899092
2	0x3e68e538	0.2274369
3	0x3e674a59	0.22586955
4	0x3db75bca	0.08953054
5	0x3e5d529f	0.21613549
6	0x3e40275f	0.18765019
7	0x3e031dd3	0.12804346
8	0x3e5c2981	0.21500207
9	0x3e0d0b42	0.13773826
10	0x3e188c21	0.14897205
11	0x3e259442	0.16169837
12	0x3ec7910f	0.38977858
13	0x3e36f14a	0.17865482
14	0x3e39de23	0.18151145
15	0x3e294f7e	0.1653423
16	0x3e271f10	0.16320443
17	0x3e59ff35	0.2128876
18	0x3ea42937	0.32062694
19	0x3e8b05c9	0.2715285
20	0x3e15a718	0.14614522
21	0x3e0f6ab3	0.14005546
22	0x3e38398c	0.17990702
23	0x3e055a40	0.13022709
24	0x3e4c600e	0.19958517
25	0x3e38a5aa	0.18031946
26	0x3e40ba52	0.18821076
27	0x3e061d2f	0.1309707
28	0x3e807948	0.2509253
29	0x3dff3870	0.124619365
30	0x3e202e47	0.15642653
31	0x3e177509	0.14790739
32	0x3e51b4f1	0.2047918
33	0x3dcfde03	0.10149767
34	0x3e46d4e7	0.19417153
35	0x3e454f4f	0.19268535
36	0x3e112db4	0.1417759
37	0x3e1f3d87	0.15550815
38	0x3e269a63	0.16269831
39	0x3e8304fa	0.25589734
40	0x3e7a68a5	0.24453981
41	0x3e1e2d3a	0.1544694
42	0x3e69791d	0.22800107
43	0x3e3778b8	0.17917144
44	0x3dd6d452	0.10489716
45	0x3e56d68c	0.2098028
46	0x3e390065	0.18066557
47	0x3e1517e2	0.14559892
48	0x3e4caa09	0.19986738
49	0x3e26423d	0.16236205
50	0x3dfa040e	0.122078046
51	0x3e043ee6	0.12914619
52	0x3e0f1112	0.13971356
53	0x3e5426eb	0.20717971
54	0x3e0c26f8	0.1368674
55	0x3e96c6c1	0.29448512
56	0x3e19a7ee	0.15005466
57	0x3e401288	0.18757069
58	0x3e9d7cba	0.3075922
59	0x3e5ab9d2	0.21359947
60	0x3e1d7e24	0.1538015
61	0x3e36618a	0.17810646
62	0x3ec92717	0.39287636
63	0x3e24dc7d	0.16099735

batch_norms.0.bias f4 [64]
0	0xbe05575c	-0.13021606
1	0xbe25e407	-0.16200267
2	0xbe3d0f68	-0.18462908
3	0xbe1c9aa0	-0.1529336
4	0xbb42580a	-0.0029654526
5	0xbe206107	-0.15662013
6	0xbdf81bfa	-0.12114711
7	0xbde8fdfa	-0.11376567
8	0xbe04080e	-0.12893698
9	0xbce8d01e	-0.02841955
10	0xbcd1ba7f	-0.025601624
11	0xbddfc81e	-0.10926841
12	0xbe777311	-0.24164988
13	0xbdf9bbf8	-0.12194055
14	0xbcb29359	-0.021798776
15	0xbe0fde86	-0.1404973
16	0xbd9526fc	-0.07282826
17	0xbe94597c	-0.2897452
18	0xbe633cdd	-0.22191186
19	0xbe221cf8	-0.15831363
20	0xbd722b9f	-0.05912363
21	0xbd61a387	-0.055087592
22	0xbded2852	-0.11579956
23	0xbcc94921	-0.024571003
24	0xbe37303f	-0.17889498
25	0xbdd81778	-0.10551351
26	0xbe6f8d3a	-0.23393717
27	0xbdc044c9	-0.0938812
28	0xbe5eb88c	-0.21750087
29	0xbc137c15	-0.009001751
30	0xbd994a03	-0.0748482
31	0xbd7a329f	-0.061083432
32	0xbe58b0d1	-0.211612
33	0xbd20f2ac	-0.03929393
34	0xbd9479c3	-0.07249787
35	0xbdabb3f2	-0.08383931
36	0xbdb6c3c9	-0.08924062
37	0xbda7bfa0	-0.081908464
38	0xbd88119e	-0.06643985
39	0xbe08fad1	-0.13376929
40	0xbe24fa0b	-0.16111009
41	0xbd10f9e4	-0.035394564
42	0xbe407b8a	-0.18797126
43	0xbe6e1b5f	-0.23252629
44	0xbd69143f	-0.056904074
45	0xbe3d73e8	-0.18501246
46	0xbe093032	-0.13397291
47	0xbe408739	-0.18801583
48	0xbe26ab84	-0.16276366
49	0xbe376642	-0.17910102
50	0xbd5e0887	-0.05420735
51	0xbdfe088d	-0.12403975
52	0xbdbaaee8	-0.09115392
53	0xbe00a73b	-0.12563793
54	0xbc90f806	-0.017696392
55	0xbe62324a	-0.22089496
56	0xbdd90f8a	-0.10598667
57	0xbdd1c450	-0.10242522
58	0xbe783a1a	-0.24240914
59	0xbe811d57	-0.25217697
60	0xbda1b1f7	-0.07895272
61	0xbe326f01	-0.17425157
62	0xbe875c73	-0.2643772
63	0xbc82a9ad	-0.015950048

batch_norms.0.running_mean f4 [64]
0	0x3d93226d	0.071843006
1	0xbc970bff	-0.018438337
2	0xbb3e2ab7	-0.002901716
3	0x3d1e2406	0.038608573
4	0xbc158bf3	-0.009127605
5	0xbb59c383	-0.0033228106
6	0x3db1df40	0.0868516
7	0xbe25c5ae	-0.1618869
8	0x3d9a59af	0.07536637
9	0x3d3bf997	0.045892324
10	0x3cdd1c7d	0.026991123
11	0x3b946be5	0.0045294636
12	0x3d9714ad	0.073769905
13	0x3cfc7b6a	0.030820567
14	0x3e03924b	0.12848775
15	0x3dbb9543	0.09159329
16	0x3dd005a0	0.10157323
17	0x3e244617	0.16042362
18	0xbd9a30a4	-0.07528809
19	0xbafb9c29	-0.001919632
20	0x3e722c22	0.23649648
21	0x3ddb6980	0.10713482
22	0x3ca1990c	0.019726299
23	0x3c900723	0.017581528
24	0xbe23a3b6	-0.1598042
25	0x3de963db	0.11395999
26	0x3cc342d8	0.023835585
27	0xbb8b6b1a	-0.004254711
28	0x3d886753	0.066603325
29	0x3d65b8c4	0.05608441
30	0x3c3c86a7	0.011506713
31	0xbb7c8f6b	-0.0038537632
32	0x3d9ec1df	0.07751822
33	0xbd0e0b78	-0.034678906
34	0x3d5b24be	0.053501837
35	0x3dc4612f	0.09588849
36	0x3de9f5f7	0.11423867
37	0x3c164faa	0.009174267
38	0x3be09aec	0.0068544056
39	0x3deb034c	0.11475238
40	0x3e0d260e	0.13784048
41	0xbcb20d39	-0.02173482
42	0x3d5de6f8	0.054175347
43	0xbd63412b	-0.05548207
44	0x3d6d6a2e	0.05796259
45	0x3cb3d547	0.021952285
46	0xbd728943	-0.059212934
47	0x3e10dc4e	0.1414654
48	0x3d027588	0.031850368
49	0xbb86105c	-0.0040913057
50	0x3d947adf	0.07249998
51	0x3d323918	0.04351148
52	0x3d339e17	0.043851938
53	0x3dd1dc99	0.10247154
54	0x3e766d09	0.24065031
55	0x3e0b8cb0	0.13627887
56	0xbbead056	-0.007165949
57	0x3d90f4b9	0.07077927
58	0xbdf0941c	-0.117469996
59	0x3e2fa4c6	0.171527
60	0xbd4d8fe7	-0.050186064
61	0x3d7e7fc8	0.06213358
62	0xbde2c524	-0.11072758
63	0x3de61d8a	0.11236103

batch_norms.0.running_var f4 [64]
0	0x3a92cd5c	0.0011200118
1	0x3b537c7f	0.003227025
2	0x3bb41d88	0.0054966845
3	0x3c1dd21b	0.009632613
4	0x3b8bcd91	0.004266449
5	0x3bb8dfd9	0.005641919
6	0x3b08f1c9	0.0020896068
7	0x3b5b478e	0.0033459398
8	0x3bbca465	0.005756902
9	0x3b2a1b74	0.0025956305
10	0x3b9b1266	0.004732418
11	0x3b63ffd1	0.003478993
12	0x3be16f4c	0.0068797227
13	0x3b466aa5	0.0030275967
14	0x3c1d0d99	0.009585761
15	0x3bd46ba5	0.006482559
16	0x3b8a0279	0.0042117205
17	0x3aaa0b55	0.0012973348
18	0x3bcaed77	0.006192859
19	0x3ba6932c	0.005083462
20	0x3bdcec45	0.0067420327
21	0x3b25cee1	0.0025300311
22	0x3b2a8ea1	0.0026024955
23	0x3b401fc7	0.0029315816
24	0x3bab6fdf	0.005231842
25	0x3b707b71	0.003669467
26	0x3bb32ff8	0.005468365
27	0x3b9852eb	0.0046485565
28	0x3bb46bea	0.0055060284
29	0x3b2c91f5	0.0026332114
30	0x3b369f85	0.0027866077
31	0x3ba3b34d	0.0049957396
32	0x3bb8d617	0.005640756
33	0x3b0a1979	0.0021072312
34	0x3aacd5fd	0.0013186332
35	0x3c016415	0.007897397
36	0x3baa3a6a	0.005194952
37	0x3b14d735	0.0022711281
38	0x3b516289	0.00319496
39	0x3c4f898a	0.012667069
40	0x3b7518ca	0.0037398809
41	0x3bc7c6af	0.006096683
42	0x3b91a823	0.0044450923
43	0x3bff12f4	0.007784242
44	0x3be557b1	0.006998979
45	0x3b18e2bd	0.0023328506
46	0x3badceec	0.005304208
47	0x3b3d786d	0.002891089
48	0x3a247cc5	0.00062746956
49	0x3b9d16ef	0.0047939937
50	0x3bb8a46c	0.005634835
51	0x3b17caed	0.0023161725
52	0x3af042fa	0.0018330507
53	0x3b23e6a3	0.0025009296
54	0x3c01552b	0.007893841
55	0x3c3d2006	0.0115432795
56	0x3b11db44	0.0022255937
57	0x3b6ec5f8	0.0036433917
58	0x3be02b2c	0.006841084
59	0x3b5a0a99	0.0033270477
60	0x3b05c691	0.0020412544
61	0x3b8af30d	0.0042403997
62	0x3ba259ab	0.004954537
63	0x3be25548	0.006907139

batch_norms.1.weight f4 [128]
0	0x3e8023ed	0.2502741
1	0x3e852342	0.26003462
2	0x3e6b8ddc	0.23003334
3	0x3dd440db	0.10363933
4	0x3e1743ed	0.14772005
5	0x3e505f1a	0.20348778
6	0x3de584f8	0.112070024
7	0x3e8b35e2	0.27189547
8	0x3e4f15fb	0.20223229
9	0x3e5d24e9	0.21596111
10	0x3e8291f3	0.25501975
11	0x3e8aea27	0.2713177
12	0x3e7d5737	0.24740301
13	0x3e696b20	0.22794771
14	0x3da83dc0	0.08214903
15	0x3de6c2ce	0.11267625
16	0x3e527c07	0.20555125
17	0x3ea1b018	0.3157966
18	0x3ea079ed	0.31343022
19	0x3eac2978	0.33625388
20	0x3e3d277d	0.18472095
21	0x3e336c4c	0.1752178
22	0x3e9e8f8d	0.30968896
23	0x3e9ab021	0.302125
24	0x3e19651c	0.14979976
25	0x3e1ad60c	0.15120715
26	0x3e818a1e	0.25300688
27	0x3e9a71f7	0.30165073
28	0x3e4202e6	0.18946418
29	0x3e6d1c85	0.2315541
30	0x3e564e20	0.2092824
31	0x3e892daa	0.2679265
32	0x3e26b6ab	0.1628062
33	0x3e88a2be	0.26686662
34	0x3ded4c1c	0.11586782
35	0x3e298c46	0.16557416
36	0x3dffe8a4	0.124955446
37	0x3e6b8bc9	0.23002543
38	0x3e3a3401	0.181839
39	0x3e8a1d67	0.26975557
40	0x3ec0eca7	0.3768055
41	0x3e1c7b6a	0.15281454
42	0x3e57d14a	0.21075931
43	0x3e6aeeaa	0.22942606
44	0x3e8c980c	0.27459753
45	0x3e0f9ab6	0.14023861
46	0x3e661afa	0.22471228
47	0x3e8c3e4b	0.27391276
48	0x3e50e805	0.20401008
49	0x3e9a8aa7	0.30183908
50	0x3e7d4377	0.24732767
51	0x3e52099a	0.20511475
52	0x3ea88325	0.32912555
53	0x3e685ad8	0.22690904
54	0x3e5cf017	0.21575962
55	0x3e0060a0	0.1253686
56	0x3e7aad55	0.24480183
57	0x3e66c99d	0.22537847
58	0x3ddb7b8f	0.10716926
59	0x3e9d4052	0.30713135
60	0x3e7f254f	0.24916576
61	0x3e139e26	0.14415798
62	0x3e969501	0.29410556
63	0x3e1a9cb5	0.15098841
64	0x3df58187	0.11987596
65	0x3dff7ccc	0.12474975
66	0x3e3c5208	0.18390667
67	0x3eaeecf0	0.34165144
68	0x3e4e0ef3	0.2012289
69	0x3ec1e303	0.3786851
70	0x3e7f559a	0.24934998
71	0x3dd89e45	0.105770625
72	0x3e84e102	0.25952917
73	0x3ea4ee26	0.32212943
74	0x3e75c07d	0.2399921
75	0x3e612574	0.21986943
76	0x3e8675eb	0.2626184
77	0x3e83c44d	0.25735703
78	0x3e8f7b22	0.2802363
79	0x3e61c0ca	0.220462
80	0x3e46a911	0.19400431
81	0x3e2acd61	0.16679908
82	0x3e9069d1	0.28205732
83	0x3e2a6a7b	0.16642182
84	0x3eb5bfcc	0.35497892
85	0x3e376e71	0.17913224
86	0x3e4373e6	0.1908718
87	0x3e1b53ec	0.15168732
88	0x3e5f36fd	0.2179832
89	0x3db29fc6	0.087218806
90	0x3e411c45	0.1885844
91	0x3e6b8c66	0.23002777
92	0x3e1b6a82	0.15177348
93	0x3e7594a8	0.23982489
94	0x3e603c15	0.2189792
95	0x3e820b45	0.25399223
96	0x3e93221c	0.2873696
97	0x3d2f2c99	0.04276714
98	0x3ea30ce6	0.31845778
99	0x3e668847	0.22512923
100	0x3e5d84d9	0.21632709
101	0x3e0dd3d1	0.13850333
102	0x3e73d100	0.23810196
103	0x3e681c15	0.22666962
104	0x3dfd9a1a	0.12382908
105	0x3e97458d	0.2954525
106	0x3e8f5304	0.27993023
107	0x3e842f65	0.2581741
108	0x3e77832b	0.2417113
109	0x3e9b0a76	0.3028142
110	0x3eaaee86	0.33385104
111	0x3e584d07	0.21123134
112	0x3e2b933a	0.16755381
113	0x3e3e6ec4	0.18596941
114	0x3e095fde	0.13415477
115	0x3e9eb116	0.3099448
116	0x3ebf701e	0.37390226
117	0x3e820f2c	0.254022
118	0x3e6276eb	0.22115676
119	0x3e399de1	0.18126632
120	0x3e773d2d	0.2414443
121	0x3e8c90a6	0.27454108
122	0x3e43ced6	0.1912187
123	0x3dff4c23	0.12465694
124	0x3e8208d8	0.25397372
125	0x3e865b4d	0.26241532
126	0x3e39d341	0.18146993
127	0x3ed18fe5	0.40930095

batch_norms.1.bias f4 [128]
0	0xbe5e0d92	-0.21684864
1	0x3e55c1cd	0.2087471
2	0xbe550751	-0.20803572
3	0xbe5dc7a3	-0.21658187
4	0xbe5502af	-0.20801805
5	0xbe5a612e	-0.21326134
6	0xbe7c2664	-0.2462402
7	0x3e1da14a	0.15393558
8	0x3e4f2751	0.20229842
9	0x3c890c04	0.016729362
10	0x3cd8d32a	0.026467878
11	0x3c5761eb	0.013145904
12	0xbd6343fa	-0.05548475
13	0x3e629526	0.22127208
14	0xbe779dcf	-0.24181293
15	0xbe581451	-0.211015
16	0x3e68b8ce	0.22726747
17	0x3e606a6f	0.21915601
18	0xbe4d68f4	-0.20059568
19	0x3e56a305	0.20960625
20	0x3e54c1a3	0.20776992
21	0xbe64babf	-0.22336863
22	0xbe22f7ad	-0.15914793
23	0xbe2fe998	-0.17178953
24	0x3e5710c1	0.21002485
25	0x3e514cb8	0.20439422
26	0x3e63f19d	0.22260137
27	0x3e612541	0.21986867
28	0x3e638467	0.22218476
29	0xbdfc3742	-0.12315227
30	0xbe4e7670	-0.20162368
31	0xbe41f7a3	-0.18942122
32	0xbe113aa7	-0.1418253
33	0xbcf3f775	-0.029781083
34	0xbe6145ac	-0.21999234
35	0x3e653502	0.22383502
36	0x3e596431	0.21229626
37	0xbe44b487	-0.1920949
38	0x3e4b8a26	0.19876918
39	0xbe2d7cd6	-0.16942152
40	0x3e564ea1	0.20928432
41	0x3e65f5df	0.22457074
42	0x3e04610e	0.12927648
43	0x3e429b51	0.19004561
44	0x3e5910f8	0.2119788
45	0xbe4787ad	-0.1948535
46	0x3d20acec	0.03922741
47	0xbd2542a2	-0.04034675
48	0x3e5afd37	0.21385656
49	0xbe4c9da9	-0.19982018
50	0xbe18cbfe	-0.14921567
51	0xbe5a8975	-0.21341498
52	0x3e54dc65	0.20787199
53	0xbe01ebc0	-0.12687588
54	0xbe5a844c	-0.2133953
55	0xbe45a78d	-0.19302197
56	0xbe67d337	-0.22639166
57	0xbe465e12	-0.19371822
58	0x3e5ff7bc	0.21871847
59	0x3e5ae36e	0.2137582
60	0x3e46b7ec	0.19406098
61	0x3e5f6e8a	0.21819511
62	0xbe407143	-0.18793206
63	0x3e386df3	0.18010692
64	0xbe628fc8	-0.2212516
65	0x3e213ed2	0.1574662
66	0xbe5af159	-0.2138113
67	0xbe57abb5	-0.21061595
68	0xbe64b621	-0.22335102
69	0xbe606693	-0.21914129
70	0xbe55b3e3	-0.20869403
71	0x3e5d1e1c	0.21593517
72	0x3e413907	0.1886941
73	0xbe62a92e	-0.2213485
74	0xbd5785f1	-0.05261797
75	0xbe668621	-0.22512104
76	0xbc00a8e2	-0.007852765
77	0x3e1bc780	0.15212822
78	0xbe0bfed0	-0.13671422
79	0x3d3abb80	0.04558897
80	0xbe5a386e	-0.21310589
81	0x3e691747	0.22762786
82	0xbe5accc6	-0.21367177
83	0xbe4f4443	-0.20240884
84	0x3e3f90eb	0.18707626
85	0xbe7ab91d	-0.24484678
86	0x3e6079a5	0.21921404
87	0x3e7962bc	0.2435407
88	0x3dfa2090	0.12213242
89	0xbe659a01	-0.22422029
90	0xbe55b284	-0.2086888
91	0x3e5608f3	0.20901851
92	0x3e4c2bcf	0.19938587
93	0xbddb4a54	-0.10707536
94	0xbe4d2fd8	-0.20037782
95	0x3e43ae4a	0.19109455
96	0x3e38ec35	0.18058856
97	0xbe7b635c	-0.24549621
98	0xbe539d4e	-0.20665476
99	0xbe651a35	-0.22373278
100	0xbe510ef4	-0.2041586
101	0xbe526eb2	-0.2055004
102	0x3e4ba1e7	0.1988598
103	0xbe597983	-0.2123776
104	0x3e523a38	0.20530021
105	0x3e4d3b3e	0.2004213
106	0x3e3e3883	0.18576245
107	0xbe63683a	-0.22207728
108	0xbe5a2ecd	-0.21306916
109	0xbe58c81e	-0.21170089
110	0xbe4b0cfa	-0.19829169
111	0xbe5c1ea3	-0.21496062
112	0x3e64f427	0.22358762
113	0x3e529af6	0.20566925
114	0xbe763342	-0.24042991
115	0xbe56edb7	-0.20989119
116	0x3e5315ab	0.20613734
117	0x3e4347e1	0.19070388
118	0xbdc85251	-0.097813256
119	0xbe3e7b20	-0.18601656
120	0xbd339b93	-0.04384954
121	0x3e376587	0.17909823
122	0x3e5c50df	0.21515225
123	0xbe4bf9a4	-0.19919449
124	0x3e5daec8	0.21648705
125	0x3d5b4dc3	0.053540956
126	0x3e4c1041	0.19928075
127	0xbe5611c0	-0.20905209

batch_norms.1.running_mean f4 [128]
0	0x3aa22a90	0.0012372304
1	0xbb834d95	-0.0040070512
2	0xbbb4dcea	-0.005519499
3	0x3c464cad	0.012103242
4	0x3bc24271	0.0059283306
5	0x3bad49e0	0.0052883476
6	0x3ac66562	0.0015136416
7	0x3ba2416b	0.004951646
8	0x3ac3ecc9	0.0014947887
9	0xbbc57693	-0.006026098
10	0x3c748ded	0.014926416
11	0x3c15f275	0.009152045
12	0x3b16f7e1	0.002303593
13	0xbbaefd7b	-0.005340276
14	0x3bf4f8ef	0.0074759643
15	0x3b42b464	0.0029709572
16	0xbc1f2983	-0.009714487
17	0xbc3f297d	-0.011667606
18	0xbbe6856d	-0.0070349486
19	0x3bb5cc88	0.0055480637
20	0xbafc349f	-0.0019241757
21	0x3c00054d	0.007813764
22	0xbb89f06b	-0.0042095683
23	0xbc620add	-0.013796535
24	0xb9a2fd24	-0.00031087652
25	0x3c079550	0.008275345
26	0xbc095038	-0.008380942
27	0xbb9d6f53	-0.0048045306
28	0xbc202c61	-0.009776206
29	0x3c8d00e1	0.017212333
30	0x3abad7b9	0.0014254964
31	0xbaad17fe	-0.0013206003
32	0xbb19e82c	-0.0023484332
33	0xbc101539	-0.008794122
34	0xbba6f113	-0.0050946563
35	0xbb96bf74	-0.0046004597
36	0xbb97f083	-0.0046368255
37	0xbbee110a	-0.007265215
38	0x3c6cf37a	0.014462346
39	0xbbf02f21	-0.007329837
40	0x3c7b74fc	0.0153477155
41	0xbc8dc1b4	-0.017304279
42	0xbaa908ab	-0.001289626
43	0xbc38972d	-0.011266512
44	0xbb7a7e64	-0.0038222307
45	0xbae69e0e	-0.0017594711
46	0x3c79ff39	0.015258604
47	0x3c80e558	0.01573436
48	0x399975f1	0.00029270307
49	0x3b6523dc	0.0034964
50	0xbbb67217	-0.0055678
51	0x3baa1930	0.005190991
52	0xbb29878c	-0.0025868146
53	0xbb9151ee	-0.0044348156
54	0xbc74a518	-0.01493194
55	0x3c2d1aa7	0.010565436
56	0x3c930c06	0.01795007
57	0x3af599c7	0.0018737846
58	0xba5dd0da	-0.0008461602
59	0xbb4cbb5d	-0.0031239607
60	0x3bece14b	0.0072290055
61	0x3c12067e	0.008912681
62	0x3c80188f	0.01563671
63	0x3b9a1a89	0.0047028703
64	0x3b4c9901	0.0031219127
65	0x388c4dac	6.690188e-05
66	0x3a453830	0.0007523326
67	0x3bb0bad8	0.0053933673
68	0x3a4a8f16	0.000772701
69	0x3c0ce4ec	0.008599501
70	0x3b28e595	0.0025771607
71	0x3a62d11b	0.0008652375
72	0x3bb46d73	0.0055062114
73	0x3bd68745	0.006546887
74	0xbafa5366	-0.0019098341
75	0x3b50dd9e	0.0031870375
76	0x3ca39910	0.019970447
77	0xbc833e88	-0.016021028
78	0x3c0225d6	0.007943591
79	0xbbf3cb3d	-0.0074399994
80	0xba71bb69	-0.00092213467
81	0x3963de6f	0.0002173127
82	0xba113063	-0.0005538521
83	0x3ba15ed8	0.0049246363
84	0x3c19462a	0.009355107
85	0x3ba82c56	0.0051322384
86	0xbc1b349e	-0.009472994
87	0xbbfd1a36	-0.007724072
88	0xbbc974a7	-0.0061479392
89	0xbb2636a9	-0.002536217
90	0x3ac3c802	0.0014936926
91	0xbc3b6ea9	-0.011439958
92	0xbbc0a9af	-0.005879603
93	0xbbd3e0e8	-0.00646602
94	0xba1f4a6f	-0.000607646
95	0x39e47e77	0.00043581772
96	0xbc1b781d	-0.009489086
97	0xb9de8ace	-0.00042446557
98	0x3a0dc78f	0.00054084597
99	0xbc4403d0	-0.0119638
100	0x39e4da5c	0.0004365024
101	0xbba6b5a5	-0.0050875717
102	0x3c37cab6	0.011217764
103	0x3aad769f	0.0013234204
104	0x3c076a9c	0.008265164
105	0xbad41a39	-0.0016182131
106	0x3b83b6b5	0.004019583
107	0xbabe0c53	-0.0014499523
108	0xbbc5244e	-0.0060162907
109	0x3bd35694	0.00644953
110	0x3c8d17db	0.01722329
111	0xbb9c9546	-0.004778537
112	0x3a8d1169	0.0010762635
113	0xbb903db3	-0.0044018864
114	0xbbf2444a	-0.0073933946
115	0xbab9dbe9	-0.0014179918
116	0xba48d8e3	-0.0007661713
117	0xbbb41aec	-0.0054963734
118	0xbc351050	-0.0110512525
119	0xb9040511	-0.00012590388
120	0xbbc0bbc8	-0.0058817603
121	0x3bfcc894	0.0077143405
122	0xbc015383	-0.007893446
123	0x3bfd8306	0.0077365665
124	0x3a9eeb23	0.001212452
125	0xbb3596e5	-0.0027708348
126	0xbc1d225b	-0.0095907105
127	0x3ca76bbf	0.02043712

batch_norms.1.running_var f4 [128]
0	0x3aab2cc5	0.0013059607
1	0x3a54b45a	0.00081140327
2	0x3a16f6fa	0.0005758848
3	0x39f0097a	0.00045783428
4	0x3a0e8612	0.0005436848
5	0x3a11b368	0.00055580446
6	0x39b43218	0.00034369598
7	0x3a081637	0.00051912986
8	0x3a138c9b	0.0005628557
9	0x3992a218	0.0002796806
10	0x39cd85ca	0.00039200328
11	0x39b83f30	0.00035142293
12	0x39bff216	0.00036610727
13	0x3aa86cdd	0.0012849827
14	0x39fbf01c	0.00048053346
15	0x39e662ef	0.0004394273
16	0x3a973788	0.0011536935
17	0x3a50d592	0.0007966395
18	0x3a826989	0.0009949665
19	0x3a7e28c8	0.0009695408
20	0x39e0dfe1	0.00042891412
21	0x3a22ebb1	0.00062149303
22	0x3a30b84e	0.0006741331
23	0x3a157b55	0.0005702277
24	0x3a372cba	0.0006987561
25	0x39cf6101	0.0003955439
26	0x3a6d73bf	0.000905808
27	0x3a445933	0.00074900984
28	0x3a0813e3	0.00051909516
29	0x39c16d0f	0.00036893084
30	0x3a12ebbf	0.0005604587
31	0x3a82e9c2	0.0009987878
32	0x39b70bf6	0.00034913392
33	0x39e559eb	0.00043745278
34	0x3a078210	0.0005169222
35	0x3a5d1c92	0.0008434738
36	0x39fe4788	0.0004849995
37	0x3a289f04	0.00064323866
38	0x39cc345f	0.00038948932
39	0x3a021236	0.000496182
40	0x3a5bdaa4	0.0008386767
41	0x3a27b623	0.0006397685
42	0x39e5990e	0.00043792318
43	0x3a0c7c4c	0.0005359098
44	0x3a916535	0.0011092784
45	0x3a1637d9	0.0005730368
46	0x39864104	0.00025606912
47	0x39cd4307	0.00039150586
48	0x3a25b340	0.0006320961
49	0x3a2d218a	0.0006604424
50	0x39d04c3e	0.00039729656
51	0x3a19d4ab	0.0005868177
52	0x3a04f958	0.00050725555
53	0x39dda93e	0.000422785
54	0x3a6f79e2	0.00091352884
55	0x39aa99f6	0.00032539637
56	0x3a26ea11	0.0006367276
57	0x3a4cbcc6	0.0007810112
58	0x3a1e8594	0.00060471264
59	0x3a7f2025	0.0009732268
60	0x3a8254b4	0.0009943456
61	0x3a1ece04	0.00060579204
62	0x3a13958c	0.0005629889
63	0x39fbeef6	0.0004805249
64	0x3a2e4123	0.00066472794
65	0x3a0da788	0.0005403687
66	0x3a338721	0.0006848444
67	0x3a89c0ea	0.0010509763
68	0x3a8a8ded	0.0010570862
69	0x3aa5da21	0.0012653508
70	0x3a229334	0.00062017445
71	0x39cffbb7	0.0003966966
72	0x3a6e5a01	0.0009092391
73	0x3aab0a73	0.0013049379
74	0x39b6dbd2	0.00034877524
75	0x3a67b54b	0.00088389654
76	0x39b3fc06	0.00034329313
77	0x39c1b447	0.00036946146
78	0x39ef25ac	0.000456137
79	0x39c4f456	0.00037566078
80	0x3a4f07ff	0.0007897615
81	0x3a163e42	0.0005731323
82	0x3a7c5f89	0.0009627273
83	0x39b0b25a	0.00033702218
84	0x3a341265	0.0006869196
85	0x3a34cee1	0.00068972824
86	0x3a0bf17f	0.0005338415
87	0x3a493002	0.0007674695
88	0x3a136c6c	0.0005623761
89	0x3a1ed681	0.0006059185
90	0x39f884fb	0.00047401324
91	0x3a10ce0d	0.0005523868
92	0x39cb9524	0.00038830296
93	0x39bfa53b	0.00036553465
94	0x39a642d7	0.00031711787
95	0x3a4a6725	0.0007721058
96	0x3a1aa2c2	0.00058988866
97	0x39b029c0	0.00033600442
98	0x3a56daf0	0.00081960764
99	0x3a5b05b3	0.0008355036
100	0x3a483a74	0.0007638105
101	0x3a068239	0.0005131099
102	0x3a2b2672	0.0006528861
103	0x3a45d2e7	0.00075463805
104	0x3a0044b7	0.0004893052
105	0x3a5f06f3	0.00085078104
106	0x3a210491	0.0006142343
107	0x3a1078da	0.00055111723
108	0x3a02e206	0.00049927866
109	0x3a12db2c	0.0005602117
110	0x3a156156	0.0005698403
111	0x3a9fe001	0.0012197496
112	0x3a6cd575	0.0009034493
113	0x3a0c18d1	0.0005344274
114	0x39f1d3e1	0.00046124964
115	0x3a6cfd97	0.00090404734
116	0x3a6c8b23	0.00090234185
117	0x3a14dfcf	0.0005679102
118	0x3a126024	0.0005583784
119	0x3a7a88a3	0.00095571036
120	0x3983fc6b	0.00025174333
121	0x3a19dafe	0.0005869119
122	0x3a07d15b	0.00051810377
123	0x39cca1b0	0.0003903038
124	0x3a768b69	0.0009404929
125	0x39e4f067	0.00043666663
126	0x3a0462a1	0.0005050097
127	0x3a520f22	0.0008013119

interaction_layers.0.bias f4 [64]
0	0xb6c3a02c	-5.8300993e-06
1	0xb6dbdef7	-6.552665e-06
2	0x3679b8b2	3.7211398e-06
3	0xb707c97b	-8.093538e-06
4	0xb69a6508	-4.6013192e-06
5	0xb5b97339	-1.3817108e-06
6	0x372a35a1	1.0145276e-05
7	0xb7312e7c	-1.0560845e-05
8	0xb7035c36	-7.829678e-06
9	0xb6bc149d	-5.6052363e-06
10	0x373e54ad	1.1344598e-05
11	0xb6a80416	-5.007266e-06
12	0xb68d695c	-4.214393e-06
13	0xb6984b37	-4.538709e-06
14	0xb6dc76ec	-6.5703553e-06
15	0xb6c5ccb4	-5.894888e-06
16	0x37487716	1.1948656e-05
17	0xb9104141	-0.00013757219
18	0xb709f881	-8.223696e-06
19	0xb68201f4	-3.8745293e-06
20	0xb6aa5e98	-5.077407e-06
21	0x36bcbbc2	5.6246945e-06
22	0xb683ce77	-3.92814e-06
23	0x34e1f564	4.208806e-07
24	0xb6d6b797	-6.3990697e-06
25	0xb6b854e9	-5.493512e-06
26	0x369438d2	4.4173585e-06
27	0xb49993cd	-2.860601e-07
28	0xb75eb5c6	-1.3274554e-05
29	0xb6ac0280	-5.1262905e-06
30	0xb68c40e9	-4.1798817e-06
31	0x37028f8b	7.782025e-06
32	0x3674fd6d	3.6506347e-06
33	0x3639df18	2.7697006e-06
34	0xb73f8780	-1.1416036e-05
35	0x36b32255	5.3386125e-06
36	0x36d47ae3	6.3323982e-06
37	0x34ffe74f	4.766575e-07
38	0xb6fc7d05	-7.5247394e-06
39	0xb6063d2b	-2.000316e-06
40	0x378a2ce5	1.6471788e-05
41	0x35da6f5f	1.6274679e-06
42	0xb80f92ec	-3.423069e-05
43	0x361d83ba	2.3471498e-06
44	0xb51630e8	-5.595052e-07
45	0xb7538914	-1.2608496e-05
46	0xb6c19a80	-5.7698344e-06
47	0xb6570dc4	-3.204551e-06
48	0x37a038e4	1.9099978e-05
49	0x3667fa88	3.456751e-06
50	0x37ae0eb1	2.0749258e-05
51	0x363ecf8e	2.843302e-06
52	0x364b089a	3.0254364e-06
53	0xb6be6482	-5.674142e-06
54	0x3648abbd	2.9902287e-06
55	0x350490ff	4.938483e-07
56	0x342035a9	1.4920683e-07
57	0x370f8274	8.553838e-06
58	0xb6ce141b	-6.141619e-06
59	0xb72c9306	-1.02862305e-05
60	0xb723f39e	-9.772279e-06
61	0x361de2e4	2.352689e-06
62	0xb6977f8c	-4.514999e-06
63	0xb71b4f2b	-9.257153e-06

interaction_layers.0.lin.weight f4 [64, 15]
0	0xbd8cc6ce	-0.068738565
1	0x3dfb6992	0.12275995
2	0xbe1bfb6a	-0.15232626
3	0x3bfdf172	0.00774973
4	0x3de67127	0.11252051
5	0x3d602dd4	0.054731205
6	0xbdb5d26e	-0.08878027
7	0x3dbe56a9	0.09293873
8	0x3c4b2c22	0.012400659
9	0x3d9859b1	0.07438982
10	0xbcc335f0	-0.02382943
11	0xbc2a2673	-0.010385144
12	0xbc675a31	-0.014120624
13	0x3da9ef00	0.08297539
14	0xbd830296	-0.063969776
15	0x3c44ca98	0.012011193
16	0x3d61feba	0.055174567
17	0x3dd26728	0.10273582
18	0x3d82bd04	0.06383708
19	0x3d582419	0.0527688
20	0x3ca6385a	0.020290542
21	0x3d47bcc3	0.048764
22	0x3bbcf6d0	0.005766727
23	0xbb466e96	-0.0030278317
24	0xbd70222f	-0.05862635
25	0xbd005515	-0.03133114
26	0x3e12048f	0.14259551
27	0xbe011af6	-0.12607941
28	0xbda34511	-0.07972158
29	0x3e5d54d7	0.21614395
30	0x3cfaca1b	0.03061395
31	0xbceac766	-0.028659534
32	0x3ddd0cdd	0.10793469
33	0x3d89e998	0.067340076
34	0xbc890743	-0.016727095
35	0xbdf4b9a3	-0.1194947
36	0x3d54ace5	0.051922698
37	0xbd80f465	-0.062966146
38	0x3c991f8c	0.0186918
39	0x3d2a3e67	0.041563418
40	0xbc434f8d	-0.011920822
41	0xbe0a0f88	-0.13482487
42	0xbc8ad352	-0.016946469
43	0x3ddb6e61	0.107144125
44	0xbd1b7b8a	-0.037959613
45	0x3d628054	0.055298164
46	0x3a53de1e	0.0008082109
47	0xbc92fa53	-0.01794163
48	0xbcb921ed	-0.022599185
49	0x3d7257bf	0.059165712
50	0x3c3891bd	0.011265215
51	0x3ca2a852	0.019855652
52	0xbda379d6	-0.07982223
53	0x3e17f82a	0.14840761
54	0xbded4378	-0.11585134
55	0x3de35e67	0.1110199
56	0x3e35e577	0.17763315
57	0xbd7c3d20	-0.06158173
58	0x3d01b417	0.031665888
59	0x3cc7e03c	0.024398915
60	0x3cd72b94	0.026265897
61	0xbcedcb8f	-0.029027728
62	0x39a3b536	0.00031224795
63	0x3cfb68d0	0.030689627
64	0xbc511a5e	-0.012762634
65	0x3dd06e63	0.101773046
66	0x3d8337c6	0.06407122
67	0xbda0b803	-0.078475975
68	0x3c4b424a	0.012405941
69	0xbd03d501	-0.03218556
70	0xbe5fd47e	-0.21858403
71	0xbc49659d	-0.012292293
72	0x3d6337ea	0.055473246
73	0x3c4ca458	0.0124903545
74	0x3c699a07	0.014257914
75	0x3d672e28	0.056440502
76	0xbca6f857	-0.02038209
77	0x3cf4129d	0.029794032
78	0xbdecc78e	-0.115614995
79	0x3dace7c4	0.08442643
80	0xbd1f8629	-0.038946304
81	0xbe118084	-0.14209181
82	0x3d57e92e	0.05271261
83	0xbcde6234	-0.027146436
84	0x3dbf70ee	0.093477115
85	0xbdda860e	-0.106701
86	0xbb576522	-0.0032866676
87	0xbc49eb8c	-0.012324225
88	0x3d916f0b	0.07101258
89	0xbbf45f1e	-0.007457628
90	0x3d03cf3e	0.032180063
91	0x3ce9ccab	0.028539976
92	0xbca2c7e7	-0.019870711
93	0xbcbc60bb	-0.022995343
94	0xbd0e2ef0	-0.03471273
95	0x3d663480	0.05620241
96	0x3ce4723c	0.027886502
97	0x3d16d324	0.036822453
98	0xbd7e7141	-0.062119726
99	0xbd68ef0f	-0.05686861
100	0x3d605b75	0.05477472
101	0x3dffeb70	0.12496078
102	0x3d122f67	0.035689738
103	0x3d65c0ae	0.056091957
104	0x3d8b7280	0.068089485
105	0xbd10e6d2	-0.035376377
106	0xbcc2423c	-0.023713224
107	0x3dd8e6dd	0.10590909
108	0x3d8bd80f	0.06828319
109	0xbd874918	-0.066057384
110	0xbd5ff12d	-0.054673363
111	0x3c2d3283	0.010571125
112	0xbdf570f3	-0.11984434
113	0x3cc18f23	0.023627823
114	0x3d41b893	0.047295164
115	0x3c40de31	0.011771725
116	0xbd899d86	-0.06719498
117	0xbdade469	-0.084908314
118	0xbd9a4da3	-0.07534339
119	0x3cb2dc91	0.02183369
120	0x3d598eb3	0.053114604
121	0xbbaa9861	-0.0052061533
122	0x3cf1f761	0.029536905
123	0x3b31ffed	0.00271606
124	0xbcf2dae7	-0.029645396
125	0x3dd365f2	0.10322179
126	0xbc234d6e	-0.009967191
127	0x3c17c607	0.009263522
128	0x3d7dfa9a	0.06200657
129	0xbd075817	-0.033042993
130	0x3d36e786	0.04465439
131	0x3e56b48e	0.20967314
132	0xba7610e9	-0.0009386675
133	0x3d03001b	0.031982522
134	0xbd03bf03	-0.032164585
135	0x3d8a352f	0.06748425
136	0xbd7205b6	-0.059087478
137	0x3d41488a	0.04718832
138	0x3c0624ec	0.008187514
139	0xbd791b88	-0.06081727
140	0xba4727c1	-0.00075971714
141	0x3d995d0a	0.07488449
142	0xbcc7cc48	-0.024389401
143	0xbd912d76	-0.07088749
144	0x3d7206d8	0.059088558
145	0xbd76d69b	-0.060263257
146	0xbd4a5818	-0.04940042
147	0xbc77c9c9	-0.015123793
148	0xba543a80	-0.00080958754
149	0x3d097192	0.033555575
150	0x3d1f6328	0.038912922
151	0xbca1d36f	-0.01975414
152	0x3d88eaff	0.06685447
153	0x3d042d80	0.032269955
154	0xbd128e19	-0.035780046
155	0xbd9b71f1	-0.07590092
156	0x3dd54368	0.10413247
157	0xbd8c5710	-0.06852543
158	0x3d28939a	0.04115639
159	0x3c832af2	0.016011689
160	0xbe1e2437	-0.15443502
161	0xbd4fbeeb	-0.050719183
162	0x3caa0fb3	0.02075944
163	0x3bb82161	0.0056192135
164	0xbd1ae344	-0.037814394
165	0x3ade0403	0.0016938451
166	0x3d229503	0.03969289
167	0x3bf32d9a	0.0074212076
168	0x3d9745ea	0.07386382
169	0xbd522391	-0.05130345
170	0xbc6208f0	-0.013796076
171	0xbd690661	-0.05689085
172	0x3dd6febd	0.10497806
173	0x3c06b012	0.008220689
174	0x3d2fee53	0.042951893
175	0xbd753060	-0.059860587
176	0x3d847b53	0.06468835
177	0xbd4f0c11	-0.050548617
178	0x3dea9675	0.11454479
179	0xbcd5eeb7	-0.026114805
180	0x3e08d7a1	0.13363506
181	0xbd703fce	-0.0586546
182	0xbdb730e8	-0.08944875
183	0xbdb0b716	-0.08628671
184	0xba0b8a17	-0.0005323006
185	0xbd80e913	-0.062944554
186	0x3ca3c616	0.019991916
187	0xbcf044e2	-0.02932972
188	0x3d8a6002	0.06756593
189	0xbd42c3cc	-0.047550008
190	0x3e28776d	0.16451807
191	0x3de0deb1	0.10979975
192	0xbd23d008	-0.039993316
193	0x3cf208c3	0.029545194
194	0x3d93d555	0.07218424
195	0x3c3fcd07	0.011706597
196	0x3cbf32cb	0.02333965
197	0x3df30819	0.11866779
198	0xbdcd94e5	-0.10038165
199	0xbd597367	-0.053088572
200	0x3d9b83ec	0.075935215
201	0x3b0043e2	0.0019571711
202	0x3dafb63a	0.08579679
203	0xbd0bca0d	-0.034128238
204	0x3cfd2640	0.030902028
205	0xbd08d6b8	-0.033407897
206	0xbd58a509	-0.052891765
207	0x3d48cf50	0.049025834
208	0x3dcf3481	0.10117436
209	0xbde85a68	-0.113453686
210	0x3d741d17	0.059598055
211	0xbd9eb0f7	-0.07748597
212	0x3d762877	0.060097184
213	0x3c8267cd	0.015918637
214	0xbce19f29	-0.027541714
215	0xbbd7cbe5	-0.0065855854
216	0x3d8bf0be	0.06833027
217	0xbd41c5ae	-0.047307663
218	0x3ce9b57f	0.028528927
219	0x3df17ebb	0.1179175
220	0xbdfc3949	-0.12315614
221	0xbc9f7c7a	-0.019468535
222	0x3c269c46	0.010169094
223	0xbce10209	-0.02746679
224	0xbc58a63c	-0.013223227
225	0xbc15fb97	-0.009154222
226	0x3d1c050a	0.038090743
227	0x3db4b014	0.08822647
228	0xbc42d404	-0.011891369
229	0xbd6ad175	-0.05732866
230	0x3cbde337	0.023179634
231	0x3dea1deb	0.11431488
232	0xbd8f5ba7	-0.06999903
233	0xbca96417	-0.02067761
234	0x3d4d40e8	0.050110728
235	0xbd7e79ed	-0.062127996
236	0x3dd3ae1e	0.103359446
237	0x3c7b6766	0.015344476
238	0x3d3f982d	0.046775986
239	0x3c5a515c	0.013325062
240	0x3c753fc9	0.014968821
241	0x3cd26152	0.025681172
242	0x3b719569	0.0036862737
243	0x3d3fa0fb	0.046784382
244	0xbc353629	-0.011060276
245	0x3cc2a3b6	0.023759704
246	0xbcb45506	-0.022013199
247	0x3d927047	0.071503215
248	0xbd3c4ec4	-0.045973554
249	0x3dbd9f26	0.09258871
250	0xbda25790	-0.079268575
251	0x3a4e4f9b	0.00078701385
252	0x3cea2f25	0.028586933
253	0xbd0b4869	-0.034004603
254	0x3c2c9d7f	0.010535597
255	0x3e396981	0.18106653

interaction_layers.1.bias f4 [128]
0	0xb72110ec	-9.600288e-06
1	0xb6b60836	-5.4249786e-06
2	0xb6b5b0d4	-5.414806e-06
3	0xb6187383	-2.2717002e-06
4	0x367c2a22	3.757545e-06
5	0xb731e155	-1.0602486e-05
6	0x3583bfde	9.816101e-07
7	0x369e0d58	4.7103204e-06
8	0x35f7bf8b	1.845868e-06
9	0xb68006ed	-3.8155035e-06
10	0xb63efb53	-2.8458496e-06
11	0xb3c32135	-9.0864354e-08
12	0x3591bfba	1.0859142e-06
13	0xb69246a6	-4.3593636e-06
14	0xb5ebd0f5	-1.7569679e-06
15	0x35cc3298	1.5213909e-06
16	0xb565ba75	-8.558048e-07
17	0xb6d7b8d7	-6.4290175e-06
18	0x36e23e55	6.7425813e-06
19	0xb68da3b2	-4.221184e-06
20	0x35f4004c	1.8179503e-06
21	0x36985e47	4.5409283e-06
22	0xb5b2756c	-1.3296208e-06
23	0xb5c33656	-1.4544446e-06
24	0xb627b193	-2.49883e-06
25	0xb6d348a9	-6.296749e-06
26	0x367c4e59	3.759653e-06
27	0x37175471	9.019962e-06
28	0x36d34beb	6.297128e-06
29	0xb6dd1d3b	-6.589716e-06
30	0x36937fdc	4.395826e-06
31	0x35084b3e	5.077344e-07
32	0x35aa731e	1.269949e-06
33	0x35f8068c	1.8479345e-06
34	0xb6a9db64	-5.062133e-06
35	0x371246cb	8.718761e-06
36	0x360e32ac	2.1189144e-06
37	0x3706ce2c	8.0350255e-06
38	0x363cd1b3	2.8136244e-06
39	0xb7048aff	-7.900176e-06
40	0xb50b09e8	-5.179595e-07
41	0xb583c2fe	-9.817011e-07
42	0x3687483c	4.0317227e-06
43	0xb64722b4	-2.967351e-06
44	0x37453ee7	1.1756761e-05
45	0xb548a538	-7.474623e-07
46	0x3605faad	1.9964457e-06
47	0x36cb8075	6.064826e-06
48	0xb50100a3	-4.805717e-07
49	0xb69220dd	-4.354965e-06
50	0x36fa8d1d	7.4670083e-06
51	0x36bb5d15	5.5838705e-06
52	0x37687dee	1.3857598e-05
53	0xb6c90b99	-5.991617e-06
54	0xb686c46c	-4.0163777e-06
55	0x3610a90a	2.1556066e-06
56	0xb2b2bb01	-2.0806967e-08
57	0xb5e6b45a	-1.7188825e-06
58	0x35a37065	1.2177157e-06
59	0x3710b652	8.625519e-06
60	0xb742188f	-1.1569019e-05
61	0x334ee57b	4.8171824e-08
62	0xb6c47ac9	-5.8555493e-06
63	0xb6d7f70f	-6.4362607e-06
64	0xb691d6a1	-4.346323e-06
65	0x362a1659	2.5344982e-06
66	0x36bc51fe	5.6123818e-06
67	0xb5f71595	-1.8409215e-06
68	0x36cca711	6.099123e-06
69	0x37099e90	8.2027545e-06
70	0xb669878c	-3.4798604e-06
71	0xb6519fbe	-3.123641e-06
72	0x36e07bf6	6.690151e-06
73	0x371f3374	9.489118e-06
74	0xb5d9bd3f	-1.6222838e-06
75	0xb5ba7f19	-1.389507e-06
76	0xb63c674a	-2.8074305e-06
77	0x374f963e	1.2373142e-05
78	0x3709a1c0	8.203497e-06
79	0xb5d7e20a	-1.6084534e-06
80	0x370caef3	8.385384e-06
81	0x3768e035	1.388048e-05
82	0x36d02cae	6.2040845e-06
83	0x370266d9	7.77255e-06
84	0x368cc04c	4.1947114e-06
85	0xb6a4ee0b	-4.9152927e-06
86	0xb6c3ff61	-5.841183e-06
87	0x36194a46	2.284201e-06
88	0x36f1c004	7.2047133e-06
89	0xb4e9046e	-4.3402855e-07
90	0x367a362a	3.728443e-06
91	0xb6df40b0	-6.6534485e-06
92	0xb6c0d2bf	-5.74658e-06
93	0xb68b66ab	-4.154475e-06
94	0x36f4bcf4	7.2937637e-06
95	0xb655f431	-3.1881611e-06
96	0xb6587e27	-3.2259939e-06
97	0x36a240f6	4.8355387e-06
98	0xb6e25390	-6.745053e-06
99	0xb6caa0d9	-6.0387943e-06
100	0x35bf3dca	1.4248592e-06
101	0xb6bef8c3	-5.691401e-06
102	0xb6a08495	-4.783806e-06
103	0x362415b6	2.4450542e-06
104	0x3680ff82	3.8444423e-06
105	0xb6d528cf	-6.3526454e-06
106	0xb746986a	-1.1837206e-05
107	0x36d73c8f	6.4145493e-06
108	0xb67be3d7	-3.7534535e-06
109	0xb7073262	-8.058358e-06
110	0xb66afb7f	-3.5015107e-06
111	0xb49adc88	-2.8845193e-07
112	0xb6ccbd23	-6.101692e-06
113	0xb52e8f1b	-6.5028297e-07
114	0xb748c0f4	-1.1965854e-05
115	0xb73712ca	-1.0912025e-05
116	0x36c46de7	5.8540495e-06
117	0xb62ed189	-2.6049986e-06
118	0xb6d9588d	-6.4774126e-06
119	0xb6ad5126	-5.1652487e-06
120	0xb67b6b2b	-3.7464295e-06
121	0x369295db	4.3685845e-06
122	0x35fa7aa9	1.866215e-06
123	0xb69347cd	-4.3893e-06
124	0x35880a03	1.0135703e-06
125	0x36deecbc	6.643675e-06
126	0x3637e4a7	2.7402218e-06
127	0x372c1575	1.0256995e-05

interaction_layers.1.lin.weight f4 [128, 64]
0	0x3cbf8ef2	0.023383591
1	0x3c20fd07	0.009825951
2	0xbd27aa4a	-0.040933885
3	0xbc91ea2b	-0.017811855
4	0x3c9aa2eb	0.018876513
5	0xbd89e74f	-0.06733572
6	0x3a45fa3c	0.00075522414
7	0xbd2ee74d	-0.042701054
8	0x3d6d2d62	0.05790461
9	0x3c3bbcdc	0.011458602
10	0xbd02b79e	-0.031913392
11	0x3d3aa889	0.045570884
12	0x3bb08bf2	0.0053877765
13	0xbb39b18d	-0.0028334588
14	0xb9e9a276	-0.00044562266
15	0xbc65e301	-0.014031173
16	0x3d0fda3e	0.03512024
17	0xbd4ee595	-0.050511915
18	0xbd3d40a9	-0.046204243
19	0xbcb42368	-0.02198954
20	0xbb0ddba3	-0.0021645806
21	0x3a2e15d5	0.00066408265
22	0xbbb41908	-0.005496148
23	0x3c8cb344	0.017175324
24	0x3d6e8059	0.05822787
25	0x3c1d0851	0.009584502
26	0xbc55504b	-0.013019632
27	0x3d4c1dc7	0.049833085
28	0xbd402c7d	-0.046917427
29	0x3ca3ca03	0.019993788
30	0x3cd17360	0.02556771
31	0x3cc96d2b	0.024588188
32	0x3bdf7b1d	0.006820096
33	0x3d1a3800	0.037651062
34	0x3cd567d4	0.026050486
35	0x3a835bf4	0.0010021911
36	0xbd19eea1	-0.03758109
37	0xbbf2688c	-0.007397717
38	0x3c98fcbd	0.018675203
39	0x3ca47ec9	0.020079987
40	0xbd5d017b	-0.05395649
41	0xbca9111a	-0.020638037
42	0xbc9ec24d	-0.01937976
43	0xbce1b190	-0.027550489
44	0x39b3dbda	0.00034305343
45	0xbd78543f	-0.06062722
46	0x3be49232	0.0069754357
47	0xbc8f0a23	-0.017460888
48	0xbd3da9c1	-0.046304468
49	0x3cf22a9a	0.02956133
50	0x3c5ca443	0.013466897
51	0xbd1a5404	-0.03767778
52	0x3c470f4d	0.012149644
53	0x3ccc1073	0.024910187
54	0x3c8ad16a	0.01694556
55	0x3c15c114	0.009140272
56	0xbd479bd4	-0.048732594
57	0xbd19c3d8	-0.037540287
58	0xbba84a7b	-0.005135832
59	0xbba04595	-0.0048911073
60	0xbd1fa7c1	-0.038978342
61	0xbb1f56d6	-0.0024313233
62	0x3cfb2c66	0.03066082
63	0x3cfb754b	0.030695578
64	0x3d01512f	0.031571563
65	0xbc369625	-0.011144196
66	0x3d3b3540	0.04570508
67	0x3d2aca0c	0.041696593
68	0xbccc62af	-0.0249494
69	0x3c8a31c9	0.016869443
70	0x3ca0ad8b	0.019614002
71	0x3c765705	0.0150353955
72	0x3cba49d6	0.022740286
73	0xbc4bb23e	-0.012432633
74	0xbcbf134c	-0.023324631
75	0x3bd76fa6	0.006574589
76	0x3d8b01f5	0.06787483
77	0x3ca9db96	0.02073459
78	0xbd235fa7	-0.039886143
79	0xbd136d09	-0.035992656
80	0xba9bad20	-0.0011877157
81	0x3d2f9797	0.042869177
82	0xbcb69833	-0.022289371
83	0x3d3d5e70	0.04623264
84	0xbca75312	-0.020425353
85	0xbca4d124	-0.020119257
86	0xbc2b56cc	-0.010457706
87	0x3d2008ac	0.03907077
88	0xbc3adc50	-0.011405066
89	0xbcef64f8	-0.02922295
90	0x3ba2f347	0.0049728486
91	0xbcaecc8e	-0.021337774
92	0x3d423e8d	0.047422934
93	0xbd496c5a	-0.049175598
94	0xbc73159c	-0.014836695
95	0xbcf273fa	-0.029596318
96	0xbd142fbd	-0.03617834
97	0xbc135730	-0.008992955
98	0xbd525e77	-0.05135962
99	0xbd4f6220	-0.05063069
100	0x3d017e5c	0.031614646
101	0xbd189ab9	-0.03725693
102	0x3970e081	0.00022971818
103	0xbcbd67b6	-0.023120742
104	0xbc27dbdc	-0.01024529
105	0xbc199769	-0.009374478
106	0x3d3820f1	0.04495329
107	0xbb45b22d	-0.0030166015
108	0xbd69eb89	-0.05710939
109	0x3c14222c	0.00904135
110	0xbc0889f4	-0.008333672
111	0x3d1673ea	0.036731638
112	0x3cd90cfe	0.026495453
113	0x3c857823	0.016292637
114	0xbcce899b	-0.0252121
115	0x3d2f8bf9	0.042858098
116	0x3bd31f6b	0.0064429543
117	0x3d949ffe	0.072570786
118	0xbd064a43	-0.032785665
119	0x3c5aac21	0.013346703
120	0xbcb1cf1e	-0.021705206
121	0x3d1cc3d4	0.038272694
122	0xbc8d62ac	-0.017258964
123	0x3cd81630	0.026377767
124	0x3c10d63e	0.008840142
125	0x3d82a07e	0.06378268
126	0x3c3a7fd9	0.01138302
127	0xbd2b63a4	-0.04184307
128	0xba48b94d	-0.00076570065
129	0x3bfedaa7	0.0077775302
130	0xbaccc9e8	-0.0015624138
131	0xbd7cad22	-0.06168855
132	0x3c025f7b	0.007957335
133	0x3c158087	0.009124882
134	0xb87e2aac	-6.059806e-05
135	0xbcb2e525	-0.02183778
136	0xbcb81d9c	-0.022475056
137	0x3cc4097e	0.023930307
138	0x3d02de1f	0.031950112
139	0xbbb429a1	-0.0054981266
140	0xbd7e88ce	-0.062142186
141	0x3c8caec9	0.017173188
142	0x39f2e082	0.00046325108
143	0x3d377d53	0.044797253
144	0xbcfa0c60	-0.030523479
145	0xbcd65367	-0.026162816
146	0x3d06bc5e	0.032894485
147	0xbc95fe62	-0.018309776
148	0x3c3905a3	0.011292848
149	0x3c85741d	0.016290719
150	0xbd0be681	-0.034155373
151	0xbc91a2c7	-0.017777814
152	0x3c48a60b	0.012246619
153	0xbd562eaa	-0.052290596
154	0xbd37c42c	-0.04486482
155	0x3c149e89	0.009071001
156	0xbc01a0f1	-0.007911907
157	0x3c382163	0.011238429
158	0xbd686398	-0.056735605
159	0xba95f2db	-0.0011440174
160	0x3d0f97da	0.035056926
161	0xbce9b9ce	-0.028530981
162	0xbd60e62c	-0.05490701
163	0x3ca2356b	0.019800862
164	0x3cbe768b	0.023249885
165	0xbbe35cf7	-0.0069385725
166	0x3b847b46	0.0040430157
167	0x3c30f23e	0.010799943
168	0x3d0b82f1	0.034060422
169	0x3d1689c6	0.036752485
170	0xbd8132e2	-0.06308533
171	0xbc6880c1	-0.014190854
172	0x3d057c1d	0.032589067
173	0x3bad8861	0.0052957986
174	0xbcccd10d	-0.025002027
175	0xbcfc4d8c	-0.030798696
176	0x3ca0794e	0.019589093
177	0xbca59186	-0.020210993
178	0xba4bce8c	-0.00077746133
179	0x3d124fde	0.0357207
180	0xbaf1d56c	-0.0018450445
181	0x3b21d5ef	0.0024694165
182	0x3d0c4322	0.03424371
183	0x3d21c523	0.039494645
184	0xbc09efcc	-0.008418988
185	0x3b11192b	0.0022140245
186	0x3b8f540a	0.004374032
187	0x3b95a2e9	0.0045665395
188	0x3ccc448b	0.024935028
189	0xbd26aa4e	-0.04068976
190	0x3c699f98	0.0142592415
191	0x3ca31ce8	0.019911245
192	0xbbf9a75f	-0.007618829
193	0xbc13fcd0	-0.009032443
194	0x3b93f730	0.004515551
195	0xb8b09750	-8.420518e-05
196	0xbc0dad88	-0.00864733
197	0xbc43d828	-0.011953391
198	0x3c062940	0.008188546
199	0x3cdbf0b4	0.026848175
200	0xbb9bce36	-0.004754807
201	0x3b27a239	0.002557887
202	0xbb9b000a	-0.0047302293
203	0xbbb1718e	-0.005415148
204	0x3c93a81d	0.018024499
205	0x3ba9d757	0.005183141
206	0xbc89fb66	-0.016843509
207	0xbc0aa6ca	-0.008462617
208	0x3c445c59	0.011984908
209	0xbbc125e4	-0.0058944095
210	0x3cbada49	0.022809165
211	0x3c926578	0.01787065
212	0xbaf75e2e	-0.0018872672
213	0x3c9ef9c7	0.019406212
214	0x3d2e7d2a	0.042599835
215	0xbb947972	-0.004531079
216	0x3cd23ec9	0.025664704
217	0xbc5439ed	-0.012953264
218	0xbc9952c5	-0.018716225
219	0xbc86978b	-0.016429683
220	0xbc9cf9ad	-0.019162023
221	0xb984befc	-0.00025319296
222	0xbc84df84	-0.016219862
223	0x3c4c04d0	0.012452319
224	0x3c1b9831	0.0094967345
225	0xbc389c7c	-0.0112677775
226	0xbbc07ecc	-0.0058744904
227	0x3cd23adf	0.025662838
228	0xba808295	-0.0009804541
229	0x3d659b78	0.05605647
230	0xbc7f8425	-0.015595471
231	0xbc198dc5	-0.009372179
232	0x3cb9b0d8	0.022667333
233	0xbb4ad6f1	-0.003095087
234	0x3ba52f7a	0.00504106
235	0x3b051916	0.0020309142
236	0xbc4d891b	-0.0125448955
237	0x3cc456f5	0.023967246
238	0x3cca328e	0.02468231
239	0xbcc539b9	-0.024075376
240	0x3cb6cd32	0.022314642
241	0x3c1577e2	0.009122821
242	0xbb91e994	-0.0044528935
243	0x3bcee9e0	0.006314501
244	0x3cfed368	0.031106666
245	0xbcb85346	-0.022500645
246	0x3b9f3310	0.004858382
247	0xbca7e360	-0.020494163
248	0x3d2e1fa1	0.042510632
249	0x3cd01dbe	0.025404807
250	0x3c13be5e	0.009017555
251	0x3b512f53	0.0031919077
252	0x3c899eaf	0.016799299
253	0x3ccc5f2a	0.024947722
254	0x3d4ea3fb	0.050449353
255	0x3bcd7d08	0.0062710084

out.weight f4 [200, 128]
0	0xb88045f6	-6.116547e-05
1	0x384e1de8	4.914208e-05
2	0xb89242f4	-6.9742935e-05
3	0xb8907834	-6.888845e-05
4	0xb890857b	-6.891318e-05
5	0xb8993fd0	-7.3074945e-05
6	0xb8a8aa77	-8.042616e-05
7	0x389242a8	6.974238e-05
8	0x3866d868	5.5037817e-05
9	0x36f7d916	7.3864458e-06
10	0x36a147a1	4.8065126e-06
11	0x37844e7b	1.5772172e-05
12	0xb7ad6564	-2.067042e-05
13	0x3886cad1	6.4273954e-05
14	0xb8bde9fc	-9.055805e-05
15	0xb889600f	-6.5505614e-05
16	0x388144a8	6.1639876e-05
17	0x389521de	7.111182e-05
18	0xb826da8a	-3.9781014e-05
19	0x38cdfade	9.8218894e-05
20	0x387d0a69	6.0329596e-05
21	0xb895fe54	-7.152246e-05
22	0xb87c698c	-6.017978e-05
23	0xb8515e46	-4.9917282e-05
24	0x3890363d	6.876558e-05
25	0x38935f7a	7.02729e-05
26	0x389e2fa8	7.542904e-05
27	0x388c2d4e	6.684159e-05
28	0x3897e51a	7.2429146e-05
29	0xb84579de	-4.7081958e-05
30	0xb8896528	-6.551511e-05
31	0xb84b2fbd	-4.844343e-05
32	0xb87b7fbe	-5.9962033e-05
33	0xb69c391b	-4.6558102e-06
34	0xb8ae331d	-8.306487e-05
35	0x38995393	7.3111754e-05
36	0x38a84cab	8.025145e-05
37	0xb86c468e	-5.6332494e-05
38	0x38a166fd	7.696261e-05
39	0xb87456af	-5.8254864e-05
40	0x38c88b18	9.5626514e-05
41	0x388639b2	6.4003645e-05
42	0x382ed732	4.168525e-05
43	0x3889835e	6.557138e-05
44	0x3846428f	4.7268866e-05
45	0xb8627d0a	-5.399905e-05
46	0x36b1a176	5.2938076e-06
47	0xb770a7f5	-1.434422e-05
48	0x386b4bac	5.609884e-05
49	0xb8b4df04	-8.624609e-05
50	0xb863b283	-5.428727e-05
51	0xb893069b	-7.0107366e-05
52	0x3898b642	7.281873e-05
53	0xb81ef59d	-3.789888e-05
54	0xb88348df	-6.26014e-05
55	0xb88e20f0	-6.777223e-05
56	0xb88b0821	-6.6295506e-05
57	0xb872f253	-5.7922978e-05
58	0x38a1d6c9	7.717085e-05
59	0x3870fd00	5.7456084e-05
60	0x38756dcb	5.8514805e-05
61	0x388b451d	6.64091e-05
62	0xb834d09d	-4.310963e-05
63	0x387ac827	5.979105e-05
64	0xb88fb3f8	-6.852293e-05
65	0x38374723	4.369685e-05
66	0xb899f277	-7.340771e-05
67	0xb8477d4f	-4.7562e-05
68	0xb8a38f57	-7.799145e-05
69	0xb84db532	-4.904456e-05
70	0xb8b20e35	-8.490348e-05
71	0x389b0463	7.391793e-05
72	0x3860383d	5.3458138e-05
73	0xb87063bd	-5.7313347e-05
74	0xb792e7e2	-1.7512535e-05
75	0xb8a1b37e	-7.710511e-05
76	0xb594737d	-1.1060471e-06
77	0x388824e3	6.491856e-05
78	0xb883c09d	-6.282444e-05
79	0x37dfcd31	2.6679221e-05
80	0xb8850e26	-6.3445696e-05
81	0x3895e38d	7.147258e-05
82	0xb86da15e	-5.6655488e-05
83	0xb8990a1a	-7.29749e-05
84	0x38591d32	5.1764022e-05
85	0xb8a8814f	-8.03495e-05
86	0x38a0a69f	7.66043e-05
87	0x38850969	6.343687e-05
88	0x3843561d	4.6571822e-05
89	0xb8aefaed	-8.343705e-05
90	0xb886366a	-6.399753e-05
91	0x38972f8c	7.2090974e-05
92	0x38ad2624	8.256387e-05
93	0xb85eb3dd	-5.3096435e-05
94	0xb87875bc	-5.9237456e-05
95	0x388ee4bd	6.8136935e-05
96	0x38a9960c	8.0864964e-05
97	0xb8a5bde9	-7.9031866e-05
98	0xb866fc1c	-5.507107e-05
99	0xb88c5820	-6.692135e-05
100	0xb89e50fa	-7.54911e-05
101	0xb8896446	-6.5513465e-05
102	0x384128bc	4.6052723e-05
103	0xb8688006	-5.543234e-05
104	0x388194cc	6.178915e-05
105	0x389e6c1a	7.5541626e-05
106	0x386a94ba	5.592846e-05
107	0xb8a79366	-7.990636e-05
108	0xb8abb660	-8.1878854e-05
109	0xb8928a4f	-6.9875845e-05
110	0xb88fc851	-6.856083e-05
111	0xb865fdd1	-5.483424e-05
112	0x388b00e2	6.628201e-05
113	0x38b29423	8.515294e-05
114	0xb8bc9756	-8.992727e-05
115	0xb8692cba	-5.5593184e-05
116	0x38249d6f	3.924727e-05
117	0x38906436	6.885121e-05
118	0xb7cf8ae6	-2.4741003e-05
119	0xb8375e10	-4.3718203e-05
120	0xb7bc7efa	-2.2470475e-05
121	0x3888b7bf	6.519211e-05
122	0x388abac2	6.615139e-05
123	0xb88dc8ea	-6.760827e-05
124	0x387553aa	5.849047e-05
125	0x37ecbc70	2.822114e-05
126	0x385f0351	5.317043e-05
127	0xb81fff4d	-3.814632e-05
128	0xb8cf5b77	-9.887566e-05
129	0x38b30183	8.535667e-05
130	0xb8e28a2f	-0.000108022585
131	0xb905d567	-0.00012763367
132	0xb8e759d0	-0.00011031667
133	0xb8fabb04	-0.00011955763
134	0xb917f76c	-0.00014492654
135	0x38daae2f	0.00010427494
136	0x38b7d7ac	8.766292e-05
137	0x37bccc13	2.2506376e-05
138	0x3774b2a8	1.458513e-05
139	0x37cae9ad	2.418909e-05
140	0xb8098a30	-3.2792042e-05
141	0x38e78b09	0.00011040836
142	0xb9241a60	-0.00015650084
143	0xb8d6d312	-0.0001024363
144	0x38e133af	0.00010738463
145	0x38f23363	0.00011549031
146	0xb8954a29	-7.118687e-05
147	0x3924f82e	0.00015732713
148	0x38d4d817	0.000101491976
149	0xb8f21776	-0.00011543829
150	0xb8db164c	-0.00010446887
151	0xb8c41936	-9.350704e-05
152	0x38eb04ac	0.000112065434
153	0x390ab313	0.00013227416
154	0x38fa9937	0.000119494674
155	0x38e71cb4	0.00011020285
156	0x3901ebaf	0.00012390198
157	0xb89bae07	-7.423391e-05
158	0xb8fc6d09	-0.00012036606
159	0xb899dce5	-7.336753e-05
160	0xb8ce5980	-9.839516e-05
161	0xb6ac0a1b	-5.127176e-06
162	0xb9244758	-0.00015666836
163	0x38ee0e59	0.00011351397
164	0x39179062	0.00014454269
165	0xb8cdaa13	-9.8068405e-05
166	0x38fe8042	0.00012135554
167	0xb8d19b83	-9.994863e-05
168	0x392a3180	0.00016230904
169	0x38dda9db	0.00010569739
170	0x3892c246	6.998009e-05
171	0x38f2336b	0.000115490366
172	0x38b50711	8.632069e-05
173	0xb8cdc2e4	-9.811463e-05
174	0x3734a7eb	1.07679325e-05
175	0xb7c62d4f	-2.3624538e-05
176	0x38c46341	9.364496e-05
177	0xb9129faa	-0.00013983125
178	0xb8c735c3	-9.499073e-05
179	0xb8f54b84	-0.00011696576
180	0x38f9c550	0.000119099976
181	0xb89110dc	-6.917279e-05
182	0xb8cc621b	-9.7457516e-05
183	0xb8e5e758	-0.00010962662
184	0xb8e0cf0f	-0.0001071972
185	0xb8c48725	-9.371181e-05
186	0x3908e78a	0.00013056226
187	0x38c5b524	9.427432e-05
188	0x38c389e6	9.32401e-05
189	0x38e9723e	0.00011131585
190	0xb8a81a99	-8.0158185e-05
191	0x38c1f097	9.2477705e-05
192	0xb8e29fab	-0.0001080626
193	0x389d209a	7.492416e-05
194	0xb9022410	-0.000124112
195	0xb8aa4fd4	-8.121101e-05
196	0xb906ede0	-0.00012867851
197	0xb8a95053	-8.0735095e-05
198	0xb90bde7f	-0.00013338959
199	0x38fa8c9b	0.00011947119
200	0x38a4d0e1	7.859036e-05
201	0xb8d334f3	-0.000100711266
202	0xb7e2b6c8	-2.7026414e-05
203	0xb8fd5d04	-0.000120813056
204	0xb4b097c5	-3.2892981e-07
205	0x38d22cc2	0.00010021917
206	0xb8d06800	-9.9375844e-05
207	0x38294c1a	4.0363615e-05
208	0xb8e2d1b1	-0.00010815578
209	0x38f86f4c	0.00011846292
210	0xb8c82204	-9.543079e-05
211	0xb8f0af68	-0.00011476764
212	0x38a33df3	7.7839846e-05
213	0xb8fa595a	-0.00011937572
214	0x39042750	0.00012603146
215	0x38ea3f1b	0.00011169744
216	0x388c6ac1	6.695605e-05
217	0xb8f32bfa	-0.00011595334
218	0xb8d34984	-0.000100749574
219	0x39003768	0.00012227672
220	0x390a2d71	0.00013177634
221	0xb8bb3819	-8.927304e-05
222	0xb8cdf8a3	-9.821474e-05
223	0x38fcaa80	0.000120480545
224	0x390bf267	0.00013346375
225	0xb912880d	-0.00013974328
226	0xb8bbad17	-8.949095e-05
227	0xb8eda66a	-0.00011332038
228	0xb905d527	-0.00012763274
229	0xb8eac81e	-0.00011195264
230	0x38abdb15	8.1947226e-05
231	0xb8be2998	-9.0676534e-05
232	0x38d55117	0.000101717356
233	0x39041a36	0.00012598265
234	0x38b8fc01	8.820743e-05
235	0xb90507a8	-0.0001268672
236	0xb90f5593	-0.00013669422
237	0xb905878e	-0.00012734366
238	0xb8ead098	-0.00011196843
239	0xb8c7f415	-9.534523e-05
240	0x38ee263d	0.00011355847
241	0x3909b486	0.00013132588
242	0xb9235d31	-0.00015579608
243	0xb8bda1df	-9.042373e-05
244	0x38a193fc	7.7046425e-05
245	0x3900b4f6	0.00012274444
246	0xb828a4f2	-4.020794e-05
247	0xb8a0e853	-7.672668e-05
248	0xb829a3bd	-4.0445233e-05
249	0x38ed1090	0.00011304126
250	0x38e7615d	0.00011033074
251	0xb8f24868	-0.00011552946
252	0x38c88366	9.561218e-05
253	0x38495c6f	4.800822e-05
254	0x38e6bc2a	0.00011002303
255	0xb8832c69	-6.254839e-05
