best_model/xasnet_gnn_model_6.pt (torch, 800306 bytes, 26 tensors)

batch_norms.0.weight f4 [512]
00000000: 4d73 4cbd 6cbb 1b3e 617f fa3c 9a00 73ba
00000010: 3985 143e 119c eb3d 6c94 6c3d 80c8 073d
00000020: 5bfe 0a3d f399 103d 9190 21bb 9da2 023d
00000030: e006 023e 5e4a d33d aa15 3c3d 8513 6c3d
00000040: a716 5a3d 6697 ac3d b20c 4e3d 6b03 bf3b
00000050: 2951 e83d f580 253b 08ad 2e3d cb07 7b3d
00000060: a460 ec3d aba5 bf3d fadf 9a3c 5eca 2a3b
00000070: 15fe b73c e667 a93d 53f0 173b 56ea 343c
00000080: 8376 9f3c b615 e03d 49fd 403d 8339 093b
00000090: f297 9b3c 9275 2d3d 56f8 ba3d dec3 823d
000000a0: 694f 2d3d 9ca6 f53c 4eb9 943c a36a 1a3c
000000b0: 7190 de3d 4ee8 ce3d d6d2 003c 2195 6e3b
000000c0: 795f bd3d f07b f13c 8755 a43d 593a fbb9
000000d0: 9d7e c53d 8096 9b3d 343e 85bb f6f9 a73d
000000e0: c25e 5a3a b472 de3d a4ed a73d c9f3 203e
000000f0: 063a b43d 2d4d f63d b5f3 ca3c a823 773d
00000100: 5734 283d 261a cb3d 7f2e b83c f3aa 783c
00000110: 6008 c33d 428c 5a3a 5d21 863c 0873 06bc
00000120: 1fa6 ad3d ee64 f23a a5d0 433c ad16 7a3c
00000130: fc3e 593d 950d b93d 2227 f53d 0239 00bd
00000140: 61cf 373d 2071 d93d 95a9 953d 806f ee3d
00000150: 0773 903d fca2 db3d 0cae 0e3e b886 633b
00000160: 2356 9fbb 7928 713d 3d6b 65bc 8fdc 0e3e
00000170: a813 b5bb d53d cd3d 0e6e d13d f3d3 54bd
00000180: 70d9 61bb 161c c43d 7b88 3e3d 3352 0ebc
00000190: d0de 703d fb96 c23d 03c7 b53b 706d 053d
000001a0: 2b5a e63b 25b5 2fbb 0ade 213d 02d9 80bc
000001b0: 7ba4 c23d 5e7f 803d 44a7 073e 7ca1 893d
000001c0: 80f5 4a3d 168f 873b cca1 943d a5a9 a03c
000001d0: 19f7 ce3d 0491 8f3d 73ec 093c f41e 10bd
000001e0: 91c3 6c3d a932 173c fd51 663a b351 1fbc
000001f0: 477e c03d 6f70 a73d 4416 773d 9466 103c
00000200: 5085 0a3d 5b29 0c3e 396c 703b ed3c 7a3d
00000210: 4150 1dbb f3ca 46bc 7bd3 473e 48bc f93c
00000220: 3228 953d 5789 543d 42ec 223b 305d 643c
00000230: fade 2a3d 2981 76bc 5397 333d 5a93 8c3d
00000240: 668f 313d dda8 a63d feb3 d13d 8308 6c3d
00000250: e5c2 74bc b6d5 a63d 6970 653c 69e0 953d
00000260: 03d8 c03b e620 3c3d 6025 913d b4e7 2cbb
00000270: ccdd ae3d 4782 753d 19ed a63b a521 d93d
00000280: 0816 953d 196b 943d f977 8d3d 4d65 bc3d
00000290: e89a 4e3d 8f0b a93d 4b9b 713b 3384 e33d
000002a0: cbe2 b23d 4a17 073e 18d3 753d f56e bc3c
000002b0: 5443 a73c ebde 6d3d 8f39 df3c 0419 3f3d
000002c0: d13c 973d 1408 c1bc 4b2a 063d 96be d93c
000002d0: 5bef ea3d ad70 473d 24fe 333e 3dd9 7e3d
000002e0: fdb5 933d 9d0f c73d 1d36 fd3b 9ff7 e638
000002f0: ef3f fb3c ef51 aa3d e3a3 ff3d 3d21 193e
00000300: fba7 9b3d 5712 83ba 062c b23b a5a2 b23d
00000310: 29e4 1e3a a07d 9e3b de36 773d a7ba 993d
00000320: c20d 6b3d 0c39 d6ba 3d39 2b3a 0d08 bf3d
00000330: e5ec 93b7 673a 3e3d 16f8 44ba 627d 7a3c
00000340: 2689 063e f834 2cba 7701 c63d d92e 013d
00000350: e099 1a3d 0ba4 d73c 4fa1 c03d dab6 493d
00000360: 6880 033e 7335 1cbd ca03 e03a 442b 983d
00000370: de9a d53d f16f ab3d 4cd5 06bc e7e7 003d
00000380: 1146 6e3d ebe6 a63a f482 403c 2728 023c
00000390: 2d98 943d 0973 093e 0b30 953d a46e 1e3e
000003a0: 469d 363c 3608 fe3d 95fd bd3d c73e c73d
000003b0: f8c7 bf3d b3c2 7a3d a138 913b a790 233b
000003c0: 93d5 b1bc 716c 223d 5a1a 513a 5a46 473d
000003d0: 857e ce3d 4855 643b f0a2 b23d ee35 6abc
000003e0: 056a d13d 9543 433d f81b d23d 5c31 773b
000003f0: a55c 453d ec56 313c 8a99 3f3d fd69 783d
-0.049914647 0.15208215 0.030578317 -0.0009269804 0.14503945 0.11504377 0.057758734 0.033150196
0.03393398 0.035303067 -0.0024652819 0.03189336 0.12697935 0.10316919 0.045919098 0.057635803
0.05324426 0.084273145 0.050305076 0.005829265 0.11343605 0.0025253866 0.042645484 0.06128673
0.1154187 0.093577705 0.018905628 0.0026060562 0.022460023 0.0827177 0.0023184016 0.011042198
0.01946569 0.10941641 0.04711655 0.002093882 0.018993352 0.042348452 0.091293976 0.06385015
0.04231206 0.029986672 0.018154766 0.009424838 0.10867394 0.10102902 0.007862767 0.0036404806
0.092467256 0.029478043 0.080241255 -0.00047917923 0.0964329 0.07597065 -0.004066253 0.08201973
0.000833016 0.10861722 0.08199623 0.15717997 0.088001296 0.12026439 0.024774412 0.06033674
0.04106554 0.09917097 0.022483109 0.015177476 0.09523082 0.000833694 0.01637333 -0.0082061365
0.08478951 0.0018493214 0.0119516 0.015264195 0.053038582 0.09035794 0.119703546 -0.031304367
0.044875506 0.1061728 0.07307736 0.11642361 0.0705319 0.10724446 0.13933581 0.003471775
-0.004862563 0.05887649 -0.014002618 0.13951324 -0.005526025 0.10021559 0.102260694 -0.051959943
-0.0034461878 0.095756695 0.046516877 -0.00868659 0.05880624 0.095014535 0.0055474057 0.03257507
0.007029792 -0.0026810851 0.039518394 -0.015728477 0.095040284 0.06274293 0.132474 0.06720254
0.049550533 0.00413693 0.07257423 0.019612143 0.10105724 0.070100814 0.00841819 -0.03518577
0.057803694 0.009228387 0.0008786021 -0.009724068 0.093990855 0.08175742 0.06032397 0.008813519
0.033818543 0.13687651 0.00366856 0.06109326 -0.0024004134 -0.012133348 0.19514267 0.030485287
0.07283057 0.05188879 0.002486006 0.013938233 0.041716553 -0.015045443 0.043845486 0.068640426
0.043349646 0.08137677 0.10239409 0.057625305 -0.014939045 0.08146231 0.014003851 0.073181935
0.0058851256 0.045929812 0.07087207 -0.0026383223 0.08538398 0.059938695 0.005094182 0.1060212
0.07279593 0.0724699 0.069076486 0.09199009 0.0504407 0.08254158 0.0036866243 0.111091994
0.087346636 0.13192478 0.060015768 0.023002127 0.020417847 0.05807392 0.027249126 0.046654716
0.07384647 -0.023563422 0.032755177 0.026580136 0.11471435 0.04869144 0.17577416 0.062218893
0.07212446 0.09719775 0.007727398 0.00011013378 0.030670134 0.08316409 0.12482431 0.14954086
0.07600399 -0.0009999973 0.005437377 0.08722428 0.000606122 0.004836753 0.06035506 0.07506304
0.057386167 -0.0016343906 0.00065316615 0.093277074 -1.7634078e-05 0.046442416 -0.00075137743 0.015288683
0.13138255 -0.0006569172 0.09668248 0.031538818 0.037744403 0.026323339 0.09405767 0.049246646
0.12841952 -0.03813691 0.0017090973 0.07430127 0.10429929 0.083709605 -0.008229565 0.03147116
0.05817229 0.0012733614 0.011749972 0.007944143 0.07255588 0.13422789 0.07284554 0.15471894
0.011145895 0.1240391 0.092768826 0.09728771 0.09364313 0.061220836 0.0044317995 0.0024958046
-0.021708285 0.0396542 0.0007976644 0.048651077 0.100827254 0.003484087 0.08722484 -0.014295084
0.102253 0.047671873 0.10259241 0.003771863 0.048184056 0.010823946 0.046777286 0.060647953

batch_norms.0.bias f4 [512]
00000000: a9cc 23bb 1c9f 49be b13b 95bc 9188 b9ba
00000010: 3c3d c3bd ad3a dcbd a310 23bd 9502 debd
00000020: ec6b 86bd 4c1a 29bd c5d8 cdbc 9bdd b1bc
00000030: ccd5 b7bd 4f5d b2bd a0f6 67bd e5f1 d03b
00000040: 67ed 423c ff1e 36bd c901 89bd a46d 4ebd
00000050: 371d 30bd 43a9 c4bc d484 58bc f5fa b2bc
00000060: aedc e0bc 5ee7 31bd ff64 47bd 3b43 f1bb
00000070: 628c eebc 217b 2dbc 3d3b afbb f7cd 2cbd
00000080: ed48 7fbd 1882 b0bd 3fa6 babc 6548 4dbb
00000090: c1d0 3ebd b325 a5bc c908 eabd ce92 44bd
000000a0: 270d a7bd ad1f a3bd 64ac 4abc 32af 31bd
000000b0: ee9c 2dbd 924b 3fbd 5097 4a3a d668 e0bb
000000c0: ae10 76bc 664c 50bc 74e7 01bd 76e6 1abd
000000d0: 9aa1 30bd d1df 51bd 99de 30bd c6ef ffbc
000000e0: 0c3f c2bd 38cd bcbd 847c a0bd 7b9e ebbd
000000f0: ca68 93bc 3475 b6bd 7d68 3ebd fa14 35bd
00000100: c4d3 a7bd fe08 d4bc 51e1 5ebd 2a01 11bd
00000110: 71e8 6abd 6fdc 69bd 7da3 8dbd 2162 aabc
00000120: 569d 703b cde4 cdbc 1f54 2dbc e175 5ebc
00000130: 2e12 94bd 17a5 51bd 8fb8 babc e151 40bd
00000140: 0a53 13be 6585 ecbc 7168 c33c 9b49 d1bd
00000150: b7ca 21bd edda c7bd 7d89 70bd 8bef 74bb
00000160: 939e b5bc 51fe bebd 9764 83bc 25a2 e8bd
00000170: 56a4 f5bc 44c9 8ebd 9893 17bd ef77 4fbd
00000180: c799 d5bd cf32 05bd 1a62 0cbd 9f40 4cbd
00000190: 1b79 f3bc b8fc aabd 7e2d 55bd c576 e8bc
000001a0: 3f3f cbbc 1113 8bbc 1d11 34bd a3a2 38bd
000001b0: 897b 86bd ffa1 62bd fc5d d3bd 8edf 81bd
000001c0: 1ab9 7cbd f454 02bd 8fd5 17bd a5a5 e4bc
000001d0: ee55 a4bd 2297 223c b665 5ebd c080 b0bd
000001e0: b926 4bbd 49a0 94bd 47c5 d8bb c00d 15bd
000001f0: 0faf 24bd d9dc 5b3a d9c3 09bd dcfb 37bd
00000200: 66f5 89bd 3625 91bd f8dd 97bc b845 0abd
00000210: 37ff 20bd 4cb1 18bc 0ca8 e7bd d95a 30bd
00000220: 5778 3cbd 22a9 f4bc 0031 4fbd 46fe 3dbd
00000230: 032a 31bd 225d aebd 869c 9fbd 2d75 3bbd
00000240: 8a24 37bd b760 32bd f4ef 18be 23e1 0abd
00000250: 810c 22bd 50e9 9abd 9bd5 89bd 3e6d 76bd
00000260: 334f 1fbd 85a2 b2bd 480a bbbd 698a e7bc
00000270: d44e 3bbc 6d6c 82bb cba6 edbc 874d c3bc
00000280: 00d5 80bc 6fbc 29bd 1e34 21bd 3a1e 5fbd
00000290: 6f3e 52bd 5d57 323b 0099 eabc 29de 92bd
000002a0: 43bb bbbd d2bf acbd 9afb 10be 7f21 99bc
000002b0: 5ab3 80bd ada1 3fbd 29a1 a4bc 6346 11bd
000002c0: d966 3abd 8db2 76bd 89fe 0b3d 1067 e3bc
000002d0: bcaf f4bb a81a ab3c 7005 dabd 1e86 26bd
000002e0: ff0a 94bd 7928 cfbd e5df 3ebd 16db 02bd
000002f0: a718 97bd af02 9ebd b55a 34bd 7849 98bd
00000300: c797 bf3b b45c 593b 4232 b3bc 879d 13bd
00000310: a1c0 e4bb 99bc 9cbb df3a 1fbd 11d5 a0bd
00000320: 10e2 543c fec7 93bd 0ffe 5eba e0d2 9dbb
00000330: 5332 33bd e280 53bd 7a70 f3bb 1e11 ebbc
00000340: 77ad b0bd 6129 043b 0762 56bd b6c5 57bd
00000350: e5a1 8cbd 1cc4 61bc b504 73bd ea12 2f3c
00000360: 16d2 18bd 1c72 acbd 0021 90bc 7bd0 80bd
00000370: 13d2 09bd e8fd 86bd c309 b4bd 88d2 89bd
00000380: ee95 11bc f47b 47bd 4f22 65bd 175f 38bd
00000390: 92c7 85bc 51fe a5bd 03bb 70bd c61a dfbd
000003a0: f3af 8dbd eaaf a8bd 0974 2abd b730 adbc
000003b0: 05fd 18bd ecad 58bd f3b0 88bc dbe3 8ebd
000003c0: a3e3 87bc 7b84 7bbd 72bc c7bd acd5 a4bd
000003d0: e44d 12bd 44f6 82bd 7e55 a1bd 40fa 3fbd
000003e0: 7d26 89bd 457e 63bd eb01 27bd 7213 cebc
000003f0: 814b a8bc 85b4 82bd 9203 7fbd 732e b3bc
-0.0024993813 -0.19689602 -0.01821694 -0.001415508 -0.09533164 -0.10753379 -0.039810788 -0.10840336
-0.06563553 -0.041284844 -0.025127778 -0.021712115 -0.089763254 -0.087092035 -0.056631684 0.0063764923
0.011897421 -0.044463154 -0.066897936 -0.05039753 -0.04299661 -0.024006492 -0.013215262 -0.021848181
-0.027448978 -0.04343354 -0.0486803 -0.007362751 -0.029119674 -0.010588438 -0.005347638 -0.04218861
-0.062325407 -0.086185634 -0.02278435 -0.0031323668 -0.046585802 -0.020159578 -0.11427457 -0.047991566
-0.081568055 -0.07965026 -0.012370203 -0.04337997 -0.042385988 -0.04670293 0.0007728236 -0.006848435
-0.015018625 -0.012713527 -0.03171487 -0.03781744 -0.043122865 -0.05123884 -0.043181036 -0.031242263
-0.094846815 -0.0921883 -0.078362495 -0.11504837 -0.017994303 -0.089090735 -0.046486367 -0.044209458
-0.08194688 -0.025883194 -0.054414097 -0.0354015 -0.05735058 -0.057094987 -0.069159485 -0.020798745
0.0036714873 -0.025133515 -0.010579138 -0.013577909 -0.0723003 -0.051182833 -0.022793083 -0.046953086
-0.14387146 -0.028872201 0.023853512 -0.10219117 -0.039499965 -0.09758554 -0.05872487 -0.0037374224
-0.02217034 -0.09325851 -0.016039176 -0.113590516 -0.029985588 -0.06971982 -0.03700599 -0.050651487
-0.10429721 -0.032519158 -0.034273244 -0.049866315 -0.029720834 -0.083489835 -0.052045338 -0.028376946
-0.024810432 -0.016976865 -0.043961633 -0.045076977 -0.06566531 -0.055330273 -0.103206605 -0.06341468
-0.061699964 -0.0318193 -0.0370689 -0.027911017 -0.08024202 0.009923728 -0.054296218 -0.08618307
-0.049597476 -0.072571345 -0.006615314 -0.036390066 -0.04020601 0.0008387096 -0.03363404 -0.044917926
-0.06736259 -0.070871755 -0.01853846 -0.033757895 -0.03930589 -0.009319615 -0.11311349 -0.04305539
-0.046013203 -0.029865805 -0.05058384 -0.046385072 -0.043252956 -0.085138574 -0.07793526 -0.045766044
-0.04471258 -0.043549266 -0.14935285 -0.033906113 -0.039562706 -0.07564032 -0.06730195 -0.060162775
-0.03889389 -0.087224044 -0.0913282 -0.028264241 -0.011432368 -0.0039802105 -0.029010197 -0.023840679
-0.015726566 -0.04143947 -0.039356343 -0.054472186 -0.051329073 0.0027212717 -0.02863741 -0.0717128
-0.09166577 -0.08435024 -0.14158478 -0.01869273 -0.062842086 -0.046785045 -0.020096378 -0.035467517
-0.04550824 -0.060228873 0.03417829 -0.027759105 -0.007467238 0.020886734 -0.10645568 -0.040655248
-0.0722866 -0.101151414 -0.04660024 -0.031947218 -0.07377749 -0.077153556 -0.044031817 -0.07435888
0.0058469507 0.0033166828 -0.02187455 -0.0360389 -0.006980971 -0.004783225 -0.038874503 -0.07853139
0.012993351 -0.0721588 -0.00085064856 -0.004816398 -0.043749165 -0.051636584 -0.0074291797 -0.028694686
-0.08626836 0.0020166265 -0.05233958 -0.052678786 -0.068668164 -0.013779666 -0.05933066 0.010685662
-0.03730973 -0.08420202 -0.01759386 -0.062897645 -0.033647608 -0.065913975 -0.087909244 -0.06729609
-0.008885844 -0.048702195 -0.055940922 -0.04501256 -0.016330514 -0.08105148 -0.0587721 -0.108937785
-0.06918325 -0.08236678 -0.041614566 -0.021141393 -0.037350673 -0.05290024 -0.016685938 -0.06977054
-0.016588038 -0.06140564 -0.0975274 -0.08048567 -0.035718814 -0.06394628 -0.078776345 -0.046869516
-0.06696794 -0.055540342 -0.040773313 -0.025155757 -0.020543816 -0.063820876 -0.062259264 -0.021872735

batch_norms.0.running_mean f4 [512]
00000000: 8e36 243d 443e 113e ed98 c03c e7fb a53c
00000010: 2b49 013d a5a4 7c3a 1f8a d9bc a6b7 953d
00000020: bb26 90bc 18f4 b03c f22f c13d ffdc 4d3d
00000030: 6c71 e13d 5073 acbd dd7e b0bd 9d6d 4e3c
00000040: d5c3 453d 11d2 6a3d ae8c be3d 67d6 91bd
00000050: 2fa6 b83c 8ca6 a7bb b946 753d d9e5 a93c
00000060: 0cbf 24bd 9134 5fbc a9c9 0abd 9ebd da3c
00000070: 2a41 2abd f4f4 bd3b e2aa 45bc d31d 3d3c
00000080: fce3 ef3d 18ff fdbb 4e94 2a3a 907e 823a
00000090: 50d9 013d 10f0 913d 8ee1 f43c 698b 22bd
000000a0: 4d64 11bd 07b6 723d 05d5 c9ba 817a a2bd
000000b0: 6706 6a3d 8b79 8c3d 1f02 b5bb 875b 953c
000000c0: 8fc8 3dbc 8f82 e7bc 7d2c cfbb a88e 043c
000000d0: 4190 fe3a 348a 8b3b 9cb5 343d 1b03 e7bc
000000e0: c833 423d 33e8 ddbd cc08 823c 34e1 9dbb
000000f0: 09e5 c0b9 1265 c8bc 9520 853c 70a5 9dbd
00000100: 095e 113d c030 58bc 6297 71bd 3366 7bbd
00000110: 7bd6 913c e6c7 abbd 99f0 593d 115f b73c
00000120: 7c6e 37bd 64c4 003d aa33 95bb 1f16 243c
00000130: 0b4e 4a3d 7fb0 663d 7c44 833b af1e 443d
00000140: eeb3 f63d 4a02 c23d e798 52bd 59ab af3c
00000150: 1d5a 7e3d f06f f43c 1c6f f33d 2abe 2b3b
00000160: a600 08bc 0a18 b7bd 4ad7 ccbc 2881 993d
00000170: 88be 893d 5e1d 3d3a c92a 8a3c bc63 d63c
00000180: 55ff 0f3c afe1 cf3d 8b62 45bd acea c73c
00000190: 6530 bf3c abbf b2bc 92d7 c93c 47a8 6d3c
000001a0: d5ec 1bbd 4b88 3dbb 1f15 733b 55f2 cf3c
000001b0: d83e 9e3d bdf7 00bd eb08 553d ccbb 8a3d
000001c0: a916 a7bc f2ce 42bd fb25 ae3d 5715 47bc
000001d0: 832e 123d edf0 31bd 9b8c 6d3c b878 ca3d
000001e0: 57f3 1e3c 1f01 223d a1ad 413c 442c 373d
000001f0: f296 2c3c b48c 2b3d 2a70 e2bc 72ae b23c
00000200: 6712 763d 2877 aebb 62a3 66bc 8dc0 94bd
00000210: 65a1 c1bd bf8d 353b 652c 043d 9188 0c3d
00000220: ae55 07bd cc86 68bd 1be5 95bb 3547 f2bb
00000230: 4c4f 2e3d 0a23 0fbe 349e fd3d 0737 a53d
00000240: 2080 093e b941 d3bc 3eee e03d 6b47 be3c
00000250: c95e 46bd 707f fb3d 525f 913d 0b56 96bc
00000260: 2c9c 863b 60f2 b93d 1c9c b63c debf f8bb
00000270: 8d4d 803c 5ed0 773c 814e 273d bd03 5a3d
00000280: 2080 5bbd 9307 073d b25c 66bd 6244 333d
00000290: 9827 bfbc ade2 81bd 48b2 323d 0b7a c43d
000002a0: 5017 df3c 1db0 cd3c 66ff 1e3e 5685 953c
000002b0: 34b1 b63c af28 723d d5f1 b13c 1587 2dbd
000002c0: ddac 6e3b be5c a73c 107e ffbc feb5 593b
000002d0: 426d 30bd 793b 1e3c d9ac 29bd 51f9 fa3c
000002e0: 57da 0e3c 9668 9d3d 4e83 cb3b 3b41 e43c
000002f0: e9bf 0f3e 3830 b73d 75d3 a93d 4f81 ef3d
00000300: 385c 2a3b b0b7 06bc b9ad b83a d79f a73c
00000310: 1e50 49bc 8dd1 243c 6be6 70bc a189 593d
00000320: 1252 093d 6f71 8a3d 3821 7dbc e98b 12bc
00000330: 2082 1abd ea2a c13c 2de8 623b 86c9 afbc
00000340: 7862 873d 4204 04bb d6f5 ce3c 4428 ab3c
00000350: 8b85 913d 4e67 043d 10c4 b3bd ab7c 123c
00000360: d282 803b 27bb 263c 44ce dbbc 83bd 2a3e
00000370: 9191 4a3c 5ca8 9b3c 724d f6bb e006 953d
00000380: 1ba6 d53c 6b7b 04bd a3ea 8cbd 77be 563d
00000390: 53aa 2c3d 8c20 973d 0dda 123e 10a2 f73c
000003a0: 9ded 3abd eb8c 8b3c bb3c babd 1ac4 393c
000003b0: 6f76 42bd 6849 58bd d6ba 693c 80a9 393d
000003c0: b33f 07bd ab7c 943d 99c3 7eba dcbc 643d
000003d0: d0d9 0a3e e4a6 15bc 561a fe3c 7423 e13c
000003e0: 9fa9 a5bc 32d2 003d 45b7 003d d3f8 a9bb
000003f0: cf1e abbb 6660 f53b ec10 633d 514c da3b
0.04009109 0.14183909 0.02351042 0.020261718 0.03156392 0.0009637571 -0.02655512 0.07310419
-0.017596593 0.021600768 0.09432973 0.050259586 0.11007962 -0.084204316 -0.08617947 0.012599376
0.048282463 0.05732924 0.09304176 -0.07120972 0.02254018 -0.0051162895 0.0598819 0.020739483
-0.04022126 -0.013623373 -0.033883724 0.026701745 -0.04156605 0.005797023 -0.012064667 0.011542755
0.117134064 -0.007751357 0.00065070845 0.0009955931 0.031701386 0.071258664 0.02989271 -0.039683733
-0.035496045 0.059255626 -0.0015398568 -0.07933522 0.057135012 0.0685912 -0.0055239345 0.01823212
-0.011583461 -0.028260497 -0.006322442 0.0080906525 0.0019421653 0.0042584185 0.04411851 -0.028199723
0.047412664 -0.10835304 0.015873335 -0.004818106 -0.00036791738 -0.024462257 0.016250888 -0.0769757
0.03549007 -0.013195217 -0.05898226 -0.06137676 0.017802468 -0.08387737 0.053207967 0.022384198
-0.0447831 0.031437293 -0.004553278 0.01001504 0.049390834 0.056320664 0.0040059667 0.047880825
0.120460376 0.09473093 -0.05141535 0.02144401 0.062097657 0.029838532 0.11886427 0.0026205876
-0.008300936 -0.08940132 -0.025005002 0.07495338 0.06725794 0.0007214154 0.016866105 0.026170604
0.008788903 0.101504676 -0.04818968 0.024403892 0.023338506 -0.02181991 0.024638925 0.0145054525
-0.038067658 -0.0028920348 0.0037091447 0.025384108 0.0772683 -0.03148626 0.052010458 0.06774101
-0.020396547 -0.04756064 0.08503338 -0.012151084 0.03568889 -0.043442655 0.014498855 0.098863065
0.009701571 0.03955185 0.0118211815 0.04471995 0.010534035 0.04188223 -0.027641375 0.021811698
0.060076144 -0.005324263 -0.014077039 -0.07263289 -0.09454612 0.0027702895 0.0322689 0.034309927
-0.033040695 -0.056769177 -0.0045744306 -0.0073937424 0.042556092 -0.1397821 0.123836905 0.08067136
0.13427782 -0.025788175 0.10982941 0.023227414 -0.048430238 0.12280166 0.07098259 -0.018351575
0.0041079726 0.090794325 0.022291236 -0.0075912317 0.01566198 0.015125362 0.04084635 0.05322622
-0.053588986 0.032966208 -0.056240745 0.043766387 -0.02333431 -0.06342063 0.043627053 0.0959359
0.027232796 0.025108391 0.15527114 0.018252056 0.022301294 0.05912083 0.02172176 -0.042365152
0.0036418953 0.020429965 -0.031188041 0.0033220048 -0.043072946 0.009657734 -0.041424606 0.030636461
0.008719048 0.07685964 0.006210721 0.027863136 0.14038052 0.08944744 0.08292285 0.116945855
0.0025994908 -0.008222505 0.0014089859 0.02046196 -0.012287168 0.010059726 -0.014703373 0.05310977
0.033525534 0.06759917 -0.0154498145 -0.00894449 -0.037721753 0.023580033 0.003462325 -0.021458399
0.06610578 -0.002014414 0.025263708 0.020893224 0.071055494 0.03232508 -0.0877763 0.008940856
0.003921845 0.0101764565 -0.026831754 0.16673855 0.012363807 0.019001178 -0.0075165564 0.07276702
0.026080182 -0.032344263 -0.06880691 0.052427735 0.04215462 0.07379255 0.14340992 0.030228645
-0.045636762 0.017034968 -0.09093615 0.011338258 -0.04747623 -0.05280438 0.014265737 0.045327663
-0.033019733 0.07250341 -0.00097184774 0.055844173 0.13559651 -0.009134028 0.031018417 0.027482726
-0.020222483 0.031450458 0.03142478 -0.005187133 -0.0052221785 0.007488298 0.05543606 0.0066619297

batch_norms.0.running_var f4 [512]
00000000: efac 103a 6c36 873a 6b41 973a 592f d339
00000010: fde4 6d3b c09f e63a d344 9d3a 07a5 e03a
00000020: 11ab 963a 713b 613a 17b7 ad3a b385 463a
00000030: 594b c33b 507b 883a 7204 493b 131e 6a3a
00000040: 248e ef39 7e63 173b f8ba 583b 8c0a cb3a
00000050: 9738 703a 6eb7 8639 95a8 183b cde8 293b
00000060: 8ba4 ec3a 94b1 9e3a 8baf 133a 731d 1139
00000070: 9dd5 413a 1724 3c3a fff7 4d39 c99b c639
00000080: 9fdf 9e3b d77d 0e3b dc83 353a f7ab 7838
00000090: b622 ba3a 6cbb 923a 8ed8 f83a 7b2b b03a
000000a0: b0ee b73a 625c d83a 2dc2 8739 7d8b f03a
000000b0: 34ac d93a fd92 063b 0743 1738 b22c d539
000000c0: e901 393b 863c 1b3a 7852 033b d673 5539
000000d0: 36b4 b83a 7cc9 093b 240c 6a3a b266 9b3a
000000e0: e446 a53a f0a6 493b 19a6 c13a 432c 5f3b
000000f0: aefa 9e3b c0c5 fa3a 53d7 203a 374c 223b
00000100: 17f8 5b3a 3df2 933a c26d a63a ec3d 9f3a
00000110: 7f9b 103b ade2 733b b915 873a da4f f939
00000120: 8976 853a e0cf f939 1c45 0c39 30b1 d938
00000130: e0b5 da3b dc9a 9e3a 3cbf d23a 3529 a839
00000140: 2afa 013b db0c 533b b926 123b 2290 673b
00000150: f732 0b3b 5ebf be3a 96c0 f03a 16e0 6038
00000160: 1ba2 313a ff20 233b cc8e 633a aa09 203b
00000170: 289d df3a c9e7 d03b 004d 243b bdbe b33a
00000180: af58 733b 8518 0f3b f257 c83b b93c f139
00000190: 5729 da3a ca96 b03a a9ba a63a 8109 523a
000001a0: c1e9 d739 49c2 8039 0772 913a 377d c439
000001b0: b57c ba3a 6025 bb3a ab1f d13a 9bf5 fc3a
000001c0: 32a5 743a 8718 893a c346 c33a 017a 8339
000001d0: ea2e d93a 8c9f 0b3b 5e29 b339 f8d6 e93a
000001e0: efe0 ec3a 446c 4d3b 9b09 1039 e1b0 603a
000001f0: 8ee4 d43a a543 3d3a 7066 c33a c7d1 b939
00000200: e654 ee3a c02f 1e3b c277 2e39 37fd d03a
00000210: 320b 073b db06 3438 e22f 543b e41d 373a
00000220: 3040 d33a d4c1 3f3a ce52 263a f8ed 4c3b
00000230: bce0 f03a 12b3 7d3b 45da 833b 6a4d ad3a
00000240: 70db b63b 73e7 ac3a fa5a 543a 2a74 883a
00000250: bc47 3b3b 0e04 c03b 12d6 9b3b b328 9a3a
00000260: d143 a03a 9609 ea3a 9cb6 a23a 10db 4f39
00000270: f43a c63a 96ed fc39 2b85 943a 47cc 183b
00000280: 157b 823b 67c1 303b 734a a43a c527 823b
00000290: 86b1 a53a 2d92 743a 5656 4a3a 4a1c a23a
000002a0: 6840 c83a d686 c63a da47 e93b a86c d839
000002b0: 697b 173a ee35 603a c5c6 a93a 4fe3 7a3a
000002c0: 4070 c839 2d93 273a 61ef 8e3a 1a6e 923a
000002d0: 2cb8 9b3b 52ec ed39 3f60 3c3b dcb8 093b
000002e0: ecc8 bd3a ce27 b63a 505a 8d3a c880 193a
000002f0: 5777 793b 123c 163b 985b c63a 2dc2 523b
00000300: d4c0 0e3b 97f9 3b38 c0d8 c339 fa70 703a
00000310: 5ae1 fc38 e805 4839 123d ce3a a53c 1c3b
00000320: 3915 ec3a 90bd 3c3b aafa 4f39 eab1 cb3a
00000330: c16c 443a 1f80 c93a e1bb 7537 ef6b 1639
00000340: ef78 2b3b d8bb 9037 8ffc 9c3a 004c 9a3a
00000350: ca87 9b3a 28d7 013a 938e b03b 0d65 853a
00000360: 46de 493b d471 793a 00bf c638 e5f1 023b
00000370: 6d22 e43a 39fa 633a adef 603a 97fe 793b
00000380: ea29 f93a 95ec c73a 272f 903a f86b a03a
00000390: 92c3 853a 0ed9 ba3a 6702 a13b 4821 8a3a
000003a0: dd9a e33a 3bfa 0e3b 12d2 553a 73a0 013b
000003b0: fe12 c03b b91e 7c3a 8c84 bb39 80aa a03a
000003c0: 1388 ee3a a57d 213b 055c 3f3b d015 013b
000003d0: ff6e 1e3c 3a03 563a 3c7c 3c3b 44b8 893a
000003e0: c2cf 4e3b 4785 203b 1d57 743a 9aa9 e239
000003f0: cbdc 2e3b cb60 2b3a ac8a 4e3b 7be5 f13a
0.0005518933 0.0010315902 0.0011539882 0.00040280333 0.0036299818 0.0017595217 0.0011998661 0.0017139026
0.0011495074 0.00085919263 0.0013253418 0.00075730233 0.00595991 0.0010412727 0.0030672816 0.0008930873
0.00045691535 0.0023100073 0.0033070426 0.0015490814 0.0009163706 0.00025695137 0.0023293842 0.0025926114
0.0018054409 0.0012107366 0.0005633763 0.00013839248 0.00073941966 0.00071770087 0.00019642709 0.00037881572
0.004848435 0.0021742487 0.00069242506 5.9287962e-05 0.0014201018 0.0011194772 0.0018985437 0.0013440693
0.0014032926 0.0016507024 0.0002589388 0.0018352118 0.0016607107 0.002053439 3.606363e-05 0.00040659826
0.0028229898 0.00059217995 0.002003817 0.00020356415 0.0014091793 0.0021024635 0.00089282007 0.0011856167
0.0012609628 0.0030769669 0.0014774232 0.0034053482 0.0048516607 0.001913242 0.00061356014 0.0024764666
0.0008391155 0.0011287403 0.0012697505 0.0012149191 0.002206534 0.0037213967 0.0010306156 0.00047552475
0.0010182421 0.0004764786 0.00013377186 0.0001038037 0.006674513 0.0012100595 0.0016078721 0.0003207416
0.0019832947 0.0032203707 0.0022300913 0.0035333713 0.0021240094 0.0014552881 0.0018367942 5.3614458e-05
0.000677617 0.0024891493 0.0008680641 0.0024419823 0.0017060386 0.006375287 0.002507031 0.0013713461
0.0037131717 0.0021834683 0.0061139995 0.00046012344 0.00166444 0.0013472673 0.0012720424 0.00080122805
0.00041182156 0.00024558816 0.0011096605 0.00037477326 0.001422784 0.0014278106 0.0015954872 0.001929927
0.00093324773 0.001045958 0.0014898408 0.00025077167 0.0016569768 0.0021304814 0.00034172361 0.0017840555
0.0018072407 0.003134505 0.00013736488 0.0008571279 0.0016242431 0.00072198577 0.0014907848 0.00035442246
0.0018183261 0.0024137348 0.00016638546 0.0015944605 0.0020606038 4.292173e-05 0.0032377173 0.000698535
0.0016117152 0.00073149544 0.00063447363 0.003126977 0.0018377523 0.003871147 0.0040238225 0.0013221924
0.005580358 0.0013191536 0.0008100715 0.0010410596 0.0028576693 0.0058598584 0.004755744 0.0011761397
0.0012227242 0.001785564 0.0012414041 0.00019822665 0.001512377 0.000482422 0.0011331191 0.0023315118
0.0039819577 0.0026970746 0.0012534395 0.003972026 0.0012641407 0.0009329643 0.00077185535 0.001236805
0.0015277984 0.0015146385 0.007119161 0.00041279686 0.00057785824 0.0008552958 0.0012952915 0.0009570615
0.00038230605 0.00063924753 0.0010905081 0.0011171729 0.0047521796 0.00045380235 0.002874389 0.0021014726
0.0014479435 0.0013897361 0.0010784362 0.0005855677 0.0038065517 0.0022923988 0.0015133498 0.0032159195
0.0021782415 4.4816723e-05 0.0003735479 0.0009172108 0.000120582714 0.00019075687 0.0015734753 0.0023839858
0.0018011696 0.0028799511 0.00019834438 0.0015540693 0.0007493012 0.0015373266 1.4646882e-05 0.00014345323
0.0026164611 1.725361e-05 0.0011977124 0.0011771917 0.001186603 0.000495302 0.00538809 0.001017721
0.0030802651 0.0009515558 9.476952e-05 0.0019980606 0.0017405279 0.0008696649 0.00085806363 0.0038146132
0.0019009684 0.0015253002 0.0011000381 0.0012239208 0.0010205379 0.0014255361 0.0049136165 0.0010538483
0.0017364878 0.002181663 0.0008156608 0.0019779473 0.005861639 0.0009617615 0.00035766175 0.0012257844
0.0018198512 0.002464154 0.0029199135 0.001969684 0.009670018 0.0008163933 0.0028760573 0.0010507186
0.0031556939 0.0024493502 0.0009320842 0.00043232442 0.0026681896 0.00065375556 0.003151576 0.0018455231

batch_norms.1.weight f4 [256]
00000000: 5ef1 0b3d 10ad 823d 7de0 483d 8199 183e
00000010: ee80 833d 5b3c b03d 72f4 ad3d 711a f03c
00000020: 9743 ed3d 065d 533d 39d8 563d 2675 cb3d
00000030: c987 fc3d 1c23 2c3e 570a f63d b2f2 e83d
00000040: b669 943d 940d ee3d cd54 f93d f60e b33d
00000050: 2c23 be3d bc42 d93d a71f c63d 19fd fd3d
00000060: 1cde bd3d 19c5 d63d ca37 b03b 5563 c63b
00000070: acba a53d 5a3a 993d 748b 863d ee49 b33d
00000080: 1e25 2f3e 3f5a 42bc 0849 973d 4ae5 ed3d
00000090: 87b0 9fbb e1ec f73b de80 af3d 4f20 2a3d
000000a0: c52d 3f3d 89f9 d13c 518a d93b 39be 883d
000000b0: 89c1 853d 1fb1 653d a0a3 113e d588 483b
000000c0: 6bb3 c63d 3f7a eebb 4c16 193e 1b0b 9a3d
000000d0: 3b53 783d 78a3 da3d ceda bb3d 2753 a33d
000000e0: 8959 c83d 331d 443d ea37 603d 33e3 ee3d
000000f0: ec4e fc3c e372 7dbc bc8b a03c 35e2 2b3e
00000100: 0995 a63d 5952 373c 2f34 ed3b 55b9 2a3d
00000110: 8292 753d d992 183e ddf5 50bb e13f 883d
00000120: 1687 b63d 2192 983d 05ab e43d 6937 f53d
00000130: e5a9 dd3c 623e e13d b29f 05bc aa8d 9e3d
00000140: beaf a43d 6e9f 0e3e 8f12 223e 9dc5 1a3e
00000150: 3402 b23d d688 a73d 9c2c b73d 3454 1b3d
00000160: 615b 53bb f541 973d d945 783d beb2 193e
00000170: e9e6 863d 6696 bbbc 2e86 113e 838f bd3c
00000180: 2009 173d c197 a1bb db77 1e3e 5b91 323d
00000190: dbb7 733d 60a2 e63d 63b9 373c f4d3 e43d
000001a0: a2ea fd3d 2dd1 a73d 28fb b33d 29ef 223e
000001b0: bb92 b93d 3381 1a3d add6 883d 1108 aa3c
000001c0: 9f24 013d ae1c 1c3d 2d8d 943d 4147 ff3d
000001d0: ff32 a43d 8832 e93d 9a45 a53d 38b5 1c3e
000001e0: 217b e53d 6fe9 743d 75f8 613d 5c10 ac3d
000001f0: fbc9 a23c 34da a43d 3cdc 843d 9cc4 c93d
00000200: 309e 6a3d 9f2c 9f3d 3608 c43d ead8 e63c
00000210: fb4a 173e 7626 df3d 3812 b83d 0c61 4d3d
00000220: 96d9 ae3d 1ecc 3b3c 7630 323d 87da c33d
00000230: 3218 5f3d dc88 9a3d c884 fa3c 6396 b33d
00000240: f1e2 f53d 7f4b 4b3d 8eaf e73d 0a03 a23d
00000250: 2b4c 263d a2f5 c13d 3150 a63d 59b9 903d
00000260: ec88 ad3d 3355 b73d f346 053e 0244 9f3d
00000270: d3b3 8a3d 5ed2 5d3d c237 9c3b e91b d53d
00000280: 3aad 34bc 2fc4 b63d aa58 003e 4bad 363d
00000290: fbe5 0f3d d5ba 9f3d 3c21 223e a47a 8e3d
000002a0: 49a8 cc3d 4b60 033d 9ccb da3d 53d8 463d
000002b0: 5461 853d e719 063e 2241 a43d 7525 953d
000002c0: e50d 973d b008 fa3d 1712 483d 421b 0f3d
000002d0: 66b5 3fbc 39b4 9d3d 6ae4 b03d 64a2 b33d
000002e0: a942 983d 2925 f83d 80e4 0a3e 76b6 293d
000002f0: 2a89 713d f140 0f3d 5d31 dd3d f388 6c3d
00000300: 9fdd 6e3d 520c 2f3d c769 5d3d cda2 9c3d
00000310: 1103 3e3d 3830 ce3d 9703 983d eef1 cc3d
00000320: 6ae3 d83d d666 003e 5cca 9c3d 3610 013e
00000330: 8f2d 623d e546 413d a76b b13d 0cd3 283d
00000340: 74e7 a83d 37ee d63d 8452 423e 27b5 cb3d
00000350: 72b7 903c a19b 223d 198f e53d 00b9 ce3d
00000360: b51a cf3d 7bae 913d 8104 213d 297e 323d
00000370: 117c 1c3d 28de 813d 84a1 c63d c0af c33d
00000380: 3e8d 1c3e fc3a 193d c28e 123d cf48 4239
00000390: 0ccb 083c 01a1 b13d c724 353d 74c9 793d
000003a0: 8464 113e ff7f 903d 3c79 033e d93e 243d
000003b0: 4ba1 123e 40b3 4b3d c328 a9bb aeed cd3d
000003c0: d0d4 573d 4955 1a3e 8436 ae3d 830f 583d
000003d0: a043 d83d 58d6 a33d fbf9 d83d bc15 b43d
000003e0: 10b6 cb3d 035c d6bb 8f91 853d d26a ac3d
000003f0: faf4 8c3d e6d0 0b3e 6abb 443d 81c3 b23b
0.034165733 0.06380665 0.049042214 0.14902307 0.06421076 0.08605262 0.0849389 0.029309483
0.11585157 0.051602386 0.0524523 0.09934454 0.123305865 0.16810268 0.12013691 0.113744155
0.07246725 0.116236836 0.121743776 0.08743088 0.09284052 0.10608432 0.09674006 0.1240179
0.092708796 0.10486812 0.0053777443 0.006054322 0.080922455 0.07481833 0.06569567 0.08754335
0.17104003 -0.011862337 0.073869765 0.11615999 -0.0048733386 0.00756608 0.08569501 0.041534718
0.04667451 0.025631683 0.006638803 0.06676907 0.065310545 0.05607712 0.14222574 0.0030599136
0.0970219 -0.0072777565 0.14949912 0.075216495 0.06062625 0.106757104 0.09172593 0.079748444
0.097827025 0.04787941 0.054740824 0.116644286 0.030799352 -0.015469286 0.01959788 0.1678551
0.08133895 0.011189067 0.007238887 0.041680653 0.059954174 0.14899768 -0.0031884827 0.06652809
0.08912484 0.07449747 0.11165432 0.11973459 0.027058551 0.10998227 -0.00815575 0.07741864
0.08041333 0.13928005 0.15827392 0.15114446 0.086918265 0.08180396 0.089440554 0.0379221
-0.003225051 0.07385627 0.060613487 0.15009591 0.06587011 -0.022898864 0.14211342 0.02313972
0.036873937 -0.0049314206 0.15475409 0.043595653 0.05950151 0.11261439 0.011213633 0.11173239
0.12398268 0.08194194 0.08788139 0.15911545 0.0906119 0.03772087 0.06681571 0.0207558
0.031529065 0.03811329 0.0725349 0.124647625 0.08017539 0.11386591 0.08069916 0.15303504
0.112051256 0.059792932 0.055168588 0.08401558 0.019871702 0.080494314 0.06487319 0.098519534
0.057279766 0.07772183 0.095718786 0.028179605 0.14774697 0.10896008 0.0898785 0.05014138
0.08537595 0.01146224 0.043503247 0.09563165 0.054466434 0.07545635 0.030580893 0.08768918
0.12006176 0.049632546 0.11312781 0.07910736 0.040599983 0.09470679 0.08120764 0.07066602
0.084733814 0.08951797 0.13015346 0.07776643 0.0677258 0.0541557 0.004767389 0.10405714
-0.011027629 0.08924138 0.12533823 0.04459886 0.035131436 0.07799307 0.1583299 0.069569856
0.09993035 0.032074254 0.10683367 0.048546147 0.065127045 0.13095818 0.080202356 0.07282535
0.07375697 0.12208688 0.048845377 0.034938104 -0.011700964 0.0770039 0.086373165 0.08771208
0.074345894 0.12116463 0.13563728 0.041433774 0.0589687 0.034974042 0.10800431 0.057747792
0.058316823 0.04273636 0.054055955 0.07648239 0.046389643 0.10067791 0.0742256 0.10007082
0.10590251 0.12539229 0.076557845 0.1260384 0.05521923 0.04718675 0.08663111 0.041216895
0.08247271 0.104946546 0.1897679 0.099466614 0.017665599 0.0396992 0.11208934 0.1009388
0.10112516 0.07113358 0.039310936 0.043577347 0.038204256 0.06341201 0.096987754 0.09555006
0.15288255 0.037409768 0.035780676 0.00018528405 0.008349191 0.08673287 0.044224527 0.060983136
0.141985 0.07055663 0.12839216 0.040099 0.14319341 0.049731493 -0.00516233 0.100550994
0.05269319 0.15071596 0.08506492 0.052749168 0.105597734 0.07999867 0.10594555 0.08793208
0.09946835 -0.0065417304 0.06521904 0.08418812 0.06882663 0.13653907 0.048030294 0.005455435

batch_norms.1.bias f4 [256]
00000000: 6254 cabc 5f5c 11bc b9a8 1dbd 1171 793b
00000010: 43f2 bfbc 2ec1 4fbd 1263 a4bc 6b01 fbbc
00000020: 91d7 b1bd 97cf 27bd 52d6 74bc b3d0 8b3c
00000030: e6bf 1dbd a278 a6bd a7a9 32bc 974d 39bd
00000040: a68e 343c b9df 5e3c f16a 73bd cc48 febb
00000050: 08c4 9abd 23ce debc 58bc e9bc 2430 5a3c
00000060: d238 15bd 688b 3bbd 9c0a 20bd a188 b9bc
00000070: 2708 66bc f4b1 a0bd 6120 2b3c abbc b63c
00000080: 2169 f0bd 5443 c2bc fb9d 8cbd 2b91 f93c
00000090: 3d18 43bd 531c 54bc d103 393c e025 2e3c
000000a0: 28e4 c1bb a431 2b3d 5c2b d3bb 3bcb acbc
000000b0: 2057 09bd c653 cdbb 5cc7 d9bc 1669 ddbb
000000c0: cd28 05bd a717 0ebd 5064 d3bd 54cd 84bd
000000d0: 8c1d 2dbd ee07 933c f46b c6bc 9fb0 e4bc
000000e0: b492 b5bc 59db 28bd ddf2 b9bc 9056 3dbd
000000f0: 184b 5cbd 8a07 22bd 1887 c6bc b8e1 f03a
00000100: ce00 01bd d5b9 7f3b 04a7 c7bc 2925 e8bc
00000110: 0913 06bc f586 bebd c17b b3bc 67a6 91bc
00000120: 75f8 b2bc 0545 92bc c9e8 ffbd 876a 22bb
00000130: 27ed 20bd a835 82bc dfe7 2abc a104 093d
00000140: bc98 81bd e2f0 93bd a485 5cbd 7834 eabd
00000150: 97e3 393d e3f7 23bc 1d6e 8dbc 4e72 c5bd
00000160: 5547 d6bc 2d1b 5bbc c361 85bd 434f 69bd
00000170: 2074 51bd 455f 53bd a778 3dbd f428 adbb
00000180: 250d c3b9 0c6d 19bc d972 3bbd 45c7 d2bc
00000190: 5181 08bd 6856 3bbd 7495 b73a d4de 0fbd
000001a0: 68e7 29bd bb9f d13b 82be d4bc 17cd 15bb
000001b0: 4ea8 c9bc 12d8 98bc 7e33 0abd 1132 58bd
000001c0: ae35 a2bd b190 35bd 0abc 5bbc 5805 7abd
000001d0: 04a4 b1bb 8c76 6e3c 2af4 82bd 3cb7 8ebd
000001e0: 2574 b8bc 9b84 053b e5a8 44bd 7db7 39bb
000001f0: b273 d2bc 82bc c9bc 6e01 e1bb 2696 4cbd
00000200: 725d babc 088f 9abc b5c8 abbc 1fdd 27bd
00000210: f915 ddbc 6205 eb3c ac3f 363d 048b 85bd
00000220: 4da0 88bc 1544 20bc 4965 f33c 5fd2 11bd
00000230: d73b 00bd e722 b6bc b2ac ba3b 4c02 8fbc
00000240: 19ef aebc e5f6 19bd 00c3 b6bc 2fde d9bc
00000250: f422 f7bc 334c a13c 8613 46bc aca9 693b
00000260: 49d9 85bc c860 c03b 162f 4dbd f26d 44bc
00000270: 886b e9bc 04d2 d5bc ebfb e2b9 99aa 9cbd
00000280: 5a72 33bd 7682 263d 8e3a 8cbd 170e af3b
00000290: beb6 01bd 0b2a 8abb bd47 63bd 0896 8cbd
000002a0: 6a3a 3b3c 5a3b 723c 0967 a1bd c436 69bc
000002b0: 9888 abbc 5ee0 39bd 23bc 9eba 429d 28bd
000002c0: 7d14 53bc 0529 df3c 9f44 48bd 6640 02bd
000002d0: 07d5 bdbd 4122 fabc e3bb 9bbd f1fd 97bc
000002e0: fadf 9cbb 48c8 d33b 4c1b 9dbd 43a9 1bbb
000002f0: f03b 1cbd b09d 703d d361 abbd bbca 06bd
00000300: 0dc3 aeba 6afc 09bb c228 b5bc 9ab8 c9bc
00000310: 199d a4bc 5533 81bd 8c9b 1ebb f35b 8bbc
00000320: 84d7 6cbb 0366 a1bc 5c18 dc3b 78cf 65bd
00000330: 9cbc 91bd 7a61 44b9 19ed 353c c2d4 2bbd
00000340: 9813 b039 18e7 133c 0aeb ecbd d753 e3bb
00000350: 29e5 09bd 0c43 7abc 6fcb aebb 4af7 96bb
00000360: e904 27bd 243a e33c 46dc 31bd 3101 39bd
00000370: 27f6 3fbc 6a95 453c 2418 8fbc d68a 8ebd
00000380: be07 0cbd 30b9 ddbc 1aef f6bc d597 e9bc
00000390: 50d3 dcbc 3d9f 04bc 89f8 9ebd 3fe3 31bd
000003a0: b256 83bd 61c9 01bd 2658 283d adf2 9bbb
000003b0: 5979 b5bc 7cc3 8e3c 7920 4fbd 6c19 5cbc
000003c0: 21de f9bc 6ee4 2abd 9e54 ffbc e86c 973c
000003d0: 4429 3fbc f78d 84bc 59e4 d0bb 2315 0abd
000003e0: 5a00 32bd 9bac d4bc 8d52 0dbd 01b5 9abd
000003f0: 06a6 2abd e932 59bd c6d8 22bc 420e 28bb
-0.02469844 -0.008872121 -0.038490985 0.0038061778 -0.02343095 -0.05072134 -0.020066772 -0.030640325
-0.08683694 -0.040969457 -0.014943676 0.017067289 -0.038513087 -0.08128478 -0.010904706 -0.04524001
0.011020338 0.013603144 -0.05942816 -0.007760143 -0.07556921 -0.027197903 -0.028532192 0.013317142
-0.03643114 -0.045787245 -0.039072618 -0.022648158 -0.01404003 -0.07846442 0.010444731 0.02230676
-0.11738802 -0.023713745 -0.0686607 0.03046473 -0.047630537 -0.012946206 0.011292414 0.010629147
-0.005917091 0.041795388 -0.006444378 -0.021093002 -0.033530354 -0.00626609 -0.02658432 -0.006756912
-0.032509614 -0.034690525 -0.103218675 -0.06484476 -0.042264506 0.017948117 -0.024221398 -0.02791625
-0.02216468 -0.04122481 -0.022698814 -0.04622513 -0.053782552 -0.03955797 -0.02423434 0.0018377816
-0.031494908 0.0039020677 -0.024371631 -0.028338032 -0.008183249 -0.09303085 -0.021909596 -0.017779542
-0.02184699 -0.017855177 -0.12495572 -0.0024782734 -0.039288666 -0.015894726 -0.010431259 0.03345168
-0.0632796 -0.07223679 -0.053838387 -0.11435789 0.045383062 -0.010007831 -0.01726442 -0.096409425
-0.02615706 -0.013373178 -0.06512787 -0.056960355 -0.051136136 -0.051604528 -0.04625764 -0.005284423
-0.00037203092 -0.009364378 -0.045763824 -0.025729785 -0.03332645 -0.0457367 0.0014006332 -0.035124615
-0.04148045 0.006397215 -0.025969747 -0.0022857839 -0.024616387 -0.018657718 -0.033740513 -0.052782122
-0.07920395 -0.04432744 -0.013411531 -0.061040252 -0.0054211635 0.014554631 -0.06394227 -0.06968543
-0.02251632 0.0020373228 -0.048012633 -0.0028338127 -0.025689933 -0.02462602 -0.0068666255 -0.04994788
-0.022749636 -0.01886703 -0.020969728 -0.040982362 -0.026988016 0.02868909 0.044494316 -0.06520656
-0.016678 -0.009781857 0.029711382 -0.035601016 -0.031307068 -0.02223344 0.0056968564 -0.01745715
-0.021354245 -0.037588973 -0.02230978 -0.026595203 -0.030168034 0.019689655 -0.012089616 0.003565411
-0.016338961 0.005870912 -0.050093733 -0.011989104 -0.028493658 -0.02610112 -0.00043293773 -0.076497264
-0.043810226 0.04065176 -0.06847106 0.005342256 -0.031668417 -0.0042164377 -0.055488337 -0.06864554
0.011427501 0.014784658 -0.078809805 -0.014234249 -0.020939156 -0.04537999 -0.0012110512 -0.041165598
-0.012883303 0.02724124 -0.048893567 -0.031799696 -0.09269147 -0.030533912 -0.07604196 -0.018553706
-0.0047874423 0.0064630844 -0.07671222 -0.002375201 -0.0381431 0.058744133 -0.08368268 -0.032908183
-0.0013333276 -0.0021054992 -0.022114161 -0.024624158 -0.020094441 -0.06308619 -0.00242016 -0.017011618
-0.00361392 -0.019701963 0.006716771 -0.05610606 -0.071160525 -0.0001872833 0.011103892 -0.04195095
0.00033583934 0.009027265 -0.11568268 -0.0069374847 -0.03366581 -0.015274774 -0.00533431 -0.004607116
-0.040776167 0.027737685 -0.04342296 -0.04516715 -0.011716402 0.012059549 -0.017467566 -0.069600746
-0.03418707 -0.027065843 -0.03014331 -0.028514782 -0.02695623 -0.008094606 -0.07762248 -0.04342961
-0.0641302 -0.03168619 0.04109969 -0.004759154 -0.02215259 0.017427199 -0.050568078 -0.013433795
-0.030501427 -0.041721754 -0.031168278 0.018484548 -0.011667553 -0.016180975 -0.0063748774 -0.033711564
-0.043457367 -0.025961211 -0.034502555 -0.07554055 -0.04166224 -0.053027067 -0.009939378 -0.0025643264

batch_norms.1.running_mean f4 [256]
00000000: 3ea3 3c3b 60de 72bc 9b95 963c 4be4 0a3d
00000010: 2814 0e3c 7900 7dba e706 bebb f9c5 993b
00000020: fe37 23bd 7562 e0bb 3147 533c d0db 1cbd
00000030: 201c 6abc 117b c93b 7270 0b3b 025b 393c
00000040: 7ac8 94bb 29f9 2cbc a683 3e3c 8b5d da3c
00000050: 243a c8bb 4e88 563b 587a 873a 904f c13c
00000060: b276 bc3c 8bbf 4a3c dd97 8938 1138 2cbb
00000070: f63b cc3c f71b 003d 3a56 c6bb 85e9 85bc
00000080: ebba 513c fa20 86ba b256 833c 4a13 cb3a
00000090: 57a9 0c3b f607 7a39 a1c7 85bb cb8b 923b
000000a0: 2c58 a43b f4af e6bc 4a3b ee39 2019 7f3c
000000b0: 36c5 07bc 353b 10bc 4fa9 acbc 529b 9fb8
000000c0: ea88 a63c 93a3 adbb 4c2b ac3b fc5c 38bd
000000d0: 3ce3 813c 3a86 36bc 69b3 4a3c ac37 00bc
000000e0: 0a75 edbb 6cc6 d1bb 43ff 7e3b a73f ccbc
000000f0: 92f3 e6bc ffee 9739 097d ecba fd4a 643c
00000100: bfa5 ccbc ce46 94bb d4ca a23a 6d1a 133c
00000110: d55b a8bb bb45 3bbd 72a1 543b 1f1d 9b3c
00000120: c63c ca3b 9458 07ba a0b5 303d ab1a 923c
00000130: 768b 49ba 035e 8d3c 439e ed39 40f5 e0ba
00000140: 4bd9 3ebd 924c 06bd c7d9 173a 187d 1abd
00000150: 75fe 173b 5153 853c e669 4d3c 5192 423c
00000160: 4235 123b 284c 3ebc e3dd a7ba e596 ffbc
00000170: b498 6a3c 3b81 c83b eecf 483c 076e 4dba
00000180: a79d 8739 b374 5cb8 82a1 123d b7a6 a1bb
00000190: 2c99 543c 6a2e bf3b d8a9 4a3a dffd 053d
000001a0: b4a9 973c 39d0 823c a790 aa3b e0c3 3c3c
000001b0: b4f5 39bc 2aa4 68bb 1938 b3bc deca fa3b
000001c0: 9c0f d3bb 4a07 a3bb 7c52 3b3a 1768 1c3c
000001d0: e7b1 d63b 01a0 66bc 8321 473c c109 8dbd
000001e0: 0080 323d 0eca 4abc 62db 133c b934 d2bc
000001f0: 535d 1e3b c5ff 113c 0f08 d5bc 9fac cd3b
00000200: 8ea5 9e3b 13cc 03ba 3ba0 f63c 52d7 54bc
00000210: c986 a0bc 8af7 b93c ca1b a2bc 02d6 923c
00000220: f5cf 073d c537 88b9 3b21 963b 134f dfbc
00000230: edd4 093c 5ff4 18bc 8938 3abc b2b7 08bd
00000240: 0a08 b0bc 1c67 933c eb2d 00bd 40ea 02bc
00000250: 8e48 4f3b b067 b8bc 1c85 7b3c c770 17bd
00000260: 94c1 8f3b 8ddf 54bc 0361 ca3b 4a5c 80b9
00000270: bfe7 1abc b9c6 b5b9 a798 cfb8 9332 9c3c
00000280: 4b4b 943a a395 c73c d551 babc dadb 57bb
00000290: 5734 093c 69a8 3d3c 1290 2a3d 9307 2cbc
000002a0: 004d 9a3c cc41 49bc 12eb 02bd e14f 27bc
000002b0: fa8e debb 6484 413c e606 8a3c ff4e 0fbb
000002c0: 7b61 d33c d7e0 143d fe5c 613c 3b35 2b3c
000002d0: 2d7b c0ba e94b c6bc 7ef3 a73c 6dad f1bc
000002e0: 6d91 663b f43f 133c ae03 b53c 8c77 4a3b
000002f0: ef12 c4bc 0627 863c 7818 f43c eab5 943c
00000300: 6831 633b bc21 0abb 143a a53b f483 bc3c
00000310: 7296 c03b 8fe0 ec3b 34e9 853c c161 373c
00000320: f8b4 cb3b e6e6 bd3c 921d 7a3c c113 f8bc
00000330: 7cde 0e3d 7615 0c3b bb00 523c 952e 15bc
00000340: 4695 073c 62e0 933c 9924 a9bc b732 d3bb
00000350: 66ca b8bb b43f d23a c49e a5bb d860 5cbb
00000360: 08ec 8cbc fa02 a8bb 8ce5 083c b62d fe3b
00000370: b58b 133c 182b 2b3c ef41 06bd 8cab 2cbc
00000380: 5f48 c4bc f32e 503b ee43 a23c 6d43 8e39
00000390: 3eff 54bb 8ad7 d2bb 61a5 91bc 9d12 373c
000003a0: 2fa6 dabb 729f 3f3b 675f 1dbd 7442 e0bb
000003b0: a201 943c 11b4 8f3c 6c5f e6ba fd81 1bbd
000003c0: 75b6 963b 4959 373d e4e6 46bb 5440 acbb
000003d0: d17b a73b eb06 b43c a288 c0bc 207a 703a
000003e0: d131 76bd 46f9 1aba 9710 133c 1f72 e7b9
000003f0: 05e9 693b d78b cb3c 4c06 5c3c a3ff d7ba
0.0028783823 -0.014823526 0.018381884 0.033909123 0.008671798 -0.00096512545 -0.0057991627 0.0046927896
-0.03984832 -0.0068476745 0.012895391 -0.038295567 -0.014288932 0.006148704 0.002127674 0.011313202
-0.0045405 -0.010557451 0.011628067 0.026655933 -0.0061104465 0.0032735053 0.0010336144 0.023597509
0.023005817 0.012374769 6.560956e-05 -0.0026278535 0.024930935 0.03127667 -0.0060527595 -0.016346702
0.012800912 -0.0010233216 0.01603255 0.001549342 0.002146324 0.00023844824 -0.0040826355 0.004472231
0.0050153937 -0.028160073 0.0004543907 0.015569955 -0.008286765 -0.008803179 -0.021076826 -7.6106415e-05
0.020328958 -0.0052990406 0.005254185 -0.04501055 0.015855424 -0.011140401 0.012371876 -0.007825773
-0.007246618 -0.0064018276 0.0038909472 -0.024932696 -0.028192315 0.0002897903 -0.0018042634 0.013933894
-0.024981378 -0.004525042 0.0012420067 0.008978468 -0.0051379004 -0.045720797 0.0032444862 0.018934784
0.0061717955 -0.00051630405 0.04314196 0.017834982 -0.0007688323 0.017256742 0.00045322077 -0.0017162934
-0.046593945 -0.032787867 0.0005792644 -0.037716955 0.002319244 0.01627508 0.012537455 0.011875705
0.0022309576 -0.011614837 -0.0012807216 -0.031199882 0.014318634 0.006118921 0.012256606 -0.0007836525
0.00025866667 -5.2560772e-05 0.035798557 -0.004933204 0.012975972 0.0058343904 0.0007730997 0.032712813
0.018513538 0.015968429 0.005205232 0.01152131 -0.011350084 -0.003549824 -0.021877335 0.007653578
-0.0064410698 -0.004975234 0.0007145775 0.009546301 0.0065519693 -0.014076234 0.012153986 -0.06886626
0.0435791 -0.012377275 0.009024473 -0.025659906 0.0024164512 0.008911078 -0.02600482 0.0062766816
0.004841513 -0.0005027663 0.0301057 -0.0129907895 -0.01959552 0.022701044 -0.019788641 0.017924313
0.033157308 -0.00025981493 0.004581598 -0.027259385 0.008412582 -0.009335606 -0.011366018 -0.03337831
-0.021488208 0.017993502 -0.03129379 -0.00799042 0.003162894 -0.02251038 0.01535156 -0.036972787
0.00438709 -0.012992752 0.0061761155 -0.00024482823 -0.009454667 -0.0003467107 -9.898963e-05 0.019067084
0.0011313943 0.024363345 -0.022744099 -0.0032937438 0.008374295 0.011575797 0.041641302 -0.010499853
0.018835545 -0.012283754 -0.03196246 -0.010211916 -0.0067919465 0.01181135 0.016848993 -0.0021867154
0.025803318 0.036347236 0.013755081 0.010449703 -0.0014685147 -0.024206119 0.020501848 -0.029501641
0.0035181895 0.008987416 0.022096481 0.003089401 -0.02393481 0.01637603 0.029796824 0.01815315
0.00346669 -0.0021077236 0.005042324 0.023012139 0.0058773095 0.007228918 0.016346551 0.01119274
0.0062166415 0.02318139 0.015265839 -0.030282857 0.034880146 0.0021375096 0.012817557 -0.009105344
0.008275336 0.01805133 -0.020647334 -0.0064452547 -0.005639362 0.0016040714 -0.0050543267 -0.003362706
-0.017202392 -0.005127308 0.0083555095 0.007756914 0.009005477 0.010447286 -0.032777723 -0.010538947
-0.02396029 0.0031766265 0.019807782 0.00027134587 -0.003250077 -0.0064343857 -0.017779054 0.011173871
-0.0066726427 0.0029239324 -0.03842106 -0.0068438593 0.018067185 0.017541917 -0.0017576045 -0.037965763
0.0045993873 0.044762883 -0.0030350024 -0.005256692 0.0051111956 0.021975955 -0.023502652 0.00091734715
-0.060106102 -0.00059117784 0.008976123 -0.0004414478 0.003569187 0.024846954 0.013429236 -0.0016479384
