best_model/xasnet_gnn_model_19.pt (torch, 143400 bytes, 16 tensors)

batch_norms.0.weight f4 [128]
000000 1c be 3e 3f 68 8f 46 3f ef f9 3b 3f c1 94 3c 3f
       0.74508834 0.7756257 0.73428243 0.7366448
000010 08 57 4a 3f 7e 6d 3c 3f e0 4d 3f 3f da 75 3e 3f
       0.7903905 0.7360457 0.747282 0.7439858
000020 7f a6 3f 3f 4b 79 3e 3f b7 f9 3e 3f c3 72 4d 3f
       0.7486343 0.7440383 0.74599785 0.8025324
000030 dd b9 3d 3f c7 3a 3c 3f 69 24 3e 3f 2a 22 3d 3f
       0.7411173 0.7352719 0.7427431 0.73880255
000040 e6 45 43 3f 12 2e 45 3f 09 2d 40 3f ae 97 3d 3f
       0.7627853 0.7702342 0.7506872 0.7405957
000050 81 7d 4c 3f 64 71 44 3f ed fb 3a 3f 08 a5 40 3f
       0.79879004 0.7673552 0.7304066 0.7525182
000060 d9 54 4b 3f 17 13 43 3f 65 c8 40 3f 87 d3 3d 3f
       0.7942634 0.76201004 0.7530578 0.7415089
000070 38 05 3e 3f 9c ea 40 3f b9 ec 41 3f 6f 69 3e 3f
       0.74226713 0.75357985 0.75751835 0.7437963
000080 73 df 45 3f 70 cc 3e 3f 8f 0e 40 3f fe 6b 3d 3f
       0.7729408 0.74530697 0.75022215 0.7399291
000090 d4 41 40 3f bb 1e 3e 3f 89 29 42 3f fc 8b 3c 3f
       0.75100446 0.7426564 0.7584463 0.736511
0000a0 6a c6 3c 3f 6e 10 3f 3f b0 20 42 3f 0f 43 3c 3f
       0.73740256 0.74634445 0.7583113 0.73539823
0000b0 2b 04 3f 3f 91 67 3e 3f 1b b6 3f 3f f2 c5 41 3f
       0.74615735 0.7437678 0.74887246 0.75692666
0000c0 ec da 3b 3f 08 42 3f 3f af 02 4c 3f 6e 18 40 3f
       0.73380923 0.7471013 0.79691595 0.75037277
0000d0 a3 7c 3f 3f 8a 6d 42 3f e6 fc 47 3f 6d 34 40 3f
       0.74799556 0.75948393 0.7812027 0.75079995
0000e0 3c 8f 5b 3f 8a 38 47 3f 34 a3 40 3f 80 ab 42 3f
       0.85765433 0.77820647 0.7524903 0.7604294
0000f0 79 e0 41 3f 69 3b 40 3f 7a ed 3e 3f 4c 99 40 3f
       0.75733143 0.7509065 0.7458111 0.7523391
000100 7a 52 3d 3f 83 d9 3e 3f 2d a4 3d 3f e7 b0 45 3f
       0.73953974 0.74550647 0.7407864 0.77223057
000110 ac 43 41 3f f8 f6 3e 3f dd b1 43 3f 94 f5 3d 3f
       0.75493884 0.74595594 0.7644327 0.7420285
000120 d1 77 40 3f 0c 2a 42 3f ff 25 3e 3f df b2 3e 3f
       0.75182825 0.7584541 0.7427673 0.74491686
000130 4f 12 50 3f 6f 50 3b 3f 68 80 40 3f af f4 40 3f
       0.81277937 0.73169607 0.7519593 0.7537336
000140 11 1c 3d 3f 0b 21 41 3f d7 61 3e 3f f7 24 3f 3f
       0.7387095 0.75441045 0.7436804 0.7466578
000150 67 17 42 3f 7d c8 43 3f d3 a6 4d 3f 04 60 44 3f
       0.7581696 0.76477796 0.8033268 0.7670901
000160 1a 76 3c 3f c0 67 3e 3f 52 60 3c 3f 68 cc 3c 3f
       0.7361771 0.7437706 0.73584473 0.737494
000170 50 f1 3f 3f 60 90 3d 3f 9f 5e 3f 3f c9 83 40 3f
       0.7497759 0.74048424 0.74753755 0.7520109
000180 7a 86 3d 3f d6 91 3f 3f cd cc 3c 3f 18 d1 42 3f
       0.7403332 0.74831903 0.7375 0.761003
000190 6d 60 3d 3f 67 1c 41 3f 5b f9 44 3f 65 50 3e 3f
       0.7397526 0.75433964 0.76942986 0.7434142
0001a0 91 52 43 3f 62 a6 3c 3f e6 6d 3e 3f d2 10 40 3f
       0.7629786 0.7369138 0.7438644 0.75025666
0001b0 62 6c 3d 3f 7a 4d 3f 3f 93 b2 3c 3f 4e a5 3d 3f
       0.73993504 0.74727595 0.7370998 0.7408036
0001c0 51 85 3d 3f 5e ec 3f 3f e6 df 41 3f 15 66 49 3f
       0.7403155 0.7497004 0.75732267 0.7867139
0001d0 a7 67 44 3f 78 4c 44 3f 5b c2 3e 3f 4f 88 3e 3f
       0.7672066 0.7667918 0.7451531 0.7442674
0001e0 85 ef 3e 3f 50 f8 3f 3f ba c8 42 3f bd c8 45 3f
       0.7458423 0.7498827 0.76087534 0.7725943
0001f0 e8 b5 3f 3f 6a 0b 47 3f 5e ed 3c 3f 84 dc 40 3f
       0.7488694 0.7775179 0.73799694 0.7533648

batch_norms.0.bias f4 [128]
000000 1d 24 70 bc c0 a2 29 bd 79 ed b0 bc 68 62 1b 3c
       -0.014657048 -0.041414976 -0.02159761 0.009483911
000010 bd ac d5 bc 4e c7 8f bb 65 5a 68 bc 16 ba c7 bb
       -0.026083345 -0.0043877726 -0.014181708 -0.006095181
000020 3e d3 27 ba 05 42 90 3c 91 06 4e bc a8 d1 ce bc
       -0.0006402022 0.017609606 -0.012574808 -0.025246456
000030 ad c1 3f 3c af c4 1d 3c 09 b1 12 ba 38 42 90 bc
       0.011703891 0.009629413 -0.00055958383 -0.0176097
000040 db 13 9e bc a6 08 76 3d 0b 59 e3 3b 46 12 7c bd
       -0.019296577 0.06006684 0.006938105 -0.061540864
000050 0f 31 a0 bc af bd d9 3c 67 c1 06 bc c0 a6 c6 bb
       -0.019554643 0.026579706 -0.008224822 -0.0060623586
000060 3d 76 4b bd f5 e6 b9 ba 0e 72 38 3a 37 03 49 bc
       -0.049673308 -0.001418321 0.00070360384 -0.012268833
000070 7f cb 29 bc d0 4f 0f 3c 20 c3 84 3c b0 9c 96 3c
       -0.010363459 0.008747056 0.016206324 0.018385261
000080 9c 5c 1d bd 86 f0 a4 bc f0 92 4a bd e0 e2 22 bd
       -0.038418397 -0.020134222 -0.049456537 -0.039767146
000090 84 25 6a bd 29 65 91 bc 22 23 20 bb 9b 50 0b bd
       -0.057164684 -0.017748432 -0.0024435003 -0.03401242
0000a0 fa d9 d0 bc f4 58 5b bd 1b e1 2b bd e1 05 14 bd
       -0.025494564 -0.05355163 -0.041962724 -0.03613842
0000b0 0c f4 9a bc 91 d4 36 bd 38 54 be 3c ed 84 9c bc
       -0.018915199 -0.044636313 0.023233518 -0.019106353
0000c0 f1 ec 3a 3c 64 d3 80 3c b2 74 64 bd 91 e8 29 bd
       0.01140903 0.015725799 -0.05577535 -0.04148156
0000d0 2e 54 a0 bc c2 b8 f8 bc fa b5 9b ba 84 28 01 3d
       -0.01957139 -0.030361537 -0.0011879795 0.03153278
0000e0 e7 95 b4 bd 60 47 c2 3c ed 9d cd bb 13 e1 07 bd
       -0.08817654 0.023715675 -0.0062749297 -0.033173632
0000f0 49 dd cd 3b b8 4e 15 3c 0f 5f e7 bc f8 2a 13 bd
       0.0062824828 0.009113006 -0.02824357 -0.03592965
000100 18 38 e1 bb a8 91 cb ba a3 83 1c bc 94 d2 98 bc
       -0.006873142 -0.001553108 -0.009552869 -0.018655099
000110 eb 0d 3a 3c 33 8c 93 bd 48 13 09 bd f5 8c 10 3d
       0.011355857 -0.07204475 -0.033465654 0.035290677
000120 47 ce 94 3c d7 cd 11 bc f4 90 b0 3c b9 01 9c bd
       0.018164767 -0.008899174 0.021553494 -0.07617516
000130 8e 3e cf bc 78 57 a8 3c 4c 9f 04 bd 50 88 26 bd
       -0.025298383 0.02054952 -0.03237848 -0.04065734
000140 26 28 7f 3b 02 d6 ef 3a f1 18 8d bc 53 4b 83 bc
       0.0038933842 0.0018298032 -0.017223807 -0.016027128
000150 e9 35 95 bc 23 aa 88 39 fc 1f 2c bd ed 58 66 bc
       -0.018214183 0.00026066703 -0.04202269 -0.0140592875
000160 e9 df 28 3c 90 f2 1b bc 35 90 1e bc 8c cd 4e bd
       0.010307291 -0.009518281 -0.009677936 -0.050488994
000170 af 35 11 3c 11 43 25 3b 8d 69 81 3c 56 83 05 bd
       0.008862897 0.0025216977 0.0157974 -0.032595955
000180 33 17 d5 bc f0 d6 07 bd 7f 79 a3 bc d0 a3 17 bd
       -0.026012039 -0.033163965 -0.019955395 -0.03702146
000190 dc 6b 94 3b 28 7b 08 3c 55 f7 3a 3b 3c 5d 33 bc
       0.0045294594 0.008330144 0.002852877 -0.010947522
0001a0 cb d9 3e bd 65 43 a5 bc ac 1b f2 b9 11 ba 05 bd
       -0.046594422 -0.020173738 -0.00046178454 -0.03264815
0001b0 bb 3f 97 3b a9 e7 92 ba dd da 47 bc f2 a6 24 bc
       0.0046157516 -0.0011207956 -0.012198177 -0.0100495685
0001c0 e4 88 9e bc 19 3a 80 3a 2d 4c 6d bc 5a 4a 70 bd
       -0.019352384 0.000978294 -0.014483494 -0.058664657
0001d0 20 15 04 bd 11 cd 1c 3c e7 6d 2c bb b2 37 05 bd
       -0.03224671 0.009570376 -0.0026310624 -0.03252382
0001e0 e7 49 6f bc 0f 8c 74 bd fc be bc bc 0f e0 f2 39
       -0.014605022 -0.059703883 -0.023040287 0.00046324774
0001f0 22 cf 06 bd 08 b2 4d 3c e4 8e 26 bd 9e c8 85 bb
       -0.03291238 0.012554653 -0.040663615 -0.0040827533

batch_norms.0.running_mean f4 [128]
000000 a9 92 c4 3e 85 74 76 3d 25 e1 82 be e4 9f aa 3e
       0.38393143 0.060169715 -0.25562397 0.33325112
000010 9e 70 93 3d ce 4a 9b be 71 11 10 be f1 b3 10 3f
       0.071992144 -0.3033051 -0.14069153 0.5652457
000020 aa 8c 1f 3e a2 34 df 3e c3 be de 3d b7 f2 ce be
       0.15581003 0.43594843 0.10876229 -0.40419552
000030 d9 2f 17 3e 61 c1 cf be 31 67 ef bd 7b 00 54 be
       0.14764346 -0.40577224 -0.11689604 -0.20703308
000040 1a 05 0e 3e db a3 39 be e9 8f 28 bf ec 56 ee be
       0.13869134 -0.18128912 -0.6584459 -0.4655069
000050 65 49 23 3e 6a 33 37 be 38 be 3b be 41 58 fb 3e
       0.15945967 -0.17890707 -0.18334281 0.4909077
000060 9e 08 02 bf 7c 6c ef be 69 82 ee bd 5e 7d 83 3e
       -0.507944 -0.46762455 -0.116459675 0.25681585
000070 67 b4 ee 3e 81 d2 ec be 4f 22 e6 be a3 5a a6 3e
       0.4662201 -0.46254352 -0.4494805 0.32491025
000080 ba c1 41 3e cb 0c 5e 3e 6a 27 2c 3e f8 99 ab be
       0.18921557 0.21684568 0.1681191 -0.33515906
000090 bb 6d 93 3d f5 44 ec be c0 71 9e bd 95 4b d0 3e
       0.07198664 -0.4614636 -0.0773654 0.40682665
0000a0 23 87 9d be d6 0b 61 3e 9a 69 59 3e fc 8b 62 3e
       -0.30767164 0.21977171 0.2123169 0.22123712
0000b0 9a a1 21 be 5b 84 63 3e 6e dd d9 be fb bd df be
       -0.15784302 0.22218458 -0.4255175 -0.4369963
0000c0 98 45 72 be 5e d7 97 be fa 43 42 be 8f 70 1a 3d
       -0.2365936 -0.296565 -0.18971244 0.037705
0000d0 05 fa 0e bf 53 f7 32 be d6 e5 de bd 60 70 0b 3f
       -0.5585025 -0.17477159 -0.108836815 0.54468346
0000e0 8b e6 27 bf 03 92 b7 be 0f 80 61 be 1f ff 4d be
       -0.65586156 -0.35853586 -0.22021507 -0.20116852
0000f0 d8 f7 72 be e8 36 fe 3d 52 fa 19 bb 91 29 01 be
       -0.23727357 0.12412816 -0.002349515 -0.12613513
000100 72 47 b6 3e 63 19 0b bf 88 7b be be 80 37 6a be
       0.35601383 -0.5433561 -0.37203622 -0.22872734
000110 a7 89 03 bf 07 44 80 bd 0c 80 ef be ad fc 1e 3f
       -0.51381916 -0.06262975 -0.4677738 0.621043
000120 b7 8c 23 3d c1 58 70 be d4 2f 4f 3e 55 54 43 3d
       0.039929118 -0.23471357 0.20233089 0.047687847
000130 9d e3 6a be 46 7c 62 3f 21 2e 1e 3e 22 ca 83 3d
       -0.2293839 0.88470876 0.15447284 0.06435038
000140 c3 82 aa be a9 87 b7 be 27 91 14 bf ca 85 84 be
       -0.33302888 -0.35845688 -0.58033985 -0.25883323
000150 29 df 93 be 39 72 80 be 4e b4 8e 3d 75 fb f7 bd
       -0.28881195 -0.25087145 0.06967984 -0.121085085
000160 15 32 a5 be 42 e4 85 3e e6 fd 95 be 90 02 2c 3d
       -0.32264772 0.2615071 -0.29295272 0.04199463
000170 2e 7a 8d 3e da 47 df 3e 80 4b 06 3e 34 ee 37 3e
       0.27632278 0.43609506 0.13114738 0.17961961
000180 26 40 61 3e d3 d2 21 bf 4d 60 a3 3d 72 2b 90 be
       0.21997127 -0.6321232 0.07977352 -0.28158146
000190 40 98 22 3f 2d b9 90 bd 3b df 95 3e 9b 1d 8c 3d
       0.63513565 -0.070665695 0.29271874 0.06841584
0001a0 6a 05 dc 3e 07 e6 88 be 74 e4 88 be da 49 9e be
       0.4297288 -0.26737997 -0.26736796 -0.3091572
0001b0 cc d6 c8 be 9f c0 c1 be 8b 42 36 3e 34 27 cf be
       -0.39226377 -0.3784227 0.17798822 -0.40459597
0001c0 b7 4b a7 3d 35 d3 e0 be c1 d6 9a be 05 74 ea bc
       0.08168738 -0.43911138 -0.3024197 -0.028619776
0001d0 10 a7 3c 3e 3b b8 86 be 46 aa d2 be 1a e7 1f 3e
       0.18423104 -0.26312432 -0.41145533 0.15615502
0001e0 60 0b 9e be b8 c5 82 bd bf cd 41 3e 78 40 02 3e
       -0.30868053 -0.06385368 0.18926142 0.12719905
0001f0 6d 8f b6 3d ec d4 a4 be 1a 5d aa be e9 1c e5 bc
       0.08914075 -0.32193696 -0.33274156 -0.027967887

batch_norms.0.running_var f4 [128]
000000 22 e3 81 3d 20 d8 26 3d da 0b 21 3d 73 5a d8 3d
       0.0634215 0.040733457 0.039317943 0.10564127
000010 66 ea 82 3d 62 98 6f 3d d9 4a c5 3c b9 ce 17 3d
       0.06392364 0.058494933 0.024083542 0.03706238
000020 92 5f da 3c 4b 75 4c 3d b1 61 e4 3c d4 db e3 3d
       0.0266569 0.049916547 0.027878614 0.11125913
000030 cd c1 74 3c ac dd 40 3d b6 d1 89 3d 1e 6e 1f 3d
       0.014938784 0.047086403 0.06729452 0.038923375
000040 37 54 0b 3d 99 ba 1c 3c 7e fe 6a 3d 1c e9 2d 3d
       0.03401586 0.009565973 0.05737161 0.04245864
000050 72 16 69 3d f8 72 16 3d 27 d0 de 3c ca 65 af 3d
       0.05690617 0.036730736 0.027198864 0.085643366
000060 2d ec 4b 3d e5 5d f7 3c c9 3f e7 3c ea f9 5b 3d
       0.04978578 0.03019614 0.028228657 0.053705133
000070 6d 20 53 3d 97 3a a7 3c 62 e2 61 3d f0 1c 7b 3c
       0.051544596 0.02041368 0.055147536 0.015326723
000080 e4 5a b5 3d 92 7c 18 3d b8 f1 05 3d ff ef 45 3d
       0.08855227 0.037228175 0.032701224 0.04832458
000090 b2 9f fe 3c 69 09 bc 3d 51 e8 07 3d 4e 14 31 3d
       0.031082008 0.09181482 0.03318054 0.043232255
0000a0 11 9d 6f 3d 2d 95 da 3c 38 43 ad 3c e0 6d 8a 3d
       0.0584994 0.02668246 0.021150216 0.06759238
0000b0 9b 3f 11 3d 33 9f 22 3d 2c 23 0d 3d 79 f9 45 3d
       0.03546105 0.039702605 0.03445737 0.04833362
0000c0 6c 04 1b 3d 59 9b 5d 3d 82 9e 48 3d 11 32 a0 3c
       0.037846014 0.05410323 0.04897929 0.019555124
0000d0 8f fb 45 3d 85 6d e9 3c 0c ae dc 3c 55 d5 09 3d
       0.048335608 0.028494606 0.02693846 0.033650715
0000e0 bc 08 7c 3d 79 6e b1 3d eb 6f 1c 3d 54 71 1c 3d
       0.061531767 0.08663649 0.03819267 0.038194016
0000f0 be 85 13 3d 7c 10 2c 3d 7c 08 8b 3d a7 90 91 3d
       0.03601622 0.04200791 0.06788728 0.07107668
000100 da 14 a1 3d cd 5c 01 3d 5e 5d a1 3d c4 b8 a9 3c
       0.07865305 0.031582642 0.078791365 0.020717986
000110 c5 34 81 3d 8b ec 1a 3d 88 77 9c 3d 85 cc 4d 3d
       0.06308893 0.03782324 0.07639986 0.050243873
000120 79 f6 d0 3c 57 0b 6b 3d 5f 1c 89 3d 31 d3 b5 3c
       0.025508152 0.05738386 0.066948645 0.02219543
000130 86 62 1e 3d 38 40 f6 3d d2 9c 40 3d 5e 82 99 3d
       0.038668178 0.120239675 0.047024556 0.07495569
000140 02 32 25 3d 15 4c 01 3d 9f b1 f8 3c 91 d7 2f 3d
       0.040330894 0.031566698 0.030358134 0.04293019
000150 60 9a 35 3d fc 6f a1 3c 0f 42 32 3d c4 b3 8a 3c
       0.044336677 0.019706719 0.04352003 0.016931422
000160 9f af 34 3d b4 2e b5 3d 2d 24 1d 3d d7 03 6c 3d
       0.044112798 0.088467985 0.038364578 0.05762085
000170 18 01 56 3d e2 9a a4 3d ca b8 39 3d aa 60 92 3c
       0.052247137 0.08037354 0.045342244 0.017868359
000180 c5 75 bc 3c 57 91 af 3d 91 44 77 3c 5b b3 12 3d
       0.023005376 0.08572643 0.015092031 0.035815578
000190 5d 94 f7 3d dc 60 09 3c a1 bd 75 3d 4b 1d 1e 3d
       0.12088845 0.0083849095 0.059995297 0.038602155
0001a0 da ac 21 3d 7d 05 40 3d 33 ac b8 3d 58 a4 2e 3d
       0.039471485 0.046880234 0.090172194 0.0426372
0001b0 7b aa 5e 3d 1c 6a 79 3d 37 c6 41 3d 6c a4 27 3d
       0.0543618 0.06089221 0.047308173 0.04092829
0001c0 1f 99 98 3c 3e d8 ac 3c 48 d2 10 3d 19 4d ed 3d
       0.018627701 0.021099206 0.03535679 0.11586971
0001d0 f4 2e 78 3c 56 4f fd 3c 67 3c 4e 3d e6 1d 2f 3d
       0.015147913 0.03092162 0.050350573 0.042753123
0001e0 b7 bc 8e 3d 95 4e ac 3c ad 37 e7 3c 09 34 29 3d
       0.06969588 0.021033565 0.02822479 0.04130939
0001f0 2f 36 05 3d 8d 18 28 3d 07 7b 0c 3d 49 33 2f 3d
       0.032522377 0.04103904 0.034297016 0.04277352

batch_norms.1.weight f4 [64]
000000 ce ca 43 3f 99 a0 38 3f f0 ea 3c 3f 2b 6e 3c 3f
       0.7648133 0.7212005 0.73795986 0.736056
000010 03 44 3b 3f c7 b8 47 3f 6c a8 45 3f 50 27 45 3f
       0.7315065 0.7801632 0.77210116 0.7701311
000020 15 ed 46 3f f2 2f 3d 3f a9 99 47 3f 80 25 41 3f
       0.7770551 0.73901284 0.7796884 0.75447845
000030 0a 3b 3f 3f c8 15 47 3f 8d c3 45 3f 42 89 38 3f
       0.7469946 0.7776761 0.7725151 0.7208444
000040 91 bc 39 3f 2b e8 46 3f 35 00 3e 3f d5 b5 40 3f
       0.72553355 0.7769801 0.74219066 0.75277454
000050 b3 2f 4a 3f 13 c6 40 3f 4d fc 41 3f 0a 17 36 3f
       0.78979033 0.7530224 0.75775605 0.71128905
000060 f1 10 47 3f 60 3a 48 3f 33 1c 43 3f 92 ef 40 3f
       0.77760226 0.78214073 0.76214904 0.75365555
000070 15 e3 41 3f 29 b0 40 3f aa df 47 3f 23 7d 45 3f
       0.75737125 0.752688 0.7807566 0.7714407
000080 91 24 48 3f 35 9f 3d 3f 65 f6 3b 3f 1e c8 3d 3f
       0.78180796 0.74071056 0.73422843 0.7413348
000090 ea bd 3a 3f 1d 97 43 3f 99 29 41 3f 6c 0b 3e 3f
       0.72946036 0.76402456 0.754541 0.7423618
0000a0 61 02 3b 3f 91 ab 45 3f 90 45 3d 3f f1 31 47 3f
       0.73050505 0.77214915 0.7393427 0.7781058
0000b0 cd 00 42 3f e4 14 43 3f b0 98 45 3f 82 d8 38 3f
       0.7578247 0.7620375 0.7718611 0.72205365
0000c0 d9 76 41 3f d8 57 3e 3f 70 08 43 3f d2 b3 43 3f
       0.7557197 0.7435279 0.7618475 0.7644626
0000d0 44 45 46 3f 75 76 3f 3f 18 33 39 3f 33 87 3b 3f
       0.7744944 0.74790126 0.7234359 0.7325317
0000e0 31 3c 3e 3f 9a 7b 43 3f f3 d9 3c 3f 11 c0 46 3f
       0.74310595 0.76360476 0.73770064 0.7763682
0000f0 2f d2 44 3f 2b f2 41 3f 5d a8 49 3f eb 4f 3a 3f
       0.76883215 0.75760144 0.78772527 0.72778195

batch_norms.1.bias f4 [64]
000000 f3 d4 3a 3e 3c 24 3c 3e 98 6e 37 be 12 8f 31 be
       0.18245296 0.18373197 -0.17913282 -0.17339733
000010 40 95 37 3e da cb 31 be 10 6d 32 be 2c 3d 2e 3e
       0.17928028 -0.1736292 -0.17424417 0.17015523
000020 21 c5 35 3e 60 3f 39 be 2f aa 37 be 7a b8 27 3e
       0.1775098 -0.18090582 -0.17936014 0.16378966
000030 fd 70 38 3e c8 fc 3c be fc ce 2c be e1 1c 3e be
       0.18011852 -0.18455803 -0.16875833 -0.18565704
000040 86 d0 3b be 1d 5c 3f 3e 9d eb 36 3e 59 c1 3e 3e
       -0.18341264 0.18687482 0.17863317 0.18628444
000050 c7 b0 30 3e 9c 1a 34 be 3f 29 41 be 85 e1 37 be
       0.17254935 -0.17588276 -0.1886339 -0.17957123
000060 39 32 2c be 06 90 2c be 29 42 3b be e2 6f 2d be
       -0.16816033 -0.16851816 -0.18286957 -0.16937211
000070 22 a2 42 3e c5 99 33 be b5 7e 39 be 31 63 3b 3e
       0.19007161 -0.17539127 -0.18114741 0.18299557
000080 16 26 2f 3e 1e 08 3f 3e 93 e4 2e be 22 3d 40 be
       0.17104372 0.1865544 -0.17079382 -0.1877332
000090 07 95 40 3e 66 46 36 be c6 4b 34 be c8 1f 2c be
       0.1880685 -0.17800292 -0.1760703 -0.16808999
0000a0 98 8b 31 3e 4f 24 35 be 59 9f 2e 3e c1 3e 34 be
       0.17338407 -0.17689632 0.17052974 -0.17602064
0000b0 e0 4a 3e 3e c3 5a 37 3e 3a cf 3b be 22 e6 36 3e
       0.1858325 0.17905717 -0.1834077 0.17861226
0000c0 ea ea 37 3e b5 4f 32 3e ec 6a 33 3e e5 dc 3f 3e
       0.17960706 0.17413218 0.17521256 0.18736608
0000d0 66 e3 37 3e c8 3f 37 3e 3e d4 35 3e cc e9 3b be
       0.1795784 0.17895424 0.17756745 -0.18350905
0000e0 14 f4 32 be b7 40 3d 3e 01 a2 35 be a9 4c 3d be
       -0.17475921 0.18481718 -0.17737581 -0.18486275
0000f0 c5 c7 44 3e 65 99 32 be b5 91 37 be 22 16 3a 3e
       0.19216831 -0.17441328 -0.17926677 0.18172505

batch_norms.1.running_mean f4 [64]
000000 53 f7 ba 3f a4 37 f5 3e b0 71 4d 3f d3 93 fe 3d
       1.4606727 0.47894013 0.802516 0.12430539
000010 29 1a c2 bf 08 84 0d bf 20 e2 1e bf 47 13 cd bf
       -1.5164233 -0.5527959 -0.6206379 -1.6021508
000020 8e 83 89 bf af a9 6e 3f e8 ce d1 bf 22 47 38 3f
       -1.0743272 0.93227667 -1.6391268 0.7198354
000030 0c 9f 87 bf 3c 0f 08 bf da 70 14 3f 89 73 9c bf
       -1.0595412 -0.53148246 0.579847 -1.2222759
000040 cb f8 18 bf 11 4f 57 3f 9a e2 85 3d 56 40 a4 bf
       -0.5975463 0.8410502 0.065373614 -1.2832134
000050 76 62 d3 be 32 f0 20 3f 7c 77 2b bf 2e ad 00 c0
       -0.41286057 0.6286651 -0.66979194 -2.01057
000060 e6 4a 42 3e 81 fe df 3f 39 dc 0a bf 3c b0 86 3f
       0.18973884 1.7499543 -0.54242283 1.0522532
000070 4a 2f 10 3f 4a 10 82 3f 64 6a 9d 3e e4 6e bb 3f
       0.5632216 1.0161221 0.30745232 1.4643216
000080 3a b6 61 3f 55 3f 2a be a2 81 88 3f 71 e2 d3 bf
       0.8816868 -0.16625722 1.0664561 -1.655348
000090 47 82 90 3f b8 e6 41 3e 12 50 9f 3f 2c 25 52 3f
       1.1289757 0.18935668 1.244631 0.8208797
0000a0 17 37 80 bf f6 7c fd 3e e4 7e bc bf 95 f2 88 bf
       -1.0016812 0.495094 -1.4726224 -1.069903
0000b0 cc 17 93 3f 4f b2 39 bf 5d 20 94 3f 2e f0 8b 3f
       1.1491637 -0.725377 1.1572376 1.0932672
0000c0 25 fe 76 3f 90 9b 2d bf 11 1e ad 3f 08 ba f2 be
       0.96481544 -0.67815495 1.35248 -0.47407556
0000d0 3b b5 96 bd 49 33 a9 bf bc c3 35 3e 04 a3 8d 3e
       -0.07358786 -1.3218776 0.17750448 0.27663434
0000e0 7e 2e 8a 3f 8f 67 93 3f 88 10 b9 bd 75 46 ca bf
       1.0795438 1.1515979 -0.09036356 -1.5802752
0000f0 ef e6 91 3f 0b fd 80 bf b7 79 ae 3f 24 fe 46 bf
       1.13986 -1.0077223 1.3630894 -0.7773154

batch_norms.1.running_var f4 [64]
000000 01 ea 35 40 78 e4 36 40 df b7 14 40 10 85 03 40
       2.8424075 2.8576946 2.3237226 2.0549965
000010 35 9f 1e 40 1d 8f 2a 40 3a 74 24 40 51 cb 1d 40
       2.4784672 2.664985 2.569594 2.4655344
000020 b4 9f 25 40 27 60 2d 40 2d 49 1c 40 2d a0 65 40
       2.5878725 2.7089937 2.4419663 3.5879014
000030 dc c2 77 40 72 71 70 40 c2 c9 49 40 62 a0 45 40
       3.8712683 3.7569242 3.1529393 3.087914
000040 b7 55 20 40 7c 0a 32 40 e0 55 38 40 f9 4c 1e 40
       2.5052316 2.78189 2.8802414 2.473448
000050 02 94 88 40 a0 7a 45 40 81 72 42 40 30 8b 3a 40
       4.2680674 3.0856094 3.0382388 2.9147453
000060 ea d8 f4 3f 18 d5 4e 40 e3 41 4a 40 83 8f 3f 40
       1.9128697 3.2317562 3.1602714 2.9931343
000070 50 b4 5b 40 77 93 52 40 fc 4c 65 40 55 6d 59 40
       3.4328804 3.2902505 3.5828238 3.397298
000080 b7 77 6a 40 0c ea 3b 40 97 6e 3e 40 19 b0 57 40
       3.6635568 2.93616 2.9754999 3.3701231
000090 0b 89 25 40 12 1f 53 40 a4 59 68 40 34 15 53 40
       2.5864894 3.2987714 3.6304712 3.2981691
0000a0 b5 53 41 40 9c c9 41 40 ce b6 64 40 1d b9 66 40
       3.020734 3.0279303 3.5736575 3.6050484
0000b0 fb 3f 06 40 74 e4 7f 40 f6 6b 39 40 0f b3 1a 40
       2.097655 3.9983187 2.8972144 2.4171789
0000c0 4f 09 80 40 09 b2 74 40 75 22 f9 3f 75 8f 2c 40
       4.0011363 3.8233664 1.946364 2.696256
0000d0 c3 e5 26 40 0d ac 33 40 af cf 0e 40 32 d9 47 40
       2.6077735 2.8073761 2.231426 3.1226315
0000e0 b9 3c 28 40 b9 6e 64 40 0b 64 46 40 4a eb d6 3f
       2.6287062 3.569258 3.0998561 1.6790555
0000f0 4f af 67 40 b7 de 78 40 a8 f6 4c 40 75 b2 1c 40
       3.620075 3.8885934 3.2025547 2.4483922

interaction_layers.0.lin_rel.weight f4 [128, 15]
000000 85 b6 d3 bc 3d 0d aa 3d fb a0 92 3b 02 a5 51 bd
       -0.025843868 0.08303306 0.004474757 -0.051182754
000010 96 6b 9c bc ab a7 c6 bb 28 f5 88 3d 71 df 90 bd
       -0.01909427 -0.006062468 0.06687385 -0.07073868
000020 ca 40 4a bc d0 dd d1 3d 77 7e 57 bc 7a 18 0c 3e
       -0.0123445485 0.102473855 -0.01315271 0.13681212
000030 17 95 03 3d f7 7c 91 3c 47 90 3a 3d d4 05 6f 3d
       0.032124605 0.017759783 0.04554775 0.058355168
000040 2f 6f 16 be e5 fb 34 3d 74 6a 3b bd 49 30 e2 3c
       -0.1469085 0.044185538 -0.04575582 0.027610915
000050 83 37 4c bd 6d dd b3 bc 86 e3 ea 3c 0f cf 70 3d
       -0.049857628 -0.02195617 0.028672945 0.058791216
000060 ee bf 19 3d 7e 4c 00 bd 3d 61 13 be 10 2f d2 3d
       0.037536554 -0.03132295 -0.14392562 0.10262883
000070 39 43 ff bd 54 b8 30 3d 3b 6b a4 bd 98 df 7c bc
       -0.124639936 0.04314454 -0.08028265 -0.015434168
000080 79 28 99 3c 97 ea 94 3d c0 ab 16 bd 70 4b ab bd
       0.018696057 0.07271307 -0.036784887 -0.08363998
000090 fd 19 41 bb 18 a0 23 bc 13 d2 1b 3d 8c 45 76 3d
       -0.0029464953 -0.0099869 0.03804214 0.06012492
0000a0 bf 64 a6 bd ce df 5b 3d f7 d4 d2 bd 29 2c e6 3d
       -0.081246845 0.053680234 -0.10294526 0.11238892
0000b0 f1 82 84 bc 49 6a f7 3c 81 f4 5b bc a2 5c 73 bc
       -0.016175719 0.030202048 -0.0134249935 -0.014853628
0000c0 66 b2 96 bb 03 ff 29 be da 1c 85 3d e0 f9 84 3d
       -0.0045989035 -0.16601186 0.064996436 0.064929724
0000d0 8e b0 42 bc 0d 36 67 bd d5 83 08 3e 70 80 5f bd
       -0.011882914 -0.05644803 0.1333154 -0.054565847
0000e0 45 6f 17 3e 38 22 1f 3d d9 bc 92 bd b3 db 39 3d
       0.1478854 0.038850993 -0.07164926 0.045375537
0000f0 a2 ac 34 bd 83 2f 6d bd 32 d2 d6 bd 87 9e 09 be
       -0.044109948 -0.05790664 -0.1048931 -0.1343938
000100 62 4d 29 3d c4 13 23 3e a3 4d e8 bc e4 62 f7 ba
       0.041333564 0.15925509 -0.028357333 -0.0018874076
000110 18 26 37 bd 52 d4 01 3e 04 0f cf 3c e8 e9 f5 bd
       -0.044714063 0.1267865 0.025275715 -0.12007505
000120 d2 80 29 bd 1c 6e c4 3d a2 0e 67 bd 9a 22 9d 3b
       -0.04138262 0.09591314 -0.05641044 0.0047953846
000130 69 9c e5 bc cd 19 b7 bb 6c 14 49 3b da 78 f1 bd
       -0.028028684 -0.0055877925 0.0030682338 -0.11790629
000140 75 d2 f2 bd 55 70 42 bd 73 1b 1d 3c dc af 00 bd
       -0.11856548 -0.04747041 0.009589064 -0.031417713
000150 a2 4f c1 bd e2 e0 05 3d 9c cc be 3c 65 e7 43 bd
       -0.09439017 0.032685168 0.023290925 -0.047828097
000160 38 42 bf bc cc 7d fb 3a 86 ee 68 3c bc e4 f5 bb
       -0.023347005 0.0019187271 0.014217025 -0.007504074
000170 9a d8 05 bc ab 22 ef bc 0d 7c 90 3d c6 18 61 3c
       -0.008169318 -0.029191336 0.07054911 0.013738817
000180 15 5d c8 bd 0a eb 30 be 67 bc 6f 3d 97 28 08 3c
       -0.09783379 -0.1727716 0.058529284 0.008310459
000190 22 31 3a bc 3c ae 29 bb 5c be e3 3b be c2 52 3b
       -0.011364253 -0.0025891205 0.006950183 0.0032159532
0001a0 84 de 2b bd e0 9b 92 3d cb 30 34 3d 80 f9 11 3d
       -0.041960254 0.07158637 0.043991845 0.035638332
0001b0 d7 06 ff bc b7 25 8c 3d 9d 1e df 3d ee 89 8e 3d
       -0.031131191 0.06843131 0.10894511 0.06959902
0001c0 a9 3a c0 3d ee da 76 3b f2 77 8f bd 13 00 ed bd
       0.093861885 0.0037667113 -0.070053 -0.1157228
0001d0 ac 45 36 3d 5e 73 23 3d 8f c3 45 3e 9c 7f b6 bc
       0.044500038 0.039904945 0.19312881 -0.022277646
0001e0 8c b5 b1 bd dd 38 a1 bc d3 7f 88 3c cf 11 1d bc
       -0.086772054 -0.019680435 0.016662514 -0.009586765
0001f0 b7 ef e6 3d 6a e6 6a 3c ba 97 a6 bb d9 9d df bd
       0.11276191 0.014337162 -0.005084005 -0.10918779
000200 c0 ae 0e bd e2 53 12 3e 62 80 a7 3d 75 49 35 bb
       -0.034834623 0.14289811 0.08178784 -0.0027662192
000210 5f 32 4f bd 47 e3 b0 3d 68 49 cd bc fa 19 d5 3b
       -0.050585147 0.086371 -0.025059417 0.006503341
000220 06 78 86 3d 12 aa 86 bc 59 da 4a bb 8a d2 ab 3d
       0.065658614 -0.016438518 -0.00309529 0.083897665
000230 29 8d e8 3c a4 08 2a 3d 0e a5 26 3d 10 6e dc bc
       0.028387623 0.041512147 0.040684752 -0.02690795
000240 d5 aa 45 bc f9 f5 bd bd 37 e9 7a bd d5 9b ee 3d
       -0.012064655 -0.09275431 -0.061257567 0.11650816
000250 a3 f8 56 bd 98 ed 85 3d b5 7c 3e bd 11 7e 2e bd
       -0.052483212 0.06539458 -0.04650565 -0.042600695
000260 aa 8a c5 3b 82 7f 09 3e 3d a0 1e bc d0 9b 91 3c
       0.006028493 0.13427547 -0.0096817585 0.017774493
000270 e9 aa 9b 3c 3d c6 62 3d ed b7 e4 bc 3e a7 f7 3c
       0.019002395 0.055364836 -0.027919734 0.030231114
000280 79 79 c7 bc e5 4a df 3d 64 fa 4c bc 38 d9 35 bc
       -0.024349915 0.10902957 -0.01251087 -0.011099152
000290 8d 95 36 3d 21 ec 1f be 9b 29 cf bd 24 d9 ef bd
       0.044576216 -0.1561742 -0.101153575 -0.11711338
0002a0 52 35 48 bd 02 b8 c7 bd db 09 77 3c a6 59 a7 ba
       -0.048878975 -0.097518936 0.015078033 -0.0012767806
0002b0 4a 7d ff 3c 39 c3 0a bd db 08 3b 3c bd 99 9f 3d
       0.031187672 -0.033877585 0.0114156855 0.07792995
0002c0 31 8e 50 be 54 41 cb 3d 21 e4 ea 3c 1a 65 ab 3c
       -0.20366742 0.0992457 0.028673233 0.020922232
0002d0 15 b2 a7 bd 63 64 67 3d 11 2d 15 be 71 34 88 3d
       -0.08188263 0.05649222 -0.14567973 0.066506274
0002e0 ce 5c 2c 3c c8 a8 05 3d ce 16 9b 3d 84 25 43 bd
       0.010520173 0.032631665 0.07572709 -0.0476432
0002f0 ad d8 10 bd 8e 88 22 3d 1d 91 a8 bd 52 89 e5 bc
       -0.035362888 0.03968101 -0.08230803 -0.028019581
000300 03 94 87 3d 0b fa cf 3d d6 28 89 bd 7d 98 e5 bd
       0.06620028 0.10155114 -0.06697242 -0.112107255
000310 97 f3 1a bd c6 77 00 3c e2 29 4a 3d 5d f3 7d bd
       -0.03782996 0.007841056 0.04935635 -0.061999667
000320 3d 92 87 3d cf b5 96 3b 3d 2a 87 3d 12 67 b8 bb
       0.066196896 0.00459931 0.06599853 -0.0056275213
000330 03 12 59 bd ca b7 90 bd 6c 70 4b 3d 28 2b a0 bc
       -0.052995693 -0.07066305 0.04966776 -0.019551829
000340 2b bf 81 3d 47 30 c9 bb 6f 32 39 bc ca 10 f9 3d
       0.063352905 -0.0061397883 -0.011303528 0.121614054
000350 2b 11 a6 bd 44 a5 ce bd e6 89 fb bc d7 0f 49 3d
       -0.08108743 -0.10090116 -0.030705404 0.04908737
000360 d6 17 31 bb 0e f5 5f bd 61 11 ae bc dd cd 8c 3d
       -0.0027022264 -0.05467706 -0.021248521 0.06875203
000370 d9 e7 0e 3d bf 85 5d bd bc 18 fc bc 93 17 ed 3d
       0.034889076 -0.05408263 -0.030773513 0.11576762
000380 81 2a 88 3b 2a 39 db bb 2d 56 d0 bc 8c f1 6a 3c
       0.0041554575 -0.006690164 -0.025431717 0.014339816
000390 be ba 8b bd 6b 08 ce 3d 8c 15 3c 3d 73 a7 87 bd
       -0.068227276 0.10060199 0.045918986 -0.06623735
0003a0 56 f8 6c 3d d3 09 82 b9 ff 63 a0 bd 98 6f 8f bd
       0.05785402 -0.00024802852 -0.07831573 -0.07003707
0003b0 8d e9 94 3d 14 44 60 bd 69 2d a1 3d a6 f3 f7 bc
       0.07271109 -0.054752424 0.078699894 -0.030267548
0003c0 a6 45 da 3a a8 8f 93 bd ba 59 c1 bc 4d 77 01 3c
       0.0016652837 -0.07205135 -0.023602355 0.007901979
0003d0 ef 81 b0 3d 2d f4 53 3e 88 1e 8e 3b 77 fc d5 bd
       0.08618533 0.20698614 0.0043371357 -0.104485445
0003e0 81 37 43 3c 7b 9e b5 3d a8 61 94 3b 3f d4 46 3d
       0.011915089 0.088681184 0.004528243 0.048542257
0003f0 b0 2f 05 bb cb 7e 95 bd ae 0d 9f 3c af c1 ce bb
       -0.0020322613 -0.072995745 0.019415703 -0.00630971

interaction_layers.0.lin_rel.bias f4 [128]
000000 8c 0f 8b b4 67 e8 0c b5 bc aa 00 b5 05 71 a4 33
       -2.590208e-07 -5.2492254e-07 -4.7932167e-07 7.657403e-08
000010 23 6c 28 b4 c9 3d 85 34 bb 33 e3 b4 60 2a 9d b5
       -1.5685559e-07 2.4818135e-07 -4.2319684e-07 -1.1709744e-06
000020 07 5f be b4 ee 59 e5 b4 9b 9e dc b4 c1 b7 62 33
       -3.54594e-07 -4.2720006e-07 -4.1093594e-07 5.278685e-08
000030 38 57 60 35 c5 d3 2f b4 f5 80 a6 b4 67 3a 95 b4
       8.357342e-07 -1.6375186e-07 -3.1013738e-07 -2.7795906e-07
000040 a7 78 99 33 e3 6f e4 b5 d2 ca ef b4 24 bf 04 31
       7.146564e-08 -1.7019887e-06 -4.466479e-07 1.931718e-09
000050 d2 1e 5a b4 58 22 60 b4 c8 34 48 34 4e e9 70 b4
       -2.0314044e-07 -2.087412e-07 1.8645653e-07 -2.2436618e-07
000060 04 31 65 b3 c6 5a e5 35 f8 a4 04 33 56 80 7e 33
       -5.3362797e-08 1.7088248e-06 3.0883683e-08 5.9255704e-08
000070 fb 30 28 b4 a9 39 0d b5 f4 e7 d0 b4 f0 4e 0c 34
       -1.5664038e-07 -5.26105e-07 -3.8911787e-07 1.3067233e-07
000080 81 4a 10 34 68 6c 2c 34 d9 70 21 34 62 6c af b4
       1.343815e-07 1.6058186e-07 1.5035347e-07 -3.267515e-07
000090 57 38 99 af 7d 8d 64 b4 d3 e0 ed b3 fb bd b8 b4
       -2.787057e-10 -2.1285628e-07 -1.1077068e-07 -3.44109e-07
0000a0 04 bb c5 b4 16 b0 72 35 b6 2d 7b 34 98 e6 1a 34
       -3.683018e-07 9.0408264e-07 2.3392826e-07 1.4426257e-07
0000b0 75 b8 db b3 b6 c2 26 34 08 f4 62 32 32 c7 20 b5
       -1.0231535e-07 1.553079e-07 1.3210418e-08 -5.989451e-07
0000c0 9e 64 92 34 61 37 f2 33 0f 07 de b4 44 3c f4 b4
       2.7267828e-07 1.12790765e-07 -4.1355858e-07 -4.549239e-07
0000d0 3c 18 09 35 1c f7 5c 35 e2 ad e1 b4 bc 40 51 b6
       5.107174e-07 8.231598e-07 -4.2036032e-07 -3.1181107e-06
0000e0 2d 00 c8 32 20 ab c2 b4 5c dc 35 b4 74 11 24 b5
       2.3283144e-08 -3.6259826e-07 -1.6937105e-07 -6.112016e-07
0000f0 c6 31 45 b4 62 25 be b4 18 40 29 b4 ac ee 09 34
       -1.8365162e-07 -3.5417457e-07 -1.5762669e-07 1.2845948e-07
000100 14 b9 f9 b3 b7 3a 0b b5 ef ee 59 32 4e cb 2e b4
       -1.16286316e-07 -5.1866976e-07 1.268539e-08 -1.6278975e-07
000110 d9 a9 2c 35 41 e7 8b b4 38 0b 3b 35 10 3f 35 b5
       6.4322154e-07 -2.6059027e-07 6.9679254e-07 -6.751952e-07
000120 13 0e 9a 35 50 ad fa 34 f4 1c ab 34 7c 02 8a b4
       1.147799e-06 4.669223e-07 3.1872298e-07 -2.570631e-07
000130 fb b1 48 34 44 97 06 b5 35 a3 82 34 77 68 64 34
       1.86912e-07 -5.013901e-07 2.4333136e-07 2.1272159e-07
000140 32 10 1c b4 3c cd 15 b5 e2 e2 cb b5 fd b5 c0 b4
       -1.4534524e-07 -5.580548e-07 -1.519071e-06 -3.58952e-07
000150 36 d1 cf b4 c6 ae 04 35 cc ae 6b 34 b5 a7 bb b5
       -3.8708976e-07 4.942816e-07 2.1949671e-07 -1.3981395e-06
000160 4c b2 39 32 c8 6f c0 34 ae 98 e2 b4 ae 23 9c b3
       1.0808957e-08 3.5844118e-07 -4.220687e-07 -7.270806e-08
000170 39 67 be 34 63 b1 4e 33 01 71 91 b3 fb 20 ef b4
       3.5465362e-07 4.8124445e-08 -6.772644e-08 -4.4541216e-07
000180 9d c2 77 35 f8 79 49 b4 46 b7 eb b4 a8 17 c6 34
       9.229787e-07 -1.8763956e-07 -4.390551e-07 3.6897586e-07
000190 c7 77 d3 b3 d8 96 06 b6 91 d0 2e 35 d4 18 37 34
       -9.8472405e-08 -2.0055359e-06 6.5123555e-07 1.7052236e-07
0001a0 b3 5b e2 34 e9 cf ba 34 7c 9a 09 34 b8 3e 95 b4
       4.21625e-07 3.4796474e-07 1.281532e-07 -2.7799047e-07
0001b0 ae 3c 77 34 7b 8e 8d b4 57 d9 79 34 dc e9 1a 34
       2.3025743e-07 -2.6366965e-07 2.3269e-07 1.4427445e-07
0001c0 43 e3 69 35 81 e2 4d b1 7a ac 42 35 c3 75 b8 b3
       8.7129973e-07 -2.9960179e-09 7.252162e-07 -8.5895884e-08
0001d0 e8 db d0 b4 98 96 6a b5 8c ed b6 b3 3d 54 d0 b4
       -3.8903022e-07 -8.7390936e-07 -8.518245e-08 -3.880431e-07
0001e0 7f e1 a5 b3 e7 27 55 b4 fe 2f 52 35 76 cd 9f 33
       -7.724429e-08 -1.9851687e-07 7.8300934e-07 7.4413876e-08
0001f0 1a 7d 65 b3 6c 0b f0 b3 12 73 47 34 5c a7 02 33
       -5.3431997e-08 -1.11779485e-07 1.8575182e-07 3.0420196e-08

interaction_layers.0.lin_root.weight f4 [128, 15]
000000 cc ce 38 bd 72 e5 0c 3d 51 4e de 3c 30 97 0e bc
       -0.045119092 0.034398504 0.027136954 -0.008703038
000010 cf 70 a5 3d 90 20 01 bd 76 f4 08 bd c2 65 46 3d
       0.08078157 -0.031525195 -0.03343626 0.048436888
000020 a6 63 b9 bc 31 75 43 bd 29 5e 19 bc 6c 5f e2 bd
       -0.022630524 -0.047719184 -0.009360828 -0.110533565
000030 f8 7f 18 3e 80 88 af bd 14 f2 27 bc a5 75 21 3c
       0.14892566 -0.08570957 -0.010250587 0.009854709
000040 c5 7b 3b bc 09 22 96 3c 0c 33 29 bd 7a 33 53 3c
       -0.011443083 0.018326776 -0.041308448 0.012890691
000050 22 37 0d 3d f7 88 d6 3c 77 05 26 bd 30 e5 81 bd
       0.034476407 0.026188357 -0.040532555 -0.06342542
000060 97 63 97 bc 51 ab 40 3d 70 05 27 bd bb 5a ea bb
       -0.018480105 0.04703838 -0.04077667 -0.007151929
000070 0b d4 ec bd 0f d4 c5 3b 60 50 2d bd 5c 72 78 bc
       -0.115638815 0.0060372422 -0.04231298 -0.015163984
000080 53 4c 14 3d 5d d3 eb bc 44 6a 6b bc 08 db 15 3d
       0.0362056 -0.02878731 -0.014368597 0.036585838
000090 c9 2b 64 bb 95 03 25 bd 3e 06 bd bb 44 30 9d 3d
       -0.0034816137 -0.04028662 -0.0057685664 0.076752216
0000a0 aa 31 9e bc eb 35 13 bd cf dd 0a 3d e6 c1 cf 3b
       -0.019310791 -0.035940092 0.03390294 0.006340253
0000b0 f9 f3 62 ba e6 39 dd 3b b3 be 3a bb 29 45 95 3a
       -0.00086575706 0.006751287 -0.0028495013 0.0011388409
0000c0 f6 f2 41 3d 6b 1a a5 bd d3 55 41 3c 64 71 80 bc
       0.047350846 -0.080616795 0.011800247 -0.015679069
0000d0 28 41 68 bc 29 f4 ea 3a ba 40 48 3d 8e 4c 01 bd
       -0.014175691 0.0017925549 0.048889853 -0.03156715
0000e0 f2 7b ce bc 1c 51 da 3c de 02 12 bc d8 8a fd 3c
       -0.025205586 0.026650004 -0.008911816 0.030949995
0000f0 5c 1d b0 3d 83 d5 4c 3d 82 4b 83 3d 2d f7 dd 3c
       0.0859935 0.05000831 0.06410886 0.027095402
000100 d3 cc 66 bc ff ae 4f bd 25 b1 66 3d cf 69 c1 3d
       -0.01408692 -0.050704 0.056321282 0.094440095
000110 cb 00 1b 3c ca 74 3b bd 7c e0 77 bc c4 6d 67 bd
       0.009460638 -0.045765676 -0.015129205 -0.056501165
000120 72 19 58 3d 94 a9 b7 bc 5d e2 9b bb 19 aa 41 3d
       0.05275864 -0.022419728 -0.004757209 0.04728136
000130 4f 59 53 3d 5a a7 41 3d 6b 24 cf 3d 67 ef 09 3d
       0.051598843 0.04727874 0.10114368 0.033675577
000140 84 db 08 b9 fc 7c 85 bb 6b 45 c8 3c cd 6c 91 bc
       -0.00013051747 -0.004073737 0.024447164 -0.017752076
000150 4f 3c 83 3d ed 64 bc 3d e5 87 13 3d 5e ad fe 3c
       0.06407987 0.091989376 0.03601827 0.031088527
000160 7f 1e ed bd 9a ed 55 ba fa 07 e3 3c 96 31 86 3d
       -0.11578082 -0.00081607106 0.027713764 0.065524265
000170 aa d8 aa 3c de ea d7 3c cb 45 2a 3c c5 a2 fa 3c
       0.020855267 0.02635711 0.0103926165 0.030595193
000180 1d 2b bd 3c 51 23 4a bd 29 a2 9e bb 60 32 2c 3c
       0.023091847 -0.049350087 -0.0048411083 0.010510057
000190 88 6a ee bd 64 41 14 be 1d 6c 2c 3d 14 4e 0c 3d
       -0.11641413 -0.1447807 0.042095292 0.03425415
0001a0 70 0a a6 3a cd 30 13 bc c9 fd 0d bc f1 60 e0 3c
       0.0012667906 -0.008983803 -0.008666464 0.027389975
0001b0 30 9e 8f 3d 5d 1c b4 3c d7 c8 24 bd 01 07 1f 3d
       0.07012594 0.02198618 -0.0402306 0.03882504
0001c0 2e c9 31 3d 61 9c 6b bc 52 d2 84 bc f3 f0 45 bc
       0.04340475 -0.014380545 -0.01621357 -0.012081373
0001d0 20 d9 43 3d 42 5d 84 bd 84 84 a8 3d 77 88 53 bc
       0.04781449 -0.064631 0.082284 -0.012910954
0001e0 c6 56 ba bc 2d b4 8f 3c 46 73 48 bd ce f7 3b 3c
       -0.022746455 0.01754197 -0.04893806 0.011472655
0001f0 b0 c2 31 3c 94 e3 95 3b 6d 5e 80 3d bc 2d e5 3d
       0.01084964 0.0045742486 0.0626801 0.11190364
000200 d3 32 8a bd b4 70 57 bd d1 5c 97 bb 1b 09 e8 bc
       -0.06747975 -0.052597716 -0.004619219 -0.028324654
000210 e7 01 74 ba e7 62 1a 3d e2 54 95 bc cf 62 e8 3b
       -0.0009308145 0.037691977 -0.018228952 0.007091857
000220 7c 1f 6a 3d 69 58 ac bc 6b fd 3b 3d 9d cc 59 3d
       0.057158932 -0.021038251 0.045895975 0.05317365
000230 76 f3 5a 3d 3d e9 97 3d a6 da 63 bd 6f 93 43 3d
       0.05345484 0.074175335 -0.05562844 0.047748026
000240 00 3a c7 3c a6 a1 c5 3c 3a 55 23 3d b9 9f 24 3d
       0.024319649 0.024124932 0.0398762 0.040191386
000250 a5 ff b0 bc 72 b3 49 3c 7e 5a 45 bc 80 e6 94 3b
       -0.021606276 0.0123108495 -0.012045501 0.0045440793
000260 d1 1c ec 3b 2a 75 0e 3c ff 5f 82 bd f5 20 ba 3c
       0.0072055836 0.008694926 -0.06365966 0.022720793
000270 ca 19 ed bd 25 ff c4 3c 49 68 42 3b cb a1 8b bb
       -0.115771845 0.024047444 0.002966421 -0.0042612306
000280 03 28 83 3d 2d e7 77 bc 51 ef db 3b 57 6a ed 3c
       0.06404116 -0.0151308 0.0067118783 0.02898137
000290 4d 9a 1d bb 57 38 bb bd 03 ff 5c 3d b8 70 f3 3d
       -0.002404827 -0.09141605 0.053954136 0.11886734
0002a0 0c 85 8b 3d a7 49 8e 3d d6 47 c3 bd b4 67 6a bd
       0.06812486 0.06947642 -0.09535186 -0.057227805
0002b0 e9 0e d7 3c cc e4 87 3c d4 f3 51 bd b3 66 4e bd
       0.026252227 0.016588591 -0.051257923 -0.05039091
0002c0 ad 83 58 3d c1 f4 1e 3e bb 79 97 3d 7a 68 9b bb
       0.05285995 0.15523054 0.07396265 -0.004742679
0002d0 07 bc e8 bb 6f d8 6b 3d 8a 95 04 bd 1a 3a 84 3b
       -0.0071024927 0.057579454 -0.032369174 0.0040352466
0002e0 b6 76 4c bc 2b 7c cc b9 94 df a9 3c cd b7 89 bd
       -0.012479475 -0.00039002424 0.020736493 -0.0672451
0002f0 70 69 5c bd 2c 3d fb 3c f5 f4 08 3d 45 2e df bc
       -0.05381149 0.030668817 0.033436734 -0.027243743
000300 86 41 c2 3a 73 6a f1 3c 36 72 78 3c 8c 77 f1 bc
       0.0014820553 0.029469704 0.015163949 -0.02947595
000310 6a 2f ad 3d 7a e7 c2 3c 6a fd d3 3c 8e fe 4c bc
       0.08456309 0.023792017 0.025877673 -0.012511862
000320 eb 70 a3 bd dd 90 ee bc ad 57 0b 3c 69 38 89 bc
       -0.07980522 -0.02912181 0.00850479 -0.016750531
000330 9f 7c 07 bd 5e c4 3d bd 53 dc af bb e9 aa 1a 3b
       -0.033077832 -0.04632985 -0.005366841 0.0023600406
000340 87 86 28 bd a6 ed 3e 3a d4 f4 be bd 77 64 f1 3d
       -0.04114392 0.0007283337 -0.09324041 0.1178674
000350 ee 99 87 3d de 5b 51 3d 03 d9 27 bd 1e 85 5e 3d
       0.06621157 0.051113002 -0.040978443 0.05432617
000360 21 2b 89 3c 38 f0 48 3d 68 14 90 3d 49 a6 f9 bc
       0.016744198 0.049057215 0.07035142 -0.030474799
000370 ca c7 1d bd f0 33 e0 bb d6 21 9b 3a 97 2c 83 bd
       -0.03852061 -0.006842129 0.0011835645 -0.06404989
000380 04 9f e1 3b 43 69 84 3c c7 1a 70 3d ac 2e 26 3b
       0.006885411 0.016163474 0.058619287 0.0025357408
000390 76 77 87 bd 7f a4 a2 bd 67 0a 18 bd 50 37 ac bd
       -0.06614582 -0.079415314 -0.037119295 -0.084089875
0003a0 71 d3 74 bc 73 99 32 3d 6e d1 e1 3c a5 c5 c7 3d
       -0.01494299 0.04360337 0.027565684 0.097544946
0003b0 1d 5d ff bd a8 70 fb 3b 4d 9d c4 3d 8c df 86 3c
       -0.12468932 0.007673342 0.09600315 0.016464017
0003c0 38 71 96 bd ad 6c 0c 3d 92 0b 18 3c c9 61 2b 3d
       -0.073458135 0.03428333 0.009280102 0.041841302
0003d0 37 dc 49 3c fe af d6 3c 3c 43 d8 bc 63 02 1d bd
       0.01232057 0.026206966 -0.026399247 -0.038332354
0003e0 4e a5 37 bb a2 6a 83 bd 67 2e a9 ba 57 4e b0 bc
       -0.0028022113 -0.06416823 -0.0012907506 -0.02152173
0003f0 ed 60 14 bc 24 2f 18 bc ac 51 25 bc 19 dc 2b 3d
       -0.009056312 -0.009288583 -0.010090273 0.04195795

interaction_layers.1.lin_rel.weight f4 [64, 128]
000000 cd ed dc 3c 9e 39 d5 bc 24 36 c9 bc e2 e1 a9 3b
       0.026968861 -0.02602845 -0.02456195 0.005184398
000010 23 57 2f bc 8d a9 3e bd 66 3b 42 3d 64 12 9a 3d
       -0.010701927 -0.046548415 0.047419928 0.07523039
000020 a7 6e a7 3b 6e 9a a4 bd 05 69 b3 3d 61 4d fb 3c
       0.0051096263 -0.080372676 0.08760265 0.030676546
000030 10 50 16 3e 45 02 14 bb 38 bb 78 3d db 37 5e 3d
       0.14678979 -0.002258436 0.06072542 0.054252487
000040 20 e9 ac 3c a6 3b 96 bd 2e fb 52 bd 25 6e 3f 3d
       0.021107256 -0.07335596 -0.051509075 0.0467359
000050 de c2 14 bd a0 c6 9d bb 3b 8b b0 3d 2f 9c dd 3c
       -0.036318652 -0.0048149377 0.08620306 0.027052013
000060 f1 df 3f bd bf ca a4 bc 50 6c 49 bc 1a b3 57 3d
       -0.046844427 -0.020116208 -0.01229389 0.05266104
000070 f5 1e 34 3d 6d 4e a0 bb c0 ca e0 bc c3 fb 88 bc
       0.043974835 -0.0048921616 -0.027440429 -0.016721612
000080 fd 3c 2b 3d 90 c9 f8 3d 36 9d 7b 3d 3d 39 9e 3c
       0.04180621 0.1214782 0.061429225 0.019314403
000090 7d 06 a7 3d 54 ae b7 bb 34 83 64 3c 22 c1 c2 bb
       0.081555344 -0.0056054983 0.013947297 -0.0059434334
0000a0 7c 60 18 3d b9 56 ad bc 77 69 2d bc 8a af f4 bd
       0.03720139 -0.021159517 -0.010584227 -0.11947544
0000b0 7d 5f 0f bd 19 c4 1c bb 81 c4 4d bd a4 86 10 bc
       -0.035003174 -0.0023920594 -0.05023623 -0.008821163
0000c0 48 12 a0 bd dc 76 2c bd cf a9 29 3d 13 71 d2 bc
       -0.07815987 -0.04210554 0.041421708 -0.025688684
0000d0 b5 00 37 3d c5 d8 43 bd 28 76 87 3c 5d 77 1f bc
       0.04467841 -0.04781415 0.016535833 -0.009733048
0000e0 3a fa 22 bd 5c 24 60 bd cd db 6f 3d 0f ee c2 3c
       -0.039789416 -0.054722175 0.058559228 0.023795156
0000f0 05 13 be ba 81 6f 17 3e 5c 63 d1 3b 5b cf d4 bc
       -0.0014501518 0.14788629 0.0063900184 -0.025977781
000100 1d 77 aa 3d c7 04 45 3d 14 1e 98 3c aa 41 30 bb
       0.083235 0.04810026 0.01856903 -0.0026894608
000110 cb cd 5a 3d 42 9c 05 3d b3 13 69 3d 36 ad 31 3d
       0.053418916 0.032619722 0.056903552 0.043378077
000120 68 02 60 3d 73 58 85 bd 70 36 07 3c f2 b1 7f 3d
       0.054689795 -0.06511011 0.008252725 0.06242556
000130 6f 06 72 bc 97 86 4a 3d 76 40 02 bd e4 ac 7a bc
       -0.014772042 0.04944476 -0.031799756 -0.015300009
000140 0d 8b 03 bc 22 8d 02 3d 18 4b 95 bd 06 52 2e 3d
       -0.008028758 0.031872876 -0.072897136 0.042558692
000150 85 1b db bb 6d 47 95 3c ad 69 e6 bc eb 3e ba 3d
       -0.00668663 0.018222535 -0.028126562 0.09094032
000160 04 29 17 3d a7 89 48 3d c2 f2 ba bd d8 5c d8 bb
       0.03690435 0.0489594 -0.09128334 -0.0066028647
000170 dc 14 98 3d 6b 86 cd 3d 87 d9 2c be a2 58 4a 3d
       0.074258536 0.10035404 -0.16879855 0.049400933
000180 19 b3 99 bd db 55 fc 3c 25 c3 86 b9 d0 ed fe 3c
       -0.07504863 0.030802658 -0.00025703866 0.031119257
000190 60 b9 63 3d e3 69 6b 3d b6 0a de b9 23 2c 8c 3d
       0.05559671 0.05747403 -0.0004235112 0.06844356
0001a0 aa ce 9a ba 99 6f df 3d 1e 0a 68 3c 3b db 88 3d
       -0.0011810858 0.109099574 0.014162568 0.0668244
0001b0 94 67 03 3d 7b 16 83 bc 62 9e 2e 3d b8 2b 08 3d
       0.0320812 -0.01600193 0.042631514 0.03324482
0001c0 71 a8 cd bd 68 d3 aa 3d 31 39 01 bc 14 55 26 3e
       -0.10041893 0.08341104 -0.007887171 0.16243392
0001d0 67 75 4b 3e 0b dc 1a bd aa 87 6a bc 86 b2 2b bd
       0.19869004 -0.037807506 -0.014314571 -0.0419183
0001e0 b2 82 96 bd 07 97 e7 bc a3 7c 76 3d ee 35 50 3d
       -0.07349147 -0.028270258 0.060177457 0.05083268
0001f0 48 3c ee bc 67 65 4d bd 6c 50 57 bc 25 9a 57 3e
       -0.029081479 -0.050145533 -0.013141733 0.21054895
000200 a4 f3 2e bc c5 35 88 bc 6c 8e a4 bd 43 9a 34 3d
       -0.010678206 -0.016627202 -0.08034977 0.044092428
000210 42 93 64 3d 22 1d 83 3d ad 8f 47 3d 37 c9 e6 3c
       0.0558045 0.06402041 0.048721004 0.028172119
000220 af 04 02 3e 9a b7 32 3d 38 73 9b 3d 52 5b 0b 3e
       0.12697099 0.043632127 0.075903356 0.13609055
000230 9a af b7 bb 72 8c 38 bd 1b 46 1c bd b7 86 3e bc
       -0.00560565 -0.045055814 -0.038152795 -0.011628798
000240 81 91 2c 3d a0 82 24 be a9 32 9b bd 6c 40 b4 3a
       0.04213095 -0.16065454 -0.07578022 0.0013752109
000250 7b 86 9c 3d 8a cb 4f bd 51 0c d4 bc 8f e1 c5 3d
       0.076428376 -0.05073122 -0.02588478 0.096621625
000260 25 45 dd bd fc 71 3f bd 20 23 b5 3d 6f 9b 8d bd
       -0.10804204 -0.046739563 0.0884459 -0.06914412
000270 c5 34 f2 3c 90 aa 8a bd 50 04 ba 3c 1f 78 e7 3c
       0.029566178 -0.067708135 0.022707134 0.02825552
000280 ec 15 1b 3d a9 6d e1 3c 11 23 76 bd 30 61 1c 3d
       0.037862703 0.02751811 -0.060092036 0.038178623
000290 3d 9a 54 3c e7 de 16 bd e3 8f 81 bd a4 af a1 3c
       0.012976226 -0.03683367 -0.06326272 0.019737072
0002a0 c4 43 c2 3c 29 21 83 3d a3 16 9f 3d 58 41 0b bd
       0.023713954 0.06402809 0.077679895 -0.033997864
0002b0 3e 12 9c bd 16 82 82 3c da 4b 7c bd 40 12 91 3c
       -0.07620667 0.01593117 -0.061595775 0.017708898
0002c0 a3 8e d4 3c eb 70 c1 bd 55 6c 07 bd be e6 a9 3c
       0.02594692 -0.094453655 -0.033062298 0.02073991
0002d0 d7 86 a7 bd 33 80 a6 bd f5 51 82 3d 67 13 8b 3a
       -0.081800155 -0.08129921 0.06363288 0.0010610641
0002e0 64 be 55 bd 67 34 34 bb df 31 b3 bb bd 2d cf bc
       -0.052183524 -0.0027497055 -0.0054685916 -0.025290364
0002f0 d7 eb e0 3c 37 94 bc 3b 67 5a 11 3d be 36 7a bd
       0.027456207 0.0057549733 0.035486605 -0.061087362
000300 de e0 16 bd 3e ef 9e bd 46 1e 96 bc 29 45 87 3d
       -0.036835544 -0.077604756 -0.018324982 0.06604988
000310 ae 14 7e 3d 0a 7d 45 3c 42 58 41 3d fb a6 9c 3c
       0.06203144 0.012053737 0.04720331 0.019122591
000320 10 2e 11 bc 6e 78 a4 3c 73 51 b5 3c 60 ce dd 3d
       -0.00886108 0.020076957 0.022133565 0.108303785
000330 cc 92 4a bd d9 d4 c1 3b fa 93 0a bd 1a e7 03 3c
       -0.049456403 0.005915266 -0.033832528 0.008050704
000340 2a 58 c5 bd 18 c7 d6 bd 2f a3 f9 bd 73 e3 bc bd
       -0.096359566 -0.10487193 -0.12189328 -0.0922307
000350 29 21 f1 3c 18 3c 05 bd 31 8d a6 3c 0a 65 91 3c
       0.029434757 -0.032528013 0.020330997 0.017748374
000360 1e 82 54 ba 93 9c 6a 3d 26 81 74 bd 4f 2e 03 bd
       -0.0008106547 0.057278227 -0.059693478 -0.032026585
000370 a4 8d 46 bc 3f f9 7b bd 16 b6 99 3d f9 df 71 3d
       -0.012118731 -0.061516996 0.07505433 0.059051488
000380 0f 7c 3a 3d 5c 3c 18 bd 97 2a e7 bc 18 ee 83 3d
       0.045528468 -0.03716694 -0.02821855 0.06441897
000390 d3 d0 c9 3d ce c0 cb 3c af fb a0 3d 28 51 ee 3d
       0.09854283 0.02487221 0.07860505 0.11636573
0003a0 2f cc 80 bc 57 e0 ad 3c 78 ce 63 bd b8 a9 a1 3d
       -0.015722362 0.021225138 -0.055616826 0.078936994
0003b0 22 75 43 3c 10 62 ab bc 08 08 ef bc bc 70 44 bd
       0.011929782 -0.020920783 -0.029178634 -0.047959074
0003c0 a2 e6 0d bd 24 9b 9f bd a6 3c 8c 3b 05 10 e5 3c
       -0.034643777 -0.077932626 0.004279691 0.02796174
0003d0 5d 41 4b bd fd 53 e0 bd 1f 1f ea bc f0 9a 4f bd
       -0.049622882 -0.109535195 -0.028579293 -0.05068487
0003e0 7f cf ca 3d fb c1 0c 3d d3 c8 6c b9 03 9f c6 3c
       0.09902858 0.03436468 -0.00022581527 0.024245745
0003f0 ac 9f bb 3c a1 49 55 bc 40 07 25 3c 2d e0 a4 3d
       0.022903286 -0.013018043 0.010072529 0.08050571

interaction_layers.1.lin_rel.bias f4 [64]
000000 98 70 6b 34 77 f0 c5 b4 2f 16 be 34 dd ec 4d 34
       2.1927042e-07 -3.686907e-07 3.5406399e-07 1.9178283e-07
000010 64 d7 67 b4 f5 4c 1b 35 43 1b 5d b4 ae cd 95 34
       -2.159191e-07 5.7853987e-07 -2.0592147e-07 2.7903064e-07
000020 86 a5 1b b4 d3 7a 42 34 01 ad a1 34 73 c3 49 b4
       -1.4495717e-07 1.8112341e-07 3.0114464e-07 -1.8790688e-07
000030 ef 8a 82 b4 4f 38 85 b4 64 ee 19 33 96 90 c9 32
       -2.4315474e-07 -2.481415e-07 3.5839903e-08 2.346523e-08
000040 68 dc 4a 34 fd cc 7a 33 56 4b cb 33 43 bb b8 34
       1.88929e-07 5.8394097e-08 9.466628e-08 3.4408922e-07
000050 69 46 85 33 59 86 51 34 ee 8c 4e 35 b8 75 15 b4
       6.206103e-08 1.9513517e-07 7.694606e-07 -1.3919532e-07
000060 10 01 8f 34 5c 3c 82 33 e9 ae f8 b1 3b 8a ab 34
       2.66366e-07 6.064576e-08 -7.237635e-09 3.1951808e-07
000070 69 45 e8 b3 6d bd 1c b4 cf 33 b2 34 84 bf b5 b4
       -1.08159675e-07 -1.4597545e-07 3.319278e-07 -3.3853223e-07
000080 46 e2 8a b4 f2 b9 2b b3 8f e2 f0 34 e5 82 9f 32
       -2.586914e-07 -3.9983156e-08 4.4868327e-07 1.856956e-08
000090 75 84 95 b4 f8 74 ac 34 2e 0c 10 34 e6 73 b6 b3
       -2.7849788e-07 3.2122603e-07 1.3415476e-07 -8.496117e-08
0000a0 e5 58 0d b3 a9 dd 5e 33 cf a7 6e 34 eb 73 06 34
       -3.290997e-08 5.189e-08 2.2226526e-07 1.2521893e-07
0000b0 42 d8 9e b3 ee f1 84 b4 d8 2a 75 b3 0a bd b4 b4
       -7.3967854e-08 -2.4762943e-07 -5.7082474e-08 -3.3665157e-07
0000c0 30 10 02 b4 fd 1f 3b b3 ce d9 60 b4 86 76 e9 b4
       -1.2113082e-07 -4.3568424e-08 -2.0940863e-07 -4.348587e-07
0000d0 76 ce a0 b4 b4 d8 b7 b4 dd 66 87 b3 63 79 7e b4
       -2.9952542e-07 -3.4244079e-07 -6.305138e-08 -2.3699754e-07
0000e0 31 17 08 35 2d 23 32 b3 bf b0 92 34 4d 03 4b 34
       5.0697696e-07 -4.1475847e-08 2.732322e-07 1.8907049e-07
0000f0 6f 26 44 b3 be b9 6d 34 db 6a 89 34 5c 64 98 b2
       -4.566976e-08 2.2139918e-07 2.5595986e-07 -1.7740767e-08
