best_model/xasnet_gnn_model_2.pt (torch, 102210 bytes, 14 tensors)

batch_norms.0.weight f4 [128]
00000000: 3b2b 3dbb 5b43 503e 0e65 973d 59de 0c3e
00000010: 1bd8 d63d 715e 023e 410b 983d ab34 e63d
00000020: 7c09 fd3d ccb3 523e 0ba3 9f3d d2ce 2a3d
00000030: b932 013e d2cd 203e da95 633d 2bc2 8d3d
00000040: 0d49 c83d 0865 cc3c ee4b 1b3e d759 ca3d
00000050: 44bc f63d 6a3f fd3d 164b b83d 7464 bd3d
00000060: eb5c f93d b457 ac3d f203 0f3e 65eb 053d
00000070: 29a0 093e f73f 403d f920 153e 146b c23d
00000080: 37ba 243e b4f8 033e 09f7 873d 127f ed3d
00000090: ff34 e33d 5bd3 bf3d 189b ce3d cc5e 1a3e
000000a0: 9e63 803a 0841 0c3e ae6b fd3d 5c26 c03d
000000b0: c264 913d e2c2 063e 61de f53c aa48 173e
000000c0: 1d9e 0b3e d9b7 093e 534a 033e 933f 263e
000000d0: c8a9 143e 7425 cb3d 3c1c e43d 6f50 743d
000000e0: 016b 213e 6263 b93d 7e61 b23d 3dfe 003e
000000f0: d231 013e 1a9e 113e 9c55 d03d b3db 983d
00000100: b996 e23d be6c 133e 8fc0 f63d 251b 3c3e
00000110: 0019 7e3d 2bec e93d f225 d9bb 701a 213d
00000120: d614 013e d64b e23d 3bb8 183e 639c a83d
00000130: 96d0 b03d f575 923d 811c 153e 8c4b 143e
00000140: cf52 053d dd24 253e 8a85 c23d bb4f ab3d
00000150: bda8 703e ea12 c03d b445 1b3e 1af2 e53d
00000160: 6c00 d33d ae32 8b3d f266 d23d 1350 fe3d
00000170: 437e f43d 87f1 113e 786a e23d 1858 d13d
00000180: e1a8 c83d 879c ac3d a4d0 e43d 5974 fb3c
00000190: e524 943d e8e8 163e 10d3 c63d 075a e73d
000001a0: 5aaa d83a 417a 333d b0f3 be3d 5bc4 9b3d
000001b0: 0d19 7d3e 6fc9 f43d 7c67 933d b6cd aa3d
000001c0: f949 093e cbf9 a33d 032b b33d 1065 ed3d
000001d0: 6ba3 b93d abac 163e 3220 df3d e7ed b23d
000001e0: 323c 143e e303 943d c388 5f3d 9cb2 253e
000001f0: b08c 403e 74b1 f63d 4a4a cb3d 125d 483e
-0.0028864879 0.20338194 0.073923215 0.13756694 0.104904376 0.12731339 0.074240215 0.11240514
0.123553246 0.205764 0.0779477 0.041701145 0.12617005 0.15703514 0.05556283 0.069218
0.09779558 0.02495052 0.15165684 0.09880417 0.120476276 0.12365611 0.089986965 0.092476755
0.12175926 0.084151655 0.13966349 0.032695193 0.13440003 0.046936 0.1456336 0.0949308
0.1608666 0.12887841 0.06638915 0.11596502 0.110940926 0.09366485 0.100881755 0.15075225
0.0009795313 0.13696682 0.12374054 0.093823165 0.07099296 0.1316028 0.030013265 0.14773813
0.13634534 0.13449039 0.12821321 0.16235189 0.14517891 0.09919253 0.11138198 0.05964702
0.15763475 0.09052159 0.087100014 0.12596984 0.12616661 0.14220467 0.10172579 0.07463779
0.11063904 0.1439695 0.120484464 0.1836973 0.06203556 0.114219986 -0.006626838 0.039331853
0.12605605 0.11049621 0.14914028 0.082329534 0.086335346 0.07151405 0.14561655 0.14481944
0.032549676 0.16127343 0.09498127 0.08364817 0.23501869 0.093786076 0.15163308 0.11227818
0.10302815 0.06796776 0.102735415 0.12417617 0.11938145 0.14252292 0.110554636 0.10221881
0.09797836 0.08428293 0.111726075 0.030695127 0.072335996 0.14737284 0.09708226 0.11296468
0.0016530261 0.043817762 0.093238235 0.07605811 0.24716587 0.11952483 0.071974725 0.083400175
0.13407125 0.080066286 0.08748438 0.11591542 0.09064373 0.14714305 0.10894813 0.087367825
0.14476088 0.07227304 0.054573786 0.16181415 0.18803668 0.12045565 0.09926279 0.19566754

batch_norms.0.bias f4 [128]
00000000: 9d2f 0cbd dee0 1cbe 1d03 14bd 0cc0 36be
00000010: 0b30 8fbd 3da7 fbbd 06c4 04bd f138 6cbd
00000020: d881 a0bd ab46 66be 89fb d2bd 6e98 a9bd
00000030: da38 30bd 800f 41be 7e94 c4bc 2471 cdbd
00000040: 86ce 8dbd 0e9d 60bd 0143 58be 89cf b1bd
00000050: 2836 c9bd fe38 b3bd 4ef1 8bbd a0a5 b8bd
00000060: ade4 95bd 4c05 2dbd b34d fdbd 48b1 87bd
00000070: c622 21be 9a19 b8bc 648f 3abe d868 86bd
00000080: 6206 03be 1c86 2fbe 8d0c b5bd 213b 50bd
00000090: a0d5 09be f10d 75bd aae1 99bd 6148 01be
000000a0: f02c f3bc 1ff1 0dbe 7c22 cabd 3ea2 f1bc
000000b0: 2baa 96bd 898b 52bd 5155 8ebd 2399 ccbd
000000c0: 900a eabd d7b3 45bd 21e9 03be a6f8 36be
000000d0: e625 2abe 4aa8 ccbc 4f2a 15bd 4020 f1bc
000000e0: f1a3 2fbe 4757 28bd d85b 28be 5d5d b8bd
000000f0: 0cc9 b3bd f450 04be 2d21 b3bd e95b 80bd
00000100: 4d75 a5bd a503 00be 5cde 51bd 1144 c1bd
00000110: 6281 c2bd b6c0 28be 4220 8dbd 4eb3 bfbd
00000120: 476c c0bd 30a4 aabd f382 08be c8ed 83bd
00000130: b036 58bd d88a b1bd 6536 11be 17eb 0dbe
00000140: fac2 0ebd 7cf2 0bbe 0034 bcbd 0a3f fabc
00000150: 918b 8fbe b666 23bd 6ced 24be 8505 debd
00000160: 41d9 cbbd abf3 94bd b860 42bd d48a 04be
00000170: b653 90bd cea8 08be 40a8 e0bd 149c 00be
00000180: 9d42 d7bd 551d d7bd 1cda d2bc e49f c4bd
00000190: 4ffa b1bc 3eef 57be 1166 f3bd 1a8d 5ebd
000001a0: 033c 00bb fe85 36bd fc77 9cbd 0ed6 afbd
000001b0: 8ee4 56be cc84 e0bd 4967 a0ba c9ef 13bd
000001c0: 8d25 17be 0891 f3bc 0cd8 98bd c6ba c7bd
000001d0: 4cf8 98bc 0276 03be 574d babb aebf c5bd
000001e0: 1a13 ddbd f2e5 88bd 809c 9ebd d216 5dbe
000001f0: 61eb 81be 1e6c e5bd 4949 aebc 12f3 fcbd
-0.034225095 -0.15320155 -0.03613578 -0.17846698 -0.06991585 -0.122877575 -0.032413505 -0.05767149
-0.07837266 -0.22487895 -0.10301883 -0.08281027 -0.043022968 -0.18853569 -0.023996588 -0.100313455
-0.06924157 -0.05483728 -0.2111931 -0.08682162 -0.098247826 -0.08751105 -0.068331346 -0.090159655
-0.07319007 -0.04224138 -0.123683356 -0.066256106 -0.15735921 -0.022473145 -0.18218762 -0.06562966
-0.12795404 -0.17141002 -0.088402845 -0.05083764 -0.13460398 -0.05982775 -0.07513745 -0.12625267
-0.029684514 -0.13861512 -0.098698586 -0.029496308 -0.07356676 -0.051402602 -0.069498666 -0.09990146
-0.11427796 -0.04826721 -0.128819 -0.1786829 -0.1661602 -0.02498259 -0.0364173 -0.029434323
-0.17152382 -0.04109886 -0.16441286 -0.09002183 -0.08778581 -0.12921506 -0.08746562 -0.062675305
-0.08079014 -0.1250139 -0.05123745 -0.09436811 -0.09497334 -0.16479763 -0.06890918 -0.093603715
-0.09395652 -0.083320975 -0.13331203 -0.064418375 -0.05278653 -0.086690605 -0.14180906 -0.13859211
-0.034853913 -0.13666719 -0.09189606 -0.030547637 -0.28036168 -0.039892875 -0.16106194 -0.108408965
-0.09953547 -0.072730385 -0.04745552 -0.12943584 -0.070472166 -0.13345644 -0.10969591 -0.12559539
-0.10510752 -0.105036415 -0.025738768 -0.09600809 -0.021725802 -0.21087357 -0.11884702 -0.054333784
-0.001956702 -0.04456138 -0.07640073 -0.085857496 -0.20985624 -0.10962829 -0.0012237813 -0.03611735
-0.14760418 -0.029732242 -0.07463083 -0.09752421 -0.018673085 -0.12837985 -0.005685489 -0.096557006
-0.10794659 -0.066844836 -0.07744694 -0.21590737 -0.25374892 -0.11202262 -0.02127518 -0.123510495

batch_norms.0.running_mean f4 [128]
00000000: 7f4b 81bb bdbf 6b3e ee1d 8b3d 73db d03c
00000010: 8c14 00bd 4d94 76bd 1422 79bd 6c38 23bd
00000020: 4ea4 703d 6b5c acbd d0af 063d 38a5 133e
00000030: 0a49 0c3e 52eb 083e 017a 093d 00d2 5cbc
00000040: 3a13 ff3c 5dbb f73d ba8e 963d 0c4a 653d
00000050: f22c e23b 73be bb3d fdd9 0d3e 142d bf3c
00000060: 9504 213d a31f 42bd 2e80 ea3d d323 1abc
00000070: c417 093d 056f 533d 2d64 a6bc 1be4 e73d
00000080: a634 8d3c e796 db3d fcef a03d 8d69 7a3d
00000090: 2184 743d 163a 38bc cc11 4ebd 41a4 d6bd
000000a0: 92fe e53c 626e 673d a288 b7bb 9837 cf3d
000000b0: 373e 043e 6357 823d 5af2 ae3d 34c1 f7bd
000000c0: 395a 663b eece 493d 4315 a03d d9a0 c3bc
000000d0: 201a 703e 3c5d c33c acb3 c93c 2b49 fbbc
000000e0: 4076 2b3c 69a9 6e3c b13d da3d a84d cb3d
000000f0: 5bda e73d 2101 50bd 2847 abbd e85a 43bd
00000100: 4d77 203d fd41 fe3d 3fb7 493d 580a 403e
00000110: 3d34 d53d f5c1 b83d b4f7 b4bc 3130 a93d
00000120: 35fd 413c d7fa 2d3c f894 263d e33c 453c
00000130: ea49 903c 14cc 3b3c 5699 7e3d c90f c33c
00000140: c765 ad3d e98f 853e 981f c33c fe9a 973c
00000150: 1ca1 50be d635 31bd 1dcc f13d d02b d13c
00000160: 4370 a73c 3dc7 873d d32d 143e 2bde 553e
00000170: 592b 883d 6bc5 513d e6ff 933d 76f8 95bb
00000180: 1d3c efbc 11db a2bb d535 f93d ceb4 5b3d
00000190: 7952 ff3d 4bad 593e 3b05 0abd 728c af3d
000001a0: 3719 c0ba 7adc c93c 23f1 113d c607 8d3d
000001b0: 20a9 54bd a4b3 693d cbc5 643d c57b f53d
000001c0: 59a3 a33d ea48 083e 37fe bd3c e68f a23d
000001d0: 302c a73d 056f a13d da7e 5f3d fc83 0bbd
000001e0: a9f9 bf3d ab72 89bc 2b73 243c 1013 963d
000001f0: 6206 ba3d 5f6a 6e3c bc9c 863a 999c 8abd
-0.0039457674 0.23022361 0.06792818 0.025495267 -0.031269595 -0.060200024 -0.060823515 -0.03984873
0.058750443 -0.08416065 0.03288251 0.14418495 0.13699737 0.13371018 0.033563618 -0.013477802
0.031137098 0.120962836 0.07351442 0.05597882 0.0069023306 0.09167185 0.13852687 0.023336925
0.03931101 -0.047393452 0.114502296 -0.009407955 0.03346993 0.05161955 -0.02031144 0.113228045
0.017237019 0.10722142 0.078582734 0.061135817 0.05969632 -0.0112443175 -0.05030994 -0.10480548
0.02807549 0.056501754 -0.0056010047 0.101180255 0.12914358 0.06364324 0.08542319 -0.120973974
0.0035148992 0.04926961 0.07816555 -0.02388041 0.23447466 0.023848169 0.024621807 -0.030674538
0.010465205 0.014566758 0.10656298 0.09926921 0.11320945 -0.050782327 -0.08363181 -0.047694117
0.039176274 0.1241493 0.049247023 0.18753946 0.10410354 0.09021369 -0.02209077 0.08261145
0.011840154 0.010618887 0.04066941 0.012038442 0.01761337 0.01146223 0.06215795 0.023811238
0.08466678 0.26086357 0.023818776 0.018506523 -0.20373958 -0.043264233 0.1180651 0.025533587
0.020439273 0.066297986 0.14470606 0.20885532 0.06648893 0.051213663 0.07226543 -0.004576738
-0.029203469 -0.0049699624 0.12168471 0.053639226 0.12466902 0.21257512 -0.033696394 0.0857171
-0.0014655952 0.024641264 0.035630357 0.06886248 -0.051919103 0.057056084 0.055852693 0.11986498
0.079901405 0.13309065 0.023192508 0.07937603 0.08162725 0.078825034 0.054564334 -0.034061417
0.09373791 -0.01677831 0.010037224 0.07327855 0.09083249 0.014551728 0.0010270099 -0.0676815

batch_norms.0.running_var f4 [128]
00000000: d525 ce3a 5eef 7a3b 7913 583b 0308 3f3a
00000010: 8dc5 663b 8e38 1f3b 3eb3 4f3b 10f3 9e3b
00000020: 5311 1f3b 13e0 523b 4ae0 9a3b 3b94 4d3b
00000030: 23a8 f73a 0cc9 ee3b 810d 3e3b 0758 333b
00000040: 7f39 093b 2ab7 a13b 7e0c a53a 8b25 1b3b
00000050: 6278 483b 5e79 b33b 2c42 a23c d55a e03a
00000060: 5277 933b 302f 3f3b ab12 003b 9640 353a
00000070: 7a21 043b 422e ba3b 0164 843b c52b e53a
00000080: de4b ae3a 9c73 7d3b d8db 1a3b 4ddc 253c
00000090: 57f0 563b 58ae 2f3b 7dc2 563b 5212 ab3b
000000a0: ca74 be3a 1404 083b 6969 853b ab6d 553b
000000b0: 0603 293c fb51 e53a d4b8 103b f5ea de3b
000000c0: c92b 223b 4bcb b93b 9641 543b 4ce4 643b
000000d0: 6457 373b 6263 a63a 1367 893b a3ef 353b
000000e0: 4337 0e3b 7c9c 313c 9fc4 413b a946 f63a
000000f0: 86b1 3c3b 5087 743b 13a4 b13b 6142 9e3b
00000100: 6065 9c3b a884 a43b 16d8 7c3b 1bff ad3b
00000110: 9fe8 e43a e86d a03b 6a52 8b3a 310f 723b
00000120: 0f0e 903b dad9 b83b 8576 813b 4635 4b3b
00000130: b901 1c3b a69f c83b a424 613b ba68 923b
00000140: 8b45 9f3b 40d2 aa3b 08d6 053b d8c8 aa3a
00000150: 9d8a ab3b 06f6 583b d43a 193b 37ff a93b
00000160: 034c 753b 0424 9b3b 9eac 3c3b bbd9 023b
00000170: bc35 363b 6144 0b3b 289d 1a3b 0129 033b
00000180: 047a a23b 7365 a53b 41eb db3a ad3d 2b3b
00000190: 00c0 7a3b c847 9d3b 7f4f a23b 5ac3 a33a
000001a0: 8670 9c39 9ba8 fa3a 3752 fa3a 715d 0c3b
000001b0: b501 6f3b 1aab e33b 5d3c a33b bb36 a53b
000001c0: b37b 1d3b b65d fc3b ed07 743b ed14 333b
000001d0: 26c8 503b 43fe 7c3b e7ac 743b b666 463b
000001e0: cfed fe3a 8fa5 7f3b a412 d03a 824e c53a
000001f0: e08d ea3a b10d 4b3b 5143 d93a 0e2a 8a3b
0.0015727828 0.0038289647 0.003297059 0.00072872656 0.0035212964 0.0024295184 0.003169253 0.0048507527
0.00242718 0.0032177016 0.0047264444 0.003136887 0.0018894713 0.0072871502 0.0028999748 0.00273657
0.0020938811 0.004935165 0.0012592224 0.00236735 0.0030589332 0.0054771146 0.019806944 0.0017116914
0.004500308 0.0029172413 0.0019542377 0.0006914226 0.0020161555 0.005681784 0.0040402417 0.0017484358
0.0013297757 0.0038673645 0.0023629572 0.010123325 0.0032797062 0.0026806798 0.0032769733 0.00522069
0.0014530655 0.0020754384 0.0040714038 0.0032566588 0.010315662 0.0017495746 0.0022082822 0.0068029114
0.0024745336 0.0056699864 0.0032387725 0.0034926115 0.0027975673 0.0012694413 0.0041931956 0.0027761243
0.002170042 0.010840531 0.0029566658 0.0018789369 0.0028792336 0.0037312098 0.0054211705 0.0048296903
0.004772827 0.0050206967 0.0038580946 0.005309952 0.0017464346 0.0048959143 0.001062942 0.0036935324
0.004396207 0.0056412043 0.003950896 0.0031007095 0.0023804738 0.006122547 0.0034354115 0.004468051
0.004860585 0.005213052 0.0020421762 0.0013029827 0.00523503 0.0033105626 0.0023381012 0.0051878947
0.003742934 0.004734518 0.0028789411 0.0019966203 0.0027803024 0.0021250474 0.0023592208 0.0020013454
0.004958393 0.005047494 0.0016778485 0.002612929 0.0038261414 0.0047998168 0.0049533243 0.0012494132
0.00029838475 0.0019123735 0.0019097988 0.0021418 0.0036469523 0.006947887 0.004981561 0.005041925
0.002403003 0.007701601 0.003723617 0.0027325705 0.003185758 0.00386037 0.0037334503 0.0030273623
0.0019449535 0.0039008593 0.0015874696 0.0015053304 0.0017895065 0.0030983503 0.0016575848 0.004216439

batch_norms.1.weight f4 [64]
00000000: 7948 e23e a1bb 3b3e 9525 ab3e 81fb 8a3e
00000010: 8f30 583e e79e a03e c7f2 6a3e c736 8f3e
00000020: 2426 8e3e 61ad 733e 28ed 6a3e a9be 8c3e
00000030: 6c60 463e 4acc 973e 9aef 153e 870d ad3e
00000040: 9a49 8b3e 1846 6d3e 611e 153e 8ded 9c3e
00000050: 59ed a73e d3bc 843e 2747 6c3e 05d8 b93e
00000060: ff28 bf3e b59b 693e 8ed4 6d3e 638c 1c3e
00000070: ef8b ad3e 6d85 aa3e 649e 3b3e 848b 903e
00000080: 19f2 843e bfc2 a03e 2296 703e d89f 8b3e
00000090: 0305 5d3e d6a1 8c3e 60dc a53e 3f04 503e
000000a0: f2c6 523e 3a41 873e b93b da3e dc3b 9f3e
000000b0: 26e3 9a3e 27e3 823e b55d 453e 6ad8 463e
000000c0: 268e 723e 7eef 8c3e df78 ac3e 8dfb bc3e
000000d0: 14bf a33e 006e 913e fb49 ab3e c93d 7e3e
000000e0: 21bb b53e 79db 943e 68b0 7e3e 1561 a43e
000000f0: 2f8e 223e 4f09 113e 26bb 893e 52f4 933e
0.44195917 0.18333293 0.3342711 0.27145007 0.21112274 0.31371233 0.22944175 0.2797148
0.27763474 0.23796608 0.2294203 0.27489212 0.1937272 0.29648048 0.14642182 0.33799383
0.2720459 0.2317127 0.1456237 0.30649987 0.3279827 0.2592531 0.23074017 0.36297622
0.37335965 0.22813304 0.23225614 0.15287928 0.33895823 0.3330492 0.1832214 0.28231442
0.25965956 0.3139858 0.23494771 0.2727039 0.21583943 0.2746722 0.32394695 0.2031412
0.20583704 0.2641695 0.4262369 0.31100357 0.30251426 0.25563928 0.19274028 0.19418493
0.23687038 0.27526468 0.33685967 0.36910668 0.3198172 0.28404236 0.3345488 0.24828257
0.3549433 0.29073694 0.24871981 0.32105318 0.15874551 0.14163707 0.26900595 0.2889734

batch_norms.1.bias f4 [64]
00000000: b5c9 b8bd 4162 91be 2345 31be 4b1d 8a3e
00000010: 2839 89be 11d0 6ebe 1467 91be 307c 7cbe
00000020: d915 703e cdde 87be 9859 84be 70c6 773e
00000030: 4fb3 97be f88f 8a3e 2272 8f3e a32d 70be
00000040: fa02 6dbe e6f5 843e 322d 953e c502 823e
00000050: ba35 863e d49a 80be 5f71 89be 83bc 69be
00000060: b025 713e 71b5 783e bff1 84be e5d7 9bbe
00000070: f0a0 b93d 2589 533e d583 913e bd7f 83be
00000080: 148e 7abe e1ea 843e e88c 8dbe 0391 893e
00000090: 5206 8cbe 1fa4 873e 4833 5f3e 387f 90be
000000a0: 3b78 87be dfe6 66be b80f fcbd 3f01 69be
000000b0: a562 6f3e 6618 86be 4429 8b3e e407 853e
000000c0: 2f8f 8b3e 735d 863e 94f7 853e 69ec 703e
000000d0: 8860 6bbe ea15 7e3e d079 7c3e 66cd 8c3e
000000e0: 4b38 6c3e afc6 88be ba31 8dbe 348a 56be
000000f0: 08b7 87be 70b3 8e3e 38fd 7bbe 760e 85be
-0.090228476 -0.28395274 -0.1731153 0.26975474 -0.2680142 -0.23321559 -0.28398955 -0.24656749
0.23445834 -0.2653717 -0.25849605 0.24196792 -0.2962899 0.27062964 0.28016764 -0.23454909
-0.23145667 0.25968856 0.29136044 0.25392738 0.26212865 -0.25118124 -0.26844308 -0.22825818
0.23549533 0.24287964 -0.25965688 -0.30438152 0.090638995 0.20657785 0.28420892 -0.25683394
-0.24468261 0.25960448 -0.27646565 0.26868448 -0.27348572 0.26492402 0.21796906 -0.2822206
-0.26458916 -0.22549008 -0.123076856 -0.22754382 0.23377474 -0.2619049 0.2717992 0.25982583
0.27257678 0.2624317 0.2616545 0.23527683 -0.22986042 0.24813047 0.24655843 0.27500457
0.23068349 -0.26714084 -0.27577 -0.20951158 -0.2650683 0.27871275 -0.24608314 -0.25987595

batch_norms.1.running_mean f4 [64]
00000000: b8c6 9bbb fcae 90ba 33c9 2e3c 66dd 293c
00000010: e5c2 36bc a45a b13a 7bc0 0d3b 26b9 323b
00000020: 6588 edbb 44d5 743a 0d44 e5bb 62ed 41bc
00000030: 0725 2cbc 0542 a93a c25a 2138 857c 393c
00000040: 7909 b4bb 618a cbbb 5b11 033c 7ab1 ef3b
00000050: 4549 53bb deff 873a 05db ab3b 39c3 a03c
00000060: 8b87 053c 4405 a6ba 25fa a83b 4d63 83bb
00000070: 6ed1 5e3c 9366 34bb 1c22 bf3b a75b 0e3c
00000080: e0b4 0439 6a12 23bb 1d01 9dba 2ce6 753b
00000090: b04c 66b9 9a4f e43a bf6a 8abb 991a b9b9
000000a0: 5cd7 5d3b c43f 2e3a 2a33 17bc 3889 55bc
000000b0: 74a4 813a d9e4 123c bfa1 a23b 6d04 9e3b
000000c0: 052b 72bb fca1 26bb 3c08 dbbb 6e31 dcbb
000000d0: f71c 893b 18ea f53b 94e5 db3b f026 f5ba
000000e0: e6b0 103c d371 99bb d076 dabb 1c08 013a
000000f0: 6592 033c dac1 54bb e1da 04bc ec68 183b
-0.0047539137 -0.0011038478 0.010668087 0.010367727 -0.011154865 0.0013531041 0.002162962 0.0027271002
-0.0072489255 0.00093396404 -0.0069966377 -0.011836382 -0.010506875 0.0012913352 3.8469916e-05 0.011321192
-0.0054942933 -0.0062115644 0.007999743 0.007314858 -0.0032239717 0.0010375937 0.005244615 0.01962434
0.008149992 -0.0012666364 0.0051567727 -0.0040096403 0.013599737 -0.002752696 0.0058329236 0.008688844
0.00012655882 -0.0024882802 -0.0011978481 0.0037521226 -0.00021963078 0.0017418743 -0.004224151 -0.00035305767
0.0033850288 0.0006647075 -0.009228507 -0.013033204 0.000989093 0.008965694 0.0049631293 0.004822305
-0.0036951911 -0.002542614 -0.006684331 -0.0067197597 0.004184361 0.007504713 0.0067107175 -0.0018703621
0.008831238 -0.0046827584 -0.0066669956 0.0004922168 0.008030509 -0.0032464177 -0.008108825 0.0023255898

batch_norms.1.running_var f4 [64]
00000000: 3c31 b739 ba35 ea39 b764 ae39 b72c fc39
00000010: 3776 f939 d868 ac39 4d0d c939 937a e539
00000020: 0c51 c439 c4ed 9939 f9f1 fd39 c58d b139
00000030: 7394 db39 49d7 0f3a a23b 9e39 1e88 9939
00000040: aa8d e939 d7af fc39 d34a c939 d3ac c239
00000050: 67ba ec39 3436 a639 844a a839 2e2c 7639
00000060: f8c2 163a 8ddc 8a39 a42f a339 b7c3 cb39
00000070: f5a7 ae39 c59f be39 e24c c939 2182 a839
00000080: 2b19 e939 81b7 b039 5fa0 ff39 3179 e139
00000090: 71ee ca39 2662 063a dfa1 e039 419c d839
000000a0: 32c6 5239 9ab0 7739 8841 bc39 50f2 123a
000000b0: b7d3 b139 b359 b739 c7dd b639 a695 de39
000000c0: 1151 cd39 d897 253a ddaa 8539 d62f d139
000000d0: 5b72 a339 0c63 043a 7b60 c339 d8ea c439
000000e0: 68e1 0a3a 1472 df39 b003 1f3a 4d25 6039
000000f0: 2cd9 d339 65fb 5339 d5d8 3a3a 00d0 9d39
0.00034941162 0.00044671987 0.00033262905 0.000480985 0.00047581058 0.0003288451 0.00038347617 0.0004376961
0.00037444418 0.00029359583 0.00048436204 0.00033865697 0.00041881538 0.0005487097 0.00030180538 0.0002928385
0.0004454677 0.00048196196 0.00038393456 0.00037131328 0.00045152308 0.00031702372 0.00032098975 0.00023476846
0.00057510985 0.00026485734 0.00031125278 0.00038864996 0.00033313004 0.00036358662 0.0003839499 0.0003214041
0.00044459975 0.00033706057 0.00048756876 0.0004300564 0.00038706095 0.00051263196 0.00042845213 0.0004131515
0.00020100994 0.00023621545 0.0003590698 0.00056055654 0.0003391781 0.0003497131 0.00034878982 0.00042454636
0.00039161046 0.0006316877 0.0002549504 0.00039899227 0.00031174984 0.00050501595 0.00037265182 0.00037559005
0.00052978704 0.0004261887 0.0006065918 0.000213762 0.00040406862 0.0002021618 0.00071276474 0.00030100346

interaction_layers.0.bias f4 [128]
00000000: f9a4 4bb3 37fa d5b7 4aba 47b6 91d9 b937
00000010: 8302 0636 7b41 6037 684a 86b6 13d2 a0b6
00000020: edcf 16b6 5b96 ac36 59cd 8a35 1dad 4737
00000030: 668b e7b6 b692 a237 1800 1237 df02 e1b6
00000040: 3b5e b0b6 68aa 43b3 98aa 8037 356f b435
00000050: d698 9736 6487 3535 9f7f fbb5 e73b a9b5
00000060: 5df4 37b6 a910 b635 82ff e637 748a 86b3
00000070: b8aa 9d36 a5a3 d334 0a67 7ab6 8c4a 6fb5
00000080: d913 9435 e368 82b7 643e 5436 5c9c 7336
00000090: 421b e5b5 9798 2235 a2ac c0b6 cf35 a9b7
000000a0: 0519 f532 04d4 6737 ff85 0237 2be1 d236
000000b0: 463d 64b4 2dff a7b7 7fe1 2637 1da7 b537
000000c0: bc5f a236 45c2 fcb4 3f5e 1537 0589 2737
000000d0: b347 cdb7 1386 aa36 1cd8 6035 4ddd 18b6
000000e0: dab1 dfb5 e912 36b5 0ca8 c3b5 5e14 9e37
000000f0: 8032 f4b6 87ae f9b6 c04b d5b6 e8df 5436
00000100: b55f 5cb5 89d5 8cb7 87ed 6a36 09e4 96b7
00000110: 2154 0337 8ae7 8236 e7c7 f6b3 9bff 08b5
00000120: 283b e436 6edf 0d35 6b40 0d37 d22e 19b5
00000130: bebd 3c36 f8ab 0936 1dee cd36 08fa 17b7
00000140: d92e 7635 74dd ce37 2cf5 54b6 0ca8 a8b5
00000150: 1fff 3fb7 1fb9 eab6 5814 a936 cf12 98b6
00000160: 7311 5cb5 5631 04b6 a1d6 4c37 9e31 ad37
00000170: c35c 42b6 a07d 0db7 0360 36b6 5a26 3eb6
00000180: 2518 08b6 43c9 c333 a028 8137 080f a334
00000190: 8857 5db6 294f dcb6 e721 b8b3 c873 0937
000001a0: 8164 8730 4119 a7b4 1e2e d534 f5e1 31b6
000001b0: f3ad bab6 41c1 b336 a4c6 9136 e406 1a37
000001c0: 1d30 feb5 6c99 8d35 7fca 8a36 df3f da36
000001d0: fd07 8c36 a6bb e7b5 2b62 d4b6 ba40 b7b4
000001e0: ce3d e2b5 add0 2736 fac2 5b34 7bc6 8fb8
000001f0: d4d9 a0b6 2367 ddb6 7f0a 08b4 57db 0537
-4.7414662e-08 -2.5508094e-05 -2.9761745e-06 2.215503e-05 1.9969018e-06 1.3366686e-05 -4.0021732e-06 -4.7928274e-06
-2.247277e-06 5.143503e-06 1.0341565e-06 1.190163e-05 -6.9005646e-06 1.9380223e-05 8.7023e-06 -6.705857e-06
-5.2561786e-06 -4.555696e-08 1.5338228e-05 1.3443411e-06 4.517943e-06 6.7624774e-07 -1.87381e-06 -1.2608915e-06
-2.7411363e-06 1.3564905e-06 2.7537117e-05 -6.265046e-08 4.698839e-06 3.942088e-07 -3.731288e-06 -8.914292e-07
1.1032636e-06 -1.554605e-05 3.1626778e-06 3.6300835e-06 -1.7069763e-06 6.057175e-07 -5.742143e-06 -2.0171427e-05
2.8533131e-08 1.3818037e-05 7.779802e-06 6.2847007e-06 -2.1256446e-07 -2.0026777e-05 9.946873e-06 2.16547e-05
4.839121e-06 -4.7080007e-07 8.903035e-06 9.985878e-06 -2.4471292e-05 5.082003e-06 8.3760983e-07 -2.277858e-06
-1.6666556e-06 -6.78278e-07 -1.457754e-06 1.8844552e-05 -7.2776456e-06 -7.441096e-06 -6.356713e-06 3.1720792e-06
-8.209566e-07 -1.6788736e-05 3.5006976e-06 -1.798758e-05 7.827796e-06 3.9012566e-06 -1.149163e-07 -5.1035903e-07
6.801816e-06 5.2851726e-07 8.419253e-06 -5.7065074e-07 2.8124628e-06 2.051469e-06 6.137196e-06 -9.058516e-06
9.1710314e-07 2.4660236e-05 -3.173317e-06 -1.2565883e-06 -1.1443887e-05 -6.9952944e-06 5.038961e-06 -4.5321426e-06
-8.198178e-07 -1.969825e-06 1.220932e-05 2.0646312e-05 -2.8962247e-06 -8.433504e-06 -2.7176e-06 -2.833453e-06
-2.0279633e-06 9.1170044e-08 1.5396916e-05 3.0372053e-07 -3.2982516e-06 -6.5657264e-06 -8.5743345e-08 8.192794e-06
9.851108e-10 -3.112455e-07 3.9707896e-07 -2.650658e-06 -5.5634823e-06 5.3571134e-06 4.3444616e-06 9.18072e-06
-1.8938478e-06 1.054997e-06 4.136294e-06 6.504342e-06 4.173255e-06 -1.7265454e-06 -6.3295206e-06 -3.41335e-07
-1.68563e-06 2.5006404e-06 2.0466896e-07 -6.855741e-05 -4.79373e-06 -6.59832e-06 -1.2669805e-07 7.978487e-06

interaction_layers.0.lin.weight f4 [128, 15]
00000000: d227 b6bc 9467 72bc edc9 713c 9b5b 19bd
00000010: d922 353c 020b e039 abf0 eb3c 702b 21bd
00000020: adba 83b8 2f15 d83c 7a64 82bc 270d c9bb
00000030: e7b0 843c b801 03bd 431a 193b 99af 853d
00000040: eac9 3a3d bea3 ba39 888c 8ebc 4f94 4bbc
00000050: 1a99 033e dda4 403d ac51 c73d 6c2e 26bc
00000060: ecec bcbc af25 b13d 13bb 1e3e d1e4 523d
00000070: 94cf 8d3c e30e a73c 130a 7fbb 87f3 aa3b
00000080: 29cf a33d 79da 793b bc4b b9bc 042a b3bd
00000090: 3e86 2c3d 7247 a2bd c5dc 983d aa16 7c3d
000000a0: f85e 84bd 001d 18bd b2e6 b83d bb6e b3bc
000000b0: 90bc 7abd 6d89 823d f906 a5bd 698f 083e
000000c0: d64a 3b3d 8174 95bd 195c fdbd ab05 253d
000000d0: e3a5 b7bc abd9 c6bc dfc5 113b 3f26 cdbc
000000e0: ef3d 9ebc 4a23 ffbb f92a 7d3d f278 9bbd
000000f0: db19 e83a b647 be3c 0f4a fa3d 95a2 bbbc
00000100: 3139 3abd 087a 31bd 7526 b03c 1b8e 08bd
00000110: b317 b93c d48b eabc e1e6 d03b 728d b8bd
00000120: d915 433d eb6d fbbb b397 adbc 20bf 9f3d
00000130: 19ee c5bd e3db 3fbd e68a fcbc 0257 e7bb
00000140: 3b9e 933d 0e29 41bc 1762 91bd e766 803d
00000150: 640d 02bd beb6 c63c f05b 93bd 03e3 90bc
00000160: 197c 9cbd 9a0d 943d cc02 fbbc 85e6 253d
00000170: 0459 8c3d 0198 99bd 6253 a4bb ca8a 413c
00000180: ad60 373b 390f 303d f72d c7bd 74b0 383a
00000190: 23ae 023c 2a5d 56bd c0c2 27bc fe45 db38
000001a0: 749e ea3c 3adf 43bd dd73 2f3d b658 ca3c
000001b0: 3ad7 013d c951 9bbd 51dc fabb 9602 b7bd
000001c0: 67fa a43d a0fd 29bc 4752 4f3d 751b 1cbd
000001d0: 70be 093d 0f4a a7bc 74c9 593d ddde 12bd
000001e0: 1cb0 ba3c 89e7 4b3c 5ef1 e0bb 98f9 7bbd
000001f0: 0d21 fb3d b26d 9bbc bcc7 9cbd 3b95 e63d
00000200: d149 a938 3037 373d 87c9 0fbd 3312 8fbc
00000210: 0170 a1bb 934d 4c3c c5cb af3c 8a60 2d3d
00000220: 6ff9 90bd 020d b6bc dacb 79bc ee19 8e3d
00000230: ee6d 903c 3317 6739 55bc 7938 214d 823c
00000240: 60c8 01be db5b b4bc f3a8 04be 4516 d73c
00000250: 5579 bcbd 7c6c c63d 9325 0c3d 993b e13b
00000260: 4585 a63d 9daa b5bd 67ed 00bd 0141 c83d
00000270: 3f89 4b3d 0fc3 103d 95b6 4fbd 776c 32bb
00000280: 926b 163d 102d cebd 69c4 663c 9364 c43d
00000290: 75c1 84bd e5b7 1f3d 5a70 5abc b770 d1bc
000002a0: 3ed5 753d 78bd 683b 1de7 33bb 4aab 2b3d
000002b0: bd10 08ba 7970 4c3c f37d 893d 3b10 53bd
000002c0: 48a2 4a3d 3cb4 073d 7804 533c 241c edbc
000002d0: 02d8 f03d 81f2 16bc 49fd c43d 54a6 cbbd
000002e0: 9b10 61bc ed59 db3d cbed 683d 5a22 8b3d
000002f0: a743 1d3c 0ccd 773d 9772 fdbc 0789 6bbc
00000300: d321 2ebd 978d f73d adea 2e3d c51a f83d
00000310: ab3e 11bc 4214 9e3d 814a c1bd 2ef2 953d
00000320: 78c9 303d 4428 003e 5804 bcbb a24a f5bc
00000330: 0ee2 b23b 89d7 673d 6ac5 3b3c 7d34 c6bd
00000340: a1ec c43d e149 0b3e def4 bc3c c6c9 8cbb
00000350: 731a 62bd 931e 843c 0430 f43c 43d9 033d
00000360: 878b a33d 0aa1 5dbd deb5 2abc 0c18 c23d
00000370: b545 b0bd a6a5 47bd e665 b4bc f447 01bd
00000380: b1eb 973d 7da6 a53d a5bf 29bd 9660 c53d
00000390: b389 2bbd 5ca7 00bd 0278 8c3c d2a9 413c
000003a0: 0e45 62bd 0b87 173e 9eff b7ba 8d59 333d
000003b0: e4f6 71bd 64ca 52bd 34d1 77bb 2343 ee3d
000003c0: 8b7b b73d 6790 88bc 4418 e33c c212 e7bc
000003d0: 920f 653d 5cad 903b cd62 a1bb 64ff 963b
000003e0: 5c07 ca3d 1925 f4bc 1b9e 3d3d e363 0c3d
000003f0: f2de 99bd 91d5 973d 7ec7 d93d 357a 8b3d
-0.022235785 -0.014795203 0.0147576155 -0.037440877 0.011055672 0.0004273281 0.028801283 -0.039348066
-6.281338e-05 0.026377289 -0.015917052 -0.006135601 0.016197635 -0.03198406 0.00233616 0.06527633
0.045602717 0.00035598682 -0.017400995 -0.012425496 0.12851372 0.047032226 0.097323745 -0.010142904
-0.023062192 0.08649766 0.1550105 0.051487748 0.017310895 0.02039284 -0.0038915917 0.005217019
0.07998497 0.0038124605 -0.02261912 -0.08748248 0.04212021 -0.07923783 0.074639834 0.06154505
-0.06463426 -0.03713703 0.09028377 -0.021903386 -0.061214983 0.06373868 -0.080579706 0.13335957
0.045725666 -0.07297612 -0.12371082 0.04028861 -0.022417968 -0.024273714 0.0022243185 -0.025042651
-0.019316642 -0.007786189 0.06180856 -0.07591428 0.0017707901 0.023227554 0.12221157 -0.022904674
-0.0454647 -0.04332927 0.021502713 -0.033338647 0.022594308 -0.028631128 0.006375179 -0.090113536
0.047628257 -0.0076730154 -0.0211905 0.07800126 -0.09664554 -0.04684056 -0.03082795 -0.0070599327
0.072079144 -0.011789573 -0.07098787 0.06269627 -0.03175105 0.02425706 -0.0719527 -0.017686373
-0.07640857 0.07229157 -0.030640982 0.040503044 0.06852916 -0.074996956 -0.005014823 0.011812875
0.0027981207 0.042983267 -0.09725564 0.00070453365 0.007976088 -0.052334942 -0.010239303 0.00010455771
0.02864001 -0.047820307 0.042835105 0.024700504 0.031699397 -0.07583959 -0.0076556583 -0.0893604
0.08055573 -0.01037541 0.050615575 -0.038112123 0.03362888 -0.020421056 0.053170636 -0.03585707
0.022789054 0.012445339 -0.0068647107 -0.061517328 0.12262163 -0.018973205 -0.07655284 0.11258932
8.072297e-05 0.044730365 -0.0351043 -0.017464733 -0.004926682 0.012469667 0.02145947 0.042328395
-0.07078826 -0.022223 -0.015246356 0.069385394 0.017630544 0.00022038519 5.9541624e-05 0.015905919
-0.12674093 -0.022016456 -0.12955074 0.026255736 -0.0920283 0.096886605 0.03421552 0.0068735597
0.08130888 -0.088704325 -0.031476405 0.097780235 0.049691435 0.035342272 -0.050711233 -0.0027225295
0.03672368 -0.10067189 0.014084914 0.095894955 -0.064822115 0.038993735 -0.013332451 -0.025566442
0.060017817 0.0035513323 -0.0027450987 0.0419114 -0.00051904825 0.012477987 0.06713476 -0.05152915
0.04947117 0.03313087 0.012879483 -0.028944083 0.1175995 -0.009213091 0.09618623 -0.09943834
-0.013736869 0.10710511 0.056867402 0.067936614 0.009598649 0.060498282 -0.03093843 -0.014375932
-0.042512726 0.12087553 0.042704273 0.12114481 -0.008865039 0.077187076 -0.094380386 0.07321583
0.043160886 0.1251536 -0.0057378225 -0.029942814 0.0054590767 0.056602035 0.011460641 -0.0967798
0.09615446 0.13602401 0.02306598 -0.004296514 -0.055201005 0.01612786 0.029808052 0.03218962
0.07985597 -0.054108657 -0.010419337 0.09477243 -0.086070456 -0.04874196 -0.022021245 -0.03156276
0.074180014 0.08088396 -0.041442532 0.09637563 -0.041879367 -0.031409606 0.017147068 0.0118202735
-0.055241637 0.14797609 -0.0014037972 0.043786574 -0.059073344 -0.051462546 -0.0037813904 0.11633899
0.08959111 -0.016670419 0.027721532 -0.028207187 0.055923052 0.0044151973 -0.004925108 0.0046080817
0.09864685 -0.029802846 0.04629336 0.034274947 -0.075132266 0.074137814 0.10633753 0.068104185

interaction_layers.1.bias f4 [64]
00000000: 123b 2737 b8e9 2737 ee11 6137 1a19 d9b7
00000010: fe64 cfb6 b0c6 0037 6735 9b37 2fbf 07b7
00000020: b566 7c35 4cc8 bdb7 5edb 29b7 0f4e 86b6
00000030: 1d33 65b7 d6f2 4437 44f8 21b7 c181 72b7
00000040: 48af 1635 ea48 19b5 78d0 ca35 16d1 c1b7
00000050: 1c0b 48b7 a6a9 1eb7 6f87 31b6 fb1a 9fb6
00000060: 552f b7b7 0f18 abb5 17fc 04b7 0bf2 a033
00000070: a79b c133 efca 0035 0c85 5037 9876 62b7
00000080: fd4d c337 d43c 65b6 dbdd 9437 0395 cab6
00000090: 79eb ff33 b548 58b7 7031 3237 475f 3e36
000000a0: 098e 2836 7f52 9233 dff4 8836 00af fdb7
000000b0: 9810 87b7 ca0d 17b7 8750 8036 6f6c acb5
000000c0: b1bd 7cb6 7d28 f034 45b7 34b7 496e df37
000000d0: 6b9b 82b7 7c89 bdb6 1352 9c34 20fe c637
000000e0: a5a2 7737 e45a f4b5 17f4 6b37 8ec2 d536
000000f0: 043d 4eb6 53b1 f3b5 519d 5736 f413 75b6
9.967729e-06 1.0008393e-05 1.341522e-05 -2.5880105e-05 -6.1808378e-06 7.675655e-06 1.8502307e-05 -8.09114e-06
9.4026774e-07 -2.2623826e-05 -1.012426e-05 -4.0025984e-06 -1.3661364e-05 1.173905e-05 -9.654152e-06 -1.4454535e-05
5.613442e-07 -5.7103045e-07 1.5110845e-06 -2.3104756e-05 -1.1923516e-05 -9.457033e-06 -2.6453888e-06 -4.74171e-06
-2.183734e-05 -1.2747495e-06 -7.926507e-06 7.494608e-08 9.015576e-08 4.7979023e-07 1.24287435e-05 -1.3498262e-05
2.3282128e-05 -3.4159066e-06 1.7746284e-05 -6.0374164e-06 1.1917195e-07 -1.2891532e-05 1.0621137e-05 2.8367665e-06
2.5116626e-06 6.813661e-08 4.0816226e-06 -3.0241441e-05 -1.6100981e-05 -9.003512e-06 3.824072e-06 -1.2846557e-06
-3.7661341e-06 4.4732943e-07 -1.0771507e-05 2.6635027e-05 -1.556958e-05 -5.648644e-06 2.911698e-07 2.3721776e-05
1.4760216e-05 -1.8205869e-06 1.4063923e-05 6.370544e-06 -3.0731908e-06 -1.8156519e-06 3.2129067e-06 -3.651946e-06

interaction_layers.1.lin.weight f4 [64, 128]
00000000: 4af3 c93b 4242 a2bd 44a4 83bc 6bab c4bc
00000010: db4b 96bb 1507 c53b 355c 12bc ab16 95bc
00000020: 4ebd 9bbd 1081 1cbd 12d0 3fbc b7e9 cb3b
00000030: 123a 523d d76e 92bc bf30 cf3c 56f2 073d
00000040: d298 04bc 0436 813c 1597 4f3c 4c44 043c
00000050: 1b81 3c3c 3809 ebbc 5fe1 9cbc ae56 15bd
00000060: b4ac 24bb b632 85bd 49cc 75bc bf24 383c
00000070: 11a1 0ebc 5f41 5a3b 16a7 93bd f2b8 d03c
00000080: 9f28 23bd 90b3 613d 7ee7 16bd cf7d c6bc
00000090: 4ed1 81bc efb6 2ebc 864e 94bc c847 143d
000000a0: 944a 8ebb 716c 6cbd 741f edbc a826 60bc
000000b0: 8060 56bd a9d2 a03c c336 883c 1c47 5dbd
000000c0: 78d0 11bd c126 8e3d 51fa d43b ae54 5f3c
000000d0: 7c16 86bc b5db 953c b475 54bc e61d 843c
000000e0: 7e26 38bb ec4d 733d 939a 8339 8e4e 9b3c
000000f0: c7e3 e9bc c85e 99bd 5906 833d 3454 4fbc
00000100: 8029 1fbc b8b7 fb3b 080b b13c 1513 37bd
00000110: c3b1 92bc c5ec 90bc a84b 7dbb 8096 a0bb
00000120: 1c49 8fbd 7bfd 9bbc 06bd 83bc 1f29 d53b
00000130: 1179 3c3a 8d26 3e3d 92ca 26bd 9243 7dbd
00000140: be31 b43c f5df d1bd 020f 2f3d 736c f43c
00000150: c8e2 aebd 71c0 573d 8c10 373d c07f 2fbd
00000160: f2db 67bd 1b74 303c b66d c13c 5ffd 5c3d
00000170: 214a 6bbd dd0e eebd 86fa 09bd 4572 3f3d
00000180: ceaa 553c eddb 953c a699 d63c 6bf3 6fbb
00000190: 1b6a 253d 7f62 c7bc cace 2dbd 6f3e 213d
000001a0: fe1b 0aba bc8d cc3c 643b 95bb 7b3a 3ebd
000001b0: b27e 0abe 58bd 55bd 2632 ae39 3a58 fd3b
000001c0: f9f0 a9bb f705 1d3d 6a7f 22bd ed31 a13d
000001d0: 44b0 f23c 07da b6bc 4109 97bb fd79 f13c
000001e0: 24fa bb3c c356 e13c cdd3 d8bc be29 df3d
000001f0: 8172 dd3d 6ff6 ef3b 08fb 913c dff6 7dbd
00000200: eb16 72bb 3759 e13c 2153 1ebc 035c aabc
00000210: cc59 c4ba 6b71 2fbc 6fb3 95bc b68b dcbc
00000220: 17b7 863b 3143 1f3c 7318 f13c a5b2 703c
00000230: b94d 2abd 583d 6bbd c55e fe3c 6e13 41bc
00000240: 71cb f6bc 2731 483c 5270 04bd 6a8a 9e3c
00000250: fc43 193d ace3 c53c 0a6a 823b 45bf dbbc
00000260: 45a8 b93c b1df 183c ed85 583c f57c ac3b
00000270: f7a9 c2bc b3ad a3ba e6dd 98bc fc34 92bc
00000280: 5e84 483c 4ed6 f4bc bb43 193c 4236 c13c
00000290: c596 17bd 152d 2cbd 7ccc 3fbc e1af a43b
000002a0: 15ff 7cba fc4d 103d 865f 6f3c f0b8 4a3c
000002b0: 6af5 0e3d 1792 b4bb 6b9b 8fbc bdc8 32bd
000002c0: 8237 35bd 1a8e 8a3c 3733 0c3c a112 1f3c
000002d0: f781 f83c da8a 3cbd 9db0 d7bc f341 c0bb
000002e0: 142d 243d 7c29 2d3b b2de ee3c 267f e4bc
000002f0: ee09 94bc 7e98 5cbb f6e8 a63b 2868 e1bc
00000300: bc89 86bc a12a 103d d506 3f3d 34dc 3d3c
00000310: a208 773c 4396 06bd fa4c 893a f6fb e83b
00000320: c6b8 c3bc 883d a53b 68e7 c8bc 56cb 933c
00000330: 66a2 82bc a7b7 7a3b 79ab 02bc c8b4 c6bc
00000340: f5c6 a13a a342 833b 2f14 8d3a 382f d3bb
00000350: e215 24bd 8c33 d03c e474 50bc d200 bd3c
00000360: dd1e 403b 51bb cb3c 69e2 ca3c dae0 9abc
00000370: 01b1 5c3a 1a6f c43c 6c41 d4bc 2d70 ff3c
00000380: fe1a 0cbb 0f7f 93bb 119a 34bd 3d8d fdba
00000390: 51b6 673c 4401 013d b9cc 1cbb 69af cf3b
000003a0: 4d02 2e38 1dab 0ebb 0955 913c aaf3 30bb
000003b0: f20e dfbc ec69 7fbc e9df 1e3d 05de 683c
000003c0: c828 29bd 0f51 cf3c 2155 0bbd 6926 613c
000003d0: 53b1 053c d809 833b 38f8 cb3c ee9a d6bb
000003e0: 0d53 74bd ff59 bd3c e8bd 793c 3343 01bc
000003f0: a6b0 963a 0ae4 093d b2ef 6e3b d78f 00bc
0.0061630355 -0.07922794 -0.016069539 -0.02400752 -0.0045866794 0.006012807 -0.008933117 -0.018199285
-0.076044664 -0.03820902 -0.011707323 0.0062229293 0.05132491 -0.017875118 0.025291799 0.033190094
-0.008093076 0.015772827 0.012670298 0.008072924 0.0115053905 -0.02869092 -0.019150434 -0.036459617
-0.0025127353 -0.06503813 -0.015002319 0.01123923 -0.008705393 0.0033303124 -0.072096035 0.025478814
-0.03983366 0.055102885 -0.036841862 -0.024229912 -0.015846875 -0.010663732 -0.01810385 0.03620127
-0.0043423865 -0.057720605 -0.028945662 -0.013681091 -0.052338123 0.0196317 0.016627675 -0.054022893
-0.035599202 0.069409855 0.0064995666 0.013631029 -0.016368143 0.018293241 -0.012967516 0.016127538
-0.0028099115 0.059400484 0.00025101434 0.018958356 -0.028550996 -0.07488781 0.06397695 -0.012654353
-0.009714484 0.007681813 0.021611705 -0.044695932 -0.017907029 -0.017691026 -0.003864983 -0.0049007535
-0.069963664 -0.019041767 -0.016081344 0.006505146 0.0007189671 0.046423484 -0.04072053 -0.06183202
0.021996375 -0.102477945 0.042738922 0.029836869 -0.08539349 0.05267376 0.044693515 -0.04284644
-0.05660624 0.010769869 0.023611885 0.05395257 -0.05744374 -0.11623929 -0.033686183 0.046739835
0.013041211 0.018293345 0.026196312 -0.0036613594 0.040384393 -0.024338959 -0.042433538 0.039366182
-0.00052684534 0.024969928 -0.004554199 -0.04644249 -0.13524893 -0.052182525 0.0003322523 0.0077314647
-0.005186197 0.038335767 -0.039672293 0.07870851 0.029625066 -0.02232076 -0.0046092574 0.029477114
0.022946425 0.027507192 -0.026468182 0.108966336 0.108128555 0.0073230783 0.017819896 -0.062003013
-0.003693993 0.027508361 -0.009663374 -0.020795828 -0.0014980375 -0.010708193 -0.018274037 -0.026922088
0.0041111815 0.0097206095 0.029430604 0.01469103 -0.04157803 -0.05743155 0.031051049 -0.011784418
-0.030126305 0.01221875 -0.03233368 0.01935311 0.03741835 0.024156414 0.003979926 -0.026824603
0.022663245 0.009330676 0.013215524 0.0052639195 -0.023762686 -0.001248768 -0.018660497 -0.01784753
0.01223859 -0.029887345 0.009354527 0.023585442 -0.03700902 -0.04203518 -0.011706468 0.005025849
-0.00096510473 0.03523062 0.014610177 0.012373194 0.034902014 -0.0055105793 -0.017530164 -0.04364847
-0.04424239 0.016913462 0.008557132 0.009709031 0.03033541 -0.046030857 -0.026329333 -0.0058672368
0.040082052 0.0026422432 0.029158924 -0.02789266 -0.018071141 -0.0033660228 0.005093689 -0.027515486
-0.016423099 0.035196904 0.046637375 0.011588145 0.015077742 -0.032858144 0.0010475211 0.007110114
-0.023891818 0.0050427355 -0.024524406 0.018041294 -0.015946578 0.0038256438 -0.007975453 -0.024256125
0.0012342619 0.0040057465 0.0010763461 -0.006444838 -0.04005993 0.025415204 -0.012723181 0.02307168
0.002931527 0.024869593 0.024766164 -0.018906046 0.00084187096 0.023978759 -0.025910102 0.03118142
-0.0021378393 -0.0045012305 -0.04409224 -0.001934446 0.014142589 0.031495348 -0.0023925735 0.006338049
4.1486976e-05 -0.0021769472 0.017740743 -0.0027000704 -0.027228806 -0.015589219 0.038787756 0.01421309
-0.041298658 0.025307206 -0.034016732 0.013742068 0.008159953 0.003998976 0.024898633 -0.006549231
-0.059649516 0.023114203 0.015243031 -0.007889557 0.0011496737 0.03366474 0.0036458788 -0.007846794

out.weight f4 [200, 64]
00000000: 1d92 5637 553f 0e38 5ffb b537 163f 5eb8
00000010: 1bb6 3a38 db51 2a38 eca4 b837 dd9c c538
00000020: 0ff9 a5b7 4b21 3a38 5e34 1c38 d392 d5b7
00000030: 5a4f da37 f259 1ab8 aefa fcb7 a83f f237
00000040: ef66 0738 1146 69b8 f476 74b8 9805 5db8
00000050: f195 56b8 d71f 0b38 cf6b d637 0f83 0938
00000060: 3c38 11b8 c32a 18b8 8082 cc37 0a56 0538
00000070: 4e72 85b7 1830 bbb7 cad1 2fb8 cfc5 1438
00000080: 1ca3 1838 7cae c8b7 29e5 2c38 bfa7 0bb8
00000090: b7b6 0a38 dbbd 53b8 ef47 07b8 6e33 9e38
000000a0: 230d 7438 e664 1638 b29b 0f38 f50a f537
000000b0: 02b1 0fb8 29a5 e937 296f fbb8 ecb4 fab7
000000c0: 9517 b2b7 51af 1db8 5ab0 a6b8 9d3a 48b8
000000d0: e7c2 8037 a893 0fb8 dbc5 64b8 6204 71b8
000000e0: 2f16 59b8 6029 ca37 061b 2838 fafc 5e38
000000f0: 69d1 4d38 f0d5 2ab8 bee1 7438 0237 f737
00000100: 35a3 c1b7 bb32 12b7 085d 6837 8a82 1c37
00000110: 56ab 8935 22f2 2c37 5189 d4b6 9419 81b5
00000120: d0d5 2e36 b893 b5b7 13e0 8936 4852 0837
00000130: 227e c3b7 fb18 42b6 5a44 ea36 a766 4db7
00000140: af63 35b6 c601 7fb6 6c88 2cb7 8af2 98b7
00000150: 7a7f 0037 91b0 1bb8 9c90 4936 f0a1 99b7
00000160: d5b9 6836 6729 13b7 97f8 f3b4 c0f1 2fb7
00000170: 2976 bf37 663f 6b37 756e 2237 49e1 4437
00000180: 0d31 fd36 f8d0 ec37 e365 fab6 5a90 f136
00000190: fbfa 40b7 2c8a 5ab6 0f47 e6b7 af17 99b6
000001a0: 1f41 8037 9b74 a9b7 4ba9 61b7 7321 75b7
000001b0: a9fd 0938 bef2 9bb7 6f2f f6b4 d76c a835
000001c0: a159 e837 3df3 ef34 ab61 3937 6515 39b7
000001d0: 9a47 cd36 4965 27b7 c634 5136 7650 fcb7
000001e0: 2577 5636 08ed 10b7 8f4d 2937 80e9 4536
000001f0: dfd1 10b7 a1ea 7136 b40b 8133 81a4 31b7
00000200: 8b08 d337 1c98 cb37 9aaf 8f38 c817 c1b8
00000210: 2717 7738 9fac 2838 6227 5d38 9b21 8338
00000220: d672 67b8 8480 0b38 6376 5138 a946 52b8
00000230: 2cab ca37 3166 4db8 7761 1db8 2f7a 5f38
00000240: ce0a 6538 90ab 01b8 e41b a7b8 6c76 abb8
00000250: 407f 61b8 dd30 9037 c519 2538 ec78 0638
00000260: fcca 89b8 55e8 7db8 abc9 0e38 dcb3 0a38
00000270: 5a95 2b37 3253 71b7 3ed0 36b8 263c 4a38
00000280: a7a3 3038 955c dfb7 7118 4638 b77c b0b7
00000290: f4bf 1a38 e2bb 2cb8 4d27 8cb8 9837 8f38
000002a0: a3db 6c38 58c5 6d37 bb46 4837 bf4a 3b38
000002b0: 7076 bfb8 edcc 4038 0719 dbb8 aecf 0ab8
000002c0: 1fda 8cb6 48fe 30b8 1847 c5b8 d53b 78b8
000002d0: d091 3b38 8dc4 48b8 7ddb 90b7 bdb6 fcb8
000002e0: c9da 81b8 5cdc 0e38 0310 7038 5cb9 b538
000002f0: c235 8b38 1add 76b8 87b4 9438 4f07 8f38
00000300: 9368 e039 87ad 5f39 cc8d 92b9 bbff 13b9
00000310: 14be 7339 6568 0539 7ea9 c1b7 158b b739
00000320: 9380 3b38 2f43 7539 996d da39 3b70 7439
00000330: c573 8d38 d102 95b9 f170 2ab9 f86f 1aba
00000340: cb48 0e3a 5a72 57b9 784e 1eb9 3f59 67ba
00000350: e6e6 b6b9 5435 29b8 431a 96b8 4713 89b9
00000360: ecb3 01ba 2ca0 9eb9 a8b7 97b9 a888 1db8
00000370: 174a 0dba 0379 14b9 bff4 66b8 f84c 6139
00000380: 5eaf 9c38 ae64 8538 7412 c6b9 f829 d139
00000390: adb9 6f37 6518 8fb9 c1d2 0eb9 6a10 143a
000003a0: f472 3ab6 77ee 85b8 c64c 263a f7dc c038
000003b0: e917 f1b9 5d96 8db9 4d13 7c39 10a3 fe38
000003c0: d6d7 9137 d4a3 2db9 f526 e039 3a16 e637
000003d0: 4ecd 38b8 86c6 d5b9 51a8 64ba 1816 1fb9
000003e0: 270e 87ba 286a a638 0f5f ae39 8166 cdb8
000003f0: 29f8 be39 f515 88b9 2b18 2f3a ed1a dab9
1.2789414e-05 3.391442e-05 2.1693935e-05 -5.2987678e-05 4.4515455e-05 4.0607392e-05 2.2011307e-05 9.42291e-05
-1.978551e-05 4.4376862e-05 3.724207e-05 -2.5459949e-05 2.6024576e-05 -3.680023e-05 -3.0157473e-05 2.887829e-05
3.2282373e-05 -5.5616783e-05 -5.8284917e-05 -5.2695716e-05 -5.116122e-05 3.3169836e-05 2.556099e-05 3.2785403e-05
-3.4623066e-05 -3.627945e-05 2.4379464e-05 3.17898e-05 -1.5908063e-05 -2.2314533e-05 -4.1918633e-05 3.5470173e-05
3.639153e-05 -2.3923109e-05 4.1221418e-05 -3.329641e-05 3.307193e-05 -5.0483137e-05 -3.22535e-05 7.5436066e-05
5.8186368e-05 3.5856756e-05 3.423886e-05 2.9211378e-05 -3.425871e-05 2.7852673e-05 -0.00011989318 -2.988657e-05
-2.1230235e-05 -3.7594993e-05 -7.948345e-05 -4.7738304e-05 1.5349548e-05 -3.4231372e-05 -5.4543703e-05 -5.746296e-05
-5.175749e-05 2.4099543e-05 4.007949e-05 5.3164527e-05 4.9070837e-05 -4.0730403e-05 5.8384372e-05 2.947031e-05
-2.3083392e-05 -8.71409e-06 1.3849938e-05 9.328718e-06 1.0257161e-06 1.0308375e-05 -6.334078e-06 -9.618693e-07
2.6052476e-06 -2.1645668e-05 4.109004e-06 8.125389e-06 -2.3304547e-05 -2.8922793e-06 6.9817006e-06 -1.2242853e-05
-2.7029125e-06 -3.7998993e-06 -1.0283762e-05 -1.8232753e-05 7.659075e-06 -3.711932e-05 3.0035508e-06 -1.831443e-05
3.4678862e-06 -8.7715225e-06 -4.544315e-07 -1.04871e-05 2.2823997e-05 1.4021853e-05 9.68167e-06 1.1734964e-05
7.545698e-06 2.8230701e-05 -7.4624418e-06 7.1991644e-06 -1.1502528e-05 -3.2564958e-06 -2.7451226e-05 -4.5625125e-06
1.5289113e-05 -2.0200669e-05 -1.3450462e-05 -1.4610926e-05 3.2899585e-05 -1.8590476e-05 -4.5855583e-07 1.2548652e-06
2.7698292e-05 4.4694198e-07 1.1049599e-05 -1.1031841e-05 6.1178116e-06 -9.977558e-06 3.1174145e-06 -3.0078209e-05
3.1957836e-06 -8.638257e-06 1.0091243e-05 2.9491202e-06 -8.631933e-06 3.604837e-06 6.0091594e-08 -1.0588324e-05
2.5157138e-05 2.4270317e-05 6.85148e-05 -9.207387e-05 5.891095e-05 4.0215087e-05 5.2727184e-05 6.252826e-05
-5.518164e-05 3.3259872e-05 4.993974e-05 -5.013371e-05 2.4159985e-05 -4.8970982e-05 -3.7522488e-05 5.3281135e-05
5.4607917e-05 -3.0915777e-05 -7.9683756e-05 -8.175973e-05 -5.376269e-05 1.7188891e-05 3.9363065e-05 3.2060707e-05
-6.570478e-05 -6.0536277e-05 3.4043256e-05 3.306927e-05 1.0227168e-05 -1.438409e-05 -4.3586122e-05 4.821657e-05
4.2114083e-05 -2.6626783e-05 4.722964e-05 -2.103891e-05 3.689523e-05 -4.1182975e-05 -6.6830406e-05 6.8291265e-05
5.6471337e-05 1.41722485e-05 1.1937397e-05 4.4653887e-05 -9.1296504e-05 4.596722e-05 -0.000104473955 -3.309518e-05
-4.1977178e-06 -4.2198488e-05 -9.406934e-05 -5.918353e-05 4.4720073e-05 -4.7866768e-05 -1.7268345e-05 -0.00012050334
-6.191951e-05 3.4060664e-05 5.723537e-05 8.6652784e-05 6.63805e-05 -5.8856887e-05 7.090816e-05 6.820133e-05
0.00042802523 0.00021331581 -0.00027952937 -0.0001411428 0.00023245096 0.00012722758 -2.3086319e-05 0.00035008104
4.470402e-05 0.00023390049 0.00041661857 0.00023311462 6.744968e-05 -0.00028421593 -0.00016254537 -0.00058913184
0.0005427717 -0.00020546597 -0.00015097286 -0.00088252494 -0.00034885778 -4.0342406e-05 -7.157449e-05 -0.0002614504
-0.000494777 -0.00030255446 -0.000289378 -3.7558988e-05 -0.00053897634 -0.0001415946 -5.506421e-05 0.00021486345
7.471324e-05 6.360687e-05 -0.00037779252 0.00039894856 1.4288741e-05 -0.0002729326 -0.00013620687 0.0005648198
-2.7783071e-06 -6.386352e-05 0.00063438376 9.196431e-05 -0.00045984917 -0.00027005645 0.00024039783 0.000121420366
1.7385853e-05 -0.00016559596 0.00042753635 2.7428487e-05 -4.4060223e-05 -0.00040774437 -0.0008722591 -0.00015171652
-0.00103039 7.93527e-05 0.0003325869 -9.7942546e-05 0.00036424518 -0.000259563 0.00066793215 -0.00041600261

out.bias f4 [200]
00000000: 150a 7eb8 ea62 c7b8 cf79 aab8 a2d8 34ba
00000010: 291b 32b9 5e39 c0b9 ecd1 f0b9 e6e8 48ba
00000020: 1813 a6ba 6d0f d4ba 6a54 59bb bacd 3abb
00000030: 9040 dabc fd7d 15bc 1719 a1bb 054b 9bbb
00000040: c8c1 b2bb d8dc fdbb e501 04bc 3fdf 85bb
00000050: b7eb 99bb a645 2fbb b1d6 bfba 51bb 333a
00000060: 475d a53a 8823 8b3b 28fc 283c 0899 5c3c
00000070: 101f b23c ffef c93c 26bf f93c acc5 1e3d
00000080: b9fe 393d 11bb 563d df84 7b3d 3db5 973d
00000090: a4dd ab3d d2ad da3d 9303 f53d 692c 123e
000000a0: a3b4 273e c010 3c3e fd1f 4b3e eb59 5d3e
000000b0: 38e8 6b3e beef 803e 5225 8a3e 36f7 8c3e
000000c0: 8265 873e 527c 893e e8d9 8c3e ddad 913e
000000d0: 9cad 8a3e 3148 863e af86 7c3e e826 6b3e
000000e0: ca7e 573e 769c 433e d37a 2e3e 5f8d 1b3e
000000f0: f944 133e 9e3e 0d3e 1c07 023e f5a3 f63d
00000100: cfba 013e 006c fd3d 2cd4 ed3d 5e4f d33d
00000110: 802e d73d 4d32 c73d 1b32 b43d a388 993d
00000120: 081e a43d 9c86 923d 7395 873d 075e 803d
00000130: c80d 8a3d a08c 913d 2c6b 993d fa7c c73d
00000140: e2a0 c33d 9b59 ea3d 0fed 063e 2c81 143e
00000150: d66c 243e 0387 393e 7186 443e 63a2 523e
00000160: ec90 593e 2b79 5f3e 1818 543e 60ae 533e
00000170: 8841 523e 2bb6 483e d5c4 433e e298 3a3e
00000180: 8b95 353e 1480 303e 5ff3 2b3e afa9 293e
00000190: b75b 2f3e 420f 333e fbb0 383e 86bc 3e3e
000001a0: b5c0 453e ef40 483e 6e0e 4d3e a3fb 563e
000001b0: 82d3 533e ccbb 5c3e 9da5 5d3e 3ce9 673e
000001c0: 2a58 6a3e b99a 723e 6d3c 7f3e e4ba 7a3e
000001d0: b757 813e e39a 8a3e 536f 8b3e 42e3 8a3e
000001e0: f674 983e 27e5 913e 734c 943e 622d 993e
000001f0: 9bf8 963e 0e53 9a3e 0113 9d3e 076e 9e3e
00000200: 8920 9f3e 07cf a03e 293d a43e ad6f a53e
00000210: 3c66 9e3e dd65 9c3e b6a7 a03e f76d 983e
00000220: 796d 9a3e bd6e 9d3e 74d2 913e ed89 923e
00000230: cacb 8e3e a48b 8a3e 8437 943e c7f9 903e
00000240: 2da2 8b3e c49a 873e fc04 813e 02af 713e
00000250: fc12 813e 80a7 763e ac17 693e 3128 6f3e
00000260: 3327 6d3e d234 6a3e 5e5a 5c3e a052 5c3e
00000270: f0ee 5c3e c7bf 5c3e c2f3 5d3e e1a9 483e
00000280: 3a20 553e 0617 553e 70e5 533e 300f 563e
00000290: b85e 483e 6fb6 513e 4faa 493e 20e4 4b3e
000002a0: e5f7 493e a026 443e 0a17 423e 581b 413e
000002b0: 1d28 453e d1f4 483e 8397 483e fc7b 4c3e
000002c0: f469 4e3e 5d4b 553e 69d1 533e 265a 5a3e
000002d0: 5836 5c3e 44b6 603e 8564 5f3e 7f93 673e
000002e0: 9b06 673e 1069 653e e1b7 663e e2d3 673e
000002f0: 5067 5e3e 0174 613e a8e5 533e d121 5f3e
00000300: 8a52 5b3e ad4f 533e 67e6 4e3e c242 533e
00000310: d146 4e3e a115 4f3e 2627 4a3e 4ab0 4e3e
-6.056771e-05 -9.5074836e-05 -8.12892e-05 -0.0006898736 -0.00016985521 -0.00036663836 -0.0004593277 -0.0007664099
-0.0012670485 -0.0016178914 -0.0033161887 -0.002850397 -0.026642114 -0.009124276 -0.004916321 -0.0047391676
-0.0054552294 -0.007747274 -0.008057092 -0.004085451 -0.004697289 -0.0026744395 -0.0014636127 0.00068562204
0.00126163 0.004246179 0.010314025 0.01346422 0.021743327 0.024650572 0.030486654 0.038762733
0.045408938 0.052424494 0.061406013 0.07407615 0.08391884 0.10677685 0.11963572 0.14274754
0.16377501 0.18365765 0.19836421 0.21616332 0.23037803 0.2518291 0.26981598 0.27532357
0.26444632 0.2685266 0.2751 0.2845296 0.27085578 0.26226953 0.24660753 0.2296406
0.2104446 0.19102654 0.17039041 0.15190648 0.1438178 0.13793418 0.12698025 0.12042991
0.12668918 0.12374115 0.11612734 0.103178725 0.10506916 0.09726391 0.08798619 0.074967645
0.080135405 0.07154581 0.06620302 0.06267934 0.0674091 0.071069 0.074911445 0.09740634
0.0955217 0.11442872 0.13176368 0.145024 0.16057143 0.18117909 0.1919191 0.20569758
0.2124669 0.21823566 0.20712316 0.20671988 0.2053281 0.19600742 0.19118054 0.18222383
0.17732827 0.17236358 0.16792057 0.16568635 0.1712483 0.17486289 0.18036263 0.18626603
0.19311793 0.1955602 0.20025036 0.2099443 0.20686153 0.21556014 0.21645208 0.22647566
0.22885194 0.23691835 0.24925394 0.24485356 0.25262234 0.27071294 0.2723337 0.2712651
0.29776734 0.28495142 0.28964576 0.29917437 0.29486546 0.3014149 0.3067856 0.3094332
0.3107951 0.3140795 0.32077911 0.32311764 0.30937374 0.30546466 0.31377953 0.29771397
0.30161646 0.3074855 0.28480875 0.28620854 0.27889854 0.27059662 0.28948605 0.28315565
0.27272168 0.26485264 0.25199115 0.23601916 0.25209796 0.24087334 0.22762936 0.23355176
0.23159485 0.22871712 0.21518847 0.21515894 0.21575522 0.21557532 0.21675017 0.19596054
0.20813075 0.20809564 0.20692992 0.20904231 0.19567382 0.20479749 0.19693874 0.19911242
0.1972347 0.1915536 0.18954101 0.18858087 0.19253583 0.1962464 0.19589047 0.19969171
0.20157605 0.2082953 0.20685352 0.21323451 0.21505105 0.21944529 0.21815689 0.22614859
0.22561114 0.2240336 0.22531082 0.2263942 0.21719098 0.22016908 0.20693076 0.21790244
0.21418205 0.20635863 0.20205079 0.20630935 0.20144202 0.20223095 0.19741496 0.20184436
