best_model/xasnet_model.pt (torch, 247822 bytes, 16 tensors)

interaction_layers.0.bias f4 [256]
-0.0002354429 -0.0008707809 -0.0006783395 -0.00015240206 -0.00023729069 -0.00079630024 0.00014719275 7.649177e-05
0.000111878646 -0.00013752267 0.0017547404 -0.00062639936 0.00043282803 0.0005402874 -8.1327125e-05 -0.00019570414
6.2946914e-05 0.00030911935 8.233631e-05 -0.00075087487 0.0008337486 0.0005669844 -0.00067384425 0.0001771218
-0.0045507713 0.00020908422 0.00017535266 -1.0039718e-05 0.00016236925 0.000341935 -0.0004345465 -0.0004372652
-0.00040871667 0.0003797267 0.00030602879 -0.00020853124 0.000113563816 -0.0001526347 -0.000286192 -0.00021050106
-0.00058199983 -4.681754e-05 0.00011325868 -0.0007220087 -5.117856e-05 -0.00021292536 -0.00025519566 -0.00027113062
-1.4966187e-05 0.0030137796 0.0004711277 0.0006391703 -0.00046220468 -0.0011028262 0.0002943126 0.0013712608
0.00011266129 0.0004472809 0.0001562079 -0.0003332414 -0.0005820667 0.00036482644 0.00026774555 -7.423812e-05
-0.00015780827 -0.00012514649 0.0001271436 -0.004018271 0.00018862096 0.0002577507 8.1535145e-05 0.0010374645
0.0004124511 -0.0008978701 0.0002481242 -0.00018269024 -3.9914693e-07 -0.00014331698 -0.00035886877 -0.0009794523
-0.00014518974 0.0013406259 -7.07121e-05 -0.000230024 -0.00029921788 0.00012617813 -8.907342e-05 -0.00015264876
-0.00015254058 0.0008180429 0.0002807327 -0.00017910733 -0.000707444 -0.0002062993 -7.35153e-05 -0.0007102893
-0.00037159835 0.000107478045 -0.0003669593 1.1513791e-06 -0.00020464217 0.00042192594 -0.00060174643 0.0008458043
-4.4350294e-05 0.00011303056 -0.00072741375 -0.00012569882 0.00021962415 -0.00070080167 0.0009390265 -5.0698498e-05
-7.9424455e-05 0.000115947565 -0.00028678967 -4.0886436e-05 -2.1768062e-06 -0.0011442901 1.8947982e-05 -0.0008114496
-0.000100133846 0.00045437575 0.000180247 0.00021460492 -0.0013104035 -0.00010826468 -0.0005330824 -0.0011840635
-0.00022148172 -0.00045442476 0.00019377118 -0.0005636231 -0.00048666788 -0.00045476595 -0.00017838783 0.0013473281
0.00023779756 0.0019509266 0.00022733936 0.00059509097 -0.0009804163 -0.0006581666 2.1340584e-05 0.001140632
-0.00038456888 -2.8206472e-05 -0.0040034964 -0.00020592862 -0.00018857411 -0.00045250126 0.00016600579 -0.00024317215
-0.0009670032 -0.0003700797 0.0005091696 -0.0012335607 0.0010146848 6.710119e-05 9.9126504e-05 -0.00028393444
-0.0029584747 -0.00012114747 0.00016832234 0.00012863113 3.3408873e-05 9.755909e-06 0.0015225465 7.019709e-05
0.00047811095 -0.00029817715 -0.0002024275 0.000118724 0.001656168 0.00021386796 -0.00011351921 0.0005068897
0.00027843117 0.00017099483 0.0003117341 -0.00048576584 -0.0004138105 7.920131e-05 -0.00190195 -0.00060781906
0.0024735115 0.00014394078 0.00051966205 -0.00034995674 -6.508103e-06 -9.411809e-05 0.0010241815 0.00087913085
-0.00038440234 0.0010923629 -0.00026730326 -0.00026714304 -1.8939188e-06 -1.9860003e-05 -0.00013830305 0.00016654938
-0.0006097803 -0.0003912826 -0.00035032615 -0.00011557725 0.00017000978 -4.252107e-05 -0.0012266135 2.2777765e-06
0.00013495245 0.00031358353 8.324344e-05 0.0010415564 -1.6447184e-05 -0.00060316146 -0.0019133849 0.0006020917
-0.00017426923 -4.3199707e-06 0.00025104402 0.00070654886 3.2184493e-05 -0.00019266538 -0.00020996053 0.00014599261
0.00055892736 0.00014718277 -0.00039766807 5.6213703e-06 0.0007871727 0.00047489518 -0.00034298148 0.00035361949
-0.0011006425 0.0013512821 0.0002467056 -0.0006937313 -0.00022454432 0.00043536813 -0.001005175 -0.00032671803
-0.0005333498 0.00023927163 -0.0010107494 0.0002403523 0.000117823976 0.00016308435 0.00023414413 -0.00021635748
2.4305647e-05 0.0001855783 0.00019274912 0.00033920215 -0.00015016129 0.00053375325 0.00029969617 -0.00016477819
00000000: 39e1 76b9 1e45 64ba 98d2 31ba 1ece 1fb9
00000010: 3cd1 78b9 cebe 50ba c157 1a39 356a a038
00000020: 64a0 ea38 f633 10b9 51ff e53a f334 24ba
00000030: 32ed e239 13a2 0d3a 2b8e aab8 ee35 4db9
00000040: 5e02 8438 4c11 a239 f8ab ac38 5cd6 44ba
00000050: ec8f 5a3a aea1 143a eca4 30ba c5b9 3939
00000060: a31e 95bb 9e3d 5b39 dfde 3739 4370 28b7
00000070: aa41 2a39 bd45 b339 d8d3 e3b9 be40 e5b9
00000080: 0649 d6b9 0e16 c739 7d72 a039 2ea9 5ab9
00000090: 1c29 ee38 910c 20b9 0a0c 96b9 f3b9 5cb9
000000a0: 5991 18ba f35d 44b8 4a85 ed38 2f45 3dba
000000b0: 8fa8 56b8 b744 5fb9 c8cb 85b9 8926 8eb9
000000c0: 4917 7bb7 d582 453b b101 f739 fe8d 273a
000000d0: 1054 f2b9 b58c 90ba f84d 9a39 e1bb b33a
000000e0: 9244 ec38 0781 ea39 bdcb 2339 e7b6 aeb9
000000f0: d695 18ba 2d46 bf39 3360 8c39 4ab0 9bb8
00000100: 5679 25b9 c139 03b9 da51 0539 b3ab 83bb
00000110: 8ec8 4539 b722 8739 d9fd aa38 88fb 873a
00000120: 403e d839 0b5f 6bba ab16 8239 8a90 3fb9
00000130: 564a d6b4 5c47 16b9 8d26 bcb9 f760 80ba
00000140: 133e 18b9 f1b7 af3a 454b 94b8 9932 71b9
00000150: 58e0 9cb9 af4e 0439 eecc bab8 5710 20b9
00000160: 4df3 1fb9 ee71 563a 4e2f 9339 c2ce 3bb9
00000170: c373 39ba 0c52 58b9 3a2c 9ab8 b532 3aba
00000180: 16d3 c2b9 d665 e138 7264 c0b9 1689 9a35
00000190: 3795 56b9 f135 dd39 85be 1dba f7b8 5d3a
000001a0: c404 3ab8 d20a ed38 e9af 3eba 05ce 03b9
000001b0: e94a 6639 01b6 37ba 0029 763a 19a5 54b8
000001c0: ae90 a6b8 e028 f338 425c 96b9 7a7d 2bb8
000001d0: 3f15 12b6 01fc 95ba 7bf2 9e37 76b7 54ba
000001e0: f3fe d1b8 4839 ee39 b000 3d39 9207 6139
000001f0: d8c1 abba 280c e3b8 8ebe 0bba 9432 9bba
00000200: 8c3d 68b9 dc3f eeb9 0e2f 4b39 1bc0 13ba
00000210: 7527 ffb9 a76d eeb9 9e0d 3bb9 d498 b03a
00000220: 4c59 7939 3cb6 ff3a f261 6e39 e1ff 1b3a
00000230: 5081 80ba d088 2cba 8e04 b337 4281 953a
00000240: f69f c9b9 f09c ecb7 c32f 83bb 8bee 57b9
00000250: fabb 45b9 b13d edb9 d711 2e39 07fc 7eb9
00000260: 7c7e 7dba 4207 c2b9 cb79 053a 6eaf a1ba
00000270: 2cff 843a adb8 8c38 23e2 cf38 09dd 94b9
00000280: f8e2 41bb 8d10 feb8 af7f 3039 28e1 0639
00000290: 8120 0c38 4fad 2337 2f90 c73a c736 9338
000002a0: f7aa fa39 a954 9cb9 b842 54b9 76fb f838
000002b0: c713 d93a be41 6039 2911 eeb8 cbe0 043a
000002c0: 66fa 9139 134d 3339 3e70 a339 63ae feb9
000002d0: b5f4 d8b9 e118 a638 da4a f9ba 0c56 1fba
000002e0: a31a 223b cfee 1639 ee39 083a 667a b7b9
000002f0: 2e60 dab6 4461 c5b8 d43d 863a 7975 663a
00000300: 9c89 c9b9 9e2d 8f3a d624 8cb9 550f 8cb9
00000310: 8e32 feb5 0899 a6b7 7105 11b9 c2a3 2e39
00000320: aad9 1fba 1025 cdb9 fbab b7b9 1062 f2b8
00000330: a744 3239 a758 32b8 52c6 a0ba e7db 1836
00000340: 0682 0d39 7868 a439 fb92 ae38 d584 883a
00000350: 0ff8 89b7 7b1d 1eba 8bca faba b1d5 1d3a
00000360: 0abc 36b9 44f4 90b6 8f9e 8339 b137 393a
00000370: d6fd 0638 3806 4ab9 da28 5cb9 9815 1939
00000380: fb84 123a 1355 1a39 1b7e d0b9 349f bc36
00000390: 445a 4e3a 5afb f839 32d2 b3b9 0166 b939
000003a0: 6f43 90ba 811d b13a 4458 8139 85db 35ba
000003b0: a873 6bb9 1f42 e439 14c0 83ba 5a4b abb9
000003c0: 80d0 0bba fde4 7a39 1f7b 84ba 1407 7c39
000003d0: 4418 f738 9f01 2b39 9684 7539 05de 62b9
000003e0: fbe3 cb37 cc97 4239 b31c 4a39 f1d6 b139
000003f0: 9d74 1db9 93eb 0b3a 8a20 9d39 4fc8 2cb9

interaction_layers.0.lin.weight f4 [256, 17]
-0.09937458 -0.00025384565 -0.011653352 0.08209271 -0.036099695 -0.10418758 -0.09292468 0.10634529
0.029175138 -0.09058906 -0.053186975 0.04457789 -0.050061706 0.05701081 -0.034420233 -0.1923596
0.22102903 -0.1733454 0.04571465 -0.015362635 -0.015243573 -0.0042361966 -0.05064402 -0.11169031
-0.004225608 -0.070895046 0.0031083028 0.00933416 0.0064188587 -0.029731 0.02222587 -0.029812912
-0.19450383 0.39446574 -0.091164775 0.10143829 0.073232315 0.23222014 -0.13531087 -0.045743328
0.08876922 -0.00046371768 0.0036541682 -0.02214103 0.03371133 -0.047470745 0.07323655 -0.0028697664
0.052306388 -0.15409465 0.20113115 0.12953453 -0.15970924 0.06613294 -0.25565836 0.025350254
0.038878962 -0.052950636 -0.080576055 0.0680913 0.16447596 -0.12145683 -0.039867703 0.090161204
-0.058896407 0.09296378 -0.09047581 -0.055283643 0.06464694 0.071951665 -0.012205531 0.07711156
-0.02420843 -0.045173135 0.041048855 -0.059327923 0.05799449 -0.102653176 0.0307765 0.1341111
0.018515646 0.12664224 -0.13007809 -0.068155505 0.08274272 -0.15832233 0.103453875 -0.019916173
0.028941547 0.058107797 0.03074481 0.0936422 -0.008488561 -0.04695372 0.0058761984 -0.043586597
0.035259243 -0.10805069 -0.0034191767 -0.06863996 -0.12652715 0.2225965 -0.13524188 0.0223304
0.047980268 0.03743786 -0.20460871 -0.023668433 0.054527827 -0.05572947 0.05990795 -0.0043829805
-0.0018090591 -0.12804663 -0.000379848 0.027890569 0.051719554 -0.16963685 0.10547967 -0.04447237
-0.12404528 -0.00021348785 0.065589175 -0.109171055 0.014037033 -0.009655224 -0.1103333 -0.063778795
-0.029982751 -0.02807289 0.027007159 -0.0092846425 -0.18352714 -0.018297514 -0.13016443 0.21090414
-0.16278157 0.20805405 0.01883826 -0.022849008 -0.09911612 -0.039497666 -0.052179143 0.110959694
0.02036922 -0.057596542 -0.031538345 0.03690434 0.12251893 -0.017649397 -0.051470615 -0.18190084
0.2316156 0.092886515 -0.080828585 0.12747784 0.010843727 0.034756258 0.04966677 -0.1538916
-0.099216044 -0.014284072 -0.08528063 0.050098926 0.16622208 -0.09429172 -0.08274535 -0.004235499
-0.044590246 0.11639035 0.01608657 0.09389778 -0.017552033 0.0154863065 0.021329908 -0.031446
-0.06416782 -0.004178718 -0.0344387 -0.04643617 -0.03881756 -0.037906684 -0.012549726 0.0147446
-0.05989295 -0.15533184 0.3122846 -0.1347335 0.040841125 -0.03452001 0.009351448 0.0032941902
-0.019665552 -0.07647394 0.06984937 -0.007710494 0.024225391 -0.007428958 0.00852084 -0.022174377
0.019377397 -0.04097808 -0.14556529 0.33594185 -0.15230614 0.0792293 0.08837017 -0.027174402
0.025825853 0.05736771 -0.19272314 0.05913517 -0.08441785 -0.08345315 -0.009706504 -0.031554207
-0.06013002 -0.064811684 -0.02135602 -0.08656432 0.17677659 -0.1430058 0.026048303 0.10222652
-0.12971552 -0.054902796 -0.09655424 -0.09374495 0.0902277 -0.009529676 0.010468443 -0.020107517
0.08342332 0.040260177 0.0018697408 -0.00896691 -0.15563485 0.3696474 -0.0027654034 0.08648789
0.006406548 -0.19101794 0.089251 -0.14671144 -0.02018745 -0.10141091 -0.001716775 -0.08621098
-0.01802826 0.030212386 0.062213443 0.1483515 -0.06494108 0.0692179 0.041318636 0.07898574
00000000: e684 cbbd 9616 85b9 b3ed 3ebc 3920 a83d
00000010: 46dd 13bd 4c60 d5bd 4b4f bebd 8fcb d93d
00000020: b300 ef3c c286 b9bd 96da 59bd 4e97 363d
00000030: 810d 4dbd 2b84 693d 3bfc 0cbd eaf9 44be
00000040: 6f55 623e 7581 31be 493f 3b3d 90b3 7bbc
00000050: 2ec0 79bc cbcf 8abb 1b70 4fbd e4bd e4bd
00000060: f876 8abb 6c31 91bd abb4 4b3b 4eee 183c
00000070: 4a55 d23b 6d8e f3bc 0713 b63c 353a f4bc
00000080: 032c 47be 6af7 c93e 99b4 babd e1be cf3d
00000090: d3fa 953d 1ecb 6d3e ef8e 0abe 5b5d 3bbd
000000a0: a3cc b53d 221f f3b9 c57a 6f3b 1b61 b5bc
000000b0: e414 0a3d af70 42bd 0bfd 953d b112 3cbb
000000c0: 393f 563d fdca 1dbe 53f5 4d3e b3a4 043e
000000d0: d28a 23be b570 873d a7e5 82be 56ab cf3c
000000e0: 8c3f 1f3d c4e2 58bd 0f05 a5bd 7473 8b3d
000000f0: 636c 283e 5cbe f8bd 514c 23bd 70a6 b83d
00000100: 5c3d 71bd cb63 be3d 624b b9bd 1a71 62bd
00000110: 9d65 843d 655b 933d b5f9 47bc aaec 9d3d
00000120: c250 c6bc 7707 39bd d822 283d d601 73bd
00000130: a18b 6d3d d43b d2bd 001f fc3c 6c54 093e
00000140: 20ae 973c 81ae 013e 3133 05be 1d95 8bbd
00000150: 0475 a93d 401f 22be a0df d33d 3e27 a3bc
00000160: d316 ed3c 7102 6e3d 8adc fb3c 7bc7 bf3d
00000170: 9b13 0bbc 8b52 40bd 208d c03b dc87 32bd
00000180: ff6b 103d ae49 ddbd 4414 60bb 1b93 8cbd
00000190: 5590 01be 56f0 633e d97c 0abe 3eee b63c
000001a0: f586 443d 7158 193d f284 51be 4de4 c1bc
000001b0: 9258 5f3d 9644 64bd 0a62 753d 1b9f 8fbb
000001c0: f31d edba a81e 03be 5626 c7b9 c37a e43c
000001d0: e2d7 533d 48b5 2dbe ba05 d83d a928 36bd
000001e0: 740b febd b5db 5fb9 9e53 863d 1395 dfbd
000001f0: 95fb 653c f230 1ebc 6df6 e1bd 759e 82bd
00000200: 639e f5bc 1ef9 e5bc 1e3e dd3c 9d1e 18bc
00000210: 8aee 3bbe abe4 95bc d349 05be 41f7 573e
00000220: 36b0 26be 1f0c 553e b252 9a3c d82d bbbc
00000230: 64fd cabd 4ec8 21bd ccb9 55bd d63e e33d
00000240: 5add a63c 5aea 6bbd 5a2e 01bd 0129 173d
00000250: 34eb fa3d 7895 90bc dad2 52bd 3744 3abe
00000260: a42c 6d3e 493b be3d 7589 a5bd 8d89 023e
00000270: e3a9 313c 945c 0e3d 626f 4b3d c295 1dbe
00000280: c831 cbbd be07 6abc 9ca7 aebd 8834 4d3d
00000290: 1f36 2a3e 041c c1bd 6576 a9bd f1c9 8abb
000002a0: 43a4 36bd 105e ee3d fcc7 833c 7b4d c03d
000002b0: 48c9 8fbc 47ba 7d3c 0fbc ae3c 85cd 00bd
000002c0: 6b6a 83bd a1ed 88bb 980f 0dbd da33 3ebd
000002d0: 29ff 1ebd 0a44 1bbd 5e9d 4dbc 5693 713c
000002e0: 4f52 75bd 4f0f 1fbe c4e3 9f3e 94f7 09be
000002f0: 0649 273d db64 0dbd d136 193c 57e3 573b
00000300: a719 a1bc 5e9e 9cbd 300d 8f3d 50a8 fcbb
00000310: 5474 c63c 9e6e f3bb fe9a 0b3c 0aa7 b5bc
00000320: 59bd 9e3c a2d8 27bd 110f 15be 9200 ac3e
00000330: 24f6 1bbe f942 a23d 6bfb b43d da9c debc
00000340: bd90 d33c 67fa 6a3d 3759 45be b837 723d
00000350: 44e3 acbd 7ce9 aabd 0708 1fbc fc3e 01bd
00000360: e54a 76bd fdbb 84bd d2f2 aebc a248 b1bd
00000370: ec04 353e 1d70 12be 4063 d53c 235c d13d
00000380: 25d4 04be c1e1 60bd 3bbe c5bd 5afd bfbd
00000390: 4dc9 b83d 5c22 1cbc d583 2b3c 85b8 a4bc
000003a0: d8d9 aa3d dbe7 243d 1712 f53a f2e9 12bc
000003b0: be5e 1fbe 6d42 bd3e c53b 35bb 9020 b13d
000003c0: 05ee d13b 359a 43be 3ac9 b63d 863b 16be
000003d0: 2760 a5bc 86b0 cfbd 6905 e1ba 628f b0bd
000003e0: 00b0 93bc f77f f73c 86d3 7e3d 75e9 173e
000003f0: d4ff 84bd 1dc2 8d3d bb3d 293d 47c3 a13d

interaction_layers.1.weight f4 [256]
0.9648182 1.159677 1.1032945 0.77704346 0.89890766 1.2018993 1.0370895 1.0824533
0.9627937 0.8197456 1.2081871 1.241639 1.004177 1.2458416 0.8654687 0.8707264
1.0676492 0.943235 1.0974168 1.154312 0.97619706 1.0115771 0.8388466 1.0156311
1.0926046 0.7644906 0.9997286 1.204298 1.1538217 1.042198 0.80638546 1.1096449
1.2491992 0.9790192 1.096981 0.9986979 0.8130689 1.1218871 0.83418596 1.1076138
0.85621107 1.0711566 1.1566654 0.95876306 1.0252341 0.7677144 0.8101857 0.88361365
0.81473213 0.7877571 0.94610924 1.2025459 0.9242776 1.1396886 1.1174568 1.2030549
1.0892783 0.9742011 0.84459287 1.1327685 0.8750262 1.0210772 0.88682467 1.0684711
1.0645783 0.90716684 0.86539245 0.7805257 0.8042347 0.78073245 0.87765527 0.97417074
0.99319655 1.2378198 0.94444025 1.1224163 1.1313381 0.97921205 1.0760045 0.97450286
0.8150103 1.0264637 1.0955999 0.8280095 0.827047 1.113198 1.0542068 1.0667605
0.85311997 0.8608169 1.1226602 0.9241464 0.9613425 0.93711597 0.8551604 1.0995872
1.0436192 1.0136435 0.83101165 0.8104862 0.8161956 0.86360085 0.878863 0.84034324
1.166173 1.0571756 0.87669593 0.8217536 1.1978904 1.0079567 0.8858105 0.9139428
0.85945916 1.0357655 0.76475394 0.9986201 0.83477885 0.85329914 0.8566192 1.0575378
0.7799531 1.0829732 1.0628328 1.113586 0.84837306 0.82605916 0.76863843 0.8598839
0.92946064 0.8812126 0.8753422 0.9418279 0.7895427 0.8578451 0.89884275 0.98726106
1.0580295 1.1621828 1.0219878 0.8446942 0.747194 1.2644575 0.8978942 0.77402675
1.160802 0.7945719 1.194617 0.8007835 1.0658714 0.8567087 0.8003138 0.75768185
0.8423964 0.96585625 0.7545726 0.985651 0.86958724 1.0514623 0.94688946 0.92639077
1.0820143 0.8777641 0.9336808 0.8957951 1.0550135 1.0068376 0.9714269 0.87669265
1.2844015 0.9351493 0.95295215 0.9548745 1.031628 0.86450565 0.8833937 1.2051677
0.83471113 0.86195344 1.3377086 1.1010996 0.8845026 1.2679693 0.787122 0.85885864
1.0120192 1.1083913 0.8188548 1.1659037 0.77062064 1.0339061 1.0760207 0.79705936
0.96201557 0.862675 1.2016985 0.9329572 0.828161 1.2658701 0.8182885 0.8519264
0.8424762 0.7776684 1.266542 0.7852269 0.8189025 1.0045617 1.0537996 0.8754595
0.9392614 1.0441123 0.95211136 0.9560376 0.8182784 0.85308105 0.90220386 0.9856312
1.181033 0.991832 1.0451851 1.172193 1.0864236 0.92694336 0.81358844 0.9582843
0.79881966 0.7855832 0.8044026 0.9536201 1.1156635 0.87573117 0.89661187 0.87703955
1.3307575 1.077043 0.842761 1.0790855 1.1678071 0.7948327 1.1631035 1.0802606
0.9544033 1.0637108 0.9842908 0.98292834 0.93991524 1.1550164 1.0551645 1.1589361
0.87181157 0.9828994 0.8903366 0.8843261 0.824572 1.0180157 1.0589677 0.78327084
00000000: 53fe 763f 4c70 943f c138 8d3f 52ec 463f
00000010: d01e 663f d6d7 993f 59bf 843f d48d 8a3f
00000020: a679 763f d9da 513f e0a5 9a3f 07ee 9e3f
00000030: df88 803f bd77 9f3f 5b8f 5d3f ede7 5e3f
00000040: bba8 883f d977 713f 2778 8c3f 7fc0 933f
00000050: 0de8 793f 5c7b 813f a7be 563f 3300 823f
00000060: 78da 8b3f a8b5 433f 37ee 7f3f 7026 9a3f
00000070: 6eb0 933f be66 853f 476f 4e3f d808 8e3f
00000080: c2e5 9f3f 01a1 7a3f e069 8c3f aaaa 7f3f
00000090: 4925 503f ff99 8f3f 368d 553f 4ac6 8d3f
000000a0: a630 5b3f a91b 893f 9d0d 943f 7f71 753f
000000b0: df3a 833f ee88 443f 5468 4f3f 8134 623f
000000c0: 4992 503f 73aa 493f 3734 723f 06ed 993f
000000d0: 759d 6c3f 51e1 913f d308 8f3f b4fd 993f
000000e0: 796d 8b3f 3e65 793f 3d37 583f 8ffe 903f
000000f0: b801 603f a8b2 823f f106 633f a9c3 883f
00000100: 1a44 883f 163c 683f 5c8a 5d3f 88d0 473f
00000110: 53e2 4d3f 15de 473f 04ae 603f 4163 793f
00000120: 2142 7e3f e170 9e3f d6c6 713f 56ab 8f3f
00000130: b0cf 903f a4ad 7a3f 84ba 893f 0579 793f
00000140: 84a4 503f 2a63 833f 9e3c 8c3f 6ef8 533f
00000150: 5ab9 533f 467d 8e3f 40f0 863f 9c8b 883f
00000160: 1266 5a3f 7f5e 5c3f 54b3 8f3f dc94 6c3f
00000170: 8b1a 763f d5e6 6f3f cbeb 5a3f 46bf 8c3f
00000180: 5095 853f 12bf 813f 2ebd 543f 067c 4f3f
00000190: 32f2 503f f214 5d3f 2afd 603f bc20 573f
000001a0: 2845 953f 8851 873f 256f 603f 725e 523f
000001b0: 7954 993f ba04 813f 7ac4 623f 28f8 693f
000001c0: 8405 5c3f f793 843f eac6 433f 91a5 7f3f
000001d0: 11b4 553f d071 5a3f 654b 5b3f 665d 873f
000001e0: 02ab 473f de9e 8a3f e80a 883f fc89 8e3f
000001f0: fa2e 593f 9d78 533f 7dc5 443f 5a21 5c3f
00000200: 22f1 6d3f 2697 613f 6d16 603f a21b 713f
00000210: 781f 4a3f bd9b 5b3f 8f1a 663f 24bd 7c3f
00000220: 836d 873f 68c2 943f 7fd0 823f e13d 583f
00000230: 1b48 3f3f bed9 a13f 65dc 653f 9e26 463f
00000240: 2995 943f 1069 4b3f 36e9 983f 2600 4d3f
00000250: 796e 883f 4351 5b3f 5de1 4c3f 70f7 413f
00000260: 4aa7 573f 5b42 773f ab2b 413f a053 7c3f
00000270: 459d 5e3f 5196 863f 5967 723f f227 6d3f
00000280: 727f 8a3f 26b5 603f b405 6f3f d452 653f
00000290: af0a 873f 0ee0 803f 6faf 783f ee6e 603f
000002a0: 4567 a43f f265 6f3f acf4 733f a872 743f
000002b0: 630c 843f 3e50 5d3f 1726 623f ef42 9a3f
000002c0: a1af 553f fba8 5c3f 093a ab3f d5f0 8c3f
000002d0: c36e 623f d14c a23f d480 493f 29de 5b3f
000002e0: d889 813f c4df 8d3f 78a0 513f 553c 953f
000002f0: 6547 453f 0957 843f 0cbb 893f 150c 4c3f
00000300: a746 763f 45d8 5c3f 42d1 993f 48d6 6e3f
00000310: 5c02 543f 0808 a23f 5b7b 513f d917 5a3f
00000320: 85ac 573f 4715 473f 0c1e a23f a104 493f
00000330: 98a3 513f 7a95 803f e8e2 863f 1d1e 603f
00000340: 6f73 703f 79a5 853f 92bd 733f e1be 743f
00000350: b17a 513f 8563 5a3f d5f6 663f 5452 7c3f
00000360: 172c 973f b4e8 7d3f a0c8 853f 6c0a 963f
00000370: ee0f 8b3f 294c 6d3f 5547 503f 1f52 753f
00000380: 727f 4c3f fb1b 493f 54ed 4d3f 7220 743f
00000390: 10ce 8e3f eb2f 603f 5b88 653f aa85 603f
000003a0: 4356 aa3f 8cdc 893f 2fbf 573f 791f 8a3f
000003b0: b47a 953f 287a 4b3f 93e0 943f fb45 8a3f
000003c0: c653 743f ad27 883f 7bfa 7b3f 31a1 7b3f
000003d0: 499e 703f 94d7 933f a10f 873f 0558 943f
000003e0: 0b2f 5f3f 4c9f 7b3f 19ed 633f 3263 623f
000003f0: 2717 533f 574e 823f 418c 873f 7084 483f

interaction_layers.1.bias f4 [256]
-0.13730213 -0.06165239 -0.06273844 -0.2423345 -0.105247 0.025846072 -0.10083712 0.012875918
-0.08953287 -0.16414092 -0.025263589 -0.08695717 -0.14333874 -0.117184475 -0.11194326 -0.07133308
-0.02783534 -0.06665859 -0.061190538 -0.083222814 -0.049296882 -0.21985443 -0.19874726 -0.02065338
0.027349874 -0.21313976 -0.13436005 -0.06715234 -0.011657751 -0.06333894 -0.20631035 -0.058975693
-0.07583911 -0.10007584 0.024666099 -0.06845574 -0.188734 -0.101709016 -0.18432513 -0.05644464
-0.18240878 -0.15627325 0.061303735 -0.08468027 -0.020313434 -0.20890018 -0.1055831 -0.107822105
-0.16478646 -0.19875392 -0.086245574 -0.0647668 -0.14127146 -0.058722924 -0.068216294 -0.08122867
-0.07318684 -0.11095507 -0.13429517 -0.095873535 -0.13471335 -0.13993894 -0.16494368 -0.04341093
-0.084717155 -0.11066495 -0.12081238 -0.22370623 -0.16452204 -0.21826544 -0.14710927 -0.071053006
-0.07893781 -0.028099645 -0.07469538 -0.078913 0.015527717 -0.054125007 0.00046425138 -0.06488082
-0.1894956 -0.14749539 0.015684705 -0.076591365 -0.2498347 -0.017095422 -0.07971914 0.0035458377
-0.2188111 -0.17115228 -0.114709765 -0.043992203 -0.066819526 -0.16765183 -0.12471737 -0.0667615
-0.15442161 -0.08399115 -0.13073044 -0.13865328 -0.14259444 -0.18525572 -0.09807 -0.18007907
-0.06822947 -0.052822866 -0.10552056 -0.1797725 -0.013569893 -0.07793005 -0.15255445 -0.10579662
-0.18508524 -0.08700297 -0.18634777 -0.030319287 -0.21559626 -0.13286528 -0.19424182 0.0014889191
-0.180723 -0.036156397 -0.028323244 0.07348613 -0.1260981 -0.19369593 -0.19218364 -0.0727998
-0.14387609 -0.17552854 -0.1493364 -0.07670947 -0.1443439 -0.1581648 -0.14130892 -0.071275055
-0.03543821 -0.04738679 -0.086856544 -0.07492454 -0.22497457 0.030081682 -0.08568435 -0.22008234
-0.034419492 -0.19775838 -0.0386021 -0.17926851 -0.02767257 -0.1119712 -0.19041067 -0.22335283
-0.12859195 -0.0046799392 -0.21081765 -0.055496838 -0.08254901 -0.023389874 -0.16021982 -0.074161954
-0.07066055 -0.17905037 -0.02318703 -0.13629334 -0.03887033 -0.09957043 -0.010381275 -0.19059755
-0.0114580225 -0.11162586 -0.19401523 -0.13584271 -0.013350077 -0.14236352 -0.18485233 0.08121817
-0.18665126 -0.20353915 0.043738823 -0.08809109 -0.13659877 0.030348282 -0.20446 -0.1336221
0.03334386 -0.024518553 -0.22208391 0.046483785 -0.1954075 0.019694947 -0.031207796 -0.1951348
-0.14742127 -0.16139808 -0.10291443 -0.11543318 -0.13373336 -0.10054125 -0.13211088 -0.15634158
-0.1944028 -0.12422526 0.06699233 -0.18245472 -0.18050909 -0.05390642 -0.019052535 -0.12849487
-0.1145229 -0.12004445 -0.10075906 -0.1194061 -0.13799702 -0.14365749 -0.12272614 -0.0782945
-0.13083902 -0.13204347 -0.0937851 -0.078676894 -0.088420406 -0.1035189 -0.18149085 -0.12653515
-0.17019652 -0.15043753 -0.18902394 -0.06449423 -0.047098003 -0.12280742 -0.09965698 -0.14277907
0.029324679 -0.08718406 -0.11213835 -0.04936841 -0.053274106 -0.22068632 -0.051082827 0.021641878
-0.10180284 -0.04750377 -0.09222998 -0.03408036 -0.09269689 -0.0785129 -0.094764754 -0.021581102
-0.15588486 -0.090588115 -0.10309639 -0.15400802 -0.16694179 -0.017940616 -0.028652176 -0.20344825
00000000: ee98 0cbe 3787 7cbd 037d 80bd 8926 78be
00000010: bd8b d7bd 24bb d33c b183 cebd 84f5 523c
00000020: 025d b7bd 8f14 28be 96f5 cebc 9a16 b2bd
00000030: 64c7 12be 6afe efbd 8242 e5bd 1417 92bd
00000040: f006 e4bc 4d84 88bd eea2 7abd b970 aabd
00000050: 87eb 49bd 8521 61be 6784 4bbe 4731 a9bc
00000060: d80c e03c 4f41 5abe ae95 09be 2b87 89bd
00000070: 2700 3fbc d9b7 81bd 0543 53be 7f90 71bd
00000080: 8951 9bbd 90f4 ccbd 8f10 ca3c 8632 8cbd
00000090: 7c43 41be d14c d0bd babf 3cbe 7f32 67bd
000000a0: 5ec9 3abe 1806 20be a019 7b3d d96c adbd
000000b0: 5c68 a6bc eee9 55be f43b d8bd d6d1 dcbd
000000c0: c8bd 28be 2686 4bbe 85a1 b0bd 75a4 84bd
000000d0: 77a9 10be 7387 70bd fcb4 8bbd 385b a6bd
000000e0: fbe2 95bd 693c e3bd ac84 09be 5859 c4bd
000000f0: 4cf2 09be 274c 0fbe ffe6 28be a9cf 31bd
00000100: 3080 adbd 4ea4 e2bd 7b6c f7bd 3f13 65be
00000110: 7778 28be fa80 5fbe d0a3 16be 3d84 91bd
00000120: 26aa a1bd 3a31 e6bc e4f9 98bd 249d a1bd
00000130: f767 7e3c 2fb2 5dbd c466 f339 3ce0 84bd
00000140: 220b 42be 0809 17be 367d 803c efdb 9cbd
00000150: abd4 7fbe b30b 8cbc ca43 a3bd 4961 683b
00000160: 0410 60be 8b42 2fbe f4ec eabd 2b31 34bd
00000170: add8 88bd ecac 2bbe d26b ffbd 41ba 88bd
00000180: b320 1ebe 8d03 acbd 33de 05be 20fb 0dbe
00000190: 4704 12be adb3 3dbe edd8 c8bd a666 38be
000001a0: e4bb 8bbd ca5c 58bd 2a1b d8bd 4816 38be
000001b0: 4254 5ebc ca99 9fbd 3c37 1cbe e6ab d8bd
000001c0: fc86 3dbe 9d2e b2bd f3d1 3ebe 2760 f8bc
000001d0: 44c5 5cbe d60d 08be 54e7 46be d627 c33a
000001e0: 730f 39be bb18 14bd 2606 e8bc e57f 963d
000001f0: dc1f 01be 3a58 46be cacb 44be 1018 95bd
00000200: 4154 13be c1bd 33be a4eb 18be db19 9dbd
00000210: e3ce 13be f4f5 21be 49b3 10be a8f8 91bd
00000220: a827 11bd a718 42bd d8e1 b1bd 0a72 99bd
00000230: bc5f 66be dc6d f63c 477b afbd 445d 61be
00000240: 74fb 0cbd 2c81 4abe 3c1d 1ebd 2a92 37be
00000250: 96b1 e2bc 2851 e5bd 04fb 42be 9bb6 64be
00000260: 9cad 03be 2d5a 99bb 95e0 57be a750 63bd
00000270: 750f a9bd 1f9c bfbc aa10 24be 39e2 97bd
00000280: 7ab6 90bd fb58 37be baf2 bdbc 7b90 0bbe
00000290: 7f36 1fbd 95eb cbbd 3916 2abc 012c 43be
000002a0: 6eba 3bbc 199c e4bd eeab 46be 5a1a 0bbe
000002b0: 48ba 5abc bec7 11be ee49 3dbe b655 a63d
000002c0: 8221 3fbe 916c 50be 7b27 333d 1a69 b4bd
000002d0: 8ce0 0bbe f69c f83c f65d 51be 3bd4 08be
000002e0: 9293 083d 22db c8bc f769 63be c865 3e3d
000002f0: e718 48be 4c57 a13c 7ea7 ffbc 6bd1 47be
00000300: 9af5 16be 8a45 25be cdc4 d2bd 3b68 ecbd
00000310: 66f1 08be 92e8 cdbd 1348 07be 0218 20be
00000320: 8711 47be d069 febd 4633 893d 69d5 3abe
00000330: 60d7 38be facc 5cbd 1014 9cbc 2994 03be
00000340: fb8a eabd ddd9 f5bd c45a cebd 2f8b f4bd
00000350: 174f 0dbe f31a 13be d857 fbbd de58 a0bd
00000360: aafa 05be 6736 07be 6712 c0bd 5a21 a1bd
00000370: c215 b5bd b801 d4bd bdd8 39be 6e92 01be
00000380: ff47 2ebe 4c0c 1abe 7e8f 41be 8d15 84bd
00000390: d6e9 40bd 7582 fbbd f518 ccbd ad34 12be
000003a0: 4f3a f03c 8e8d b2bd cba8 e5bd 8836 4abd
000003b0: f335 5abd 98fb 61be 3a3c 51bd 4f4a b13c
000003c0: 027e d0bd 5093 42bd 12e3 bcbd d997 0bbd
000003d0: ded7 bdbd 5fcb a0bd 0614 c2bd daca b0bc
000003e0: 48a0 1fbe 4386 b9bd 3324 d3bd 47b4 1dbe
000003f0: caf2 2abe 33f8 92bc f8b7 eabc bd54 50be

interaction_layers.1.running_mean f4 [256]
-0.094113626 -0.2550167 -0.10625321 0.0887736 0.067164235 -0.17300919 -0.26953176 -0.26321715
-0.112027936 0.08270771 -0.09610735 -0.13040066 -0.1952057 -0.117739014 -0.05824993 -0.021997051
-0.013720574 -0.20579523 -0.017453684 -0.33535197 -0.22427876 -0.18000646 -0.07716886 -0.17984097
-0.29316399 -0.0601544 -0.095321216 -0.11742604 -0.10455463 -0.21278076 -0.18488151 -0.04127213
-0.10741563 -0.35115352 -0.19615926 -0.12348329 -0.1293803 -0.11910154 0.10674468 -0.1499166
-0.081039935 -0.22024047 -0.2076582 0.19731635 -0.22634146 0.11587798 0.051062837 -0.28853095
0.050569657 -0.30055505 -0.41163948 -0.22278044 0.0008268342 -0.17168751 -0.35488257 -0.27132756
-0.11779605 -0.123053245 -0.09282714 -0.17288795 0.051713884 -0.039914556 -0.21715912 -0.21696627
-0.16037805 -0.20246893 0.11604406 0.23023978 0.043084074 0.17744291 -0.1801163 -0.22253829
0.012755051 -0.12922813 0.059368856 -0.2436913 -0.11875955 -0.2410748 -0.062847346 -0.23770995
0.024199298 -0.26982576 -0.06575823 -0.005953258 -0.2699647 -0.1502069 -0.14656664 -0.44607237
-0.051948953 0.02232976 -0.1050913 0.11387228 0.14128987 -0.068964556 -0.08235606 -0.21611688
-0.03533131 -0.27529696 -0.18137634 0.025040355 0.28851512 -0.3145757 0.07374775 0.15791184
-0.20305076 -0.0391237 -0.22152866 0.123699024 0.040722735 -0.28801566 -0.2990716 -0.07884213
-0.027350416 -0.08515283 0.100325376 0.07364607 0.0051212907 0.14090125 -0.07297102 -0.23650593
0.3825587 -0.2565779 -0.17568776 -0.008553073 0.12144325 0.09514799 -0.020084867 -0.24310404
-0.073995225 -0.0509024 -0.0028227703 0.1195499 -0.16887198 0.021424385 -0.06469909 0.13468294
-0.15494362 -0.16914102 -0.2150929 -0.02198744 -0.010569488 -0.13543412 -0.0832518 0.18429089
-0.1005926 -0.0061580064 -0.17333426 0.14511552 -0.28102443 -0.0295232 0.08536341 0.15330778
0.18763788 -0.22791162 0.1533505 -0.18723175 -0.374464 -0.07518568 -0.04781234 0.0077953483
-0.08626985 0.07313202 -0.12822503 -0.1285928 -0.30461735 0.15531652 -0.17481904 0.18002218
-0.17405562 -0.20510024 -0.017396942 -0.12921378 -0.07615161 -0.19616343 0.07963081 -0.186163
-0.17648679 0.02023242 -0.04807497 -0.18856002 -0.08523865 -0.091322474 0.15919743 -0.1562955
-0.35943168 -0.14579603 0.03361843 -0.09451841 -0.06266361 -0.20587552 -0.2560311 -0.2015581
-0.13218252 -0.26787364 -0.07312733 -0.15834205 -0.18593775 -0.1215302 0.08105832 0.17547315
0.10445262 0.08650426 -0.21034431 0.11275532 0.26063418 -0.068386614 -0.00265853 -0.17027205
-0.28945574 0.0044229804 -0.16859533 -0.28460434 -0.018780094 0.09514348 0.065849155 -0.28882024
-0.097106546 -0.16462596 -0.2337194 -0.16537903 -0.054038 -0.08005679 0.07149202 -0.2756037
0.28584698 -0.049413476 0.24519229 -0.014086537 -0.19071366 -0.031746585 -0.111827984 0.046644464
-0.1395095 -0.20527485 0.116007484 -0.15841071 -0.21567461 -0.2562746 -0.28554398 -0.26696086
-0.09144056 -0.10255654 -0.2197567 -0.046949316 -0.1189544 -0.21334618 -0.123848185 -0.16687915
0.048257537 -0.4046185 0.087241344 -0.29603788 0.2824225 -0.25489238 -0.20622577 0.16890505
00000000: a5be c0bd 8d91 82be 489b d9bd efce b53d
00000010: 678d 893d 5229 31be 1100 8abe 66c4 86be
00000020: e76e e5bd a962 a93d eed3 c4bd c087 05be
00000030: 01e4 47be 2721 f1bd 7b97 6ebd 2933 b4bc
00000040: 42cc 60bc fcbb 52be 07fb 8ebc 41b3 abbe
00000050: 55a9 65be 9d53 38be b50a 9ebd 3b28 38be
00000060: 9719 96be 7664 76bd c537 c3bd 107d f0bd
00000070: bd20 d6bd 33e3 59be 9451 3dbe f70c 29bd
00000080: bafc dbbd 65ca b3be f9dd 48be cfe4 fcbd
00000090: 457c 04be 82eb f3bd f49c da3d bd83 19be
000000a0: 44f8 a5bd b886 61be 5aa4 54be 4c0d 4a3e
000000b0: 0ec6 67be 6f51 ed3d 4427 513d 54ba 93be
000000c0: 2122 4f3d 5ae2 99be 69c2 d2be 8e20 64be
000000d0: e7bf 583a dace 2fbe 2bb3 b5be 72eb 8abe
000000e0: 0e3f f1bd 5703 fcbd 281c bebd 8a09 31be
000000f0: f0d1 533d 727d 23bd f65e 5ebe 682c 5ebe
00000100: 253a 24be 0454 4fbe 82a8 ed3d fac3 6b3e
00000110: ed78 303d 98b3 353e 6870 38be 14e1 63be
00000120: 90fa 503c 6154 04be c22c 733d 368a 79be
00000130: 3538 f3bd 50dc 76be 1cb6 80bd 3d6a 73be
00000140: 9b3d c63c 9a26 8abe 40ac 86bd 8c13 c3bb
00000150: d038 8abe d6cf 19be 9115 16be 9963 e4be
00000160: 6dc8 54bd e7ec b63c 1c3a d7bd df35 e93d
00000170: 4bae 103e 4a3d 8dbd 4baa a8bd be4d 5dbe
00000180: 90b7 10bd b9f3 8cbe b8ba 39be 6e21 cd3c
00000190: 41b8 933e 1110 a1be 0f09 973d a4b3 213e
000001a0: 8aec 4fbe 2c40 20bd 69d8 62be ea55 fd3d
000001b0: e2cc 263d ca76 93be ea1f 99be fc77 a1bd
000001c0: fb0d e0bc 9b64 aebd 6477 cd3d c0d3 963d
000001d0: 80d0 a73b 6b48 103e d571 95bd 9c2e 72be
000001e0: bcde c33e 2e5e 83be 7ee7 33be 3022 0cbc
000001f0: 3db7 f83d f3dc c23d 0589 a4bc 44f0 78be
00000200: cf8a 97bd 097f 50bd 3afe 38bb 94d6 f43d
00000210: c7ec 2cbe 3182 af3c f580 84bd 53ea 093e
00000220: 8aa9 1ebe 4e33 2dbe 5041 5cbe 011f b4bc
00000230: a52b 2dbc 3eaf 0abe eb7f aabd c0b6 3c3e
00000240: 7e03 cebd 1ac9 c9bb 897e 31be 2a99 143e
00000250: 6fe2 8fbe a3da f1bc 03d3 ae3d b7fc 1c3e
00000260: 2524 403e aa61 69be ea07 1d3e aeb9 3fbe
00000270: bfb9 bfbe f3fa 99bd dfd6 43bd 1f70 ff3b
00000280: 3fae b0bd 3ec6 953d 6c4d 03be d5ad 03be
00000290: cef6 9bbe 4b0b 1f3e c303 33be bc57 383e
000002a0: a33b 32be cc05 52be 0884 8ebc 9e50 04be
000002b0: 60f5 9bbd 11df 48be 7a15 a33d 83a1 3ebe
000002c0: f4b8 34be 76be a53c 42ea 44bd e115 41be
000002d0: 9a91 aebd 4707 bbbd a704 233e ed0b 20be
000002e0: 6e07 b8be 8e4b 15be 7bb3 093d de92 c1bd
000002f0: c755 80bd 08d1 52be 8216 83be 3f65 4ebe
00000300: db5a 07be bc26 89be c8c3 95bd 6b24 22be
00000310: 7766 3ebe d3e4 f8bd e801 a63d 3caf 333e
00000320: 41eb d53d 2529 b13d 8064 57be 43ec e63d
00000330: d871 853e 480e 8cbd bb3a 2ebb cc5b 2ebe
00000340: 8b33 94be a6ee 903b 41a4 2cbe a9b7 91be
00000350: b6d8 99bc 96da c23d ecdb 863d 3fe0 93be
00000360: ccdf c6bd b593 28be 2354 6fbe 1f59 29be
00000370: f356 5dbd d0f4 a3bd 686a 923d ee1b 8dbe
00000380: 895a 923e c965 4abd b013 7b3e 38cb 66bc
00000390: 714a 43be b508 02bd 1206 e5bd 440e 3f3d
000003a0: 94db 0ebe 9233 52be 5595 ed3d 6b36 22be
000003b0: ced9 5cbe 6d36 83be d232 92be 18af 88be
000003c0: 3045 bbbd 2a09 d2bd e607 61be ed4d 40bd
000003d0: 5d9e f3bd 6c77 5abe 1ea4 fdbd 5ee2 2abe
000003e0: b2a9 453d 282a cfbe 97ab b23d 4792 97be
000003f0: af99 903e 4181 82be d92c 53be 72f5 2c3e

interaction_layers.1.running_var f4 [256]
0.009055461 0.006974192 0.011854938 0.017096244 0.0053424323 0.0057414817 0.0050341445 0.0064359335
0.010731254 0.013620237 0.0021094102 0.004661932 0.005458314 0.003925264 0.0070836293 0.01071617
0.0027085345 0.009627762 0.0032114128 0.007879367 0.0061488454 0.007857317 0.006734136 0.013085251
0.008045036 0.01643944 0.008670061 0.005032755 0.009086901 0.009787953 0.018394321 0.0030276915
0.0045995577 0.026898468 0.014522021 0.012224982 0.0059335614 0.0045190216 0.006234956 0.007038299
0.01245781 0.0030876584 0.006528898 0.0065224487 0.017217314 0.022990432 0.015875973 0.011218146
0.002829406 0.0071073994 0.012206997 0.004419694 0.009182181 0.014153386 0.008353592 0.0065418575
0.0063618263 0.012230893 0.021186417 0.007210408 0.0042664856 0.008142631 0.010426842 0.0075302534
0.0031382446 0.010434149 0.0071768933 0.008878068 0.016097542 0.008488861 0.00687824 0.004139786
0.004376572 0.0029983926 0.005797576 0.0082515 0.0074884603 0.014610331 0.003385327 0.020568253
0.009987092 0.0074229166 0.0084267575 0.01741595 0.010105554 0.0072121853 0.008511011 0.014959539
0.017668914 0.00789107 0.0035995913 0.008912283 0.010323383 0.008540595 0.008936418 0.0076507684
0.0061066654 0.012636177 0.013499598 0.012480577 0.015757928 0.014072212 0.0052411384 0.009324002
0.009276712 0.01765407 0.017866641 0.013210317 0.003964937 0.01789556 0.0073519335 0.009918227
0.007473197 0.011051131 0.021453805 0.0058751646 0.016538557 0.009788286 0.010476859 0.011457096
0.009322702 0.007264378 0.006071685 0.008121841 0.007334059 0.011880631 0.011378764 0.011228092
0.0076674386 0.0071593565 0.008781924 0.0049617602 0.014926781 0.011494142 0.011398119 0.010219196
0.0039763907 0.0085283 0.013636249 0.011764504 0.017377386 0.00428042 0.018732928 0.0131950015
0.0046373457 0.006243946 0.003596682 0.020393254 0.008744477 0.00937085 0.022891922 0.01956231
0.009483441 0.019494109 0.011295087 0.004932443 0.00851439 0.013832707 0.007655555 0.0049543427
0.0065781404 0.008642114 0.0067965495 0.0074565336 0.0129416175 0.008958894 0.0045604883 0.019774405
0.00300149 0.015838092 0.0049023833 0.0067948326 0.013757818 0.010421524 0.017043566 0.012249826
0.02269334 0.006963778 0.0023377447 0.010022373 0.0082701575 0.0022808975 0.017629854 0.03388792
0.012966205 0.0066359765 0.0093028955 0.011554832 0.010086259 0.013732988 0.007896856 0.01662605
0.0026442418 0.01698828 0.004027024 0.0036294588 0.016852196 0.003077297 0.006701803 0.0124911945
0.0048601455 0.0101005295 0.006161636 0.01273317 0.013288837 0.011680528 0.0029462245 0.02841602
0.019574812 0.007989864 0.016417168 0.009424916 0.01023285 0.0043139905 0.009008897 0.008891844
0.010834145 0.010335834 0.0072513893 0.0044586994 0.0064167194 0.008400059 0.008757787 0.0059030633
0.020570673 0.010612527 0.026251992 0.012350364 0.006543702 0.0062078936 0.0034212265 0.012060744
0.006235414 0.007248875 0.0065052467 0.0092134075 0.005644969 0.021824686 0.006417324 0.0118096275
0.0067715426 0.007419798 0.008377625 0.00302846 0.008079427 0.0076066926 0.013205489 0.003477565
0.02087884 0.01581348 0.0052797617 0.008530388 0.030041719 0.012161135 0.010560963 0.023527088
00000000: 5b5d 143c c387 e43b 373b 423c 6c0d 8c3c
00000010: 920f af3b 0a23 bc3b 77f5 a43b 86e4 d23b
00000020: 24d2 2f3c 6a27 5f3c 083e 0a3b 1fc3 983b
00000030: a8db b23b 809f 803b ca1d e83b e092 2f3c
00000040: ab81 313b c3bd 1d3c 9176 523b 7618 013c
00000050: 417c c93b fabb 003c 07aa dc3b 8563 563c
00000060: 54cf 033c 01ac 863c df0c 0e3c cfe9 a43b
00000070: 3ae1 143c a75d 203c b0af 963c 3c6c 463b
00000080: e3b7 963b 2d5a dc3c c5ed 6d3c 4a4b 483c
00000090: 526e c23b 4d14 943b 9a4e cc3b 88a1 e63b
000000a0: d81b 4c3c 505a 4a3b 5ef0 d53b 44ba d53b
000000b0: 530b 8d3c 6e56 bc3c 540e 823c 51cc 373c
000000c0: 8e6d 393b 30e5 e83b dbff 473c 15d3 903b
000000d0: dc70 163c 9ae3 673c 81dd 083c 145d d63b
000000e0: de76 d03b 1564 483c 238f ad3c 4945 ec3b
000000f0: e0cd 8b3b ab68 053c 58d5 2a3c 58c0 f63b
00000100: 02ab 4d3b fef3 2a3c 252c eb3b 5175 113c
00000110: fede 833c dd14 0b3c dc62 e13b 0ba7 873b
00000120: 5969 8f3b ae80 443b 98f9 bd3b 4d31 073c
00000130: c261 f53b 2b60 6f3c 5ddc 5d3b c17e a83c
00000140: e6a0 233c f03b f33b 6210 0a3c e5ab 8e3c
00000150: c491 253c 3254 ec3b c471 0b3c db18 753c
00000160: 66be 903c 8c49 013c 1fe7 6b3b d304 123c
00000170: 6823 293c daed 0b3c 0e6a 123c 4cb3 fa3b
00000180: 6c1a c83b f807 4f3c 6b2d 5d3c 567b 4c3c
00000190: c516 813c 238f 663c dbbd ab3b b3c3 183c
000001a0: 5afd 173c 459f 903c 105d 923c 1670 583c
000001b0: 4dec 813b b699 923c 7de8 f03b 0f80 223c
000001c0: b8e1 f43b ce0f 353c e4bf af3c 7484 c03b
000001d0: de7b 873c 0c5f 203c 22a7 2b3c 8bb6 3b3c
000001e0: 3fbe 183c 050a ee3b fcf4 c63b 7811 053c
000001f0: 8c52 f03b faa6 423c ff6d 3a3c 08f6 373c
00000200: 233f fb3b 0999 ea3b 0fe2 0f3c 4396 a23b
00000210: 758f 743c ed51 3c3c 2dbf 3a3c 6a6e 273c
00000220: 624c 823b 48ba 0b3c 936a 5f3c e8bf 403c
00000230: 055b 8e3c c442 8c3b cc75 993c d92f 583c
00000240: e0f4 973b 049a cc3b 50b6 6b3b c10f a73c
00000250: ff44 0f3c 3288 193c d787 bb3c 2341 a03c
00000260: 6f60 1b3c 1cb2 9f3c 070f 393c 55a0 a13b
00000270: f17f 0b3c 94a2 623c 73db fa3b 0a58 a23b
00000280: 718d d73b a797 0d3c 97b5 de3b f055 f43b
00000290: 1409 543c 53c8 123c 2670 953b effd a13c
000002a0: a5b4 443b e3be 813c 2ca4 a03b 30a7 de3b
000002b0: 7968 613c 0abf 2a3c f39e 8b3c 7fb3 483c
000002c0: 62e7 b93c 6730 e43b d934 193b e134 243c
000002d0: 8e7f 073c 1c7b 153b 7c6c 903c 0fce 0a3d
000002e0: 3570 543c 9b72 d93b 2c6b 183c 7a50 3d3c
000002f0: d640 253c 5400 613c d161 013c 5b33 883c
00000300: 044b 2d3b 012b 8b3c 20f5 833b 37dc 6d3b
00000310: 9e0d 8a3c 7aac 493b cc9a db3b dea7 4c3c
00000320: db41 9f3b b17c 253c 8de7 c93b c99e 503c
00000330: 6cb9 593c af5f 3f3c 7215 413b b7c8 e83c
00000340: 5b5b a03c ebe7 023c 4c7d 863c f66a 1a3c
00000350: afa7 273c 605c 8d3b 0d9a 133c 19af 113c
00000360: b381 313c a157 293c 109d ed3b 481a 923b
00000370: 5843 d23b 67a0 093c d27c 0f3c 7c6e c13b
00000380: d483 a83c 2ae0 2d3c 6b0e d73c 2e59 4a3c
00000390: 8d6c d63b 966b cb3b a836 603b 6d9a 453c
000003a0: 7252 cc3b f987 ed3b f729 d53b d5f3 163c
000003b0: 6ff9 b83b afc9 b23c 6a48 d23b 2b7d 413c
000003c0: d1e3 dd3b c721 f33b 4e42 093c 2179 463b
000003d0: 935f 043c 9041 f93b d65b 583c dce7 633b
000003e0: 1a0a ab3c 458b 813c da01 ad3b 0ac3 0b3c
000003f0: 0d1a f63c 7f3f 473c e407 2d3c e1bb c03c

interaction_layers.3.bias f4 [128]
5.9840386e-07 3.4605048e-06 -7.103796e-05 -6.5851063e-06 -1.8261675e-05 2.6655705e-05 3.6888025e-08 -1.9773548e-05
-8.5250385e-06 1.6003163e-05 8.453118e-06 -6.486992e-05 3.4309828e-06 -1.8616747e-05 4.6452355e-05 3.160131e-05
1.5211531e-05 1.1555253e-05 -2.037025e-05 4.514682e-06 1.561606e-05 -2.40573e-05 -4.487856e-05 1.1492954e-05
-8.781302e-06 1.6840191e-05 -2.0408519e-05 -6.6378e-06 -1.8756467e-05 -7.704473e-06 -3.1463576e-05 -3.8900063e-05
4.8185657e-06 -1.3073427e-05 -5.479456e-05 2.958656e-05 1.2535676e-05 1.2447094e-05 3.0944877e-05 3.927422e-05
-2.2710867e-06 -1.879644e-05 -4.14459e-06 9.29868e-06 -2.080183e-05 -1.0328166e-05 -3.4508812e-05 4.952857e-05
-3.912941e-08 -2.7748523e-05 -2.7952065e-05 2.557025e-05 2.5352945e-05 1.3265317e-06 1.9641562e-05 6.1502656e-06
-1.7989832e-05 -1.2728113e-05 -7.596227e-06 2.018054e-06 -4.4031432e-05 -2.0819383e-05 -1.8068774e-06 -3.4839057e-05
8.075294e-05 -1.1356897e-05 1.0416104e-05 -3.3771412e-06 2.0120144e-05 8.797034e-06 9.41623e-06 -3.7462745e-05
2.675668e-05 -5.3989443e-05 9.202489e-06 -2.7082973e-05 7.890272e-05 1.8401518e-06 8.460237e-06 -2.0163143e-05
-9.594952e-06 2.3291195e-05 -1.9159897e-06 3.2557375e-05 -2.851098e-05 1.8596926e-06 3.545845e-06 1.0640914e-05
1.5580323e-05 -6.098553e-07 1.2153764e-05 0.000102155645 6.1471354e-07 -6.846283e-06 -2.9444025e-05 -2.3270539e-05
6.5853106e-07 -1.2397458e-05 -1.3843691e-05 -3.9797815e-05 -2.662918e-05 -2.7895576e-05 -2.3964882e-05 -1.2763105e-06
-1.0868186e-05 2.2069395e-05 -2.1500531e-05 -2.1879578e-05 3.179752e-05 -3.972226e-05 1.8993632e-06 -3.0498542e-05
-9.8017335e-06 2.5802065e-05 8.177807e-06 -3.3557386e-05 -3.159962e-05 -2.010379e-05 3.1025886e-06 -1.1657628e-05
-1.6060263e-05 2.2840224e-05 -1.7609595e-05 3.3932607e-05 -3.824653e-05 4.880084e-05 -1.1738135e-05 4.9656624e-05
00000000: 00a2 2035 053b 6836 37fa 94b8 a2f5 dcb6
00000010: a630 99b7 b19a df37 d06e 1e33 5fdf a5b7
00000020: c306 0fb7 883e 8637 ded1 0d37 c60a 88b8
00000030: d63f 6636 292b 9cb7 d6d5 4238 a68b 0438
00000040: 0735 7f37 6fdd 4137 c7e0 aab7 d37c 9736
00000050: 3cff 8237 a9ce c9b7 fd3b 3cb8 ddd1 4037
00000060: 6853 13b7 0944 8d37 f632 abb7 45ba deb6
00000070: 3557 9db7 7642 01b7 c2f7 03b8 a028 23b8
00000080: 2aaf a136 f155 5bb7 36d3 65b8 a730 f837
00000090: 5250 5237 ddd3 5037 cfca 0138 5fba 2438
000000a0: f968 18b6 0cad 9db7 c211 8bb6 8701 1c37
000000b0: 977f aeb7 2347 2db7 8ebd 10b8 e6bc 4f38
000000c0: 3e0f 28b3 80c5 e8b7 9a7a eab7 b27f d637
000000d0: 09ad d437 480b b235 efc3 a437 615e ce36
000000e0: dfe8 96b7 d48a 55b7 18e3 feb6 e76d 0736
000000f0: 64ae 38b8 49a5 aeb7 d683 f2b5 2720 12b8
00000100: e859 a938 8089 3eb7 d3c0 2e37 d8a2 62b6
00000110: aec7 a837 f996 1337 66fa 1d37 5121 1db8
00000120: 8873 e037 b972 62b8 6464 1a37 3e30 e3b7
00000130: 9378 a538 22fb f635 71f0 0d37 0524 a9b7
00000140: 01fa 20b7 7661 c337 7494 00b6 378e 0838
00000150: dd2a efb7 8d9a f935 27f5 6d36 6186 3237
00000160: 7db2 8237 f0b4 23b5 05e8 4b37 653c d638
00000170: cb02 2535 20b9 e5b6 90fe f6b7 1a35 c3b7
00000180: e9c5 3035 adfe 4fb7 3342 68b7 94ec 26b8
00000190: bb61 dfb7 4b01 eab7 3108 c9b7 b24d abb5
000001a0: 8156 36b7 aa21 b937 0a5c b4b7 098a b7b7
000001b0: 545e 0538 749b 26b8 9fed fe35 1fd7 ffb7
000001c0: 2072 24b7 8371 d837 6a33 0937 f8bf 0cb8
000001d0: d589 04b8 8fa4 a8b7 1136 5036 2295 43b7
000001e0: 27b9 86b7 0299 bf37 51b8 93b7 dc52 0e38
000001f0: e66a 20b8 81af 4c38 e8ee 44b7 6546 5038

interaction_layers.3.lin.weight f4 [128, 256]
-0.07807766 -0.16686057 0.0023091107 0.019033412 -0.03845322 -0.29321757 -0.10783624 -0.0021277773
-0.08339799 -0.05910081 -0.23525268 -0.21615437 0.03141085 -0.12139556 -0.0323702 0.06792981
0.026298568 0.117960766 -0.04471403 -0.23277658 -0.09330305 -0.013119617 0.08096649 0.1875221
-0.19677477 -0.0018924179 0.07888017 -0.019426327 0.024776893 -0.04054933 0.09835664 -0.06581194
-0.1292398 0.17351483 0.052603584 0.011928498 -0.016549703 -0.0069220103 -0.029414838 -0.03594991
0.10178614 -0.039490998 -0.1955559 -0.06706794 -0.050481927 -0.056367278 0.017633526 0.024805987
0.006630311 -0.054946676 0.03879895 -0.20540881 0.057008125 -0.06838393 -0.21621217 -0.09075214
0.04221053 0.009625954 0.0451271 0.05776329 -0.051054854 0.0010967874 -0.093508385 -0.13454208
0.056730118 0.069218524 0.0076606087 -0.14436102 -0.0143849375 0.023130674 -0.07321821 0.089482084
0.039614514 -0.14467083 0.16336344 -0.058109526 -0.30299023 0.022658201 0.024182485 0.052334584
0.06432265 -0.0012578325 0.00040078413 0.017980399 0.0012370705 -0.2598494 -0.1253351 -0.0138652185
0.15624863 -0.033272203 -0.114493646 0.024651254 0.051699772 0.14442709 0.09714696 -0.020438857
-0.053442255 0.06684455 0.07301544 0.07870524 -0.09006255 0.042143665 -0.016265802 0.1081035
-0.14885882 0.02403415 -0.046619788 0.053268798 -0.06458892 -0.035536475 0.0017933289 0.0610952
-0.030039012 -0.100186154 -0.068615675 -0.057131384 0.042102296 0.006100947 0.07562533 -0.044085883
-0.08203112 0.06502813 -0.081054255 -0.16842169 -0.007844206 -0.04636095 -0.057975493 0.044177085
0.11850051 0.049186476 0.14838295 0.06651791 0.0426747 0.04514993 0.090829894 0.0017233446
-0.05771377 -0.14226435 -0.08485389 -0.09979436 -0.038944595 -0.33424395 -0.0035847398 0.07659385
0.022179218 0.10023231 0.06936973 -0.0795554 -0.011794115 -0.03166827 -0.051658757 0.026687952
0.0013581183 0.10158638 0.024016073 -0.0862851 -0.103841506 -0.07084756 0.068700396 0.110358104
0.05775513 -0.007214584 -0.066601396 -0.03238792 -0.06038619 0.11812139 -0.008483709 0.048850346
-0.18824911 0.0121150315 0.09763712 -0.09897225 0.15150334 0.023719262 -0.033607043 0.08587469
0.0016390021 -0.041544084 -0.13623461 -0.09268133 -0.06706891 -0.1593898 -0.1449677 0.079297274
0.011251278 -0.022852873 0.13395196 -0.124766625 -0.071980275 -0.016103463 -0.18275316 -0.1375273
-0.0061090635 0.1410679 -0.23173381 -0.080545165 0.061805133 -0.082680166 0.028892178 0.049166627
-0.03458183 -0.02972365 -0.05541684 0.07787757 0.08712401 0.062375695 0.05286569 0.019388784
-0.04512454 0.11492537 0.11174375 -0.059923306 0.062331025 -0.019513449 0.082743 -0.08295747
0.10566837 -0.04820296 0.0027306215 -0.07424552 -0.006991061 0.0021920975 0.03281741 0.013070744
0.00616123 -0.007799813 -0.15900838 -0.038207605 -0.051767137 0.11450344 -0.0078109633 0.012672651
-0.16306648 -0.03929379 -0.08823022 -0.21142355 -0.16346078 0.08488109 -0.028480077 0.0006359632
-0.0033858616 0.014847808 0.1161295 0.0252564 0.019473383 0.0028315892 -0.074359536 0.0014424104
-0.022486499 0.012348741 -0.009346308 0.095189214 -0.09566501 0.030045493 0.026628446 0.0023398057
00000000: 2ee7 9fbd 7fdd 2abe 7354 173b f5eb 9b3c
00000010: 2081 1dbd 9d20 96be 3fd9 dcbd 2e72 0bbb
00000020: 91cc aabd b113 72bd 14e6 70be 9257 5dbe
00000030: aaa8 003d 3c9e f8bd 9d96 04bd c91e 8b3d
00000040: 1870 d73c 6a95 f13d 0f26 37bd fc5c 6ebe
00000050: ab15 bfbd a9f3 56bc c2d1 a53d cb05 403e
00000060: 537f 49be 020b f8ba ed8b a13d f623 9fbc
00000070: e9f8 ca3c 0e17 26bd 356f c93d 69c8 86bd
00000080: 7057 04be dfad 313e db76 573d bf6f 433c
00000090: 3e93 87bc 08d2 e2bb 63f7 f0bc 3640 13bd
000000a0: 4075 d03d 50c1 21bd ce3f 48be eb5a 89bd
000000b0: 23c6 4ebd 60e1 66bd 2f74 903c ed35 cb3c
000000c0: 1443 d93b c40f 61bd a6eb 1e3d b056 52be
000000d0: 5a81 693d e00c 8cbd b966 5dbe 42dc b9bd
000000e0: f3e4 2c3d 2db6 1d3c 32d7 383d 3399 6c3d
000000f0: e51e 51bd 14c2 8f3a 5381 bfbd 66c5 09be
00000100: d75d 683d 71c2 8d3d d805 fb3b 60d3 13be
00000110: cdae 6bbc 8a7c bd3c 6ef3 95bd 6242 b73d
00000120: d442 223d 9724 14be bf48 273e 4104 6ebd
00000130: 8921 9bbe b19d b93c 591a c63c ca5c 563d
00000140: 98bb 833d dbdd a4ba 5620 d239 a14b 933c
00000150: 3325 a23a fb0a 85be d857 00be f12a 63bc
00000160: a4ff 1f3e 6f48 08bd a57b eabd 6df1 c93c
00000170: 24c3 533d b2e4 133e fcf4 c63d 646f a7bc
00000180: 44e6 5abd cce5 883d 1e89 953d 3630 a13d
00000190: b772 b8bd d69e 2c3d dc3f 85bc 5e65 dd3d
000001a0: 726e 18be 44e3 c43c 64f4 3ebd 6230 5a3d
000001b0: 3247 84bd b28e 11bd 220e eb3a f63e 7a3d
000001c0: 6014 f6bc 662e cdbd 6086 8cbd 9902 6abd
000001d0: 7573 2c3d 74ea c73b 74e1 9a3d 6693 34bd
000001e0: efff a7bd 782d 853d c6ff a5bd bc76 2cbe
000001f0: fc84 00bc fbe4 3dbd b677 6dbd 08f3 343d
00000200: 65b0 f23d c277 493d b3f1 173e 8b3a 883d
00000210: abcb 2e3d 22ef 383d 0605 ba3d d9e1 e13a
00000220: 4665 6cbd bfad 11be e0c7 adbd fc60 ccbd
00000230: 5e84 1fbd 0622 abbe f4ed 6abb 3ddd 9c3d
00000240: 31b1 b53c 9946 cd3d b811 8e3d f1ed a2bd
00000250: 1b3c 41bc 96b6 01bd 2298 53bd b1a0 da3c
00000260: e302 b23a 850c d03d 5bbd c43c 3eb6 b0bd
00000270: dbaa d4bd 8718 91bd cbb2 8c3d 6e03 e23d
00000280: a590 6c3d 5168 ecbb 5066 88bd 32a9 04bd
00000290: 8257 77bd a1e9 f13d 41ff 0abc 4d17 483d
000002a0: 60c4 40be 207e 463c f8f5 c73d f7b1 cabd
000002b0: b123 1b3e e64e c23c 8aa7 09bd 12df af3d
000002c0: c9d3 d63a 212a 2abd 1681 0bbe b6cf bdbd
000002d0: 6d5b 89bd 1437 23be 6a72 14be 9c66 a23d
000002e0: 4857 383c f335 bbbc b42a 093e a585 ffbd
000002f0: 656a 93bd 69eb 83bc a523 3bbe f5d3 0cbe
00000300: 8a2e c8bb 1b74 103e a14b 6dbe ddf4 a4bd
00000310: 6127 7d3d 3854 a9bd 4aaf ec3c f262 493d
00000320: ada5 0dbd 037f f3bc c5fc 62bd 477e 9f3d
00000330: 136e b23d a87d 7f3d b289 583d 3ad5 9e3c
00000340: 82d4 38bd fe5d eb3d e8d9 e43d 2472 75bd
00000350: d14e 7f3d abda 9fbc 2975 a93d 9be5 a9bd
00000360: a968 d83d 7870 45bd 3af4 323b 090e 98bd
00000370: 4515 e5bb 4ba9 0f3b 8c6b 063d ad26 563c
00000380: 25e4 c93b 9395 ffbb 18d3 22be 947f 1cbd
00000390: c709 54bd c880 ea3d 1cf3 ffbb f3a0 4f3c
000003a0: e6fa 26be 86f2 20bd 0cb2 b4bd 6a7f 58be
000003b0: 4362 27be 23d6 ad3d 0d4f e9bc c5b6 263a
000003c0: 55e5 5dbb 3844 733c 4ed5 ed3d 83e6 ce3c
000003d0: a586 9f3c 2f92 393b d049 98bd 430f bd3a
000003e0: 9b35 b8bc 6052 4a3c 4221 19bc 90f2 c23d
000003f0: 04ec c3bd f721 f63c e623 da3c 6d57 193b
