best_model/xasnet_gnn_model.pt (torch, 390212 bytes, 20 tensors)

batch_norms.0.weight f4 [64]
0.94123703 1.0156907 1.0376879 0.98985815 1.114997 0.9911814 0.993258 0.9629526
0.9123564 0.92904055 1.0666511 1.139954 1.0271852 0.97826767 0.99053943 1.0155866
1.1339726 1.0481972 0.9224512 1.0314023 0.9830602 0.9240928 0.86511636 1.0216832
1.0001405 0.99161845 0.9491585 1.0376972 0.86349046 0.9743353 0.99436307 1.01538
1.0832562 0.99720037 1.070335 1.038998 0.9082123 0.94657075 1.0222763 0.8690013
1.036806 1.1697731 0.97785676 0.87579286 1.0289643 0.8368861 1.0368688 0.95085466
1.0063393 0.8950385 0.90830255 1.0011852 0.957656 0.9110859 0.93004 1.0311587
1.0516845 0.9267326 0.8433884 0.9306043 0.9363436 0.9920487 1.0305194 1.1093475
00000000: e9f4 703f 2702 823f f5d2 843f 5867 7d3f
00000010: 39b8 8e3f 10be 7d3f 2846 7e3f 1084 763f
00000020: 3090 693f 9ad5 6d3f 0688 883f 03ea 913f
00000030: ce7a 833f c06f 7a3f fe93 7d3f befe 813f
00000040: 0426 913f 532b 863f c325 6c3f fe04 843f
00000050: d5a9 7b3f 5991 6c3f 4478 5d3f 84c6 823f
00000060: 9b04 803f b5da 7d3f 0dfc 723f 43d3 843f
00000070: b60d 5d3f 0a6e 793f 948e 7e3f f9f7 813f
00000080: 24a8 8a3f 8648 7f3f bd00 893f e3fd 843f
00000090: 9a80 683f 7652 723f f3d9 823f df76 5e3f
000000a0: 0fb6 843f 20bb 953f d254 7a3f f633 603f
000000b0: 1ab5 833f 2b3e 563f 1eb8 843f 366b 733f
000000c0: bacf 803f 3e21 653f 8486 683f d626 803f
000000d0: f228 753f ed3c 693f 1a17 6e3f 02fd 833f
000000e0: 999d 863f 593e 6d3f 4de8 573f 153c 6e3f
000000f0: 37b4 6f3f e7f6 7d3f 0fe8 833f 19ff 8d3f

batch_norms.0.bias f4 [64]
-0.013144759 -0.2270429 -0.15774666 -0.1752199 -0.14379074 -0.08415931 -0.16916083 -0.080182016
-0.19920273 -0.16124243 0.004610131 -0.17124228 0.032772295 -0.067297 -0.11089713 -0.046470486
-0.15392126 -0.102247246 -0.11523902 -0.13059707 -0.14396214 -0.16109367 -0.0943501 -0.12124583
-0.09041602 -0.10142456 -0.037409607 -0.04575486 -0.19838262 -0.14065035 -0.09739361 -0.18234313
-0.20898777 -0.028906288 -0.2893356 -0.19753337 -0.11522621 -0.04718403 -0.10933671 -0.18314429
0.010136637 -0.20492746 0.019940857 -0.024516724 -0.11367354 -0.16613433 -0.13985856 -0.20384638
-0.22536163 -0.19792895 -0.14919211 -0.07615849 -0.04772363 -0.10236005 -0.08490027 -0.007505889
-0.1045754 -0.10171694 -0.1395635 -0.08203099 -0.074711666 -0.24276315 -0.046205204 -0.2196878
00000000: 1e5d 57bc ef7d 68be 5788 21be d86c 33be
00000010: e13d 13be b75b acbd 7f38 2dbe 7836 a4bd
00000020: cdfb 4bbe bc1c 25be 9510 973b 235a 2fbe
00000030: 3e3c 063d 02d3 89bd 091e e3bd d657 3ebd
00000040: 899d 1dbe 0167 d1bd 6f02 ecbd 3dbb 05be
00000050: d06a 13be bdf5 24be a03a c1bd bc4f f8bd
00000060: 092c b9bd aeb7 cfbd d13a 19bd 7369 3bbd
00000070: d024 4bbe a506 10be 4d76 c7bd 28b8 3abe
00000080: e400 56be e1cc ecbc cc23 94be 3046 4abe
00000090: b8fb ebbd 0b44 41bd edeb dfbd 2d8a 3bbe
000000a0: 2314 263c 81d8 51be 025b a33c 4cd7 c8bc
000000b0: accd e8bd 1e1f 2abe 1537 0fbe 1bbd 50be
000000c0: 33c5 66be e3ad 4abe d1c5 18be fbf8 9bbd
000000d0: da79 43bd 25a2 d1bd 31e0 adbd f6f3 f5bb
000000e0: a12b d6bd f950 d0bd bce9 0ebe ddff a7bd
000000f0: 6e02 99bd e796 78be ab41 3dbd d7f5 60be

batch_norms.0.running_mean f4 [64]
0.5554917 0.14271909 -0.11381911 0.12999104 0.20586872 0.05102414 -0.087743275 -0.4030081
-0.21442918 -0.094913855 0.07225389 0.017391397 -0.15503749 0.008475261 -0.051543966 -0.11495646
-0.08083317 -0.34330168 0.19200787 0.1821129 -0.06207243 0.06514355 0.3229907 0.2044257
0.28704214 0.031147756 0.29061404 -0.12612703 -0.17189425 -0.06414189 -0.13650322 0.1572807
-0.15927815 0.032293767 0.0067111575 0.04068698 -0.022814445 -0.3130192 -0.13122688 -0.5081576
-0.7193285 0.16434763 0.2685231 0.2424371 0.04644102 -0.47413605 -0.12205083 -0.37242466
-0.042337622 0.30662727 0.63759995 -0.26856673 -0.43927884 0.021951355 0.4725985 -0.15067467
0.024839666 0.12848206 0.2775818 0.37438065 0.08040922 0.39071152 -0.4217478 -0.21045394
00000000: b434 0e3f f424 123e fe19 e9bd 5f1c 053e
00000010: 40cf 523e b0fe 503d bfb2 b3bd 1457 cebe
00000020: 5393 5bbe 3262 c2bd d9f9 933d 6778 8e3c
00000030: 26c2 1ebe d2db 0a3c c41f 53bd 4b6e ebbd
00000040: dc8b a5bd 3dc5 afbe b69d 443e ce7b 3a3e
00000050: a93f 7ebd fb69 853d 095f a53e f854 513e
00000060: 30f7 923e 9429 ff3c 5dcb 943e 7227 01be
00000070: 0c05 30be d35c 83bd 80c7 0bbe 310e 213e
00000080: d019 23be 7846 043d 45e9 db3b 64a7 263d
00000090: 5ce5 babc 0d44 a0be 5760 06be 9e16 02bf
000000a0: ea25 38bf bf4a 283e dc7b 893e 6e41 783e
000000b0: f038 3e3d f6c1 f2be c9f5 f9bd 72ae bebe
000000c0: 376a 2dbd 40fe 9c3e c039 233f 9481 89be
000000d0: 28e9 e0be 54d3 b33c 6ef8 f13e 764a 1abe
000000e0: 8e7c cb3c cd90 033e 341f 8e3e d2ae bf3e
000000f0: 97ad a43d 570b c83e 54ef d7be 3d81 57be

batch_norms.0.running_var f4 [64]
0.10075491 0.01528664 0.022755055 0.024843661 0.023081504 0.048769705 0.018223401 0.06658443
0.032361396 0.009287761 0.021967873 0.013416095 0.06855985 0.0056994953 0.013301222 0.016549606
0.014931056 0.028407343 0.026087577 0.027534483 0.022433572 0.024661599 0.04047981 0.02047126
0.04960817 0.008904888 0.015582247 0.060011063 0.097237036 0.00835487 0.03281944 0.01328012
0.02118333 0.051031448 0.008622838 0.022557894 0.02889633 0.021474922 0.00983746 0.022274962
0.068570904 0.0159915 0.016739193 0.02913573 0.031905398 0.020941697 0.009250391 0.05914089
0.018924527 0.04033064 0.09432367 0.042680778 0.025743406 0.008617089 0.04825069 0.013666352
0.010414635 0.029466605 0.040665533 0.016389938 0.017576654 0.0076294537 0.06015467 0.008501718
00000000: 9758 ce3d d174 7a3c cf68 ba3c ef84 cb3c
00000010: 6c15 bd3c bec2 473d 3e49 953c 6b5d 883d
00000020: 628d 043d b12b 183c f8f5 b33c 2ecf 5b3c
00000030: 1b69 8c3d d5c2 ba3b 5eed 593c 0a93 873c
00000040: 63a1 743c 84b6 e83c 9db5 d53c ff8f e13c
00000050: 9cc6 b73c 1f07 ca3c 28ce 253d 58b3 a73c
00000060: f031 4b3d cfe5 113c ae4c 7f3c 29ce 753d
00000070: 3624 c73d dde2 083c ad6d 063d dc94 593c
00000080: aa88 ad3c 5a06 513d ce46 0d3c 55cb b83c
00000090: ffb7 ec3c 2dec af3c 4c2d 213c fb79 b63c
000000a0: e76e 8c3d 9b00 833c a220 893c 0eae ee3c
000000b0: 3caf 023d ec8d ab3c f48e 173c b83d 723d
000000c0: 9c07 9b3c be31 253d c52c c13d 0ad2 2e3d
000000d0: d6e3 d23c b12e 0d3c 84a2 453d d6e8 5f3c
000000e0: 25a2 2a3c f363 f13c e790 263d 3144 863c
000000f0: eafc 8f3c 7f00 fa3b be64 763d ca4a 0b3c

batch_norms.1.weight f4 [128]
0.91882026 0.9183155 1.0298898 1.1496147 0.97647244 1.006844 1.0111701 1.130854
1.112551 0.9468276 0.83171827 0.97101396 1.0946534 1.0153133 0.95598006 1.1076486
0.9614726 0.97259516 0.88425577 1.1186514 0.9472205 1.0013851 0.9072438 0.97203285
0.8641445 0.94013983 1.2022743 0.91833425 0.9515221 0.9763936 1.0966398 1.0164375
0.9269778 0.94385195 0.99635893 0.9456875 0.9966483 0.92804587 1.1365725 0.99549556
0.9888674 1.0314243 0.9366797 1.1056519 0.8138842 1.0420783 1.1625651 1.0364084
0.9491259 0.83737624 1.1538689 0.9117122 0.9237219 0.9700278 0.9829893 0.91757125
0.9677183 1.030478 1.1616771 0.89322686 0.9224773 1.1816088 1.0614369 1.0071192
1.1057557 0.74511254 1.1902599 1.0961332 1.0099844 0.9051301 1.0686953 1.0693028
1.0054169 1.0698185 0.8412435 0.95337176 1.1207383 1.0035663 1.1368194 0.9517495
1.0193633 1.1364129 1.0292876 0.9444354 0.97260106 1.1167586 0.9918245 0.9215725
1.0108143 1.0082647 1.0713326 1.0288583 0.97200584 1.0560614 0.89848626 0.904749
0.9926059 1.1197702 0.8530379 1.0755162 1.0846124 1.1344216 1.0490897 0.91848284
0.98244536 1.0047807 1.0562034 0.8453098 0.94421977 1.166233 0.85154665 0.89350533
0.97639143 0.8667353 0.96823627 0.9381722 1.1328323 0.93202156 0.9647453 0.9822978
0.98283327 0.96042234 1.0278033 1.15256 1.0873824 1.1164227 1.0426568 0.8240998
00000000: ce37 6b3f b916 6b3f 6ed3 833f 9326 933f
00000010: 19fa 793f 44e0 803f 066e 813f d3bf 903f
00000020: 1268 8e3f 4b63 723f 7deb 543f 5f94 783f
00000030: 9a1d 8c3f c9f5 813f 1cbb 743f 6ec7 8d3f
00000040: 1123 763f fffb 783f 965e 623f f82f 8f3f
00000050: 0b7d 723f 632d 803f 2141 683f 25d7 783f
00000060: 9338 5d3f 01ad 703f 20e4 993f f417 6b3f
00000070: f496 733f eef4 793f b15e 8c3f a01a 823f
00000080: 6b4e 6d3f 48a0 713f 6111 7f3f 9318 723f
00000090: 5824 7f3f 6a94 6d3f 357b 913f ccd8 7e3f
000000a0: 6a26 7d3f b605 843f 3eca 6f3f 0086 8d3f
000000b0: b75a 503f d262 853f efce 943f 08a9 843f
000000c0: eaf9 723f 4a5e 563f fab1 933f f965 693f
000000d0: 0a79 6c3f be53 783f 30a5 7b3f f3e5 6a3f
000000e0: 63bc 773f b4e6 833f d6b1 943f 84aa 643f
000000f0: 7927 6c3f f53e 973f 2add 873f 48e9 803f
00000100: 6789 8d3f b2bf 3e3f 705a 983f 184e 8c3f
00000110: 2b47 813f 9bb6 673f 02cb 883f eade 883f
00000120: 80b1 803f d0ef 883f bc5b 573f 2c10 743f
00000130: 5a74 8f3f dc74 803f 4c83 913f dba5 733f
00000140: 7f7a 823f fa75 913f b2bf 833f 85c6 713f
00000150: 62fc 783f f2f1 8e3f 36e8 7d3f 2dec 6b3f
00000160: 5d62 813f d10e 813f 6d21 893f a1b1 833f
00000170: 60d5 783f 052d 873f 3203 663f a19d 673f
00000180: 6c1b 7e3f a154 8f3f b160 5a3f 84aa 893f
00000190: 94d4 8a3f ba34 913f 9248 863f b121 6b3f
000001a0: 8a81 7b3f a79c 803f ac31 873f 3966 583f
000001b0: 63b8 713f 1f47 953f f6fe 593f c4bc 643f
000001c0: caf4 793f 5de2 5d3f 55de 773f 0e2c 703f
000001d0: a600 913f f798 6e3f 8cf9 763f de77 7b3f
000001e0: f69a 7b3f 3dde 753f 0f8f 833f 1687 933f
000001f0: 592f 8b3f f0e6 8e3f c775 853f 34f8 523f

batch_norms.1.bias f4 [128]
0.09068561 -0.06658576 0.033384915 0.03554266 -0.013469471 -0.008549546 -0.08091773 -0.025734171
0.09141051 0.014688619 -0.0003279511 -0.092612095 0.16402338 -0.10149713 -0.10355985 -0.13253175
-0.06638693 -0.31891975 -0.13459548 0.08177711 -0.005502732 0.028299773 -0.09521324 -0.051468767
-0.10090068 -0.08653394 0.13466252 -0.16258489 -0.03405895 -0.061216194 -0.015705736 -0.035468686
-0.041437406 -0.02524528 0.1530566 -0.0385389 -0.01568418 -0.072746865 0.018666806 -0.0635797
-0.08459894 0.059388064 -0.03421909 0.16337283 -0.06686555 -0.005269599 0.038642157 0.030179216
0.017779803 -0.11401093 0.046750583 -0.07716516 -0.063854806 -0.047658734 -0.21030034 -0.06399427
-0.05490068 0.09000759 0.0013815513 -0.16466561 -0.08964595 0.066054866 0.11097152 -0.0064655887
-0.058172185 -0.20477535 0.16289555 -0.023300886 0.055951644 -0.055436045 0.028835656 0.021958705
0.021325536 0.07034177 -0.089271 0.00035171266 -0.040067345 0.076666094 -0.07570869 -0.091005236
-0.120943576 -0.06294754 -0.16975443 -0.018406892 -0.014514007 -0.01545705 0.031721488 -0.05796223
0.026132004 -0.035588793 -0.0421602 -0.012463944 -0.25288886 -0.120022446 -0.11344052 -0.10403999
-0.006199461 0.058448818 -0.16843498 -0.27318397 0.20104659 0.040048435 -0.030363172 -0.0890518
0.036539517 0.04713523 -0.063365296 -0.12019812 0.051730752 0.0883518 -0.053872418 -0.11878431
-0.031055208 -0.19572064 0.00282485 -0.04935831 -0.005213045 -0.045943137 -0.087288976 -0.010234725
-0.08183496 -0.012668841 -0.13458097 0.16623531 -0.041507762 -0.0036376517 0.03489436 -0.089194424
00000000: 61b9 b93d 1d5e 88bd 9fbe 083d 2e95 113d
00000010: 0eaf 5cbc 6513 0cbc 32b8 a5bd 78d0 d2bc
00000020: 6f35 bb3d 89a8 703c daf0 abb9 69ab bdbd
00000030: bff5 273e badd cfbd 3017 d4bd 67b6 07be
00000040: dff5 87bd 7349 a3be 66d3 09be c27a a73d
00000050: 4350 b4bb edd4 e73c 29ff c2bd ead0 52bd
00000060: 04a5 cebd b538 b1bd f9e4 093e a77c 26be
00000070: 6681 0bbd d5bd 7abd 51a9 80bc 9d47 11bd
00000080: 45ba 29bd 30cf cebc dfba 1c3e f7da 1dbd
00000090: 1c7c 80bc 4ffc 94bd 21eb 983c 1336 82bd
000000a0: 3642 adbd e640 733d 5129 0cbd 354b 273e
000000b0: cef0 88bd 9aac acbb 3d47 1e3d 673a f73c
000000c0: f3a6 913c 907e e9bd 8a7d 3f3d c408 9ebd
000000d0: 4fc6 82bd ce35 43bd f958 57be 6e0f 83bd
000000e0: 89df 60bd e655 b83d 2b15 b53a 1a9e 28be
000000f0: 4c98 b7bd c647 873d 0945 e33d 4add d3bb
00000100: f545 6ebd a1b0 51be 17ce 263e 80e1 bebc
00000110: 8d2d 653d e810 63bd c138 ec3c bee2 b33c
00000120: e4b2 ae3c 590f 903d b7d3 b6bd 1366 b839
00000130: a81d 24bd 1d03 9d3d 280d 9bbd f460 babd
00000140: 44b1 f7bd a4ea 80bd 1bd4 2dbe 0dca 96bc
00000150: 28cc 6dbc 913f 7dbc 64ee 013d ce69 6dbd
00000160: c912 d63c 8ec5 11bd 2db0 2cbd 9235 4cbc
00000170: a67a 81be 54ce f5bd 8153 e8bd eb12 d5bd
00000180: d924 cbbb 0768 6f3d 387a 2cbe c5de 8bbe
00000190: 28df 4d3e d409 243d 30bc f8bc ca60 b6bd
000001a0: 76aa 153d df10 413d aac5 81bd 6f2a f6bd
000001b0: a0e3 533d caf1 b43d 53a9 5cbd 3045 f3bd
000001c0: 7e67 febc fe6a 48be 1e21 393b f02b 4abd
000001d0: 31d2 aabb df2e 3cbd 90c4 b2bd 8caf 27bc
000001e0: 1699 a7bd f890 4fbc 98cf 09be 9739 2a3e
000001f0: 0b04 2abd ab65 6ebb 63ed 0e3d 91ab b6bd

batch_norms.1.running_mean f4 [128]
-0.9045055 -0.5591146 -0.86760336 0.08608665 0.11306312 -0.89021426 0.42944074 0.27389663
0.24864514 -0.58936524 0.1218482 -0.32440156 0.5734219 0.7896405 0.63904196 -0.7518159
0.1107274 0.2345903 0.45184386 0.05974044 -0.8549362 -0.6545323 0.13049626 -0.1365076
-0.06872833 0.1620395 -0.44960362 0.5644348 -0.32391587 0.17359984 0.67461216 -0.7369755
-0.31598493 -0.65327734 -0.6319706 0.42183164 0.33768287 0.005515716 -0.7768576 -0.24962159
0.25277123 -0.22367255 0.17227583 -0.8872253 -0.2698746 0.26865885 -0.32454726 -0.62514925
-0.40422326 0.23795414 0.11094872 -0.52704376 -0.70849454 -0.90121156 0.6946595 -0.7065104
-0.5081884 -0.29117692 -0.95159817 -0.13931468 -0.5628942 0.5227506 -1.1444526 0.042994216
0.95918643 -0.22547674 -0.74476886 0.39655203 -0.26974624 -0.90999585 -0.6538757 -0.48868144
-0.9670726 0.00014364277 -0.2676402 -0.71286094 0.42594117 -0.12764375 0.63617206 0.44469136
-0.8517372 0.7973115 -0.6791818 0.1582299 -0.16612044 0.67444324 -0.21704446 0.4518848
0.36254802 0.1284816 -0.46959016 -0.42887327 0.65069366 0.2896865 -0.04205082 -0.85964423
-0.54809123 0.5159611 0.06163252 0.6380807 -0.64816856 0.3531279 -1.2736887 -0.51486754
-0.3857299 0.13812229 0.5117641 -0.41249463 -0.57859993 0.38901612 -0.2816196 -0.72049487
-0.25873393 0.48213917 -0.64282393 0.766583 0.53363043 -0.66995686 0.5121304 -0.3908014
-0.5153726 -0.29470837 0.65926564 0.350535 0.61556727 0.5469048 0.2918251 0.5982371
00000000: ac8d 67bf 2222 0fbf 411b 5ebf 334e b03d
00000010: a38d e73d 15e5 63bf a8df db3e 2e3c 8c3e
00000020: d59c 7e3e a4e0 16bf 8d8b f93d f617 a6be
00000030: c7cb 123f e125 4a3f 4198 233f 0277 40bf
00000040: 0cc5 e23d 7138 703e 1458 e73e 64b2 743d
00000050: 19dd 5abf 6e8f 27bf d0a0 053e a6c8 0bbe
00000060: 70c1 8cbd afed 253e 7232 e6be cd7e 103f
00000070: 4dd8 a5be 28c4 313e 62b3 2c3f 6daa 3cbf
00000080: c7c8 a1be 2f3d 27bf d3c8 21bf 51fa d73e
00000090: c5e4 ac3e 2ebd b43b 24e0 46bf cd9c 7fbe
000000a0: 3b6b 813e 6b0a 65be 1369 303e 3221 63bf
000000b0: 012d 8abe a78d 893e 0f2b a6be c809 20bf
000000c0: 5af6 cebe 40aa 733e 1539 e33d 57ec 06bf
000000d0: e65f 35bf cdb5 66bf 34d5 313f dedd 34bf
000000e0: a318 02bf 2415 95be f09b 73bf 82a8 0ebe
000000f0: d619 10bf fcd2 053f 6c7d 92bf b41a 303d
00000100: 3e8d 753f 60e3 66be 2ca9 3ebf de08 cb3e
00000110: 2e1c 8abe 7df5 68bf 6664 27bf 7434 fabe
00000120: 1292 77bf d09e 1639 2308 89be 0e7e 36bf
00000130: f614 da3e 0bb5 02be 2cdc 223f 96ae e33e
00000140: 730b 5abf 9b1c 4c3f dcde 2dbf 0507 223e
00000150: 7a1b 2abe 50a8 2c3f e740 5ebe 725d e73e
00000160: e59f b93e ae90 033e 1f6e f0be 4795 dbbe
00000170: dc93 263f ca51 943e 7b3d 2cbd a511 5cbf
00000180: b54f 0cbf 0716 043f 6272 7c3d 4259 233f
00000190: 60ee 25bf 2ecd b43e 3b08 a3bf 5cce 03bf
000001a0: 647e c5be ee6f 0d3e f902 033f 7f32 d3be
000001b0: 201f 14bf 1f2d c73e 7230 90be 5a72 38bf
000001c0: c678 84be f2da f63e 1c90 24bf c93e 443f
000001d0: 019c 083f 4b82 2bbf fa1a 033f 1f17 c8be
000001e0: 75ef 03bf 04e4 96be a2c5 283f 5379 b33e
000001f0: d195 1d3f f401 0c3f 196a 953e 1126 193f

batch_norms.1.running_var f4 [128]
1.7145818 1.268766 1.1611575 1.0221376 1.0560707 0.5268552 0.9982822 1.5673532
1.4078914 0.838518 1.3832331 0.77680624 1.6847848 0.67109656 0.9339795 1.0189388
1.4733049 0.7654362 0.5636718 1.2444874 0.9327493 1.3548603 0.85559547 0.8714759
0.43005386 0.7983485 0.95870054 1.0998553 0.40194365 0.71572036 2.4316175 1.0351939
1.1214349 0.4921353 1.44587 1.0077535 1.0408175 0.7212898 0.98347086 0.8681179
1.6325983 0.95992476 0.8939615 1.3859116 0.42942882 1.3391058 1.2880831 1.016422
1.2457184 1.0046116 1.2590044 1.0558645 0.64816993 0.6620424 0.8795662 0.86629045
1.4612049 1.4563936 0.5698964 0.6066939 0.7455617 1.8752514 1.0492043 0.72806317
1.3953874 0.6277814 0.9565514 1.5260378 0.73090637 0.87609434 0.62623394 0.96735793
1.1113977 1.2880108 0.6118795 0.8109865 1.0871903 0.83792824 1.231075 1.3701315
1.1817145 0.6656798 0.93962234 1.6053368 0.8153097 1.3219972 0.7278572 0.8635816
1.6459309 0.86455745 0.99896693 1.141313 1.2228591 1.1546681 0.47662267 0.8177372
1.3040799 1.3765496 0.5092586 0.6529242 1.1331978 1.2046237 1.309548 0.46541277
0.97372174 1.7870282 1.1963705 1.0935376 1.0569013 1.0203147 0.65678835 0.43857393
0.8663447 0.99679095 0.63987017 0.87379235 0.6822717 0.6320349 1.2007253 1.038069
0.99476534 0.8128899 0.8399044 1.5555567 1.2324911 1.065983 1.5776497 0.97728616
00000000: 6b77 db3f ed66 a23f cfa0 943f 68d5 823f
00000010: 532d 873f fbdf 063f 6c8f 7f3f 089f c83f
00000020: c935 b43f 1ea9 563f c80d b13f c6dc 463f
00000030: 07a7 d73f fccc 2b3f 4819 6f3f 966c 823f
00000040: 4195 bc3f a0f3 433f cc4c 103f 5d4b 9f3f
00000050: a8c8 6e3f 106c ad3f 4e08 5b3f 0b19 5f3f
00000060: 0530 dc3e 9160 4c3f 666d 753f 0fc8 8c3f
00000070: 8fcb cd3e 7339 373f 9f9f 1b40 3c81 843f
00000080: 2e8b 8f3f 28f9 fb3e 4512 b93f 11fe 803f
00000090: 8239 853f 73a6 383f bfc4 7b3f fa3c 5e3f
000000a0: fbf8 d03f a1bd 753f a9da 643f 8d65 b13f
000000b0: 18de db3e d267 ab3f e8df a43f 1e1a 823f
000000c0: b373 9f3f 1d97 803f 0e27 a13f 9126 873f
000000d0: 77ee 253f 9c7b 293f 402b 613f 36c5 5d3f
000000e0: c308 bb3f 1b6b ba3f bbe4 113f 4b50 1b3f
000000f0: 22dd 3e3f 3d08 f03f 544c 863f 5962 3a3f
00000100: 0e9c b23f 48b6 203f 8de0 743f 3555 c33f
00000110: ae1c 3b3f b847 603f de50 203f c5a4 773f
00000120: 4842 8e3f 8add a43f 23a4 1c3f d09c 4f3f
00000130: 0d29 8b3f 7782 563f de93 9d3f 7860 af3f
00000140: 6c42 973f fe69 2a3f 178b 703f ad7b cd3f
00000150: 23b8 503f 3437 a93f d954 3a3f af13 5d3f
00000160: ddad d23f a353 5d3f 4cbc 7f3f 8b16 923f
00000170: a686 9c3f 2acc 933f e307 f43e 3a57 513f
00000180: 17ec a63f c732 b03f c65e 023f 0a26 273f
00000190: a00c 913f 1c31 9a3f 459f a73f 954a ee3e
000001a0: d445 793f 57bd e43f ab22 993f 0af9 8b3f
000001b0: 8b48 873f ac99 823f 4823 283f c38c e03e
000001c0: c4c8 5d3f b12d 7f3f 88ce 233f dbb0 5f3f
000001d0: 5ca9 2e3f 0acd 213f 5eb1 993f 72df 843f
000001e0: f1a8 7e3f 8d19 503f fa03 573f 7b1c c73f
000001f0: 45c2 9d3f 2272 883f 6df0 c93f 6d2f 7a3f

batch_norms.2.weight f4 [256]
0.46242478 0.49374843 0.5253737 0.59269077 0.60736114 0.440735 0.37277666 0.6064953
0.563628 0.5503131 0.6092237 0.51239836 0.59293205 0.48934546 0.57747257 0.5318486
0.6056159 0.55197084 0.53647184 0.48476657 0.5264612 0.5838002 0.5612606 0.5121621
0.46661448 0.5576571 0.5441225 0.57820785 0.5140977 0.5384474 0.4809104 0.4868054
0.5303594 0.44884136 0.5253124 0.5895771 0.49669445 0.5668998 0.58639085 0.54410523
0.42830107 0.5486788 0.57351 0.45713907 0.5438251 0.51900166 0.5568228 0.54612553
0.48420197 0.5070472 0.52027845 0.6018546 0.48388174 0.5810355 0.55535203 0.49460512
0.5960018 0.51619345 0.4980613 0.4427173 0.5543713 0.48297492 0.37940305 0.46809503
0.53238606 0.48367584 0.4809082 0.5595396 0.54870135 0.55109113 0.49609244 0.58456296
0.437148 0.5236124 0.5303189 0.50380284 0.47256753 0.437023 0.5507264 0.43637636
0.38960811 0.4093735 0.42944723 0.51485664 0.54060143 0.5643994 0.49349684 0.5316853
0.47597182 0.597999 0.5696973 0.5550881 0.5538441 0.54688656 0.49275485 0.54928917
0.5035361 0.45689374 0.4603115 0.5856787 0.46424085 0.577585 0.56536126 0.4708859
0.5559911 0.55785954 0.576634 0.5713584 0.47351316 0.52133423 0.58040977 0.49378902
0.40227485 0.52384925 0.6088677 0.45214015 0.49381027 0.5372962 0.5047567 0.4796761
0.33059698 0.43926227 0.5289344 0.5196501 0.5445155 0.5364698 0.49058577 0.46606356
0.5259508 0.5404615 0.5131595 0.5906575 0.47767362 0.4994892 0.6129535 0.4899125
0.50951165 0.53755516 0.6100881 0.43524605 0.5573637 0.52112436 0.52571183 0.5459762
0.59662324 0.43761653 0.51734906 0.5499308 0.47175294 0.45591363 0.5528892 0.4737226
0.52336276 0.5744261 0.51321256 0.5003631 0.5976426 0.43692833 0.54335856 0.5748882
0.5788133 0.59630466 0.510333 0.5284661 0.45397398 0.5382092 0.5129408 0.48693717
0.5540688 0.4866181 0.47701126 0.5072348 0.553565 0.5325934 0.5807622 0.5368738
0.4807393 0.5465972 0.5414739 0.5753931 0.52305865 0.53999364 0.5281041 0.4329722
0.35737547 0.5406687 0.55080307 0.53204644 0.53128934 0.5279551 0.50376207 0.43808883
0.5362166 0.5168235 0.41237924 0.51407266 0.5316128 0.5649601 0.5419026 0.55494124
0.5895871 0.4850468 0.6002943 0.44000044 0.5399788 0.47842944 0.48132885 0.54516846
0.5625381 0.547609 0.54823995 0.51698726 0.62044233 0.51484007 0.5311723 0.52965343
0.5675172 0.41113517 0.4860237 0.51560295 0.5561204 0.5260358 0.6002522 0.53076315
0.52908415 0.41852054 0.5658163 0.5878981 0.57945985 0.53919697 0.49771467 0.5735709
0.568973 0.54896027 0.53027755 0.5466934 0.54642123 0.60969573 0.51299715 0.49820825
0.4885351 0.5263038 0.5441845 0.6310942 0.45665836 0.4690631 0.53272897 0.53511333
0.46982095 0.49970618 0.55186 0.5906649 0.47307602 0.6085131 0.5580763 0.54675174
00000000: f1c2 ec3e 98cc fc3e e47e 063f 95ba 173f
00000010: 057c 1b3f 05a8 e13e 95dc be3e 4743 1b3f
00000020: ed49 103f 52e1 0c3f 16f6 1b3f 8a2c 033f
00000030: 65ca 173f 7d8b fa3e 3ed5 133f 3b27 083f
00000040: a509 1b3f f64d 0d3f 3856 093f 5333 f83e
00000050: 29c6 063f ee73 153f c6ae 0f3f 0e1d 033f
00000060: 18e8 ee3e 9ec2 0e3f 9d4b 0b3f 6e05 143f
00000070: e89b 033f b0d7 093f e339 f63e 8f3e f93e
00000080: a2c5 073f 89ce e53e e07a 063f 86ee 163f
00000090: bc4e fe3e 5820 113f b61d 163f 7b4a 0b3f
000000a0: 474a db3e 3776 0c3f 8dd1 123f 220e ea3e
000000b0: 1f38 0b3f 4bdd 043f f08b 0e3f e2ce 0b3f
000000c0: 52e9 f73e d8cd 013f f830 053f 2513 1a3f
000000d0: 59bf f73e bebe 143f 8d2b 0e3f e23c fd3e
000000e0: 9393 183f 4125 043f e401 ff3e d8ab e23e
000000f0: 47eb 0d3f 7d48 f73e 1e41 c23e 27aa ef3e
00000100: 744a 083f 5ca4 f73e 9939 f63e fd3d 0f3f
00000110: b177 0c3f 4f14 0d3f d4ff fd3e eba5 153f
00000120: ddd1 df3e 760b 063f fbc2 073f 39f9 003f
00000130: 5ff4 f13e 7bc1 df3e 68fc 0c3f b96c df3e
00000140: b77a c73e 6799 d13e 82e0 db3e a5cd 033f
00000150: db64 0a3f 7b7c 103f 9eab fc3e 871c 083f
00000160: 94b2 f33e 7616 193f afd7 113f 411a 0e3f
00000170: bac8 0d3f c200 0c3f 5d4a fc3e 379e 0c3f
00000180: bee7 003f faed e93e f3ad eb3e 0aef 153f
00000190: fab0 ed3e 9cdc 133f 84bb 103f f517 f13e
000001a0: 6f55 0e3f e2cf 0e3f 499e 133f 8b44 123f
000001b0: 5170 f23e 2976 053f bc95 143f ead1 fc3e
000001c0: f8f6 cd3e fc1a 063f c1de 1b3f ea7e e73e
000001d0: b3d4 fc3e 3e8c 093f bc37 013f 1b98 f53e
000001e0: 0244 a93e fce6 e03e 3f68 073f ca07 053f
000001f0: 5e65 0b3f 1656 093f 0f2e fb3e e29f ee3e
00000200: b6a4 063f af5b 0a3f 6c5e 033f 5435 173f
00000210: a391 f43e 0cbd ff3e 85ea 1c3f d0d5 fa3e
00000220: 5b6f 023f 379d 093f bc2e 1c3f 92d8 de3e
00000230: 63af 0e3f 6868 053f 0d95 063f 19c5 0b3f
00000240: 4dbc 183f 460f e03e fd70 043f 44c8 0c3f
00000250: 9a89 f13e 836d e93e 268a 0d3f c58b f23e
00000260: 1afb 053f 970d 133f e661 033f cc17 003f
00000270: 1bff 183f 12b5 df3e 8c19 0b3f e02b 133f
00000280: 1c2d 143f 6ca7 183f 2fa5 023f 8e49 073f
00000290: 476f e83e 14c8 093f 1750 033f d44f f93e
000002a0: 74d7 0d3f 0226 f93e d23a f43e 24da 013f
000002b0: 70b6 0d3f 0b58 083f d5ac 143f 9070 093f
000002c0: 7623 f63e cbed 0b3f 099e 0a3f f64c 133f
000002d0: 2ce7 053f 063d 0a3f d531 073f 88ae dd3e
000002e0: ebf9 b63e 4469 0a3f 6e01 0d3f 3234 083f
000002f0: 9402 083f 1128 073f 8df6 003f 2e4d e03e
00000300: 7e45 093f 8b4e 043f 5f23 d33e 449a 033f
00000310: c717 083f 3aa1 103f 21ba 0a3f a110 0e3f
00000320: 2eef 163f 0e58 f83e e3ac 193f bd47 e13e
00000330: 0d3c 0a3f b4f4 f43e bc70 f63e 2990 0b3f
00000340: 7f02 103f 1a30 0c3f 7459 0c3f 4759 043f
00000350: 4fd5 1e3f 8fcc 033f e8fa 073f 5e97 073f
00000360: cf48 113f 4f80 d23e 19d8 f83e 8efe 033f
00000370: e85d 0e3f 48aa 063f 21aa 193f 18e0 073f
00000380: 0f72 073f 5348 d63e 56d9 103f 7d80 163f
00000390: 7b57 143f d008 0a3f 75d4 fe3e 8bd5 123f
000003a0: 37a8 113f a988 0c3f 45c0 073f 19f4 0b3f
000003b0: 43e2 0b3f 0515 1c3f c853 033f 2715 ff3e
000003c0: 4621 fa3e d9bb 063f ad4f 0b3f 648f 213f
000003d0: 20cf e93e 0a29 f03e ed60 083f 30fd 083f
000003e0: 5f8c f03e 7dd9 ff3e b246 0d3f d135 173f
000003f0: 0537 f23e 84c7 1b3f 17de 0e3f ecf7 0b3f

batch_norms.2.bias f4 [256]
-0.19331338 -0.05854908 -0.15515055 0.13209637 -0.15891506 -0.1773494 -0.19771834 0.15906551
-0.09548889 0.095016874 0.058952462 -0.16381608 0.15505803 -0.15286611 0.14601402 0.15589832
0.14497302 0.16818309 -0.17333762 -0.13649888 -0.15467662 -0.108855695 -0.15458205 0.18110336
-0.17075965 -0.08553588 -0.1571369 0.16039705 0.15182437 0.08021974 0.16211617 -0.16474801
0.070883505 0.15221769 0.17436878 0.051299114 0.17431627 -0.06440882 0.036901537 0.15042959
0.15379931 0.14987776 -0.14770268 0.17042392 0.079723164 -0.1467042 -0.1440246 -0.09752444
0.19832678 0.15790787 -0.15914188 0.096770406 -0.18737479 -0.15079102 -0.07479378 -0.026538797
0.12626585 -0.16048914 0.14229518 -0.15248105 0.14937176 0.12153937 0.19362557 0.060406514
0.15713187 -0.11251755 0.1528318 -0.14794074 0.10861187 -0.1776466 0.16689236 0.1452599
-0.14358741 0.05655273 0.17165872 -0.12776585 -0.10533514 0.15155634 0.16479416 -0.193571
0.18184994 0.18212323 0.09138045 -0.1420588 0.15382901 -0.11410836 -0.18188328 -0.16064896
-0.14186336 -0.16438861 -0.1464046 -0.14590377 0.14390011 0.027132392 0.18137452 -0.13534343
-0.12218093 -0.15595342 -0.17416038 -0.15865502 -0.16642529 0.017270472 0.15137064 0.062213693
0.15909585 -0.07700951 -0.1444615 0.15927646 -0.12227771 -0.13010333 0.15241003 0.11336804
-0.10512824 -0.15420589 0.15710744 -0.15430397 -0.17708145 -0.17170422 0.18334283 0.15817304
0.15031642 -0.16395402 -0.014477763 0.10806761 0.15050365 -0.16265427 0.15888357 0.14709044
-0.17503041 -0.13218744 -0.0074061533 -0.14819288 0.14682996 0.119571045 -0.16262458 -0.16887252
0.1317313 0.14570215 -0.16751169 -0.17470227 0.13566013 -0.15703729 -0.048343927 -0.10015689
-0.14864913 -0.1696379 0.15890361 0.13243128 0.17070316 -0.15071854 -0.15741068 -0.05250019
0.10774339 -0.16294809 0.08822933 0.14768362 -0.075229526 0.17675743 -0.17468368 0.166919
-0.11678872 -0.15344392 -0.0067685796 0.055509362 -0.16087288 -0.0718547 -0.13551618 0.15850805
-0.086113244 0.028246462 -0.14533307 0.13728033 0.0481392 0.08831949 -0.17195727 -0.10793556
0.16203728 0.1679409 0.17191721 0.15717562 -0.10626691 0.05102908 -0.025097089 -0.16896051
-0.22613367 -0.17160755 -0.14709495 0.13608496 -0.006465417 0.15676731 -0.16550827 -0.19802758
0.14977063 0.119889475 0.18634221 -0.15246442 -0.0954502 0.16704102 -0.16400886 -0.1536593
0.15160619 -0.09313324 0.16386914 0.15521616 -0.07746522 0.16887149 0.17349692 0.10652292
0.012692113 0.13614133 0.031151848 0.16175574 -0.15319571 -0.18129748 -0.16294827 -0.16771479
0.15276964 -0.17208819 -0.13741058 0.1584389 -0.16091643 0.16876045 -0.06708174 -0.16975719
-0.1439562 0.18109848 -0.1545093 0.16424783 -0.15867302 0.15471862 -0.049153138 -0.13646162
-0.11987601 -0.16110052 -0.16755727 0.13954364 0.07841213 0.07702265 0.12612419 0.055768386
-0.15833776 -0.1276388 -0.1430469 -0.08470541 -0.179455 -0.13526076 -0.15806465 0.17460206
-0.15416707 0.02754611 -0.046476845 -0.1579744 -0.15086485 0.13661446 -0.15862548 -0.16351564
00000000: f1f3 45be 29d1 6fbd c9df 1ebe 4544 073e
00000010: a1ba 22be 159b 35be ad76 4abe 12e2 223e
00000020: ae8f c3bd 3598 c23d 2378 713d 67bf 27be
00000030: 88c7 1e3e ef88 1cbe b384 153e cfa3 1f3e
00000040: cf73 143e 3038 2c3e 6b7f 31be 5dc6 0bbe
00000050: 8c63 1ebe bcef debd c24a 1ebe 2973 393e
00000060: 9edb 2ebe 6f2d afbd 7fe8 20be 203f 243e
00000070: d977 1b3e 3f4a a43d c801 263e b4b3 28be
00000080: 5f2b 913d f4de 1b3e bb8d 323e 051f 523d
00000090: f77f 323e c5e8 83bd 1126 173d 370a 1a3e
000000a0: 917d 1d3e 8e79 193e 5f3f 17be 9c83 2e3e
000000b0: e645 a33d a039 16be 2f7b 13be e5ba c7bd
000000c0: 2d16 4b3e 9ab2 213e 17f6 22be 902f c63d
000000d0: 2ddf 3fbe f668 1abe 7b2d 99bd e467 d9bc
000000e0: d64b 013e 4457 24be d4b5 113e fe23 1cbe
000000f0: e9f4 183e a2e9 f83d c845 463e d26c 773d
00000100: 2de7 203e 9a6f e6bd f07f 1c3e c77d 17be
00000110: e66f de3d fee8 35be d5e5 2a3e 03bf 143e
00000120: 9408 13be d6a3 673d 4ec7 2f3e 0dd5 02be
00000130: f3b9 d7bd 9631 1b3e cdbf 283e 7a37 46be
00000140: df36 3a3e 837e 3a3e ac25 bb3d dd77 11be
00000150: 5a85 1d3e a5b1 e9bd 9c3f 3abe 2981 24be
00000160: a144 11be 7d55 28be 16eb 15be cc67 15be
00000170: 8d5a 133e c044 de3c 3eba 393e 7897 0abe
00000180: ff39 fabd 41b2 1fbe 1957 32be 7676 22be
00000190: 646b 2abe ce7a 8d3c e800 1b3e c9d3 7e3d
000001a0: 06ea 223e 29b7 9dbd b7ed 13be 5e19 233e
000001b0: bc6c fabd cf39 05be 6011 1c3e 812d e83d
000001c0: 7a4d d7bd 26e8 1dbe c6e0 203e dc01 1ebe
000001d0: d754 35be 3bd3 2fbe 39be 3b3e 1df8 213e
000001e0: 8cec 193e 90e3 27be 2434 6dbc 8d52 dd3d
000001f0: a11d 1a3e d78e 26be 60b2 223e e09e 163e
00000200: 2c3b 33be 255c 07be 51af f2bb e0bf 17be
00000210: 985a 163e aae1 f43d 0f87 26be ebec 2cbe
00000220: 92e4 063e f232 153e 2f88 2bbe 27e5 32be
00000230: 7dea 0a3e 62ce 20be 4804 46bd 0e1f cdbd
00000240: 7a37 18be 8fb5 2dbe a1b7 223e 119c 073e
00000250: cfcc 2e3e f655 1abe 4430 21be 700a 57bd
00000260: 91a8 dc3d dddb 26be 94b1 b43d 603a 173e
00000270: f011 9abd e6ff 343e 47e0 32be d0ec 2a3e
00000280: ed2e efbd 6720 1dbe f6ca ddbb c95d 633d
00000290: dcbb 24be 8f28 93bd c1c4 0abe ef4f 223e
000002a0: 245c b0bd 2065 e73c 31d2 14be 3793 0c3e
000002b0: 9c2d 453d d9e0 b43d 9115 30be 520d ddbd
000002c0: 1aed 253e b3f8 2b3e 110b 303e a5f2 203e
000002d0: 77a2 d9bd de03 513d 6998 cdbc fc03 2dbe
000002e0: 968f 67be e4b9 2fbe 0fa0 16be db59 0b3e
000002f0: d9db d3bb 9c87 203e 007b 29be bec7 4abe
00000300: 795d 193e 9d88 f53d 7ed0 3e3e a21f 1cbe
00000310: 657b c3bd cd0c 2b3e f0f1 27be dd58 1dbe
00000320: a73e 1b3e a4bc bebd 50cd 273e fcf0 1e3e
00000330: 16a6 9ebd a6ec 2c3e 2da9 313e b028 da3d
00000340: 95f2 4f3c a268 0b3e 2932 ff3c 4ca3 253e
00000350: 56df 1cbe 0ca6 39be e9db 26be 6dbd 2bbe
00000360: a56f 1c3e e337 30be 5cb5 0cbe cf3d 223e
00000370: 47c7 24be 8acf 2c3e 2762 89bd d4d4 2dbe
00000380: 4169 13be e171 393e b037 1ebe 9530 283e
00000390: 2e7b 22be 8f6e 1e3e cd54 49bd 98bc 0bbe
000003a0: 8e81 f5bd 89f7 24be 2294 2bbe 87e4 0e3e
000003b0: 8a96 a03d 0dbe 9d3d b326 013e 646d 643d
000003c0: 4b23 22be bfb3 02be e37a 12be 087a adbd
000003d0: 0dc3 37be cc81 0abe b3db 21be e2ca 323e
000003e0: f9dd 1dbe 61a8 e13c 815e 3ebd 0bc4 21be
000003f0: 517c 1abe a9e4 0b3e b86e 22be a570 27be

batch_norms.2.running_mean f4 [256]
2.277547 1.6884519 0.33975932 -0.7855907 -0.79088783 -1.5228852 1.5751162 1.0430002
1.7349213 1.0040296 1.1432885 1.833731 1.8527298 0.16267921 1.0911081 1.5604697
1.15163 -2.2381246 -1.0259316 0.5973057 -0.64972365 1.8973105 -1.1096781 2.043499
-1.1750057 -2.094042 -1.819675 2.117904 -1.2131821 -1.1449827 -1.514601 0.26048347
0.9833378 -1.9017893 2.2595165 -0.5745225 1.279964 -0.12395576 -1.0681354 -1.0291038
-2.26078 0.5005208 1.7653648 2.4263136 1.2190008 1.4229705 -1.1313316 -1.88582
-2.2213554 -1.1305945 1.3363143 1.9699032 -2.0444255 -1.6753869 -1.0656197 0.42871958
-1.5985454 -1.7757382 -0.3796099 0.98694694 1.8911523 -2.0650668 -0.88237494 -0.14867736
0.57213897 -1.7177725 -1.3905447 1.2025169 0.8381806 -1.5088074 1.8041365 0.6242933
2.3460174 2.2197607 0.99614793 1.4041086 -1.4008946 -1.7606139 -1.6548405 1.3230875
-0.6444208 1.3918786 -2.094548 1.2204175 -2.1321487 -1.3196306 -1.8624607 1.3798884
1.3342445 -2.278106 -1.8746579 1.9426285 -1.9766943 -1.783243 1.2394688 -1.7383237
1.2405181 1.6088849 1.394721 1.8612202 -1.6361299 0.49145216 1.7344834 -1.5214169
-2.0586312 1.9348853 2.155755 1.7067448 -1.7600647 -1.5622834 1.4747733 -1.6205263
0.9934999 -1.5315375 -1.5382477 1.9293005 2.0815208 1.5409101 1.4946575 1.1002785
-0.9138372 -1.9820613 -0.37392274 -1.7854729 2.0536716 1.5156621 -1.337031 -0.9204621
1.8933678 -1.8615161 -0.6173712 2.3190985 -0.28517962 -0.2170711 -2.0926127 0.25095552
-1.4645456 1.0470874 1.481745 2.2306988 -1.4964435 1.4638295 -1.5562454 0.9249787
-0.52585524 -1.7467701 0.49441096 -0.44045892 2.0930483 0.088981554 2.0259671 -1.1417843
1.5665321 1.5665371 1.809635 -2.191459 -0.10565232 -0.91506994 1.5613259 -2.4315476
1.3860631 -1.6741526 -0.81901383 0.22593541 2.0006106 -1.7983378 -2.1803768 1.3967142
-1.1145898 -1.7523534 -1.0076802 -1.9520695 0.37594628 -1.2305984 -0.9610577 1.1581123
-0.7858314 2.3094404 -2.2004893 1.4163364 -1.6031044 1.7446375 -0.3830403 1.8821142
1.9001657 1.8498466 1.5489604 -1.4635625 -1.1626906 0.42971948 2.1358197 -1.0926182
-2.0413907 2.2903466 -1.6282165 -0.29539382 -1.6767998 -2.243636 1.6723769 -1.9116657
1.2199575 -1.8290632 1.8580898 -1.7520051 -1.9424773 -1.7439979 -2.194621 -1.5923762
-1.139189 -1.2563033 -1.4903227 -2.5314028 1.4589653 1.9894257 1.7902771 1.502015
1.6452377 0.6493516 0.18371159 -1.9440037 1.9010402 -1.2413839 -1.1553222 1.9031415
-1.855509 -1.7688043 -1.4859102 1.9211645 -1.2063874 1.4475241 -2.2776158 -1.5274405
-1.8690108 1.7691907 -1.9796293 -0.6105653 -0.2985764 0.86296755 1.9217454 -1.128901
1.8613923 1.5174091 2.0142019 1.0357437 1.3407515 0.8049439 -0.57423717 -2.0441258
-1.4276448 -0.5008084 1.3477757 -2.0099897 -1.7489 1.4474527 1.3965111 -1.4837098
00000000: 54c3 1140 311f d83f eff4 ad3e 791c 49bf
00000010: a077 4abf e7ed c2bf 689d c93f 0881 853f
00000020: e711 de3f 0b84 803f 4757 923f b3b7 ea3f
00000030: 4026 ed3f 6195 263e 6ea9 8b3f 79bd c73f
00000040: 9d68 933f 6f3d 0fc0 ba51 83bf 07e9 183f
00000050: 4a54 26bf 12db f23f ef09 8ebf b0c8 0240
00000060: 9666 96bf c904 06c0 1ceb e8bf bd8b 0740
00000070: 8d49 9bbf cb8e 92bf 72de c1bf 175e 853e
00000080: 07bc 7b3f d56d f3bf eb9b 1040 e813 13bf
00000090: dcd5 a33f 84dc fdbd a9b8 88bf acb9 83bf
000000a0: 9fb0 10c0 2222 003f 79f7 e13f b948 1b40
000000b0: 3808 9c3f e623 b63f 79cf 90bf 8d62 f1bf
000000c0: b02a 0ec0 52b7 90bf 590c ab3f ca25 fc3f
000000d0: ded7 02c0 1473 d6bf 3a66 88bf 2281 db3e
000000e0: 239d ccbf 644b e3bf 3b5c c2be 8ea8 7c3f
000000f0: 4711 f23f 0e2a 04c0 53e3 61bf e13e 18be
00000100: b377 123f f8df dbbf 5efd b1bf 13ec 993f
00000110: 0193 563f 9a20 c1bf f2ed e63f b0d1 1f3f
00000120: 2625 1640 8f10 0e40 8d03 7f3f d5b9 b33f
00000130: 8450 b3bf cc5b e1bf d0d1 d3bf ee5a a93f
00000140: c3f8 24bf 1429 b23f 130d 06c0 a436 9c3f
00000150: 2075 08c0 a8e9 a8bf 1d65 eebf 2fa0 b03f
00000160: 86c8 aa3f 7dcc 11c0 caf4 efbf 0da8 f83f
00000170: 5204 fdbf 4e41 e4bf eaa6 9e3f 6481 debf
00000180: 4cc9 9e3f f1ef cd3f 3886 b23f 773c ee3f
00000190: b46c d1bf 9e9f fb3e 8d03 de3f cabd c2bf
000001a0: 9dc0 03c0 52aa f73f e4f7 0940 9d76 da3f
000001b0: cd49 e1bf e7f8 c7bf 5fc5 bc3f 686d cfbf
000001c0: 0256 7e3f 6c09 c4bf 4de5 c4bf 52f3 f63f
000001d0: a337 0540 8b3c c53f f050 bf3f edd5 8c3f
000001e0: 3cf1 69bf 2fb4 fdbf cd72 bfbe 608a e4bf
000001f0: 5b6f 0340 3701 c23f d523 abbf 67a3 6bbf
00000200: e059 f23f 2946 eebf 0a0c 1ebf 1c6c 1440
00000210: 1003 92be e347 5ebe 5eed 05c0 3e7d 803e
00000220: 3b76 bbbf f606 863f d2a9 bd3f c5c3 0e40
00000230: 768b bfbf c45e bb3f 0d33 c7bf 67cb 6c3f
00000240: 739e 06bf 2a96 dfbf 6f23 fd3e d583 e1be
00000250: 81f4 0540 f63b b63d 72a9 0140 fd25 92bf
00000260: 2084 c83f 4a84 c83f 1fa2 e73f dd40 0cc0
00000270: 3e60 d8bd 0642 6abf 87d9 c73f 7a9e 1bc0
00000280: 846a b13f a24a d6bf e4aa 51bf 9d5b 673e
00000290: 010a 0040 ef2f e6bf 4b8b 0bc0 88c7 b23f
000002a0: e1aa 8ebf 1e4d e0bf aafb 80bf 6add f9bf
000002b0: 087c c03e 4084 9dbf e107 76bf 063d 943f
000002c0: 3f2c 49bf dfcd 1340 d1d4 0cc0 834a b53f
000002d0: 8632 cdbf 4850 df3f dc1d c4be 1ee9 f03f
000002e0: a138 f33f c6c7 ec3f 5644 c63f 0456 bbbf
000002f0: 0cd3 94bf 3104 dc3e 45b1 0840 eada 8bbf
00000300: 25a6 02c0 0a95 1240 6669 d0bf dc3d 97be
00000310: 60a1 d6bf bb97 0fc0 7210 d63f 76b1 f4bf
00000320: 9127 9c3f be1e eabf e3d5 ed3f b441 e0bf
00000330: 19a3 f8bf 533b dfbf ac74 0cc0 fcd2 cbbf
00000340: f2d0 91bf 8cce a0bf e5c2 bebf 8102 22c0
00000350: 60bf ba3f 80a5 fe3f cd27 e53f 0742 c03f
00000360: 2697 d23f e83b 263f e41e 3c3e 1dd5 f8bf
00000370: 4955 f33f abe5 9ebf 99e1 93bf 249a f33f
00000380: 5281 edbf 2e68 e2bf 4e32 bebf b8e8 f53f
00000390: e76a 9abf 7848 b93f 75c4 11c0 2c83 c3bf
000003a0: bf3b efbf d774 e23f 7e64 fdbf 024e 1cbf
000003b0: 02df 98be 71eb 5c3f c1fb f53f d47f 90bf
000003c0: 1a42 ee3f 763a c23f afe8 0040 4093 843f
000003d0: bf9d ab3f ce10 4e3f 3501 13bf f5d2 02c0
000003e0: 11bd b6bf fb34 00bf ea83 ac3f aca3 00c0
000003f0: f5db dfbf 2146 b93f e0c0 b23f 34ea bdbf

batch_norms.2.running_var f4 [256]
9.292608 7.3126664 2.0742452 3.2682002 8.385657 6.9500184 7.4297576 6.057971
3.1433027 0.95174503 5.741295 5.8960133 6.3500133 4.593372 4.6679506 8.927693
5.0817494 8.11829 7.7279167 2.284463 1.3325951 5.121974 6.1635575 6.626781
3.9762065 9.471855 11.3229685 11.750675 3.18188 3.9065938 5.2777505 4.9433584
5.7527237 7.200709 8.172055 3.4062884 6.5675488 4.2095566 3.3397589 5.3755507
6.665694 4.6862197 5.23725 8.287335 6.0858116 6.457017 8.816783 10.196151
4.897171 3.0021899 7.9164624 6.6500463 7.25491 5.999708 6.9790697 4.6281166
4.943297 7.627812 3.3910184 7.4079275 8.696865 5.9149466 5.539041 4.3114347
4.690795 9.446642 7.6708746 1.6400459 7.033848 11.337769 7.1035657 5.1461897
5.2297044 3.6675591 4.4777594 4.9345345 6.6409154 9.462668 6.926409 9.112284
5.264441 7.5991654 11.764642 5.346493 6.5166373 4.0664916 9.029728 6.6775312
5.0274625 9.83609 10.381365 7.583935 10.351088 1.2722553 8.087985 7.853463
3.981487 8.447797 1.4746158 5.975306 8.552272 1.7829562 7.8836827 7.5723658
8.086386 5.3958282 5.8855963 7.474904 6.371279 6.897782 8.337766 6.4107866
7.478857 7.8317924 1.0418707 7.1816688 5.7268224 3.3333914 5.9606857 4.3044662
7.2851076 12.080587 3.4125252 2.9769654 8.469567 8.41243 4.767047 6.2398353
8.257908 11.330322 5.901485 4.370153 3.122311 3.0335865 6.7726293 2.098506
6.8421702 5.1205883 3.586319 4.8002715 6.2883806 5.1156807 2.6151922 5.61542
5.484148 7.9073796 4.8007393 2.3905678 11.361976 3.1495826 8.638062 5.8670506
3.822773 6.756144 7.567949 6.9731603 1.8864936 4.2421846 5.8251715 7.2834764
7.4130874 10.067007 4.113769 2.45998 8.411943 7.8775334 8.727879 10.781223
6.388405 5.251748 9.239154 5.6152987 1.5657455 4.3031864 6.7605343 5.9594183
6.5102077 8.167051 5.459724 8.49695 8.042084 11.410051 7.09856 7.32988
6.0345616 4.1725097 5.723962 4.3271236 3.62803 5.1258254 9.300948 8.249545
5.2107983 8.74708 10.702804 7.627842 8.518768 6.381583 4.36472 9.084474
6.2629075 5.18861 11.33831 7.377684 6.2922716 5.469173 4.316758 4.225607
3.5527132 4.6545997 9.368657 8.934869 2.8315115 5.6458325 4.803635 7.1724153
6.3638105 2.465688 3.454407 8.959506 10.842089 3.4558673 5.5210233 5.9674087
7.0243573 10.699762 3.9898114 10.077043 4.311607 6.047519 10.444553 3.7899568
3.2272577 1.2965193 7.3833103 3.320054 5.2365065 2.6626964 5.549585 8.101307
6.9763417 5.936955 4.448168 4.2519484 9.171351 4.758771 1.6851853 9.311899
5.404218 5.5324883 7.208211 8.008952 11.244196 1.678118 6.3378963 8.713244
00000000: 86ae 1441 5d01 ea40 6fc0 0440 312a 5140
00000010: a72b 0641 8d66 de40 93c0 ed40 e6da c140
00000020: df2b 4940 90a5 733f b0b8 b740 24ac bc40
00000030: 4f33 cb40 e7fc 9240 da5f 9540 d5d7 0e41
00000040: b19d a240 84e4 0141 184b f740 a434 1240
00000050: 7a92 aa3f 36e7 a340 dd3b c540 970e d440
00000060: 2b7a 7e40 b88c 1741 e12a 3541 c402 3c41
00000070: eca3 4b40 a205 7a40 55e3 a840 fe2f 9e40
00000080: 5016 b840 356c e640 bdc0 0241 a100 5a40
00000090: 5c29 d240 b0b4 8640 9cbe 5540 8304 ac40
000000a0: 5e4d d540 83f5 9540 8d97 a740 ed98 0441
000000b0: f8be c240 e29f ce40 8b11 0d41 6f23 2341
000000c0: a0b5 9c40 e123 4040 a953 fd40 2ecd d440
000000d0: 3928 e840 9cfd bf40 8a54 df40 8819 9440
000000e0: 7d2f 9e40 0917 f440 7206 5940 be0d ed40
000000f0: 5c26 0b41 3e47 bd40 d33f b140 46f7 8940
00000100: fe1a 9640 7225 1741 ce77 f540 06ed d13f
00000110: 4815 e140 8067 3541 6950 e340 96ad a440
00000120: bd59 a740 4ab9 6a40 ce49 8f40 b5e7 9d40
00000130: 6182 d440 1767 1741 24a5 dd40 eacb 1141
00000140: 4d76 a840 5d2c f340 f93b 3c41 7816 ab40
00000150: 4b88 d040 b320 8240 c479 1041 56ae d540
00000160: f9e0 a040 a060 1d41 121a 2641 98af f240
00000170: 0e9e 2541 43d9 a23f 6368 0141 924f fb40
00000180: afd0 7e40 2d2a 0741 36c0 bc3f b535 bf40
00000190: 1bd6 0841 e937 e43f 2147 fc40 d250 f240
000001a0: d661 0141 a0aa ac40 ce56 bc40 6a32 ef40
000001b0: 84e1 cb40 a1ba dc40 7d67 0541 2a25 cd40
000001c0: cc52 ef40 0b9e fa40 055c 853f 3bd0 e540
000001d0: 2142 b740 4956 5540 f0bd be40 30be 8940
000001e0: 9a1f e940 164a 4141 d066 5a40 9a86 3e40
000001f0: 5983 0741 5099 0641 a68b 9840 bbac c740
00000200: 6420 0441 0049 3541 f7d8 bc40 4bd8 8b40
00000210: f2d3 4740 4826 4240 61b9 d840 ec4d 0640
00000220: 0ff3 da40 dcdb a340 4086 6540 d39b 9940
00000230: 6a3a c940 a8b3 a340 4f5f 2740 85b1 b340
00000240: 247e af40 4109 fd40 a89f 9940 10ff 1840
00000250: a7ca 3541 c392 4940 8035 0a41 e1be bb40
00000260: 50a8 7440 5532 d840 a32c f240 2124 df40
00000270: 9f78 f13f fabf 8740 ce67 ba40 3d12 e940
00000280: 0338 ed40 7612 2141 ffa3 8340 5070 1d40
00000290: 5297 0641 c114 fc40 64a5 0b41 e47f 2c41
000002a0: d06d cc40 520e a840 93d3 1341 87b0 b340
000002b0: 596a c83f b4b3 8940 4c56 d840 8eb3 be40
000002c0: 9f53 d040 3eac 0241 0fb6 ae40 82f3 0741
000002d0: 60ac 0041 928f 3641 6727 e340 618e ea40
000002e0: 211b c140 3385 8540 b22a b740 cc77 8a40
000002f0: a531 6840 c306 a440 afd0 1441 23fe 0341
00000300: dcbe a640 0af4 0b41 af3e 2b41 4817 f440
00000310: e04c 0841 ee35 cc40 c9ab 8b40 015a 1141
00000320: bd69 c840 1809 a640 b869 3541 fd15 ec40
00000330: 4a5a c940 7703 af40 e222 8a40 2c38 8740
00000340: a75f 6340 7bf2 9440 05e6 1541 39f5 0e41
00000350: 7c37 3540 a9aa b440 61b7 9940 6d84 e540
00000360: 56a4 cb40 d5cd 1d40 0115 5d40 235a 0f41
00000370: 3279 2d41 ee2c 5d40 39ac b040 03f5 be40
00000380: 89c7 e040 3a32 2b41 1259 7f40 913b 2141
00000390: aff8 8940 4785 c140 e41c 2741 a78e 7240
000003a0: 648b 4e40 58f4 a53f 1444 ec40 c47b 5440
000003b0: 7691 a740 9e69 2a40 3396 b140 f49e 0141
000003c0: 313e df40 89fb bd40 6457 8e40 f60f 8840
000003d0: dbbd 1241 da47 9840 27b4 d73f 8afd 1441
000003e0: 5bef ac40 250a b140 aaa9 e640 ab24 0041
000003f0: 3ae8 3341 92cc d63f 0cd0 ca40 7369 0b41

interaction_layers.0.bias f4 [64]
-0.0010097572 0.0031544894 6.471928e-05 -0.0023477515 -0.030464206 0.0023332413 0.0035791495 0.003162479
-0.0065805684 0.0006417616 0.0024994262 0.031596698 0.0011006115 -0.01546708 0.0049967165 -0.003079236
-0.003629539 -0.01637046 0.0038330741 0.02638723 0.0022775612 -0.00040910387 0.0018812004 0.010871372
0.003284332 -4.5076195e-06 0.0068349903 0.0078248875 -0.0005685786 -0.0010994119 -0.012608746 0.0044550034
-0.009255969 0.00067216315 -0.004152903 0.0041855965 0.008738127 0.020800162 0.00053672335 0.003768792
0.005289957 0.06266292 0.0120214075 -0.017542604 -0.0060718046 -0.019214064 -0.0042076125 -0.0035487353
0.0011786701 -0.013425963 0.013765584 -0.0010446049 0.018660104 0.008030314 0.006004158 -0.017676389
-0.00013377737 -0.0066987476 0.0059938794 0.0055710105 -0.019257905 0.004472022 0.017443154 0.003558289
00000000: d459 84ba 8dbb 4e3b e6b9 8738 bcdc 19bb
00000010: 1290 f9bc 4be9 183b 2a90 6a3b 9841 4f3b
00000020: cfa1 d7bb e43b 283a 6acd 233b 8a6b 013d
00000030: 6542 903a a369 7dbc 7fbb a33b 02cd 49bb
00000040: 8fdd 6dbb 581b 86bc 5034 7b3b 082a d83c
00000050: 2343 153b fe7c d6b9 9c92 f63a d71d 323c
00000060: f33d 573b 2840 97b6 0ef8 df3b f533 003c
00000070: aa0c 15ba 241a 90ba ea94 4ebc 47fb 913b
00000080: 59a6 17bc 1b34 303a 1315 88bb 5427 893b
00000090: 5c2a 0f3c 1a65 aa3c e5b2 0c3a d6fd 763b
000000a0: 6057 ad3b 6b55 803d 70f5 443c 82b5 8fbc
000000b0: fdf5 c6bb d066 9dbc 03e0 89bb e691 68bb
000000c0: 9b7d 9a3a 92f8 5bbc 0b89 613c 20eb 88ba
000000d0: 13dd 983c 9491 033c 87be c43b 13ce 90bc
000000e0: 9746 0cb9 2b81 dbbb 4e68 c43b 068d b63b
000000f0: c1c2 9dbc 0a8a 923b f2e4 8e3c 2f32 693b

interaction_layers.0.lin.weight f4 [64, 15]
0.14741957 -0.35947782 -0.1338581 -0.2002005 0.2080402 0.015196313 0.2646972 -0.14941123
0.03981362 0.1564658 -0.08389472 0.04831281 0.3254222 -0.048560828 -0.083361745 0.15908124
-0.0511555 0.008760875 -0.060294513 -0.0098514985 0.08720708 -0.021435866 -0.105858475 0.027077356
-0.06467014 0.22057264 0.25653464 -0.09202688 0.09717208 0.2191957 -0.2544152 0.22642384
0.1792262 -0.06066956 0.025773985 -0.03506909 0.0641375 -0.08855018 0.030610658 -0.023140179
-0.008897222 -0.06710774 0.12569632 0.003572253 0.21733165 -0.10031168 0.11800958 0.11758799
0.038073916 -0.16161492 -0.0823628 0.23952748 0.051107727 0.011460491 0.045506645 0.10353248
0.4676466 -0.2189149 0.065230936 0.30517128 0.14524141 0.25509 -0.0025995325 0.16414426
-0.13940264 -0.028782496 -0.101991914 0.06783076 0.3278247 0.037470482 0.08179515 -0.16764125
0.19675702 -0.060839724 0.21990123 -0.3442086 0.34621274 0.310722 -0.074782826 0.059024844
0.012458001 0.13095205 -0.071000814 0.17128982 0.09060726 -0.089242905 0.21330288 0.13622926
-0.16090982 0.07380994 0.32108775 -0.04763922 0.27400327 -0.19257402 -0.16476381 -0.057071213
-0.033402603 -0.034183476 0.14368165 -0.017430797 0.057903886 0.015460424 -0.33425412 0.29610977
0.34277335 -0.18408917 0.18281797 0.022904608 0.015970439 0.13885199 -0.046485398 0.11130034
-0.1965028 0.11099436 -0.17949447 0.011533854 -0.12556738 -0.29989448 0.27661464 0.06945362
-0.08833224 0.08999058 0.2759773 -0.31338397 -0.18781938 0.07085291 -0.022607433 0.17299862
0.14541146 0.01486842 -0.13362527 -0.12157135 0.004234376 0.13081296 0.21450646 -0.11702194
0.12937018 -0.2612619 0.010994898 -0.07513663 0.016975803 -0.05487582 -0.10191596 0.009776523
0.008899688 0.11757565 0.30170378 -0.045723915 0.07597425 0.21147561 0.05472739 -0.16155964
0.42623064 0.33885118 -0.0055421013 -0.20462385 0.2853275 -0.27580073 -0.072746865 0.05648056
-0.17622493 -0.06816129 -0.12930442 -0.089208506 0.16557868 0.09311259 0.16096833 0.060678784
-0.025290534 -0.078597836 -0.028858665 -0.11537486 0.08069809 0.034814395 -0.06263897 0.14010312
-0.13041984 0.10350236 -0.28528568 0.21588327 -0.03629783 -0.030207705 -0.24037617 0.3417572
-0.21242522 0.12371121 -0.24930461 0.23623541 0.05996868 -0.25151753 -0.07101974 0.13488922
0.10744457 0.10391248 -0.24256009 -0.011787501 -0.07194466 0.19537248 0.17999183 -0.11839769
-0.19765386 0.052844267 -0.3053623 0.08555345 0.14271493 0.06730639 -0.039502576 0.00013990437
0.078073226 -0.060622368 0.18642867 -0.035559963 0.041149307 0.027428675 0.137243 0.24518564
-0.2254257 -0.25011525 0.30434883 0.0078911055 0.04183517 -0.13827541 -0.11036843 0.1269118
0.16250189 0.029059226 0.0035228482 0.08258063 -0.13780205 -0.089554474 0.047661077 -0.23057501
0.18128787 -0.29099447 -0.14796498 0.07701818 0.027674967 0.24488667 -0.28845957 0.0845698
-0.017928679 -0.121247195 -0.0148142725 -0.09817682 0.011561885 -0.064153925 -0.05037048 -0.0470224
0.40226972 -0.088787585 0.12432511 -0.18818113 0.14878063 0.037859727 0.43824577 -0.2236604
00000000: 28f5 163e 7a0d b8be 1912 09be 5c01 4dbe
00000010: 7d08 553e f5f9 783c 6486 873e 42ff 18be
00000020: 9b13 233d 9238 203e ffd0 abbd a7e3 453d
00000030: bd9d a63e b8e7 46bd 90b9 aabd 31e6 223e
00000040: 6e88 51bd c689 0f3c 61f7 76bd 2e68 21bc
00000050: a099 b23d 459a afbc 54cc d8bd 55d1 dd3c
00000060: c771 84bd cbdd 613e 8258 833e 9778 bcbd
00000070: 2802 c73d d674 603e b642 82be a7db 673e
00000080: 1387 373e a580 78bd f723 d33c 9ba4 0fbd
00000090: 865a 833d cc59 b5bd 34c3 fa3c 7990 bdbc
000000a0: a7c5 11bc c86f 89bd 89b6 003e 761c 6a3b
000000b0: 308c 5e3e 3670 cdbd 02af f13d f9d1 f03d
000000c0: 65f3 1b3d 627e 25be d4ad a8bd b146 753e
000000d0: 5656 513d c9c4 3b3c 2d65 3a3d d608 d43d
000000e0: 606f ef3e 3a2b 60be cc97 853d 693f 9c3e
000000f0: 2aba 143e 289b 823e eb5c 2abb 6f15 283e
00000100: 91bf 0ebe 45c9 ebbc 23e1 d0bd daea 8a3d
00000110: a4d8 a73e a67a 193d 3784 a73d 26aa 2bbe
00000120: ac7a 493e 1333 79bd ca2d 613e 1c3c b0be
00000130: cc42 b13e f416 9f3e bd27 99bd 09c4 713d
00000140: a51c 4c3c 4b18 063e e068 91bd 9966 2f3e
00000150: 4d90 b93d fcc4 b6bd 126c 5a3e af7f 0b3e
00000160: 8bc5 24be aa29 973d 9d65 a43e 5821 43bd
00000170: 284a 8c3e 2032 45be d8b7 28be 81c3 69bd
00000180: 2bd1 08bd f903 0cbd 4821 133e 08cb 8ebc
00000190: a02c 6d3d b84d 7d3c 5b23 abbe b39b 973e
000001a0: fd7f af3e df81 3cbe a234 3b3e 72a2 bb3c
000001b0: 70d4 823c 372f 0e3e 7967 3ebd 6ff1 e33d
000001c0: 0838 49be 0351 e33d 66cd 37be 7df8 3c3c
000001d0: bc94 00be c58b 99be 6fa0 8d3e b33d 8e3d
000001e0: 89e7 b4bd fb4c b83d e64c 8d3e dd73 a0be
000001f0: b953 40be 551b 913d 3933 b9bc 8d26 313e
00000200: bee6 143e ac9a 733c 10d5 08be 66fa f8bd
00000210: 85c0 8a3b d5f3 053e 95a7 5b3e 33a9 efbd
00000220: 9e79 043e 1fc4 85be f223 343c 3ce1 99bd
00000230: d710 8b3c 78c5 60bd 51b9 d0bd b62d 203c
00000240: ffcf 113c 81cb f03d eb78 9a3e 0049 3bbd
00000250: 6398 9b3d 108d 583e d429 603d e46f 25be
00000260: e73a da3e e77d ad3e 849a b5bb ea88 51be
00000270: 7216 923e c135 8dbe 4ffc 94bd 2958 673d
00000280: 4f74 34be 2598 8bbd 6168 04be f3b2 b6bd
00000290: 758d 293e d0b1 be3d e2d4 243e 518a 783d
000002a0: 182e cfbc e7f7 a0bd 0269 ecbc a849 ecbd
000002b0: 0a45 a53d 8a99 0e3d dc48 80bd 3177 0f3e
000002c0: c78c 05be 0cf9 d33d f710 92be 8110 5d3e
000002d0: 09ad 14bd 2676 f7bc 2c25 76be cdfa ae3e
000002e0: ff85 59be 4e5c fd3d b549 7fbe b2e7 713e
000002f0: b8a1 753d e8c6 80be cc72 91bd 6620 0a3e
00000300: e60b dc3d 11d0 d43d ac61 78be 5d20 41bc
00000310: b957 93bd b90f 483e c74f 383e 7d7a f2bd
00000320: c665 4abe 3b73 583d 7358 9cbe a636 af3d
00000330: dd23 123e efd7 893d 74cd 21bd 4bb3 1239
00000340: dbe4 9f3d 294f 78bd 28e7 3e3e 53a7 11bd
00000350: 2d8c 283d 1ab2 e03c 6e89 0c3e f211 7b3e
00000360: ffd5 66be 1b0f 80be 9cd3 9b3e b249 013c
00000370: 5b5b 2b3d 1298 0dbe d808 e2bd 2bf5 013e
00000380: e566 263e 9d0d ee3c 96df 663b 0920 a93d
00000390: fb1b 0dbe 5668 b7bd 4338 433d db1b 6cbe
000003a0: 87a3 393e 3afd 94be 2284 17be b5bb 9d3d
000003b0: 9db6 e23c 92c3 7a3e f9b0 93be ee32 ad3d
000003c0: 2adf 92bc 7350 f8bd 90b7 72bc ee10 c9bd
000003d0: 0f6e 3d3c 2263 83bd 4751 4ebd 8f9a 40bd
000003e0: 4cf6 cd3e 44d6 b5bd 2a9e fe3d 8eb2 40be
000003f0: f359 183e cd12 1b3d c061 e03e 3b07 65be
