best_model/xasnet_gnn_model.pt (torch, 390212 bytes, 20 tensors)

batch_norms.0.weight f4 [64]
0.77112025 0.73480165 0.64511824 0.88463306 0.87984014 0.77925354 0.8263799 0.75065374
0.70020026 0.7135215 0.7896326 0.794314 0.7728557 0.86155695 0.9171805 0.72187394
0.9321551 0.8855638 0.7965641 0.6116062 0.76831806 0.82052183 0.74397117 0.8057024
0.95979583 0.7054175 0.734075 0.95548564 0.68485034 0.8219303 0.9343787 0.90478164
0.89240056 0.84785485 0.8989594 0.90933377 0.7243569 0.94004613 0.6805091 0.9260932
0.7033938 0.8624637 0.7756323 0.75207305 0.8190309 0.78539103 0.77051866 0.85162216
0.7685794 0.76481766 0.8403947 0.7164143 0.8056704 0.79251224 0.77318025 0.87890655
0.85656255 0.83288527 0.8910029 0.849216 0.74626076 0.75883675 0.7631449 0.7274542
00000000: 2368 453f f61b 3c3f 7826 253f 5077 623f
00000010: 343d 613f 297d 473f a28d 533f d82a 403f
00000020: 5340 333f 58a9 363f 5d25 4a3f 2a58 4b3f
00000030: dfd9 453f ff8e 5c3f 57cc 6a3f bbcc 383f
00000040: b7a1 6e3f 4fb4 623f a0eb 4b3f 3992 1c3f
00000050: 7eb0 443f b80d 523f e574 3e3f 8342 4e3f
00000060: 2eb5 753f 3e96 343f 57ec 3b3f b59a 743f
00000070: 5a52 2f3f 066a 523f 7133 6f3f c59f 673f
00000080: 5d74 643f 040d 593f 3422 663f 19ca 683f
00000090: 746f 393f dda6 703f d835 2e3f 7214 6d3f
000000a0: 9e11 343f 6cca 5c3f d78f 463f dc87 403f
000000b0: 02ac 513f 630f 493f b640 453f e903 5a3f
000000c0: 9fc1 443f 17cb 433f 1b24 573f ed66 373f
000000d0: 6a40 4e3f 15e2 4a3f 24ef 453f 0500 613f
000000e0: af47 5b3f f837 553f c418 643f 3866 593f
000000f0: f20a 3f3f 2043 423f 775d 433f 703a 3a3f

batch_norms.0.bias f4 [64]
0.039908204 -0.040415894 -0.17211342 -0.03930907 0.027009537 -0.19564287 -0.105620936 -0.17857009
-0.14200717 -0.054061137 -0.1804792 -0.013786802 -0.045543328 -0.043360822 0.111111395 0.07579409
-0.16396628 -0.19582808 -0.050787494 -0.0026366701 -0.06960231 -0.12376454 -0.043119345 -0.05311712
-0.12362541 -0.11888755 0.050121743 -0.1692073 -0.12651698 -0.018084168 -0.06835151 -0.018020744
-0.25073305 -0.07438197 0.09374128 -0.13349791 -0.057581704 -0.16307606 -0.089755744 -0.08138043
-0.1284503 -0.08430447 -0.06735443 -0.16145445 -0.10833036 -0.007022408 0.017605087 -0.18670335
-0.09682285 -0.1532093 -0.10805312 -0.16043678 -0.23389763 0.05309097 -0.05583725 -0.35185298
-0.21022016 -0.08333472 -0.08281347 -0.2120839 -0.07306859 -0.21394597 -0.09421638 -0.15539259
00000000: c976 233d 238b 25bd 803e 30be 8c02 21bd
00000010: 1b43 dd3c 9b56 48be ca4f d8bd 14db 36be
00000020: 546a 11be 366f 5dbd 8acf 38be 0ae2 61bc
00000030: a48b 3abd 1e9b 31bd 5f8e e33d ef39 9b3d
00000040: c7e6 27be 2887 48be 8c06 50bd fccb 2cbb
00000050: a88b 8ebd 4378 fdbd e99d 30bd 5691 59bd
00000060: 522f fdbd 517b f3bd 754c 4d3d ae44 2dbe
00000070: ab8d 01be 4025 94bc e0fb 8bbd 3da0 93bc
00000080: 1560 80be 9355 98bd 6efb bf3d adb3 08be
00000090: cbda 6bbd 69fd 26be dcd1 b7bd c8aa a6bd
000000a0: 7a88 03be d2a7 acbd 1ff1 89bd 5154 25be
000000b0: 4fdc ddbd 3a1c e6bb 8b38 903c 2a2f 3fbe
000000c0: 0f4b c6bd e6e2 1cbe f44a ddbd 8a49 24be
000000d0: dc82 6fbe eb75 593d 9ab5 64bd 1326 b4be
000000e0: f443 57be 65ab aabd 1c9a a9bd 862c 59be
000000f0: fca4 95bd a714 5bbe 84f4 c0bd 3c1f 1fbe

batch_norms.0.running_mean f4 [64]
-0.11543218 0.14553548 0.28412354 -0.08505345 -0.060814604 -0.027691733 0.09334907 -0.55825794
0.054268632 0.26910725 0.17720516 -0.03307951 -0.26455668 0.21344873 -0.41290987 -0.12301332
0.00499276 -0.069896236 0.12977202 0.15975952 0.06425909 -0.07070454 0.6049934 -0.04405702
0.041660167 0.15143691 -0.2064982 -0.57169753 0.2542004 -0.15886593 -0.070281476 -0.12649277
-0.0026862351 -0.30378893 -0.186863 0.1487186 0.23864225 0.13535506 0.18418467 -0.15175214
-0.26662832 -0.106085606 0.04231661 0.121997096 -0.0857849 0.16202265 -0.016790668 -0.016172014
-0.27970058 0.15048891 -0.06816815 -0.07985834 -0.03529012 -0.5471085 0.28950372 -0.06364523
-0.0038679782 -0.10923811 -0.15434854 0.15058814 0.3498649 -0.4305706 -0.30159193 -0.22434317
00000000: b567 ecbd 4107 153e a478 913e 8130 aebd
00000010: bc18 79bd c6d9 e2bc cc2d bf3d fee9 0ebf
00000020: c948 5e3d 6dc8 893e 4575 353e 617e 07bd
00000030: f973 87be 4e92 5a3e ec68 d3be 68ee fbbd
00000040: 4e9a a33b c225 8fbd f5e2 043e 0098 233e
00000050: 459a 833d 8bcd 90bd d9e0 1a3f 2275 34bd
00000060: daa3 2a3d 4712 1b3e 4474 53be c55a 12bf
00000070: 8e26 823e c0ad 22be bcef 8fbd 5287 01be
00000080: 8c0b 30bb 398a 9bbe 0459 3fbe b049 183e
00000090: a25e 743e 849a 0a3e e89a 3c3e ea64 1bbe
000000a0: 8283 88be 6943 d9bd 2f54 2d3d 9dd9 f93d
000000b0: feaf afbd 44e9 253e 958c 89bc 2c7b 84bc
000000c0: ea34 8fbe c419 1a3e be9b 8bbd c58c a3bd
000000d0: 5f8c 10bd 4d0f 0cbf d539 943e 6e58 82bd
000000e0: e87d 7dbb 3bb8 dfbd 8b0d 1ebe c733 1a3e
000000f0: 7e21 b33e c073 dcbe 426a 9abe 37ba 65be

batch_norms.0.running_var f4 [64]
0.03218203 0.022990065 0.016680224 0.026350712 0.008365572 0.019316487 0.010125172 0.015744647
0.019830484 0.03456977 0.0294089 0.023999073 0.018728564 0.026031744 0.030301124 0.015190458
0.017362768 0.0019047412 0.0074280007 0.021470357 0.02131253 0.0135986805 0.034692228 0.029985638
0.01188867 0.0061275223 0.007047676 0.02144891 0.01608744 0.008810153 0.03745497 0.026485406
0.010336869 0.006889331 0.008655284 0.007088573 0.03687877 0.017978558 0.018913953 0.0076415883
0.014533308 0.015098197 0.012203679 0.0162749 0.01507941 0.015483597 0.0032610304 0.011583545
0.019882476 0.008530194 0.014588776 0.0075569535 0.021718955 0.023720017 0.018000446 0.01860513
0.004872645 0.01652423 0.048483357 0.007737068 0.024377909 0.03120769 0.032524217 0.029595008
00000000: 4ed1 033d a955 bc3c f7a4 883c 73dd d73c
00000010: c10f 093c 9c3d 9e3c 0de4 253c ebfa 803c
00000020: 8a73 a23c 0899 0d3d efea f03c b499 c43c
00000030: a56c 993c 8640 d53c 103a f83c 66e1 783c
00000040: 5d3c 8e3c 82a8 f93a 9666 f33b 9ae2 af3c
00000050: 9d97 ae3c 00cd 5e3c 7019 0e3d 71a4 f53c
00000060: b2c8 423c 62c9 c83b 31f0 e63b a0b5 af3c
00000070: cfc9 833c 7658 103c 626a 193d ecf7 d83c
00000080: f95b 293c e6bf e13b e4ce 0d3c 4347 e83b
00000090: 310e 173d c547 933c 6ff1 9a3c 4a66 fa3b
000000a0: 1d1d 6e3c 6e5e 773c f1f1 473c f052 853c
000000b0: a10f 773c eaae 7d3c 03b7 553b e9c8 3d3c
000000c0: 93e0 a23c 3ac2 0b3c c305 6f3c 52a0 f73b
000000d0: f3eb b13c 7b50 c23c ac75 933c c969 983c
000000e0: b5aa 9f3b d25d 873c 7c96 463d 3b87 fd3b
000000f0: 2eb4 c73c 45a7 ff3c 1d38 053d 3b71 f23c

batch_norms.1.weight f4 [128]
0.69738597 0.7996671 0.9326486 0.999971 0.84743935 0.6731989 0.85610735 0.67350364
0.5977866 0.54477584 0.82847506 0.8100656 0.67591286 0.7607366 0.7095039 0.8557986
0.79901206 0.6660803 0.7740418 1.0243772 0.7698309 0.8427135 0.7204824 0.61822695
0.8675423 0.6945208 0.80142444 0.7125518 0.7035704 0.7568804 0.67312217 0.8182918
0.6383596 0.64416194 0.7297377 0.6737159 0.835823 0.7923964 0.62431765 0.57885665
0.71293855 0.8423418 0.8669425 0.5826919 0.60758585 0.9564641 0.77188444 0.7507419
0.59028 0.72275937 0.6958717 0.8496045 0.6729238 0.6716673 0.7299646 0.602119
0.6936573 0.6597587 0.84591067 1.0012196 0.70102775 0.68288326 0.66125476 0.7474484
0.8676041 0.8685336 0.72082573 0.8017416 0.6423047 0.67897797 0.7055331 0.6608042
1.0282245 0.44000885 0.7535974 0.7043696 1.0182623 0.88546574 0.85587627 0.7078109
0.66571873 0.88654846 0.64933133 0.6892592 0.57264155 0.8721717 0.9117963 0.7483608
0.6876175 0.89694726 0.65263826 0.6919815 0.7719231 0.66213757 0.67439735 0.5456914
0.90382946 0.82112485 0.8300154 0.861738 0.67666817 1.0036246 0.73427874 0.5973469
0.58349603 0.7528469 0.59468764 0.8082454 0.64245665 0.5999306 0.81777996 0.6004632
0.6568654 0.67380744 0.7375766 0.66660404 0.81070745 0.7057516 0.8175501 0.7672482
0.5255536 0.9498669 0.8022356 0.54775274 0.623532 0.780098 0.65613014 0.6816725
00000000: e387 323f fcb6 4c3f 0fc2 6e3f 19fe 7f3f
00000010: c9f1 583f c356 2c3f da29 5b3f bc6a 2c3f
00000020: 8b08 193f 6e76 0b3f f116 543f 7660 4f3f
00000030: a008 2d3f a2bf 423f 0ca2 353f 9e15 5b3f
00000040: 0e8c 4c3f 3d84 2a3f 9a27 463f cb1e 833f
00000050: a313 453f 12bc 573f 8971 383f 1f44 1e3f
00000060: 4117 5e3f 1dcc 313f 272a 4d3f cb69 363f
00000070: 311d 343f eac2 413f bc51 2c3f 927b 513f
00000080: 896b 233f cce7 243f 17d0 3a3f a578 2c3f
00000090: 7ff8 553f 7eda 4a3f 48d3 1f3f f32f 143f
000000a0: 2483 363f b6a3 573f f2ef 5d3f 4c2b 153f
000000b0: bf8a 1b3f d5da 743f 389a 453f 9f30 403f
000000c0: 971c 173f c206 393f a624 323f ae7f 593f
000000d0: bc44 2c3f 63f2 2b3f f6de 3a3f 7924 1a3f
000000e0: 8693 313f f2e5 283f 9a8d 583f f727 803f
000000f0: 8e76 333f 70d1 2e3f fe47 293f c758 3f3f
00000100: 4d1b 5e3f 3858 5e3f 0988 383f f03e 4d3f
00000110: 156e 243f 80d1 2d3f d19d 343f 772a 293f
00000120: dc9c 833f d748 e13e c2eb 403f 9151 343f
00000130: 6b56 823f e2ad 623f b51a 5b3f 1833 353f
00000140: 8b6c 2a3f d7f4 623f 943a 263f 4a73 303f
00000150: a398 123f a546 5f3f 7b6b 693f 9394 3f3f
00000160: b307 303f 569e 653f 4d13 273f b325 313f
00000170: c19c 453f d981 293f 4ea5 2c3f 6eb2 0b3f
00000180: 5e61 673f 3d35 523f e47b 543f dd9a 5c3f
00000190: 203a 2d3f c576 803f b1f9 3b3f baeb 183f
000001a0: ff5f 153f 93ba 403f 733d 183f 2ce9 4e3f
000001b0: 0a78 243f 0d95 193f 075a 513f f5b7 193f
000001c0: 5528 283f a57e 2c3f d2d1 3c3f 90a6 2a3f
000001d0: 868a 4f3f 23ac 343f f74a 513f 616a 443f
000001e0: ae8a 063f 7a2a 733f 505f 4d3f 8639 0c3f
000001f0: cb9f 1f3f 81b4 473f 25f8 273f 1782 2e3f

batch_norms.1.bias f4 [128]
-0.009920754 -0.09957736 0.10677051 0.07078394 0.03391752 -0.022950992 0.07366082 -0.009753655
-0.026796693 -0.17752148 -0.07399168 0.02758377 -0.032197386 0.019378558 -0.028529244 -0.04601095
-0.077987835 -0.11900087 0.04206822 -0.015066586 -0.07105125 0.008169091 -0.07134835 -0.038725972
0.04115092 -0.053084437 0.049255896 0.012115479 -0.032885686 -0.09684787 -0.09095217 -0.09189328
-0.02948374 0.014403698 -0.06464381 -0.050995022 -0.05183259 -0.030264847 -0.10170224 -0.11301374
-0.029450167 0.010728644 0.0509868 -0.021148223 0.04531307 0.054558307 -0.11157309 -0.08043023
-0.14016911 -0.048905466 -0.14513978 0.11910871 -0.042284817 -0.03518886 0.025949648 -0.005046289
0.0059998953 -0.0053354376 -0.030637726 0.11037107 -0.03211119 -0.05060333 -0.0809817 -0.03703243
-0.06454325 -0.01548613 -0.06103545 -0.010015891 -0.08414207 -0.10033464 -0.14760524 0.048939854
0.007982577 -0.06469793 -0.17062394 -0.04801761 0.15543267 -0.017156444 0.0016151931 -0.0031414004
-0.06615616 0.018812118 -0.17278084 -0.16297399 0.03208473 -0.11699668 0.026450796 -0.0153889265
-0.07381476 -0.15855652 -0.11965368 0.018992018 0.029721992 -0.083012715 -0.06317999 -0.0442746
0.012852267 0.05215055 -0.13400334 -0.01758406 -0.16355179 0.07992529 -0.09927016 -0.062432535
-0.11627886 0.04560912 0.01758694 0.07938247 0.033107925 -0.039610248 0.022852704 -0.025167085
-0.006820531 -0.05926234 0.029710382 -0.15885498 -0.037497688 0.08437838 -0.08821405 -0.0361365
-0.021584352 0.013224896 -0.03950437 0.14851718 -0.058988106 -0.019583324 -0.07002668 -0.0034133252
00000000: a88a 22bc 37ef cbbd 7faa da3d 2cf7 903d
00000010: 19ed 0a3d b803 bcbc 7cdb 963d cbcd 1fbc
00000020: bd84 dbbc 31c8 35be f388 97bd 5cf7 e13c
00000030: 68e1 03bd c8bf 9e3c 29b6 e9bc fa75 3cbd
00000040: 16b8 9fbd bab6 f3bd ba4f 2c3d d8d9 76bc
00000050: 5183 91bd a7d7 053c 151f 92bd 209f 1ebd
00000060: de8d 283d 116f 59bd 8dc0 493d 0180 463c
00000070: 24b3 06bd 2d58 c6bd 2245 babd 8b32 bcbd
00000080: e287 f1bc 7dfd 6b3c f963 84bd 28e0 50bd
00000090: 694e 54bd fced f7bc 4449 d0bd bf73 e7bd
000000a0: 7a41 f1bc 32c7 2f3c 89d7 503d 0a3f adbc
000000b0: 339a 393d 8878 5f3d 6f80 e4bd 9bb8 a4bd
000000c0: 7e88 0fbe 1951 48bd 869f 14be 44ef f33d
000000d0: d832 2dbd 3222 10bd 5b94 d43c 575b a5bb
000000e0: c59a c43b e5d4 aebb f8fb fabc 3a0a e23d
000000f0: 0687 03bd 7045 4fbd bcd9 a5bd 51af 17bd
00000100: 402f 84bd 89b9 7dbc 4f00 7abd b119 24bc
00000110: ad52 acbd 3f7c cdbd d425 17be 2875 483d
00000120: 5bc9 023c 5980 84bd 0bb8 2ebe 1dae 44bd
00000130: be29 1f3e ac8b 8cbc e3b4 d33a f4df 4dbb
00000140: e17c 87bd df1b 9a3c 76ed 30be a7e2 26be
00000150: 476b 033d f59b efbd 57af d83c d621 7cbc
00000160: 312c 97bd a45c 22be fd0c f5bd 2695 9b3c
00000170: 897b f33c 9202 aabd 8364 81bd 4859 35bd
00000180: 5192 523c d19b 553d 2c38 09be 720c 90bc
00000190: 1f7a 27be dfaf a33d 274e cbbd 42b9 7fbd
000001a0: 9c23 eebd a1d0 3a3d 7d12 903c 4793 a23d
000001b0: 2d9c 073d 5b3e 22bd 9835 bb3c 342b cebc
000001c0: c37e dfbb 11bd 72bd 3063 f33c e1aa 22be
000001d0: 2d97 19bd 92ce ac3d 91a9 b4bd de03 14bd
000001e0: abd1 b0bc 3cad 583c 56cf 21bd e314 183e
000001f0: 839d 71bd 356d a0bc 266a 8fbd 18b2 5fbb

batch_norms.1.running_mean f4 [128]
-0.2118084 -0.3042755 0.21075432 0.13537803 0.39341432 -0.37098736 0.12050292 -0.4709836
-0.016775394 0.13329886 0.2962544 0.2533554 -0.21022896 -0.10380827 0.027686905 0.19732898
-0.5306015 0.0414509 0.10039593 0.34717515 -0.48008132 -0.4529957 -0.095670335 0.09427712
0.12606977 -0.22251366 -0.22336142 0.07902161 -0.45553207 0.3064798 -0.021781739 -0.31087092
-0.3418721 -0.4838121 -0.42328095 -0.124921694 0.09360319 -0.4011263 -0.36424842 -0.54524076
-0.048891664 -0.41801053 -0.08327479 -0.26893833 -0.31657127 0.18184267 0.18072455 0.260703
-0.10656652 0.019577222 0.2468004 0.08677528 -0.28048694 -0.31829083 -0.41281888 -0.24175026
-0.45384446 -0.1482308 -0.39340442 0.4576205 -0.541287 -0.42763397 0.024804898 0.13994859
-0.7078099 -0.10359689 -0.342643 -0.18444799 0.14493991 -0.43291706 0.44771975 -0.18902671
0.08619788 0.17566231 0.4271034 0.19016345 0.0135111045 -0.6539042 -0.5667558 -0.59755653
-0.5033987 -0.21665224 0.30748165 0.05308259 -0.21582271 0.2302146 0.031233724 0.11710432
0.26461166 -0.61224306 0.018161431 -0.18453015 -0.67976314 -0.12105543 -0.12343364 -0.12510565
0.05311959 -0.5094631 -0.09388846 0.13348293 0.22603233 0.0040063267 -0.066268675 -0.23215948
-0.09181083 0.25105065 -0.6017483 -0.45429188 -0.1678524 -0.38052136 -0.069953255 -0.0070435153
0.12267008 -0.00563585 0.11952785 0.019053891 -0.16755965 -0.16930191 -0.23756373 0.28086957
0.120196216 0.19470921 -0.27129778 -0.49452576 -0.27424347 -0.5152273 -0.051779337 -0.37037832
00000000: 4de4 58be 00ca 9bbe fbcf 573e 8aa0 0a3e
00000010: 9a6d c93e 0ef2 bdbe 3cca f63d c324 f1be
00000020: 8d6c 89bc 7f7f 083e a8ae 973e cdb7 813e
00000030: 4346 57be 6e99 d4bd a6cf e23c 9c10 4a3e
00000040: 80d5 07bf 6bc8 293d 629c cd3d f1c0 b13e
00000050: 38cd f5be 0def e7be cfee c3bd 5d14 c13d
00000060: 6f18 013e 9fda 63be dbb8 64be 15d6 a13d
00000070: 803b e9be ecea 9c3e 9e6f b2bc 792a 9fbe
00000080: dc09 afbe 38b6 f7be 48b8 d8be f2d6 ffbd
00000090: 07b3 bf3d 6d60 cdbe c57e babe e694 0bbf
000000a0: a042 48bd 7a05 d6be f98b aabd 49b2 89be
000000b0: a115 a2be f734 3a3e db0f 393e dd7a 853e
000000c0: 8c3f dabd 6960 a03c 3eb9 7c3e 3db7 b13d
000000d0: fc9b 8fbe 04f7 a2be ff5c d3be 618d 77be
000000e0: 4d5e e8be d1c9 17be 4e6c c9be 3c4d ea3e
000000f0: c991 0abf d7f2 dabe a433 cb3c af4e 0f3e
00000100: 0833 35bf 9b2a d4bd e76e afbe efdf 3cbe
00000110: 216b 143e 4ea7 ddbe 863b e53e 3890 41be
00000120: 8488 b03d d2e0 333e 4cad da3e 35ba 423e
00000130: ae5d 5d3c 4466 27bf e816 11bf 77f9 18bf
00000140: bdde 00bf 16da 5dbe 3c6e 9d3e 216d 593d
00000150: a100 5dbe 60bd 6b3e dedd ff3c 64d4 ef3d
00000160: 2e7b 873e f6bb 1cbf 48c7 943c 79f5 3cbe
00000170: f504 2ebf e9eb f7bd c7ca fcbd b21b 00be
00000180: ed93 593d 2c6c 02bf 9848 c0bd c0af 083e
00000190: 0575 673e 8147 833b dfb7 87bd 37bb 6dbe
000001a0: 5107 bcbd b689 803e 2d0c 1abf f298 e8be
000001b0: 80e1 2bbe b2d3 c2be a743 8fbd 4acd e6bb
000001c0: 733a fb3d f0ac b8bb 04cb f43d e816 9c3c
000001d0: c294 2bbe 7b5d 2dbe e843 73be 23ce 8f3e
000001e0: 6f29 f63d da61 473e 8be7 8abe 7b32 fdbe
000001f0: a469 8cbe f0e5 03bf 9216 54bd 3aa2 bdbe

batch_norms.1.running_var f4 [128]
0.24031653 0.23549265 0.39841193 0.3508578 0.5464305 0.17179601 0.48434582 0.260859
0.3016662 0.21558751 0.24984328 0.16807541 0.27150324 0.25323665 0.25063902 0.4202543
0.16566725 0.21931903 0.18712212 0.2830007 0.31859902 0.4163315 0.3042177 0.42354485
0.22816968 0.09491294 0.22799909 0.46973377 0.22153959 0.4230981 0.46853647 0.52270395
0.35075548 0.15943094 0.538718 0.30168733 0.1811928 0.30651587 0.23718806 0.14685428
0.22966982 0.12170254 0.3267227 0.12151441 0.054890905 0.40861246 0.18364352 0.39317927
0.29882827 0.46599117 0.1577159 0.50001895 0.2584818 0.2199787 0.10772653 0.25096768
0.18015918 0.28943402 0.32138285 0.468696 0.29595798 0.3286794 0.43702957 0.29238543
0.09879323 0.22285222 0.21766722 0.108556055 0.41095492 0.22602946 0.35602385 0.3039574
0.16720934 0.37989938 0.15655631 0.52517354 0.29090667 0.24276868 0.14705452 0.18757336
0.21994041 0.14755343 0.48366246 0.18036127 0.14573309 0.31076476 0.22596252 0.28091255
0.3859871 0.1876508 0.36840525 0.29302523 0.21458517 0.2804851 0.71310985 0.47219935
0.36862752 0.31547228 0.13737944 0.5784877 0.21721052 0.32377952 0.18255782 0.13165586
0.16259952 0.29979032 0.32839882 0.1896408 0.25147232 0.1960605 0.1552693 0.41148615
0.27930668 0.329469 0.63872904 0.1986841 0.22975834 0.21163104 0.18085134 0.53009343
0.46034247 0.5288845 0.48354647 0.21461928 0.41021952 0.19518673 0.16680652 0.10454721
00000000: 8915 763e fc24 713e a6fc cb3e a2a3 b33e
00000010: dfe2 0b3f 4beb 2f3e 2dfc f73e 508f 853e
00000020: fe73 9a3e f9c2 5c3e ebd6 7f3e f61b 2c3e
00000030: 7902 8b3e 3ca8 813e c253 803e 922b d73e
00000040: ada4 293e 2b95 603e f19c 3f3e 78e5 903e
00000050: 691f a33e 6729 d53e 6cc2 9b3e dfda d83e
00000060: 50a5 693e b761 c23d 9878 693e f280 f03e
00000070: 46db 623e 50a0 d83e 03e4 ef3e edcf 053f
00000080: 3996 b33e dd41 233e 6ce9 093f c376 9a3e
00000090: 9b8a 393e a6ef 9c3e 6de1 723e f860 163e
000000a0: 912e 6b3e 2e3f f93d 3348 a73e 8cdc f83d
000000b0: 49d5 603d a735 d13e 0c0d 3c3e cb4e c93e
000000c0: 0500 993e 6596 ee3e 4780 213e 3e01 003f
000000d0: ba57 843e 1942 613e ba9f dc3d d67e 803e
000000e0: a67b 383e b230 943e 4b8c a43e ecf8 ef3e
000000f0: ce87 973e ab48 a83e 57c2 df3e 8bb3 953e
00000100: 1b54 ca3d 5f33 643e 28e4 5e3e a352 de3d
00000110: af68 d23e 4474 673e c248 b63e 4ea0 9b3e
00000120: ed38 2b3e 2c82 c23e 4c50 203e c671 063f
00000130: b8f1 943e 5a98 783e 7695 163e 3b13 403e
00000140: 0f38 613e 3f18 173e 9ba2 f73e a0b0 383e
00000150: 0e3b 153e 8f1c 9f3e b862 673e c5d3 8f3e
00000160: 1aa0 c53e 8827 403e 9d9f bc3e 6707 963e
00000170: 37bc 5b3e be9b 8f3e 5e8e 363f 1dc4 f13e
00000180: bfbc bc3e 9585 a13e 32ad 0c3e c517 143f
00000190: 6f6c 5e3e 6ec6 a53e 70f0 3a3e cbd0 063e
000001a0: 7d80 263e 1e7e 993e e423 a83e 3331 423e
000001b0: fbc0 803e 15c4 483e eafe 1e3e 50ae d23e
000001c0: 4901 8f3e 29b0 a83e bf83 233f d873 4b3e
000001d0: c545 6b3e cfb5 583e 1831 393e 34b4 073f
000001e0: 02b2 eb3e f964 073f 6793 f73e 28c5 5b3e
000001f0: 4b08 d23e 08df 473e 54cf 2a3e d91c d63d

batch_norms.2.weight f4 [256]
0.31270462 0.36202157 0.3636429 0.49428263 0.43869707 0.5364654 0.29152387 0.42376256
0.41391447 0.41649765 0.33289343 0.35621497 0.3836214 0.37993136 0.4102256 0.42507702
0.3919044 0.38718557 0.39265305 0.30909935 0.3734634 0.32696897 0.510229 0.51524216
0.3506023 0.29077908 0.339674 0.39002532 0.39115036 0.41732582 0.4278832 0.50293297
0.37894082 0.49369916 0.32675406 0.39523903 0.46460527 0.3593729 0.45731497 0.38164353
0.44578657 0.37031212 0.46187228 0.47865203 0.42123017 0.49347934 0.369271 0.3786947
0.58698136 0.35719338 0.4417773 0.41916203 0.40760857 0.4011597 0.42558482 0.39426818
0.40603536 0.48907635 0.41304818 0.39077675 0.37865338 0.44151658 0.54826355 0.43894553
0.39335692 0.38169253 0.37406418 0.3866386 0.39935455 0.3979537 0.36753103 0.64429814
0.42909932 0.39007998 0.5203695 0.44779465 0.4924943 0.39506787 0.4641703 0.5635384
0.4073127 0.48956728 0.44994915 0.4606611 0.35453522 0.35223567 0.3995625 0.4035952
0.4379352 0.33802733 0.43441674 0.40434796 0.4594622 0.38357762 0.38943666 0.40923798
0.41157836 0.38878497 0.50187767 0.4607844 0.2875145 0.4329951 0.40508452 0.4963983
0.399811 0.40574586 0.41462627 0.43455964 0.36259854 0.44516316 0.4296447 0.3779894
0.45785478 0.4536959 0.4011997 0.34662345 0.45417336 0.40011027 0.49936277 0.36689544
0.38705143 0.38501266 0.4054653 0.3468957 0.4679713 0.44073924 0.43753988 0.43412706
0.33297473 0.3976956 0.44464386 0.4291501 0.49803355 0.46326938 0.4070674 0.4175102
0.31079504 0.3639037 0.37070376 0.42945668 0.41916755 0.39815438 0.34449273 0.41968945
0.39260945 0.36194685 0.3501075 0.3724917 0.34377033 0.48149905 0.35820788 0.38308942
0.4005738 0.32422462 0.36107326 0.38708922 0.40867472 0.42052135 0.36208352 0.50585145
0.40979272 0.40507746 0.5733021 0.37176907 0.34879854 0.429474 0.4685859 0.46213767
0.43235904 0.38680634 0.28943244 0.3630205 0.40674806 0.4277683 0.37522918 0.39111322
0.35302153 0.49736166 0.37203172 0.36186948 0.36190936 0.4002587 0.46670958 0.40399072
0.4077925 0.3947917 0.4364642 0.41078255 0.43135512 0.4902209 0.3525043 0.3264576
0.48828077 0.37012914 0.45786285 0.36776903 0.3801897 0.35393214 0.46536595 0.3467356
0.4615311 0.49221632 0.3818516 0.43076193 0.4269724 0.42302662 0.29869017 0.42004716
0.397537 0.33487427 0.3783223 0.36438087 0.36933532 0.46450692 0.39150232 0.34961945
0.40875116 0.4930209 0.39108196 0.43217897 0.37789473 0.43080318 0.34233022 0.385707
0.41884682 0.37790477 0.39972067 0.38848826 0.44696888 0.4796602 0.3628491 0.43673638
0.46077695 0.43547574 0.49905193 0.44663027 0.35634857 0.4331989 0.40343264 0.37845692
0.47342038 0.4121938 0.40935084 0.49124146 0.31928977 0.4294437 0.36448824 0.48251352
0.4143336 0.49021006 0.38469055 0.33828744 0.37040308 0.37393272 0.41389158 0.50926703
00000000: d21a a03e e45a b93e 672f ba3e 9d12 fd3e
00000010: e79c e03e cc55 093f 9e42 953e 68f7 d83e
00000020: 99ec d33e 2e3f d53e 0271 aa3e cf61 b63e
00000030: 066a c43e 5d86 c23e 1709 d23e b2a3 d93e
00000040: b2a7 c83e 303d c63e d209 c93e 4542 9e3e
00000050: 9836 bf3e 7a68 a73e 5e9e 023f e9e6 033f
00000060: 2582 b33e ffe0 943e c0e9 ad3e 66b1 c73e
00000070: dc44 c83e bbab d53e 8213 db3e 37c0 003f
00000080: 8804 c23e 23c6 fc3e 4f4c a73e c55c ca3e
00000090: bee0 ed3e baff b73e 3025 ea3e c866 c33e
000000a0: 233e e43e 8d99 bd3e 867a ec3e e111 f53e
000000b0: 7bab d73e 53a9 fc3e 1711 bd3e 46e4 c13e
000000c0: 6944 163f 0de2 b63e a230 e23e 689c d63e
000000d0: 12b2 d03e ce64 cd3e 41e6 d93e 85dd c93e
000000e0: dee3 cf3e 3768 fa3e 0d7b d33e e413 c83e
000000f0: dbde c13e 760e e23e 005b 0c3f 78bd e03e
00000100: 1466 c93e 346d c33e 5785 bf3e 7ff5 c53e
00000110: 3378 cc3e 96c0 cb3e 072d bc3e b9f0 243f
00000120: e8b2 db3e 90b8 c73e f036 053f 5745 e53e
00000130: 3628 fc3e 5646 ca3e bba7 ed3e 0d44 103f
00000140: 4a8b d03e 90a8 fa3e bc5f e63e c6db eb3e
00000150: a485 b53e 3c58 b43e 7593 cc3e 08a4 ce3e
00000160: 0b39 e03e eb11 ad3e df6b de3e b206 cf3e
00000170: a13e eb3e 4964 c43e 3e64 c73e a487 d13e
00000180: 66ba d23e d30e c73e 0e7b 003f efeb eb3e
00000190: 1a35 933e 89b1 dd3e 3d67 cf3e eb27 fe3e
000001a0: 07b4 cc3e ecbd cf3e e549 d43e 9a7e de3e
000001b0: 84a6 b93e 6dec e33e 64fa db3e d487 c13e
000001c0: f16b ea3e d44a e83e 0c6a cd3e a178 b13e
000001d0: 6989 e83e 41db cc3e 7aac ff3e b8d9 bb3e
000001e0: 9b2b c63e 6120 c53e 2699 cf3e 509c b13e
000001f0: ef99 ef3e 93a8 e13e 3a05 e03e e745 de3e
00000200: aa7b aa3e c29e cb3e 5ca8 e33e 90b9 db3e
00000210: 41fe fe3e a531 ed3e 236b d03e e6c3 d53e
00000220: 8720 9f3e 9651 ba3e e2cc bd3e bfe1 db3e
00000230: 219d d63e e4da cb3e 5a61 b03e 89e1 d63e
00000240: 1b04 c93e 1951 b93e 4a41 b33e 3bb7 be3e
00000250: aa02 b03e 0b87 f63e 0667 b73e 4c24 c43e
00000260: 0218 cd3e c500 a63e 98de b83e 8f30 c63e
00000270: d03d d13e 934e d73e 0363 b93e 7b7f 013f
00000280: 5ad0 d13e 5066 cf3e edc3 123f 8458 be3e
00000290: b995 b23e 04e4 db3e 7eea ef3e 4f9d ec3e
000002a0: 2a5e dd3e 7b0b c63e 7d30 943e d3dd b93e
000002b0: 4841 d03e 7204 db3e 0a1e c03e fe3f c83e
000002c0: 3dbf b43e 30a6 fe3e f17a be3e f546 b93e
000002d0: 2f4c b93e b5ee cc3e 8ff4 ee3e dfd7 ce3e
000002e0: 2eca d03e 2322 ca3e 3c78 df3e 1752 d23e
000002f0: 94da dc3e 3cfe fa3e 727b b43e 7325 a73e
00000300: f0ff f93e 9181 bd3e 006d ea3e 394c bc3e
00000310: 39a8 c23e 9836 b53e 7244 ee3e 5487 b13e
00000320: ce4d ec3e c703 fc3e 0e82 c33e d48c dc3e
00000330: 209c da3e f296 d83e ebed 983e 6c10 d73e
00000340: f889 cb3e a474 ab3e 76b3 c13e 2190 ba3e
00000350: 8519 bd3e dad3 ed3e fe72 c83e 5201 b33e
00000360: d547 d13e 3c6d fc3e e53b c83e 9046 dd3e
00000370: 6b7b c13e 3c92 dc3e e845 af3e 637b c53e
00000380: 1773 d63e bc7c c13e 30a8 cc3e efe7 c63e
00000390: 1bd9 e43e 0696 f53e 5bc7 b93e e99b df3e
000003a0: f5ea eb3e adf6 de3e bc83 ff3e b9ac e43e
000003b0: 5273 b63e 3fcc dd3e b98e ce3e 1bc5 c13e
000003c0: 2864 f23e 110b d33e 6f96 d13e 0084 fb3e
000003d0: f379 a33e 0be0 db3e 349e ba3e 030c f73e
000003e0: 8923 d43e d0fc fa3e 29f6 c43e 0334 ad3e
000003f0: 79a5 bd3e 1c74 bf3e 99e9 d33e 535f 023f

batch_norms.2.bias f4 [256]
-0.117736995 -0.12688226 -0.091139905 -0.023981886 0.0947224 0.12040667 0.10742584 -0.11989496
0.114026845 0.11215701 0.11314888 0.11617537 0.094232105 0.03276076 0.08013554 0.12575963
0.099166736 0.11552674 0.087142006 0.10833622 -0.12324814 -0.13199957 0.13361706 0.10267986
-0.11611441 0.11940763 -0.10114574 0.09864337 -0.11959455 -0.06805358 -0.02867099 0.14130406
0.04879124 0.024877347 -0.10302792 0.10590583 0.017112238 0.12504195 -0.07977618 0.065610975
-0.10853835 0.12165036 0.09987679 -0.046671994 -0.04812105 -0.044139624 0.08538726 0.13741699
-0.055018216 -0.07389993 0.09937143 -0.111189686 0.12345989 -0.0021076566 0.12392512 0.10523431
0.11975116 0.06872787 0.10782884 -0.12926018 0.09508615 0.100580215 -0.13194728 -0.12218018
-0.118898794 -0.124518886 0.09768778 -0.11912727 -0.113760985 0.119698904 -0.057997208 0.12179788
0.12277024 0.11584783 -0.0064449515 -0.072871685 0.113618754 0.11239659 0.123363204 0.03748057
-0.08893355 0.022341432 0.08913902 0.006919909 0.11019557 0.13458605 0.11106865 -0.122033365
0.08014776 0.11910162 -0.08765313 -0.117927514 0.102599084 0.108765595 0.028812263 0.12162713
-0.117637515 -0.1187506 0.103334874 0.015258258 -0.11101379 -0.13385583 0.115031205 -0.010121976
-0.081904165 0.0020617943 -0.11502878 -0.13545801 -0.10921205 -0.007999437 0.053104956 0.110574976
0.13366045 0.045215707 -0.0998889 0.09571668 -0.12184111 -0.07789132 0.095599964 0.04870529
0.1267859 0.114022784 0.12723616 0.119194284 0.12728357 -0.10781139 -0.10455753 0.10959439
-0.1305195 0.10624735 0.021547278 -0.11343555 -0.075133964 0.018508306 0.12238284 0.046655208
-0.11901359 -0.114241526 -0.10274731 -0.10570403 -0.011751164 0.08674214 0.09518499 0.13729095
0.12946296 0.10432314 0.05393191 -0.045886774 0.10190212 0.030735267 0.13080013 0.0855021
0.10692872 -0.12768298 -0.12397197 0.10334516 0.120889895 0.12262545 0.1111978 -0.12952149
0.11260374 0.11436345 0.03740729 0.13402593 0.08795441 -0.13113749 0.034969553 0.12158709
-0.11832164 -0.025537916 0.124977715 -0.02779351 -0.124183044 -0.1076109 -0.12620005 -0.115410045
0.10594978 -0.097471416 0.08411483 -0.101541705 -0.109717384 -0.024058064 0.07483513 -0.12222772
0.08001472 -0.11643252 -0.09142559 0.08892298 0.050327286 -0.004577035 -0.102205664 0.08542432
-0.0824151 -0.117033266 -0.0032013543 0.10526871 -0.12167928 -0.0905468 -0.055144705 -0.11313906
0.10076657 0.108709015 0.116244934 0.07800906 0.09914256 -0.13095647 0.11402316 -0.11764983
0.08410902 -0.12584174 0.09886076 0.107975684 0.100072145 0.13841699 -0.097876094 -0.10860516
0.06549248 -0.081146225 -0.118391976 0.034567855 0.118511245 0.074337885 -0.10233086 0.029557938
0.123285264 -0.056480505 -0.06390177 0.08627931 -0.12414492 0.020995634 -0.112281166 0.1103241
0.04731768 0.0936713 -0.048320655 0.05599472 -0.122406766 0.13731094 0.068028 0.10787174
0.07062387 -0.10362141 0.113928705 -0.049841475 -0.13487308 0.020805499 -0.041710783 0.113873065
-0.06476439 -0.06130579 -0.10656292 0.11782801 0.119415134 0.09322626 0.11766535 -0.026689317
00000000: 1820 f1bd 6ced 01be 8fa7 babd a975 c4bc
00000010: d1fd c13d c697 f63d 1402 dc3d 7d8b f5bd
00000020: e886 e93d 93b2 e53d 9aba e73d 5aed ed3d
00000030: c3fc c03d 2630 063d 1a1e a43d 22c7 003e
00000040: ee17 cb3d 4999 ec3d 8277 b23d 61df dd3d
00000050: 8569 fcbd e52a 07be e9d2 083e d249 d23d
00000060: 64cd edbd fd8b f43d 7f25 cfbd 8905 ca3d
00000070: fded f4bd ad5f 8bbd 6ddf eabc 03b2 103e
00000080: 53d9 473d 94cb cb3c 4d00 d3bd 28e5 d83d
00000090: f72e 8c3c ff0a 003e b261 a3bd 0c5f 863d
000000a0: 5b49 debd d323 f93d 348c cc3d 222b 3fbd
000000b0: 941a 45bd c0cb 34bd 84df ae3d 0ab7 0c3e
000000c0: c85a 61bd d958 97bd 4083 cb3d 6bb7 e3bd
000000d0: 8ad8 fc3d 9c20 0abb 74cc fd3d 1685 d73d
000000e0: 1940 f53d 33c1 8c3d 5ed5 dc3d c85c 04be
000000f0: 87bc c23d 00fd cd3d 301d 07be 9a39 fabd
00000100: 3681 f3bd c203 ffbd 8810 c83d 00f9 f3bd
00000110: 85fb e8bd b324 f53d 7b8e 6dbd 2b71 f93d
00000120: f76e fb3d a141 ed3d 2c30 d3bb c03d 95bd
00000130: f3b0 e83d 2f30 e63d d9a5 fc3d 3a85 193d
00000140: cb22 b6bd 6105 b73c 858e b63d 67c0 e23b
00000150: 37ae e13d edd0 093e f677 e33d a1ec f9bd
00000160: 8224 a43d 8deb f33d 7c83 b3bd fb83 f1bd
00000170: 781f d23d 7fc0 de3d b207 ec3c a517 f93d
00000180: f0eb f0bd 8433 f3bd 3ca1 d33d c6fd 793c
00000190: 335b e3bd 8111 09be 7b95 eb3d a5d6 25bc
000001a0: 5fbd a7bd 2b1f 073b 3694 ebbd 81b5 0abe
000001b0: 91aa dfbd 1210 03bc 9584 593d 2275 e23d
000001c0: 49de 083e 1b34 393d 8d92 ccbd 1b07 c43d
000001d0: d587 f9bd 7c85 9fbd eac9 c33d 337f 473d
000001e0: 2ad4 013e c784 e93d 324a 023e 221c f43d
000001f0: a056 023e 38cc dcbd 4222 d6bd 0673 e03d
00000200: e7a6 05be 3698 d93d eb83 b03c e650 e8bd
00000210: d6df 99bd bb9e 973c dba3 fa3d 8819 3f3d
00000220: 66bd f3bd 76f7 e9bd 2f6d d2bd 5b7b d8bd
00000230: f487 40bc dda5 b13d 59f0 c23d 0096 0c3e
00000240: f091 043e 5fa7 d53d b5e7 5c3d c5f3 3bbd
00000250: 0fb2 d03d 87c8 fb3c 78f0 053e ba1b af3d
00000260: 72fd da3d 54bf 02be 04e5 fdbd a1a6 d33d
00000270: 1f95 f73d 0d23 fb3d acbb e33d 48a1 04be
00000280: ca9c e63d 6237 ea3d 6338 193d 183e 093e
00000290: 7121 b43d e848 06be 3c3c 0f3d a702 f93d
000002a0: 9e52 f2bd e434 d1bc 51f4 ff3d 37af e3bc
000002b0: ae53 febd 1b63 dcbd 963a 01be 1a5c ecbd
000002c0: 33fc d83d 189f c7bd 6544 ac3d 19f5 cfbd
000002d0: 82b3 e0bd 6b15 c5bc 2943 993d 8752 fabd
000002e0: c2de a33d 2c74 eebd 573d bbbd 401d b63d
000002f0: fc23 4e3d f4fa 95bb 3451 d1bd f2f2 ae3d
00000300: 3fc9 a8bd 23af efbd d0cd 51bb 1f97 d73d
00000310: fd32 f9bd 9a70 b9bd 6adf 61bd 74b5 e7bd
00000320: b45e ce3d d5a2 de3d d311 ee3d 37c3 9f3d
00000330: 410b cb3d 7419 06be f984 e93d 65f2 f0bd
00000340: 5a41 ac3d a8dc 00be 8377 ca3d 5b22 dd3d
00000350: a0f2 cc3d 2fbd 0d3e 4373 c8bd 626c debd
00000360: ec20 863d fe2f a6bd 7e77 f2bd 0697 0d3d
00000370: 06b6 f23d 763e 983d d892 d1bd 7d23 f23c
00000380: fc7c fc3d 1a58 67bd eede 82bd 35b3 b03d
00000390: b13f febd 09ff ab3c abf3 e5bd 9af1 e13d
000003a0: 2fd0 413d bdd6 bf3d e1eb 45bd b85a 653d
000003b0: 66b0 fabd 3d9b 0c3e 4452 8b3d dceb dc3d
000003c0: 3fa3 903d 7637 d4bd 7453 e93d 9326 4cbd
000003d0: 2b1c 0abe 4b70 aa3c edd8 2abd 4836 e93d
000003e0: 31a3 84bd c81b 7bbd a93d dabd d04f f13d
000003f0: ec8f f43d 69ed be3d 88fa f03d 8ea3 dabc

batch_norms.2.running_mean f4 [256]
0.7365142 -0.1538998 0.5695967 -0.81908685 0.3338793 -0.3662532 -0.5598446 -0.054371696
0.5381592 0.5128137 -0.79993796 -0.63275385 1.0123081 -0.63215613 0.8704381 0.9153761
0.566878 0.3418457 -0.6050589 -0.55557775 -0.52526027 0.86361474 -0.8423824 0.6594171
-0.7022372 -0.7985466 0.6877258 0.3971015 0.73251784 0.6182068 0.75648284 -1.1434926
0.24828206 -0.66719747 0.42056835 0.22915785 0.17367432 -0.8983454 0.54183245 -0.2880819
0.96571165 -0.07050902 0.6996427 -0.1942628 0.50598574 0.57103395 -0.5111744 0.28757197
-0.3573682 0.4065721 0.37688336 0.70127755 -0.17935562 0.22543679 -0.73374045 0.83293563
-1.0711192 -0.26560387 -1.0119816 0.73433244 -0.62112296 0.66487455 0.7956694 -0.58769375
-0.74625087 0.8515761 -0.11448563 0.6869686 -0.39452767 -0.6260937 0.27063456 -0.49725002
-0.8075005 0.34669903 0.45906526 -0.41344774 0.76482075 -0.27108195 -0.765121 0.96030253
-0.7598214 0.5514877 0.454446 -0.4668966 -0.5562371 0.29352403 0.2833738 -0.7398038
-0.9271227 -0.86466664 0.40674764 -0.095384106 -0.85864997 0.55803466 -0.41868874 -0.79560375
0.33667397 -0.0973758 -0.9184345 -0.8082483 0.7294043 0.6727246 0.6107736 -0.15706603
-0.2983201 0.117572084 0.66896045 0.6588314 0.53667575 -0.16764554 0.21374694 0.7987116
-0.71244514 0.5303912 -0.60140777 -0.5272504 -0.49457175 0.566253 -0.54850477 -0.32694024
-0.7275305 0.66636103 -0.56674117 0.32194856 -0.8009911 -0.48238748 -0.43970826 0.2973009
-1.1242666 0.07151414 0.1887566 -0.52397877 0.76011896 0.47605485 -0.80557674 -0.3833132
-0.39806134 -0.44736266 0.3973203 -0.43568638 0.59579474 1.1620965 -0.67952716 0.9495875
-0.752948 -0.5506362 -0.7582898 -0.22238591 -0.53615385 -0.17085357 -0.7998193 0.25416374
0.807067 0.58030987 -0.059756987 -0.41290107 -0.72074753 -0.7891141 -0.8241751 1.0323083
0.35236567 0.2208893 0.014506547 0.53771555 0.5663712 0.7855059 -0.28920755 -0.3873523
0.23948863 -0.3163774 -0.49730572 0.6813197 -0.65705436 -0.6047809 -0.138524 0.56393015
-0.4934136 0.028493851 0.6627334 0.09338143 0.55030686 -0.21620509 0.17650862 0.4686291
0.6889737 -0.75364405 -0.25590974 -0.56172806 0.13461933 0.54187006 -0.5921031 0.7104538
-0.34094933 0.5347149 0.5519185 0.42714772 -0.65398663 0.75802106 -0.7010417 -0.3602482
-0.9751162 0.64775133 0.49765268 -0.45355055 -0.5151801 0.8053305 -0.59755933 0.70743227
0.6326147 -0.7528847 -0.66164213 -0.16664913 -0.67796165 -1.1261668 0.5303837 0.7659564
-0.5199895 -0.46900418 0.6804285 -0.6438792 -0.44151533 0.16158181 0.6291983 -0.2714006
1.0562727 0.677865 0.7053916 0.95118046 -0.73651755 0.60938644 -0.53421676 -0.40109456
-0.56678575 -0.6438149 -0.2777065 0.053226627 -0.6950061 -0.96465176 0.7107755 -0.48405913
0.8383848 0.32862002 0.6434863 0.48758656 0.70379686 -0.38823128 0.2103552 -0.6654284
-0.6678059 -0.036272753 -0.28710276 -0.71506387 -0.68963456 -0.16713795 0.4289216 -0.48637104
00000000: 328c 3c3f e997 1dbe 17d1 113f adaf 51bf
00000010: 3af2 aa3e 8a85 bbbe fa51 0fbf dbb4 5ebd
00000020: cdc4 093f c247 033f bcc8 4cbf 28fc 21bf
00000030: 5093 813f fcd4 21bf 08d5 5e3f 1756 6a3f
00000040: eb1e 113f 6606 af3e 24e5 1abf 583a 0ebf
00000050: 7577 06bf db15 5d3f 5fa6 57bf 8fcf 283f
00000060: d1c5 33bf 8d6d 4cbf cc0e 303f e350 cb3e
00000070: 4a86 3b3f cd42 1e3f dca8 413f f75d 92bf
00000080: a73d 7e3e 74cd 2abf bc54 d73e 5ba8 6a3e
00000090: aed7 313e f7f9 65bf 88b5 0a3f 797f 93be
000000a0: e138 773f 0867 90bd c91b 333f d4ec 46be
000000b0: 4888 013f 482f 123f 53dc 02bf a23c 933e
000000c0: f7f8 b6be 382a d03e dbf6 c03e ed86 333f
000000d0: 00a9 37be e7d8 663e 6ad6 3bbf 453b 553f
000000e0: 6f1a 89bf 3bfd 87be 9d88 81bf 36fd 3b3f
000000f0: ea01 1fbf 3835 2a3f fdb0 4b3f 1973 16bf
00000100: 4c0a 3fbf e400 5a3f 7177 eabd 2ddd 2f3f
00000110: 88ff c9be ad47 20bf 9d90 8a3e 8e97 febe
00000120: 5ab8 4ebf 8982 b13e 9a0a eb3e 6caf d3be
00000130: 4bcb 433f 41cb 8abe f8de 43bf 63d6 753f
00000140: a883 42bf 4c2e 0d3f 25ad e83e 120d efbe
00000150: 8e65 0ebf c848 963e 5f16 913e c863 3dbf
00000160: ea57 6dbf cb5a 5dbf 3a41 d03e be58 c3bd
00000170: 7cd0 5bbf 5cdb 0e3f 5f5e d6be b0ac 4bbf
00000180: 8860 ac3e f76c c7bd 861e 6bbf 5ce9 4ebf
00000190: 3dba 3a3f ae37 2c3f a95b 1c3f ebd5 20be
000001a0: 6abd 98be a2c9 f03d fe40 2b3f 2da9 283f
000001b0: 9563 093f 46ab 2bbe 7ae0 5a3e 5d78 4c3f
000001c0: ce62 36bf b8c7 073f dcf5 19bf e2f9 06bf
000001d0: 8238 fdbe f5f5 103f cf6a 0cbf b664 a7be
000001e0: 703f 3abf a396 2a3f f315 11bf 71d6 a43e
000001f0: c10d 4dbf 7efb f6be 7121 e1be d337 983e
00000200: f8e7 8fbf 0176 923d 6949 413e 7923 06bf
00000210: 2897 423f 76bd f33e 473a 4ebf a141 c4be
00000220: b2ce cbbe b80c e5be 916d cb3e 4912 dfbe
00000230: 0186 183f 94bf 943f 7ef5 2dbf 2b18 733f
00000240: 33c1 40bf 7ef6 0cbf 481f 42bf 22b9 63be
00000250: 6141 09bf 3df4 2ebe f5c0 4cbf c021 823e
00000260: f19b 4e3f 308f 143f bec3 74bd c567 d3be
00000270: e982 38bf 6203 4abf 24fd 52bf ae22 843f
00000280: 4669 b43e ce30 623e deac 6d3c baa7 093f
00000290: b4fd 103f ea16 493f 0313 94be 0a53 c6be
000002a0: 823c 753e 38fc a1be db9e febe f86a 2e3f
000002b0: b734 28bf ecd2 1abf 3cd9 0dbe ba5d 103f
000002c0: b5a0 fcbe f06b e93c e5a8 293f c33e bf3d
000002d0: e9e0 0c3f de64 5dbe adbe 343e 27f0 ef3e
000002e0: 9560 303f d1ee 40bf 9a06 83be 69cd 0fbf
000002f0: a6d9 093e ffb7 0a3f 1294 17bf 4de0 353f
00000300: e990 aebe 13e3 083f 884a 0d3f 1bb3 da3e
00000310: ab6b 27bf ab0d 423f 7877 33bf 7472 b8be
00000320: 37a1 79bf 08d3 253f 55cc fe3e c737 e8be
00000330: d8e2 03bf 242a 4e3f a6f9 18bf 481a 353f
00000340: 09f3 213f 0dbd 40bf 6161 29bf 12a6 2abe
00000350: e58e 2dbf 3c26 90bf 3ac7 073f b815 443f
00000360: 081e 05bf 5121 f0be 9030 2e3f 44d5 24bf
00000370: 4c0e e2be b475 253e 2413 213f 05f5 8abe
00000380: f233 873f 9088 2d3f 8b94 343f 9080 733f
00000390: 6a8c 3cbf c000 1c3f 6ec2 08bf 445c cdbe
000003a0: df18 11bf 0ed1 24bf 8c2f 8ebe 2a04 5a3d
000003b0: ebeb 31bf 6bf3 76bf 62f5 353f 99d6 f7be
000003c0: 63a0 563f e240 a83e 85bb 243f f2a4 f93e
000003d0: 082c 343f 40c6 c6be 5b67 573e 8459 2abf
000003e0: 54f5 2abf bd92 14bd 22ff 92be 6d0e 37bf
000003f0: e48b 30bf 3626 2bbe 9d9b db3e a005 f9be

batch_norms.2.running_var f4 [256]
1.9220861 2.4965734 1.9629996 2.0633223 1.0214654 0.8144815 1.1506336 1.9009848
1.9647155 2.5056005 1.2264448 1.8069743 1.8036714 1.5221894 1.6407509 2.9651377
2.1098464 1.8564085 1.229449 1.7016591 1.6932478 1.7273253 3.0169358 2.00429
2.17744 1.0629609 1.8969495 1.6472483 2.0474923 2.784428 1.3716348 0.93674266
1.4103771 2.1069238 1.1067914 1.1810629 0.550016 2.2383296 1.0617603 1.1255277
2.9972196 1.1169974 2.6127453 0.9633473 1.1626465 1.1868192 1.1857105 2.2171977
0.6379936 1.3421904 1.4870918 1.8580451 2.0491881 0.42593646 1.8839277 0.95967925
1.672833 1.4865055 2.9616258 1.5456342 1.2524685 1.930933 1.0907604 2.4220655
3.211107 2.2966974 1.0527425 1.2525454 1.674423 1.8240249 1.5079559 0.6436921
1.5873238 2.2541275 1.1318984 1.8345578 2.0509362 0.6513492 1.7454787 0.9236201
2.452076 1.1574987 1.3056757 1.1590823 1.6786791 1.330909 1.5930523 3.4708097
1.9549072 2.4149373 1.9407096 0.14973131 1.7525415 1.5520102 1.3300339 2.0800042
1.0356891 1.5624299 2.4541483 1.7058641 1.1974205 0.8978916 2.890366 1.6396183
1.9342402 0.97876436 1.732989 3.0562735 0.970253 1.2785283 0.9626108 1.8885635
2.4263988 1.5497793 1.8389077 1.1550226 2.3529274 1.7991798 2.7509432 0.7321515
1.1161685 1.7344017 0.49644142 1.6512061 2.1879582 1.0771358 2.288771 1.0113341
3.5620008 1.1021898 0.2924799 1.4049629 2.222715 1.3599281 1.9089822 0.7828439
1.5016987 1.244377 2.1221642 1.8578124 1.5355322 3.3394709 2.1090093 2.8728197
2.0158474 1.0429275 1.3995761 0.36814937 1.895124 1.2549008 1.8940517 1.256647
2.2237206 1.0253141 0.30826148 1.6196334 1.1191343 1.3294568 1.4028242 1.4422514
1.5995015 1.649031 0.51663023 2.9765017 1.2212756 0.970634 0.82584286 0.663258
0.7820448 0.16848002 1.9221423 1.3653402 1.8436849 2.1443083 1.6663965 0.6708375
1.2367294 0.65166736 2.636304 0.75614023 0.6979462 1.0422512 1.5695504 2.539183
1.4845914 2.3539693 1.387926 1.2944206 0.2156857 1.2628254 2.2822337 2.2686303
2.15031 1.8810817 1.9316003 1.5087682 1.2180904 1.5272927 2.1008527 1.8106817
1.0627062 1.4387971 1.7513882 1.3714495 1.1738582 2.0116148 1.4227711 1.565147
1.6216965 3.1937165 1.8151984 0.5731381 1.9426602 3.146443 1.4418606 1.9820628
1.0511245 0.14282042 1.2340883 1.0639358 2.6447737 1.7798915 2.0824912 1.0077506
2.8307557 1.683462 1.9906107 2.0148761 2.4510765 1.9603496 2.2959726 1.3796543
1.5192744 2.281675 0.390097 0.32712638 0.984463 1.5188278 1.6850556 1.2875161
2.0233414 1.332155 2.0189302 2.2787008 1.3575317 1.0643793 0.24380358 0.7596742
2.4082713 1.3078212 1.1644473 1.5966163 1.8849047 0.56474084 2.0765967 1.5655859
00000000: eb06 f63f dcc7 1f40 9243 fb3f 790d 0440
00000010: 61bf 823f dc81 503f f647 933f 7853 f33f
00000020: cc7b fb3f c25b 2040 25fc 9c3f ef4a e73f
00000030: b4de e63f 1ad7 c23f 2004 d23f d1c4 3d40
00000040: b907 0740 cb9e ed3f 965e 9d3f f7cf d93f
00000050: 58bc d83f ff18 dd3f 7a15 4140 4a46 0040
00000060: 2d5b 0b40 1a0f 883f 3ecf f23f 08d9 d23f
00000070: 1d0a 0340 1134 3240 bb91 af3f 5ece 6f3f
00000080: 3d87 b43f d7d7 0640 57ab 8d3f 122d 973f
00000090: d9cd 0c3f cb40 0f40 c3e7 873f 4b11 903f
000000a0: 72d2 3f40 c5f9 8e3f 3837 2740 ee9d 763f
000000b0: 9ad1 943f b1e9 973f 5dc5 973f 91e6 0d40
000000c0: 8c53 233f e5cc ab3f 0659 be3f 6cd4 ed3f
000000d0: e625 0340 5814 da3e 8b24 f13f 8aad 753f
000000e0: 641f d63f d045 be3f 478b 3d40 57d7 c53f
000000f0: e350 a03f d028 f73f 099e 8b3f 1f03 1b40
00000100: c782 4d40 17fd 1240 44c0 863f 6853 a03f
00000110: 7e53 d63f a679 e93f b304 c13f 01c9 243f
00000120: 6d2d cb3f a043 1040 0ce2 903f cad2 ea3f
00000130: 8a42 0340 d2be 263f d96b df3f 5e72 6c3f
00000140: d0ee 1c40 eb28 943f 6220 a73f cf5c 943f
00000150: f5de d63f 3a5b aa3f 23e9 cb3f bf21 5e40
00000160: 663a fa3f 558e 1a40 2c69 f83f 2a53 193e
00000170: 4853 e03f 45a8 c63f 8d3e aa3f ca1e 0540
00000180: 7691 843f b4fd c73f c410 1d40 c159 da3f
00000190: 1345 993f 39dc 653f c2fb 3840 03df d13f
000001a0: 2f95 f73f 4d90 7a3f 95d2 dd3f fc99 4340
000001b0: 8062 783f d1a6 a33f a96d 763f 73bc f13f
000001c0: 1e4a 1b40 2b5f c63f 5461 eb3f c8d7 933f
000001d0: 5d96 1640 864b e63f 740f 3040 486e 3b3f
000001e0: 9cde 8e3f e000 de3f 922d fe3e b95a d33f
000001f0: 8207 0c40 96df 893f 397b 1240 6573 813f
00000200: d2f7 6340 8e14 8d3f edbf 953e d3d5 b33f
00000210: f640 0e40 2012 ae3f 8759 f43f 7568 483f
00000220: aa37 c03f bf47 9f3f 8ad1 0740 cccc ed3f
00000230: 528c c43f e4b9 5540 02fa 0640 47dc 3740
00000240: a503 0140 a67e 853f 4f25 b33f 137e bc3e
00000250: 6c93 f23f 97a0 a03f 4970 f23f cfd9 a03f
00000260: 7051 0e40 7e3d 833f 73d4 9d3e 2650 cf3f
00000270: cb3f 8f3f a42b aa3f be8f b33f b29b b83f
00000280: 77bc cc3f 7313 d33f e141 043f 017f 3e40
00000290: c252 9c3f 787b 783f 706a 533f 47cb 293f
000002a0: 1734 483f 0786 2c3e c208 f63f 78c3 ae3f
000002b0: defd eb3f 593c 0940 7b4c d53f 02bc 2b3f
000002c0: 264d 9e3f acd3 263f 34b9 2840 6892 413f
000002d0: 9aac 323f 7d68 853f 07e7 c83f f981 2240
000002e0: 1707 be3f 6fa7 1640 8fa7 b13f 93af a53f
000002f0: b6dc 5c3e 43a4 a13f 1e10 1240 3d31 1140
00000300: ae9e 0940 49c7 f03f ae3e f73f 511f c13f
00000310: 63ea 9b3f 547e c33f 5f74 0640 6bc4 e73f
00000320: c206 883f 812a b83f 7d2d e03f a88b af3f
00000330: fc40 963f 4cbe 0040 5d1d b63f bd56 c83f
00000340: c093 cf3f da65 4c40 6c58 e83f 2eb9 123f
00000350: 17a9 f83f 525f 4940 e38e b83f 3cb4 fd3f
00000360: 3f8b 863f 843f 123e 9bf6 9d3f 0c2f 883f
00000370: f943 2940 7cd3 e33f 8947 0540 f9fd 803f
00000380: 1a2b 3540 af7b d73f 55cc fe3f bbf3 0040
00000390: 70de 1c40 bcec fa3f 37f1 1240 8398 b03f
000003a0: 9577 c23f f706 1240 cbba c73e 1c7d a73e
000003b0: c405 7c3f f368 c23f e7af d73f 54cd a43f
000003c0: 6d7e 0140 0e84 aa3f 2736 0140 3cd6 1140
000003d0: 99c3 ad3f 953d 883f a5a7 793e 027a 423f
000003e0: 1e21 1a40 af66 a73f 9c0c 953f ec5d cc3f
000003f0: 8f44 f13f db92 103f f6e6 0440 1e65 c83f

interaction_layers.0.bias f4 [64]
6.5689037e-06 -1.600737e-06 -1.3499122e-05 3.679664e-07 1.250827e-05 -1.4542412e-05 -8.690323e-06 -7.163542e-06
2.3159585e-06 1.337161e-05 1.4828554e-06 -1.0858747e-06 -2.4773503e-06 -8.154112e-06 -6.084559e-06 -1.710465e-05
-2.9642501e-06 -3.2296089e-06 -6.5022487e-06 9.730845e-07 -1.01282885e-05 -2.0415237e-05 -2.3652028e-06 6.7582487e-06
-1.0927896e-05 4.5283264e-07 2.014581e-05 -6.5984227e-06 -6.066509e-06 -8.9257965e-06 -3.2264084e-06 5.3382964e-06
1.2857157e-05 -2.5452226e-05 7.866135e-06 9.943202e-07 -8.050801e-06 -7.2480485e-05 -9.50654e-06 5.555392e-05
1.0153996e-05 4.0246512e-05 9.166539e-06 2.4809704e-06 3.344447e-05 8.625854e-06 -2.9552806e-05 9.5687665e-06
8.859962e-06 -4.821698e-05 7.3169763e-06 -2.7171673e-05 -2.282646e-06 3.2207208e-06 -1.0170724e-05 -9.736585e-06
1.4526209e-05 -7.249235e-06 -5.1398406e-06 6.501685e-05 4.1226695e-06 6.00494e-06 3.8584467e-06 5.256635e-06
00000000: 746a dc36 e8d8 d6b5 4a7a 62b7 eb8c c534
00000010: 9cda 5137 2ffb 73b7 a7cc 11b7 5b5e f0b6
00000020: dd6b 1b36 a156 6037 8606 c735 5fbe 91b5
00000030: 8e40 26b6 a5cd 08b7 f729 ccb6 f57b 8fb7
00000040: 6eed 46b6 42bc 58b6 e42d dab6 ee9a 8235
00000050: abec 29b7 6341 abb7 e0b9 1eb6 eac4 e236
00000060: f556 37b7 d81c f334 ccfe a837 0568 ddb6
00000070: ea8e cbb6 01c0 15b7 4685 58b6 9e1f b336
00000080: 12b5 5737 3d82 d5b7 cbf8 0337 9574 8535
00000090: ed11 07b7 aa00 98b8 477e 1fb7 9102 6938
000000a0: 155b 2a37 5dce 2838 fcc9 1937 bf7e 2636
000000b0: ba46 0c38 c3b7 1037 2be8 f7b7 8a89 2037
000000c0: 3fa5 1437 973c 4ab8 5984 f536 b9ee e3b7
000000d0: 8f2f 19b6 9023 5836 eda2 2ab7 505a 23b7
000000e0: 98b5 7337 743e f3b6 e576 acb6 a859 8838
000000f0: 7655 8a36 0b7e c936 ce77 8136 2762 b036
