best_model/xasnet_gnn_model_12.pt (torch, 102230 bytes, 14 tensors)

batch_norms.0.weight f4 [128]
0.7425742 0.4202796 0.7362955 0.72825146 0.69899726 0.4306849 0.5868401 0.67131186
0.70440775 0.45767635 0.8163588 0.7023351 0.8444269 0.37740526 0.423538 0.43055925
0.7362411 0.6618265 0.77055174 0.40317443 0.8144983 0.95796466 0.64899665 0.65567
0.48395288 0.79394203 0.65479565 0.49425104 0.7835591 0.84656256 0.6952997 0.5054613
0.5921629 0.88922006 0.7816325 0.81712776 0.67164475 0.6093527 0.69679636 0.2545156
0.8095782 0.6235567 0.6849301 0.39013624 0.73633784 0.91067404 0.7283577 0.85907894
0.75122726 0.19105688 0.49218056 0.9127413 0.5361381 0.7651136 0.88579094 0.091171384
0.9197998 0.5452949 0.7211727 0.66201043 0.70490843 0.37242225 0.70092213 0.5844205
0.5521781 0.48536104 0.65368664 0.48100212 0.67390317 0.62529355 0.5272122 0.671731
0.77544534 0.7714955 0.8091246 0.6859729 0.41798562 0.75900406 0.53201634 0.74157816
0.67670095 0.51602066 0.70776594 0.6156949 0.81025 0.48818597 0.7492597 0.682475
0.51953965 0.9845373 0.59776664 0.8686053 0.59185904 0.64168024 0.5538013 0.51464504
0.40821975 0.682903 0.6749524 0.7064502 0.6457307 0.59569633 0.47414944 0.7993316
0.5741683 0.72586805 0.73674166 0.64507276 0.7752719 0.8031994 0.51022446 0.57822317
0.54564714 0.24637493 0.72019595 0.5392073 0.97868633 0.6931264 0.6449924 0.688583
0.62021494 0.4492333 0.6487432 0.1534447 0.4743737 0.85517305 0.7999108 0.79893434
00000000: 5819 3e3f e32e d73e dd7d 3c3f b06e 3a3f
00000010: 7cf1 323f bb82 dc3e 273b 163f 18db 2b3f
00000020: 1154 343f 8e54 ea3e e4fc 503f 3ccc 333f
00000030: 5c2c 583f 433b c13e f9d9 d83e 4372 dc3e
00000040: 4c7a 3c3f 766d 293f e142 453f e16c ce3e
00000050: f682 503f 2c3d 753f a524 263f fdd9 273f
00000060: acc8 f73e c93f 4b3f b0a0 273f 790e fd3e
00000070: 5497 483f 53b8 583f 29ff 313f e965 013f
00000080: fd97 173f eda3 633f 1119 483f 492f 513f
00000090: e9f0 2b3f 8afe 1b3f 3f61 323f de4f 823e
000000a0: 8440 4f3f 69a1 1f3f 9457 2f3f f0bf c73e
000000b0: a380 3c3f ef21 693f a675 3a3f 99ec 5b3f
000000c0: 6e50 403f 6aa4 433e 17ff fb3e 6aa9 693f
000000d0: 5940 093f 7cde 433f 32c3 623f 10b8 ba3d
000000e0: 0078 6b3f 7298 0b3f c69e 383f 8479 293f
000000f0: e174 343f 21ae be3e a26f 333f 959c 153f
00000100: 8b5b 0d3f 3e81 f83e 0258 273f e945 f63e
00000110: eb84 2c3f 3d13 203f 61f7 063f 90f6 2b3f
00000120: 9683 463f bb80 453f ca22 4f3f ec9b 2f3f
00000130: 3602 d63e 174e 423f 3932 083f 11d8 3d3f
00000140: 463c 2d3f ee19 043f 2630 353f 2e9e 1d3f
00000150: 8b6c 4f3f 83f3 f93e 7ccf 3f3f aeb6 2e3f
00000160: 8d00 053f a30a 7c3f 3c07 193f eb5c 5e3f
00000170: 1384 173f 2845 243f ecc5 0d3f c7bf 033f
00000180: 2e02 d13e bbd2 2e3f aec9 2c3f ecd9 343f
00000190: 9b4e 253f 8e7f 183f b7c3 f23e ffa0 4c3f
000001a0: b2fc 123f 7dd2 393f 1a9b 3c3f 7d23 253f
000001b0: 3878 463f 7a9e 4d3f 129e 023f 6f06 143f
000001c0: 88af 0b3f b649 7c3e c35e 383f 7d09 0a3f
000001d0: 308b 7a3f bb70 313f 391e 253f fa46 303f
000001e0: 68c6 1e3f e801 e63e 0914 263f 9c20 1d3e
000001f0: 1ce1 f23e 9fec 5a3f f4c6 4c3f f686 4c3f

batch_norms.0.bias f4 [128]
-0.08445844 -0.03191616 0.042812303 0.058048233 -0.08169355 0.017512798 -0.056176573 0.012758618
-0.05607679 0.0064705107 0.04777074 -0.098795384 -0.049287256 -0.06188711 -0.031325847 -0.020683251
-0.011818234 -0.01891569 0.105253115 -0.0399902 -0.019972408 0.11358941 -0.047196236 0.0012300796
0.009925504 -0.053087194 -0.05041537 -0.018039627 -0.0472426 -0.06000759 0.081582434 -0.013914373
-0.0028272572 0.04681549 -0.011153648 0.033872083 -0.004825332 0.03529517 -0.038468506 -0.08383773
0.008461937 -0.011037045 -0.090179555 -0.09157827 0.0047768573 0.11272296 -0.06776617 0.08524926
-0.09435761 -0.0066962726 -0.016110372 0.09426112 -0.05850619 -0.091121145 0.095814176 -0.020919066
0.086027116 -0.03577703 0.030639788 -0.07917742 -0.07526344 0.0049674376 -0.055347614 0.017598957
-0.05730265 -0.016035026 -0.07075043 -0.09445066 0.06682065 0.115146056 0.02390236 -0.05653167
-0.08246891 0.04969651 -0.015440463 0.008877693 -0.051513482 -0.07223105 -0.003355521 -0.05087812
-0.05784628 -0.0041974257 0.011929414 -0.05485602 0.07928661 -0.018455746 -0.0030304238 -0.046867583
0.096814305 0.11580233 -0.0528036 0.10145871 -0.0056439587 -0.072672695 -0.05861908 -0.005768353
-0.14543188 0.04436808 -0.05028584 -0.014020952 0.021293389 -0.09318757 0.019745931 -0.015787726
0.02163084 -0.043871965 -0.04261995 0.0010271929 -0.076631695 -0.05881491 0.014677302 -0.002823013
0.023445494 0.00642046 -0.089922935 -0.0106412675 0.073197976 -0.05867726 0.026882544 -0.082492
-0.121561244 -0.04623812 0.023029875 0.009352664 -0.031204537 0.06264765 0.088630155 -0.07949293
00000000: 8cf8 acbd 85ba 02bd f45b 2f3d fcc3 6d3d
00000010: f34e a7bd 0077 8f3c 6819 66bd 8609 513c
00000020: c7b0 65bd 9406 d43b 40ab 433d 3c55 cabd
00000030: 6fe1 49bd 577d 7dbd 884f 00bd ec6f a9bc
00000040: 44a1 41bc 14f5 9abc f28e d73d c4cc 23bd
00000050: 2d9d a3bc 91a1 e83d d750 41bd 9f3a a13a
00000060: 959e 223c f571 59bd 5980 4ebd d7c7 93bc
00000070: 7581 41bd 85ca 75bd b114 a73d 1cf9 63bc
00000080: 8149 39bb 99c1 3f3d cabd 36bc 74bd 0a3d
00000090: d21d 9ebb ab91 103d 2791 1dbd 1eb3 abbd
000000a0: f0a3 0a3c b9d4 34bc 0fb0 b8bd 638d bbbd
000000b0: 2f87 9c3b 4cdb e63d fdc8 8abd 2a97 ae3d
000000c0: 903e c1bd 686c dbbb e6f9 83bc f90b c13d
000000d0: 30a4 6fbd b99d babd 393a c43d 765e abbc
000000e0: fc2e b03d ef8a 12bd 4b00 fb3c c527 a2bd
000000f0: b823 9abd e3c5 a23b 2eb4 62bd b02b 903c
00000100: 2fb6 6abd e35b 83bc 9ae5 90bd 596f c1bd
00000110: 44d9 883d b2d1 eb3d e2ce c33c c18d 67bd
00000120: 76e5 a8bd 918e 4b3d fff9 7cbc be73 113c
00000130: cdff 52bd dfed 93bd 4de8 5bbb 9365 50bd
00000140: 39f0 6cbd 8f8a 89bb 9773 433c b5b0 60bd
00000150: 0561 a23d 8130 97bc 139a 46bb 39f8 3fbd
00000160: 9446 c63d c629 ed3d 9648 58bd 96c9 cf3d
00000170: f5f0 b8bb 6cd5 94bd 8f1a 70bd 7404 bdbb
00000180: 18ec 14be 4ebb 353d 86f8 4dbd 23b8 65bc
00000190: 796f ae3c 20d9 bebd 38c2 a13c 4355 81bc
000001a0: 2933 b13c 17b3 33bd 4292 2ebd e0a2 863a
000001b0: 14f1 9cbd e7e7 70bd 1179 703c 4d02 39bb
000001c0: c410 c03c b962 d23b 8429 b8bd b658 2ebc
000001d0: d2e8 953d 9157 70bd c838 dc3c 91f1 a8bd
000001e0: 1af5 f8bd 2f64 3dbd 26a9 bc3c eb3b 193c
000001f0: a8a0 ffbc 694d 803d ba83 b53d 30cd a2bd

batch_norms.0.running_mean f4 [128]
-0.06945757 -0.086176656 0.1210743 -0.2264011 -0.1822653 0.05255133 0.043685947 0.26540145
-0.19684584 -0.27891666 -0.35819745 0.37527597 -0.06543321 -0.20843102 -0.18555935 -0.18296556
-0.1940594 -0.36851966 0.29831612 -0.13006783 -0.3746304 -0.27203155 -0.18287933 -0.19571458
-0.09032999 -0.21168733 0.050083883 0.21880801 0.22106647 -0.028076794 -0.3102065 -0.43750784
-0.27981246 -0.32203835 -0.17338176 -0.46941996 -0.2261471 -0.32412216 -0.013364141 -0.091298796
-0.2544625 -0.10069471 -0.32787624 0.2396133 -0.043919604 -0.20995796 -0.25878528 -0.38553974
-0.16026351 -0.021542957 -0.18097854 -0.12585597 -0.12270742 0.003398254 -0.1518433 0.12930578
-0.1219038 -0.098318174 -0.13133954 0.3284081 0.0030112176 0.07771724 0.04206236 -0.041669436
0.056748122 -0.12069221 -0.17663112 -0.033261895 -0.3004898 0.21013342 -0.19916835 0.14039692
0.004189279 0.10791835 -0.100104734 -0.44518805 0.0815015 0.21111703 0.05294745 -0.21855907
0.045427732 0.093028046 0.055199105 -0.38375175 -0.04714582 -0.10719607 -0.108424276 -0.3334338
-0.0067953654 -0.12619798 -0.09028694 -0.18537812 -0.31351447 -0.17256853 -0.304745 -0.00739153
0.17321394 -0.3500071 -0.42224503 -0.08000165 -0.1941573 0.10788402 -0.13579136 -0.2900264
-0.23653887 0.18897411 -0.13416006 -0.0336802 0.08148712 0.032428194 -0.20762806 -0.0884425
-0.2882731 -0.0048322724 0.10555833 -0.47379825 -0.2665825 -0.02914224 0.08712071 -0.29240972
0.15947528 0.03982049 0.08697563 -0.20600289 -0.15087117 -0.19783455 -0.36603305 -0.023741124
00000000: c53f 8ebd 637d b0bd cdf5 f73d b1d5 67be
00000010: c1a3 3abe 1040 573d 09f0 323d b3e2 873e
00000020: f591 49be 2ace 8ebe a865 b7be 2c24 c03e
00000030: d901 86bd f16e 55be 4503 3ebe 535b 3bbe
00000040: 82b7 46be 9cae bcbe e4bc 983e 8030 05be
00000050: 8ecf bfbe b847 8bbe b844 3bbe 6769 48be
00000060: eefe b8bd 90c4 58be c224 4d3d 350f 603e
00000070: 405f 623e 4e01 e6bc 63d3 9ebe 0701 e0be
00000080: 9443 8fbe 36e2 a4be fd8a 31be d057 f0be
00000090: 1b93 67be 57f3 a5be 45f5 5abc ddfa babd
000000a0: e948 82be 0739 cebd 65df a7be 305d 753e
000000b0: 0be5 33bd 38ff 56be 817f 84be 7765 c5be
000000c0: 1e1c 24be db7a b0bc 7052 39be 63e0 00be
000000d0: 074e fbbd 3eb5 5e3b cf7c 1bbe bc68 043e
000000e0: b3a8 f9bd 0a5b c9bd df7d 06be 1b25 a83e
000000f0: d957 453b 372a 9f3d 9549 2c3d 92ad 2abd
00000100: b870 683d 7a2d f7bd cade 34be a03d 08bd
00000110: cdd9 99be 372d 573e caf2 4bbe 36c4 0f3e
00000120: 3846 893b 4c04 dd3d b603 cdbd b0ef e3be
00000130: 42ea a63d 102f 583e 6ddf 583d f3cd 5fbe
00000140: 6e12 3a3d 7d85 be3d 7518 623d 1c7b c4be
00000150: fa1b 41bd 9d89 dbbd 8c0d debd d6b7 aabe
00000160: a8ab debb 0b3a 01be 5ce8 b8bd c3d3 3dbe
00000170: f884 a0be ceb5 30be 8907 9cbe a634 f2bb
00000180: ff5e 313e 2134 b3be 8030 d8be e8d7 a3bd
00000190: 2cd1 46be 4cf2 dc3d e40c 0bbe 577e 94be
000001a0: 3f37 72be 6e82 413e 4161 09be 40f4 09bd
000001b0: b8e2 a63d 6dd3 043d 739c 54be 5721 b5bd
000001c0: 8898 93be 0a58 9ebb f72e d83d af95 f2be
000001d0: 807d 88be b5bb eebc 586c b23d bab6 95be
000001e0: 7d4d 233e cf1a 233d 4720 b23d 6cf2 52be
000001f0: f97d 1abe 2495 4abe af68 bbbe bf7c c2bc

batch_norms.0.running_var f4 [128]
0.0067073368 0.012222384 0.018695658 0.015182554 0.0182377 0.0053635477 0.020115977 0.03250586
0.007938757 0.017599594 0.00843773 0.013881085 0.0067881756 0.010676301 0.012405231 0.005410441
0.010960224 0.017951969 0.025082324 0.0051130033 0.009439667 0.009663228 0.016934091 0.013621424
0.020268502 0.008813143 0.015058804 0.022451004 0.03058787 0.021039417 0.0067391153 0.015735472
0.0113203665 0.0167589 0.014725622 0.0194108 0.010130763 0.025887683 0.00858986 0.019298263
0.016244773 0.02040021 0.014701141 0.018163905 0.005131175 0.012648431 0.0092079025 0.020660434
0.025797514 0.0076119388 0.008308942 0.015490865 0.0065791598 0.018167801 0.0036142077 0.016926732
0.0063406895 0.023515463 0.012153033 0.027896002 0.015927128 0.0108346585 0.01420841 0.0030620582
0.013539203 0.008744081 0.015993707 0.011043837 0.017373966 0.017264409 0.017148852 0.014340293
0.014084702 0.004387164 0.022849223 0.014601639 0.011510254 0.017238151 0.013513709 0.0165229
0.015752016 0.015163543 0.017756376 0.018136429 0.0064130477 0.005800698 0.007600869 0.0138064185
0.00916101 0.018526103 0.011768948 0.003281927 0.010677137 0.006349269 0.014896035 0.0037685868
0.01117778 0.03369923 0.025466412 0.006932635 0.016545132 0.010206316 0.027113656 0.022526547
0.014555012 0.016134398 0.026706392 0.0027487301 0.018868 0.016720857 0.010723398 0.009053635
0.012713943 0.013682847 0.013407889 0.015767409 0.008666324 0.003119649 0.011533512 0.012159437
0.01076103 0.021008732 0.031130835 0.013604352 0.00651482 0.0057282792 0.0197269 0.00334539
00000000: 38c9 db3b 6540 483c a327 993c 3fc0 783c
00000010: 3b67 953c b3c0 af3b 43ca a43c dd24 053d
00000020: 8f11 023c 062d 903c 683e 0a3c 7e6d 633c
00000030: 586f de3b a7eb 2e3c 4f3f 4b3c 124a b13b
00000040: 8392 333c 0210 933c 7279 cd3c fb8a a73b
00000050: d5a8 1a3c 8452 1e3c 5db9 8a3c 652c 5f3c
00000060: 210a a63c 0065 103c 34b9 763c 2beb b73c
00000070: 6a93 fa3c db5a ac3c ccd3 dc3b ade7 803c
00000080: 0f79 393c f649 893c bc43 713c 6603 9f3c
00000090: 80fb 253c 6812 d43c 7cbc 0c3c 6417 9e3c
000000a0: c213 853c 571e a73c 0edd 703c 78cc 943c
000000b0: 6a23 a83b 5d3b 4f3c bedc 163c 1240 a93c
000000c0: 4f55 d33c 926d f93b 3b22 083c 66cd 7d3c
000000d0: fe95 d73b a4d4 943c 58dc 6c3b eea9 8a3c
000000e0: 8fc5 cf3b 80a3 c03c 841d 473c 2886 e43c
000000f0: 9c79 823c da83 313c 64ca 683c d0ac 483b
00000100: 89d3 5d3c 5543 0f3c 3c05 833c 36f1 343c
00000110: d953 8e3c 176e 8d3c c07b 8c3c 8cf3 6a3c
00000120: 86c3 663c 33c2 8f3b 4b2e bb3c b63b 6f3c
00000130: 8195 3c3c 0637 8d3c 9b68 5d3c 085b 873c
00000140: 5f0a 813c 8270 783c d275 913c d992 943c
00000150: 8b24 d23b c813 be3b b610 f93b 5134 623c
00000160: 1018 163c 0ec4 973c 8cd2 403c 9915 573b
00000170: 29ef 2e3c 870d d03b 800e 743c 65fa 763b
00000180: 0223 373c 3408 0a3d f09e d03c 282b e33b
00000190: a889 873c 6438 273c 751d de3c 9889 b83c
000001a0: 2578 6e3c 492c 843c 5dc7 da3c 0a24 343b
000001b0: 1091 9a3c 2efa 883c 31b1 2f3c b355 143c
000001c0: 244e 503c 052e 603c c3ac 5b3c a72a 813c
000001d0: 33fd 0d3c 0673 4c3b 0ef7 3c3c 6038 473c
000001e0: 084f 303c 811a ac3c 1806 ff3c cae4 5e3c
000001f0: 457a d53b 4ab4 bb3b 4f9a a13c 553e 5b3b

batch_norms.1.weight f4 [64]
0.5897292 0.6881826 0.6263601 0.67461115 0.15696387 0.664891 0.5348151 0.62818784
0.5796675 0.5931166 0.6030515 0.66735613 0.62276155 0.6078098 0.5732808 0.5279307
0.46044347 0.6058778 0.6116189 0.5707441 0.5857116 0.63445544 0.63595265 0.23448144
0.6280311 0.58111507 0.63791585 0.6237395 0.6398288 0.4627951 0.35730988 0.66266567
0.6721479 0.55532604 0.61793584 0.618681 0.5926773 0.694696 0.5776304 0.5928673
0.6138086 0.6481823 0.562433 0.61568177 0.4758445 0.64695364 0.5809131 0.63316864
0.5469298 0.57295907 0.64470327 0.62199074 0.68448704 0.6079628 0.6042193 0.6479219
0.60886794 0.40906912 0.45007014 0.643748 0.6271337 0.59494054 0.46973795 0.6965789
00000000: 7ef8 163f bc2c 303f 2359 203f 51b3 2c3f
00000010: 23bb 203e 4c36 2a3f a4e9 083f ebd0 203f
00000020: 1765 143f 7dd6 173f 9561 1a3f dad7 2a3f
00000030: 4d6d 1f3f 6c99 1b3f 88c2 123f 7726 073f
00000040: 3fbf eb3e cf1a 1b3f 0e93 1c3f 491c 123f
00000050: 32f1 153f ac6b 223f cbcd 223f e71b 703e
00000060: a5c6 203f f5c3 143f 744e 233f 64ad 1f3f
00000070: d2cb 233f 7bf3 ec3e 52f1 b63e 75a4 293f
00000080: e311 2c3f d929 0e3f 0b31 1e3f e161 1e3f
00000090: b3b9 173f 99d7 313f 96df 133f 27c6 173f
000000a0: 8f22 1d3f 46ef 253f 9cfb 0f3f 529d 1d3f
000000b0: e4a1 f33e c19e 253f b9b6 143f 5717 223f
000000c0: 9703 0c3f 72ad 123f 460b 253f c93a 1f3f
000000d0: 8b3a 2f3f 73a3 1b3f 1eae 1a3f 36de 253f
000000e0: c5de 1b3f 8271 d13e 986f e63e abcc 243f
000000f0: d68b 203f 064e 183f 7e81 f03e ff52 323f

batch_norms.1.bias f4 [64]
-0.11124109 -0.033961903 0.025800355 0.01632122 0.35643297 -0.0057965103 -0.055646796 0.10469043
-0.08519412 0.12775758 -0.092576645 0.008456185 0.08055362 -0.0018557156 0.062352408 -0.11947177
-0.11924283 -0.03566838 -0.059204154 -0.04306283 0.07353731 0.01272264 0.049591776 -0.30242997
-0.002011851 0.090615846 -0.06442619 0.0012937473 -0.05564859 0.11141772 0.28330472 -0.085773736
0.02117666 0.17765418 -0.007107371 0.0798061 0.031025372 -0.059979048 0.0010500972 0.106149316
-0.034068674 -0.014670179 -0.08781707 0.08254447 -0.1265355 -0.009589621 -0.005797737 -0.0012058007
-0.084387876 0.13368836 -0.012754407 -0.034907956 0.00031918392 0.008772126 -0.03907613 0.029144095
-0.062111136 0.2688664 0.26637268 0.055957884 -0.0047758534 -0.00018219606 0.09856906 0.010108634
00000000: 5ed2 e3bd a31b 0bbd 445b d33c 14b4 853c
00000010: 627e b63e a7f0 bdbb e5ed 63bd f067 d63d
00000020: 417a aebd e2d2 023e d398 bdbd d08b 0a3c
00000030: 4cf9 a43d 7c3b f3ba 3d65 7f3d 9ead f4bd
00000040: 9635 f4bd 0219 12bd 0e80 72bd a662 30bd
00000050: bb9a 963d 9f72 503c bf20 4b3d 1ad8 9abe
00000060: 42d9 03bb cd94 b93d e1f1 83bd f592 a93a
00000070: c7ef 63bd f92e e43d 510d 913e 24aa afbd
00000080: ad7a ad3c faea 353e f3e4 e8bb 6171 a33d
00000090: ec28 fe3c 97ac 75bd 6aa3 893a d064 d93d
000000a0: 988b 0bbd 315b 70bc 70d9 b3bd 130d a93d
000000b0: 8692 01be c91d 1dbc f1fa bdbb f50b 9eba
000000c0: 8dd3 acbd 9ae5 083e dcf7 50bc a5fb 0ebd
000000d0: 2458 a739 f7b8 0f3c 4b0e 20bd 99bf ee3c
000000e0: 3f68 7ebd dba8 893e 0062 883e 1834 653d
000000f0: c37e 9cbb e20b 3fb9 93de c93d af9e 253c

batch_norms.1.running_mean f4 [64]
-0.91947764 -0.6004917 -1.1009456 -1.3566728 0.632987 -0.9700718 -0.26407188 -1.2617403
-0.98518294 0.5492774 -0.54251635 -0.87670493 -0.8611182 0.43874565 0.67304957 0.9374346
0.58534956 0.6855548 -0.7845688 0.80124754 0.5813349 -0.8781232 0.74604017 -0.23477818
-0.81056005 -0.7520349 0.22504652 -0.7815535 0.94370437 -0.4960692 -0.2419633 -1.0546415
0.95729953 -0.35142446 -0.89064753 0.89053124 -0.6037293 0.9609299 0.843823 0.7742758
-0.5549055 -0.5532786 0.6874915 0.78399664 0.68966526 0.86590046 0.81059813 -1.0327632
-0.9016888 -1.1713188 -0.7598345 0.8919179 0.9016849 -0.6296627 1.039766 -0.8073137
-1.1379308 0.58860093 -0.7983715 0.8986687 0.69535565 -0.9254739 -0.3131855 -0.9847371
00000000: e362 6bbf d3b9 19bf c9eb 8cbf 74a7 adbf
00000010: 700b 223f a056 78bf 6e34 87be b580 a1bf
00000020: f334 7cbf 729d 0c3f 5ae2 0abf bc6f 60bf
00000030: 3e72 5cbf 45a3 e03e fa4c 2c3f b7fb 6f3f
00000040: 78d9 153f 8580 2f3f 80d9 48bf 8f1e 4d3f
00000050: 5dd2 143f afcc 60bf 7dfc 3e3f b169 70be
00000060: dd80 4fbf 5c85 40bf 9872 663e e413 48bf
00000070: 9c96 713f c8fc fdbe 3ac5 77be 7efe 86bf
00000080: 9511 753f e8ed b3be 7a01 64bf dbf9 633f
00000090: 018e 1abf 80ff 753f c904 583f f036 463f
000000a0: 490e 0ebf aba3 0dbf 71ff 2f3f 01b4 483f
000000b0: e78d 303f a7ab 5d3f 5c83 4f3f 9631 84bf
000000c0: 14d5 66bf c6ed 95bf 8484 42bf bb54 643f
000000d0: d2d4 663f 9331 21bf 0d17 853f 1cac 4ebf
000000e0: b7a7 91bf 8dae 163f 1362 4cbf 270f 663f
000000f0: d402 323f dceb 6cbf da59 a0be bb17 7cbf

batch_norms.1.running_var f4 [64]
2.0687103 2.1182508 2.483648 2.537063 1.38755 2.0541894 0.33372214 3.3119361
1.7306944 1.8030852 1.8160117 1.7578747 2.0568888 0.95964557 1.8856539 1.4896121
1.2461072 1.6140412 1.539671 1.3292317 1.3964126 2.099281 2.0183136 0.96234393
1.3178556 1.6696358 1.0918777 1.6247514 2.3687558 1.8592435 1.0360355 2.638638
2.8116946 0.76172346 2.0446506 1.5984693 1.3043593 1.6567333 1.8563149 2.6954782
1.4776866 1.7081107 1.6902598 2.326387 1.7690356 1.84406 1.6304688 1.856887
1.4006366 2.2146864 1.8701714 2.0398302 2.3598473 1.65285 2.0593429 1.749791
1.2565465 2.1575525 1.2865736 1.8366634 1.9067143 1.3754561 0.627385 2.2212749
00000000: c065 0440 6c91 0740 17f4 1e40 3d5f 2240
00000010: 3d9b b13f d777 0340 a1dd aa3e c3f6 5340
00000020: 6587 dd3f 7fcb e63f 1273 e83f 0a02 e13f
00000030: 11a4 0340 55ab 753f 1b5d f13f 9cab be3f
00000040: 7180 9f3f e798 ce3f f013 c53f 4424 aa3f
00000050: a6bd b23f 9f5a 0640 0d2c 0140 2c5c 763f
00000060: 7eaf a83f a0b6 d53f a6c2 8b3f dbf7 cf3f
00000070: b299 1740 b1fb ed3f d09c 843f 72df 2840
00000080: cef2 3340 4f00 433f 8edb 0240 a49a cc3f
00000090: 3ff5 a63f d60f d43f ba9b ed3f b782 2c40
000000a0: d624 bd3f 5fa3 da3f 6f5a d83f 86e3 1440
000000b0: c26f e23f 280a ec3f 34b3 d03f 79ae ed3f
000000c0: 0f48 b33f 6cbd 0d40 c761 ef3f 948c 0240
000000d0: bd07 1740 9790 d33f 46cc 0340 27f9 df3f
000000e0: 84d6 a03f 5715 0a40 72ae a43f c917 eb3f
000000f0: 370f f43f f20e b03f 4e9c 203f 5e29 0e40

interaction_layers.0.bias f4 [128]
1.5609718e-06 -8.3447225e-07 1.0025894e-06 -1.365248e-06 9.2465075e-07 -2.5906127e-06 1.2100313e-06 5.3719308e-08
-1.3474978e-07 9.123475e-07 4.497555e-06 -5.369397e-06 -1.6887797e-07 2.809908e-06 1.2499429e-06 2.358818e-06
2.8891196e-07 -1.4351964e-06 1.2552495e-06 1.2492757e-06 4.5320286e-07 -3.3279457e-06 -1.9083575e-06 1.1368655e-07
-1.4043434e-06 2.4358405e-07 5.439259e-07 1.3839576e-06 -4.6944953e-07 -8.469363e-07 -4.001621e-06 -1.0389732e-06
3.2871367e-06 -1.3764748e-06 8.2811806e-07 2.215321e-06 4.8369975e-06 -8.978967e-07 -6.3024635e-07 -1.4769942e-07
9.0879e-07 8.5794807e-07 3.4598604e-06 -4.6228752e-07 6.735555e-07 -1.1372332e-06 7.7631535e-07 3.338166e-06
1.1670915e-06 -3.8324967e-07 -3.0942629e-06 4.2795755e-06 1.497797e-06 4.0273702e-07 7.2661587e-06 -5.988529e-08
-2.212925e-06 4.1654948e-07 6.063329e-07 -1.3589693e-06 7.154805e-07 5.111465e-07 3.277523e-07 -1.7926594e-07
-4.175575e-07 4.6021887e-06 -2.629787e-06 2.394275e-06 -1.6275186e-06 3.4056536e-06 3.8031628e-06 9.951251e-09
-4.883541e-06 -2.9267708e-06 1.2905126e-06 1.5829091e-06 1.0405722e-06 4.6317652e-07 4.503203e-08 2.4632989e-06
1.3263124e-06 -1.9687152e-06 -1.050091e-07 -2.8686347e-07 9.966751e-08 -1.6232666e-07 3.5798444e-06 -1.2737207e-06
1.1931004e-06 9.419775e-07 -2.8905404e-06 -1.32729265e-05 5.428984e-07 1.0049785e-06 -5.354483e-07 1.0510017e-06
4.8227786e-08 1.9656282e-07 1.6301107e-06 -2.1157848e-06 -7.834048e-07 -3.6224324e-07 7.245467e-08 -3.2936669e-07
1.3722894e-06 7.718681e-06 2.824075e-07 -2.605236e-07 1.2153602e-06 -1.848596e-07 -1.0627276e-05 3.4284963e-07
3.9020906e-06 -3.994885e-07 1.9598167e-06 -3.0095744e-06 1.0840397e-05 3.610095e-06 -3.3556046e-06 -2.3518744e-06
-2.2443235e-06 -2.3575653e-07 1.4490005e-06 -1.0061606e-06 3.1229965e-06 2.9444082e-06 -3.090148e-07 -5.295631e-07
00000000: 9582 d135 7f00 60b5 b690 8635 903d b7b5
00000010: 8435 7835 63da 2db6 5c68 a235 01b9 6633
00000020: bdaf 10b4 0be8 7435 b4e9 9636 c52a b4b6
00000030: d354 35b4 da91 3c36 b6c3 a735 2f4c 1e36
00000040: c21b 9b34 f9a0 c0b5 0b7a a835 c9ac a735
00000050: ba4f f334 ac55 5fb6 5511 00b6 d823 f433
00000060: df7c bcb5 f0c5 8234 4e02 1235 6cc0 b935
00000070: a708 fcb4 0559 63b5 aa45 86b6 d972 8bb5
00000080: 9498 5c36 50bf b8b5 d74b 5e35 edaa 1436
00000090: 7e4d a236 fe06 71b5 332e 29b5 4f97 1eb4
000000a0: 93f3 7335 be4d 6635 f32f 6836 5030 f8b4
000000b0: 62ce 3435 09a3 98b5 fc63 5035 4105 6036
000000c0: f5a4 9c35 6fc1 cdb4 08a7 4fb6 4699 8f36
000000d0: ea07 c935 c137 d834 d4cf f336 499a 80b3
000000e0: c381 14b6 20a2 df34 e1c2 2235 d465 b6b5
000000f0: 720f 4035 b835 0935 eff5 af34 3f7c 40b4
00000100: aa2c e0b4 806c 9a36 667b 30b6 55ad 2036
00000110: 1d71 dab5 af8c 6436 d739 7f36 11f6 2a32
00000120: 4cdd a3b6 8a69 44b6 ad35 ad35 5874 d435
00000130: caa9 8b35 7faa f834 3e69 4133 274f 2536
00000140: bf03 b235 451e 04b6 5d81 e1b3 3702 9ab4
00000150: cb08 d633 034c 2eb4 423d 7036 b6f4 aab5
00000160: 9e22 a035 33dc 7c35 1bfb 41b6 c9ae 5eb7
00000170: b2bb 1135 cce2 8635 babb 0fb5 2510 8d35
00000180: 0323 4f33 c70e 5334 2dca da35 e8fc 0db6
00000190: 2b4b 52b5 557a c2b4 6098 9b33 d0d3 b0b4
000001a0: 812f b835 7c7f 0137 cb9d 9734 17de 8bb4
000001b0: 751f a335 d27d 46b4 ce4b 32b7 e510 b834
000001c0: b4ee 8236 4879 d6b4 6585 0336 18f8 49b6
000001d0: 27df 3537 f644 7236 d930 61b6 e5d4 1db6
000001e0: 2f9d 16b6 4324 7db4 477b c235 6a0b 87b5
000001f0: ac94 5136 8c98 4536 ace6 a5b4 4d27 0eb5

interaction_layers.0.lin.weight f4 [128, 15]
-0.10584584 0.09814814 -0.10496668 0.000911615 -0.17516164 0.02451356 0.070088886 0.041840322
-0.025555074 0.14094247 -0.111939475 0.009242296 -0.026538456 -0.04653152 -0.11286927 -0.18934669
0.15843804 0.1264823 -0.0552532 -0.041366015 -0.08236586 0.056167506 -0.11769124 -0.0009928922
-0.05564659 0.021176187 0.014147087 0.13025819 0.1396724 -0.08814511 0.11380971 -0.19592439
-0.025717935 0.07136014 -0.017565748 -0.039335117 -0.04394158 0.059013218 -0.107239224 0.04485423
-0.038440473 0.042019453 0.04346919 -0.15026288 0.0687515 -0.055392817 0.14435858 0.06771598
-0.123074606 -0.09408407 -0.06445942 0.023520255 -0.03077692 0.09201268 -0.0654544 -0.04334928
-0.04882851 -0.090252444 0.13903522 -0.03370814 -0.101306185 0.088665426 0.093100704 -0.14709575
-0.035448875 -0.021439964 0.12571007 -0.026960028 -0.07244586 -0.051579706 0.01960459 -0.079209976
-0.06951597 0.0038302161 0.18482906 0.06338755 -0.009509869 -0.06366389 -0.0978892 -0.008825335
-0.06327609 0.027276782 -0.15028134 -0.09248406 0.0069146613 0.053219453 -0.061078127 0.15443395
-0.1260775 -0.029264716 0.083590016 0.230053 0.110836886 -0.14465004 0.040425707 0.06755621
0.102191076 -0.053059116 -0.015110639 -0.046023402 0.108002216 0.011393735 -0.13358042 0.07250296
-0.08342902 0.118163176 -0.10517234 -0.17230554 -0.03299583 0.15387715 -0.1462907 0.11035555
-0.041310783 0.012473623 0.09272492 -0.0748566 -0.007560984 0.092349514 -0.13286985 -0.0018559464
-0.06487726 0.13855763 0.10074122 -0.09493743 -0.07726338 0.044978864 -0.03908066 0.031621743
-0.07032036 -0.102745704 -0.06421715 -0.023928717 0.016966859 -0.031886376 0.049237154 -0.06712843
0.23468134 0.049845032 -0.22747447 0.012356756 0.14480694 -0.14445016 -0.10913111 0.045108467
0.07227387 -0.01795487 -0.05751908 -0.14234862 0.013814578 -0.011556867 -0.13281041 0.077459976
0.07539447 -0.0066773877 -0.105183505 -0.1424018 -0.020871902 -0.15169664 0.0001365476 -0.035676558
-0.07260692 -0.014420371 -0.10457365 0.035585873 -0.09574642 0.03492037 -0.17072669 -0.039137624
0.07143394 -0.0065493267 -0.0735632 0.07714385 0.14657359 0.024416467 0.14802581 0.055453844
0.12934403 0.0706351 0.14672893 -0.013628035 0.019098707 0.018405408 0.23635551 -0.13776168
-0.11321251 -0.038127255 0.0006135606 0.13305086 -0.079044655 -0.06532882 0.008953863 -0.0095770005
0.014294913 -0.03622467 -0.035972327 0.036828402 0.062130377 0.14831607 -0.13332778 -0.21090494
-0.09293638 -0.036102194 -0.0962879 -0.06467658 0.15317903 -0.04412664 0.019926349 -0.21895696
0.04234366 0.078988515 -0.009368662 0.24563996 0.13135146 0.01677977 -0.075810164 0.011724181
0.009727966 -0.081826985 0.02220287 -0.053989112 -0.16450508 -0.06482359 -0.097700104 0.06817762
-0.044057555 -0.120042264 -0.020881917 0.20058204 0.0050628786 -0.076358266 -0.10191485 0.02426461
-0.036508594 -0.012989247 -0.018891731 -0.02732589 0.020248314 -0.05893247 0.047398668 -0.019266335
-0.110604405 -0.09414671 0.22553644 -0.14361642 -0.10105083 0.12088058 0.13632621 -0.040097453
-0.020206645 0.0053464915 0.06750603 0.022585277 -0.12038687 -0.09001875 -0.06771104 -0.1477603
00000000: b4c5 d8bd e401 c93d c5f8 d6bd 72f9 6e3a
00000010: 935d 33be a9d0 c83c c38a 8f3d c260 2b3d
00000020: e058 d1bc 3953 103e 8640 e5bd 006d 173c
00000030: 2d67 d9bc d697 3ebd 0128 e7bd 19e4 41be
00000040: 953d 223e 9384 013e 2e51 62bd 696f 29bd
00000050: 6faf a8bd e60f 663d 1b08 f1bd ef23 82ba
00000060: aeed 63bd af79 ad3c 2fc9 673c 6762 053e
00000070: 4806 0f3e 6c85 b4bd 1115 e93d 67a0 48be
00000080: 6bae d2bc 4425 923d 0be6 8fbc dc1d 21bd
00000090: 16fc 33bd d8b7 713d 3da0 dbbd 12b9 373d
000000a0: c273 1dbd 971c 2c3d c00c 323d 83de 19be
000000b0: 96cd 8c3d 94e3 62bd bcd2 133e adae 8a3d
000000c0: 8a0e fcbd 26af c0bd 4d03 84bd 8dad c03c
000000d0: e11f fcbc 2571 bc3d f50c 86bd 048f 31bd
000000e0: 6700 48bd 46d6 b8bd 405f 0e3e 8c11 0abd
000000f0: 9e79 cfbd 3896 b53d 95ab be3d 45a0 16be
00000100: d732 11bd dda2 afbc 24ba 003e 47db dcbc
00000110: 7f5e 94bd 3e45 53bd ce99 a03c d738 a2bd
00000120: 645e 8ebd 5d04 7b3b d443 3d3e 55d1 813d
00000130: 48cf 1bbc 3762 82bd 227a c8bd 2398 10bc
00000140: e596 81bd 8f73 df3c 5ae3 19be 4868 bdbd
00000150: 6294 e23b a4fc 593d 0f2d 7abd ef23 1e3e
00000160: 761a 01be 8fbc efbc 3e31 ab3d 0393 6b3e
00000170: 73fe e23d 241f 14be 6d95 253d e95a 8a3d
00000180: 8e49 d13d 8454 59bd 9d92 77bc 0983 3cbd
00000190: 4430 dd3d caac 3a3c 4ec9 08be 6f7c 943d
000001a0: d6dc aabd 89ff f13d 9964 d7bd dd70 30be
000001b0: a326 07bd f991 1d3e 3bcd 15be 1702 e23d
000001c0: 7f35 29bd 2b5e 4c3c 90e6 bd3d 6b4e 99bd
000001d0: 22c2 f7bb be21 bd3d 090f 08be 3a43 f3ba
000001e0: 5ede 84bd 0de2 0d3e 6a51 ce3d 8e6e c2bd
000001f0: 433c 9ebd c23b 383d 0b13 20bd cd85 013d
00000200: 1f04 90bd 576c d2bd 4884 83bd 2806 c4bc
00000210: 15fe 8a3c 4a9b 02bd e6ac 493d a17a 89bd
00000220: 4e50 703e 4e2a 4c3d 11ef 68be fe73 4a3c
00000230: 4548 143e beea 13be 2280 dfbd a8c3 383d
00000240: 5304 943d 1716 93bc 2099 6bbd d6c3 11be
00000250: 8a56 623c 0359 3dbc 74ff 07be 56a3 9e3d
00000260: 6a68 9a3d fdcd dabb 736a d7bd c7d1 11be
00000270: 8dfb aabc 5d56 1bbe 382e 0f39 9521 12bd
00000280: f0b2 94bd 6b43 6cbc b62a d6bd 7ec2 113d
00000290: b316 c4bd a908 0f3d fad2 2ebe c64e 20bd
000002a0: f54b 923d bc9b d6bb 4ea8 96bd 98fd 9d3d
000002b0: 6317 163e 0b05 c83c 1494 173e 9223 633d
000002c0: c372 043e 23a9 903d 1c40 163e 1f48 5fbc
000002d0: e474 9c3c f0c6 963c 2e07 723e 6611 0dbe
000002e0: f6db e7bd 532b 1cbd 5bd7 203a 7c3e 083e
000002f0: 2ae2 a1bd 1ecb 85bd 39b3 123c dae8 1cbc
00000300: 3635 6a3c 5260 14bd b857 13bd 61d9 163d
00000310: 6c7c 7e3d 2be0 173e 1487 08be 77f7 57be
00000320: 6e55 bebd e5df 13bd 9732 c5bd 2875 84bd
00000330: f7da 1c3e 23be 34bd 953c a33c 4136 60be
00000340: 8c70 2d3d bbc4 a13d 047f 19bc 0b89 7b3e
00000350: ff80 063e ba75 893c 5c42 9bbd c716 403c
00000360: 0c62 1f3c e894 a7bd cbe2 b53c b023 5dbd
00000370: 0574 28be 3bc2 84bd fe16 c8bd b5a0 8b3d
00000380: b275 34bd b8d8 f5bd 8e10 abbc 6165 4d3e
00000390: 81e6 a53b b961 9cbd bcb8 d0bd 93c6 c63c
000003a0: 098a 15bd dad0 54bc d5c2 9abc 8bda dfbc
000003b0: cbdf a53c 2c63 71bd 1b25 423d 6fd4 9dbc
000003c0: 9084 e2bd fecf c0bd 06f3 663e 2f10 13be
000003d0: bdf3 cebd 3d90 f73d 1999 0b3e 3a3d 24bd
000003e0: 6888 a5bc 9f31 af3b 9a40 8a3d c204 b93c
000003f0: 648d f6bd c05b b8bd 16ac 8abd 7a4e 17be

interaction_layers.1.bias f4 [64]
4.0918448e-07 1.193363e-06 -6.121462e-07 5.1495965e-07 2.5602062e-06 1.0147653e-06 -9.596466e-07 -1.377573e-07
1.8584997e-06 -4.5306967e-07 9.198064e-07 1.964248e-08 -5.4621876e-07 -7.146832e-07 -2.6742717e-07 1.7027409e-06
5.8898047e-07 4.4881535e-08 1.2226967e-06 3.4960874e-07 -1.5870119e-06 -4.825593e-07 -4.7206697e-07 1.5434725e-06
9.5134095e-07 1.2955584e-06 2.587762e-07 -7.684548e-07 -1.3075609e-07 -6.9537714e-07 -8.9499315e-07 5.5159575e-07
-7.6659995e-07 -3.6720671e-06 -2.8915986e-07 -1.1378976e-06 -1.2902929e-06 2.2543192e-07 -1.8315333e-07 -5.9667764e-07
1.2563565e-06 -7.70191e-07 -1.531003e-07 6.8610433e-07 -1.4765891e-07 -9.549487e-07 -5.033643e-08 6.293631e-07
6.161134e-07 4.678272e-07 9.140903e-07 9.95596e-07 8.147496e-07 -3.4208338e-07 3.2651005e-07 8.3341615e-07
1.1914279e-06 -1.1002344e-08 -2.760478e-06 -2.6085274e-07 4.4348448e-07 7.9516127e-07 -1.3822763e-06 -8.3210574e-07
00000000: e3ad db34 a42b a035 5e52 24b5 c23b 0a35
00000010: 02d0 2b36 1233 8835 35cd 80b5 70ea 13b4
00000020: 9071 f935 6c3d f3b4 9de8 7635 45ba a832
00000030: de9f 12b5 a8d8 3fb5 e992 8fb4 bb89 e435
00000040: 6e1a 1e35 c5c3 4033 8a1b a435 dcb1 bb34
00000050: 5001 d5b5 3989 01b5 6470 fdb4 5029 cf35
00000060: a75f 7f35 0ce3 ad35 eeed 8a34 d047 4eb5
00000070: f665 0cb4 f4a9 3ab5 763f 70b5 5f11 1435
00000080: 59c8 4db5 a26d 76b6 d43d 9bb4 ddb9 98b5
00000090: 202e adb5 410e 7234 cea8 44b4 602b 20b5
000000a0: 15a0 a835 1fbf 4eb5 e463 24b4 bb2c 3835
000000b0: 2c8c 1eb4 ca2b 80b5 7d31 58b3 81f1 2835
000000c0: fe62 2535 ae29 fb34 cf5f 7535 6ba0 8535
000000d0: 2bb5 5a35 95a7 b7b4 334b af34 ecb7 5f35
000000e0: 27e9 9f35 d204 3db2 a740 39b6 540b 8cb4
000000f0: 0b18 ee34 1173 5535 a786 b9b5 df5d 5fb5

interaction_layers.1.lin.weight f4 [64, 128]
0.054713797 -0.0052568414 0.029997483 -0.24094294 0.08199979 0.015747484 0.14002126 0.0171934
-0.061042633 -0.013224659 -0.014145031 0.011847141 0.013117385 -0.14153908 -0.16471754 -0.050623685
0.17837375 -0.0779537 0.114809066 0.081088185 -0.11535327 -0.20611687 0.089120075 -0.057876725
-0.17201123 -0.010085572 -0.07330895 0.11843457 -0.08303642 -0.049340222 -0.0065064942 -0.15531716
-0.0816664 -0.1396587 -0.23631388 -0.06384954 -0.014061802 -0.12332174 -0.07829354 -0.027519256
-0.069988094 -0.034614302 0.017014716 0.061015535 0.0545537 -0.09216929 -0.06385234 -0.13785696
0.029487148 -0.005919591 -0.023983123 -0.0638428 0.041843854 0.070961855 -0.08562783 -0.0016125703
-0.009466816 -0.08045142 -0.14910702 -0.001996709 -0.05581893 0.11511215 0.07189606 -0.029580511
0.066484995 -0.11106363 -0.005075601 0.04738097 -0.06969622 0.1788304 0.016492365 -0.10106949
0.027774973 0.08175497 -0.061952695 -0.074872024 0.0345732 0.010326346 0.12296273 -0.046600003
-0.06492687 0.06774276 0.058108 0.14141694 -0.142555 -0.079553396 0.03439417 0.042213
0.17801434 -0.037444297 -0.010966851 0.015508563 -0.15996687 -0.061032765 0.011086821 -0.0052003576
-0.021777442 -0.21655875 -0.0973241 0.07970698 -0.12766571 -0.03286504 -0.023619646 -0.13704503
-0.02658948 0.046480287 0.011930192 -0.047317166 0.030465208 0.017502353 -0.107312396 0.038447965
-0.071196675 0.044650245 -0.052977774 -0.15725091 -0.12897947 -0.058988016 0.028683761 -0.14760026
0.038020276 0.0008328117 0.10758819 0.005788824 -0.093222044 -0.012824761 -0.035842255 -0.030025564
-0.15655889 -0.15017892 0.20146485 -0.07131455 -0.06835975 -0.012468632 -0.19753452 0.1568682
-0.029648092 -0.19858402 -0.081403546 -0.010993245 0.05756335 -0.02328203 -0.07558141 -0.090725474
-0.04718882 -0.0658669 0.045299314 -0.049023796 0.03789786 -0.08132036 0.03712785 -0.19125025
0.18696627 0.010896036 0.014170096 0.093620256 0.06763632 0.043163866 0.07283466 0.073878065
-0.056575555 -0.07013781 -0.17597036 -0.06335761 -0.11136957 -0.029514167 0.09775481 0.07589747
-0.028727226 0.13684615 0.107367896 0.024724063 -0.13658231 -0.112419836 -0.15199342 -0.12311561
-0.0059527108 -0.031817086 -0.15365794 -0.19989023 -0.049235392 0.0599187 0.28156915 0.05762049
-0.043352965 0.019959249 -0.10309216 0.12677774 -0.05011887 -0.03330535 0.01438567 -0.026911594
0.024443839 -0.12944 0.026117457 -0.05965878 -0.10272617 -0.106898226 -0.11066549 0.15205118
-0.053656958 -0.054878887 0.10074383 -0.13678327 0.0934435 0.035947286 -0.05450148 -0.097751126
0.07736896 0.123151265 -0.058837704 -0.11630782 -0.12297133 0.0729621 0.06424416 -0.068286434
0.036327947 -0.035743088 -0.09822881 0.06334577 -0.14938308 -0.07008431 0.09632758 0.1554788
0.080270916 0.093651764 -0.04671682 -0.03505696 -0.019831887 -0.054866847 -0.058023896 -0.21011336
-0.0834959 0.21796978 -0.015275576 0.020361872 -0.018241527 0.1469684 0.04443332 0.063878
-0.05728331 0.07383509 -0.02564682 -0.010842982 -0.17778079 -0.09675675 0.027867284 -0.03657218
-0.011866939 0.11708808 0.07417046 -0.06525934 -0.024253892 -0.021022782 -0.10783281 -0.011284007
00000000: 931b 603d 9541 acbb 48bd f53c bfb9 76be
00000010: 82ef a73d de00 813c bc61 0f3e 2cd9 8c3c
00000020: d707 7abd 3dac 58bc 8fc0 67bc 831a 423c
00000030: 4dea 563c 9fef 10be b7ab 28be c85a 4fbd
00000040: 9ca7 363e 31a6 9fbd 0421 eb3d 9011 a63d
00000050: 563e ecbd 4d10 53be 9684 b63d 2510 6dbd
00000060: b623 30be f43d 25bc 0123 96bd d38d f23d
00000070: 000f aabd f918 4abd 6e34 d5bb 760b 1fbe
00000080: b740 a7bd b102 0fbe 44fc 71be 8cc3 82bd
00000090: 7963 66bc 1c90 fcbd 5d58 a0bd 1070 e1bc
000000a0: eb55 8fbd bac7 0dbd 7262 8b3c 6deb 793d
000000b0: b373 5f3d 41c3 bcbd 04c5 82bd 602a 0dbe
000000c0: 088f f13c 21f9 c1bb 4178 c4bc 04c0 82bd
000000d0: 7664 2b3d 7354 913d a55d afbd e15c d3ba
000000e0: b41a 1bbc b7c3 a4bd 83af 18be 38db 02bb
000000f0: 64a2 64bd ebbf eb3d 3e3e 933d d452 f2bc
00000100: 4929 883d 5475 e3bd 3a51 a6bb 8c12 423d
00000110: e4bc 8ebd 511f 373e ff1a 873c 85fd cebd
00000120: 5788 e33c 266f a73d 1cc2 7dbd 8156 99bd
00000130: a19c 0d3d d62f 293c e2d3 fb3d a5df 3ebd
00000140: 61f8 84bd b7bc 8a3d a702 6e3d 9acf 103e
00000150: f0f9 11be e4ec a2bd e7e0 0c3d 8ae7 2c3d
00000160: 6449 363e 315f 19bd 4fae 33bc a117 7e3c
00000170: 5bce 23be 7efd 79bd 7fa5 353c c367 aabb
00000180: 9b66 b2bc 94c1 5dbe dc51 c7bd 6a3d a33d
00000190: cdba 02be 7e9d 06bd fd7d c1bc 8855 0cbe
000001a0: 2ed2 d9bc 1d62 3e3d da76 433c a5cf 41bd
000001b0: 2c92 f93c 1861 8f3c 9ac6 dbbd 9d7b 1d3d
000001c0: 90cf 91bd 2de3 363d 39ff 58bd 6206 21be
000001d0: 3213 04be 6b9d 71bd 35fa ea3c 8624 17be
000001e0: 26bb 1b3d 0c51 5a3a 3257 dc3d 2db0 bd3b
000001f0: 33eb bebd f21e 52bc 54cf 12bd 2cf8 f5bc
00000200: f950 20be 81c8 19be cd4c 4e3e 5d0d 92bd
00000210: 3200 8cbd 3c49 4cbc 7d46 4abe 0fa2 203e
00000220: 8ee0 f2bc 9c59 4bbe e7b6 a6bd 031d 34bc
00000230: 8cc7 6b3d f5b9 bebc 6dca 9abd 47ce b9bd
00000240: 1049 41bd 3ae5 86bd c68b 393d 2dcd 48bd
00000250: c93a 1b3d 4a8b a6bd 5f13 183d 1bd7 43be
00000260: 1674 3f3e 4a85 323c b129 683c fabb bf3d
00000270: e984 8a3d 98cc 303d 572a 953d 624d 973d
00000280: c5bb 67bd 6aa4 8fbd 9331 34be a2c1 81bd
00000290: bb15 e4bd b2c7 f1bc ac33 c83d 2270 9b3d
000002a0: 5c55 ebbc 6621 0c3e b3e3 db3d 1e8a ca3c
000002b0: 3cdc 0bbe 5f3c e6bd 2aa4 1bbe 0924 fcbd
000002c0: f50e c3bb a252 02bd 8258 1dbe 06b0 4cbe
000002d0: 0dab 49bd 506d 753d d529 903e 7703 6c3d
000002e0: e192 31bd 9481 a33c fb21 d3bd 06d2 013e
000002f0: 7249 4dbd 316b 08bd e0b1 6b3c b475 dcbc
00000300: 723e c83c eb8b 04be 47f4 d53c c45c 74bd
00000310: 1962 d2bd 75ed dabd 97a4 e2bd 4eb3 1b3e
00000320: 66c7 5bbd afc8 60bd c852 ce3d ea10 0cbe
00000330: 4e5f bf3d 763d 133d f23c 5fbd be31 c8bd
00000340: 9e73 9e3d bb36 fc3d ceff 70bd cb32 eebd
00000350: 65d8 fbbd 276d 953d 7192 833d c2d9 8bbd
00000360: 9dcc 143d 5867 12bd 302c c9bd 6dbb 813d
00000370: e1f7 18be 5d88 8fbd 6547 c53d d635 1f3e
00000380: 1465 a43d 7fcc bf3d 235a 3fbd e397 0fbd
00000390: 7b76 a2bc 0fbc 60bd 77aa 6dbd f527 57be
000003a0: e6ff aabd 7833 5f3e 6946 7abc f1cd a63c
000003b0: 416f 95bc e27e 163e b7ff 353d 78d2 823d
000003c0: e7a1 6abd da36 973d 4819 d2bc c3a6 31bc
000003d0: 2b0c 36be 6728 c6bd ee49 e43c b6cc 15bd
000003e0: 8d6d 42bc e0cb ef3d afe6 973d b0a6 85bd
000003f0: 19b0 c6bc f837 acbc 73d7 dcbd 8ee0 38bc

out.weight f4 [200, 64]
-0.00022934465 0.002489867 0.00079107354 -0.00016632378 -0.001698499 0.000533697 0.0032522976 -0.0011491482
-0.0024276315 0.0014945968 -0.00021248219 -0.00019293529 -0.0011331371 0.001059213 -0.00055938784 -0.000350039
0.0002460566 -8.920606e-06 0.0017273873 0.001513143 -0.00014015008 -0.0014825691 -0.0008921888 -0.0007497136
0.001356559 -0.0041787974 -0.0017264826 0.0012163314 0.00020139044 0.0005767963 -0.0016629865 -0.00030567707
0.0014854518 0.000100491874 -0.0016008551 0.0010465445 -0.003063111 -0.0005827919 -0.0011543784 -0.00031206146
0.0007982967 -0.002113438 0.00017852582 -0.0014616477 0.001519918 0.0012881176 -0.0007383789 2.5751078e-05
0.0024272215 -0.001550708 0.0018879507 0.0031646732 0.0012492524 0.0002619377 -0.00013584697 -1.2725353e-05
0.002929899 -0.0011008154 -0.00021043165 -0.0005414921 0.0027651049 -8.111948e-05 0.0024285486 0.002648007
-0.00014105669 -0.00011366107 0.000110769266 0.00016259079 0.0014309783 -2.6895592e-05 4.0888367e-06 0.00012751415
-3.2945576e-05 0.00022958794 -0.00026397317 -7.420529e-05 0.00016515555 1.5832622e-05 0.00020356778 -0.0002084383
-0.0004403559 -0.00016895734 -0.00024474942 -0.00010313635 0.00021439324 0.00011631431 -8.651712e-05 -0.0011932779
4.3737127e-05 0.0002253737 -0.0002693309 2.9412138e-05 -6.1927334e-05 0.00040205073 0.0007440763 5.252575e-05
-2.3367576e-05 0.00038490005 3.2203425e-05 0.00014617479 1.1811127e-05 -5.5831664e-05 -8.213814e-05 0.00018022623
9.7041186e-05 -3.1167066e-05 -0.00014544287 2.0795102e-05 -0.00048732507 6.966257e-05 -0.00010941245 1.6573556e-05
-0.00020531369 0.00020010528 -8.374536e-05 -0.00010687343 3.60914e-05 0.0001514563 -0.00010804341 -1.3049587e-05
-0.00040187978 0.0007020666 0.000536184 0.000112782516 -2.8016557e-05 -5.8634428e-06 -5.530366e-06 0.00017005541
-0.0002162218 -3.61272e-05 2.0259538e-05 9.022806e-05 0.0014628726 6.379234e-06 -1.5831254e-05 0.00015185011
0.00011554234 8.277333e-05 -0.00015944814 9.631661e-05 1.9478728e-05 -5.810161e-05 7.504027e-05 -3.985273e-05
-0.00037638008 -0.00013345746 6.156863e-05 6.397924e-05 8.6783504e-05 8.260033e-06 -0.00017685686 -0.0011809835
-6.7292913e-06 1.0401098e-05 -0.00027682196 6.77866e-05 -2.5229727e-05 0.00037555708 0.0009138246 -9.422028e-05
-3.641374e-05 0.000371014 0.00036576597 -0.00014877965 1.47257115e-05 -0.00014711123 -0.00014869338 9.700117e-05
5.4762004e-05 8.636595e-05 -0.0002846303 -8.6775535e-06 -0.00044083424 9.729197e-06 1.8923864e-05 3.6817903e-05
-5.76943e-05 0.0002096448 -0.00010118258 3.4783614e-05 -3.3422246e-05 1.765679e-05 -9.889825e-05 7.7789446e-05
-0.0002635546 0.0006815353 0.0006309618 -2.3452736e-05 9.271499e-06 -0.00015236677 -1.8280245e-05 4.530893e-05
9.342908e-05 -0.00010746261 0.00032317286 -1.774533e-05 0.0008758017 -0.00029852186 0.001328625 8.3621904e-05
0.00024288066 0.0004141057 -4.5960966e-05 7.6067634e-05 -2.408254e-05 -0.00023477916 -3.7805803e-05 -0.00039279627
-0.0005940781 -0.00012941197 0.00037610292 4.0415067e-05 -0.00022289161 -0.0001908662 -0.00041823022 -0.0008231253
0.00027349856 0.0003059757 -0.00039739982 -0.00014309458 -6.585849e-05 3.5096018e-05 0.0004585032 0.00027452278
-6.6918234e-05 2.8712062e-05 0.00026684784 -0.0005588918 0.0003296318 -0.0002931906 -8.7728e-05 0.000116799194
0.00032053477 -0.0010709083 -1.2822727e-05 5.6148925e-05 -0.0007938294 -0.00027056958 7.9190195e-06 -8.39952e-05
0.00011759013 0.0006573358 0.000114311515 -0.000238245 -0.000539065 0.00033892159 -0.00041479385 6.578308e-05
0.00018809414 0.00053889863 0.0016908091 -4.4288226e-05 0.00058367185 -0.00036775987 -4.4563945e-05 2.7992675e-05
00000000: 3c7c 70b9 092d 233b 0c60 4f3a 3367 2eb9
00000010: 2ba0 deba cde7 0b3a 8024 553b 049f 96ba
00000020: e618 1fbb 59e6 c33a c1cd 5eb9 ac4e 4ab9
00000030: c685 94ba 4ad5 8a3a e2a3 12ba 7085 b7b9
00000040: 2801 8139 b6a9 15b7 8069 e23a a754 c63a
00000050: 40f5 12b9 c452 c2ba c7e1 69ba 6e88 44ba
00000060: 91ce b13a 4bee 88bb 254b e2ba 4f6d 9f3a
00000070: 562c 5339 2534 173a 91f8 d9ba 4843 a0b9
00000080: 7eb3 c23a 2abf d238 c9d3 d1ba 352c 893a
00000090: 7abe 48bb 81c6 18ba 834e 97ba 2e9c a3b9
000000a0: c944 513a 9b81 0abb a932 3b39 c294 bfba
000000b0: fc37 c73a 0ed6 a83a c58f 41ba 0504 d837
000000c0: 0512 1f3b 2041 cbba 1d75 f73a 6866 4f3b
000000d0: f4bd a33a af54 8939 2572 0eb9 fa7e 55b7
000000e0: 8c03 403b 3c49 90ba 51a7 5cb9 ebf2 0dba
000000f0: c336 353b b01e aab8 4928 1f3b 2f8a 2d3b
00000100: 9ee8 13b9 535d eeb8 cc4c e838 227d 2a39
00000110: aa8f bb3a d89d e1b7 d732 8936 52b5 0539
00000120: 0b2f 0ab8 8bbd 7039 e165 8ab9 a99e 9bb8
00000130: 9b2d 2d39 4cd0 8437 cf74 5539 3b90 5ab9
00000140: 92df e6b9 242a 31b9 b651 80b9 e84a d8b8
00000150: bfce 6039 c5ed f338 8670 b5b8 c367 9cba
00000160: 6272 3738 4b52 6c39 fb34 8db9 16ba f637
00000170: fcde 81b8 56ca d239 1d0e 433a 184f 5c38
00000180: 7d05 c4b7 69cc c939 2a12 0738 7f46 1939
00000190: 6728 4637 cb2c 6ab8 9441 acb8 1cfb 3c39
000001a0: 9782 cb38 62b9 02b8 0682 18b9 2471 ae37
000001b0: aa7f ffb9 cf17 9238 5d74 e5b8 7107 8b37
000001c0: 7949 57b9 5ad3 5139 73a0 afb8 3c21 e0b8
000001d0: d860 1738 3ed0 1e39 5d95 e2b8 8def 5ab7
000001e0: 64b3 d2b9 e40a 383a b38e 0c3a a785 ec38
000001f0: 1905 ebb7 97be c4b6 7b91 b9b6 e750 3239
00000200: 99b9 62b9 4987 17b8 07f3 a937 d238 bd38
00000210: dcbd bf3a 340d d636 5ccd 84b7 f439 1f39
00000220: 524f f238 9896 ad38 8931 27b9 96fd c938
00000230: 4066 a337 21b2 73b8 f05e 9d38 8b27 27b8
00000240: e154 c5b9 b7f0 0bb9 681e 8138 982c 8638
00000250: 8aff b538 9294 0a37 a772 39b9 3bcb 9aba
00000260: 2ccc e1b6 6080 2e37 6a22 91b9 a728 8e38
00000270: 6da4 d3b7 6be6 c439 bb8d 6f3a 2198 c5b8
00000280: f5ba 18b8 a884 c239 47c4 bf39 bc01 1cb9
00000290: 730e 7737 df41 1ab9 93ea 1bb9 1b6d cb38
000002a0: 41b0 6538 5e1f b538 6f3a 95b9 cf95 11b7
000002b0: c51f e7b9 953a 2337 b0be 9e37 ec6c 1a38
000002c0: c8fc 71b8 19d4 5b39 fc31 d4b8 9fe4 1138
000002d0: dd2e 0cb8 ab1d 9437 9867 cfb8 e422 a338
000002e0: b32d 8ab9 0fa9 323a 2167 253a 5ebc c4b7
000002f0: c98c 1b37 a5c4 1fb9 8758 99b7 180a 3e38
00000300: 5bef c338 8d5d e1b8 876f a939 cedb 94b7
00000310: 0f96 653a ed82 9cb9 4225 ae3a 2b5e af38
00000320: c8ad 7e39 541c d939 36c6 40b8 8086 9f38
00000330: dc04 cab7 0d2f 76b9 ac91 1eb8 39f0 cdb9
00000340: e8bb 1bba c3b2 07b9 ae2f c539 5983 2938
00000350: 03b8 69b9 4123 48b9 e945 dbb9 01c7 57ba
00000360: 5b64 8f39 5d6b a039 1a5a d0b9 a90b 16b9
00000370: 821d 8ab8 1034 1338 4263 f039 d3ed 8f39
00000380: 7456 8cb8 afda f037 b6e7 8b39 9882 12ba
00000390: 6ed2 ac39 60b7 99b9 9dfa b7b8 17f2 f438
000003a0: 730d a839 b85d 8cba 3121 57b7 7381 6b38
000003b0: fd18 50ba 3cdb 8db9 eedb 0437 9426 b0b8
000003c0: b89a f638 0f51 2c3a 87ba ef38 68d1 79b9
000003d0: 0a50 0dba 49b1 b139 b078 d9b9 06f5 8938
000003e0: 233b 4539 e044 0d3a 249e dd3a 1fc2 39b8
000003f0: 8e01 193a e5cf c0b9 2cea 3ab8 d0d1 ea37

out.bias f4 [200]
-0.05523502 -0.07488645 -0.07111448 -0.067468815 -0.08519024 -0.06262841 -0.05820426 -0.07947198
-0.07271609 -0.08893249 -0.0698879 -0.049315978 -0.06487494 -0.08558736 -0.07555021 -0.062228907
-0.07623239 -0.07380619 -0.0775023 -0.060252592 -0.052844357 -0.07256505 -0.065907925 -0.060139947
-0.079657376 -0.076860026 -0.079590164 -0.05809332 -0.05625863 -0.06194412 -0.039771326 -0.02618946
-0.031268258 -0.021424962 -0.0004383397 -0.0004549716 0.015698629 0.058234446 0.07387383 0.08779457
0.13542928 0.15650895 0.19541362 0.23620883 0.23580456 0.26647276 0.3078901 0.34288558
0.31490913 0.3300107 0.24945015 0.27519366 0.2535844 0.23889871 0.26475242 0.20173395
0.23194724 0.1779975 0.1218676 0.12151313 0.10910067 0.0954583 0.11023059 0.0825114
0.07470541 0.06442386 0.05161742 0.061204348 0.069800094 0.07140457 0.0687046 0.047319844
0.054045603 0.035438076 0.04838411 0.02898769 0.03548669 0.03969752 0.059240166 0.055823255
0.08268583 0.08340163 0.056925718 0.09526495 0.090964034 0.123656556 0.12958126 0.12229804
0.16381626 0.17602931 0.16517684 0.17665769 0.17721097 0.15096462 0.17865635 0.17502296
0.15194629 0.17164566 0.12109657 0.14647202 0.1557029 0.13482127 0.12832433 0.15124281
0.17316295 0.17233929 0.19061637 0.19083683 0.16889848 0.1967835 0.1489253 0.21730967
0.25086802 0.29000565 0.26583427 0.31188157 0.30794153 0.30866116 0.36351472 0.3708517
0.36604837 0.39147794 0.4149715 0.40213102 0.36880094 0.40689617 0.39823782 0.46907008
0.4310228 0.42322406 0.4063389 0.39991978 0.41807327 0.40415192 0.39276955 0.39335397
0.40102553 0.39387155 0.36344358 0.37596777 0.34542787 0.34101558 0.3556271 0.31946066
0.3134001 0.35029143 0.3363455 0.31018287 0.2557972 0.31780043 0.28363383 0.24246332
0.24384242 0.24513356 0.3025283 0.276447 0.26576552 0.2494194 0.2610455 0.25998315
0.23742315 0.20898244 0.15618305 0.19111612 0.23152417 0.21515298 0.21784481 0.19429028
0.21584687 0.23213306 0.18998112 0.20350905 0.20940574 0.20072667 0.16419326 0.1901145
0.2172261 0.22094616 0.22115467 0.1995482 0.20902972 0.18674931 0.22588548 0.24608928
0.2612789 0.22511518 0.2657692 0.23778395 0.23184507 0.22443157 0.23461482 0.22314383
0.19277486 0.19834211 0.18213476 0.20218566 0.19439018 0.21954614 0.19696547 0.21092185
00000000: 1e3e 62bd 115e 99bd 78a4 91bd 172d 8abd
00000010: 3878 aebd 5343 80bd 9767 6ebd 35c2 a2bd
00000020: 2cec 94bd 3d22 b6bd 6321 8fbd 8dff 49bd
00000030: 27dd 84bd 6d48 afbd 12ba 9abd bde3 7ebd
00000040: ba1f 9cbd b327 97bd 87b9 9ebd 6ccb 76bd
00000050: 5373 58bd fc9c 94bd bcfa 86bd 4e55 76bd
00000060: 6823 a3bd ca68 9dbd 2b00 a3bd 43f3 6dbd
00000070: 736f 66bd 1eb9 7dbd 42e7 22bd 478b d6bc
00000080: 2513 00bd 6783 afbc f5d0 e5b9 4189 eeb9
00000090: 699a 803c 3e87 6e3d 2a4b 973d a4cd b33d
000000a0: f9ad 0a3e e243 203e 821a 483e bae0 713e
000000b0: c076 713e 1e6f 883e c5a3 9d3e b38e af3e
000000c0: c53b a13e 2af7 a83e dc6f 7f3e 2fe6 8c3e
000000d0: d1d5 813e dda1 743e a18d 873e 5893 4e3e
000000e0: 9483 6d3e fa44 363e b895 f93d e0db f83d
000000f0: 2c70 df3d a47f c33d 93c0 e13d bdfb a83d
00000100: 26ff 983d a8f0 833d ca6c 533d 69b1 7a3d
00000110: 5af3 8e3d 8f3c 923d ffb4 8c3d 74d2 413d
00000120: ec5e 5d3d 8427 113d 6b2e 463d 9877 ed3c
00000130: 7e5a 113d de99 223d d1a5 723d eda6 643d
00000140: 3057 a93d 79ce aa3d f12a 693d 451a c33d
00000150: 5a4b ba3d a63f fd3d f3b0 043e 6577 fa3d
00000160: 73bf 273e 0741 343e 1e24 293e c1e5 343e
00000170: cb76 353e 7896 1a3e b1f1 363e 3839 333e
00000180: cf97 1b3e e1c3 2f3e 7a01 f83d c3fc 153e
00000190: 9570 1f3e 960e 0a3e 7467 033e 65df 1a3e
000001a0: a151 313e b679 303e f030 433e bb6a 433e
000001b0: b9f3 2c3e 9d81 493e e07f 183e 6d86 5e3e
000001c0: c671 803e 9f7b 943e 6e1b 883e f1ae 9f3e
000001d0: 83aa 9d3e d608 9e3e 9a1e ba3e 46e0 bd3e
000001e0: b16a bb3e cc6f c83e 2577 d43e 1ee4 cd3e
000001f0: 7ad3 bc3e b254 d03e d4e5 cb3e f429 f03e
00000200: 05af dc3e d3b0 d83e a70b d03e 49c2 cc3e
00000210: b30d d63e 00ed ce3e 1719 c93e b165 c93e
00000220: 3853 cd3e 88a9 c93e 4715 ba3e d97e c03e
00000230: ecdb b03e 9899 ae3e c114 b63e 5990 a33e
00000240: fa75 a03e 6659 b33e 7a35 ac3e 4ad0 9e3e
00000250: daf7 823e bdb6 a23e 7438 913e 4e48 783e
00000260: d4b1 793e 4b04 7b3e fde4 9a3e 768a 8d3e
00000270: 6b12 883e cd67 7f3e c1a7 853e 831c 853e
00000280: 0e1f 733e 7eff 553e 73ee 1f3e f2b3 433e
00000290: ac14 6d3e 1051 5c3e b612 5f3e 08f4 463e
000002a0: f606 5d3e 4ab4 6d3e 698a 423e ad64 503e
000002b0: 756e 563e 4b8b 4d3e 4722 283e 60ad 423e
000002c0: 8570 5e3e b63f 623e 5f76 623e 5d56 4c3e
000002d0: e30b 563e 363b 3f3e 864e 673e d4fe 7b3e
000002e0: 59c6 853e 9884 663e e712 883e a37d 733e
000002f0: cb68 6d3e 64d1 653e de3e 703e d17f 643e
00000300: c666 453e 321a 4b3e 8981 3a3e c209 4f3e
00000310: 380e 473e b4d0 603e 51b1 493e e6fb 573e
