best_model/xasnet_gnn_model.pt (torch, 390212 bytes, 20 tensors)

batch_norms.0.weight f4 [64]
0	0x3f7d7292	0.99002945
1	0x3f8b5073	1.0883926
2	0x3f82e0fc	1.022491
3	0x3f87e28e	1.0616014
4	0x3f501964	0.81288743
5	0x3f7c922f	0.9866056
6	0x3f81a23a	1.0127633
7	0x3f654ffa	0.8957516
8	0x3f74416f	0.95412344
9	0x3f51eb92	0.82000077
10	0x3f8baa0f	1.0911273
11	0x3f7f44a7	0.9971413
12	0x3f7b6af9	0.982101
13	0x3f6d4727	0.92686695
14	0x3f92ed89	1.147874
15	0x3f823dc3	1.0175098
16	0x3f81ad0d	1.0130936
17	0x3f8dcde1	1.1078454
18	0x3f782870	0.969367
19	0x3f86969a	1.051471
20	0x3f8f879a	1.1213257
21	0x3f68a91d	0.90883046
22	0x3f770fab	0.9650828
23	0x3f8b79e5	1.0896574
24	0x3f737c26	0.9511131
25	0x3f55b732	0.8348266
26	0x3f889282	1.0669711
27	0x3f70c4f9	0.94050556
28	0x3f6eb050	0.9323778
29	0x3f6b5fe8	0.91943216
30	0x3f6c8241	0.9238625
31	0x3f7c3c4a	0.98529494
32	0x3f859d91	1.043871
33	0x3f63101c	0.88696456
34	0x3f878881	1.0588533
35	0x3f754858	0.9581351
36	0x3f6eaacf	0.93229383
37	0x3f6217df	0.88317674
38	0x3f7521ca	0.95754683
39	0x3f83cbba	1.0296547
40	0x3f9529cc	1.165338
41	0x3f841e65	1.0321776
42	0x3f659b97	0.89690536
43	0x3f7da544	0.990803
44	0x3f797234	0.97439885
45	0x3f661046	0.8986858
46	0x3f7d29bf	0.98891824
47	0x3f59afc8	0.85033846
48	0x3f7045bf	0.93856424
49	0x3f6bff30	0.9218626
50	0x3f89e9b5	1.0774447
51	0x3f77e488	0.96833086
52	0x3f6c0d0a	0.92207396
53	0x3f7f9091	0.99829966
54	0x3f918b75	1.1370684
55	0x3f704652	0.938573
56	0x3f718eb4	0.9435837
57	0x3f711d8e	0.9418572
58	0x3f6ae8e2	0.917616
59	0x3f877c01	1.0584718
60	0x3f6a6d2c	0.91572833
61	0x3f63b56e	0.88948715
62	0x3f7764d0	0.966382
63	0x3f898073	1.0742325

batch_norms.0.bias f4 [64]
0	0xbd5b55b5	-0.053548533
1	0xbd636d75	-0.05552431
2	0xbe4998d7	-0.1968721
3	0xbd93baba	-0.0721335
4	0xbe947db7	-0.29002163
5	0x3deda002	0.11602785
6	0xbedf46ce	-0.43608707
7	0xbdd61168	-0.10452539
8	0xbe730d4c	-0.23735541
9	0xbe9ad341	-0.302393
10	0xbd44b857	-0.048027363
11	0xbea33224	-0.31874192
12	0xbe3dfc1f	-0.18553208
13	0xbe024154	-0.12720233
14	0xbd350044	-0.044189706
15	0xbc957d31	-0.018248172
16	0xbeada029	-0.33911255
17	0xbd544997	-0.051827993
18	0xbe3b35b9	-0.18282212
19	0x3cdf2ce6	0.027243089
20	0x3da4b372	0.08042039
21	0xbe187474	-0.14888173
22	0xbe8dc907	-0.27692434
23	0xbe7f3d2a	-0.24925676
24	0xbe1975ee	-0.14986393
25	0xbeaf6f25	-0.34264484
26	0xbe547253	-0.20746736
27	0xbeb712ea	-0.35756618
28	0xbe2bc11b	-0.16772883
29	0xbe105256	-0.14093909
30	0xbdbe0b23	-0.09279468
31	0xbdfb6e8e	-0.12276946
32	0xbe34f7d8	-0.1767267
33	0xbe040e7c	-0.1289615
34	0xbed07ff9	-0.40722635
35	0xbe15328e	-0.14570066
36	0xbdcba5f1	-0.0994376
37	0xbe07c80d	-0.13259907
38	0xbd816e7c	-0.06319901
39	0xbb497e8b	-0.0030745592
40	0xbd9911b0	-0.07474077
41	0xbdbd21fb	-0.09234997
42	0xbdd5fdf2	-0.10448827
43	0xbed50f10	-0.41613054
44	0xbdd1078e	-0.10206519
45	0xbeb38ef7	-0.3507001
46	0xbe03f49d	-0.12886281
47	0xbe4471c8	-0.19184029
48	0xbe4666bf	-0.19375132
49	0xbe5a08f0	-0.21292472
50	0xbed48a28	-0.41511655
51	0x3cd6b6fb	0.026210299
52	0xbdf68b44	-0.120382816
53	0xbe1b959f	-0.15193795
54	0xbe07ea43	-0.13272958
55	0xbe082a41	-0.13297369
56	0xbda59130	-0.08084333
57	0xbd1f5cfc	-0.038907036
58	0xbda5d1f2	-0.080966845
59	0xbd9f8982	-0.077898994
60	0xbe3687d2	-0.17825249
61	0xbdffa357	-0.124823265
62	0xbe6c9ae5	-0.23105963
63	0xbe61b85e	-0.22042987

batch_norms.0.running_mean f4 [64]
0	0x3dd96d22	0.106165186
1	0x3dd37220	0.10324502
2	0xbda6a7a0	-0.08137441
3	0x3be712cc	0.0070518013
4	0xbdf3a682	-0.11896993
5	0x3d8fdac8	0.07024151
6	0x3bf7de0f	0.0075643132
7	0xbe5edee3	-0.21764712
8	0xbdc61662	-0.09672238
9	0x3e1586cc	0.14602202
10	0xbedf8883	-0.43658838
11	0x3c136f10	0.008998647
12	0xbdfd69cc	-0.12373695
13	0x3dcc3760	0.099714994
14	0xbe8fb3fb	-0.28067002
15	0x3c5dffac	0.013549726
16	0x3d0986ed	0.03357594
17	0xbee5b169	-0.44861916
18	0xbe0e8cb0	-0.13920856
19	0x3da28a48	0.07936531
20	0xbeb94399	-0.36184385
21	0x3c860258	0.01635854
22	0xbdc05936	-0.09392016
23	0xbde74c1c	-0.112938136
24	0x3c495c4e	0.012290074
25	0xbee0b081	-0.43884662
26	0xbef94d0b	-0.48691592
27	0xbd25ae08	-0.040449172
28	0xbc3e0cf7	-0.011599771
29	0xbec6cee8	-0.38829732
30	0x3df35aa2	0.11882521
31	0xbf3f120e	-0.74636924
32	0x3ced478d	0.028964782
33	0x3efc56e8	0.49285054
34	0x3d1b8a4b	0.037973683
35	0xbdf12691	-0.11774934
36	0xbdd1d77d	-0.10246179
37	0xbe195e46	-0.14977369
38	0x3f04438d	0.51665574
39	0x3ddf273e	0.10896157
40	0x3dc1c82b	0.09462007
41	0xbe78c5c8	-0.24294198
42	0x3eb03e8b	0.34422716
43	0xbe456b2d	-0.19279166
44	0xbe83c125	-0.25733295
45	0x3d8a214c	0.06744632
46	0xbed4ba5d	-0.41548434
47	0xbea73d14	-0.32663786
48	0x3d2579da	0.04039941
49	0xbea6dfd9	-0.32592657
50	0xbc34f04d	-0.01104362
51	0x3c9fdb40	0.019513726
52	0x3eeb6aae	0.45979828
53	0xbe5ae819	-0.213776
54	0xbdcf092b	-0.101091705
55	0xbde6809c	-0.11254999
56	0xbdadb7d2	-0.084823266
57	0xbee31dec	-0.44358766
58	0x3dacd8e5	0.08439807
59	0x3e3cf3b1	0.18452336
60	0xbeb25260	-0.34828472
61	0x3d3a5861	0.04549444
62	0xbd41d688	-0.047323734
63	0xbdd77cf5	-0.105218805

batch_norms.0.running_var f4 [64]
0	0x3cb4a2eb	0.022050342
1	0x3bf99719	0.007616889
2	0x3c493380	0.012280345
3	0x3d001f3c	0.031279787
4	0x3cd9943e	0.026559945
5	0x3c20d52f	0.009816452
6	0x3c7a573b	0.015279586
7	0x3cee03ee	0.029054608
8	0x3d32ecbf	0.04368281
9	0x3c5e7816	0.013578435
10	0x3d455ad2	0.048182316
11	0x3bd49acf	0.006488181
12	0x3c4685a6	0.012116825
13	0x3d06fc88	0.032955676
14	0x3c8152c9	0.015786545
15	0x3b92154c	0.004458105
16	0x3c841341	0.016122462
17	0x3d059770	0.032615125
18	0x3cb02280	0.021500826
19	0x3c37306d	0.011180979
20	0x3ca363d6	0.019945066
21	0x3ce3c051	0.027801665
22	0x3c132fe6	0.008983588
23	0x3cb09b5c	0.021558456
24	0x3c57aa77	0.013163201
25	0x3c88bf5b	0.016692808
26	0x3d7df289	0.061998878
27	0x3ce9d6d7	0.028544826
28	0x3cc6c7b7	0.024265153
29	0x3c6e83ab	0.014557759
30	0x3cbef84c	0.023311757
31	0x3ca1aed0	0.019736677
32	0x3b8d95a8	0.004320819
33	0x3d98e9a4	0.074664384
34	0x3be4f357	0.006987016
35	0x3cd5030c	0.02600243
36	0x3c27f294	0.010250706
37	0x3b9d28db	0.00479613
38	0x3d546dd0	0.051862538
39	0x3c2d99ab	0.010595719
40	0x3c5d4558	0.013505302
41	0x3d4fc096	0.050720774
42	0x3c8ea7a1	0.017413916
43	0x3cd76932	0.026295278
44	0x3c66eada	0.014094079
45	0x3c53aaeb	0.012919168
46	0x3c5e18b9	0.013555699
47	0x3d9b9587	0.075968795
48	0x3c490669	0.012269595
49	0x3d4a696c	0.049416944
50	0x3c283e76	0.010268798
51	0x3c8c0f29	0.017097073
52	0x3ce2607e	0.027633902
53	0x3c91ed05	0.017813215
54	0x3c1b665f	0.009484856
55	0x3c9045eb	0.017611464
56	0x3c6e472a	0.014543334
57	0x3c9a6b91	0.01885012
58	0x3ce30c63	0.027715867
59	0x3c274e8a	0.010211596
60	0x3d78afed	0.06071465
61	0x3d1dbc7b	0.038509827
62	0x3d0f54f3	0.034993123
63	0x3cadc357	0.02121131

batch_norms.1.weight f4 [128]
0	0x3f59c297	0.85062546
1	0x3f6b13e7	0.91827244
2	0x3f722ec7	0.94602627
3	0x3f80d6f4	1.0065598
4	0x3f5d9a99	0.8656402
5	0x3f77ad69	0.9674898
6	0x3f87f7d4	1.0622506
7	0x3f894bcb	1.0726255
8	0x3f79bf1f	0.9755725
9	0x3f953354	1.1656289
10	0x3f68bf11	0.90916544
11	0x3f7d7709	0.9900976
12	0x3f89c60f	1.0763568
13	0x3f519ec9	0.8188291
14	0x3f98352f	1.189123
15	0x3f6b4b70	0.91911983
16	0x3f828a6a	1.0198491
17	0x3f586b61	0.8453885
18	0x3f9487cb	1.1603941
19	0x3f7d594b	0.98964375
20	0x3f8cae9b	1.0990785
21	0x3f8b68ab	1.0891317
22	0x3f8d079f	1.1017951
23	0x3f81ed6a	1.0150578
24	0x3f95dc83	1.170792
25	0x3f6ef34b	0.93339986
26	0x3f65757b	0.89632386
27	0x3f76e602	0.96444714
28	0x3f66c229	0.90140015
29	0x3f6f6c7f	0.93524927
30	0x3f7dcb25	0.991381
31	0x3f86edee	1.054136
32	0x3f94d43c	1.1627269
33	0x3f5ea26d	0.8696659
34	0x3f8252ea	1.0181553
35	0x3f66b11c	0.90114
36	0x3f6bc29f	0.92093843
37	0x3f57bea6	0.8427528
38	0x3f7bfeba	0.98435557
39	0x3f8663bd	1.0499188
40	0x3f965649	1.1745082
41	0x3f8b7a61	1.0896722
42	0x3f702893	0.9381191
43	0x3f8b3767	1.0876282
44	0x3f811dfd	1.0087277
45	0x3f52cdc2	0.8234521
46	0x3f67e0b5	0.9057725
47	0x3f5e2225	0.8677085
48	0x3f7e8458	0.9942069
49	0x3f7baf1c	0.9831407
50	0x3f6b0a89	0.9181295
51	0x3f8a1595	1.0787836
52	0x3f808b32	1.0042479
53	0x3f8b21c1	1.0869676
54	0x3f61dd3a	0.8822819
55	0x3f93ed15	1.1556727
56	0x3f683ab0	0.9071455
57	0x3f97883c	1.183845
58	0x3f7cdb7f	0.98772424
59	0x3f6a40d3	0.91505164
60	0x3f8ff293	1.1245903
61	0x3f61254c	0.87947536
62	0x3f8999fc	1.0750117
63	0x3f7729ed	0.9654835
64	0x3f54b5f0	0.83090115
65	0x3f695000	0.91137695
66	0x3f8afd51	1.0858556
67	0x3f7bfcb6	0.9843248
68	0x3f786945	0.9703563
69	0x3f8fa11b	1.122104
70	0x3fa91861	1.3210565
71	0x3f4b15ba	0.7933003
72	0x3f80d417	1.0064725
73	0x3f931a74	1.1492448
74	0x3f702766	0.9381012
75	0x3f770b19	0.9650131
76	0x3f7b8361	0.98247343
77	0x3f71f013	0.9450695
78	0x3f604365	0.87602836
79	0x3f74a2f7	0.95561165
80	0x3f6d9b4b	0.92815083
81	0x3f67550c	0.90364146
82	0x3f6a0013	0.91406363
83	0x3f6a9b4b	0.9164321
84	0x3f680f0e	0.9064797
85	0x3f8d7988	1.1052713
86	0x3f6ef994	0.93349576
87	0x3f5df52c	0.8670223
88	0x3f571763	0.8402006
89	0x3f5d6d42	0.8649484
90	0x3f81b242	1.0132525
91	0x3f895d10	1.0731525
92	0x3f71432c	0.9424312
93	0x3f78253d	0.9693182
94	0x3f8d52ec	1.1040931
95	0x3f8bfb3c	1.0936046
96	0x3f844f81	1.0336763
97	0x3f733c12	0.95013535
98	0x3f7775e6	0.96664274
99	0x3f8393a6	1.0279434
100	0x3f5e33aa	0.86797583
101	0x3f74eade	0.9567088
102	0x3f8b1e61	1.0868646
103	0x3f83077e	1.0236661
104	0x3f949c83	1.1610264
105	0x3f781e97	0.96921676
106	0x3f919829	1.137456
107	0x3f7ec0d7	0.99513
108	0x3f93f204	1.1558232
109	0x3f6f40d5	0.934583
110	0x3f5bb6db	0.8582589
111	0x3fa4892b	1.285436
112	0x3f7b6a0f	0.9820871
113	0x3f7c3624	0.9852011
114	0x3f86ec9c	1.0540957
115	0x3f8ca5a8	1.0988054
116	0x3f7ecc30	0.99530315
117	0x3f7c1b38	0.9847903
118	0x3f88d983	1.0691379
119	0x3f710edf	0.94163316
120	0x3f7344a2	0.950266
121	0x3f714924	0.9425223
122	0x3f83f268	1.0308352
123	0x3f578a4f	0.8419542
124	0x3f84eee6	1.0385406
125	0x3f72072d	0.945422
126	0x3f7a0868	0.97669077
127	0x3f8503d9	1.0391799

batch_norms.1.bias f4 [128]
0	0xbe4d414f	-0.20044445
1	0xbd7c2a2c	-0.061563656
2	0xbb82c782	-0.0039910683
3	0x3d88677c	0.06660363
4	0xbd46753c	-0.048451647
5	0x3c5b6038	0.01338964
6	0x3db6805f	0.089112036
7	0xbd080461	-0.0332073
8	0x3ca78bbe	0.020452376
9	0xbd74c0d7	-0.05975422
10	0xbe1ac471	-0.15113999
11	0xbc89d2e4	-0.016824193
12	0xbdcf1fd7	-0.10113495
13	0xbe1e42c0	-0.1545515
14	0x3e4fa525	0.20277841
15	0xbe4e5087	-0.20147906
16	0xbd454bac	-0.04816787
17	0xbe249847	-0.16073714
18	0x3e595370	0.21223235
19	0x3d6d3bdf	0.057918426
20	0xbe1ebb7f	-0.15501212
21	0xbdb973f2	-0.09055318
22	0x3ded2913	0.115801
23	0xbe109e35	-0.14122851
24	0xbd05f4ab	-0.032704037
25	0xbdd324c9	-0.103097506
26	0xbde68b4f	-0.1125704
27	0xbdef95b0	-0.116984725
28	0xbd8ccfd8	-0.068755805
29	0xbd1173f2	-0.035510965
30	0xbc607ce3	-0.01370165
31	0x3dbc8d8d	0.09206686
32	0x3abf4684	0.0014593159
33	0xbddd4a84	-0.10805228
34	0xbd9b6ae2	-0.07588746
35	0xbde787aa	-0.11305173
36	0xbd9977cd	-0.07493553
37	0xbe692db3	-0.22771339
38	0x3c3ca662	0.011514278
39	0xbc1e6b01	-0.009669066
40	0x3d546a6e	0.05185931
41	0x3d99c257	0.075077705
42	0xbdb3dd41	-0.08782435
43	0xbd8407bf	-0.0644679
44	0xbd57cabf	-0.052683588
45	0xbe093de7	-0.1340252
46	0xbdb78f5a	-0.08962889
47	0xbe042ea6	-0.1290842
48	0x3ae32f8e	0.0017332898
49	0x3cc8282e	0.024433222
50	0xbd898e5e	-0.067166075
51	0x3da4d9a2	0.08049323
52	0xbdf2e12c	-0.118593544
53	0x3d035213	0.032060694
54	0xbcdc2bf2	-0.026876424
55	0x3d94d970	0.072680354
56	0xbdd99dba	-0.10625787
57	0xbc43ff71	-0.011962757
58	0xbd6e05e2	-0.05811108
59	0x3c9d1efe	0.019179817
60	0x3bfe462e	0.007759831
61	0xbdae6c8a	-0.08516796
62	0xbd78f26d	-0.06077807
63	0xbd9a0382	-0.075202
64	0xbe30f9d1	-0.17282797
65	0xbdc773c3	-0.09738877
66	0x3cf0a696	0.02937631
67	0xbd95adf0	-0.073085666
68	0x3cd1b64f	0.025599627
69	0xbdb4a898	-0.08821219
70	0xbe531508	-0.20613492
71	0xbe282d3d	-0.16423507
72	0xbc1ae9b4	-0.009455133
73	0xbd909468	-0.07059556
74	0xbdab3039	-0.08358807
75	0xbe68eb22	-0.22745946
76	0xbd596b62	-0.053080924
77	0xbe2be92f	-0.16788171
78	0xbe1dacbc	-0.15397924
79	0xbc4fe3ff	-0.012688636
80	0xbe294c09	-0.16532911
81	0xbdb0b70f	-0.08628666
82	0x3b9ba03f	0.0047493274
83	0xbe35b30c	-0.17744082
84	0xbe2811cb	-0.16413037
85	0x3d67898b	0.056527656
86	0xbe37bc10	-0.17942834
87	0xbdb87c54	-0.09008089
88	0xbe154998	-0.14578855
89	0xbe157d99	-0.14598693
90	0x3b2d00c7	0.0026398168
91	0xbdaa66a1	-0.08320356
92	0xbe04f03c	-0.12982267
93	0xbd309949	-0.043114934
94	0xbd78ff44	-0.060790315
95	0x3dd83097	0.10556143
96	0x3d23d532	0.03999824
97	0xbe281582	-0.16414455
98	0xbe6cb6f1	-0.23116662
99	0x3c9dd652	0.019267235
100	0xbdb9a37a	-0.09064384
101	0xbde272c5	-0.11057047
102	0x3cc7c02d	0.024383629
103	0x3d543494	0.051807955
104	0x3b43d03c	0.0029878756
105	0xbd0fe006	-0.035125755
106	0x3ddeb498	0.10874289
107	0xbd2f32b6	-0.04277297
108	0xbdc87f6d	-0.097899295
109	0xbcfdc14c	-0.03097596
110	0xbd9c29f7	-0.07625192
111	0xbd7516dc	-0.059836254
112	0x3c91d462	0.017801467
113	0xbdaec5db	-0.08533832
114	0xbdb10db3	-0.08645191
115	0xbe0f9ec8	-0.14025414
116	0xbd06e61c	-0.032934293
117	0xbd2380a8	-0.039917618
118	0xbe9eb896	-0.31000203
119	0xbbf96611	-0.007611044
120	0xbc4198c3	-0.011816206
121	0xbdc34201	-0.095340736
122	0x3ddbcae1	0.107320555
123	0xbdea9013	-0.11453261
124	0x3cf17888	0.02947642
125	0xbdea3373	-0.114355944
126	0x3d7ed37c	0.062213406
127	0x3d33aeb1	0.04386777

batch_norms.1.running_mean f4 [128]
0	0x3eac2d09	0.3362811
1	0xbf9557b4	-1.166739
2	0xbed31c66	-0.41232604
3	0xbf385aee	-0.7201375
4	0xbf07f37e	-0.53105915
5	0x3de541ee	0.11194216
6	0xbf164943	-0.5870554
7	0xbf3facb2	-0.7487289
8	0xbf170621	-0.58993727
9	0x3f28929c	0.6584871
10	0xbe5120c7	-0.2042266
11	0xbeea4d4c	-0.45762098
12	0x3ef1b13f	0.4720554
13	0xbeb0ed76	-0.34556168
14	0x3e9cb331	0.30605462
15	0x3e837373	0.25674018
16	0x3da9aef7	0.08285325
17	0xbeb571da	-0.35438424
18	0x3e0b2379	0.1358775
19	0xbee89915	-0.45429292
20	0x3efd2d3b	0.4944857
21	0xbf940007	-1.1562508
22	0xbc245a7b	-0.010031338
23	0xbeb3ed4f	-0.3514199
24	0x3f383468	0.71954966
25	0xbef1037d	-0.47072974
26	0x3eab3c58	0.33444476
27	0x3f07d779	0.5306316
28	0xbe0ec7b2	-0.13943365
29	0x3ebb7695	0.36613908
30	0xbf1fb1aa	-0.6238047
31	0xbf71709a	-0.9431244
32	0x3f63da76	0.8900522
33	0x3ca0c33f	0.01962435
34	0x3cd9c34a	0.026582379
35	0xbef570c3	-0.47937593
36	0xbeaf0f3b	-0.34191307
37	0xbe94e156	-0.29078168
38	0xbe3c4659	-0.1838621
39	0xbf0e3349	-0.55547005
40	0x3f084c79	0.5324169
41	0x3f092944	0.5357859
42	0xbf3017ed	-0.6878651
43	0x3f0803a8	0.5313058
44	0xbf108353	-0.56450385
45	0xbcdfa3be	-0.027299758
46	0xbf504d98	-0.813684
47	0x3f094a5d	0.53629094
48	0xbf2f2bde	-0.6842631
49	0xbe26965c	-0.16268295
50	0xbeb445c2	-0.3520947
51	0x3e939fbd	0.28832808
52	0xbf6ac45d	-0.91705877
53	0x3ebb6b15	0.36605135
54	0xbf203522	-0.62581074
55	0x3f6c35fd	0.9226988
56	0xbeb44550	-0.3520913
57	0x3f2c3065	0.67261344
58	0x3e5095b8	0.20369613
59	0xbef63055	-0.4808375
60	0xbf8297f6	-1.0202625
61	0xbf30882e	-0.68957794
62	0xbf8b92aa	-1.0904133
63	0xbf29232a	-0.6606928
64	0xbec98fc0	-0.39367485
65	0xbef7c083	-0.48389062
66	0xbf3acc2d	-0.729678
67	0xbe0270fc	-0.12738413
68	0xbe4c2e62	-0.19939569
69	0x3f3bc402	0.7334596
70	0xbf95492b	-1.1662954
71	0xbeaaf894	-0.33392775
72	0xbf22173d	-0.6331671
73	0xbfa34173	-1.2754349
74	0x3d44482b	0.047920387
75	0x3ef6091c	0.48053825
76	0xbf44afd7	-0.7683081
77	0xbfa965b2	-1.323416
78	0xbf2f1d04	-0.6840365
79	0xbece44e9	-0.4028695
80	0xbcc4046e	-0.023927893
81	0xbd7092f9	-0.058733914
82	0xbef9a70c	-0.4876026
83	0x3e6ca292	0.2310889
84	0x3f201b2f	0.6254148
85	0x3f20597b	0.62636536
86	0x3eb24206	0.34815997
87	0xbf1f6710	-0.62266636
88	0x3f235bf4	0.63812184
89	0xbf0cb41d	-0.5496233
90	0x3e37262a	0.17885652
91	0x3e92aa23	0.2864543
92	0xbe303bad	-0.17210265
93	0x3eab9e56	0.33519238
94	0x3daab2f0	0.08334911
95	0xbea660ee	-0.32495826
96	0xbe13971b	-0.14413111
97	0xbf889dc9	-1.0673152
98	0xbf6b21a3	-0.918482
99	0xbe6f7e49	-0.23388018
100	0xbef237bd	-0.4730815
101	0xbf3753ee	-0.7161244
102	0xbf2cd76f	-0.67516226
103	0xbe95d773	-0.29265937
104	0x3f31c906	0.6944736
105	0xbf0872c4	-0.5330012
106	0x3e825ad8	0.25459933
107	0x3c96abca	0.018392462
108	0x3f0e4e5c	0.55588317
109	0xbee2c15a	-0.4428814
110	0xbee7597f	-0.45185468
111	0xbf82e7d9	-1.0227004
112	0xbf291ce8	-0.6605973
113	0xbec19bf5	-0.37814298
114	0x3e3d5fd2	0.18493584
115	0xbf3e5d31	-0.7436095
116	0x3e0c8b19	0.13724937
117	0xbf5ca0e1	-0.8618298
118	0xbf7e5c9c	-0.9936006
119	0xbed522c2	-0.4162808
120	0x3e23b607	0.15987407
121	0xbf62392b	-0.8836848
122	0x3da81e65	0.08208922
123	0xbf7feab7	-0.9996752
124	0xbcd04b21	-0.02542645
125	0xbe9a359c	-0.30119026
126	0xbf027264	-0.50955796
127	0xbdda1f94	-0.10650554

batch_norms.1.running_var f4 [128]
0	0x3f74587c	0.95447516
1	0x3f4723cd	0.77789
2	0x3fc3c61e	1.5294836
3	0x3f08f71b	0.53502053
4	0x3f36756b	0.71272916
5	0x3fbd04ed	1.4767128
6	0x3f4a7795	0.7908872
7	0x3f3dae48	0.7409406
8	0x3f4bc58e	0.7959832
9	0x3f37ea99	0.7184234
10	0x3f4b58bc	0.7943227
11	0x3ed67ed3	0.41893634
12	0x3f70db3f	0.94084543
13	0x3f083830	0.53210735
14	0x3fd3dc2c	1.6551566
15	0x3f16397f	0.5868148
16	0x3f907b14	1.128756
17	0x3ec21811	0.37908986
18	0x3f9f8c74	1.2464738
19	0x3f60d39a	0.8782288
20	0x3f4c9b48	0.7992444
21	0x3f37ab59	0.7174583
22	0x3f11a6f5	0.5689538
23	0x3f75db32	0.9603759
24	0x3f7ce830	0.9879179
25	0x3f8c3d9b	1.09563
26	0x3f571095	0.8400968
27	0x3f1dc2a6	0.61625135
28	0x3f36f90d	0.7147377
29	0x3f853179	1.0405723
30	0x3f5c4e09	0.8605657
31	0x3fa71991	1.3054677
32	0x3f850258	1.039134
33	0x3f2d9fd2	0.6782199
34	0x3f3782b3	0.71683806
35	0x3f11ed78	0.57002974
36	0x3f374837	0.71594566
37	0x3f3a3df3	0.72750777
38	0x3f1930be	0.5984
39	0x3f5e10a6	0.86744153
40	0x3fa81778	1.3132162
41	0x3fbed712	1.4909384
42	0x3f798575	0.97469264
43	0x3f29de20	0.6635456
44	0x3eab28ea	0.33429652
45	0x3f225788	0.6341481
46	0x3f1d2568	0.613852
47	0x3f75e959	0.96059185
48	0x3fd77b60	1.6834526
49	0x3f9895e4	1.1920743
50	0x3f1cb4e3	0.6121351
51	0x3ff10dd3	1.8832344
52	0x3f021c23	0.50824183
53	0x400f7abd	2.2418664
54	0x3f49618e	0.7866448
55	0x3fd08210	1.6289692
56	0x3ec5d1f4	0.38636744
57	0x3f81a25c	1.0127673
58	0x3f8ddaef	1.1082438
59	0x3f44aa73	0.76822585
60	0x3f4043f0	0.75103664
61	0x3ee36e64	0.4442016
62	0x3f80aa5d	1.0051991
63	0x3f4176b0	0.7557173
64	0x3f8542ab	1.041097
65	0x3e8cfe52	0.2753778
66	0x3ec55089	0.38538006
67	0x3f2a1b4c	0.664479
68	0x3f25b9a4	0.6473639
69	0x3f976fe2	1.1831019
70	0x3f6fd520	0.9368458
71	0x3f1da0c6	0.61573446
72	0x3f375559	0.71614605
73	0x3f08367f	0.53208154
74	0x3f1a364b	0.60239094
75	0x3f6365b1	0.88827044
76	0x3f344b99	0.7042785
77	0x3f3f6b3b	0.74772996
78	0x3f5e9011	0.8693858
79	0x3f1e3963	0.61806315
80	0x3e5d9430	0.2163856
81	0x3e9ba413	0.30398616
82	0x3fc172a8	1.5113115
83	0x3f0f35d5	0.55941516
84	0x3f14887a	0.58020747
85	0x3fedbf22	1.8573954
86	0x3f6d0084	0.9257891
87	0x3f6a6db2	0.9157363
88	0x3f322112	0.6958171
89	0x3f18bf5c	0.5966699
90	0x3fc07411	1.5035421
91	0x3f31db26	0.6947502
92	0x3faec23c	1.3653026
93	0x3f126500	0.57185364
94	0x3f306b54	0.6891377
95	0x3f6f97db	0.9359109
96	0x3ede2943	0.43390855
97	0x3f26e402	0.6519166
98	0x3f0475c0	0.5174217
99	0x3f098cb5	0.53730327
100	0x3f83f102	1.0307925
101	0x3f839b1b	1.028171
102	0x3f1a04a9	0.6016336
103	0x3f0ee460	0.5581722
104	0x3f9c9aca	1.2234738
105	0x3f942ed0	1.1576786
106	0x3f94eb31	1.1634275
107	0x3f4e7094	0.8064053
108	0x3f9ab7d4	1.208735
109	0x3f836336	1.0264652
110	0x3f8a4b31	1.0804197
111	0x3f0923cd	0.5357025
112	0x3ed0c7cf	0.40777442
113	0x3f660a1c	0.89859176
114	0x3f39c619	0.725679
115	0x3ecae5dd	0.39628497
116	0x3f727350	0.947072
117	0x3f7809cf	0.96889967
118	0x3f06652f	0.52498144
119	0x3f77f6aa	0.96860754
120	0x3f621b3c	0.88322806
121	0x3f05c4c1	0.5225335
122	0x3fbdc4bf	1.4825667
123	0x3f5dc1fd	0.8662413
124	0x3fa94270	1.32234
125	0x3ef691db	0.48158154
126	0x3f5c141c	0.85968184
127	0x3f37108b	0.7150962

batch_norms.2.weight f4 [256]
0	0x3ea76147	0.32691404
1	0x3ef1168b	0.4708751
2	0x3ee601e2	0.4492331
3	0x3f004387	0.5010304
4	0x3f013c8f	0.5048303
5	0x3f0b281f	0.54358095
6	0x3ef3fc86	0.47653598
7	0x3f23a789	0.63927513
8	0x3f03f0d3	0.51539344
9	0x3efb2448	0.49051118
10	0x3ed5a4b3	0.41727218
11	0x3ee2b078	0.4427526
12	0x3ef4a513	0.47782192
13	0x3ef5e392	0.48025185
14	0x3ef89115	0.4854819
15	0x3eb0207f	0.34399793
16	0x3f095313	0.53642386
17	0x3f09d22f	0.5383634
18	0x3f02cfc0	0.5109825
19	0x3f062cc0	0.52412033
20	0x3f0aa328	0.54155207
21	0x3eec5b4f	0.46163413
22	0x3f04e1f2	0.51907265
23	0x3ec71ada	0.38887674
24	0x3ee1aa70	0.44075346
25	0x3ef03c65	0.46921077
26	0x3f09d693	0.5384304
27	0x3ebf186f	0.3732333
28	0x3eee8bcb	0.4659103
29	0x3edee9df	0.43537804
30	0x3ef3e227	0.47633478
31	0x3f0b20e9	0.5434709
32	0x3eef6225	0.46754566
33	0x3f032d2b	0.51240796
34	0x3ec6ed14	0.3885275
35	0x3f07c1c8	0.5303006
36	0x3f0a0afb	0.53923005
37	0x3f1fdb17	0.6244368
38	0x3ef3e686	0.47636813
39	0x3ef8b0f3	0.48572502
40	0x3ec6157e	0.38688272
41	0x3ef9c405	0.48782364
42	0x3efeabba	0.49740392
43	0x3efa9904	0.48944867
44	0x3f0d86fd	0.552841
45	0x3eef6c07	0.46762106
46	0x3ef8c8d3	0.48590717
47	0x3f0c5d44	0.5482981
48	0x3efa1c9a	0.48849946
49	0x3ef4e30e	0.4782948
50	0x3ef306b9	0.47466066
51	0x3ece1d4d	0.4025673
52	0x3ef12bcf	0.47103736
53	0x3ef0f1a6	0.47059363
54	0x3f080c54	0.5314381
55	0x3e86d1eb	0.2633203
56	0x3ef96936	0.48713082
57	0x3f05d6c1	0.52280813
58	0x3f021818	0.50818014
59	0x3ee976ff	0.455986
60	0x3ed56635	0.4167954
61	0x3f0aee43	0.5426981
62	0x3ef64fbf	0.48107716
63	0x3eff820b	0.49903902
64	0x3ef641e7	0.48097154
65	0x3ee9ab16	0.4563834
66	0x3edf10bc	0.43567455
67	0x3f095971	0.536521
68	0x3f0c5dd7	0.5483069
69	0x3ef4af03	0.47789773
70	0x3f006b4c	0.5016372
71	0x3f00034f	0.5000505
72	0x3f09f51d	0.5388964
73	0x3eec4144	0.46143544
74	0x3f05157c	0.5198591
75	0x3ec6f929	0.3886197
76	0x3f16a034	0.588382
77	0x3f04d549	0.5188795
78	0x3f12c4cc	0.5733154
79	0x3f11f8f7	0.57020515
80	0x3ed8f2f1	0.4237285
81	0x3f082d75	0.5319436
82	0x3f0c9dfa	0.54928553
83	0x3f088736	0.53331316
84	0x3f08bbbb	0.53411454
85	0x3ef413d1	0.4767137
86	0x3f06834d	0.525441
87	0x3ef63b09	0.48091915
88	0x3ee0d154	0.43909705
89	0x3ef77f68	0.4833939
90	0x3f0cc711	0.5499125
91	0x3ec6fc5b	0.38864407
92	0x3f0612e4	0.52372575
93	0x3f15a724	0.5845816
94	0x3f063a6f	0.5243291
95	0x3f000855	0.50012714
96	0x3ef815a3	0.48454008
97	0x3f0599c0	0.5218773
98	0x3f11d6db	0.5696847
99	0x3efe764b	0.49699625
100	0x3efe623c	0.49684322
101	0x3efae1a5	0.49000278
102	0x3e99b874	0.3002354
103	0x3ef9fd9c	0.488263
104	0x3ef84517	0.4849021
105	0x3ec744d0	0.38919687
106	0x3f09499a	0.5362793
107	0x3ebee8f2	0.37287098
108	0x3f13ca2c	0.57730365
109	0x3f02ab41	0.5104256
110	0x3f048336	0.5176271
111	0x3f03172e	0.51207244
112	0x3eedb1c5	0.4642469
113	0x3eeb5b2d	0.45968
114	0x3ed15b3f	0.40889928
115	0x3ed82d0f	0.42221877
116	0x3f15acfd	0.58467084
117	0x3efc838d	0.49319115
118	0x3f031b0b	0.5121314
119	0x3ec70704	0.3887254
120	0x3ec3198b	0.38105425
121	0x3f0392d4	0.51395917
122	0x3ef3d536	0.47623605
123	0x3f1377e0	0.5760479
124	0x3eeee483	0.46658716
125	0x3f0089e0	0.5021038
126	0x3edc7ccd	0.43063965
127	0x3ef3bd84	0.47605526
128	0x3edd6d3e	0.43247408
129	0x3ee7aca4	0.45248902
130	0x3eee9fc2	0.4660626
131	0x3ef08d12	0.46982628
132	0x3f02781a	0.5096451
133	0x3f0078b8	0.501842
134	0x3ef7e158	0.4841411
135	0x3f08b59d	0.5340212
136	0x3ef206a5	0.47270694
137	0x3f10447a	0.56354487
138	0x3eeeedbe	0.46665758
139	0x3f048d55	0.51778156
140	0x3ef125e1	0.47099212
141	0x3f0743dc	0.5283792
142	0x3f06a4fc	0.52595496
143	0x3f12504a	0.5715376
144	0x3f04cd4a	0.51875746
145	0x3ee140a1	0.4399462
146	0x3f0c7e55	0.5488027
147	0x3f0150fb	0.5051419
148	0x3ed3ca7c	0.4136542
149	0x3efa165d	0.48845187
150	0x3f0b4a48	0.5441022
151	0x3ea78af3	0.32723197
152	0x3ea8341d	0.3285226
153	0x3f137dd1	0.57613856
154	0x3ea266b3	0.31718978
155	0x3ecb9c4c	0.39767683
156	0x3ec47ad2	0.38374954
157	0x3ee8ab33	0.45443115
158	0x3eef1281	0.46693805
159	0x3eee1bb4	0.4650551
160	0x3f1ac714	0.6046002
161	0x3f223f79	0.633781
162	0x3eb279bd	0.34858504
163	0x3eb1dc58	0.3473842
164	0x3eee23a0	0.46511555
165	0x3eeef9c4	0.4667493
166	0x3ef46eb6	0.47740716
167	0x3ee3ad63	0.4446822
168	0x3edb7079	0.42859247
169	0x3f1a7d70	0.6034765
170	0x3f1a1b11	0.6019755
171	0x3ef2c7d0	0.4741807
172	0x3ed7ac2c	0.42123544
173	0x3f1199e1	0.56875426
174	0x3f09a784	0.53771234
175	0x3ee39ec4	0.44457066
176	0x3eceb311	0.40370992
177	0x3f0b28b4	0.54358983
178	0x3ef6f0c3	0.48230562
179	0x3f00ded5	0.50340015
180	0x3f086862	0.53284276
181	0x3f1043c9	0.5635343
182	0x3f11fb98	0.57024527
183	0x3ee57073	0.44812354
184	0x3f0c1b2a	0.5472895
185	0x3ecaee8d	0.39635125
186	0x3f032596	0.51229227
187	0x3eed6095	0.4636275
188	0x3f0a5dfa	0.54049647
189	0x3f0de9a0	0.5543461
190	0x3ee68802	0.4502564
191	0x3ee23dd6	0.44187802
192	0x3f0b2ba9	0.54363495
193	0x3ef02ebb	0.46910653
194	0x3ef7253d	0.48270598
195	0x3f0164f0	0.50544643
196	0x3ef1bb3e	0.47213167
197	0x3ebe815e	0.37208074
198	0x3eff17e4	0.49822915
199	0x3ee61d57	0.4494426
200	0x3eeeb536	0.46622628
201	0x3f1569c2	0.583645
202	0x3f148977	0.58022255
203	0x3ec85f21	0.39135078
204	0x3f02123f	0.5080909
205	0x3edeab9e	0.4349031
206	0x3ed61235	0.41810766
207	0x3edc2844	0.4299947
208	0x3f031c3b	0.5121495
209	0x3eeb8767	0.4600174
210	0x3ed9cb5b	0.4253796
211	0x3f0d7633	0.5525848
212	0x3f11ab44	0.56901956
213	0x3ecd83ed	0.40139714
214	0x3f1318f1	0.5745993
215	0x3ef53ea1	0.47899345
216	0x3e986c56	0.29770154
217	0x3edcb635	0.43107763
218	0x3f05f8a4	0.5233252
219	0x3f073d7c	0.5282819
220	0x3f01dfc4	0.50732064
221	0x3ed4813d	0.4150485
222	0x3eb39dd1	0.35081342
223	0x3efe5a6d	0.49678364
224	0x3ec7d8e1	0.39032653
225	0x3ec4da50	0.3844781
226	0x3ef1e5d1	0.47245649
227	0x3ee3cf57	0.44494125
228	0x3eee43b3	0.46536025
229	0x3eff13b9	0.49819735
230	0x3ef03e98	0.46922755
231	0x3efc7072	0.4930454
232	0x3f067085	0.5251544
233	0x3f02fd68	0.5116792
234	0x3edd241f	0.4319162
235	0x3f06ae4d	0.5260971
236	0x3f097a69	0.5370241
237	0x3f045188	0.51686907
238	0x3f06141a	0.5237442
239	0x3f1b7a59	0.6073356
240	0x3f00bc8a	0.5028769
241	0x3efc86fd	0.49321738
242	0x3eef52ce	0.46742862
243	0x3f0ed451	0.5579272
244	0x3ee7f41c	0.45303428
245	0x3f1dedd2	0.6169101
246	0x3eede5e8	0.46464467
247	0x3f03b0f3	0.5144188
248	0x3ec304b1	0.38089517
249	0x3ef75ffb	0.48315415
250	0x3ef10d4f	0.47080466
251	0x3f0cfa31	0.5506926
252	0x3f04db4d	0.51897126
253	0x3ee663fc	0.44998157
254	0x3f0703a1	0.5273991
255	0x3f0a0094	0.5390713

batch_norms.2.bias f4 [256]
0	0xbe338c9a	-0.17534104
1	0xbe02cdeb	-0.12773864
2	0x3e144b91	0.14481951
3	0xbc09ab6f	-0.008402689
4	0xbe24c7dc	-0.16091865
5	0x3e08cd78	0.1335963
6	0xbe14d6c9	-0.14535059
7	0xbd82be4b	-0.06383952
8	0x3e17ed46	0.14836606
9	0x3c045d90	0.008078948
10	0x3e0558f7	0.13022219
11	0xbe000c41	-0.12504674
12	0x3e0e89df	0.13919781
13	0xbe1a2191	-0.15051867
14	0xbdb8ccd6	-0.09023444
15	0xbe169cf1	-0.14708306
16	0xbdfa9e48	-0.12237221
17	0x3e0658f8	0.13119876
18	0x3e212b13	0.15739088
19	0xbe028db3	-0.12749366
20	0xbd90086a	-0.07032855
21	0x3e09bf2f	0.13451837
22	0xbe023566	-0.12715682
23	0x3d467728	0.04845348
24	0xbe17998a	-0.14804664
25	0xbdd8470c	-0.10560426
26	0x3e15c01b	0.14624064
27	0x3de9e9d4	0.11421552
28	0x3e17e85d	0.14834733
29	0xbe172b98	-0.14762723
30	0xbe06a42c	-0.13148564
31	0xbe04d29d	-0.12970968
32	0x3db78d2b	0.089624725
33	0xbe135e21	-0.14391376
34	0xbe2d7908	-0.16940701
35	0x3e2c9b7e	0.1685619
36	0x3defa7cb	0.11701926
37	0xbe13e5be	-0.14443108
38	0xbe1f7c39	-0.15574731
39	0x3e1ace78	0.15117824
40	0xbdc8954c	-0.09794101
41	0xbe0d7444	-0.13813883
42	0xbddb25aa	-0.10700543
43	0x3e12a320	0.1432004
44	0x3c823916	0.015896361
45	0xbcd14351	-0.025544794
46	0x3dcafdf7	0.09911721
47	0x3dc0bad3	0.09410634
48	0xbe10eb3c	-0.14152235
49	0xbe105051	-0.14093138
50	0x3e19e642	0.15029243
51	0xbda35d56	-0.07976787
52	0xbe140775	-0.1445597
53	0xbdf715ef	-0.120647304
54	0x3dac1b74	0.08403674
55	0xbe287c49	-0.16453661
56	0xbe1acfe7	-0.15118371
57	0xbe07acce	-0.13249514
58	0x3e12aeca	0.14324489
59	0x3df27032	0.11837806
60	0xbe1a9a0b	-0.15097825
61	0xbe1411ac	-0.14459866
62	0x3e03537e	0.12824818
63	0xbcabce9e	-0.020972546
64	0x3e1391e0	0.14411116
65	0xbe03e702	-0.12881091
66	0x3e1ec3c1	0.15504362
67	0xbe0a6822	-0.13516286
68	0x3e101d31	0.14073636
69	0x3df129df	0.117755644
70	0xbdec95c6	-0.115520045
71	0xbdff5414	-0.124672085
72	0xbde78261	-0.11304165
73	0xbe270769	-0.1631142
74	0xbe00742e	-0.12544319
75	0x3e07e60b	0.13271348
76	0xbe145f4e	-0.14489481
77	0xbdf1783e	-0.117905125
78	0xbe19601e	-0.14978072
79	0xbe02dc0e	-0.12779257
80	0xbe088e50	-0.13335538
81	0x3e14b647	0.14522658
82	0xbdf6deb4	-0.12054196
83	0xbdb92a4a	-0.09041269
84	0xbe0582d6	-0.13038191
85	0xbdede7c4	-0.116164714
86	0x3d6cd3e2	0.057819255
87	0xbe101315	-0.14069779
88	0x3e1b622e	0.15174171
89	0xbe02abb5	-0.12760814
90	0xbe1154af	-0.1419246
91	0xbdfe1cfa	-0.124078706
92	0xbc2ad5f5	-0.010426988
93	0x3e1458cd	0.14487
94	0xbd9ee672	-0.07758798
95	0xbdecb299	-0.11557502
96	0xbe08bad0	-0.13352513
97	0x3dcd63c5	0.10028795
98	0xbdaef915	-0.085436024
99	0x3cd43350	0.025903374
100	0xbdf11d18	-0.11773127
101	0xbe09fe5a	-0.13475934
102	0xbe30f53f	-0.17281054
103	0x3dd24047	0.10266166
104	0x3e1b7b46	0.15183744
105	0x3d0ad410	0.033893645
106	0xbc113faf	-0.008865281
107	0xbdbb043f	-0.09131669
108	0xbdcf7ab7	-0.10130828
109	0xbde7fdf2	-0.11327733
110	0x3daf8b55	0.08571497
111	0xbe1c7971	-0.15280701
112	0xbe1ded13	-0.15422468
113	0x3bac0602	0.0052497396
114	0x3e1566f6	0.14590058
115	0x3e22af6e	0.15887234
116	0xbdb56fcc	-0.08859214
117	0x3e0e8cd6	0.13920912
118	0xbe1638aa	-0.14670053
119	0xbe11abd9	-0.14225711
120	0x3e20bd71	0.15697266
121	0xbd2e5e7c	-0.042570576
122	0xbd2b5d97	-0.0418373
123	0xbbe1e8d7	-0.0068942118
124	0xbe1bb38c	-0.1520521
125	0xbc7164a6	-0.014733469
126	0x3e0974a5	0.13423403
127	0xbe02dca0	-0.12779474
128	0x3e0da25b	0.13831465
129	0x3e18ea12	0.1493304
130	0xbdd37ef3	-0.10326948
131	0xbe15d3b5	-0.14631541
132	0xbdeff635	-0.11716882
133	0x3e14f336	0.14545903
134	0xbba7e767	-0.005124021
135	0x3da5c953	0.0809504
136	0xbde15575	-0.11002628
137	0xbe0e202a	-0.13879457
138	0x3e1ea635	0.1549309
139	0x3e0c6577	0.13710581
140	0xbd2883b7	-0.041141238
141	0x3b381709	0.0028089902
142	0x3dffe130	0.12494123
143	0xbdd0dd07	-0.101984076
144	0xbdf4d2b8	-0.11954254
145	0x3e1a6c19	0.15080298
146	0xbe167a5c	-0.14695114
147	0xbdd9982f	-0.1062473
148	0x3e06c133	0.13159637
149	0x3e006101	0.12537004
150	0xbd8dc560	-0.06922412
151	0xbe200ae5	-0.15629156
152	0xbe271bd1	-0.16319205
153	0xbe1823a6	-0.14857349
154	0xbe2f91ee	-0.17145512
155	0xbe17e99f	-0.14835213
156	0xbe037c0d	-0.1284029
157	0xbdf6e16d	-0.12054715
158	0xbe24ea41	-0.16104986
159	0x3e17eea1	0.14837123
160	0xbe1ce12c	-0.15320271
161	0x3e132d56	0.14372763
162	0xbe30eb0e	-0.17277166
163	0xbe27808e	-0.16357633
164	0x3ddbe1bb	0.10736414
165	0xbe0bc86d	-0.13650675
166	0xbe0a6887	-0.13516437
167	0xbdeb6084	-0.11493018
168	0xbe1e7450	-0.15474057
169	0xbe1af72a	-0.15133348
170	0x3dcf9b5c	0.10137054
171	0xbe0b5596	-0.13606867
172	0x3e2047d8	0.15652406
173	0x3dc3a2c9	0.09552533
174	0xbe1ef923	-0.15524726
175	0x3e15446c	0.14576882
176	0xbe13d049	-0.14434923
177	0xbe0c4713	-0.13698988
178	0x3e1e9dd3	0.15489893
179	0xbdd8cea5	-0.10586289
180	0xbd099181	-0.03358603
181	0xbe18bf36	-0.14916691
182	0xbcbcf74e	-0.023067143
183	0x3d1a05eb	0.0376033
184	0xb9095735	-0.00013097825
185	0xbe14b955	-0.14523824
186	0xbe25d3a7	-0.1619402
187	0x3db399cf	0.08769571
188	0xbdf59503	-0.11991312
189	0x3e101386	0.14069948
190	0xbdf51594	-0.11967006
191	0xbdf159f5	-0.11784736
192	0x3e1cb0ce	0.1530182
193	0xbe1c6596	-0.15273127
194	0xbe1647f2	-0.14675882
195	0x3e1b3e2a	0.15160432
196	0xbe2bbecf	-0.16772006
197	0xbe169799	-0.14706267
198	0xbdb5d86e	-0.08879171
199	0xbe1d9b68	-0.15391314
200	0x3e156f06	0.14593133
201	0x3e0ac325	0.13551004
202	0xbd2b4dda	-0.041822292
203	0xbe123bd9	-0.14280643
204	0xbde9400a	-0.113891676
205	0x3e216162	0.15759805
206	0x3e111964	0.14169842
207	0x3e0067fe	0.1253967
208	0xbdb7e2e9	-0.089788266
209	0xbe10e4fe	-0.14149854
210	0x3e2ab06f	0.16668867
211	0xbc128b4d	-0.008944345
212	0x3dfc3375	0.12314502
213	0x3e24abb9	0.16081132
214	0xba4b1c99	-0.0007748097
215	0xbddc329d	-0.10751841
216	0x3e210bd9	0.15727176
217	0xbe1d29eb	-0.15348022
218	0x3d12e508	0.035862952
219	0x3e01e8f2	0.12686518
220	0x3e130c8b	0.14360254
221	0xbe18f9ff	-0.14939116
222	0x3e1683ed	0.14698763
223	0x3d9b1a0f	0.0757333
224	0x3e1a90db	0.1509432
225	0x3e1c4cad	0.15263624
226	0xbd9fb0ce	-0.07797395
227	0xbe12a0d7	-0.14319168
228	0x3dad802e	0.08471714
229	0x3dd6100b	0.10452279
230	0x3e124bed	0.14286776
231	0x3e1fa7c8	0.15591347
232	0xbdc3f7f2	-0.09568776
233	0xbdf30c60	-0.11867595
234	0xbe1c9d3a	-0.15294352
235	0x3e1d0b01	0.15336229
236	0x3e014557	0.12624107
237	0xbdbef5f9	-0.09324259
238	0x3e022ec6	0.12713155
239	0x3dda369e	0.10654949
240	0xbe01169b	-0.1260628
241	0xbdf8e9c7	-0.121539645
242	0xbe0bae07	-0.13640605
243	0x3d2dc4af	0.0424239
244	0x3dbe439b	0.092902385
245	0xbe164abb	-0.14676945
246	0xbe098d2b	-0.13432758
247	0xbdef7095	-0.11691395
248	0xbe25fd6f	-0.16209958
249	0xbde1838e	-0.1101142
250	0x3e1ee54d	0.15517159
251	0x3df2825c	0.1184127
252	0x3e0da3f3	0.13832073
253	0xbe257a37	-0.16159903
254	0xbdfecf4c	-0.124418825
255	0xbcc6d14b	-0.02426972

batch_norms.2.running_mean f4 [256]
0	0xbf7f9db7	-0.9985003
1	0x3f95b3f2	1.169554
2	0xbe580c83	-0.21098523
3	0x3e5a6ec8	0.21331322
4	0x3fc0bfec	1.505857
5	0x3ef14f54	0.47130835
6	0x3fd8139e	1.6880987
7	0xbf22b60f	-0.6355905
8	0xbfded353	-1.7408241
9	0x3f78e929	0.97230774
10	0x3f2dce27	0.6789269
11	0xbea54b49	-0.32284
12	0x3f862f6e	1.0483224
13	0xbfdc1424	-1.7193646
14	0x3fbcf360	1.4761772
15	0x3f1254ff	0.57160944
16	0xbf7bfc89	-0.98432213
17	0x3ec29ae6	0.38008803
18	0x3fc4e012	1.5380881
19	0xbf885dff	-1.0653685
20	0xbfb4d241	-1.4126664
21	0xbf47453d	-0.77840024
22	0x3fa2b2c8	1.271081
23	0xc005a01f	-2.087898
24	0x3fb40ca9	1.4066364
25	0x3edcfb7c	0.43160617
26	0x3fbbcaf0	1.4671307
27	0x3f8be198	1.0928221
28	0x3fa95f3b	1.3232187
29	0xbfe1da7f	-1.7644805
30	0x3fb4a027	1.4111375
31	0x3f89dc68	1.0770388
32	0x3f1a3d13	0.6024944
33	0x3ee4bacd	0.44673768
34	0x3ff1e7f8	1.8898916
35	0xbff7c413	-1.9356712
36	0xbf69f373	-0.913871
37	0x3fa4b001	1.2866212
38	0x3fa366fc	1.2765803
39	0x3f871c3a	1.0555489
40	0x3ec4a36f	0.3840594
41	0xbf45ba3c	-0.77237296
42	0xbecee677	-0.40410206
43	0xbfb8989b	-1.4421571
44	0x3f55bef4	0.83494496
45	0xbfc0df3f	-1.5068129
46	0xbfaa8a19	-1.3323394
47	0xbf1d866a	-0.61533225
48	0x3f60d994	0.87832
49	0x3f9c848a	1.2227948
50	0xbfd13d26	-1.6346786
51	0x3f8346b0	1.0255947
52	0xbf243715	-0.6414655
53	0x3f0d2f2f	0.5515012
54	0x3e7fbc77	0.24974237
55	0x3ea32c96	0.31869954
56	0x3fbdd63a	1.4831002
57	0x3f5b2acc	0.8561218
58	0xbf4653cc	-0.77471614
59	0xbdec7059	-0.11544866
60	0x3f902a0e	1.1262834
61	0x3fd279ad	1.6443383
62	0x3f5803d3	0.84380835
63	0xbf2dc8d0	-0.6788454
64	0x3f47618e	0.7788323
65	0xbf5830d2	-0.84449494
66	0xbfb1eaa1	-1.3899728
67	0x3f797962	0.9745084
68	0xbfbb475a	-1.463115
69	0x3f0bb4d8	0.5457282
70	0xbf8653f2	-1.0494368
71	0x3f46859b	0.77547616
72	0xbf11f415	-0.57013065
73	0xbf8c5b9e	-1.0965459
74	0x3eda01ee	0.42579597
75	0x3e8b95a8	0.27262616
76	0xc0095970	-2.1460838
77	0x3fd82ac4	1.6888051
78	0xbf086546	-0.5327953
79	0xbfc5e456	-1.5460308
80	0xbf7119a9	-0.9417978
81	0x3d1ed9bd	0.03878187
82	0xbedc560e	-0.43034405
83	0x3f3be804	0.734009
84	0xbf6378c9	-0.8885618
85	0x3fe683ac	1.8008933
86	0x3f2d6db0	0.67745495
87	0xbd008945	-0.03138091
88	0xbf592a2b	-0.8482997
89	0xbef29606	-0.47380084
90	0xbfadc0fb	-1.3574518
91	0x3f455a36	0.77090776
92	0xbf6c78d2	-0.9237186
93	0xbfeec560	-1.8653984
94	0xbfee210a	-1.8603833
95	0x3f8a3565	1.0797545
96	0x3f4c8919	0.79896694
97	0x3ed985ba	0.42484838
98	0xbee28234	-0.44239962
99	0xbfbd1e0a	-1.4774792
100	0x3f0aad1d	0.541704
101	0x3f87f761	1.0622369
102	0x3fc65ef4	1.5497727
103	0xbfafe1ae	-1.3740747
104	0xbfb1b403	-1.388306
105	0x3fdf9b87	1.7469338
106	0xbf5819f1	-0.84414583
107	0x3fa1f05c	1.2651477
108	0x3f6c7dd3	0.9237949
109	0xbf222829	-0.6334253
110	0x3eb73f50	0.3579049
111	0x3ffa7bd2	1.9569037
112	0x3ff93f20	1.9472389
113	0x3fd90c48	1.6956873
114	0xbfb9f43d	-1.4527661
115	0x3f1427d0	0.5787325
116	0xbfbc64c7	-1.4718255
117	0xbf2c6fc2	-0.6735803
118	0x3fbd7587	1.4801491
119	0xbf61af1f	-0.8815784
120	0x3e01e3a4	0.12684494
121	0x3e7aae56	0.24480566
122	0xbf6742ae	-0.9033612
123	0xbf49965e	-0.7874507
124	0xbe947375	-0.28994337
125	0x3f67c76a	0.90538657
126	0xbf88e605	-1.0695196
127	0x3fb1e748	1.3898706
128	0x3e5fbc60	0.21849203
129	0xbfe51085	-1.7895666
130	0xbf5b8da6	-0.85763013
131	0xbf391113	-0.7229168
132	0xbf83f5ef	-1.0309428
133	0x3f35843a	0.70904887
134	0xbfa9ffe4	-1.3281217
135	0xbe95726d	-0.29188862
136	0x3f1f74af	0.6228742
137	0xbf603145	-0.8757518
138	0x3fd19998	1.6374998
139	0x3f805fc7	1.0029229
140	0x3fbad0e5	1.4595
141	0xbf83f7a1	-1.0309945
142	0xbf9cf8d4	-1.2263436
143	0xbfa9b196	-1.325732
144	0xbf4b8afa	-0.79508936
145	0x3f35d235	0.71023875
146	0x3fe4fd05	1.7889715
147	0x3fd181cd	1.6367737
148	0xbefc4647	-0.49272367
149	0x3f85c0cb	1.0449461
150	0xbf98a87c	-1.1926417
151	0x3fa02ba2	1.2513316
152	0xbd95f64a	-0.073223665
153	0x3fa4d9bb	1.2878946
154	0xbfc31d83	-1.5243381
155	0x3fa78ca5	1.3089796
156	0xbf9f70f8	-1.245635
157	0xbfb5f04e	-1.421396
158	0x3ee67a3a	0.45015126
159	0xbfb550b6	-1.4165256
160	0x3fcfc098	1.623065
161	0xbfe2017a	-1.7656701
162	0x3fb5267f	1.4152373
163	0x3fd61c45	1.6727377
164	0x3edca717	0.4309623
165	0x3f9fef0f	1.249483
166	0xbe80069a	-0.25005037
167	0xbfb83a62	-1.4392817
168	0x3d41a201	0.04727364
169	0xbf8a2c35	-1.0794741
170	0x3ed5094d	0.41608658
171	0x3f29ebfd	0.66375715
172	0xbfc15333	-1.5103515
173	0x3d67bb14	0.056574896
174	0x3df4f501	0.11960793
175	0x3ee3ff3b	0.44530663
176	0xbd30e460	-0.043186545
177	0x3f0dee1a	0.5544144
178	0xbfc92b53	-1.5716347
179	0x3e1b5237	0.15168081
180	0xbe8b2a55	-0.27180734
181	0x3ff4028b	1.9063276
182	0xbf4ab89d	-0.7918795
183	0xbff1f086	-1.8901527
184	0x3eb1dcf8	0.34738898
185	0xbf8b416a	-1.0879338
186	0x3fcdbff0	1.60742
187	0xbec3ed67	-0.3826706
188	0x3e69a24b	0.22815816
189	0x3fb59716	1.4186733
190	0x3f8a32bb	1.0796732
191	0x3f12af4c	0.5729873
192	0xbfb08cdb	-1.3792986
193	0x3f881f69	1.0634586
194	0xbf6e5a08	-0.93106127
195	0x3f709ddb	0.9399087
196	0x3fc4b41f	1.5367469
197	0xbf43c303	-0.7646944
198	0x3f9351a5	1.1509291
199	0xbf98f276	-1.1948993
200	0xbff3977b	-1.9030603
201	0xbfb10181	-1.3828584
202	0x3f9ce57b	1.2257532
203	0x3fa45cb7	1.2840794
204	0xbceb62fd	-0.028733725
205	0x3faf367d	1.3688504
206	0x3e98c98a	0.29841262
207	0xbf5e314f	-0.8679399
208	0x3f927aa6	1.1443679
209	0xbf4cfe68	-0.80075693
210	0xbf888000	-1.0664062
211	0x3e2440b8	0.16040313
212	0x3ff451ee	1.9087503
213	0xbfa3a14a	-1.2783597
214	0xbe2d597f	-0.16928671
215	0xbe6138a3	-0.21994261
216	0xbf997b30	-1.1990719
217	0xbfaaf302	-1.335541
218	0xbf6ee243	-0.93314
219	0x3f493ffd	0.78613263
220	0x3fb10103	1.3828434
221	0x3fda77a5	1.7067763
222	0xbf5617c6	-0.83630025
223	0x3f9d91b7	1.2310094
224	0x3eeafb9e	0.45895094
225	0xbe9dd1a1	-0.30823997
226	0x3f85edcb	1.0463194
227	0x3f310f6a	0.69164145
228	0x3f554ca2	0.8332006
229	0xbba1f3b6	-0.0049423827
230	0xbf8e7736	-1.113013
231	0x3fb9af4c	1.4506621
232	0x3fc8f38a	1.5699322
233	0xbfc0f147	-1.5073632
234	0x3fda695c	1.7063403
235	0x3f73b4b8	0.9519763
236	0x3f090d0f	0.5353555
237	0x3f91b330	1.1382809
238	0x3fbb8660	1.4650383
239	0xbf3cc453	-0.73737067
240	0xbf81fe72	-1.0155776
241	0x3e052880	0.13003731
242	0x3f7a1073	0.9768135
243	0xbfcb3559	-1.5875655
244	0xbf1c85a7	-0.6114144
245	0x3fd015fe	1.6256711
246	0xbfa68e4b	-1.3012174
247	0x3fd7c976	1.6858356
248	0xbf51dd2b	-0.819781
249	0xbfb37265	-1.4019285
250	0x3f91cb82	1.1390231
251	0x3f6f49da	0.93472064
252	0xbd813e29	-0.06310684
253	0x3f809b21	1.0047342
254	0x3fd7aebd	1.6850201
255	0xbef54b65	-0.47909084

batch_norms.2.running_var f4 [256]
0	0x41263de9	10.390115
1	0x40ecc68e	7.3992376
2	0x40536a83	3.303376
3	0x40008d68	2.0086308
4	0x40c3d812	6.120126
5	0x40a804d7	5.250591
6	0x40efaba2	7.4897013
7	0x40942542	4.629548
8	0x40f95722	7.7918863
9	0x40b9d758	5.807537
10	0x40a8c27b	5.2737403
11	0x4095323e	4.662383
12	0x41148a83	9.283816
13	0x411cdc3d	9.803769
14	0x405ac05f	3.4179914
15	0x408305bb	4.0944495
16	0x3f8049e8	1.0022554
17	0x40937211	4.607674
18	0x41091eee	8.570051
19	0x40e79e57	7.2380786
20	0x411370b4	9.215015
21	0x409575a8	4.6706123
22	0x4094471f	4.633682
23	0x41109acd	9.037793
24	0x40d5e22d	6.6838593
25	0x406502a1	3.5782855
26	0x413819f0	11.506332
27	0x40d0dd55	6.527018
28	0x41047ffd	8.281247
29	0x41221785	10.130742
30	0x40a173df	5.0453944
31	0x40e6860a	7.203862
32	0x40bd4b45	5.915438
33	0x40a215db	5.065168
34	0x411a2fc6	9.636663
35	0x4022d988	2.544527
36	0x40d91209	6.7834516
37	0x40a0672a	5.0125933
38	0x40b98e8b	5.7986503
39	0x40d55619	6.66676
40	0x409e89fa	4.954343
41	0x40e5d964	7.182787
42	0x40055829	2.0835059
43	0x40cb0ddc	6.345442
44	0x40d7fc8c	6.7495785
45	0x410d2a3b	8.82281
46	0x410df591	8.872453
47	0x40a544c4	5.1646442
48	0x406228dc	3.5337439
49	0x40a14f69	5.0409436
50	0x40907c1e	4.515151
51	0x40f50643	7.6570144
52	0x40be634e	5.949622
53	0x4089f0c9	4.3106427
54	0x40214ef1	2.5204432
55	0x40b939d1	5.7883077
56	0x40e16155	7.0431314
57	0x40c37df6	6.109126
58	0x40d75b48	6.7298927
59	0x405e9260	3.477684
60	0x411c6cca	9.77656
61	0x40b71cbf	5.722259
62	0x40bf9770	5.987236
63	0x4115960e	9.349134
64	0x40b57395	5.670359
65	0x40da94af	6.83065
66	0x41053a04	8.326664
67	0x4070a608	3.7601337
68	0x40f23cd2	7.5699244
69	0x40bde059	5.933636
70	0x40c126d3	6.0359893
71	0x401c9360	2.446495
72	0x409f99e1	4.987534
73	0x412367be	10.212828
74	0x40daabe8	6.8334846
75	0x403bcab3	2.9342468
76	0x410cb972	8.795275
77	0x40bc83c3	5.891084
78	0x40fdc616	7.9304304
79	0x40e2fddc	7.0934887
80	0x41167666	9.403906
81	0x4095a3f6	4.676265
82	0x403db910	2.9644203
83	0x40a66485	5.1997705
84	0x40e0834a	7.0160265
85	0x40e68c37	7.204616
86	0x40be4d6c	5.946951
87	0x40524df3	3.2860076
88	0x409ad75a	4.838788
89	0x40593b8d	3.3942597
90	0x40ee44a9	7.4458814
91	0x40c8d75f	6.2762904
92	0x412bb6aa	10.732096
93	0x4107d124	8.48856
94	0x40c33725	6.1004815
95	0x4055284d	3.3305848
96	0x4031cc4a	2.7780938
97	0x40b04f8c	5.5097103
98	0x406a4ef9	3.66107
99	0x4111f777	9.122916
100	0x3fd0ae39	1.6303169
101	0x3fc41f51	1.5322057
102	0x41494b61	12.580903
103	0x410bb1c7	8.730903
104	0x40d7f3d4	6.748514
105	0x4110c649	9.048409
106	0x40f3da23	7.620378
107	0x40c3d847	6.120151
108	0x411c47d1	9.767533
109	0x4079a7df	3.900871
110	0x4083499f	4.102737
111	0x40c6763b	6.2019324
112	0x410f2308	8.946053
113	0x410624a3	8.3839445
114	0x4114710a	9.277597
115	0x410877da	8.529261
116	0x40bcf541	5.904938
117	0x40b29913	5.581186
118	0x40be1763	5.940355
119	0x408d04f2	4.4068537
120	0x4077b593	3.8704574
121	0x4001759b	2.022803
122	0x40e84352	7.258218
123	0x40ca6f82	6.326112
124	0x40aebfaf	5.460899
125	0x40b8e86d	5.7783723
126	0x40adbb95	5.429148
127	0x40bf7960	5.9835663
128	0x405edcde	3.4822307
129	0x409fee2f	4.997825
130	0x40a09ea1	5.019364
131	0x40b1b2eb	5.5530906
132	0x40de04e0	6.938095
133	0x410254c0	8.145691
134	0x4105235f	8.3211355
135	0x4075ad57	3.8387048
136	0x407411c3	3.813584
137	0x410caa6a	8.791605
138	0x410bd93a	8.740534
139	0x40e26516	7.0748396
140	0x412845a7	10.517005
141	0x403930f4	2.8936129
142	0x3ff9c580	1.9513397
143	0x4102e52b	8.180949
144	0x40ac8857	5.391643
145	0x412b0957	10.68978
146	0x40c016b4	6.0027714
147	0x410cba67	8.795508
148	0x40d3503e	6.603545
149	0x40e2270b	7.067266
150	0x40e94a74	7.2903385
151	0x40bdcccf	5.931251
152	0x40e0fa65	7.0305657
153	0x40727703	3.788514
154	0x4135a80d	11.353528
155	0x40ceba94	6.4602757
156	0x40df8530	6.9850082
157	0x411f23e6	9.946264
158	0x40680c18	3.6257381
159	0x410a4985	8.642949
160	0x40ae6f33	5.451074
161	0x4012fa3c	2.296523
162	0x41269e93	10.413714
163	0x40f428ee	7.6299963
164	0x4048002a	3.12501
165	0x40e1f5f4	7.0612736
166	0x40929ed9	4.5818906
167	0x410b4f08	8.706795
168	0x40a1a9ab	5.0519614
169	0x40a36086	5.1055326
170	0x3f924bdc	1.14294
171	0x4093d131	4.619286
172	0x40eb38c5	7.35068
173	0x3faef73b	1.3669199
174	0x40adabe1	5.4272313
175	0x40af4005	5.476565
176	0x40abfce3	5.37462
177	0x3fc6fc16	1.554568
178	0x40a5d9ea	5.182851
179	0x40c67dc2	6.2028513
180	0x409604ed	4.6881013
181	0x3f8a22c3	1.0791858
182	0x40b4c64b	5.6492057
183	0x412b5c71	10.710069
184	0x3ffd6088	1.9795084
185	0x40c43278	6.1311607
186	0x40d23bf7	6.56982
187	0x40d59766	6.6747313
188	0x4038308a	2.8779626
189	0x40c85cfe	6.2613516
190	0x40df9dd5	6.9880166
191	0x40e53688	7.1629066
192	0x40a1b39c	5.053175
193	0x40d7f777	6.748958
194	0x40d5eab7	6.6849017
195	0x4117d7fb	9.49023
196	0x400e0ef3	2.2196624
197	0x41002d31	8.011033
198	0x4100a7ec	8.040997
199	0x410c6c4d	8.776441
200	0x4126ff22	10.437288
201	0x40876fe3	4.232408
202	0x40d3401f	6.6015773
203	0x411911d1	9.56685
204	0x40116519	2.2717955
205	0x40c44253	6.133096
206	0x40727fcf	3.7890508
207	0x40a140ec	5.039175
208	0x40ce7a13	6.4524016
209	0x40ff83cc	7.9848385
210	0x40b9d631	5.8073964
211	0x401561ee	2.3341022
212	0x410c3d73	8.765002
213	0x40ca3b7d	6.3197618
214	0x3f7cb9ce	0.98721015
215	0x3ff74881	1.9319001
216	0x40dbc649	6.8679547
217	0x410c1708	8.755623
218	0x405131a0	3.2686539
219	0x40f21c97	7.56599
220	0x40f6575c	7.698164
221	0x410888e7	8.533423
222	0x40495f98	3.1464596
223	0x410acc29	8.674844
224	0x40a8249f	5.2544703
225	0x4081025b	4.0315375
226	0x40d9f572	6.8112116
227	0x40a5e586	5.184268
228	0x40ba9cb6	5.8316298
229	0x40750bcf	3.8288457
230	0x40c46eaa	6.138509
231	0x40e327cd	7.0986085
232	0x411248a1	9.142732
233	0x40b0ebdc	5.5287914
234	0x41360b0b	11.377696
235	0x40db4beb	6.8530173
236	0x40b71805	5.721682
237	0x405d10bd	3.4541466
238	0x40db0d9a	6.8454103
239	0x3f90799a	1.128711
240	0x4106e0e1	8.429902
241	0x4099a661	4.80156
242	0x40c5e021	6.1836095
243	0x4100263c	8.009335
244	0x409aed8d	4.841498
245	0x40ba18ce	5.815528
246	0x410a66b3	8.650073
247	0x40fdadbf	7.9274592
248	0x40fc1966	7.8781004
249	0x40dff1cc	6.998266
250	0x40df3bb2	6.976037
251	0x40e80f83	7.2518935
252	0x3fa1f745	1.2653586
253	0x407112c0	3.7667694
254	0x40adc997	5.430858
255	0x40df984b	6.9873405

interaction_layers.0.bias f4 [64]
0	0xba3aca2d	-0.00071254635
1	0x3bcfccc3	0.006341548
2	0x3c4c03eb	0.012452106
3	0xb95a32bd	-0.00020809002
4	0xbafec508	-0.0019437382
5	0xbb3639d3	-0.0027805462
6	0xbc3e46fe	-0.011613606
7	0x3b2690de	0.0025415937
8	0xba9820fd	-0.0011606511
9	0x3a2371e2	0.00062349264
10	0xbc662a9e	-0.014048247
11	0x3c00049b	0.007813598
12	0xba2111db	-0.0006144323
13	0xb9925555	-0.00027910867
14	0xbcb0ab69	-0.02156611
15	0x3b162d76	0.002291528
16	0xba63c3ae	-0.00086885213
17	0xbca06a31	-0.019581886
18	0x3bd044fc	0.00635588
19	0x3b170a41	0.0023046883
20	0xbbc4927e	-0.0059989085
21	0x3ad35dec	0.0016126013
22	0xbbfb2ed4	-0.0076654945
23	0x39c47835	0.00037473594
24	0xba5e80ae	-0.00084878027
25	0x3ca0cec7	0.01962985
26	0xbc4ce937	-0.012506775
27	0x39d8efea	0.0004137748
28	0x3bb01b96	0.0053743823
29	0x3c7e9536	0.015538504
30	0x3a9733ba	0.0011535801
31	0x3c89c41f	0.01681715
32	0x3c4be8bb	0.012445624
33	0xbb9be5eb	-0.004757633
34	0x3b9b228c	0.004734343
35	0x3ac7c2d8	0.0015240563
36	0x3bd6d31c	0.006555928
37	0x3c53d247	0.012928552
38	0xba1af8c4	-0.0005911703
39	0xb9f42f0c	-0.0004657436
40	0x3d6283be	0.05530142
41	0xbb548d92	-0.0032433015
42	0xbc6c4e97	-0.014423034
43	0x3b811849	0.0039396626
44	0x3a94b879	0.0011346481
45	0xbc909c36	-0.017652612
46	0x3c06a373	0.00821768
47	0xb9851eed	-0.00025390778
48	0xbb41cc5f	-0.0029571278
49	0xba89cc9d	-0.001051325
50	0x3c1514dd	0.0090992125
51	0x3afb7243	0.0019183833
52	0xbbda2ab4	-0.0066579226
53	0x39974a8d	0.0002885651
54	0xbb76d894	-0.0037665712
55	0xbba742bc	-0.005104391
56	0xbb31ec1a	-0.0027148784
57	0x3b1391f0	0.0022517405
58	0x3b929b5c	0.0044740867
59	0xbb228d5b	-0.0024803493
60	0x3b770218	0.0037690457
61	0xba8f7552	-0.0010944998
62	0xbaa263c3	-0.001238935
63	0xbcdbf429	-0.026849823
