best_model/xasnet_gnn_model_14.pt (torch, 102230 bytes, 14 tensors)

batch_norms.0.weight f4 [128]
00000000: 6ff9 2ebd ca9d 003e 2988 4f3d 024f b539
00000010: c359 303e daa8 08be 6f2e 663c e176 fbbd
00000020: 2b8a e13d aa0d bb3b d88e d4b5 bd85 b53c
00000030: e5e4 823e 1a93 743e 3e0e 813e c974 893e
00000040: e842 c33d 7bef d9bb c473 483e c12a 353e
00000050: c94a 283e f8be 333a f065 07bd e41d 5e3e
00000060: 14ff 2f3e 7d93 30bc 26a4 9d3e 1e86 2e3e
00000070: 53c7 03be 6eb8 92b9 907d 5dbe ecee 88be
00000080: 5731 793e 5686 b3bd ec29 493e 9dfa f73b
00000090: 0316 b43e 1af4 c13c ca8e 633e f776 7abe
000000a0: 4f5b 6b37 1b12 39be 56ef fabc 917c 40bd
000000b0: a8a8 233e 2117 46be 36c2 f339 c16c 773e
000000c0: 9706 3bbe 34c0 dcbd 35a9 853e 834b 873e
000000d0: b5f4 82be a139 e33b 40df 453e 188f 6bbd
000000e0: 81f0 493e f4dc df3d 8fa3 393e 00f9 82ba
000000f0: 6af4 8dbc 7f00 403e 0fd0 153b 26d9 403e
00000100: b877 473e 0f22 283e 69f6 75be 64a4 62bd
00000110: 99cc a0be 38b5 ee3d 1e50 0abc 9b45 413e
00000120: 4da9 b23e d0dd 5d3e 8297 8bb7 3313 fc3d
00000130: 4bff 95bd 1c88 9dbe bd24 1abe afd6 ba3e
00000140: c2c5 8ab7 59c5 a1bc 8e5a debd 35f6 e7bd
00000150: 704c 8cbb 3ea6 1d3c aea3 1dbe c72a 08bb
00000160: 4fd8 323e ec5c 403e 4979 04be 0a5f f4bc
00000170: 3be9 173e 128b 5dbe 1ba4 193d 1ecc b7bc
00000180: dcf7 3d3d 84ae 7b3e 504c 903d 8312 b43e
00000190: 044b 523d b83c c03a 3527 b2bc 3e82 2a3e
000001a0: 3056 903d 3638 833e d0ea 233c 3656 97bd
000001b0: 1261 903e c8bf aabb 03e2 0e3e b463 fabc
000001c0: 82d1 ccbc 02c6 8e3e 9903 35bb 70f9 c73c
000001d0: b04f 153e d487 61bc d7a2 1e3c 20d3 0ebe
000001e0: aaa5 033e dda1 98bc 77ce fdbd 0fda 5fbd
000001f0: 0e48 51bd fbf0 253e 9f29 0d34 578d 2e3e
-0.042718347 0.12560192 0.05066696 0.00034581876 0.17221741 -0.13345662 0.014049157 -0.12278534
0.110126816 0.005708416 -1.5836804e-06 0.022158498 0.25565258 0.2388424 0.25206178 0.26846913
0.09534246 -0.0066508627 0.19575411 0.1769209 0.16434778 0.00068567647 -0.0330562 0.2169109
0.17187148 -0.010777351 0.30789298 0.17043349 -0.12869005 -0.000279847 -0.2162993 -0.26744783
0.24335228 -0.08765857 0.19644898 0.007567717 0.35173044 0.023675967 0.22222438 -0.24459444
1.4028351e-05 -0.18073313 -0.030631702 -0.046993796 0.15982306 -0.1934476 0.0004649327 0.2416258
-0.18264233 -0.10778847 0.26105657 0.26424798 -0.25577322 0.00693436 0.19323444 -0.05750951
0.19720651 0.10930815 0.18128799 -0.0009992421 -0.01732846 0.18750189 0.0022859608 0.18832836
0.19479263 0.16419242 -0.2401978 -0.055332556 -0.31406096 0.116556585 -0.008441953 0.18874209
0.3489479 0.21666646 -1.6640643e-05 0.123083495 -0.07324084 -0.30767906 -0.15053077 0.36491916
-1.654297e-05 -0.019747423 -0.10857116 -0.11326257 -0.004281573 0.009622155 -0.1539447 -0.002077745
0.17465328 0.18785447 -0.12936892 -0.029830474 0.14835064 -0.21635082 0.03751002 -0.022436198
0.046378955 0.24578291 0.070458055 0.35170373 0.05134107 0.0014666533 -0.021747211 0.16651246
0.07047689 0.25628823 0.010004714 -0.0738949 0.2819906 -0.0052108504 0.13953404 -0.03056512
-0.025002245 0.27885443 -0.0027620553 0.024410933 0.1458118 -0.013765294 0.009682379 -0.13947725
0.12856165 -0.01863187 -0.12392896 -0.054651316 -0.051094107 0.16205208 1.314679e-07 0.17046104

batch_norms.0.bias f4 [128]
00000000: d2e3 06be 47d7 0ebd bd22 a53c 33cc c3b8
00000010: 688e b9bd 8f39 1dbe 9aa1 9e3c 4651 723d
00000020: 6534 413b d750 58bd ca35 2a38 1cf9 aabb
00000030: be76 fabd 5d2f 633d b6b2 79bd 67ae a7bd
00000040: 925d 52bd af7d 20bc cff5 85bc 128c 40bd
00000050: dc13 2fbd 6d2b 8237 ef45 aabd 2a3d c0bc
00000060: 0bb5 f9bb de88 1ebc 5b2b 35be 63d1 003c
00000070: bfc9 bbbe 0a4a 92b8 f80e a2bb 6bd8 abbd
00000080: 0ea0 05bd ff8f 163d f492 3d3c e831 743c
00000090: 6d4d 0abe 582e e9bc 55e6 6dbd 29dc 033c
000000a0: cb3e 73b8 b76b 4dbe 0a63 0abe 56f0 01be
000000b0: 14b3 17bc cc8e f6bd 9d9b 2a3a a93d 8ebc
000000c0: b7b2 d1bc b87f 0e3c 5122 0a3e 1637 a7be
000000d0: 783d 1fbd 8abb d1bb 3893 70bb 3286 18bd
000000e0: 611f 0fbe 2068 cdbc aef8 40bd 209b 0abe
000000f0: e127 d9bc bdf9 e1bd b552 1abb 09dc bdbd
00000100: 82ea d0bd 62f0 7abd 20e8 3fbe 8150 17be
00000110: bd2b 70bd 592e 113d 7664 213c 0ef9 883c
00000120: 7e6c 93be b95c 45be 8bc9 173a 6b7b bcbd
00000130: 43f3 3b3c 8933 963c 40e5 25bd 1ee8 13be
00000140: fdb3 15b7 6b9b 87bd 4f6c 793d d472 a7bb
00000150: f958 70bb 7c17 303c 40a8 2abe c03d edba
00000160: 607d e7bd c5eb 6fbd 31be 3cbd 881f 31bd
00000170: 7719 0bbe 33dc 4bbe c195 18bc d7c6 18bb
00000180: 0e98 d0bd dedb cdbd c83c e93c d7ae d7bd
00000190: 70fe 353c 7c78 9bbd 2cb0 d8bb 8829 03bd
000001a0: d82f 89bd 6e80 8dbe 99b8 d0bc 431d 993d
000001b0: 306f b0bd 80fb 65bc fb3c 65be 9297 a6b9
000001c0: eff8 87bd 081b 4cbe c3b1 91b9 66af 8fbc
000001d0: 0ade 3b3d 0dca 02be 2a71 ceba 0db4 08be
000001e0: 7e01 babd ab50 22be 6329 48bc 04e3 8fbe
000001f0: 4538 5a3d b1eb c7bd 8e3c a3b9 890e 643d
-0.13172844 -0.034873273 0.020158166 -9.33636e-05 -0.09060365 -0.15353988 0.019364167 0.05915954
0.0029480692 -0.05281147 4.0581253e-05 -0.0052176844 -0.122296795 0.05546509 -0.060961448 -0.081875615
-0.051358767 -0.00979559 -0.016352562 -0.04700858 -0.04274355 1.551743e-05 -0.0831412 -0.023466665
-0.007620459 -0.009676186 -0.1769232 0.007862422 -0.36677358 -6.975613e-05 -0.004945632 -0.08390888
-0.032623343 0.03675842 0.011570681 0.014904477 -0.13506098 -0.028464481 -0.05808099 0.008048096
-5.7994195e-05 -0.20060621 -0.13514343 -0.12689337 -0.009259004 -0.12038955 0.00065081735 -0.017363386
-0.025597913 0.008697443 0.13489653 -0.32659215 -0.03887698 -0.00640053 -0.0036708843 -0.037237354
-0.13976814 -0.025074065 -0.04711216 -0.13535738 -0.026508274 -0.11033962 -0.0023547832 -0.09270484
-0.10200979 -0.061264403 -0.18740892 -0.14776804 -0.058635462 0.03544459 0.009850612 0.016720321
-0.2879371 -0.19273652 0.0005790225 -0.092032276 0.011471572 0.01833512 -0.040501833 -0.14444014
-8.922999e-06 -0.066214405 0.060894307 -0.005110124 -0.0036674126 0.010747787 -0.16665745 -0.0018100068
-0.1130321 -0.058574457 -0.04607982 -0.04324296 -0.13583933 -0.19908218 -0.009313048 -0.0023311877
-0.10185252 -0.10051702 0.028471366 -0.10531395 0.011108026 -0.0759134 -0.006612798 -0.03202203
-0.066985786 -0.27637047 -0.025478648 0.07476284 -0.08614957 -0.014037013 -0.22386543 -0.00031774916
-0.06639277 -0.19932187 -0.00027788998 -0.017539691 0.04586605 -0.12772389 -0.0015750278 -0.13349934
-0.09082316 -0.15851085 -0.012216899 -0.28102887 0.05327632 -0.097617514 -0.000311349 0.055677924

batch_norms.0.running_mean f4 [128]
00000000: b143 c23d 3a7f 763c a6a9 3ebd 382e 013c
00000010: af30 b8bd d02e c4bd c92f e5bc b906 b0bc
00000020: b6d7 39be 6c32 683a 842e 70b8 f8d3 afba
00000030: ab8e a0bd e54b ee3c 756e 7b3d c26e 56bc
00000040: 5cfe 8ebd d4ad c53c 6e3e 24bd 0a61 8cbd
00000050: 8512 293e 9a27 d7ba 86fd 0abd 22a2 a33c
00000060: ae90 febc 6896 073c 3e72 903e e0f4 08bd
00000070: 2208 a03d dcb5 efbb 767d fc3d 698e e1bd
00000080: 261d 203e b9a8 eebc d8eb 863d 4482 15bc
00000090: 8909 c5bc 34f7 b5bc e37b a6bd ece8 62bc
000000a0: 87b3 a537 2af8 7bbd d7f4 6b3e 9bf5 e13d
000000b0: cb84 483d f6e0 19be c466 eeb9 9a5d 0abd
000000c0: c3fe 11be bdd7 65bc 66e7 af3d a80f cebc
000000d0: 8e27 943c 9dc3 2abc 22e8 033d 73c1 52bd
000000e0: e885 883d 15da c7bc f127 d43b 58b6 08be
000000f0: 0670 a6bd e515 f23d 2429 163c a247 43be
00000100: 8e61 acbd 0646 20be bb43 32be ec88 e43d
00000110: bb62 9ebc f6cb c03d 90cd 52bd 167a 83bc
00000120: fcdd 9b3d 1ea0 39bb 4c27 44b8 d174 d4bd
00000130: 3466 95bd 7585 ddbd fd39 a1bc 34d1 143e
00000140: c1c5 6cb8 f653 b03c 1a9a f73c 648b 273d
00000150: 3787 753c ceff 883c 5e5f 803e 54e0 e13c
00000160: 49df 23be 9ddb 6d3c 822a 223c 1903 993d
00000170: 1134 3d3d d3b8 4abd c6fe a03c ebb8 debb
00000180: 9871 35be b2cc e9bd c757 12bc d459 293d
00000190: 7af5 183e 594a 8ebe 9a41 483d 4492 34bd
000001a0: 4e69 54bd 90c8 313d 9a77 29bd 88c4 bebd
000001b0: ad46 093d b5f8 3e3d 329c 8d3c 8577 1dbd
000001c0: 9a31 1dbe ed56 083d 730a 293d 5155 34bc
000001d0: e220 52be d711 b03d 5b00 58bc 3f7e 4fbb
000001e0: ca8b 7b3d f756 2bbe effe 3dbe aae8 083d
000001f0: 6f24 a4bc a4d6 063e a4af 8938 a657 1b3e
0.09485567 0.015044982 -0.046548508 0.007884555 -0.08993661 -0.09579241 -0.027976887 -0.02148758
-0.18148693 0.0008857611 -5.726378e-05 -0.0013414612 -0.07839712 0.029088924 0.061384637 -0.01308793
-0.06982109 0.02413074 -0.0400986 -0.06854446 0.16510971 -0.0016415 -0.033933185 0.019974772
-0.031074848 0.008275606 0.2821216 -0.033436656 0.07814051 -0.0073153805 0.12328617 -0.11013491
0.15636119 -0.029133188 0.065879524 -0.009125296 -0.024052398 -0.022212602 -0.08129098 -0.013849478
1.9753132e-05 -0.061515965 0.23042618 0.11033174 0.048954766 -0.15027222 -0.00045471464 -0.03378067
-0.1425734 -0.014028487 0.085890576 -0.02515395 0.018085267 -0.010422614 0.0322038 -0.05145402
0.066661656 -0.024395982 0.006474488 -0.13350809 -0.081268355 0.11820582 0.009165082 -0.19070294
-0.084170446 -0.15651712 -0.1740865 0.11158928 -0.019334188 0.094139025 -0.05146557 -0.016049426
0.076106995 -0.0028324197 -4.676664e-05 -0.103738435 -0.07294884 -0.108164705 -0.019680971 0.1453293
-5.6450957e-05 0.02152441 0.030224849 0.040904418 0.014985851 0.01672354 0.2507276 0.027572788
-0.16003145 0.014517692 0.00989783 0.07471294 0.046192233 -0.04949267 0.019652735 -0.0067969463
-0.17719114 -0.11415996 -0.008932061 0.041345432 0.14937392 -0.27791098 0.048890688 -0.044084802
-0.05185824 0.043404162 -0.041373827 -0.09314829 0.033514667 0.046623904 0.017286394 -0.03844406
-0.15350953 0.033286024 0.04126973 -0.011006669 -0.20520356 0.08597153 -0.0131836785 -0.0031660942
0.06141261 -0.16732393 -0.1855428 0.03342501 -0.020036904 0.13167816 6.565385e-05 0.15170154

batch_norms.0.running_var f4 [128]
00000000: 8d36 213c 4b3a 973a d78b 793a fa60 9e38
00000010: 2f04 323c a6b0 2a3c d6ea a53a 35e8 d63b
00000020: e604 803d 142f ef38 1b7e e031 a075 8538
00000030: 6717 053c 9b6d f23b 64a7 fb3b 697e 073d
00000040: d5ac 4d3c 9012 e13a 1840 fb3b ffc2 fa3b
00000050: 450c 033c d3d2 c636 843b 853b 7508 173c
00000060: 7952 e23b c75d 2d39 9cee 843c 32d8 de3b
00000070: 2e38 ce3c a399 9038 c7d0 8b3c 9888 e23c
00000080: ec33 d93c 2ab2 863a 68bd d43b c76e 0a3a
00000090: d1bf 483c 9d43 ae3a 155e 4c3c 2ce4 c73c
000000a0: 2b1b 3a31 899f a03c 681a e33c a609 a73b
000000b0: 176c 4a3c 01a8 db3c e564 8334 3a4a 1b3c
000000c0: 909f bc3c 77fc 173c 7d85 8c3c 6225 263c
000000d0: a76c 853c 261b 2839 b149 b73c eeeb 8f3b
000000e0: 1a34 d83b 87ab 453c 7353 c03b 9990 6d3c
000000f0: b44a 283c 9279 3c3c 0983 9838 c7f5 023d
00000100: b6ce 763c 7b7c 2e3c 75b3 743c c82b 7d3c
00000110: aa2f 5b3b 3a9e b73b acbb ea3a 4b3f f53b
00000120: db9c 323c d044 af3c 4d12 b431 505f 0f3c
00000130: 56e3 303b f22d 193c 194c 9a3a 32ec 6c3c
00000140: 3de0 6b31 4532 573b 28f0 883a de06 2b3b
00000150: 7184 9e39 7308 7339 b977 e93c d7cd 6a3a
00000160: 99c0 fb3c 2da7 f33b 9842 c43c 3e77 f73b
00000170: ad27 ba3c 7949 073c 40b6 a53a 50df 2139
00000180: 6309 363d 3b7f 043c 2da4 9839 0b39 a33c
00000190: 2857 353c 665e a33c e80b 193b e19d e63c
000001a0: f4a5 8f3c 022f 433c ab5e 5e3b 3c91 b33b
000001b0: 5d9c db3b 3461 433b b253 153c 6bfd 9a3a
000001c0: b7a7 e23c 63e4 7f3c 8f52 8f3a fbfb 2e3b
000001d0: 285d 373c 7ece ff3b 2f12 2f39 1cc7 273c
000001e0: eb12 0a3c 1531 5b3c afd3 7a3c 3669 1f3c
000001f0: 1412 0e3c b947 4d3c 55ac 9b32 e7fb 4e3c
0.009839666 0.0011537758 0.0009519434 7.5520904e-05 0.010865255 0.010418093 0.0012658488 0.006558443
0.06250934 0.00011405177 6.5335946e-09 6.3638436e-05 0.008123255 0.00739832 0.0076798666 0.03307954
0.012553413 0.001717167 0.0076675527 0.00765264 0.007998531 5.925403e-06 0.0040659327 0.009218325
0.006906804 0.000165335 0.016227059 0.006800675 0.025173273 6.895072e-05 0.017067326 0.027653024
0.026514016 0.0010276486 0.0064923055 0.00052807893 0.012252764 0.0013295297 0.012473603 0.024400793
2.7082006e-09 0.019607322 0.027722552 0.0050975857 0.012354872 0.026813509 2.4474062e-07 0.009478146
0.023025304 0.009276501 0.017153496 0.010140749 0.016287161 0.00016031842 0.022374006 0.0043921387
0.006598008 0.012064821 0.005869323 0.014499807 0.010271717 0.011503594 7.272332e-05 0.031972673
0.015063932 0.010649796 0.014935364 0.015452333 0.0033445158 0.005603579 0.0017908714 0.0074843518
0.010901655 0.021395117 5.24077e-09 0.008750752 0.0026990972 0.009349333 0.0011771946 0.01446061
3.4324465e-09 0.003283636 0.0010447549 0.0026096622 0.00030234785 0.00023177433 0.028499471 0.0008957064
0.030731486 0.0074357004 0.023957536 0.0075520566 0.022723997 0.008257263 0.0012642816 0.00015437347
0.044442546 0.008086975 0.0002911402 0.019924661 0.011068143 0.019942474 0.0023353044 0.028151454
0.017535187 0.011913063 0.0033930938 0.00547996 0.0067019896 0.0029812576 0.009114193 0.0011824792
0.027667863 0.0156184165 0.0010934639 0.0026700485 0.011191644 0.007806598 0.00016696074 0.0102403425
0.008427362 0.013378401 0.015309258 0.009729674 0.008671302 0.012529307 1.8122742e-08 0.0126333

batch_norms.1.weight f4 [64]
00000000: 48b9 3ebe dd86 9b3c ec56 8fbe 1ece 6dbe
00000010: 7eb6 3b3c e01d 803e 35bc a73e 514c 85be
00000020: c65f 7bbe d476 163e ad8f 443e 4c0f 983e
00000030: a186 70be 2b7a 8a3c c3b8 a6be 9ffc 64be
00000040: 8123 8a3e 9fe9 5b3c 657a 663e 651a 94be
00000050: 0aeb 2fbe 5f95 873e 7baa a0be 8ce5 263c
00000060: 4442 acbe 4897 753e ae31 ffbd 3dc1 fa3d
00000070: 261d 15be 1704 b63d c02e 36be 0130 24be
00000080: 6138 aabe e3e4 a03e 6613 81be ad48 cc3c
00000090: 7010 7b3e 9f61 49be 0367 a83e 8e77 6d3d
000000a0: 16ba 983d 0e62 aabd 02e2 82ba a6a4 88be
000000b0: fdec b93d b129 693d a5d1 82be 49ff 9c3c
000000c0: 228a 6f3e d929 a43e a734 b73c 4920 14bc
000000d0: 9cea 45be 0c70 8abe bb8a 7cbe 3138 79be
000000e0: d526 53be c0c1 6dbe f471 e73d f134 113e
000000f0: 6ba0 9dbe 62dd a1bd 5bab 8ebe 87a9 403e
-0.18625367 0.018985206 -0.27996004 -0.23223159 0.011457084 0.25022793 0.32760778 -0.26034787
-0.24548253 0.14693767 0.19195433 0.2969917 -0.23488857 0.016903957 -0.32562837 -0.22361992
0.26980212 0.013422399 0.22507627 -0.28926387 -0.17179504 0.2648115 -0.31380066 0.010186564
-0.33644307 0.2398349 -0.124606475 0.122438885 -0.145619 0.08887499 -0.17791271 -0.16033937
-0.3324614 0.31424627 -0.25210112 0.024936998 0.24517989 -0.19666146 0.32891092 0.057975344
0.07457368 -0.08319484 -0.0009985568 -0.26688117 0.09078405 0.056924526 -0.2555057 0.019164698
0.23392537 0.32063177 0.022363974 -0.0090409005 -0.19327778 -0.2703861 -0.24662296 -0.24337842
-0.20620282 -0.23218441 0.11301032 0.14180352 -0.30786452 -0.079035535 -0.2786511 0.1881467

batch_norms.1.bias f4 [64]
00000000: c310 93bc fa12 ab3e f4c3 b63c 651f af3c
00000010: 4328 45be 6814 51bd 4953 0ebc abf5 8a3d
00000020: af99 00bc 0bc1 913e c6f8 61be a549 513c
00000030: 352a 6e3d 48aa 8ebd 11b7 b03b bd6d 01bc
00000040: 4295 f63d e1fb 0bbe 63f9 e93b c490 b93c
00000050: 6f89 3ebd a999 bb3d 473c 9b3d cda7 a6be
00000060: a9a5 20bd 7f96 273d 7286 273e 2dde 783e
00000070: 5a02 313c 753b 83be 89c6 2bbe a002 ffbc
00000080: b8a4 eb3c 6634 52bc 4694 87ba ca63 81be
00000090: 9e07 373e 88b5 a6bc 6143 e13d 7f6f 5dbe
000000a0: 082c 8fbe 2d4c 40be 93ab e7bc 4719 82bc
000000b0: 8eef 9f3e 35b2 27be 6d6c cdba 91db 9fbe
000000c0: b11e 40be 5ac2 993d 015c 6fbe 3567 133e
000000d0: cdde 163d d5c7 2dbd 2259 c23c 850e 92bc
000000e0: d2dc eebb b32f dc3c 501a 8e3e 2346 2abe
000000f0: 702a 22bd e5f9 7f3e 22dd 8c3d bb2e 77be
-0.017952329 0.33412915 0.022310235 0.021377275 -0.1925364 -0.05104485 -0.008686849 0.06785139
-0.007849141 0.28467593 -0.22067556 0.012773906 0.05814572 -0.06966072 0.005392917 -0.007899699
0.120401874 -0.13670303 0.007140325 0.022652037 -0.046517786 0.09160168 0.07579856 -0.32549897
-0.039220486 0.04091501 0.1635988 0.24303503 0.010803783 -0.256313 -0.16774954 -0.031129181
0.028765067 -0.012829876 -0.0010343872 -0.25271446 0.17874 -0.020350233 0.1099918 -0.21624564
-0.2796328 -0.18779059 -0.028280055 -0.015881194 0.31237453 -0.16376574 -0.0015672572 -0.31222203
-0.18761708 0.07507773 -0.2337494 0.14394839 0.036833573 -0.042426903 0.023724142 -0.01782919
-0.0072895074 0.026878214 0.2775445 -0.16628318 -0.039591253 0.24997671 0.06878115 -0.2413892

batch_norms.1.running_mean f4 [64]
00000000: e317 09bd 66b1 2dbc 6c45 453d bfff 34bb
00000010: f722 033c 191f 13bd 89f2 5aba 890b d03c
00000020: 9acb 43bd ca27 2cbc 6b9e 313d d3f9 85bd
00000030: 557a 9a3a 89c2 463c b5a7 b03c 5afa acbd
00000040: b8de 8d3d 9685 953b 74c3 8bbb c52d 33bc
00000050: 2b27 673c 136d d5b9 bd3a 80bd 3e0f b33c
00000060: 544b bb3c c026 d6bc 296f c8bb 3865 edbb
00000070: 62f6 35bc f13c 0c3c 4cf1 b63c b32a 41bc
00000080: 2ee4 d63c 54e1 773d b27c b3bc 6ecd c838
00000090: 8c4b debc f02e 3cbd 7761 41b7 8db2 5d3c
000000a0: 16d8 5dbc b267 a1bc 8230 16bb f918 54bc
000000b0: 9c65 c2bc 24fd 8c3c 65aa 373d 2b1b 04bd
000000c0: 58c1 d33c 45f9 6dbc 8345 d8bb 1ebb 4239
000000d0: cb18 47bc 063c e0ba 857f 01bd a1bf 973a
000000e0: 8988 6cbc fb23 013d c6b8 7fbc 703c f8bb
000000f0: b6fd b6bc 44fb 833c e2c9 40bc 598d 96bb
-0.033470046 -0.010601377 0.04816191 -0.0027618257 0.008003942 -0.03591833 -0.00083521806 0.025396125
-0.04780159 -0.010507533 0.04336397 -0.06541791 0.0011785725 0.012131342 0.021564344 -0.08446188
0.06927246 0.004563044 -0.004265243 -0.010936205 0.014108459 -0.00040707793 -0.062612034 0.021857854
0.022863068 -0.026141524 -0.006116767 -0.007244732 -0.0111061055 0.008559451 0.022331856 -0.011789965
0.026231851 0.060517624 -0.021910045 9.5750074e-05 -0.027135633 -0.0459432 -1.1526389e-05 0.013531339
-0.013540288 -0.019702766 -0.0022917097 -0.012945407 -0.023730092 0.01721055 0.044840235 -0.032252472
0.02584903 -0.0145247625 -0.0066000833 0.00018570988 -0.012151907 -0.0017107732 -0.031615753 0.0011577496
-0.014436849 0.031528454 -0.015608018 -0.007575564 -0.022337776 0.016111024 -0.011766883 -0.0045944867

batch_norms.1.running_var f4 [64]
00000000: 8298 c23b b741 c33b a6ee 213c 3e68 1d3c
00000010: fbdb 193b c707 2d3c 4a12 273c bc16 2a3c
00000020: bd31 e43b b93b 193c 951e f73b 5e57 593c
00000030: d211 2c3c 0bef e439 54e5 573c db26 273c
00000040: 4be3 453c dcae 153a 68c7 f83b 3b2f 8f3c
00000050: c584 023c 635e 4d3c a1bd 933c 0d45 3d3b
00000060: 48a2 af3c 3278 003c cc4e 153c 1fd2 cc3b
00000070: 190d dd3b 3704 a93b 729b 113c 3acb 1f3c
00000080: e555 233c d0ad 613c 12fe b83b 6a93 923a
00000090: 1ee7 803c 330c 063c 30d3 373c b545 0f3b
000000a0: 9d81 4f3b 5127 b23b a74d 8338 2507 363c
000000b0: d317 e73b 8131 6f3b ad52 173c 44b4 c93b
000000c0: c4e8 4c3c 9138 293c b0b3 b03a cdc9 4a3a
000000d0: 95c3 2c3c 6716 243c f41b ec3b fcf6 983b
000000e0: fc0b a83b 854a 9e3c df94 e23b 207e 233c
000000f0: c8f0 e83b 56a7 9a3b fa57 303c 2f8b 943c
0.0059385905 0.0059587616 0.009883558 0.009607373 0.0023477066 0.010560936 0.010197232 0.010381397
0.006963937 0.009352618 0.0075414875 0.013265459 0.010502296 0.0004366565 0.013177235 0.010202135
0.012078117 0.0005709955 0.0075921305 0.017478576 0.007966225 0.012534711 0.018034758 0.0028880269
0.021439686 0.007841157 0.009113025 0.0062506343 0.006745946 0.005157973 0.008887159 0.009753043
0.009969209 0.01377435 0.005645522 0.0011182849 0.015735205 0.008181619 0.011219785 0.0021861617
0.003166295 0.005436816 6.261031e-05 0.011110102 0.0070524006 0.0036498012 0.00923602 0.0061555225
0.0125066675 0.010328428 0.0013481285 0.0007735759 0.010544677 0.010015107 0.0072054807 0.0046681147
0.005128382 0.019322643 0.0069147195 0.009978801 0.0071087815 0.004719655 0.010763163 0.018132774

interaction_layers.0.bias f4 [128]
00000000: decf 9ab5 9a6f 4fb4 f87e 2c35 81f9 9e34
00000010: d451 8db5 a8ea c8b5 d183 7cb4 2474 08b5
00000020: c379 a134 63c2 0d34 49b7 ed33 5f2b 17b4
00000030: 2b5f 92b6 0164 45b7 fcab abb5 3c29 db35
00000040: d9fa 9d35 c069 64b4 4778 dfb5 a82f b1b3
00000050: cf5a d3b5 4719 9b34 5b55 88b3 f070 09b6
00000060: e5c9 8236 1a5d 1b34 dd09 a636 83a2 fd35
00000070: 0cf0 0ab7 1c43 8534 790d bcb5 6138 6ab6
00000080: 9415 82b5 d6f0 ceb5 9dbb ffb5 ef1f 1f34
00000090: 0e0b a2b6 9c7f e8b4 9329 b9b5 0228 8bb5
000000a0: 4a97 1cb4 76e2 9335 b97b de35 f877 6035
000000b0: e9a4 76b6 76cd 5b36 ef54 66b3 bffd 8e35
000000c0: 2ae4 1cb6 ea62 1cb5 1917 00b7 726e 90b6
000000d0: bd74 3db3 354e 71b4 5efd bc35 b86e 55b4
000000e0: 916d 6135 2068 7cb5 00f0 7fb5 b916 02b6
000000f0: edef 5b34 7a80 6934 307f be33 7a1b 33b5
00000100: 332e 7635 3f65 abb6 6744 1db6 7751 a935
00000110: 03a3 6cb6 8c97 2f36 e3e1 6333 a020 87b6
00000120: 8ba6 25b6 3318 5536 add6 9eb4 57c6 4235
00000130: 0788 fb35 c1d3 44b7 942f 38b5 c479 3336
00000140: 99a6 6cb3 cd15 f734 a2f7 96b6 5656 b735
00000150: a837 51b4 ad7e 9b34 2dc9 a235 2412 9134
00000160: 34e1 a633 ffb9 85b5 9df9 a335 ab4d 22b4
00000170: 39ab 1ab6 eb8c 0f36 45b7 f732 df52 aab4
00000180: 67bc 3c35 2c52 a935 5dc1 3c35 3e23 ffb5
00000190: d765 35b5 5f17 cdb5 b7ee 94b4 711f 15b5
000001a0: facb b0b5 4fc9 8a35 885d fc32 70d5 2235
000001b0: df5f 8a36 3874 60b4 48ca 3f35 f4bb d3b3
000001c0: 9eae cbb5 1ef1 a536 83d1 8c34 5988 ed34
000001d0: ab79 8536 1900 6d35 8376 c5b4 bd7e e035
000001e0: 79e4 c835 64e7 c1b5 04d6 bbb5 6e45 2635
000001f0: d6b0 72b3 a2bf 41b6 ede4 9eb4 a021 c235
-1.1534391e-06 -1.9318978e-07 6.4259757e-07 2.961133e-07 -1.0529134e-06 -1.4969455e-06 -2.3517283e-07 -5.0832955e-07
3.007718e-07 1.3202366e-07 1.1069512e-07 -1.4078749e-07 -4.362218e-06 -1.1765399e-05 -1.2790547e-06 1.6328772e-06
1.1770418e-06 -2.1272626e-07 -1.66498e-06 -8.2508734e-08 -1.5747154e-06 2.8889392e-07 -6.3485196e-08 -2.048033e-06
3.8978055e-06 1.446937e-07 4.9483338e-06 1.8897266e-06 -8.281331e-06 2.482201e-07 -1.4011013e-06 -3.4901534e-06
-9.692035e-07 -1.5418289e-06 -1.9053583e-06 1.4819646e-07 -4.829263e-06 -4.3306216e-07 -1.3795674e-06 -1.0367951e-06
-1.4583671e-07 1.1018262e-06 1.6576297e-06 8.362108e-07 -3.6752847e-06 3.2753137e-06 -5.3628295e-08 1.0653674e-06
-2.337862e-06 -5.825847e-07 -7.634772e-06 -4.304392e-06 -4.4111164e-08 -2.2473326e-07 1.4080831e-06 -1.987745e-07
8.397847e-07 -9.402884e-07 -9.534415e-07 -1.9384736e-06 2.0483249e-07 2.1746555e-07 8.8707e-08 -6.672268e-07
9.170937e-07 -5.1079837e-06 -2.3434638e-06 1.2615191e-06 -3.5261626e-06 2.6165244e-06 5.3058e-08 -4.0271116e-06
-2.4683857e-06 3.175356e-06 -2.958599e-07 7.2559254e-07 1.8740546e-06 -1.1731813e-05 -6.8614577e-07 2.6743955e-06
-5.509955e-08 4.6023197e-07 -4.4991766e-06 1.365969e-06 -1.948489e-07 2.8963169e-07 1.212849e-06 2.7021554e-07
7.7709416e-08 -9.963404e-07 1.2217093e-06 -1.5115681e-07 -2.3047453e-06 2.1390686e-06 2.8837926e-08 -3.1725264e-07
7.030962e-07 1.2615396e-06 7.031684e-07 -1.9009237e-06 -6.757595e-07 -1.5280492e-06 -2.7740836e-07 -5.555258e-07
-1.3172387e-06 1.034039e-06 2.9379194e-08 6.0660295e-07 4.1238814e-06 -2.0903906e-07 7.14474e-07 -9.8596416e-08
-1.5175499e-06 4.945453e-06 2.6229472e-07 4.4243896e-07 3.977873e-06 8.828952e-07 -3.6780338e-07 1.6726186e-06
1.4967655e-06 -1.4446964e-06 -1.3994872e-06 6.194085e-07 -5.6505847e-08 -2.8870786e-06 -2.959636e-07 1.4463913e-06

interaction_layers.0.lin.weight f4 [128, 15]
00000000: 6309 f2bc d1f9 bb3c 64d0 48bd 9ffe 763c
00000010: 90c7 883c 5a43 a8b8 8be8 593b 95d7 1a3d
00000020: 8589 833c 3373 be3c 3d76 0bbd cd98 d53c
00000030: 21c4 2dbc f220 1f3c e9e2 343d 30f4 62bc
00000040: 32d3 f738 9f15 95bc e0e9 ee3c a382 0bbd
00000050: 402f 933c 2eaa 883c de72 b3bc 6947 27bd
00000060: 75c3 b13b e8b5 d3bc 2bf9 a53d f59e 7dbc
00000070: ef64 f1bb 9ce7 463c b78f 54bc b724 433b
00000080: a8f4 a93d cf2d 72bd c9b7 37bc 7c74 65b8
00000090: 1683 c9bc 4553 d0bb 4e84 a63d 8c79 08bc
000000a0: 2c1a fb3a 6454 c4bc 96e1 2cbc 0979 c8bb
000000b0: 4851 043c 515d 42b7 f773 2637 f20f 3937
000000c0: 0816 efb5 8d04 4036 1964 1237 5ea2 6136
000000d0: 9669 77b6 181c 3436 3bde 15b7 11a6 86b6
000000e0: 81c8 813c 1a53 d8b6 5c3a e136 12cd 4336
000000f0: 0cd2 0c3c 31e2 d2bb 4e24 debd c9b7 303b
00000100: ca07 153e e2b4 56bd 0d5d 96ba b399 df39
00000110: b028 cebd 9f99 ccbd 7c57 c23d 8069 9fbd
00000120: a06a f6bd e36e fb3d 8cd2 893b 9dd4 85bd
00000130: dd77 ac3d 9e0b 173e 9df2 06bc 285f 06bc
00000140: ed49 94bc 0742 7fbd ab95 283d f5dc 113d
00000150: 6545 23bd c474 4a3d 9e11 f2bd 4e18 473c
00000160: 9379 3ebc f531 933d 620e 58bc 8ded 1b3c
00000170: 170f 2fbc c793 0b3c cef8 193c bc21 9b3b
00000180: f940 a4bc f249 513c c44e 63bc abba 7e3a
00000190: 80ea 43bb 7f45 ea3b 8f06 22bc e55b 943a
000001a0: aaac 70bc 384a 28bd 3fa5 cf3c 68ea dfbc
000001b0: 0ef9 0dbd bb17 4b3d 6ff2 79bc d5ae 913d
000001c0: a477 74bd 1f09 10bc 055c 263d 32b3 95bd
000001d0: 4373 9b3c d7c1 78bd 6f1e 2e3d 56bc 8eba
000001e0: 3f11 af3c d68f b03b 5176 403d d1a9 913d
000001f0: 248f c1bd 76b8 273d b614 e2bd 5faa 963d
00000200: de4a bd3c 6501 09be 8589 f43d f12e 41be
00000210: 26a4 b33d 4ae8 4dbd 538c 07bd 6308 7dbc
00000220: ec26 ebbb 42fb fdbc 8cf5 163c 6464 21bc
00000230: 6161 053a 529e 873c 63c9 98bc 41dd a4bc
00000240: ba0e 2eba f48b 08bc 81ff 1c3d 6071 52bc
00000250: 17e4 b4bb 4033 39bc 3973 dcb6 ab6a 63b7
00000260: e371 04b7 92c2 9335 94e1 a8b6 0961 0436
00000270: b88d a0b7 2825 4737 fb03 78b6 9503 1d37
00000280: 28c6 9ab7 fe10 c7b5 5426 d736 da61 21b7
00000290: fd9a 3a35 3de3 323a b257 893b 96ad 0bbc
000002a0: 91bb d53b 7576 2b3b 9a02 953a 86f6 0dbc
000002b0: cd08 3a3b 04cc 863c 7523 38bc b65e 543c
000002c0: c9ed 743b 86ee 52bc e4e9 a23c 71db ec39
000002d0: 9485 7a3d 01af 25bd 0617 783d 6129 7ebe
000002e0: ca81 633d 1699 da3d facf 8dbd 080b 393d
000002f0: fd2c fc3c 4306 c0bd fe5c ca3d eb7c b73c
00000300: 56e9 293e eac8 4ebe f5aa 323d 6fde f63c
00000310: c875 aa3d dd9c 92bb 6d7f c8bd a209 073e
00000320: 795c e73d f571 cabd 53a1 e43d 0ab3 463d
00000330: afdd 653d 4ea1 503c 2928 1a3d 55ad 10be
00000340: 8165 863e 6501 81bb dd5e 0abb f888 9f3c
00000350: bed6 1dbe f939 573e 424a 97bd 802b 3d3d
00000360: 1e5b cf3b b9e7 ac3d db65 10be 8610 a53c
00000370: 66f9 143a 4b57 4c3c 4ae1 963c 73b4 453c
00000380: 5037 c6bc 8f7f 873d 6dfb 7c3c 89c8 093e
00000390: 7b55 1dbe d5cc 2a3c 26c3 ca3d 495a 073d
000003a0: c5bf b23d 4a6f 9ebc 7aee dc3d 5bbe b1bb
000003b0: 2f46 a5bc b84e 3abe 5803 b63e 822d a6bd
000003c0: e529 053c b8b6 863c 886c 133d 37d3 94bd
000003d0: 0a82 dd3c c8d0 783c 5aca 723c 9ae4 36bd
000003e0: 7bdb 083c 0043 24bc 99c9 ae3c 29ae 083c
000003f0: a53a 89bd a60c 643d 907b 6d3c d5ca 2e3b
-0.029545492 0.02294627 -0.04902686 0.015075355 0.016696721 -8.0234095e-05 0.0033250179 0.03780325
0.016056785 0.02324829 -0.034048308 0.026073838 -0.010605843 0.009712445 0.04416171 -0.013852164
0.00011817216 -0.018198786 0.029164255 -0.03406013 0.017966866 0.01668271 -0.021905359 -0.040839586
0.0054249116 -0.025843576 0.08104166 -0.015479793 -0.0073667686 0.012140181 -0.012973717 0.0029776522
0.082986176 -0.059125718 -0.011213251 -5.470634e-05 -0.02459864 -0.0063575828 0.08130704 -0.00832976
0.001915758 -0.023966022 -0.010551831 -0.006117944 0.00807602 -1.1585028e-05 9.921371e-06 1.1030572e-05
-1.78133e-06 2.8612878e-06 8.725584e-06 3.3622123e-06 -3.6867327e-06 2.6838443e-06 -8.932834e-06 -4.012844e-06
0.015842678 -6.446976e-06 6.7123165e-06 2.917663e-06 0.008595001 -0.0064356555 -0.10846768 0.0026965013
0.14553753 -0.052418597 -0.0011471823 0.0004264839 -0.10066354 -0.099902384 0.094893426 -0.077837944
-0.12032056 0.12277009 0.0042060073 -0.065346934 0.084212996 0.14750525 -0.008236554 -0.008201398
-0.018101657 -0.062318828 0.04115836 0.03561111 -0.0398611 0.049427763 -0.118197665 0.012151791
-0.011625665 0.07187263 -0.013187023 0.009517086 -0.01068475 0.00851912 0.009397699 0.004734246
-0.020050513 0.012773978 -0.01387376 0.0009717147 -0.0029894412 0.007149398 -0.009889259 0.0011318891
-0.014689604 -0.041086406 0.02534735 -0.027333453 -0.034661345 0.049583178 -0.015255555 0.07113425
-0.05968441 -0.008791237 0.0406151 -0.073095694 0.01897586 -0.060731735 0.042509492 -0.0010889869
0.021370528 0.0053882403 0.046987835 0.07112468 -0.0945113 0.0409474 -0.110391065 0.073567145
0.023106989 -0.13379438 0.11940292 -0.18865563 0.08771543 -0.050270356 -0.033092808 -0.015443894
-0.0071762707 -0.031003598 0.009213816 -0.009850595 0.0005088058 0.016554985 -0.018650716 -0.020125033
-0.00066397677 -0.008334149 0.038329605 -0.0128444135 -0.0055203545 -0.011303723 -6.5699246e-06 -1.355509e-05
-7.894329e-06 1.1008981e-06 -5.033051e-06 1.9726015e-06 -1.913948e-05 1.1869975e-05 -3.6957197e-06 9.358763e-06
-1.8450504e-05 -1.4831601e-06 6.4119613e-06 -9.619131e-06 6.951594e-07 0.0006824022 0.0041913623 -0.008525273
0.006522604 0.0026163135 0.0011368573 -0.008664733 0.0028386593 0.016454704 -0.011238922 0.012962034
0.0037373176 -0.012874251 0.019886918 0.00045176924 0.061162546 -0.0404501 0.06056883 -0.24820472
0.0555437 0.1067373 -0.06924434 0.045176536 0.03078317 -0.09376194 0.09881018 0.022398433
0.16592917 -0.2019383 0.04362007 0.030135361 0.08323246 -0.004474266 -0.097899295 0.13187268
0.11296935 -0.09885017 0.11163583 0.04851059 0.056119617 0.012733771 0.037635956 -0.14128621
0.26249316 -0.003936934 -0.0021113672 0.019474491 -0.15413949 0.21018209 -0.073872104 0.046184063
0.0063280007 0.08442635 -0.14101355 0.02014948 0.0005682915 0.012471984 0.018417973 0.012066948
-0.024196297 0.06616127 0.015440804 0.13455404 -0.1536464 0.010424812 0.09900503 0.033045087
0.087279834 -0.019340176 0.10787673 -0.0054243035 -0.020175068 -0.18194091 0.35549426 -0.08114149
0.008127664 0.016444549 0.035992175 -0.072668485 0.027039547 0.015186496 0.014818752 -0.044651605
0.0083531095 -0.01002574 0.021336364 0.008342304 -0.06700639 0.055676125 0.014494792 0.002667119

interaction_layers.1.bias f4 [64]
00000000: d326 d935 b58b 1136 e8f8 7836 6716 7ab6
00000010: 5d68 a6b4 f49c 8236 96be 2037 fe24 0136
00000020: 5aeb 12b5 c092 4a37 eda7 53b6 fd0b 9335
00000030: 16a0 32b5 d2bb 6034 4571 5c36 8fd1 1236
00000040: 3a85 07b7 e03b 8fb5 3474 6f35 31b3 33b6
00000050: c899 89b6 6439 0d35 4742 02b7 d525 1cb5
00000060: 282c 5236 0977 8bb5 33a7 d0b6 b62b 8db5
00000070: a084 c4b5 955b 3236 4b14 9835 835b b135
00000080: bb03 da36 ed84 a236 4124 c5b5 20d5 a335
00000090: bf07 8eb4 ed07 0135 ab62 9435 a317 2c35
000000a0: f7b7 1036 54e7 9a35 4019 fdb3 0e23 6e35
000000b0: 0337 2ab4 6122 7e36 1a36 e4b4 2094 55b5
000000c0: 48f6 48b6 398b 9936 a741 6735 9148 77b3
000000d0: e498 8b35 0bc2 3c34 2890 3735 978a f0b5
000000e0: a1e5 fc35 662a 68b5 5cfd 0db7 432c de35
000000f0: 940b 2a36 6e37 71b6 a48d 93b5 675f 12b6
1.6179059e-06 2.1688004e-06 3.7099762e-06 -3.7265943e-06 -3.0995844e-07 3.8925737e-06 9.581117e-06 1.924403e-06
-5.473172e-07 1.2074306e-05 -3.1539196e-06 1.0955843e-06 -6.6543123e-07 2.0929954e-07 3.2848486e-06 2.1877674e-06
-8.077646e-06 -1.0671756e-06 8.9203536e-07 -2.6777382e-06 -4.1008207e-06 5.261011e-07 -7.764035e-06 -5.816958e-07
3.131814e-06 -1.0390951e-06 -6.2183476e-06 -1.051804e-06 -1.4641737e-06 2.6577375e-06 1.1330789e-06 1.3214161e-06
6.4973406e-06 4.843451e-06 -1.4688195e-06 1.2206474e-06 -2.6455197e-07 4.806778e-07 1.1055575e-06 6.410939e-07
2.1564754e-06 1.154122e-06 -1.17858235e-07 8.871292e-07 -1.5852497e-07 3.786896e-06 -4.2507673e-07 -7.9564234e-07
-2.9945677e-06 4.575963e-06 8.614974e-07 -5.7575168e-08 1.0400804e-06 1.7579457e-07 6.838259e-07 -1.7921728e-06
1.8842294e-06 -8.648843e-07 -8.463245e-06 1.6553171e-06 2.5338713e-06 -3.5944063e-06 -1.0993576e-06 -2.1811227e-06

interaction_layers.1.lin.weight f4 [64, 128]
00000000: 73ee 90bb 0ca1 ad3b 5245 3abc df03 10b9
00000010: 9075 95bc 6656 abbc f5e7 22bc 0962 64b9
00000020: cc70 63bb a3a4 173b 42f9 bc36 3031 9d3b
00000030: 4573 24be 0b78 a3bc 31df 463d 3089 bebb
00000040: 6fff b1ba 9557 36bc b672 2d3d 208c 3d3d
00000050: 0039 0e3d d889 e4b8 5792 7fbc 8f4a 373d
00000060: 24f5 18bd f98b ba3a b40e 27bd 267f 653d
00000070: 6db9 d3bd 7f4a 29b8 9cca 063a 40ab 3abd
00000080: 4a25 24bc 6d2c 003c ebed 2dbd 991d 80bb
00000090: d903 833d 2d51 023c b0eb 64bd 2d89 15bd
000000a0: e7a7 b635 c5d4 38bc 7212 c9bb 211d 0bbc
000000b0: 2b32 0dbd 8dc1 2c3d 69f3 71b9 f091 24bd
000000c0: e8ce 37bc 8474 a8bc 6695 073b 113a ce3c
000000d0: 84c7 03bd 0e30 883a 65d1 2cbd aac1 d3bb
000000e0: e06e 923c 6d2f b3bc 26f1 dabc b208 4f3b
000000f0: 0669 393c 9d39 e1bb b04a 3dba c439 f43c
00000100: bc51 94bd 5e78 85bd 903a bbbc bf45 043c
00000110: 5c1b c839 5b5e 863b 8706 8dbb d65f 6d3c
00000120: 9469 493d 8a60 6cbd 2d89 23b9 8cc5 50bd
00000130: 3170 1cbb 4f2b 20bc a1ce b3bb 9f87 b5bb
00000140: 3eba 2037 11d7 57bc 9bab 043d ca91 53bd
00000150: ec6a 20ba f08c 86bb 9b66 e1bc 59b6 0538
00000160: 64de a0bb 056a e9bc 6d29 563c 0611 7d3c
00000170: df50 1e3c 113b 31bd 4e39 a138 d8dd 06bc
00000180: 5cd6 2abb c3fe 98bc a19b 72bc 81bb 9abc
00000190: fa19 8a3c ba8d e83b fd20 03bb 7ca8 fe3c
000001a0: 9fb8 c8bc 8d75 78bd cf39 953b 4b68 25bd
000001b0: b89c d3bc 686c 80ba 6bd1 aebb 797d 20bb
000001c0: 0790 a03b 096d 923c 7752 e3b9 fafb babb
000001d0: 97f9 0dbd fc0c f5bc 8798 e4b9 61c2 cd3c
000001e0: 0c37 39bc 5a19 1dbb 0811 39bc ad33 83bd
000001f0: ec3f 933c 612f 843d 6b16 12b6 982d 86bc
00000200: 7db9 db3a f1e8 69bc 04f8 183c 11b2 0eb8
00000210: ca63 743c b1a5 85bd cfa4 82b9 4011 ef3b
00000220: cd01 263d 6349 58ba 9da7 1535 58a3 523b
00000230: 0cf5 973d 9747 21bb 9ad1 a8bc d4ea 133d
00000240: b186 50bb b4b3 15ba aeae 08bc 08c1 5bbc
00000250: 1338 9bbc 0c2a 07b8 8aa1 a4bb 0545 bc3c
00000260: af96 8e3c 48da 0c39 16e4 3fbd 5b4a 3abc
00000270: 3c11 b0bc 4426 83b8 5851 0bbd faed 84bd
00000280: 4339 31bd 4d5c 80bc 22b4 edbc 72a2 c5ba
00000290: 037b 133d baac 35bb 026e 923d 7128 873c
000002a0: 41bf d3b4 31b7 bcba c115 a5bb a59e a23a
000002b0: ae36 0d3d 4e2e 963c 98b0 4eb7 f63f b93c
000002c0: e9f2 d3bc 002e 983c 1986 46bb 5af3 9cb9
000002d0: 9966 62bc 4862 253a e9a1 9d3d 52b9 3b3c
000002e0: fb78 103d f25d 083d a730 34bd ad52 bb3c
000002f0: bf72 a1bb 2e33 643b 1b63 ce3a 4515 9f3b
00000300: 3a66 38ba 4f20 9bbc 0d17 3abd accf 103c
00000310: 341f 613c f23b 18bc 5bba 793a 30e4 cd3c
00000320: 414e a93c 6fc5 0dbd dc4b af38 5481 cf3c
00000330: 4855 30bc b605 6fbd a431 05bd bc8c 413c
00000340: dc9d e136 4de4 de39 dbae 233c 9880 9b3c
00000350: b519 c8b9 bc36 e5ba 20de 093d fff8 8ab7
00000360: 7c81 7dbb 3ee4 03bc 6e01 05bd 05ea f9b9
00000370: 9dae ba3c 5e6b d33b 8016 9cbb cd6f 9b38
00000380: c887 193c b418 e5bc 9f39 a53b d909 abbb
00000390: e8dc e63c 84ae 9bbc 8f1f 053b b2fb 2e3d
000003a0: 9d19 a03c 651b 443d 637c 773b 19b5 2cbd
000003b0: a88f 6e3b 9f3a fdba 06b8 31bc 7c95 22bb
000003c0: cabb 8d3b 63c3 263d c1d2 b039 9cb6 da39
000003d0: c19a c53c a51f d0bc b92f ad3a 3120 7ebc
000003e0: 6301 f9b9 9dfd 6bbc bbfa 99bc 2416 7dbc
000003f0: 42d4 4e3b 536b edbc a067 43b6 36c2 7ebd
-0.0044229566 0.0052987393 -0.011369066 -0.00013734352 -0.018244535 -0.020915221 -0.009942998 -0.00021780295
-0.0034704683 0.0023138903 5.631854e-06 0.0047971234 -0.16059597 -0.019954702 0.048552696 -0.005814694
-0.0013580153 -0.01112928 0.042345725 0.04627621 0.03472233 -0.000108975626 -0.015598855 0.04474884
-0.03734316 0.0014232389 -0.040785506 0.05602946 -0.103381015 -4.036212e-05 0.00051418855 -0.045573473
-0.010018656 0.007823092 -0.042463224 -0.0039097783 0.06397218 0.007953924 -0.05588883 -0.036507774
1.3608923e-06 -0.011281197 -0.006136232 -0.008490832 -0.034471672 0.042176772 -0.00023074228 -0.04017824
-0.011218764 -0.020563371 0.0020688414 0.025174173 -0.032172695 0.0010390298 -0.04219188 -0.0064622955
0.017875135 -0.0218732 -0.026726317 0.0031590876 0.011316543 -0.006873323 -0.0007220907 0.029812701
-0.07242152 -0.06517099 -0.022855073 0.008073269 0.00038167357 0.0041006035 -0.0043037566 0.014488181
0.049172953 -0.057709254 -0.00015595993 -0.050969645 -0.0023870582 -0.009775951 -0.0054872786 -0.005539849
9.580106e-06 -0.013173834 0.03239022 -0.051652707 -0.0006119448 -0.0041061565 -0.027514746 3.1879496e-05
-0.0049093235 -0.028492937 0.0130714 0.015445953 0.009662836 -0.04326922 7.687752e-05 -0.008231603
-0.002606771 -0.018676167 -0.014807613 -0.018888237 0.01685809 0.0070969732 -0.0020008676 0.031086199
-0.024502097 -0.06065898 0.0045540105 -0.040382665 -0.025831565 -0.0009797933 -0.005335023 -0.002448885
0.004899982 0.017874258 -0.00043358255 -0.0057063075 -0.034661856 -0.029913418 -0.0004360119 0.025117101
-0.011304628 -0.002397141 -0.0112955645 -0.06406341 0.017974816 0.06454349 -2.1768744e-06 -0.016379163
0.0016763654 -0.014276729 0.009336475 -3.4021275e-05 0.01491637 -0.06525744 -0.00024918324 0.0072957575
0.04052906 -0.00082506816 5.5750735e-07 0.0032140817 0.07419786 -0.0024609321 -0.020607758 0.03611262
-0.0031818564 -0.0005710677 -0.008342428 -0.013412721 -0.018947637 -3.2225667e-05 -0.00502414 0.02298213
0.017405836 0.00013432757 -0.04684838 -0.011370267 -0.021492593 -6.253694e-05 -0.034013122 -0.06490703
-0.0432675 -0.015669012 -0.029016558 -0.001507832 0.036005985 -0.0027721361 0.071498886 0.016498776
-3.9440968e-07 -0.0014397857 -0.0050379937 0.0012406899 0.034475975 0.018332627 -1.2319673e-05 0.022613507
-0.025872665 0.018576622 -0.003029233 -0.0002993595 -0.0138184065 0.00063088955 0.076968975 0.011457758
0.035271626 0.03329272 -0.04399171 0.022866571 -0.004927009 0.0034820545 0.0015746088 0.0048548304
-0.0007034276 -0.018936304 -0.04543214 0.008838575 0.01374035 -0.009291636 0.00095263653 0.025133222
0.020667197 -0.034612115 8.35878e-05 0.025330223 -0.01076252 -0.058355056 -0.032518044 0.011813339
6.7239e-06 0.00042513237 0.009990419 0.018982217 -0.00038166126 -0.0017487626 0.0336591 -1.656683e-05
-0.0038681915 -0.008050023 -0.032472067 -0.0004766734 0.02278834 0.006452008 -0.0047634244 7.4118005e-05
0.009370752 -0.02796588 0.0050422694 -0.00521968 0.028181508 -0.019004114 0.0020313 0.042720504
0.019543463 0.047877688 0.003776335 -0.042164896 0.0036401544 -0.0019319839 -0.010847097 -0.0024808338
0.0043253647 0.04071368 0.0003372636 0.00041716255 0.024121644 -0.025405714 0.0013213075 -0.015510605
-0.00047494014 -0.014403728 -0.018796315 -0.015447173 0.003155962 -0.02898184 -2.9117582e-06 -0.062196933

out.weight f4 [200, 64]
00000000: 3632 bdbb e0b0 a93b 7f86 da3c ada9 ac3c
00000010: c243 0bbc af8d e23b ce8b c2ba 6202 1e3c
00000020: faa5 e0bd 7677 3dba 8820 a1bc 06c7 393d
00000030: 5d81 ce3b d61f daba dd46 7ebc e992 1cbd
00000040: a339 bdbb 37bc 25bb 3632 3dbc 04ce 1c3b
00000050: da0e 853c fde5 8e3c 1840 afbc 8443 373b
00000060: e6a8 0e3d 1b47 223b 6d38 f03b 15d8 0e3a
00000070: 1e3d f63b 28a2 78bb 3fd7 cf3b 56c6 1fbc
00000080: 3f01 d7bb 10f4 b13c 3e97 973c dbfd 32bc
00000090: 9f61 a3bb 57f2 c5bc 92d9 91bb 4801 a1bb
000000a0: a8d0 c73b 5d1e 073b a843 a0bb 4b85 973c
000000b0: 73eb 503b 550b 31bb 26c6 8d3a ea45 72bb
000000c0: 4183 d9ba 7241 cabc 5a01 65bc e04f a63b
000000d0: f009 d2bb 8708 46bc f698 03bb 6a82 253d
000000e0: 95ad 5cbb 2f0e 20bd 2ec3 3fbb 4186 f83b
000000f0: bf7d 4a3b edf8 98bb 6cd9 c13c b058 053c
00000100: 5032 9c37 bd38 6eb7 1577 81b8 86d7 b3b7
00000110: d52f 9636 1d69 98b8 a987 3337 609e ceb8
00000120: c2b0 9337 6a2e c5b5 ee45 8238 4ee5 d9b7
00000130: 693f a7b8 470c e536 1b3c 0db8 ebf9 e937
00000140: b807 8737 678f 39b7 f49b c637 9db8 ef38
00000150: afcc 50b8 6c75 5138 2953 8638 d95f 0938
00000160: d875 55b7 ebf7 85b8 7205 d1b7 3bf6 6cb6
00000170: eb51 9936 66f9 e3b7 2d16 5836 194d bfb7
00000180: 429c 28b8 5169 a7b7 03ff 22b7 61ca 0538
00000190: 3a32 3338 2367 f536 2358 d138 7f08 7237
000001a0: 7a71 c537 ddd2 c0b6 467b 4236 237a 7d38
000001b0: e6b5 de37 2cdc b236 50d7 82b8 a74d b937
000001c0: dfe9 f3b6 d7d5 a5b6 6780 7237 5625 4137
000001d0: 7aa0 7e38 cb61 3d38 8adb 17b8 4927 e937
000001e0: 6e0e 2138 874e 3db8 e24d 95b5 a797 58b5
000001f0: e6b1 e9b7 0ca3 97b7 df5f 2eb8 0ad5 1bb8
00000200: 7c05 5db7 2f53 a337 270c 93b7 1a4d 8b37
00000210: 279a 99b6 0ea5 65b6 0939 eeb6 1ffb 9d36
00000220: ee4d 52b7 0157 a7b7 0a33 0fb8 66c8 4336
00000230: 1b4a ea37 f7a4 8634 d471 39b6 284c c133
00000240: db23 9e37 d7ae 4637 f2d1 99b7 1a1e 8ab7
00000250: 920a 5836 b34e 93b7 8dec 0eb7 14c0 5137
00000260: 0795 9637 1955 4a38 b1dd ef36 2949 5837
00000270: 62d2 2bb7 0de5 1637 46b1 f3b7 cee5 7337
00000280: aa34 1f38 3b1f be38 2d1b 9537 650a eb36
00000290: 1401 0bb6 56cc c335 4202 7d37 6196 2f37
000002a0: 8aac b637 e9f3 e9b6 2068 3fb6 3774 18b8
000002b0: 4fbb 41b7 91fb 7bb7 28e1 f637 9a97 0838
000002c0: d1d3 7db5 ac84 7a38 172c 12b7 9484 97b6
000002d0: ed8a 47b7 93bc 61b7 b861 4938 6afb bcb7
000002e0: 8691 44b8 a6ec 1d38 dbbb 2eb7 8f82 6436
000002f0: 7288 9438 8fc3 cbb6 bc0c 90b7 1d79 f237
00000300: 13a5 74b7 3c85 a737 805d 08b8 cd24 0b38
00000310: 1b2d 97b6 a97f 4136 8293 c5b7 a56b 9837
00000320: 9abc 01b7 4204 5cb8 feac 4db8 1931 9137
00000330: a30f 8238 a5a3 c035 12da 30b7 757d ecb6
00000340: 2bda 0f38 f1d7 a437 5db3 39b8 2281 01b8
00000350: 5d90 1a37 c471 3bb8 4ade 19b8 e9dc 2738
00000360: 46d1 3838 a693 be38 9913 bf37 cb97 aa37
00000370: cb00 74b7 fa92 9537 aa27 1cb8 ddae 3138
00000380: 0794 9c38 cf6d 3739 0cca 3f38 5f65 e337
00000390: 437c 3ab7 11c6 ea36 a884 1538 3e39 b737
000003a0: b9b7 7438 a18f efb6 3c33 1434 0a2b 7cb8
000003b0: 5104 30b8 4b2a c1b7 1b10 1b38 ea11 9f38
000003c0: 0a81 7537 aead f538 156c 13b6 60a0 e9b7
000003d0: e72b bab7 a56b 12b8 0c3d fc38 6e79 44b8
000003e0: e77d d4b8 bf54 c038 f3f5 09b8 6e72 2d37
000003f0: a719 2e39 af03 6cb7 7007 08b8 03e0 8738
-0.005773808 0.005178556 0.02667546 0.021077001 -0.008500041 0.0069138627 -0.001484269 0.009644123
-0.109691575 -0.0007227579 -0.019668832 0.04535582 0.0063020424 -0.0016641568 -0.015519825 -0.038226042
-0.005774693 -0.0025289187 -0.011547616 0.0023926506 0.016242433 0.017443651 -0.021392867 0.0027963826
0.034829043 0.002476162 0.007330945 0.0005449069 0.00751461 -0.003793845 0.006342798 -0.009751877
-0.006561428 0.021722823 0.018504735 -0.010924782 -0.0049860026 -0.024163408 -0.004450985 -0.004913483
0.006097872 0.0020617463 -0.0048908778 0.018496176 0.003187862 -0.002701481 0.0010816499 -0.0036967942
-0.0016594903 -0.02468941 -0.013977373 0.00507544 -0.006409876 -0.012086994 -0.0020080185 0.040407576
-0.00336728 -0.039076027 -0.0029260623 0.0075843637 0.0030897704 -0.004668346 0.023663245 0.0081388205
1.8620078e-05 -1.4199116e-05 -6.17338e-05 -2.1438824e-05 4.4759167e-06 -7.267504e-05 1.0700817e-05 -9.852345e-05
1.7606075e-05 -1.4691152e-06 6.2119085e-05 -2.5975194e-05 -7.9749916e-05 6.826161e-06 -3.3672997e-05 2.7892142e-05
1.6096848e-05 -1.1060248e-05 2.367606e-05 0.00011430795 -4.978169e-05 4.993884e-05 6.405108e-05 3.275261e-05
-1.2723227e-05 -6.3881125e-05 -2.4917277e-05 -3.5310065e-06 4.569292e-06 -2.7176644e-05 3.2199416e-06 -2.2804876e-05
-4.0199848e-05 -1.9956993e-05 -9.715327e-06 3.189815e-05 4.2723703e-05 7.3135757e-06 9.982313e-05 1.4426302e-05
2.3537072e-05 -5.7465936e-06 2.8980007e-06 6.043365e-05 2.6549165e-05 5.3304448e-06 -6.238988e-05 2.2089878e-05
-7.2691905e-06 -4.9422774e-06 1.445422e-05 1.1512389e-05 6.0707775e-05 4.515219e-05 -3.6205667e-05 2.7794058e-05
3.839883e-05 -4.5134246e-05 -1.1124032e-06 -8.0686954e-07 -2.7858605e-05 -1.8076527e-05 -4.157412e-05 -3.7153288e-05
-1.3173903e-05 1.946985e-05 -1.7529424e-05 1.6605994e-05 -4.577701e-06 -3.4219734e-06 -7.0995925e-06 4.708199e-06
-1.253512e-05 -1.9948466e-05 -3.414139e-05 2.9173912e-06 2.7929482e-05 2.5079473e-07 -2.7633405e-06 9.0011156e-08
1.8851764e-05 1.1842428e-05 -1.8336785e-05 -1.6464899e-05 3.219266e-06 -1.7560413e-05 -8.518936e-06 1.2502092e-05
1.795079e-05 4.8239806e-05 7.1485633e-06 1.2891637e-05 -1.0241378e-05 8.994027e-06 -2.9050407e-05 1.4537434e-05
3.79576e-05 9.065723e-05 1.7774839e-05 7.004756e-06 -2.0713242e-06 1.4588102e-06 1.5080501e-05 1.0465826e-05
2.1776435e-05 -6.972336e-06 -2.8521827e-06 -3.6347858e-05 -1.1547308e-05 -1.5019338e-05 2.9430332e-05 3.2566117e-05
-9.455808e-07 5.9728205e-05 -8.712544e-06 -4.515585e-06 -1.18936705e-05 -1.3454951e-05 4.8013142e-05 -2.252842e-05
-4.686557e-05 3.7652113e-05 -1.0414947e-05 3.4050643e-06 7.082605e-05 -6.0726375e-06 -1.7172068e-05 2.8905046e-05
-1.4581968e-05 1.9969993e-05 -3.2512005e-05 3.3174456e-05 -4.5054016e-06 2.883355e-06 -2.3552919e-05 1.8169938e-05
-7.732911e-06 -5.2456053e-05 -4.903692e-05 1.730821e-05 6.2017956e-05 1.4352742e-06 -1.0541191e-05 -7.047953e-06
3.429704e-05 1.9650879e-05 -4.4274482e-05 -3.087626e-05 9.2127275e-06 -4.4690227e-05 -3.6685065e-05 4.002164e-05
4.406392e-05 9.087408e-05 2.27781e-05 2.0336263e-05 -1.4543718e-05 1.7830625e-05 -3.723024e-05 4.2362943e-05
7.466232e-05 0.00017493147 4.572612e-05 2.7107713e-05 -1.1115396e-05 6.9968014e-06 3.5647914e-05 2.1841955e-05
5.834524e-05 -7.1394757e-06 1.3802213e-07 -6.0121565e-05 -4.196569e-05 -2.3027087e-05 3.696988e-05 7.5850476e-05
1.4633182e-05 0.00011714861 -2.196762e-06 -2.7850445e-05 -2.2193371e-05 -3.4909364e-05 0.00012027667 -4.684313e-05
-0.00010132399 9.1710586e-05 -3.2892403e-05 1.0338246e-05 0.0001660349 -1.4067554e-05 -3.2431853e-05 6.479027e-05

out.bias f4 [200]
00000000: a3fc 86bd 00e2 09b9 4843 d0b7 c2e8 9db8
00000010: 99ae e6b8 58c3 15b9 1038 bcbc 22b9 24ba
00000020: a4f7 28bc 364e 1bba 6281 c7bb f0c2 76bb
00000030: 519f 2abb 4623 c5bb 76ba c0bc 0a5a 57bb
00000040: d916 e5bb a964 52bb dce7 b53b c71a 14bd
00000050: 2e0c 4ebc e2dc ddbd f5ca 65bc 4101 723c
00000060: 30cd 973c b96e fd3c f1e8 133d c045 373d
00000070: ffd9 353d a3fd 4b3d c6f7 7f3d bfd6 8c3d
00000080: 9331 973d 7138 a53d d596 b63d 9b2a cb3d
00000090: e41d e63d 31d0 053e 8f91 183e e2c9 313e
000000a0: edde 4b3e 861a 693e ae19 853e 2844 963e
000000b0: e68c a63e 9eef b53e b88c c23e 445d ce3e
000000c0: 40a7 d83e bfa0 db3e 719a d93e ea1e d43e
000000d0: ce8e ca3e 1b88 bc3e 46c8 ac3e 29af 9c3e
000000e0: c0b4 8b3e 9ce8 733e 12f3 5d3e 5a47 453e
000000f0: ce51 363e e074 2a3e a4be 1e3e ee2d 1b3e
00000100: c469 163e 2ab7 0f3e 9fd6 0b3e 13aa 083e
00000110: d04a 033e 59a6 fe3d 5aa9 f43d 133b ec3d
00000120: cdc4 e13d 8701 db3d 06cf d93d 64b2 d83d
00000130: 9dab dc3d ab8c e63d aa15 f43d ff0f 023e
00000140: 33b8 123e 053a 1f3e aef3 2f3e a460 433e
00000150: aa21 523e 9a5b 673e f57a 7c3e 5450 843e
00000160: f67d 893e 06ae 8e3e 6524 8c3e 1f98 8b3e
00000170: df13 883e fa1e 823e aced 783e f3cc 6b3e
00000180: de4e 5d3e 0fa3 543e 5c1e 503e 76ef 4f3e
00000190: 551c 4e3e 08a5 563e f0d1 5b3e 7340 623e
000001a0: e3f2 6b3e 4f9d 753e ffaf 7e3e 6607 843e
000001b0: 146c 883e 7a00 8f3e 7a8f 943e 40bc 9a3e
000001c0: 5ad9 a13e 8da3 a73e 8945 b13e 51c8 b73e
000001d0: 2279 c23e 76a3 c93e 865a d43e 1776 d93e
000001e0: 09a8 e13e acb2 eb3e c9e8 ee3e d93b f73e
000001f0: 26cc f93e 3fe5 fc3e 1f01 003f 0a6b 003f
00000200: 1960 003f c66b 003f 3085 003f f7b1 fd3e
00000210: b595 fc3e b4a7 f83e d726 f63e b814 f03e
00000220: e98e ef3e d8f3 e93e e758 e83e 33cb e03e
00000230: 0d2c de3e 0c1e d63e 4cd3 d63e 6462 cd3e
00000240: 8c55 ca3e 9092 c53e aab9 c13e 9ebb be3e
00000250: 22ad ba3e 4ba3 b53e fb64 ae3e efc9 aa3e
00000260: c61f a53e f6ca 9e3e d656 9a3e 75ab 9a3e
00000270: 5362 993e 574b 953e 805e 953e eea6 933e
00000280: 172e 903e 34c8 8d3e e673 8d3e 785a 893e
00000290: a814 883e 45de 863e 4b21 833e b461 823e
000002a0: 81fe 813e 2f51 7e3e 2667 823e 8c09 7f3e
000002b0: 8c12 813e 7877 823e 18f2 833e 61b4 863e
000002c0: 9257 863e 4a06 8c3e 55d9 8f3e 6caf 8f3e
000002d0: 2f98 933e 6c24 983e 175c 973e 417e 9a3e
000002e0: 5d3e 993e 4a11 9e3e a3e5 9e3e d2cc 983e
000002f0: 42eb 993e f802 943e 4634 953e 184e 943e
00000300: fbf3 8e3e 064c 8f3e 2e34 8e3e 3cac 8b3e
00000310: c2f1 893e b1eb 883e 7a10 883e 46eb 823e
-0.065911554 -0.0001314953 -2.4826863e-05 -7.529698e-05 -0.00010999776 -0.00014282519 -0.022975951 -0.00062836905
-0.010312948 -0.0005924435 -0.0060884217 -0.0037652813 -0.0026034901 -0.006016168 -0.023526412 -0.0032860064
-0.006991249 -0.0032103455 0.0055513214 -0.03615835 -0.012576146 -0.10833146 -0.0140254395 0.014770807
0.018530458 0.030936586 0.036110822 0.044744253 0.04439735 0.049802434 0.062492155 0.06876897
0.073825024 0.08067406 0.08915488 0.09920236 0.1123617 0.130677 0.14899276 0.17362168
0.19909258 0.22764024 0.25996155 0.29348874 0.32529372 0.35534376 0.37997985 0.4030553
0.42315102 0.42896077 0.42500642 0.41429836 0.39562076 0.3682259 0.33746547 0.30602387
0.2728634 0.23819202 0.21674755 0.192655 0.17804644 0.16646147 0.15502411 0.1515424
0.14688784 0.14034715 0.1365609 0.13346128 0.12821507 0.12434072 0.11946364 0.11534705
0.11023865 0.10693651 0.1063519 0.105809 0.1077492 0.11257299 0.119181946 0.12701415
0.14328079 0.15549476 0.171828 0.19079834 0.20520654 0.22593537 0.2465628 0.25842535
0.26853913 0.27867144 0.27371517 0.27264497 0.2657766 0.25414258 0.24309415 0.230274
0.21612117 0.20765327 0.20324081 0.20306191 0.20127995 0.20961392 0.21466804 0.22094898
0.23041873 0.2398579 0.24871825 0.25786895 0.26644957 0.2793005 0.29015714 0.30221748
0.3161114 0.32741967 0.34623364 0.35895017 0.37983042 0.39382523 0.41475314 0.42472908
0.44073513 0.46034753 0.46661976 0.48287848 0.48788565 0.4939365 0.5000171 0.5016333
0.50146633 0.5016445 0.5020323 0.4954984 0.49332967 0.48565447 0.48076507 0.46890807
0.4678872 0.4569385 0.45380327 0.4390503 0.43392983 0.418198 0.41958082 0.4011413
0.39518392 0.3858838 0.37836963 0.37252516 0.36460215 0.35476145 0.34061417 0.33357188
0.32250804 0.31014222 0.30144376 0.30208936 0.29957828 0.29159042 0.2917366 0.28838295
0.28160164 0.27691805 0.27627486 0.26826835 0.2657826 0.26341453 0.25611338 0.25465167
0.25389484 0.24835657 0.2546932 0.24905986 0.25209463 0.25481772 0.2577064 0.26309493
0.26238686 0.27348548 0.280955 0.28063524 0.28827044 0.29715288 0.29562446 0.3017445
0.29930392 0.30872566 0.31034574 0.29843765 0.300623 0.28908515 0.29141444 0.2896583
0.27920517 0.2798769 0.27774185 0.27279842 0.2694226 0.26742318 0.2657507 0.25570124
