best_model/xasnet_gnn_model_15.pt (torch, 102230 bytes, 14 tensors)

batch_norms.0.weight f4 [128]
000000 5a 80 42 3f f1 1b 41 3f b0 5f 42 3f f5 b4 44 3f
       0.759771 0.7543326 0.7592726 0.7683862
000010 50 4a 47 3f 6d 9c 42 3f cd 00 4c 3f 2a 5e 41 3f
       0.77847767 0.76019937 0.7968872 0.7553431
000020 12 57 44 3f 85 78 42 3f 75 68 43 3f 24 4d 4d 3f
       0.7669536 0.7596515 0.76331264 0.8019583
000030 b2 13 44 3f ff 65 42 3f 0c 93 4a 3f e0 a7 3f 3f
       0.7659255 0.75936884 0.79130626 0.7486553
000040 cf bd 45 3f 24 82 47 3f 2d 95 40 3f 12 f0 46 3f
       0.7724275 0.77932954 0.75227624 0.7771007
000050 9a 91 45 3f 77 53 4c 3f ad a1 44 3f f5 ec 44 3f
       0.77175295 0.7981486 0.768092 0.7692407
000060 be f5 45 3f fe 43 40 3f 44 c6 3f 3f 89 6e 4e 3f
       0.773281 0.7510375 0.74911904 0.80637413
000070 34 ed 44 3f ae fe 42 3f 8a 51 43 3f 78 17 3f 3f
       0.76924443 0.7616986 0.76296294 0.74645185
000080 65 75 40 3f c9 93 3f 3f 92 cb 3e 3f 0c 02 3f 3f
       0.7517913 0.7483488 0.74529374 0.746125
000090 b3 d2 42 3f 45 54 44 3f 4e 18 48 3f 82 1a 45 3f
       0.7610275 0.76691085 0.78162086 0.7699357
0000a0 b3 b1 40 3f 97 72 47 3f 8b 0c 41 3f 01 3d 43 3f
       0.7527115 0.77909225 0.75409764 0.7626496
0000b0 3b 02 47 3f 10 e3 44 3f 83 40 40 3f d0 4d 45 3f
       0.7773778 0.7690897 0.7509844 0.7707186
0000c0 d6 83 48 3f 3a 0b 45 3f 6c f1 3e 3f ae 13 44 3f
       0.78326166 0.76970255 0.7458713 0.7659253
0000d0 f0 31 48 3f a4 a8 43 3f 2f 4d 4c 3f 26 30 48 3f
       0.782012 0.764292 0.7980527 0.7819847
0000e0 67 25 46 3f 89 fd 40 3f f4 5f 45 3f 24 d4 3f 3f
       0.7740082 0.75386864 0.7709954 0.74933076
0000f0 66 88 3e 3f b8 cc 44 3f 62 05 46 3f ab 09 44 3f
       0.7442688 0.76874876 0.77351964 0.7657725
000100 ab 7a 47 3f 36 e6 45 3f 5c db 40 3f aa 82 46 3f
       0.7792155 0.773044 0.75334716 0.7754313
000110 85 79 48 3f f8 23 42 3f 5c 41 40 3f 58 61 44 3f
       0.78310424 0.75836134 0.7509973 0.76711035
000120 42 7d 46 3f 19 c8 40 3f 0a 94 48 3f da 29 41 3f
       0.7753488 0.75305325 0.7835089 0.75454485
000130 9f 62 40 3f a3 f3 45 3f ba f0 40 3f 38 77 40 3f
       0.75150484 0.77324885 0.7536732 0.75181913
000140 7b 6d 43 3f 6c 53 4c 3f e7 d3 46 3f 98 66 42 3f
       0.7633893 0.7981479 0.7766709 0.75937796
000150 40 2f 42 3f 3e 7f 4d 3f 70 f3 41 3f 0d 3d 44 3f
       0.7585335 0.8027228 0.7576208 0.76655656
000160 b9 65 42 3f 20 88 41 3f 11 96 41 3f 94 68 40 3f
       0.75936466 0.75598335 0.7561961 0.75159574
000170 8a e3 45 3f 08 b7 4a 3f b9 bb 42 3f 58 f6 46 3f
       0.7730032 0.79185534 0.7606769 0.7771964
000180 72 16 43 3f 0d b5 41 3f fa 4e 42 3f f6 ad 46 3f
       0.76206124 0.75666887 0.7590176 0.77609193
000190 55 5f 40 3f 17 0d 45 3f af 11 41 3f 89 04 42 3f
       0.75145465 0.769731 0.7541761 0.7578817
0001a0 f8 3d 4f 3f 71 70 47 3f 33 bb 45 3f 58 9e 3e 3f
       0.8095393 0.77905947 0.7723877 0.74460363
0001b0 b6 80 42 3f d3 24 42 3f ef cf 44 3f 20 a7 43 3f
       0.7597765 0.7583744 0.7687978 0.7642689
0001c0 94 c3 42 3f 8a 05 4c 3f 7d 32 42 3f 91 f1 42 3f
       0.7607968 0.7969595 0.7585829 0.7614985
0001d0 ba e7 3f 3f cf 83 44 3f 39 ef 43 3f 2b b4 4b 3f
       0.7496296 0.76763624 0.765369 0.7957179
0001e0 78 dd 43 3f de 86 42 3f f0 e7 4d 3f 46 87 43 3f
       0.7650981 0.7598704 0.80432034 0.76378286
0001f0 91 2d 3f 3f b0 eb 45 3f 72 de 44 3f d7 bd 44 3f
       0.74678904 0.77312756 0.76901925 0.7685217

batch_norms.0.bias f4 [128]
000000 99 4e f6 3c d9 d3 ed bc 87 f9 5e 3d 6e 73 4e bb
       0.030066775 -0.02903168 0.054437187 -0.0031501907
000010 94 00 f6 3a 3a e1 10 bd 1e 08 2c bc dc 89 a1 bc
       0.0018768483 -0.035371043 -0.010499982 -0.019719057
000020 90 16 87 bc c8 2c fa bc cf 12 73 bb 4a 48 81 bc
       -0.01649025 -0.030538931 -0.0037090068 -0.01578154
000030 8d 8a 11 bd 57 bc ad 3b a3 4e c9 bc 2f 34 2c bd
       -0.035532523 0.005301993 -0.02457363 -0.042041954
000040 85 68 3c bd 69 e2 78 bd 4e fe e3 3c 16 ca 0d bd
       -0.045998115 -0.060762797 0.027831223 -0.034616552
000050 58 62 a9 bd 62 d5 7b bd e0 b9 16 bc e0 ea a8 bc
       -0.08270711 -0.061482795 -0.0091995895 -0.02061981
000060 f6 06 22 3c c6 2c ca bc 9b 1b 82 bb 80 12 92 bd
       0.009889355 -0.024679553 -0.003970576 -0.07132435
000070 1e ce dd 3c be 88 48 bc ce 04 db 3c d9 26 8d 3c
       0.027075823 -0.012239633 0.02673569 0.017230438
000080 c1 45 31 3c ad b8 11 bd 08 70 01 bd 0f 28 48 3c
       0.010819853 -0.03557651 -0.031600982 0.012216582
000090 82 41 0f 3d 60 39 bb 3c a4 5d 95 bd b9 f8 11 bb
       0.034974582 0.022854507 -0.07293251 -0.0022273494
0000a0 2f 3a 90 3c da d0 2b 3c 2b fc 99 bc 92 57 33 3b
       0.01760587 0.010486806 -0.018797 0.0027365428
0000b0 af 44 86 bd b2 3f 8c bb ab 0c 7a bc 48 ea ab 3c
       -0.06556069 -0.004280054 -0.015261809 0.020985737
0000c0 f2 e6 55 bd d9 ee f3 bc 4b 82 07 bd f7 91 34 bd
       -0.0522222 -0.029776977 -0.03308324 -0.044084515
0000d0 38 3f bb bc 26 7c 7b bd dc b6 c5 bc c0 12 94 bd
       -0.022857293 -0.061397694 -0.024135046 -0.07230139
0000e0 55 94 76 bd b8 64 d1 bb 62 fc 6f bc 3b 89 77 ba
       -0.060200054 -0.0063901804 -0.014647575 -0.0009442751
0000f0 6e 66 92 bc 3f 14 d3 bc c1 14 71 bc a8 79 2e 3b
       -0.017871108 -0.02576649 -0.014714421 0.0026622806
000100 a3 52 81 bc 9b 75 66 bc 5d 66 f9 3b 2c 92 91 bd
       -0.015786475 -0.014066125 0.0076110796 -0.07107958
000110 c6 ab d5 3c 6e f2 1e bd 47 f5 70 3c fb 57 87 bb
       0.026082885 -0.038805418 0.014706916 -0.004130361
000120 e7 5d 47 3c 44 64 f8 bc e8 4f 1b 3c 40 3b 16 bb
       0.012168384 -0.030321248 0.0094795 -0.00229235
000130 ee 36 c4 bc ac 00 d3 3c 6f db d3 bc 3b 5e 3d bd
       -0.023951974 0.025757156 -0.02586147 -0.046232443
000140 da 32 b5 3c 2c 03 9d bd de 88 14 3c 0f 75 bd bc
       0.022118974 -0.076666206 0.009065835 -0.023127107
000150 b2 30 a1 bc ae bd 9f bd b6 c8 03 bd 17 df 23 bc
       -0.01967654 -0.077998504 -0.032173835 -0.010001919
000160 91 85 6e bd de fe f3 3b 6e 0c 09 3c 50 d2 ab bc
       -0.058232848 0.007446154 0.00836478 -0.020974308
000170 48 3d 31 bd a5 5e 3f bd bf 6b 28 bd 89 73 55 bd
       -0.043271333 -0.04672112 -0.04111838 -0.052112136
000180 24 de e4 bc a1 99 bd bb 67 72 0f bb ee d4 a2 bc
       -0.027937956 -0.0057861363 -0.0021888257 -0.019876923
000190 70 d4 db bc 56 f3 df bb f3 f8 5a bd fe 6f 19 bd
       -0.026834697 -0.006834428 -0.053460073 -0.03746032
0001a0 38 ba a0 bd aa 03 b5 3c 89 02 f4 3c 5a 9d 43 bc
       -0.078480184 0.022096474 0.029786365 -0.011939371
0001b0 dd 85 18 bc b4 54 a6 bc 78 3c e7 bc 75 50 c0 bc
       -0.009309259 -0.020304061 -0.028227076 -0.023475865
0001c0 1e 4a d2 bc 78 4d b3 bd 77 7a af bc 0c 9e 26 bd
       -0.025670107 -0.0875501 -0.0214207 -0.04067807
0001d0 0e 02 d6 bc 08 b6 0c bc f4 98 60 3b d7 0a 0d bc
       -0.026124027 -0.0085883215 0.0034270855 -0.008608541
0001e0 db db a2 3c 02 c4 15 bd 71 93 5f bd 6f 28 36 bd
       0.019880226 -0.03656388 -0.05458397 -0.044472154
0001f0 a1 cc 5d 3c 1b 16 ac 3c fc 01 16 bc 8c 83 b1 bc
       0.013537557 0.021006634 -0.009155747 -0.021669172

batch_norms.0.running_mean f4 [128]
000000 9a 63 44 3d 98 00 54 3d 21 0c 3e be 3f 39 06 3e
       0.04794655 0.05175838 -0.18559314 0.13107775
000010 e7 3d 5f 3d fd e5 f2 3c 31 0a cb bb 03 46 b0 3d
       0.054502394 0.029650683 -0.0061962833 0.08607104
000020 c9 4d 2c 3e 4e 4c 04 3e 70 6b d3 3b 34 2c aa 3d
       0.16826548 0.12919733 0.0064520165 0.08309212
000030 f1 b2 2b bc a6 10 05 3d 80 6c 5f 3b e0 e6 06 3d
       -0.010479675 0.03248658 0.003409177 0.032935023
000040 eb 87 85 bd 82 ca c2 3d 52 96 da 3c 4f 6d 8c 3c
       -0.06520065 0.095112815 0.026683006 0.017141966
000050 bb 74 6a 3d c2 ec a6 3c e5 35 db 3d 96 5d ab 3d
       0.05724023 0.020376567 0.10703639 0.083674595
000060 bb cb 03 3e 9d cd 4e bd 93 26 6c bc ee 1a 44 3e
       0.12870686 -0.050489057 -0.014413494 0.19150898
000070 7a f2 dc bd 8b 30 1a bc 8b 00 20 be f6 01 5a 3c
       -0.10788436 -0.009410988 -0.15625207 0.013306132
000080 45 27 36 3e 7b 46 ed bb ad 71 28 3e 62 8c dd bc
       0.17788418 -0.007241068 0.16449614 -0.027044479
000090 e3 a8 35 bd 79 d5 14 be 52 58 f9 bd 8e 6f 5a bd
       -0.044350516 -0.14534558 -0.12175049 -0.053329043
0000a0 ba 13 c8 bd ab 09 01 bc 93 63 34 3d a0 a1 35 3c
       -0.097693875 -0.00787584 0.044040274 0.011085898
0000b0 4e 4f 94 3d 03 80 7e bd f9 22 d5 bd 3f f5 eb bd
       0.07241689 -0.0621338 -0.10407061 -0.11521386
0000c0 d0 2b 1c be 03 f3 28 3e 59 72 b2 3d de c9 a7 bd
       -0.15251088 0.16498952 0.08713216 -0.081928
0000d0 80 7c ad bd 44 4a 4d be ca 55 ba bc b9 f4 3a 3e
       -0.08471012 -0.20047861 -0.022745986 0.18257417
0000e0 79 32 49 3d bd ed 28 bd e9 6a 24 be 14 97 83 3d
       0.0491204 -0.04124235 -0.16056408 0.064253
0000f0 eb 46 e6 3d 2c ef e0 bd 3f 48 6d bc d6 30 2d bd
       0.11243995 -0.109831184 -0.014482557 -0.0422829
000100 30 16 6e 3e a8 45 d4 bc eb 75 fa bc 75 2b d3 bc
       0.23250651 -0.025912121 -0.030573806 -0.025777558
000110 b9 bb 5a 3b 3b 86 73 bd b9 dd d3 3d 8b 73 c1 3c
       0.0033376052 -0.059454184 0.103450246 0.023614665
000120 38 b7 ab bd ce 0d 0c be ac a7 10 be 02 be df 3d
       -0.083845556 -0.13677141 -0.14126462 0.10924913
000130 31 9a 5e 3e 86 f8 f9 bc 75 5f 8b bd 5e 7b 24 3c
       0.21738507 -0.030514013 -0.06805316 0.010039179
000140 cd 79 59 bd 9b f4 41 3c db 8b 27 bc a7 79 3a bb
       -0.053094674 0.011838104 -0.010226215 -0.0028453858
000150 9e a5 c1 bd e0 97 51 be cf a0 c0 3d a5 62 80 3d
       -0.09455417 -0.20468092 0.09405672 0.06268815
000160 7d e1 d6 bd b2 06 cf bc cf fc 9a 3d d9 25 7a be
       -0.10492227 -0.025271747 0.07567751 -0.244285
000170 ac 46 95 bd a0 14 19 3e 7a da 83 bd 04 36 08 3e
       -0.0728887 0.14949274 -0.064381555 0.13301855
000180 98 5e de 3d 74 a0 8b 3d 41 70 18 be b8 4d 62 bd
       0.10857886 0.068177134 -0.14886571 -0.0552499
000190 16 90 65 3d 36 9b b0 bd ec 57 7b 3e 93 1d 34 be
       0.056045614 -0.08623354 0.24545258 -0.17589407
0001a0 1f f4 e9 bd 6e ba 4b bd a5 65 bc bd 4f 53 95 3d
       -0.114235155 -0.04973834 -0.09199075 0.072912805
0001b0 33 de f9 3b b8 39 6e be fe 32 36 3d 1d 3e 1e 3e
       0.007625365 -0.23264205 0.044482224 0.15453382
0001c0 94 0d 11 3e 00 5d 70 ba dc aa 67 bd 01 ce 77 bd
       0.14165336 -0.00091691315 -0.05655943 -0.060499195
0001d0 6e 3a 1a 3e 52 48 10 bd a2 cf 3e be 89 51 6f bd
       0.15061352 -0.03522522 -0.18633893 -0.058427367
0001e0 39 f2 9c 3d 24 ce 22 3e 58 db c3 bd 37 11 cc bb
       0.07663388 0.15898949 -0.09563321 -0.006227638
0001f0 c0 79 ca 3d 10 af 16 be be ef cb bd 19 11 15 be
       0.09886503 -0.14715219 -0.099578366 -0.14557303

batch_norms.0.running_var f4 [128]
000000 72 4a 73 3b 98 08 b3 3b 13 a7 6e 3b 88 18 5e 3b
       0.003712323 0.005463671 0.0036415502 0.0033889133
000010 b1 fd 24 3b 66 34 3a 3b e7 86 00 3b 47 8a 2f 3b
       0.0025175626 0.002841258 0.0019611658 0.00267853
000020 9a bf 25 3c cd a5 dc 3b 3f ee fa 3b 17 a9 9c 3b
       0.010116482 0.006733632 0.0076577957 0.0047808993
000030 2a e0 a4 3b 3d b6 d2 3a 2f c1 6d 3b e4 4d 88 3b
       0.0050316053 0.001607604 0.0036278476 0.004159676
000040 9d ca b2 3a de 89 cf 3b 78 fa 18 3c 12 03 af 3b
       0.0013640706 0.0063335737 0.00933706 0.005340942
000050 f2 a8 74 3b 4e 8a f0 3b 1f 93 6a 3b 75 29 f6 3b
       0.0037332145 0.007340706 0.0035793257 0.0075122663
000060 25 0c 23 3c 18 c2 64 3b 2b e8 4e 3b 2b b6 07 3c
       0.009951626 0.0034905728 0.0031571488 0.008283178
000070 1a 7f 15 3b 82 f7 67 3b a4 3d 4d 3b d1 30 0c 3b
       0.0022811354 0.003539533 0.0031317258 0.0021391402
000080 f4 a6 59 3b e7 42 5c 3b 75 68 d5 3b f6 f6 8a 3b
       0.0033211084 0.0033609213 0.0065126964 0.004240866
000090 1a 92 de 3b 1e 59 8e 3b 04 21 bd 3b cc 9c 34 3b
       0.006792319 0.0043441197 0.005771758 0.0027559279
0000a0 1c 19 02 3c 2a 94 8e 3b 08 ea 30 3b 44 67 57 3b
       0.007940557 0.0043511586 0.0026994962 0.0032867948
0000b0 db db f9 3b fd d3 33 3b be 3a 80 3b ad 16 14 3b
       0.007625086 0.0027439587 0.0039132526 0.0022596524
0000c0 78 f4 1f 3c 9a 14 17 3b de 7d a1 3b 46 77 94 3b
       0.009762876 0.002305305 0.0049283346 0.00453082
0000d0 51 b7 80 3b 39 89 b3 3b 40 34 9e 3b 6d 13 16 3b
       0.003928103 0.0054790047 0.004828006 0.0022899762
0000e0 a7 cc 72 3b aa 6a 4a 3b 7e 4f 16 3c 13 c5 1b 3b
       0.0037048252 0.003088633 0.009174226 0.0023768588
0000f0 a5 ec a7 3b 7f 0a 56 3b 2f 2f 2a 3b d0 b0 21 3b
       0.005124646 0.0032660065 0.0025968065 0.002467204
000100 b5 bd 14 3c 34 02 90 3b a9 83 83 3b a5 94 77 3b
       0.009078433 0.004394794 0.004013498 0.0037777808
000110 07 f3 0b 3b e1 29 a7 3b 7f 85 e7 3b 02 f6 a2 3b
       0.0021354572 0.005101428 0.0070654745 0.004973174
000120 cd d2 7d 3b 9d 3d 83 3b 60 16 7e 3b ed d0 9e 3b
       0.0038730383 0.0040051476 0.003877066 0.0048466832
000130 e3 38 1a 3b 52 1e c4 3a df 89 1a 3c 9e 37 94 3b
       0.0023532442 0.001496265 0.009432285 0.0045232316
000140 ca c2 a3 3a 37 3a ba 3a 2b 76 06 3b 39 2c a8 3b
       0.0012493965 0.0014208023 0.002051721 0.005132225
000150 54 a1 4a 3b 00 1a d9 3a b6 c8 c0 3b 7c b7 6a 3b
       0.0030918913 0.0016563535 0.0058833016 0.0035814932
000160 d1 62 15 3c 27 d2 52 3b 17 05 0b 3c 51 86 a4 3b
       0.009117798 0.0032168718 0.0084851 0.0050208946
000170 58 fb 68 3a 86 ec 1f 3c 54 92 0c 3c fb b6 d0 3b
       0.0008887551 0.009760981 0.008579809 0.006369469
000180 54 c4 2b 3b f3 12 e4 3b f4 58 8f 3b 5f f2 0b 3c
       0.002620955 0.0069602667 0.0043746177 0.0085416725
000190 c7 fa 68 3b f5 7e 1e 3b 1a c3 22 3b f4 6c 37 3b
       0.0035549866 0.002418456 0.0024835528 0.0027988525
0001a0 9b ed 7c 3b 9b 22 d3 3b f9 5e 74 3b 52 c5 25 3b
       0.0038593772 0.0064433343 0.0037288053 0.0025294614
0001b0 89 97 e4 3b 78 7a 2f 3c 6e df bd 3b 95 5f 17 3c
       0.006976072 0.010710351 0.005794457 0.009239097
0001c0 c6 7d 2b 3a 9e f0 f7 3a fe d1 b4 3b f3 60 a3 3b
       0.0006541874 0.0018916314 0.005518197 0.0049859225
0001d0 30 1a 32 3b f4 c0 0e 3b a8 eb a5 3b e7 ee c2 3a
       0.0027176253 0.002178249 0.005063493 0.0014872224
0001e0 eb d0 e5 3b b8 d7 30 3c 86 c0 52 3b 55 fe ae 3b
       0.0070134304 0.010793619 0.003215821 0.0053403773
0001f0 a8 8a 93 3b af 12 89 3b d2 c8 06 3b 51 41 7a 3b
       0.004502613 0.0041831355 0.0020566476 0.0038185904

batch_norms.1.weight f4 [64]
000000 a6 98 3e 3f 81 3d 47 3f 3d 4b 44 3f 03 3b 42 3f
       0.74451673 0.7782822 0.76677305 0.75871295
000010 8a 50 44 3f 0f 9f 3f 3f 29 7f 48 3f 49 f0 4b 3f
       0.7668539 0.7485208 0.7831903 0.7966352
000020 2c f8 40 3f 2e 4a 40 3f f8 bc 41 3f 7b 1c 42 3f
       0.7537868 0.7511319 0.7567897 0.7582471
000030 02 38 42 3f 43 7b 3c 3f 1f 0f 49 3f 32 7c 40 3f
       0.7586671 0.7362558 0.785387 0.75189507
000040 ef ab 3f 3f 48 be 45 3f 96 f0 41 3f 6a 80 3f 3f
       0.74871725 0.7724347 0.7575773 0.7480532
000050 3f 9e 3c 3f 1f 78 44 3f 08 5e 46 3f 0e 57 46 3f
       0.73678964 0.7674579 0.7748723 0.77476585
000060 8f ea 3b 3f e3 37 40 3f cb 6e 3f 3f 6a 52 3e 3f
       0.73404783 0.75085276 0.7477843 0.74344504
000070 22 23 46 3f dd a8 49 3f eb 47 43 3f 28 da 41 3f
       0.7739736 0.7877329 0.76281613 0.75723505
000080 49 dc 3a 3f 72 ab 40 3f 73 a4 42 3f 10 30 4b 3f
       0.7299238 0.75261605 0.7603218 0.7937021
000090 77 c4 43 3f 65 89 43 3f c2 8d 40 3f 08 5c 40 3f
       0.76471657 0.7638152 0.75216305 0.7514043
0000a0 1d d2 3f 3f 6e 27 47 3f 1f 30 4b 3f 4e 76 46 3f
       0.7492998 0.7779454 0.793703 0.7752427
0000b0 27 1f 3c 3f 35 44 4c 3f b4 ad 42 3f 52 b0 46 3f
       0.73485035 0.79791576 0.760463 0.77612793
0000c0 1b ec 47 3f 1b 48 4f 3f 2b 4a 42 3f f6 b7 49 3f
       0.78094643 0.809694 0.7589442 0.7879633
0000d0 82 0a 3e 3f f0 07 43 3f 03 e9 3a 3f 68 a3 43 3f
       0.74234784 0.76183987 0.730118 0.76421213
0000e0 09 94 3a 3f bd 98 46 3f bc d9 3c 3f d6 fe 3e 3f
       0.72882134 0.7757681 0.73769736 0.746076
0000f0 29 32 3f 3f 3c f8 3f 3f 26 5c 3f 3f d2 b7 46 3f
       0.74685913 0.7498815 0.7474998 0.7762424

batch_norms.1.bias f4 [64]
000000 e2 c5 38 be d8 2d 37 3e 1e 20 2b be 4b 3e 43 be
       -0.18044236 0.17888582 -0.1671147 -0.19066732
000010 bf b9 36 be 32 44 46 be 1c 83 39 3e a5 32 33 be
       -0.17844294 -0.19361952 0.1811642 -0.17499788
000020 8b 0a 11 3e 9e 22 2d 3e de d0 2e be 43 6f 34 be
       0.14164178 0.16907737 -0.17071864 -0.17620568
000030 c2 56 37 3e 0a 80 39 3e 61 43 3c 3e d0 6d 34 3e
       0.17904189 0.1811525 0.18385078 0.17620015
000040 44 03 36 3e a8 92 35 3e 08 d4 35 be 66 82 39 3e
       0.17774683 0.17731726 -0.17756665 0.1811615
000050 ac 0f 2c 3e a1 cc 36 be 89 0f 38 3e 1e cd 2c 3e
       0.16802853 -0.17851497 0.17974676 0.16875121
000060 4d 58 3a 3e 6e f0 20 be d7 9a 36 be 2e 8a 30 3e
       0.18197747 -0.15716717 -0.17832504 0.17240211
000070 fe 13 37 be 21 ed 2a 3e 0d ab 38 3e 88 9d 38 3e
       -0.1787872 0.1669202 0.18034 0.18028843
000080 29 fe 3a be fd 83 2f be 9b 1f 37 be 97 f4 37 be
       -0.18261017 -0.17140193 -0.1788315 -0.17964397
000090 56 a3 35 3e c9 6c 39 3e 82 1e 2e 3e 96 72 3d be
       0.17738089 0.18107904 0.17003825 -0.18500742
0000a0 38 b7 3a 3e bd 74 3b 3e 12 38 2b 3e 21 b1 3b 3e
       0.18233955 0.18306251 0.16720608 0.18329288
0000b0 dd 12 47 be d1 22 34 3e 84 e2 38 be 08 90 31 be
       -0.1944079 0.17591406 -0.18055159 -0.173401
0000c0 dd c3 3c 3e 9e df 33 be d6 ab 40 be 45 20 37 be
       0.18434091 -0.17565772 -0.1881555 -0.17883404
0000d0 9f b3 34 3e bd 1b 3b 3e e5 e8 3e be 1a 0e 30 be
       0.17646645 0.182723 -0.1864353 -0.1719288
0000e0 d6 bb 35 3e 97 27 37 be 1a 19 36 be b0 96 32 be
       0.17747435 -0.17886196 -0.17783013 -0.17440295
0000f0 31 ac 38 be d8 b0 3c 3e d1 85 29 3e 9f 3d 36 be
       -0.18034436 0.18426836 0.16554953 -0.17796944

batch_norms.1.running_mean f4 [64]
000000 cd 52 65 3e 61 f7 40 3e 62 9a ee be ab e3 ba be
       0.22394867 0.18844368 -0.4660216 -0.36501822
000010 29 2c fb 3e 14 75 85 be 2e 1f 1d be 29 48 a6 3c
       0.4905713 -0.26065886 -0.15343925 0.02029808
000020 d4 5a 02 be 53 60 e5 3e 9a d7 aa 3e a2 6d 2f be
       -0.1272996 0.44800052 0.33367616 -0.17131665
000030 8e 96 84 bd 8f 41 0b 3e c8 e4 65 3e 0c 2d d3 be
       -0.064740285 0.13599227 0.22450554 -0.41245306
000040 83 12 ce 3c c9 e5 a0 3c d9 99 ea 3e c2 15 90 3e
       0.025155311 0.01964082 0.458205 0.281416
000050 d8 4c 22 bd 4b dc 77 3d 6b 29 81 3c 64 f9 8f be
       -0.039624065 0.060512822 0.01576682 -0.28119957
000060 6b 8d 80 3e e2 a1 35 be e9 d3 13 3f 2e b5 5d be
       0.25107893 -0.17737535 0.57745224 -0.21651146
000070 0d 54 dd bc 69 11 86 bd ee 57 09 bf af 12 9c 3d
       -0.027017618 -0.065462895 -0.53649795 0.07620751
000080 6b b6 93 be 46 cf a1 3e 94 f8 fc 3c d8 85 b0 bd
       -0.2885011 0.3160345 0.03088025 -0.08619279
000090 24 b2 5c bd 5c bb cc 3e 53 1e 90 be cc bf 56 be
       -0.053880826 0.39986694 -0.28148136 -0.20971602
0000a0 c5 7b d3 bd 63 82 b7 3e a9 15 81 bc dd 76 41 3d
       -0.103263415 0.35841665 -0.015757399 0.047232497
0000b0 ba 45 b3 be 89 b7 98 3e 7d d6 a3 be de 20 e1 3e
       -0.35014135 0.29827526 -0.3199958 0.43970388
0000c0 a2 fc d3 bc 7c 18 a3 bd 0f ed 14 be 69 63 20 3e
       -0.0258773 -0.079636544 -0.14543556 0.15662922
0000d0 ee 2a aa bd e1 7e 20 be 77 33 4d be f0 c5 28 bd
       -0.083089694 -0.156734 -0.20039164 -0.041204393
0000e0 0a 11 01 3e 25 23 e6 bd 13 d6 cb 3d 46 74 ef 3e
       0.12604156 -0.11237172 0.09952941 0.46768397
0000f0 c3 40 2a 3b 33 9d c9 bc 9b 40 99 be f4 41 13 3d
       0.0025978542 -0.024611091 -0.29932103 0.03595157

batch_norms.1.running_var f4 [64]
000000 29 73 18 3f d4 39 39 3f 64 22 d0 3e 9e ae e0 3e
       0.5955072 0.72353864 0.40651238 0.43883222
000010 56 36 1a 3f e6 1a 0d 3f 46 5d 15 3f ac 10 03 3f
       0.6023916 0.5511917 0.5834545 0.51197314
000020 e0 12 e1 3e b4 93 ef 3e 6d 62 16 3f bd e9 0a 3f
       0.43959713 0.46792376 0.58743936 0.54262906
000030 b9 d5 0b 3f a7 cb e8 3e 92 1d 02 3f 49 15 09 3f
       0.5462299 0.45467874 0.5082637 0.53548104
000040 74 4e f1 3e 57 7b f9 3e 0f ab 12 3f f6 85 03 3f
       0.47130167 0.48726913 0.57292265 0.51376283
000050 77 f9 0f 3f b8 ea 21 3f 40 1c 32 3f d6 2e 2c 3f
       0.5624003 0.6324878 0.69574356 0.67258966
000060 42 9f 1e 3f 2f fc 82 3e 6d 9c 03 3f b8 1d 15 3f
       0.6196176 0.25583026 0.5141056 0.5824847
000070 8f e5 fe 3e 6f 66 0f 3f e7 af 21 3f 92 49 1e 3f
       0.49784514 0.56015676 0.6315903 0.6183101
000080 41 27 db 3e e2 d2 cc 3e 9f 5a e3 3e f2 fb 28 3f
       0.42803386 0.4000464 0.44405076 0.6600944
000090 af 65 bd 3e af d6 e0 3e 45 d3 fe 3e fa 18 06 3f
       0.3699164 0.4391379 0.4977056 0.5238186
0000a0 d1 77 29 3f 2f d3 19 3f be 28 28 3f 56 34 35 3f
       0.6619845 0.60087866 0.6568717 0.70782983
0000b0 a6 aa 29 3f b5 e8 14 3f a6 a4 e7 3e e9 75 d3 3e
       0.66276014 0.5816758 0.45242804 0.41300896
0000c0 e5 21 05 3f 6b 39 fa 3e 14 5b e6 3e 2e 69 24 3f
       0.52004844 0.4887193 0.44991362 0.6422299
0000d0 8b 3f f4 3e 3f 7d d3 3e e5 56 15 3f 56 a4 e8 3e
       0.4770473 0.41306493 0.58335716 0.45437878
0000e0 9b f8 0c 3f f4 9c cf 3e ff 94 1d 3f 7c 71 34 3f
       0.5506684 0.40549433 0.61555475 0.70485663
0000f0 c1 c3 16 3f be 44 20 3f 42 8c f8 3e f6 fa e7 3e
       0.58892447 0.6260489 0.48544508 0.45308656

interaction_layers.0.bias f4 [128]
000000 29 b7 19 b6 d2 9b 0f 35 52 ab d7 b5 72 8c b3 35
       -2.290539e-06 5.34984e-07 -1.6068609e-06 1.3377414e-06
000010 c6 3c ff 34 21 3d c8 35 c6 fa 34 b6 e7 8b 9d b5
       4.754167e-07 1.4918952e-06 -2.696806e-06 -1.1738128e-06
000020 fe 01 23 b5 20 4b d4 b3 ed 7d 30 b5 e5 3b 8f b5
       -6.072513e-07 -9.8856844e-08 -6.5748355e-07 -1.0671762e-06
000030 81 cb a9 b3 78 a9 03 35 83 01 cf 35 d7 27 30 b4
       -7.906693e-08 4.904791e-07 1.5423142e-06 -1.6405771e-07
000040 f4 77 2a b3 63 93 56 b4 6a 36 1a b4 d8 00 c9 32
       -3.9690306e-08 -1.9983922e-07 -1.4362163e-07 2.3399863e-08
000050 d8 22 62 35 51 31 73 b6 6e 3d 30 b6 01 3c f5 31
       8.4242265e-07 -3.6238528e-06 -2.62618e-06 7.13726e-09
000060 99 f2 dc b4 99 db a0 b5 ab 87 ff 34 8d bb d0 33
       -4.1154706e-07 -1.198484e-06 4.7596163e-07 9.71987e-08
000070 55 d3 2a b6 e5 84 29 35 35 7f f4 35 d1 e9 1c b3
       -2.5454985e-06 6.3150793e-07 1.8216439e-06 -3.6534235e-08
000080 60 72 5e b6 ac cc e9 b4 14 84 49 35 ef 23 d3 34
       -3.3147153e-06 -4.354855e-07 7.5070534e-07 3.9327958e-07
000090 a2 90 b1 34 06 6e 7f b5 db f9 b1 35 f2 f2 b7 b5
       3.3074053e-07 -9.515501e-07 1.3260245e-06 -1.3705269e-06
0000a0 f8 c6 e0 33 3f a0 0a 35 89 67 56 35 01 b2 96 35
       1.0467005e-07 5.1642195e-07 7.9871876e-07 1.1227677e-06
0000b0 31 8f af b4 30 e4 68 35 56 f4 fb b4 34 04 c0 b6
       -3.2700476e-07 8.675879e-07 -4.693017e-07 -5.722535e-06
0000c0 9d 88 ab 35 87 71 81 36 44 f8 54 b5 8e 62 77 35
       1.2780253e-06 3.857716e-06 -7.933743e-07 9.2158086e-07
0000d0 c4 f3 9f b4 df 27 08 35 2a 67 7d 35 80 0c 33 37
       -2.979342e-07 5.072197e-07 9.439997e-07 1.0672142e-05
0000e0 ed bc 54 35 43 9b 3c 35 de 82 a1 b4 d3 b4 9e 34
       7.925108e-07 7.0261393e-07 -3.0083805e-07 2.956136e-07
0000f0 94 9a 2b 35 bf e4 e5 b3 24 00 1d b5 5a dd ed 35
       6.3927405e-07 -1.0705252e-07 -5.848726e-07 1.7722298e-06
000100 59 93 ae b5 2a bd 43 b5 b3 42 5a b5 e9 98 be 35
       -1.3006894e-06 -7.291843e-07 -8.130839e-07 1.4200606e-06
000110 a6 43 8e b5 ef d5 d5 b4 01 c8 97 b5 23 fb 4f 35
       -1.0599513e-06 -3.983e-07 -1.1308585e-06 7.747896e-07
000120 eb 52 ce 35 14 83 46 b5 e8 8c 04 34 75 6b 62 b5
       1.5372328e-06 -7.395149e-07 1.234472e-07 -8.434793e-07
000130 80 c1 7f b6 23 ea 71 36 fe 59 58 b4 43 2d ae 34
       -3.8110593e-06 3.6048084e-06 -2.0149307e-07 3.2442958e-07
000140 61 14 26 36 ca 25 4e b5 b7 6f ec b5 d7 5c 84 35
       2.474779e-06 -7.679597e-07 -1.7615884e-06 9.861786e-07
000150 12 c6 3f b4 39 39 82 36 88 55 ec b3 f0 b0 2e 35
       -1.7860319e-07 3.8809635e-06 -1.10051644e-07 6.507753e-07
000160 32 9a 14 b5 61 50 e3 35 a4 d5 0e b5 1f c6 56 34
       -5.535868e-07 1.6936211e-06 -5.321001e-07 2.0002379e-07
000170 f1 50 a3 34 4e 75 45 b4 ea 02 df 34 7c 20 3a 35
       3.0420009e-07 -1.838973e-07 4.1539107e-07 6.933767e-07
000180 22 2c 69 36 f5 e2 83 b5 4c b1 ae 35 6c ab 3c b5
       3.4745394e-06 -9.826314e-07 1.301561e-06 -7.028491e-07
000190 22 09 04 b4 0c 72 82 35 a7 95 28 b6 16 53 4a b6
       -1.229678e-07 9.718947e-07 -2.512106e-06 -3.0148708e-06
0001a0 dd 9e bc 36 b7 5e 96 33 90 f4 93 b4 be cc 76 b5
       5.6213307e-06 7.002148e-08 -2.7558826e-07 -9.194008e-07
0001b0 3f dd ad b5 5b 75 d9 34 7e 50 19 33 ca 99 f6 34
       -1.2953896e-06 4.0504787e-07 3.5696296e-08 4.5932967e-07
0001c0 81 84 80 b6 44 29 0d 36 6c ed 95 35 0a a7 a1 b5
       -3.8301228e-06 2.1034657e-06 1.1170464e-06 -1.204405e-06
0001d0 a9 86 cd b4 09 37 9e b5 ad ea 15 b6 b2 bf 05 36
       -3.8282204e-07 -1.1787935e-06 -2.233933e-06 1.9930126e-06
0001e0 d7 55 c1 b5 e9 c9 2d b4 a6 0d 5f b5 89 9e 49 b4
       -1.4404603e-06 -1.6185335e-07 -8.3093835e-07 -1.8777259e-07
0001f0 0d 0f e6 b5 dc bd fb b6 a3 cf 1e b6 88 ff 38 36
       -1.7140716e-06 -7.5024855e-06 -2.3664695e-06 2.7566875e-06

interaction_layers.0.lin.weight f4 [128, 15]
000000 87 58 da bc b4 3a 34 bd 04 33 17 3d 66 03 84 3d
       -0.026653541 -0.044001296 0.036913887 0.06445961
000010 26 34 77 3d cd 97 5d 3c b3 ae a4 3d 9a b3 ba bd
       0.060352467 0.013524962 0.08041134 -0.091162875
000020 f9 bf 83 bd 99 5f d1 3d 66 5f 1d bc 78 3d 3b bd
       -0.064331 0.10223312 -0.009605264 -0.045712918
000030 28 65 15 bd 4e 65 c4 bd b7 7a f5 bc d7 1f db 3a
       -0.036473423 -0.09589635 -0.029965742 0.0016717863
000040 93 f8 a7 bd 47 ca 94 bc 65 9a 40 bb 8f 3e da 3c
       -0.08201709 -0.01816286 -0.0029388901 0.026641158
000050 0f 9b 36 bd ee 92 04 3e 79 99 41 3d 98 3a e9 bc
       -0.04458147 0.12946674 0.047265504 -0.028470322
000060 83 e8 69 bd d2 34 a6 bd 02 6f 44 3d 3f 88 07 3d
       -0.057106506 -0.081155434 0.047957428 0.03308892
000070 a5 c1 c9 bd 5f c5 cc 3c e3 f9 88 bd 25 b1 33 3a
       -0.09851388 0.024996458 -0.06688287 0.00068547047
000080 6e 20 ba 3d b8 3a 18 be d4 14 a0 bd ad 39 aa bb
       0.09088217 -0.1486615 -0.07816473 -0.005194864
000090 4b 5b 12 3c 39 35 5b bd ba 66 86 bb 9b 28 86 bd
       0.008932899 -0.053517554 -0.0041016014 -0.06550714
0000a0 7b cc 8f 3b 60 ef 6b 3c eb ef eb 3c 83 b0 3f bd
       0.0043883896 0.014400333 0.028800925 -0.046799194
0000b0 ab 0c ac bd d5 fd b6 bd 3a a2 b6 bd 82 eb 2d bd
       -0.08400854 -0.08935133 -0.08917661 -0.042460926
0000c0 ed 3b 1c 3d e2 98 b6 3d 43 2f 80 3c d6 4d b4 bb
       0.038143087 0.08915879 0.015647536 -0.005502443
0000d0 a8 09 9f 3d 84 bb 82 3a 2f f3 d1 3c 95 0a d9 3d
       0.07765514 0.0009974097 0.025628654 0.105977215
0000e0 85 30 cd 3d d7 25 6c 3d 97 6b 21 3d 7a 2f be bb
       0.1001902 0.057653274 0.039409246 -0.0058039995
0000f0 aa 04 42 3d 5b 6c 85 3d 99 ba 5f 3d 59 23 7a bd
       0.04736773 0.06514808 0.054621313 -0.061068866
000100 21 f9 c9 bd dd 5b e3 3b d7 2f 94 bd b6 c3 08 bd
       -0.09861971 0.006938441 -0.07235687 -0.03338977
000110 91 a1 a9 3d 55 9e a1 bc f7 d8 05 3e a6 dc 14 3d
       0.082827695 -0.019728819 0.13071047 0.03634324
000120 ac c9 e7 3d 49 af e2 ba e7 57 2b bd 87 86 a1 3c
       0.11317763 -0.0017294671 -0.041831877 0.019717468
000130 9b 02 ca 3c 49 44 d1 3d 0b b6 b2 3c 63 de 27 3d
       0.024659446 0.102181025 0.02181532 0.04098357
000140 b1 93 09 bc 6c 81 e5 bd 54 87 60 3d 0a 5c ca 3d
       -0.008397029 -0.11206326 0.05481656 0.09880836
000150 37 d9 7b 3c 1b b7 ad bd 8b a6 ee bb 5a 7f af 3c
       0.015371612 -0.0848219 -0.007283037 0.02142303
000160 5f db 38 3d f9 99 f5 3c eb 45 3a 3d 3a 54 5f 3d
       0.045131084 0.029980646 0.045476835 0.054523684
000170 5c a4 e2 3d 88 e2 4b bd 18 ca b7 bd 34 a7 2d 3c
       0.11066505 -0.049776584 -0.08974093 0.010598946
000180 d1 84 74 bc f3 55 a5 bd 2d 5d 35 bd 58 ff b2 3d
       -0.014924244 -0.08073034 -0.044278312 0.08740109
000190 e4 7b 83 3d bc a9 63 3a 9c 75 3c bd e2 e5 6b bc
       0.06420115 0.0008684655 -0.0460106 -0.01439807
0001a0 bb 1e 31 bd 7d ca 10 3d 47 32 8a bd 01 c0 8b 3d
       -0.043242197 0.035349358 -0.06747871 0.06823731
0001b0 34 8b 9f 3c 26 cf f7 3c 96 9a 0d 3d fc 10 87 bd
       0.019475557 0.030250143 0.034571253 -0.065950364
0001c0 4b a5 90 3d 61 3a 24 3d b3 45 66 bc 17 85 a4 3d
       0.07062777 0.040094737 -0.0140547035 0.080331974
0001d0 77 62 93 3d 9d 09 d8 3c 71 7e 24 bd f3 01 a8 bc
       0.07196515 0.026371771 -0.040159646 -0.020508742
0001e0 28 cb 96 3d 1f ca 80 bc f8 42 c4 bd 89 ac 0e bd
       0.07362968 -0.015721379 -0.09583086 -0.03483251
0001f0 eb bc bf 3d 30 63 f2 3c 83 e4 7d 3c 03 d2 fb bd
       0.09362205 0.029588312 0.015496376 -0.12295916
000200 a0 13 67 bc 42 e7 c0 3d 9d f1 23 bc 25 50 8f 3d
       -0.0141038 0.09419109 -0.010006336 0.06997708
000210 d9 94 c3 3b 9e 95 88 3d 95 58 53 3c e4 bb 8d 3d
       0.0059686718 0.06669162 0.012899538 0.06920603
000220 1e 99 4f bc 8e 83 4d bd 8c a1 63 bd bf 5b cd 3c
       -0.012670783 -0.05017429 -0.055573985 0.025068162
000230 14 ba 42 3d 77 95 c6 3a 82 a1 b4 bd e0 7b 05 bd
       0.04754074 0.0015150745 -0.08819868 -0.03258884
000240 ba 7a 03 3e 63 df 0b 3d d6 e1 ac 3d 73 69 01 bd
       0.12839785 0.034148585 0.08441512 -0.031594705
000250 48 4f 68 bc 98 ba 99 3a 34 10 6b 3d c4 dd b9 3d
       -0.014179058 0.0011728583 0.0573885 0.090755016
000260 b9 04 98 bd 50 ba 9d bd d3 53 07 bc 31 d3 46 3b
       -0.07422776 -0.07701552 -0.008259731 0.0030338282
000270 46 bf 34 3d dd 86 02 be bd 75 32 bd 40 f2 3c bc
       0.044127725 -0.12746759 -0.043569315 -0.011532366
000280 a9 6e d5 bd ae e7 e9 3c cd 87 78 3d 8e 2b dc bd
       -0.104214974 0.028552856 0.060676385 -0.10750495
000290 ae 44 02 3d 96 02 1d bc a3 30 cc 3d 7a 98 bb 3d
       0.03180378 -0.009583136 0.09970214 0.09159942
0002a0 68 97 18 bd 48 27 68 bd 51 b2 ae bb 33 bd e8 3c
       -0.037253767 -0.056678087 -0.0053313156 0.02841053
0002b0 aa e8 03 bb d1 0a 4c bd 8c 5c 30 3e 86 51 e3 3d
       -0.0020127692 -0.049815003 0.17222804 0.11099534
0002c0 17 93 7d bd 39 a6 2c bd fe c8 4e bd ac bf 14 3e
       -0.061907854 -0.04215071 -0.05048465 0.14526242
0002d0 28 98 e2 bb e9 d6 fc b9 5b 7e 2b bd 38 db 18 3d
       -0.006915111 -0.00048225306 -0.04186855 0.03731844
0002e0 4b fa 14 3c 7f 37 dc bc c4 6d bb 3d 76 dd b3 bd
       0.009092878 -0.026881931 0.091517955 -0.08782475
0002f0 e6 69 05 bd a3 79 48 bd bb ce 93 bd 2f fc a8 3d
       -0.032571696 -0.048944127 -0.07217165 0.08251225
000300 66 39 d3 3a dd a8 7b bd 5c cf 28 bd 96 f9 30 3c
       0.0016115129 -0.061440337 -0.04121338 0.010801693
000310 89 b0 2b 3c c8 5d 98 3d 11 19 d6 3c 99 05 71 bd
       0.010479101 0.07439762 0.026135 -0.05884323
000320 04 43 6c bd eb 9d a2 bb b1 2e 33 be 93 13 5f bc
       -0.0576811 -0.004962673 -0.1749828 -0.013615507
000330 54 7c ac 3c a0 f6 eb bb 8f 88 2b bd f3 91 fa 3d
       0.021055378 -0.007201031 -0.04187828 0.12234869
000340 d7 e7 99 3d f1 15 06 bc fe a4 5c bd f1 21 c2 3d
       0.07514923 -0.008183942 -0.053868286 0.0947913
000350 5a 1b 17 3e 02 8a 8d 3c a2 4d c6 bc 1e 5d 09 bd
       0.14756528 0.017277721 -0.02420694 -0.03353607
000360 c2 50 aa 3d 6c bc 4b bb db 69 36 3b 2c f9 91 bd
       0.083161846 -0.003108765 0.002783409 -0.07127604
000370 72 e0 f8 bd 71 0a 11 bd 45 29 a5 3d 1a e7 c1 3d
       -0.121521845 -0.03541035 0.08064512 0.09467907
000380 0b ea 10 be ec 9f 90 3d 5b 02 04 be 9a 43 c2 bd
       -0.1415178 0.07061753 -0.12891524 -0.0948555
000390 d8 0e 31 bd bd 13 60 3d 34 c3 6c 3b ea ad b1 bd
       -0.043227047 0.054706324 0.0036127092 -0.086757496
0003a0 38 34 66 3d 1c 36 aa bc 0a 0b 50 3a fd a1 be bd
       0.056202143 -0.020777754 0.0007936215 -0.093082406
0003b0 f2 2f de bb e6 a5 63 3c 63 8a 13 3e 40 87 10 3c
       -0.006780618 0.013894534 0.14408259 0.008821309
0003c0 a1 00 7b 3d 5a 4c 50 bd fa 4a 3e 3d d8 e4 f5 bd
       0.061279897 -0.050854065 0.046458222 -0.12006539
0003d0 51 e4 28 bd eb e7 4e 3d 5c 7c 96 bc 89 bb 2a 3d
       -0.041233364 0.050514143 -0.018369846 0.041682754
0003e0 0c bb 61 3d f2 f5 08 be af d8 15 3b 04 29 2b 3d
       0.055110022 -0.1337507 0.002286475 0.041787162
0003f0 4e 76 3f 3d 0f c5 bb bd 1e 55 72 3d 1e e8 8f bc
       0.046743684 -0.09168445 0.059163205 -0.017566737

interaction_layers.1.bias f4 [64]
000000 38 41 8b b5 c5 a1 ba b4 a2 cc f6 b4 94 97 ed 34
       -1.0375288e-06 -3.4762903e-07 -4.596996e-07 4.4254978e-07
000010 7a c7 3b b4 4c 70 5f b4 3e dc 2b 34 58 6e 97 b4
       -1.7488301e-07 -2.0809347e-07 1.600574e-07 -2.8206227e-07
000020 2f 39 b0 33 53 dc 8e b3 63 f3 fe 34 d6 61 81 b5
       8.20604e-08 -6.652467e-08 4.7488274e-07 -9.639723e-07
000030 3f c0 b1 33 cd d8 91 b3 f4 a9 0b b4 f3 f0 44 35
       8.277174e-08 -6.7915245e-08 -1.3007212e-07 7.3366317e-07
000040 ac d9 99 33 18 4a cb 34 92 ba 03 35 d7 9c b8 35
       7.164212e-08 3.7865607e-07 4.90728e-07 1.3754715e-06
000050 f9 c9 eb b4 e5 fa 85 b4 bf 79 48 b5 43 ef ba b4
       -4.3919115e-07 -2.495573e-07 -7.468297e-07 -3.4819286e-07
000060 48 13 81 34 d9 c1 26 35 74 46 32 35 cd 30 30 35
       2.404215e-07 6.2121904e-07 6.641269e-07 6.5636124e-07
000070 cc 94 22 b5 1f 9c 06 b3 af 29 a7 35 35 05 b0 b4
       -6.056623e-07 -3.1341298e-08 1.2454601e-06 -3.2786343e-07
000080 4e 68 1c b5 a2 8b b0 b3 56 5b 1c b5 0c fe dc b4
       -5.826631e-07 -8.221038e-08 -5.824744e-07 -4.1163037e-07
000090 b6 03 55 b5 e8 e0 0e b5 53 ce 42 35 fc 06 d9 b4
       -7.9354083e-07 -5.3226404e-07 7.2570873e-07 -4.0424482e-07
0000a0 dc 4f 8d 33 00 0e 7b b4 ee bc 13 34 ec fb 39 b5
       6.5803505e-08 -2.338129e-07 1.3759174e-07 -6.9284465e-07
0000b0 d0 1f 8c b5 81 d8 86 34 de 29 e6 b2 35 0a b1 b3
       -1.0440071e-06 2.5116972e-07 -2.6794563e-08 -8.2440614e-08
0000c0 f4 c1 92 35 b4 0b 56 34 a3 ee 85 32 13 aa 86 33
       1.0934295e-06 1.993456e-07 1.5591757e-08 6.2707976e-08
0000d0 89 38 32 b5 69 02 d0 34 91 3c 8e 34 88 35 59 34
       -6.6392437e-07 3.8744773e-07 2.649363e-07 2.0229174e-07
0000e0 f3 e2 1f 35 1a 7d 38 b5 24 5f 21 35 c0 60 30 35
       5.956237e-07 -6.872739e-07 6.011562e-07 6.57059e-07
0000f0 00 3d ca b4 e7 4e c4 b4 d2 1a 5e 35 83 d3 53 b5
       -3.7669815e-07 -3.6565254e-07 8.2740473e-07 -7.8911415e-07

interaction_layers.1.lin.weight f4 [64, 128]
000000 5b 65 fb 3d a3 dc d8 3c b7 9f 0b bd 42 e2 c2 3d
       0.122751914 0.026472395 -0.034087863 0.095158115
000010 73 8f 5f bd eb 44 8f 3c e7 a6 2d bd db fa 92 3d
       -0.054580163 0.017488917 -0.0423955 0.07176753
000020 8c c2 a0 bd 6f 28 18 3d 67 bf 85 3d f6 e8 96 3d
       -0.07849607 0.037147935 0.06530648 0.073686525
000030 6d 4b ba 3d 84 85 41 ba 07 78 a0 bd 5e 7a 71 3c
       0.090964176 -0.0007382261 -0.078353934 0.014738647
000040 33 ce a8 bd db 50 a6 3c 5c 3f 8b 3c 08 f6 c4 bc
       -0.082424544 0.020302227 0.016997986 -0.024043098
000050 8e 17 9f bc c1 6a e9 bd a5 0b 1d 3e 5c fb 07 3e
       -0.019420411 -0.11397315 0.15336473 0.1327948
000060 a7 ef 2c 3d 15 94 1f 3d 53 d6 cb 3d 9d b1 14 3d
       0.042220738 0.03895958 0.099529885 0.036302198
000070 c5 a4 3e 3d 70 0e 9b 3c ce 72 e3 bd 8e 7c 61 3d
       0.046543855 0.018927783 -0.11105882 0.055050425
000080 34 bb 98 3c 9c f7 88 bd a1 3b 2c bd f8 e3 95 3d
       0.018643953 -0.06687853 -0.042049054 0.07318872
000090 f1 23 1d ba 49 7d 64 bd bb 4e 41 3d d7 26 32 bc
       -0.00059944304 -0.055783544 0.047194224 -0.010873518
0000a0 c2 64 f4 3d 87 72 29 bd 3a ef 9d 3d c1 3a 2c 3d
       0.119332805 -0.041368987 0.077116445 0.04204822
0000b0 cd dd a5 bb 86 c4 36 3e 99 cf 6b bd 68 03 57 bd
       -0.005061841 0.17848405 -0.057571027 -0.052493483
0000c0 94 5e a6 bc 1f e9 b1 bd da ee d5 3c a1 54 34 3d
       -0.02030877 -0.086870424 0.02611487 0.04402602
0000d0 73 1c ac 3d 41 cf 07 bd bb d5 b9 3c e9 af b1 bd
       0.08403864 -0.033156637 0.022684922 -0.0867613
0000e0 84 19 99 3c 2a 52 a5 bb dd d4 ac bd e5 12 5f 3d
       0.018688925 -0.005045195 -0.08439038 0.05446138
0000f0 30 b4 d7 bb ca 5c 49 3d 9d 36 cb 3c 23 17 ea 3d
       -0.0065827593 0.049160756 0.024806315 0.11430194
000100 d3 83 d4 bc 4e 75 a7 3c 7b d8 bd bc 14 01 c0 bc
       -0.025941765 0.020441677 -0.023174515 -0.023438014
000110 72 a3 3d bd 91 6c af 3c 8a 56 44 3d f9 78 8e 3d
       -0.04629845 0.021414073 0.047934093 0.069566675
000120 37 8e 11 bd 47 55 93 3c f9 ce 3c bd b0 1f 0b 3e
       -0.035536017 0.017985 -0.046095822 0.13586307
000130 9f d9 5d bc 57 45 0a be f2 28 1d bd d8 a3 19 3d
       -0.013540654 -0.13503014 -0.038369127 0.03750977
000140 09 ab 83 bd 2a cd 8a 3c b6 c8 1b b7 fb 5b 14 3d
       -0.06429107 0.016943533 -9.285452e-06 0.036220532
000150 f0 4c 50 3d 16 2d ef bb 98 d9 dc 3c 14 09 40 3d
       0.050854623 -0.007299076 0.026959226 0.046883658
000160 c6 08 59 bc 8f eb 0e be 86 86 2b 3d 7a 19 12 3c
       -0.013246721 -0.13957046 0.04187634 0.008917207
000170 7d 0d 4b 3d f3 6a 10 3d f8 1a 83 3d 5c 07 34 3c
       0.04957341 0.035258245 0.06401628 0.010988083
000180 ed 7e 78 bc 2b 7e 60 3d c8 bc 74 bd e8 b9 a6 bc
       -0.01516698 0.054807823 -0.05975035 -0.020352319
000190 d1 33 8f bd 55 0b f1 bd e7 27 c6 bd 12 c3 73 3b
       -0.06992305 -0.117697395 -0.096755795 0.0037195128
0001a0 19 94 95 bd e5 b5 02 3c c5 61 2a bc b8 e8 9b 3c
       -0.07303638 0.007977937 -0.010399287 0.019031867
0001b0 27 82 90 bd f2 a6 15 bd d2 84 51 3d e7 48 7b 3d
       -0.070560746 -0.036536165 0.051152058 0.061348822
0001c0 df 3d 45 bd 1b fa cd 3c 18 fd 32 bc 08 4e 97 3d
       -0.048154708 0.025143674 -0.0109246 0.0738793
0001d0 8c 47 41 bc 3e bf c3 bc f7 74 25 bd 30 58 c1 bd
       -0.011796843 -0.023894902 -0.04039475 -0.094406486
0001e0 ee 51 04 3b ad 46 60 3c 93 9e 76 3d 06 8f 72 bd
       0.0020190435 0.013688725 0.060209822 -0.05921843
0001f0 5b a8 32 bc a4 1e 03 bd 85 f8 e0 3d 69 2a 82 bd
       -0.010904397 -0.032011643 0.10984901 -0.06355745
000200 cb 41 2a 3b ec cb 1c bd 51 cb b6 3c 43 ec 4a ba
       0.0025979157 -0.038280413 0.022313746 -0.0007740894
000210 16 b5 38 3d 3e 63 a8 3a 40 d7 02 3e 13 3d 2c bd
       0.045094572 0.0012846959 0.12777424 -0.042050432
000220 f6 20 65 3c c4 f5 82 bd fb 26 96 bc 01 dc 73 3d
       0.013984909 -0.06394532 -0.018329134 0.059535984
000230 22 3d a4 bb 2c c9 c7 bc 7d 69 a3 3d 52 c0 80 3c
       -0.0050121704 -0.024387918 0.07979105 0.015716705
000240 ef c0 e6 bb 01 b2 4b bc 55 20 81 bd b6 27 ea 3c
       -0.0070420424 -0.012432576 -0.06304995 0.028583389
000250 fe 32 9a 3d 35 e6 72 bd f9 c2 d3 bd 06 4e 73 bd
       0.07529257 -0.059301574 -0.103399225 -0.05940058
000260 13 38 01 bd 43 67 01 3d 7e 7a 1f bd 6a 55 84 bd
       -0.031547617 0.03159262 -0.038935177 -0.06461604
000270 38 90 8d bc 6a 19 07 be 34 1b 7f 3d 0f b2 b6 bb
       -0.017280683 -0.13193288 0.062281802 -0.0055754255
000280 e9 28 3e bd 5d f7 cc 3b 9e a9 b6 bd 8f d3 99 bb
       -0.046425734 0.006255074 -0.08919071 -0.004694409
000290 32 29 5f 3d 03 53 cd bc b1 ce 83 3d a7 2c 35 bd
       0.054482646 -0.025063997 0.06435908 -0.044232037
0002a0 34 49 fc 3c 6c c6 5d 3c 7b 13 8c bd 10 e0 e0 3c
       0.030796625 0.013536077 -0.06839653 0.027450591
0002b0 3c 10 c5 3d 2f 86 23 bc b9 85 c4 bc a5 ec 73 3c
       0.09622237 -0.009980722 -0.023989545 0.014887963
0002c0 1e 85 b5 3c 28 7c 0a 3d 05 96 47 bc ed 2f c6 bc
       0.022158202 0.03380981 -0.012181764 -0.024192775
0002d0 d5 5d 75 bd 95 57 f1 3c 8c a7 d2 3d a9 dc 86 bd
       -0.05990394 0.029460708 0.10285863 -0.06585056
0002e0 b5 ba ca bc f6 7f c1 3d 02 38 e5 3c 45 39 51 3d
       -0.024747232 0.09448235 0.027980808 0.051080007
0002f0 f8 13 d4 3b c1 99 25 bc e9 00 d9 3d 99 31 92 3d
       0.006472107 -0.010107459 0.10595877 0.07138366
000300 05 60 b9 bd 4a c7 08 bd 9d 26 a4 bc 41 fd 24 bd
       -0.090515174 -0.03339318 -0.020037943 -0.040280584
000310 ed a7 62 3d 7a 3e 95 3c 78 81 2e 3d 37 b8 d6 3c
       0.055335928 0.018218268 0.04260394 0.026210887
000320 66 69 a0 3c 0c e3 20 bc ba db 22 3e 55 56 dd bd
       0.019581508 -0.009819757 0.15904132 -0.10807482
000330 d7 32 13 3d fd 29 aa 3d 2d 39 84 bd 34 38 8b 3c
       0.035937157 0.0830879 -0.06456218 0.016994573
000340 ee c2 58 3d c2 65 df 3d aa 65 ce 3c b4 34 d9 bd
       0.052920274 0.10908081 0.025194962 -0.106057554
000350 4b 59 c9 bd 01 6a 25 3c 78 27 68 bd e5 54 46 bc
       -0.098314844 0.010096074 -0.056678265 -0.012105201
000360 f1 3f d9 bc 73 db 97 3d d1 f9 0f bd 26 f6 d0 bb
       -0.026519747 0.074149035 -0.035150353 -0.0063769994
000370 7f 0f bc 3d b4 68 a6 bc eb f5 b1 3c e8 6f fc 3c
       0.09182643 -0.020313598 0.021723708 0.03081508
000380 75 45 8e bd ec 84 c3 bc 03 33 11 bd 32 60 84 3d
       -0.069468416 -0.023867093 -0.03544904 0.0646366
000390 c6 40 f0 3c 55 a2 0a 3d 3e 59 a8 bc 11 04 06 bc
       0.029327761 0.03384622 -0.020550366 -0.00817968
0003a0 0f 65 72 bc c0 83 16 3d 30 54 64 3d 3f 9d 64 bd
       -0.014794602 0.03674674 0.05574435 -0.055814024
0003b0 c0 45 15 bc b4 5e 88 bd 0b 76 11 3d aa 1f be bc
       -0.009110868 -0.06658688 0.035512965 -0.023208458
0003c0 42 29 93 3d 01 3f 55 3d d0 fb 09 3d d9 94 de 3c
       0.07185604 0.05206204 0.033687413 0.027170585
0003d0 7c 67 44 3d 7f 5d 7e 3d f4 74 21 3e 1b 7a 1a 3d
       0.047950253 0.062100884 0.1576727 0.037714105
0003e0 37 15 e1 bc 02 30 1e bd d3 60 66 3b 59 80 0a 3e
       -0.027475936 -0.038620003 0.0035152927 0.13525523
0003f0 5d da ab bd a3 bf 3f 3c 60 51 aa 3d 43 13 22 bd
       -0.08391259 0.011703405 0.08316302 -0.03956915

out.weight f4 [200, 64]
000000 5d db 16 bb 64 84 dd 3c fc 49 cd ba 7f 87 99 bc
       -0.0023018934 0.027040668 -0.0015662308 -0.018741367
000010 7e 81 1f bb 3a 08 0b 3b 7b 7f f5 b9 8c f7 19 3a
       -0.0024338658 0.002121462 -0.00046825022 0.0005873374
000020 69 6d 94 3b d1 b9 1c 3a c0 1e 97 b9 e6 84 85 b7
       0.0045296443 0.00059786165 -0.00028823875 -1.5916721e-05
000030 be 66 69 3b 8a 4a f5 39 21 f5 d5 bb 24 81 35 bb
       0.0035614218 0.00046785577 -0.006529466 -0.0027695382
000040 c9 46 a6 3b ab 5c e4 3b cc 37 4c 3a 4f 44 67 3b
       0.005074356 0.0069690547 0.0007790297 0.0035288518
000050 38 0a 0d 3b 7a e4 39 bb 29 55 1b 3b 11 04 05 3c
       0.0021520983 -0.0028364942 0.0023701882 0.008118645
000060 b0 55 14 3b 8f f0 4c bb 83 d6 9d bb 46 6a 7d 3b
       0.0022634082 -0.0031271314 -0.0048168316 0.003866808
000070 a5 0f 5f 3d 11 5e 5d 3b 7f 80 33 3b ad 78 74 3a
       0.05445828 0.0033777992 0.0027389822 0.00093258434
000080 e5 f0 36 bb 90 85 49 38 40 1b 7b bc 62 66 9a ba
       -0.002791458 4.8046524e-05 -0.015326321 -0.001177978
000090 9d c3 a9 bb 69 84 3a 3b 67 3c 43 3b 39 19 80 bb
       -0.0051807896 0.002846027 0.0029790641 -0.003909257
0000a0 45 6d 0f 3b 71 6d 37 3c 5d a8 a5 3b fb 76 2e ba
       0.0021885198 0.011195526 0.005055471 -0.0006655303
0000b0 9b f9 c1 ba d2 d8 f1 3a 45 32 fe ba 1e 06 d1 3b
       -0.001479912 0.0018451458 -0.0019393644 0.006378903
0000c0 c5 ee b2 bc 4c 54 cd 3b ba 90 59 3b 10 bc 65 bb
       -0.02184237 0.0062661525 0.0033197836 -0.003505472
0000d0 fc 76 39 3c d7 16 96 bb 3a b3 cb bb a4 bb 29 ba
       0.011319872 -0.0045803594 -0.006216434 -0.0006474799
0000e0 69 d3 4a ba 2d c0 7e 3a 40 24 e9 3b 3d a2 86 bb
       -0.0007737191 0.00097179675 0.007114917 -0.004108696
0000f0 88 14 49 bb 7d 61 24 3b 3e e9 1c 3c 6a 89 eb bb
       -0.0030682404 0.0025082522 0.009577094 -0.007188012
000100 75 31 f4 ba 86 2f 07 3a 9b f5 3a 3b f5 c7 c3 3b
       -0.0018630462 0.0005156923 0.002852774 0.0059747645
000110 c3 64 91 bb 7d a2 63 bb 80 e5 e0 38 9b 1e 97 bb
       -0.0044370606 -0.0034734302 0.000107239 -0.0046118028
000120 8c 29 2b bb a4 bb b0 3a 8e f4 84 ba 26 80 00 3c
       -0.0026117293 0.0013483656 -0.0010143684 0.007843053
000130 94 a4 e2 3a 2a b7 05 3b 3a b0 7d 3a 30 a9 4d 3b
       0.001729148 0.0020403364 0.0009677444 0.0031381361
000140 6a ee f2 3a 64 e2 52 3a 2f 8d 08 bc 6f d4 62 3c
       0.0018534188 0.0008044599 -0.008334442 0.013844593
000150 e0 9f 65 3a ce 8e 38 ba 71 3f 80 3a 6f a9 c6 3b
       0.000875948 -0.00070403225 0.0009784532 0.0060626785
000160 00 08 c7 3a 06 9a f8 39 46 05 0e bb 74 97 9b 3a
       0.0015184879 0.00047417002 -0.0021670624 0.0011870698
000170 b9 5c 6f ba a0 8b 8f b8 ce 7a b2 3a 20 ae ca 38
       -0.0009130943 -6.8447785e-05 0.0013616921 9.664544e-05
000180 c2 28 1c bb 6f 1e 5e bb 54 53 34 ba 54 4d ce 3c
       -0.0023828004 -0.0033892652 -0.0006878872 0.025183357
000190 d6 af 17 3b 7c e7 8c 3c 7e fb c7 3a 07 02 fc b9
       0.0023145578 0.017200224 0.0015257446 -0.00048066696
0001a0 56 bb 74 3a 5c af 18 3b ae 8b ce 3a db a8 6d ba
       0.00093357766 0.0023297882 0.001575818 -0.0009065994
0001b0 18 01 07 3c 60 3f e8 bb 18 cc a4 ba 06 c3 20 bb
       0.008240007 -0.007087633 -0.0012573032 -0.0024530306
0001c0 05 63 2d 38 7b aa a7 bb 14 c9 84 ba 30 cc 54 3c
       4.1338633e-05 -0.0051167584 -0.0010130727 0.012988135
0001d0 7d 91 7a b9 75 38 dc 3b f2 79 35 b8 4e c0 1a bd
       -0.00023896057 0.0067205974 -4.3267333e-05 -0.037781052
0001e0 aa 3e 5c ba d7 a6 04 bb bd 9a 93 bc b3 9b 2b bb
       -0.00084016717 -0.0020241046 -0.01801812 -0.0026185333
0001f0 16 5a 18 bb 60 3f 3a 3b bf b6 df 3a a5 32 95 38
       -0.0023247055 0.0028419122 0.0017068012 7.114307e-05
000200 4f 01 83 3b be 9c 34 bc e2 78 95 ba 0b 8e ad 3b
       0.0039979587 -0.011023698 -0.0011403824 0.005296474
000210 ca d2 9d 3b 2a 14 be 3b 89 f3 13 3c 81 b7 23 bb
       0.004816388 0.0058007436 0.009030231 -0.0024981203
000220 93 dd 40 3c 30 c5 17 3b bb 64 9e 3b 8d b2 d2 bb
       0.011771577 0.0023158304 0.0048337854 -0.0064299763
000230 f8 32 3f 3c 31 31 62 3a f4 b3 67 ba dc a7 ac 3b
       0.011669867 0.0008628546 -0.0008838766 0.005269034
000240 3c 03 f2 3b fc 64 e3 3a ca 7e 6b ba 3c 39 c3 39
       0.0073856395 0.0017348821 -0.00089834316 0.0003723594
000250 6f c6 22 3b 4c 6f 1f bb 97 3d f6 3a 41 51 04 ba
       0.0024837514 -0.0024327813 0.0018786666 -0.0005047508
000260 8f 3f 32 3b c7 fd 4f bb 87 03 2f ba 0c 3d 62 bc
       0.0027198528 -0.0031736956 -0.0006676246 -0.0138085
000270 2a b8 9e 3c 16 cb c5 3b 06 a1 05 39 6b f4 2c 3d
       0.019374926 0.0060361726 0.00012743854 0.042225283
000280 c7 60 64 3b 6c 19 4d bb 99 f7 2a bc 44 f0 52 3c
       0.0034847723 -0.003129567 -0.010435008 0.012874667
000290 96 65 9f bc 10 4b 3b bb 2a 8e 36 3b 04 21 b6 bb
       -0.01945762 -0.0028578676 0.0027855732 -0.005558135
0002a0 12 d0 97 bb 41 72 3b bd 8a ea 97 3b 0a 13 da bb
       -0.004632958 -0.045763258 0.0046361135 -0.0066551017
0002b0 36 1a 1a 3d b9 15 4b bc 52 ea 5d bc 8d 71 4b bc
       0.037622653 -0.012395316 -0.013544636 -0.012417209
0002c0 32 cf 3a 3b d6 7c 02 bc 45 d3 c1 bc e2 1f 05 bc
       0.0028504846 -0.0079643335 -0.023660311 -0.008125277
0002d0 ab 4b e8 3b 65 9b 3f 3c 1a 08 86 bb 18 83 46 3b
       0.0070890984 0.011694764 -0.0040903213 0.003029054
0002e0 c1 67 99 3a d8 07 d4 3a e8 56 a1 39 00 be c6 bb
       0.0011703895 0.0016176654 0.00030773063 -0.0060651302
0002f0 10 0f 2e 3b 99 50 81 ba b5 8c 15 3b 22 92 b5 3b
       0.002655927 -0.0009865939 0.0022819464 0.005541102
000300 5a 93 8d bb 3d 45 f2 3a a6 e6 21 bb ba b0 74 bb
       -0.004320544 0.0018483769 -0.0024704128 -0.0037336783
000310 dd 3e 9f ba a4 34 79 bb 6d 09 e7 bb b5 04 5d 3b
       -0.0012149472 -0.003802576 -0.007050684 0.003372473
000320 af dd 4d 39 a3 70 0c bc 22 aa 3e 3a 19 4e 9d bc
       0.00019632907 -0.008571777 0.00072732766 -0.019202279
000330 70 43 8c 3a 1f fb b0 bc 18 a0 59 3b 35 6f a6 3c
       0.001070125 -0.021604119 0.0033206996 0.0203167
000340 08 08 ab 3c 9f 60 29 3c 03 dd f4 bb 70 44 cd bc
       0.020877853 0.010337978 -0.0074726357 -0.025057048
000350 7f dd e7 ba 30 5e e6 bb cd 07 33 bd 49 77 e8 3b
       -0.0017689912 -0.007030271 -0.04370861 0.007094298
000360 3b bd 8e 3a 34 39 49 bb c5 07 7b 39 11 74 14 39
       0.0010890135 -0.0030704262 0.0002394012 0.00014157618
000370 d7 fe af bb b1 ba 14 3c 76 d1 26 bc 01 a0 d5 3b
       -0.0053709554 0.009077714 -0.010181775 0.006519318
000380 1f 79 d2 bb d9 93 1e bb 7e ac 0c bc ee 7b 8d 3b
       -0.00642313 -0.002419701 -0.008586047 0.004317752
000390 62 9a 9e 3a 6a c6 ab 3b 1e 4d c5 ba 07 de 56 3c
       0.0012100453 0.0052421587 -0.001505289 0.013114459
0003a0 97 f0 90 bb da cf 8f 3a 48 fb 41 3b d8 e7 fb 3b
       -0.004423212 0.0010971979 0.0029599238 0.00768755
0003b0 a3 7d 6a 3b ad ce ad b9 47 b6 cf 39 48 db 03 3c
       0.0035780452 -0.00033151117 0.00039617924 0.008047886
0003c0 db c9 3e 3c 95 26 bf bc d0 5f e1 3a 5b 03 0c 3b
       0.011644806 -0.023333827 0.0017194692 0.0021364305
0003d0 03 fd 4f 3c 4a bc 57 bd 96 3f bc bb ec a0 10 3c
       0.0126946 -0.0526698 -0.0057448847 0.008827429
0003e0 d5 38 f6 3b ce 67 06 3c 12 05 78 ba 7a 9f e3 ba
       0.007514099 0.00820346 -0.0009461205 -0.0017366253
0003f0 53 4b cf bc c5 67 12 39 46 f2 8c 3b 47 15 fa bb
       -0.025304472 0.00013962302 0.004301342 -0.007631931
