best_model/xasnet_gnn_model_7.pt (torch, 102210 bytes, 14 tensors)

batch_norms.0.weight f4 [128]
00000000: 7a50 ad3e 7236 5d3d 499c 4f3e 3545 8e3e
00000010: 36e8 153e 63c5 313e dd1e eb3e d906 6d3e
00000020: d59c 803e 22f5 203e 4608 513e e6db 303e
00000030: 011c cd3e cf78 053e d3b1 6d3e 8220 c13d
00000040: 0568 5a3e 6b4b 893e 9a47 513e a6c2 703e
00000050: 0bfb 293f b7a6 b63d fa48 c93e 8e19 5a3d
00000060: 40e4 303e 9281 fb3d 2e74 f03e 6954 9e3e
00000070: 4be3 5c3e b010 bc3d f9c4 3d3d 1901 ae3d
00000080: 1cca 403e a020 f13d 8c3e 413e ba52 883e
00000090: a8ec a23e 8af3 ea3d b72e b03e e8da 903d
000000a0: 4404 203e f31c e73e 5765 903e 495a 1d3e
000000b0: 6653 453e 0d4d b03e 52c3 723e c6f5 d83d
000000c0: 097e 883e 0f69 5c3d 9fc0 663c 8e8d 823d
000000d0: 3727 8d3e 5cd1 003d 2d7f 443e 7c8b b43e
000000e0: ac30 0d3f 740b cf3e 580d b33e cf87 e33c
000000f0: c374 fa3e 82ea a33e 312a 8b3e 7e6b 4c3e
00000100: db7e e33e 12bb 1d3d 6217 263e 1a08 123e
00000110: b27b 363f 5766 a63d 9a68 393e fd86 543e
00000120: 805d 593e f812 e03d 4758 093f d2ec 253e
00000130: cffc 6f3e 7936 273e d0fc e53e 2fd5 f63e
00000140: 98d6 0b3e 38f1 da3d 8c04 ab3e bdbf ea3e
00000150: 0734 573e a87d 5b3d ba97 303d 4792 423d
00000160: 8032 463e 47bc b63e 39c9 cc3e 0afb 043e
00000170: 7d61 753e eecc 733d de84 b73e 56fe 933d
00000180: 78db eb3e f537 463e 525a 693d 4091 b73e
00000190: 906c 233e 51da 043e 3804 be3c 01ef 813e
000001a0: ad05 0f3e 5a3d b53d 94be 9f3e 9bd4 173e
000001b0: 1f18 993e c696 1f3e c879 8c3e fcf5 993e
000001c0: 2bf8 733e a3bf 983e 5fa6 9e3d 9532 b73e
000001d0: e3f8 e33e 56c3 903d 0992 263e 2a96 523d
000001e0: f089 c53c 3094 7a3d bfba 8e3e 6fe3 073e
000001f0: b3c8 433e 78ad 353e 0d9e 783e 2fd6 883e
0.3385046 0.054007 0.20274462 0.27787176 0.14639363 0.17360453 0.45921984 0.23147143
0.25119653 0.15718511 0.20413312 0.17271385 0.40060428 0.13034366 0.23212366 0.094300285
0.21328743 0.26815352 0.2043747 0.23511752 0.66398686 0.08918517 0.3931349 0.053247027
0.1727457 0.12280573 0.46963638 0.30923775 0.2157108 0.091828704 0.046330426 0.08496303
0.18827099 0.11773801 0.18871516 0.26625615 0.3182118 0.11472233 0.3441064 0.07073003
0.15626627 0.45139274 0.28202316 0.15366472 0.19270095 0.34433785 0.23707321 0.105937526
0.26658657 0.05381113 0.01408401 0.06374656 0.2756898 0.03144966 0.19189139 0.35262668
0.5515239 0.40438426 0.34971118 0.02777472 0.48917207 0.32014853 0.27180627 0.1996288
0.4443272 0.038508482 0.16219857 0.14260903 0.71282494 0.081249885 0.18106309 0.20754619
0.21227074 0.10941118 0.53650326 0.16203621 0.23436283 0.16329373 0.44919443 0.4820952
0.1365608 0.1069054 0.33401906 0.4584941 0.2101594 0.053586632 0.043113448 0.047502782
0.19355202 0.3569052 0.3999727 0.12986389 0.2396297 0.059521608 0.35843557 0.07226245
0.4606588 0.19357283 0.0569709 0.35853004 0.15959382 0.12973906 0.023195371 0.25377658
0.13967009 0.088495925 0.31200087 0.14827196 0.29901215 0.15584859 0.27436662 0.30070484
0.23825137 0.29833707 0.077465765 0.3578078 0.44525823 0.070685074 0.16266645 0.05141274
0.024113625 0.06117648 0.2787685 0.13270353 0.1911953 0.17741954 0.24279042 0.2672591

batch_norms.0.bias f4 [128]
00000000: e94a 20be b6aa a1bc edfd 17bc fd38 f5bc
00000010: 6d78 e6bc 6a03 2fbd a602 14be e042 68bc
00000020: 39a5 813c 3224 01bd 4cbd 783d 61b8 213d
00000030: de7a 15bd 68a3 323c af0d dcbd a0c9 10bd
00000040: fd6c 333c a83f e0bd ddab 31bd abdb 00be
00000050: 9534 593d b403 5bbc 3c2a d4bd 517e b9bb
00000060: c76e b3bd 921e 7dbd 4653 02bc 739b 10be
00000070: feca aabc 1be6 bbbc 5b39 b2bc a0f8 e53c
00000080: a4b0 dabd 7c30 d13c 14b7 10bd a5b5 8dbd
00000090: d127 aabd d8b6 c3bd ec10 a6bd e431 e73b
000000a0: 40e2 c6bd f4b9 babd 275d cbbc c62a 1b3c
000000b0: 9b98 02bd edff 5ebd 80a7 99bd 663f c6bd
000000c0: 0433 f2bd e0f4 b6bc 0e4b c93b 90b8 d638
000000d0: 1a77 d1bd 42ce f5ba 9253 453b 1b27 18be
000000e0: c7b2 06be 332d c6bc dbde 37bd cbb8 bc3a
000000f0: 3a3d 1fbd 1822 3dbe b862 43bd c3fa e9bc
00000100: 04f4 28be 0a01 7bb8 dd81 cebd 4b7f 2d3d
00000110: e09c 8cbd 22a4 29bd 9ed1 f7bb 2973 f13b
00000120: 3918 bb3d df0f 7abd f69f b8bd dd68 493c
00000130: 34f9 11be c3ff 40bc fedb eebd a356 f3bd
00000140: 3977 50bd ce77 8b3c e070 0dbe e069 f3bd
00000150: 6cd3 d5bc 99c3 c8bc 5b2d 3abc 824f b5bb
00000160: 708c 09bd d6de f0bc 612e 92ba 236b 58bd
00000170: 7128 7ebd e557 c53a 722d d2bd e937 da3b
00000180: 7d67 b1bd 3caf 4bbd 09a2 2fbd 8ad3 3d3c
00000190: 35f4 763c e3c9 e9bd 24f6 49bc b32a f03c
000001a0: f236 94bd 1467 58bc 4bda 5cbd 1fb1 43bc
000001b0: f71b 263d 8dcc 62bd 7e17 8abd 66bf 893c
000001c0: 437e e9bd f0af 28be c781 45bc 967e b5bc
000001d0: 9d4b 94bc 1bae abbd 61b3 503c b6aa 633c
000001e0: 8ade bfbb 48a1 e4bb ba5a e6bd 9364 8ebc
000001f0: d2f1 bebd c091 1ebd d709 60bd b057 48bd
-0.15653576 -0.019734722 -0.009276849 -0.0299344 -0.028133595 -0.042727865 -0.14454135 -0.0141761005
0.015825855 -0.03152866 0.060727403 0.039482478 -0.03649413 0.010903217 -0.107447974 -0.035348535
0.010951278 -0.109496415 -0.043376792 -0.12583797 0.05302866 -0.013367582 -0.10359618 -0.00566081
-0.087613635 -0.061796732 -0.007954424 -0.14121799 -0.020848747 -0.022936871 -0.021755865 0.028072655
-0.10678223 0.025535814 -0.035330847 -0.069194116 -0.083083756 -0.09556359 -0.08108696 0.007055508
-0.097111225 -0.09117499 -0.024824692 0.009470647 -0.031883817 -0.05444329 -0.07502651 -0.09680061
-0.11826137 -0.022333562 0.0061429804 0.000102386926 -0.10227795 -0.0018753486 0.0030109626 -0.14858668
-0.13154136 -0.024191475 -0.044890266 0.0014398334 -0.03887675 -0.18470037 -0.047701567 -0.028561955
-0.16499335 -5.984403e-05 -0.10083363 0.042357724 -0.06865859 -0.041416295 -0.00756283 0.0073684645
0.091354795 -0.061050292 -0.09014885 0.012293068 -0.1425522 -0.011779728 -0.11663054 -0.11881759
-0.05089495 0.0170249 -0.1381259 -0.118854284 -0.02610179 -0.02450733 -0.011363353 -0.0055331597
-0.033581197 -0.029403131 -0.0011152738 -0.05283655 -0.062050287 0.0015056102 -0.10262574 0.006659497
-0.08662317 -0.049727663 -0.04287914 0.011586079 0.015072872 -0.1141546 -0.012326751 0.029317236
-0.072370425 -0.0132081695 -0.053919118 -0.011944084 0.040554013 -0.055370856 -0.06742762 0.016814899
-0.11401036 -0.16473365 -0.012054867 -0.022155087 -0.018102461 -0.08382817 0.01273808 0.013895681
-0.005855386 -0.006977234 -0.112477735 -0.017381942 -0.09323467 -0.038713217 -0.054696884 -0.04891175

batch_norms.0.running_mean f4 [128]
00000000: f03c 14be 32c8 7d3d deb9 f9bd 6f7b 62be
00000010: 242d d43d ba71 633e e6f4 0abb e037 c83d
00000020: f5ae a93d 1c4d 513b eb0f c03c 3153 a03d
00000030: eeec 95bd 0b88 e23d 4462 183e 7880 c9bd
00000040: 4c50 71bd e7de e5bc 3f4d 233e 61a2 403d
00000050: 7c3f 063b 6d4e 98bd e873 933c 231e af3b
00000060: c55c e83d b9d0 6fbd 6ef7 91be 54de 043e
00000070: 4110 3f3d d70c b53d 6f7b 37bd 59a1 1e3d
00000080: 6af4 e63b e04a 923c 377f 393d 5439 19be
00000090: d288 093e b341 fa3d 0f3b 3fbe 2f19 76bd
000000a0: d53b 9bbb f786 b8bc 5d29 0fbe 1d88 03bc
000000b0: 73c8 bcbc ec7e 95bd f265 aabd e9d0 9e3d
000000c0: 1a8e 4d3d c57d 1cbd 783e c9bc d25c 4b3e
000000d0: 2415 15be bd8a 4cbc bf52 603e c3c9 68bc
000000e0: b72d 39bc 9389 f73c 7ad1 d8bd ebee a43d
000000f0: 3252 4dbe d781 0bbe b98c dd3d 8208 02be
00000100: 0726 9c3e fc6c 9b3c 3a4e 0f3d 5858 c7bd
00000110: c96d 3e3d 4d78 aebd 4645 663d 2ce2 71bd
00000120: 33b4 a53e 0939 9fbd 65a9 17be c84d e83d
00000130: b18a f3bd 7c99 83bd 7a65 103e a0a8 e63c
00000140: 599f d0bc deb3 c4bd 0f3e a63c 1d16 e23d
00000150: 91b5 f7bc 3f94 37bd 6906 dc3c c869 8ebd
00000160: bf95 67bd 2647 a53d ec25 5d3e fba1 12be
00000170: 913f a53d eb4e cc3d d28a bebc 93f6 193b
00000180: 31cb 8b3b 9036 d0bd 9fec af3b e1f9 d23c
00000190: 1d5a d6bd 29ef c43d ec54 cc3b 3ae0 e73d
000001a0: 3bae 8fbd fdfe 25be 74f8 2e3e f03b a43e
000001b0: 51df be3e a8fe d83d f016 143e aa69 15bc
000001c0: f076 a6bc 414e 36be b213 efbd 3832 95be
000001d0: 5279 5ebe 89ff a1bd b27c 4b3e a955 0ebd
000001e0: 4c30 f53b 2e06 06bd 3dee 2b3d 7607 07be
000001f0: 9825 60bd a352 c63a 2703 6abe f59b 2a3e
-0.14476371 0.0619585 -0.121936545 -0.22117399 0.103601724 0.22211352 -0.00212031 0.09776282
0.082853235 0.003193683 0.02344509 0.078283675 -0.073205814 0.110611044 0.14881235 -0.098389566
-0.058914468 -0.02806039 0.15947436 0.047029857 0.0020484617 -0.074368335 0.017999604 0.0053441687
0.113458194 -0.058548663 -0.28509086 0.12975436 0.04664636 0.0884034 -0.04479545 0.038728092
0.0070481794 0.017857969 0.045287337 -0.14963275 0.13431099 0.122195624 -0.18674873 -0.06008261
-0.004737357 -0.022525294 -0.13980623 -0.008028057 -0.0230448 -0.07299599 -0.08320226 0.0775469
0.050184347 -0.03820588 -0.02456592 0.19859627 -0.14558846 -0.01248425 0.21906565 -0.01420826
-0.011302403 0.030216968 -0.105868295 0.080533825 -0.20050886 -0.13623749 0.10817856 -0.12698558
0.30497763 0.018972866 0.034986712 -0.09733647 0.046491418 -0.08519039 0.056218408 -0.059053585
0.32364044 -0.077745505 -0.14810713 0.113429606 -0.11891688 -0.06425759 0.1410121 0.028156579
-0.025466608 -0.096046194 0.020293264 0.11039374 -0.030237945 -0.044819113 0.026858525 -0.0695377
-0.056539293 0.08070211 0.21596497 -0.14319603 0.08068765 0.0997599 -0.023259554 0.0023492917
0.0042661657 -0.10166657 0.0053687836 0.025753917 -0.104664065 0.09615929 0.0062357094 0.11322065
-0.07015654 -0.16210552 0.17086965 0.3207698 0.37279752 0.10595447 0.14461875 -0.009119431
-0.020320386 -0.17803289 -0.116736785 -0.29139876 -0.21725968 -0.079100676 0.19871786 -0.03474966
0.007482564 -0.032720737 0.04197525 -0.1318644 -0.054723352 0.0015130829 -0.22852765 0.16661055

batch_norms.0.running_var f4 [128]
00000000: b9ca a13b 1da0 5a3a 6cbe e83a bb1f 9c3b
00000010: 19d8 533b a92b ac3b a748 9c3b 82ef 923b
00000020: 0a61 bb3b 4d60 af3b c035 ab3a 5a9e 5b3b
00000030: 1c36 043c f857 f33a ee41 943b 49f0 ae3a
00000040: c1f8 a23b ccd9 2e3b 972b e53a 7529 3e3b
00000050: 36f9 4e3c 62dd 413b c028 0a3c 697f 363a
00000060: 314d 363b 78cb 993b 75bc f23b 6a2a 4b3c
00000070: f60a c33b 77c9 e83a e0be 323a 20be 223b
00000080: 6557 703b c68b a33b 3f64 4d3b 588a ac3b
00000090: e462 0a3c cade a73a 1de5 af3b fca0 003b
000000a0: 213f 2e3b fff4 073c d7ec a83b 3dbc 993b
000000b0: 6efb ef3b 6662 c23b 4bcc 233b e32d 1c3b
000000c0: 7542 1c3c 143c f93a 5739 5f3a e6d5 e93a
000000d0: d2d9 473b 40cc 6f3a bc39 813b 72ba 0e3c
000000e0: 2ce0 ee3b 570c 0a3c 4ffb 273c b65d be3a
000000f0: 4c1b 3d3c 91b8 5a3b afc5 633b 6b8e 123b
00000100: e090 f03b b4ba 1f3a ad56 613b e696 7b3b
00000110: d724 693c e7d9 e53a 7b39 813b ed3a 383b
00000120: 6941 163c 97e1 033b 4f31 323c ba23 453b
00000130: 51ce 6a3b 1bde 283b 0cc2 3b3c 66c7 143c
00000140: 8732 683b 3ab2 cb3a c2f0 ac3b c379 813b
00000150: 1ae9 a63b bbad c23a 3539 213a 953d ab3a
00000160: e0d3 803b c0eb 7d3b 7233 e83b 3b64 343b
00000170: 0306 173b 996b fd3a c9a1 7f3b 4dc8 e33a
00000180: f3ad bb3b 600b cc3a 7636 4f3a e6a8 f43b
00000190: ca0d 613b 9d9d 733a 9fea 033a 0b4b fa3b
000001a0: 9425 aa3a 27b3 9f3b 2701 f83b a343 863b
000001b0: 977b 023c bc31 8e3b 7ee8 1f3b 00ce 133c
000001c0: 643e 493b 36c6 a53b e0a9 fd3a 8d07 bb3b
000001d0: e510 063c fd0a 663a bb8f a13b f74e ca3a
000001e0: 7175 163a 575d 113b f068 bf3b 6d24 e83b
000001f0: c1b1 703b 3874 393b aa5c fb3b 3cbd 3b3b
0.0049374965 0.0008339899 0.0017756945 0.0047645248 0.003232485 0.005254228 0.004769403 0.004484118
0.005718355 0.005352056 0.0013062283 0.0033511133 0.008069541 0.0018565645 0.004524461 0.0013346757
0.0049735014 0.002668011 0.0017484304 0.002901641 0.012632659 0.0029581417 0.008432567 0.00069617346
0.0027817006 0.004693445 0.0074077197 0.012400249 0.0059522344 0.0017760237 0.0006818604 0.0024832562
0.0036673185 0.0049910275 0.003134027 0.0052655153 0.008446429 0.0012807485 0.0053678886 0.0019627204
0.002658792 0.008298158 0.0051551866 0.004691629 0.007323674 0.00593214 0.0024993594 0.0023831062
0.009537329 0.0019015097 0.0008515319 0.0017840236 0.0030494821 0.0009147562 0.00394365 0.008711444
0.007289907 0.008425794 0.010252788 0.0014523778 0.011542153 0.003337417 0.003475528 0.002236272
0.007341489 0.00060931896 0.0034383938 0.0038389503 0.014229975 0.0017536253 0.00394362 0.0028111294
0.009170868 0.0020123476 0.010876014 0.003008111 0.003582854 0.002576715 0.011459839 0.009080743
0.0035430507 0.0015540787 0.005277724 0.0039512827 0.005093706 0.0014852801 0.0006150187 0.0013064618
0.0039315075 0.0038745254 0.007086211 0.0027525562 0.0023044355 0.0019334435 0.0039006344 0.001737842
0.0057275235 0.0015567355 0.00079045387 0.0074664233 0.0034340494 0.00092932006 0.00050322147 0.0076383404
0.001298117 0.0048736515 0.0075684967 0.0040974184 0.007964036 0.004339425 0.002440005 0.009021282
0.0030707354 0.005059029 0.0019352995 0.005707687 0.008182739 0.0008775441 0.004930464 0.001543491
0.0005739546 0.002218088 0.005841367 0.0070844204 0.0036727043 0.0028298032 0.0076709585 0.0028646728

batch_norms.1.weight f4 [64]
00000000: 6f0d 293f 5b6f bb3e c0b8 df3e f385 1b3f
00000010: 4061 293f 13ec 573f fe73 e63e 7d7c e73e
00000020: 89c6 2e3f e2d7 1e3f c1e5 a13e 7913 053f
00000030: cab6 f73e 2ba0 fb3e 46de e03e f276 033f
00000040: f13f 713e ee71 3a3e 9b85 023f 10d3 cb3e
00000050: db8e 273e a509 883e 8ffe f83e 0cb3 143f
00000060: d5da fb3e 08d6 0a3f 2ffa a03e 291e db3e
00000070: f284 013e 7b10 103f 5ee7 fb3e 2b28 a13d
00000080: 9685 8c3e bb17 0f3f 2971 113f 1192 123f
00000090: 56de 8d3e ef53 f23e 1d39 cf3e 2ae2 e93e
000000a0: fd8c d03e 68da 0b3f 0aa7 a93e 67d7 1e3f
000000b0: 67bf dd3e 5b03 a03e cc18 203f 3114 f03e
000000c0: 2d31 cc3d 7aa8 a13e 0ca1 123f b8ea 0d3e
000000d0: 529d 053f e680 303f 5895 f73e a682 f93e
000000e0: 6cbf 3e3e 5447 fb3e 3a6d b63e 63df ab3e
000000f0: 4f33 003f b0b4 cf3e 9300 a83e 2c80 f23e
0.66036123 0.36608395 0.4369564 0.60751265 0.66164017 0.84344596 0.4501037 0.45212165
0.6827169 0.6204816 0.316206 0.5198284 0.48381644 0.49145636 0.4391958 0.5135337
0.23559548 0.18207523 0.50985116 0.39809465 0.16363089 0.26569858 0.48631713 0.58085704
0.49190393 0.54232836 0.31440875 0.42796448 0.12648371 0.5627515 0.49199957 0.078689896
0.27445668 0.55895585 0.56813294 0.5725413 0.2770869 0.4732966 0.4047326 0.45680362
0.40732566 0.54630136 0.33135253 0.6204743 0.4331009 0.3125256 0.6253784 0.46890405
0.09970317 0.3157385 0.5727699 0.1385907 0.52193177 0.68946683 0.48356128 0.4873249
0.18627709 0.49077857 0.35630208 0.33568868 0.5007829 0.4056754 0.32812938 0.47363412

batch_norms.1.bias f4 [64]
00000000: 3169 84be 5499 58be da5b 71be 4ac4 783e
00000010: 2d23 87be 5441 cabc d261 4c3e 13c7 31be
00000020: 42e2 c83d 2097 88be 314d 57be 3844 f63d
00000030: 8847 70be 87a8 723e 9937 5c3e 4bfa 7fbe
00000040: 13e7 48be 45dd 4dbe e7e8 70be b6fc 70be
00000050: 4e2d 66be 269d 583e 5d03 7bbe 69ee 7a3d
00000060: 92a2 743e 6003 82be f3a5 643e 0a5f 473e
00000070: 6af4 643e f404 633e 2778 75be 0a50 3bbd
00000080: 940c 5dbe b65a 75be ff7e 80be 5913 7a3e
00000090: e637 68be d547 3d3e ce44 6fbe 991f 793e
000000a0: b9e9 533e c9df 79be 6d34 543e f9ca 78be
000000b0: f1f0 753e 1c39 43bd e76b 83be 6099 57be
000000c0: 158d 483e f622 693e fb86 7e3e 7d88 593e
000000d0: 109f 33be fc52 793e 76e2 6fbe 4c55 4bbd
000000e0: c3c8 163e a8ec 6bbe 0554 5dbe 5d94 59be
000000f0: 9f9e 773e abb4 533e 31f1 373e 3181 7c3e
-0.25861505 -0.2115224 -0.23570195 0.24293628 -0.26394024 -0.024689354 0.1995919 -0.17361097
0.0980878 -0.266778 -0.2102554 0.120247304 -0.23464787 0.236971 0.21505584 -0.24997823
-0.19619398 -0.20103939 -0.23526345 -0.23533902 -0.2247822 0.21153697 -0.24513002 0.061262522
0.2389014 -0.253932 0.2232893 0.19469848 0.22358862 0.22169858 -0.23971616 -0.045730628
-0.2158683 -0.23960385 -0.2509689 0.24421443 -0.22677574 0.18484433 -0.2336609 0.2432846
0.20694627 -0.24401774 0.20723124 -0.24296178 0.24017693 -0.047661886 -0.2566826 -0.21054602
0.19585069 0.22767243 0.24856178 0.21243472 -0.17541146 0.24348062 -0.23426232 -0.049641892
0.14725022 -0.23039496 -0.21614082 -0.21248002 0.24181603 0.20674388 0.17963101 0.24658658

batch_norms.1.running_mean f4 [64]
00000000: af59 bf3c 5ddd 733c e9a9 3c3d 8b96 4dbd
00000010: ef19 b83d ac81 1a3d f720 81bd 74ea 10bd
00000020: 1be6 1ebc d648 90bd 1883 483d 1508 083c
00000030: 056a 8cbb ab54 a5bc c5b0 523c b668 b13b
00000040: ab82 673d f78b 66bd e983 72bd 2cdb 183d
00000050: 5c06 23bd 944e bcbd cebc c33d a2a5 00bd
00000060: 30b4 1cbd 1704 233d 8422 a4bd 1815 c23c
00000070: 2f5d 8d3c ee07 80bd fa5f 893d 207b c1bc
00000080: 8ebb 213c 8ed3 9abc 7833 663d c152 a7bd
00000090: e3a8 06bc dafe 143b 60bf eeb9 1df5 53bd
000000a0: 6d36 cc3d f34a 9cbd 0b92 7d3d 717e 15bc
000000b0: 66a6 8cbd ff22 1cbd aae2 a53d 4b41 37bd
000000c0: f429 363d 7057 c13b 8e6b 97bc 46f5 853d
000000d0: 4fdc ed3c f7d3 2d3d 22d2 0abd 8030 f5bc
000000e0: cb58 14bc dd03 253d 0ec8 a33d da23 643d
000000f0: 5c1f 48bd 335f 8f3c 74cf f43c 4d23 56bd
0.023358194 0.01488432 0.046060476 -0.050192397 0.089893214 0.03772132 -0.06305116 -0.035379842
-0.009698416 -0.07045142 0.048953146 0.008302708 -0.0042850995 -0.020181974 0.012859528 0.005414094
0.0565211 -0.056285825 -0.05920783 0.037318394 -0.039800987 -0.09194675 0.09557496 -0.03140796
-0.038257778 0.039798822 -0.08014396 0.023691699 0.017256347 -0.062515125 0.06707759 -0.02361828
0.009871377 -0.018899705 0.05620143 -0.08170081 -0.008218977 0.0022734911 -0.00045537483 -0.05174743
0.099713184 -0.07631483 0.061906856 -0.009124384 -0.068676755 -0.038119312 0.08099873 -0.044740003
0.044473603 0.005900316 -0.018483903 0.06540923 0.029035715 0.042438474 -0.033891805 -0.029930353
-0.009054373 0.040286887 0.07997142 0.055698253 -0.04885803 0.01750145 0.029884078 -0.05227976

batch_norms.1.running_var f4 [64]
00000000: 9d92 193c 44e3 743c 822c 113c bf75 053d
00000010: fb2c 233c e11e c33a f4cd 883b 596f be3b
00000020: a207 1a3b fde9 143c 6383 df3b b62a 253a
00000030: ffeb 1f3c a9bc ed3a de59 c83a b5da 743c
00000040: 3182 0c3c da28 a33b a390 043c fbab 393c
00000050: 0bcf 683b d937 3d3b be03 203c e8b6 b23a
00000060: 361d 653c 3034 da3b 986d 293c d638 343b
00000070: 8eb4 943b 9d77 db3c 13cf e13b 4b5a 4e3c
00000080: a74a be3b ca2a 593c 71f6 7c3c 6f2e 7a3c
00000090: 4cab 923b 3ec0 8a3b b898 043c 272e 183c
000000a0: 0abc 9c3b d0d5 083c 1fa1 eb3b b356 763b
000000b0: 6ea3 ec3b d39c bb39 fff1 873c 4c92 d93a
000000c0: af57 853b e477 053c 430e f13b 5ae7 b73b
000000d0: 4c9d 023b 5abb 953b cd81 f33b 7eca 583a
000000e0: fdbc 753b 6153 223c b18a 0e3c b187 763b
000000f0: f683 533c 3c79 9d3b 5214 333b b250 853c
0.009373334 0.0149467625 0.008860709 0.032582995 0.009959455 0.0014886522 0.004174942 0.0058116135
0.0023503085 0.00908899 0.0068210824 0.0006300615 0.009760856 0.001813789 0.0015285572 0.014944722
0.008575962 0.004979235 0.008091125 0.011332507 0.0035523798 0.00288724 0.009766517 0.0013634833
0.013984015 0.0066590533 0.010341071 0.0027499697 0.0045381254 0.026790434 0.0068911402 0.01259477
0.005807239 0.013254831 0.015439616 0.01526986 0.0044759866 0.004234343 0.008093052 0.009288347
0.004783158 0.008351758 0.007190838 0.0037588298 0.007221631 0.00035784263 0.016594885 0.0016599386
0.0040692906 0.00814626 0.0073564365 0.005612296 0.0019930182 0.004569453 0.007431245 0.000826992
0.003749668 0.009907574 0.008700059 0.00376175 0.01290988 0.004805712 0.0027325344 0.01627383

interaction_layers.0.bias f4 [128]
00000000: f193 4d37 0f7d e3b5 ecdb 58b6 c0d2 b937
00000010: 84b9 c9b5 7a54 07b6 6256 3fb7 29ab 8b37
00000020: 02cb c4b7 3c9c 78b5 d030 3636 52b3 eab7
00000030: 835a 96b7 5ff4 5337 1dfa ba37 2892 0237
00000040: 4249 3eb7 0daa 3837 86cb 8e38 9dd8 7237
00000050: ddae 16b7 5c05 3d36 0326 3eb6 b6f6 79b6
00000060: f3f7 9535 d4fb c2b4 a1dc 5a37 1c71 4f37
00000070: 0841 cbb6 5a94 fab6 b9bf 99b6 23eb 04b6
00000080: 4113 f537 b085 fcb6 079d 18b7 6cec 1138
00000090: b186 8d36 2f5e 94b7 41f9 adb7 cbb5 acb5
000000a0: b5eb 3637 16ed ce37 ee21 dcb7 7149 cb36
000000b0: e502 f9b5 930f 2335 8f83 9e36 4e17 1635
000000c0: ebf0 c5b7 1f20 bd35 37be 9a35 60b2 35b6
000000d0: 86b0 5f37 0c9f 4234 34ba 1437 0088 ac37
000000e0: 72f4 36b8 e4f4 d9b7 894d 2838 7c26 c535
000000f0: 1941 59b6 7607 94b7 194f e935 593b 0f38
00000100: 13bd d2b8 6466 e9b5 15d9 09b4 b368 37b7
00000110: 1d56 5bb6 2bfc 5536 0e47 dd36 cc22 b237
00000120: d998 8eb7 ecb7 ad36 3515 94b7 e1cf 70b5
00000130: d81c 88b7 455b 8537 55e0 13b7 90d6 8c36
00000140: 67c3 f535 fd64 bbb6 3bcc cfb6 cea7 b938
00000150: fac6 aab6 b371 9a32 ff7b 87b4 57d8 8e35
00000160: 6262 d536 bd5d 8e37 fcf5 a7b7 7ff0 01b8
00000170: f3e1 21b8 37a0 aa36 1f72 c237 cdcf 9235
00000180: 5d3e db37 160b 1fb8 31bc 2f35 1e18 85b7
00000190: a3fd cdb6 3212 4837 dc03 3634 602c c436
000001a0: 6ea0 ed36 d11d 0736 646d 9c35 0cd3 4835
000001b0: 81f6 b2b8 d976 6e37 d479 e6b7 a99e 8035
000001c0: ec20 ceb4 6226 7c38 2e8b 0c36 5e70 4d36
000001d0: 6504 8bb7 b6d2 e2b7 69bc 0937 24cc 8d36
000001e0: 1bf4 deb5 e0d2 a4b3 bc35 c5b6 90d0 9636
000001f0: 15cc c1b4 4c66 b536 1737 4b34 c42f acb7
1.22533975e-05 -1.6949215e-06 -3.231452e-06 2.2151857e-05 -1.5029659e-06 -2.016574e-06 -1.14046e-05 1.6649794e-05
-2.3459554e-05 -9.261455e-07 2.7148526e-06 -2.7978476e-05 -1.7923541e-05 1.2633477e-05 2.2289396e-05 7.7826335e-06
-1.1341939e-05 1.1006848e-05 6.808997e-05 1.4474758e-05 -8.98141e-06 2.8166314e-06 -2.8334332e-06 -3.7247496e-06
1.1173528e-06 -3.6318545e-07 1.3045182e-05 1.2364497e-05 -6.057442e-06 -7.467851e-06 -4.582075e-06 -1.98064e-06
2.9215242e-05 -7.5257485e-06 -9.096467e-06 3.479088e-05 4.2178076e-06 -1.7686833e-05 -2.0739275e-05 -1.2867907e-06
1.0902925e-05 2.4667515e-05 -2.6241843e-05 6.058421e-06 -1.8552788e-06 6.0744895e-07 4.7240824e-06 5.591327e-07
-2.3596416e-05 1.4090946e-06 1.1529254e-06 -2.707493e-06 1.3332936e-05 1.8125519e-07 8.864841e-06 2.0567328e-05
-4.361984e-05 -2.5982452e-05 4.012653e-05 1.4688844e-06 -3.2373412e-06 -1.764645e-05 1.7382873e-06 3.414913e-05
-0.00010048798 -1.7389652e-06 -1.2838093e-07 -1.0932027e-05 -3.2683668e-06 3.1886254e-06 6.594585e-06 2.1235457e-05
-1.6998894e-05 5.177213e-06 -1.765285e-05 -8.970947e-07 -1.6225895e-05 1.5897336e-05 -8.814114e-06 4.1973035e-06
1.8310792e-06 -5.584791e-06 -6.1928563e-06 8.8527435e-05 -5.0895587e-06 1.7979664e-08 -2.5235929e-07 1.0642788e-06
6.359348e-06 1.697137e-05 -2.0022497e-05 -3.0979976e-05 -3.8595823e-05 5.0850463e-06 2.3179744e-05 1.0938326e-06
2.6135875e-05 -3.791888e-05 6.5466435e-07 -1.5866066e-05 -6.1390033e-06 1.1925165e-05 1.6951475e-07 5.846421e-06
7.081827e-06 2.0133923e-06 1.1654743e-06 7.481292e-07 -8.533616e-05 1.4213577e-05 -2.7474867e-05 9.582919e-07
-3.8394444e-07 6.011723e-05 2.094264e-06 3.0612787e-06 -1.6572138e-05 -2.703942e-05 8.209704e-06 4.2258926e-06
-1.6611333e-06 -7.675203e-08 -5.877313e-06 4.4946282e-06 -3.609754e-07 5.4061293e-06 1.892589e-07 -2.052624e-05

interaction_layers.0.lin.weight f4 [128, 15]
00000000: ef2c ac3d 103a 0dbe 7c13 0fbd 6aa7 9fbd
00000010: cda8 acbd b452 813d 1f9b 19be 007c b23a
00000020: c64a 713d 3ec1 ccbd f7db fb3b 50bc b93a
00000030: d678 283d 2676 75bd 659b 973b b86e af3b
00000040: 8acf 6a3c e9ba 923b 4e6b 02bc 390f 813d
00000050: 14cd be3c aa5f 223d b148 a2bb 570e 8cbb
00000060: 1616 36bb d40e 8dbb 0797 52bc e648 503c
00000070: 7069 e03c b01b e8bb 7925 a93b 5d70 323c
00000080: 80c6 983d c98e 4d3c 9652 8fbc 05ac 0abd
00000090: 4673 05be ea0c 42bd 145c 4a3e 4d96 4fbd
000000a0: a665 22bd ac78 8c3d 90b7 96bc b63d 4d3d
000000b0: cfeb d2bc fb1b e1bc 3d57 c83c bbd5 6f3c
000000c0: 1e82 04be 131a d23c 22cf 5bbd 1651 1abe
000000d0: 0fa7 163b aed1 1b3e 0481 b2bc 7fab 5dbc
000000e0: 49ac bf3c ec41 0abe ef76 e23d 758a c33d
000000f0: d486 853d a661 96b9 603b f43c e353 823d
00000100: 4e93 70bd 42a9 833d 773b 2bbd 5c00 a83d
00000110: 4eed 9b3b 8778 3d3d 3f2e 973b 9be5 a03c
00000120: a6a9 123c fffd c03c 3b35 103d db04 9f3d
00000130: eebd 203d 79a6 ecbc 2c8e 8dbd 5354 153e
00000140: 4626 f63c b8af 9f3d 8c20 11bc e262 3fbb
00000150: cbf2 7f3d c023 df3c 9434 d1bd ba0e 433d
00000160: 3b30 d23b 93e7 7f38 b3a9 943d e5d7 29bc
00000170: 820a 073d 2d66 223d 025d 8a3d 603e e4bc
00000180: 54b9 c1bd 32ae 213c e4a8 d13d bcfb ddbd
00000190: 206c 003e f7ec b0bc 7cdd 013d 8459 03be
000001a0: 00c2 3f3e ab25 ee3c 8b59 16bd a528 0fbc
000001b0: 1446 993d bcd5 0e3d e6df 9bbd c20e 763d
000001c0: 43ba 41bd 1031 9cbd 87cc cc3d f476 d4bd
000001d0: fc95 bfbd 9b94 f13b eff1 7f3d d420 07bd
000001e0: d13a 623d 0b30 8abd b1a3 77bd 2e9f ddbb
000001f0: d3e7 e03c 9d14 a2bd 918c b7bd b064 ad3d
00000200: 4a1c 3a3d b4fc cb3b 25e9 06bd c7ea 263c
00000210: e499 8b3d c7c0 323d 5f7f 1dbe aff3 f0bb
00000220: b203 e13c 14e3 573d 59ad f6bd 01bc 083c
00000230: a40d 123d 0d9b c73d aa88 53bc 8084 92bd
00000240: 84b9 2abd 014a 0a3b b0a7 323d 198d b7bc
00000250: 983c e53c 44e5 743c b49a ea3b 560e 95bd
00000260: be43 4f3d b668 85bb 79d4 55bd 2512 d1bd
00000270: a8a0 b03d 84fe 7bbd 6e63 01be 4932 6ebc
00000280: 767c 17bd 7b0b aebc 960d 8e3d 5cf1 693d
00000290: 98c3 63be c5c8 043d 410a 52bd 9a4f a73d
000002a0: 584f dcbd e23d 4c3c a36c 11ba 7edb 3d3d
000002b0: ffd0 20bc b8e6 1abd 2e29 983d b8ef bbbb
000002c0: dce4 98bd db51 433d 4dff 48bd d404 efbc
000002d0: 2270 ce3c 7744 abbd 417c debd f5d6 ac3b
000002e0: 637c 33bd 28ad a03d 75ee 273e 8c02 34be
000002f0: 9cac 99bd c24b f5bc 439d 91bd cea7 b3bc
00000300: 3145 33bd 78fd 61bd 6a11 d43c 651b 2c3d
00000310: 59b1 f53c 981b 4e3d 4a51 74bb 50f5 323d
00000320: ba30 bb3c db3d 733b 572d 5d3c 1b94 af3d
00000330: 0bb9 9f3d e77b 4fbc 1de5 66bd 59ff 4bbd
00000340: d8b3 283e 82f8 7f3d 5c90 823d 1d0b 0cbd
00000350: f1e7 bc39 3f32 61bd aef3 a63d 1706 153d
00000360: 51e2 3b3d 3279 f1bb ee71 13bd e26d 043d
00000370: ada5 b6bc 5b88 a33a 8850 643d 507a e6bb
00000380: ad3e 83bc 26a1 f5bc 8a5d d8bc 0610 0cbd
00000390: d176 853d f9f0 bebc 8e45 96bc 4153 01bd
000003a0: 162d bfbc 126f 2f3d f7a9 9ab9 d687 1fbd
000003b0: 1cb3 823b f9e4 9abc 4e43 96bd e940 983d
000003c0: d1da fe3b f89e 36bb fd03 8d3d a8b8 01be
000003d0: 9517 353d 89ed 1abc d9cd e8bb f625 c83d
000003e0: b052 a8bd 5b61 d63c dec6 eebc c7e3 17bd
000003f0: e414 06be e57b f43d e2ea 3e3d dd3e d3bb
0.08407008 -0.1379168 -0.03493069 -0.077956036 -0.08430634 0.063146025 -0.1500058 0.0013617277
0.0589092 -0.099977955 0.007686134 0.0014170501 0.041130863 -0.05992713 0.004626679 0.005353775
0.014331708 0.004477848 -0.007960154 0.063017316 0.023291148 0.039642014 -0.004952513 -0.0042741704
-0.002778416 -0.004304746 -0.012853391 0.012712693 0.027394027 -0.0070833787 0.005161938 0.010891047
0.07459736 0.01254625 -0.017495435 -0.033855457 -0.13032255 -0.047375597 0.19761688 -0.050680447
-0.03964772 0.06858954 -0.018398076 0.05010768 -0.025747208 -0.027479162 0.024455661 0.01463836
-0.12940261 0.025647199 -0.053664334 -0.15069994 0.0022987758 0.15216705 -0.021790035 -0.013529657
0.023397582 -0.1350171 0.11057841 0.09547893 0.06519857 -0.00028682983 0.029813468 0.06363656
-0.05873423 0.06428768 -0.041804757 0.082031935 0.0047585135 0.046257522 0.0046136673 0.019640734
0.00895158 0.023558615 0.035207015 0.07764598 0.03924363 -0.028887974 -0.06911883 0.14582948
0.030047547 0.077971876 -0.008857857 -0.0029203226 0.062487405 0.027238727 -0.102151066 0.047621466
0.006414441 6.1012408e-05 0.0725893 -0.010366415 0.032969005 0.039648224 0.06756021 -0.027861774
-0.09459177 0.009868192 0.102372915 -0.1083903 0.12541246 -0.021597369 0.031705365 -0.12827116
0.18726349 0.029070696 -0.03670649 -0.008737718 0.074840695 0.0348718 -0.076110646 0.060072668
-0.047296774 -0.076265454 0.09999948 -0.10374251 -0.09354779 0.0073724515 0.062486585 -0.03299029
0.055231873 -0.06747445 -0.060458843 -0.0067633605 0.027454292 -0.07914088 -0.08962358 0.0846647
0.045437135 0.006225193 -0.032937188 0.010187811 0.06816462 0.043640878 -0.1538062 -0.007353268
0.027467582 0.052706793 -0.12044782 0.008345605 0.03565754 0.097463705 -0.012911001 -0.071541786
-0.041680828 0.0021101239 0.04361695 -0.022406148 0.027982995 0.014947239 0.0071595553 -0.07278125
0.050601713 -0.0040713204 -0.052204583 -0.10208539 0.08624393 -0.061522022 -0.12635586 -0.014538356
-0.03698393 -0.021245709 0.06936185 0.057114944 -0.22242582 0.03241803 -0.05127931 0.0816948
-0.10757321 0.012465926 -0.0005547499 0.046351902 -0.009815454 -0.037817687 0.074297294 -0.005735364
-0.074655265 0.047685485 -0.0490716 -0.029177107 0.025199953 -0.08362668 -0.10863543 0.0052746483
-0.043819796 0.07845527 0.16399558 -0.17579097 -0.07503626 -0.02994335 -0.071100734 -0.021930601
-0.043767158 -0.055173367 0.02588721 0.042018313 0.029991793 0.050319284 -0.0037279897 0.04369098
0.022850383 0.0037115726 0.013499579 0.08573171 0.07798966 -0.012663818 -0.056370843 -0.049804065
0.16474855 0.062492855 0.063751906 -0.034190286 0.00036030964 -0.05497956 0.08151947 0.03638276
0.04587013 -0.007369184 -0.035997324 0.032331355 -0.022295797 0.001247655 0.055740863 -0.0070336238
-0.016021097 -0.029984068 -0.02641179 -0.03419497 0.06516803 -0.023308264 -0.018343713 -0.031573538
-0.023336928 0.042830534 -0.00029499803 -0.038947903 0.0039886367 -0.01890801 -0.07337056 0.07434256
0.00777755 -0.002786575 0.06885526 -0.12668097 0.044211943 -0.009456047 -0.007104617 0.097728655
-0.082188964 0.02616947 -0.029147562 -0.03708246 -0.13093907 0.119376935 0.04661072 -0.006446703

interaction_layers.1.bias f4 [64]
00000000: df5c 36b7 3b24 c134 8c8e 92b6 1180 d633
00000010: a0cf 4a37 8f55 ea37 b34f 0c36 38e1 21b6
00000020: 01b2 8cb6 4554 8ab7 0ba9 8636 00d6 3237
00000030: 21d3 1ab5 e075 d037 fad6 4735 16ea 1635
00000040: c244 73b5 43ae 7335 b6c9 dfb6 1569 66b6
00000050: 4545 a0b6 8972 8b36 08e6 3037 9085 3837
00000060: 2a52 cab6 4f6f 79b6 4a97 5634 84c5 d9b6
00000070: 0279 2eb6 09bd 5535 916b 6c37 49e6 a732
00000080: 2c96 46b6 325a 94b6 d098 3035 878d 3e37
00000090: 16de dc36 667f 1437 5313 5ab5 b7ff aab3
000000a0: 13ae eab6 3ecd 5bb8 89a5 aab6 342e b936
000000b0: ab00 56b6 304a ac36 9045 63b6 d6c6 e935
000000c0: 6d6c d5b4 f51d f9b5 c0a9 66b6 cd6e 7136
000000d0: d323 49b7 67e4 79b7 7a56 5fb6 8180 05b8
000000e0: 86f6 a836 0436 4c36 c60f 88b6 1cbc 08b6
000000f0: 9c8b d636 efd6 00b7 38ed 0a35 6bfa a236
-1.0869669e-05 3.5975413e-07 -4.3677337e-06 9.988447e-08 1.208848e-05 2.7934815e-05 2.0908017e-06 -2.4121964e-06
-4.1930475e-06 -1.6490123e-05 4.0131904e-06 1.06594525e-05 -5.7676704e-07 2.4850422e-05 7.444611e-07 5.6219994e-07
-9.062461e-07 9.077814e-07 -6.6694e-06 -3.4333837e-06 -4.7764356e-06 4.1558565e-06 1.0543976e-05 1.0998352e-05
-6.0296343e-06 -3.7168682e-06 1.9985342e-07 -6.490098e-06 -2.5998456e-06 7.9623766e-07 1.4091741e-05 1.954608e-08
-2.959171e-06 -4.421244e-06 6.578748e-07 1.1357834e-05 6.582365e-06 8.85115e-06 -8.123945e-07 -7.962756e-08
-6.9940083e-06 -5.2404816e-05 -5.0856656e-06 5.5188084e-06 -3.1888874e-06 5.134636e-06 -3.3866127e-06 1.7417722e-06
-3.9753232e-07 -1.8560664e-06 -3.4371478e-06 3.5976293e-06 -1.1988875e-05 -1.4894736e-05 -3.3279925e-06 -3.182935e-05
5.0354893e-06 3.042981e-06 -4.054952e-06 -2.0375073e-06 6.3939497e-06 -7.679438e-06 5.1754205e-07 4.8571287e-06

interaction_layers.1.lin.weight f4 [64, 128]
00000000: 3ff9 5cbd 876f c3ba c6b3 80bc 2a14 fdbc
00000010: 1a58 2dbd 5edc 563b 7fbe 293d 6a23 cebb
00000020: 2456 c4bd b887 87bc 8111 763b 7d2b 003c
00000030: d62b 943c 2553 a3bc 8879 f03b 0bf5 df3b
00000040: b7a1 8ebb 7bda 92bd e52b c33c 235b 28bd
00000050: e72d 873c 2873 b2bb 62a0 66bd c8bb 883c
00000060: 1549 15bd 8a97 ec3a 44e9 65bc 3f92 00be
00000070: 0a74 963d acb4 71bb 0ee2 8fbb aa46 4bba
00000080: ee27 14bd 23ba 2ebd 05f9 573d aa52 423c
00000090: 3d6d 8abd 3cfb 39bc 2501 6fbd 8ece 21bb
000000a0: 3222 fd3c 7c52 8c3d 5df8 5bbd 4c76 293c
000000b0: fa62 fbbb 4787 c53d 1088 223d ac15 3abc
000000c0: 7c63 c2bd 5a59 a53b e0ec f9bb ae2d a33b
000000d0: 6cd4 283d af9d 803c fe50 ad3b 9edb 953d
000000e0: 8398 533d 83d8 bd3c e80b 9fbd dc09 b93c
000000f0: 2fc1 a6bc ea2f dd3c 9568 8dbd c5c0 003c
00000100: 5448 a23d ea22 043a cbfd d3bc cad4 bdbc
00000110: 806f 20bd 0986 03bd 00fb 04bd e008 66bd
00000120: 7516 0c3d 21a4 033d 5225 48bd 96ba 203d
00000130: 8593 633d bd87 103d fcac 8e3d 1662 5ebc
00000140: 083c ffbb b29d 463d a4c0 b93d 64f0 193e
00000150: a627 673d d865 84bc e473 a0b9 4717 283c
00000160: 34b8 c83c cceb 8bbc 1066 e43d 9f18 89bb
00000170: d994 a43d 9938 423c 3995 1d3d 9cc2 82bc
00000180: 14f7 7a3d ed81 893b 0c8b 713b 06b6 ea3c
00000190: 4568 123d 6511 d73b 7e5f 65bb de44 81bd
000001a0: 9a94 973c 06e4 1a3d 6092 92bd dca5 6b3c
000001b0: 1ed5 1ebc d7e8 58bd 7497 69bd 0ca9 0abd
000001c0: 7847 c6bd 4459 943d 6705 6a3c 2490 d2bb
000001d0: 0efd c3bd 821e 0a3b dbf7 2b3d 4da0 d8bc
000001e0: b880 d3bb 8a3d 7a3b e225 06bd 30bb 1bbd
000001f0: 4ef0 f73c d361 dabc 93e1 c13d 457d 19bd
00000200: 7789 1fbd 0108 143b 62a2 95bc 4a71 6abd
00000210: 94f0 9aba d065 113d 0dcd 44bd c246 ab3c
00000220: b7c9 73bb 6342 093c 26c6 5a3d 2b16 333d
00000230: dd3e 473d 28f8 0ebd 5d15 063c 1775 143c
00000240: d0b7 efbc 4597 80bc 2d74 b7bc 4651 50bc
00000250: 1b32 ae3c 58ae b3bb 6abd 25bd d76f 973b
00000260: 92c4 b2bb ec5f 5abb b132 6bbd e61a febb
00000270: 0675 283d 9b04 be3a 0574 c1ba 44a0 f03c
00000280: 09f4 cabc 546d 6cbb e894 003d 3a0d 53bd
00000290: d0fa a93c fdb4 8cbb 6592 2fbd 6398 82bb
000002a0: 535f 283c 994d 963a 61ef 15bd c03f d53c
000002b0: 846c 0cbd 61f9 663d 5ada ad3c b7ac 76bb
000002c0: d917 29ba 1813 563a ac36 333a ca9c 0f3c
000002d0: 42fa b7bc 5f2c c03b 033d dd3c a396 823c
000002e0: 03a2 9f3a 2e6e a03c 90d1 b83b f53e 8f3b
000002f0: 6821 61ba be0b 89bd 4680 923c 1aeb 95bc
00000300: 4113 6f3c 7813 7d3b 58e2 66bc 2aec e5bb
00000310: fd9f 4e3b cf22 8bbc 4e69 1cbd 6d59 98bc
00000320: bcaa 8e3d 117d 813c 7ff8 ee3b ed61 8b3c
00000330: 5573 cd3c 379a a7bc 0e10 953c 2b45 1fbd
00000340: d922 18bc 7903 43bb 8db3 12bc 5cb0 30bd
00000350: 1b00 143d 67dd 8ab7 560e 913b f900 193b
00000360: 1d21 85bc 1de7 4f3c bc2f 793d 7e94 7abc
00000370: 73cb 133d 025a 873c 69f3 febb 6c72 543b
00000380: 4061 9dbd 7846 05bd 1fb0 41bc 3964 613d
00000390: afd9 573a 0a9f 9dbc 9481 8eba 5fe9 5abc
000003a0: 1f41 43bc ade7 4abc 18dd 27bc 8d5e 113d
000003b0: 0b66 8b3d 1934 31bb 6901 eb3c 6dfb 87bc
000003c0: 12ad 64bc 5442 3c3c 2626 d83a 96c3 f5bb
000003d0: 7dd7 983b 8bc3 89ba 97dc 593c 2c93 71bb
000003e0: fb64 46b8 4699 bc3a 9d22 10bd d697 e9bc
000003f0: d885 c4bb 40c5 25bc a6ea d1bc 9eb7 c43a
-0.053948637 -0.0014910557 -0.015710723 -0.030893404 -0.04232035 0.0032785158 0.041441437 -0.006290843
-0.095867425 -0.016544208 0.0037547054 0.007822868 0.018087309 -0.019937107 0.0073387064 0.0068346313
-0.004352774 -0.07170578 0.023824641 -0.04110254 0.01650138 -0.0054458566 -0.056305297 0.016691104
-0.03644665 0.0018050533 -0.014032666 -0.12555788 0.073463514 -0.003688137 -0.0043909615 -0.0007754365
-0.036170892 -0.042657983 0.052727718 0.011860529 -0.06759117 -0.011351403 -0.0583507 -0.0024689767
0.030900095 0.0685167 -0.053703655 0.010343146 -0.007671711 0.09644943 0.03968054 -0.011357706
-0.094916314 0.005046052 -0.0076271147 0.0049798107 0.041218206 0.01570019 0.005289196 0.07317279
0.05165912 0.02317453 -0.07765943 0.02258771 -0.020355789 0.027000386 -0.06904713 0.00785846
0.07923952 0.0005040603 -0.025877854 -0.023172755 -0.039168835 -0.032110248 -0.032465935 -0.056160808
0.034201104 0.032138947 -0.048863716 0.039240442 0.055560607 0.0352857 0.06966588 -0.01357319
-0.0077891387 0.048490234 0.090699464 0.15033108 0.056434296 -0.016161844 -0.00030603923 0.010259456
0.024501897 -0.01708021 0.111522794 -0.0041838433 0.08036203 0.011854314 0.038472388 -0.015961938
0.06127079 0.0041963966 0.003685656 0.028651249 0.03574397 0.006563353 -0.0034999545 -0.063119635
0.018503476 0.037815116 -0.07156825 0.014382806 -0.009694366 -0.05295643 -0.057029203 -0.033852622
-0.096816 0.072435886 0.014283515 -0.0064258743 -0.09569751 0.0021075313 0.04198442 -0.026443625
-0.0064545535 0.0038183653 -0.03275097 -0.038020313 0.030265953 -0.026657974 0.09466853 -0.037472982
-0.038949456 0.0022587779 -0.018265907 -0.057236947 -0.0011820965 0.035497487 -0.048047114 0.020907763
-0.003719909 0.008377644 0.053411625 0.043722313 0.048643935 -0.03490463 0.008183804 0.0090611195
-0.029262453 -0.015697131 -0.022394264 -0.01271469 0.021264127 -0.00548343 -0.040463842 0.0046214866
-0.005455562 -0.0033321334 -0.05742139 -0.0077546714 0.041127227 0.0014497222 -0.0014759308 0.029373296
-0.024774568 -0.0036075907 0.031392008 -0.051526286 0.02074948 -0.0042940364 -0.042864222 -0.003985451
0.010276633 0.0011467218 -0.036605243 0.026031375 -0.034283176 0.05639017 0.021222282 -0.0037639567
-0.0006450392 0.00081662973 0.0006836455 0.008765409 -0.0224582 0.0058646644 0.027006632 0.01594097
0.001217902 0.019583788 0.005640216 0.0043715187 -0.0008588047 -0.06691693 0.017883431 -0.018300582
0.014591993 0.003861634 -0.0140920505 -0.0070166783 0.0031528466 -0.016984371 -0.038186364 -0.018597329
0.06966159 0.015806707 0.0072928066 0.017014468 0.025079409 -0.020459278 0.018196132 -0.038884323
-0.009285652 -0.0029756709 -0.008953941 -0.04313694 0.036132913 -1.655398e-05 0.004426758 0.0023346527
-0.016251141 0.012689379 0.06083654 -0.015294192 0.036082696 0.016522411 -0.0077804816 0.0032416834
-0.076845646 -0.032537907 -0.011821776 0.05502722 0.00082340365 -0.019240875 -0.0010872358 -0.013361304
-0.011917382 -0.012384337 -0.010245584 0.03549056 0.068065725 -0.002703911 0.028687196 -0.016599381
-0.013957279 0.011490423 0.0016490861 -0.0075001223 0.00466436 -0.0010510547 0.013297222 -0.0036861403
-4.7300924e-05 0.0014388941 -0.03518926 -0.028514784 -0.0059974007 -0.010117829 -0.025624584 0.0015008335

out.weight f4 [200, 64]
00000000: b091 7136 3e7b 4135 77b9 beb5 da56 f136
00000010: 8a71 aeb6 fe12 d4b5 0744 7cb6 a737 bcb6
00000020: 4a39 5eb7 d1be 9832 6116 8bb6 e196 1eb8
00000030: f75f f534 3b29 85b7 80dc 1636 5c21 ac31
00000040: 3897 1f36 551f bf35 866d 85b5 1e5f b736
00000050: 2c1c 0eb5 f6dd 1eb7 f5ea ad35 c80b 8eb7
00000060: 7d8e 23b6 6410 42b6 b31a 7ab6 233e a036
00000070: 85dd ebb4 2462 00b7 4a42 4a37 6a4d 8635
00000080: 26f2 3536 e4d2 ce35 0866 eb36 f781 5db5
00000090: 4d69 56b6 c527 bb36 d949 4db5 50a9 9c36
000000a0: fda5 8736 1b0d 32b6 a5fe 51b6 b95d f8b6
000000b0: 258e 98b6 0098 d7b6 2609 4cb5 6e33 a1b7
000000c0: 142d 0eb6 01ac 1eb6 661d 8cb5 67d2 cbb4
000000d0: 074b 4fb6 1044 1236 9ca3 2936 d92c 1137
000000e0: d931 fdb4 eb6b 73b6 0ff3 ab35 f45b 8436
000000f0: 2f06 a9b4 3145 6236 bf57 3336 089b ad36
00000100: a4ab 9035 8aaf aeb6 0f01 23b7 e0aa be37
00000110: 17e4 a0b7 0a04 82b6 567b f9b6 dbe2 8db7
00000120: d8c0 dfb7 21b9 d2b5 9897 6ab7 7bac b1b8
00000130: 0329 30b7 7b72 0bb8 38f5 4b37 dc64 0ab7
00000140: f420 2136 081e 31b5 cf77 74b6 1f68 2237
00000150: 3ed1 ebb6 fd0c 66b7 18a9 8a36 b5f3 dcb7
00000160: 3e44 6835 6dee 70b7 4608 87b6 71af 9b37
00000170: 5a5a 0237 61dd 89b7 1881 9237 d63a 9d35
00000180: ad8f 2c36 b53e 7436 841c 1b37 5cef 8236
00000190: 4825 23b7 22b8 ac37 966c ccb6 ea39 4637
000001a0: 530a 4b37 78ea 30b7 9be5 2bb6 bbad a8b7
000001b0: ce4b c8b6 9c17 89b7 187f aab6 9371 2fb8
000001c0: 5d06 0c36 0835 fa35 4288 0537 e357 4436
000001d0: cfe7 d2b6 5ad0 bc36 7929 6836 a53a b037
000001e0: de8a fd35 ab42 66b7 d708 75b6 2ff6 8636
000001f0: a346 7634 f994 2c37 35fe 6d37 9750 4f37
00000200: aead b037 536d c536 2a69 a1b6 8a9e 0638
00000210: a4bb c7b7 c720 10b7 cc1a 98b7 7a57 bfb7
00000220: 56c9 9bb8 c8de dd35 2ae2 9cb7 cc8f 43b9
00000230: 8886 bd35 2d20 9ab8 4ffc 5436 eb66 b335
00000240: 117a 4c37 2370 2c37 c3e8 6eb4 3a4e 0d38
00000250: 0751 6735 4476 3eb8 3310 9737 0ef3 91b8
00000260: de06 64b7 83cc 60b7 7531 a0b7 fa7a a537
00000270: e87d aab6 b643 32b8 7836 7238 304d c836
00000280: 51c0 8037 5455 0a37 c3f2 0038 4c49 9ab6
00000290: c496 36b7 ee14 c737 358c 6535 d36b 7037
000002a0: 08ee 8337 8ef1 1db7 3cf6 85b7 ec0f fbb7
000002b0: f8fc ccb7 d789 e9b7 80ff bb36 4165 abb8
000002c0: 6fe5 51b7 e358 85b7 b014 0fb7 9a22 03b7
000002d0: ae42 b3b7 81e2 c736 8f07 8e37 8aa3 5938
000002e0: e9a0 90b6 726a 82b7 a1e9 db36 5479 b437
000002f0: e224 22b7 d83d 9737 a68b 3237 59fe af37
00000300: e3a7 e4b6 9e56 e0b7 eedc 7eb8 e904 ff38
00000310: d0a5 a2b8 d7b3 82b7 6189 cfb7 5f74 92b8
00000320: 86b1 08b9 4703 62b8 70f9 7cb8 eed2 a1b9
00000330: 4011 3fb8 5f73 edb8 13c9 5338 7ca9 8bb8
00000340: 91ca aeb6 336b 9bb7 8741 24b8 2234 f137
00000350: c2cb 39b8 2b00 70b8 f443 02b7 ed9c 3ab9
00000360: 411b aa37 21b1 90b8 39c7 ceb6 0386 8838
00000370: a6d2 2038 067a bdb8 d328 9d38 6b0f 8235
00000380: d17b c636 b272 2eb7 8a71 b137 44d0 e937
00000390: cdd3 5db8 97f2 b938 9ee4 12b8 a67e 8138
000003a0: fce9 5d38 7ae0 b5b8 0643 04b7 0284 c0b8
000003b0: cd0a 87b7 f2f9 8eb8 c515 bbb7 5ea2 27b9
000003c0: e301 9237 89f8 2537 7dab 1038 cbde c137
000003d0: 833e 3db8 5325 8738 693d a2b6 5770 8538
000003e0: a761 5837 8255 adb8 eed3 d3b7 1c7a e136
000003f0: 1823 c837 f275 8c38 1c3e 6f38 61b2 9138
3.59966e-06 7.2077444e-07 -1.421008e-06 7.1924705e-06 -5.198822e-06 -1.5800758e-06 -3.7590523e-06 -5.6093154e-06
-1.324557e-05 1.7781902e-08 -4.145128e-06 -3.7810652e-05 4.570463e-07 -1.5874035e-05 2.248009e-06 5.0096514e-09
2.3780867e-06 1.4239728e-06 -9.941148e-07 5.464898e-06 -5.294012e-07 -9.469213e-06 1.2957886e-06 -1.6933205e-05
-2.4371832e-06 -2.8917793e-06 -3.7268444e-06 4.7756052e-06 -4.3933338e-07 -7.652245e-06 1.2055572e-05 1.0006308e-06
2.711205e-06 1.5409573e-06 7.0154238e-06 -8.251804e-07 -3.1949778e-06 5.577664e-06 -7.6475914e-07 4.668873e-06
4.042637e-06 -2.6531695e-06 -3.129165e-06 -7.4018867e-06 -4.546501e-06 -6.4251944e-06 -7.6009235e-07 -1.9216644e-05
-2.1185888e-06 -2.3643954e-06 -1.0439369e-06 -3.7964784e-07 -3.0889075e-06 2.1795313e-06 2.5278196e-06 8.653115e-06
-4.716119e-07 -3.6272638e-06 1.2811232e-06 3.9446113e-06 -3.1483202e-07 3.37169e-06 2.6724153e-06 5.17385e-06
1.077879e-06 -5.2060395e-06 -9.715804e-06 2.2729335e-05 -1.9179699e-05 -3.874772e-06 -7.4351365e-06 -1.6914148e-05
-2.6673471e-05 -1.5700099e-06 -1.3982783e-05 -8.472145e-05 -1.0499966e-05 -3.32468e-05 1.2156837e-05 -8.248924e-06
2.401005e-06 -6.598134e-07 -3.642857e-06 9.680195e-06 -7.0279048e-06 -1.3712092e-05 4.1324056e-06 -2.6339529e-05
8.652604e-07 -1.4360628e-05 -4.0242767e-06 1.8559136e-05 7.76964e-06 -1.643476e-05 1.746467e-05 1.1714535e-06
2.5713628e-06 3.6395334e-06 9.245359e-06 3.902167e-06 -9.724237e-06 2.0589741e-05 -6.092315e-06 1.1815204e-05
1.2102147e-05 -1.0545009e-05 -2.5614634e-06 -2.010806e-05 -5.9692893e-06 -1.6342667e-05 -5.0811905e-06 -4.1829026e-05
2.086533e-06 1.8641886e-06 7.959143e-06 2.9257433e-06 -6.285474e-06 5.627092e-06 3.4594834e-06 2.1008143e-05
1.8890385e-06 -1.3724591e-05 -3.651299e-06 4.0221707e-06 2.2936233e-07 1.0286684e-05 1.4185488e-05 1.2356925e-05
2.106171e-05 5.8837845e-06 -4.8104166e-06 3.209574e-05 -2.3810026e-05 -8.5907e-06 -1.813229e-05 -2.2809709e-05
-7.428478e-05 1.6530621e-06 -1.8701965e-05 -0.00018650218 1.4120751e-06 -7.3492854e-05 3.1737325e-06 1.3366492e-06
1.2187768e-05 1.0278108e-05 -2.2250155e-07 3.3689874e-05 8.6172116e-07 -4.5409673e-05 1.8008146e-05 -6.959411e-05
-1.3591458e-05 -1.3399057e-05 -1.9096517e-05 1.9726798e-05 -5.081052e-06 -4.2501568e-05 5.7748024e-05 5.9694503e-06
1.5348343e-05 8.245308e-06 3.0743668e-05 -4.5980905e-06 -1.0883148e-05 2.3732395e-05 8.5513176e-07 1.43302195e-05
1.5727259e-05 -9.414171e-06 -1.5969497e-05 -2.9928946e-05 -2.4436493e-05 -2.7839951e-05 5.6027784e-06 -8.1727754e-05
-1.251079e-05 -1.5896227e-05 -8.528281e-06 -7.816265e-06 -2.1369513e-05 5.9570307e-06 1.6931239e-05 5.188914e-05
-4.310267e-06 -1.5546775e-05 6.5539066e-06 2.151417e-05 -9.66454e-06 1.8029401e-05 1.0642141e-05 2.0980066e-05
-6.814474e-06 -2.6743215e-05 -6.0764076e-05 0.00012160262 -7.755647e-05 -1.5580952e-05 -2.4740295e-05 -6.983498e-05
-0.00013036103 -5.388565e-05 -6.031379e-05 -0.00030865468 -4.5554014e-05 -0.0001132253 5.0493585e-05 -6.6596054e-05
-5.209186e-06 -1.8527358e-05 -3.9161674e-05 2.8753715e-05 -4.42972e-05 -5.7220615e-05 -7.764425e-06 -0.00017796802
2.027827e-05 -6.899448e-05 -6.162471e-06 6.509947e-05 3.8343154e-05 -9.034951e-05 7.4939475e-05 9.690242e-07
5.915274e-06 -1.0397913e-05 2.1152915e-05 2.7872746e-05 -5.288776e-05 8.866673e-05 -3.502203e-05 6.1747895e-05
5.290842e-05 -8.6725646e-05 -7.883418e-06 -9.179862e-05 -1.6098284e-05 -6.8176436e-05 -2.2302274e-05 -0.00015986848
1.7405435e-05 9.892633e-06 3.4491986e-05 2.3111139e-05 -4.511933e-05 6.444254e-05 -4.8351253e-06 6.362859e-05
1.289734e-05 -8.26521e-05 -2.5251848e-05 6.719738e-06 2.38582e-05 6.697689e-05 5.7039884e-05 6.9473645e-05

out.bias f4 [200]
00000000: dd59 02b7 c239 c7b8 c137 3fb8 c334 03ba
00000010: eaa7 9ab9 66e5 f9b9 d006 ffb9 20d1 5bba
00000020: 1fea 1abb 3cd6 12bb 6cad ffbb 4b08 56bb
00000030: 3f9b 8cbb aef3 b0bb 8cd2 93bb 2f4b b1bb
00000040: f2d4 7dbb 1140 afbb 0262 c4bb 5b2a a5bb
00000050: 948f e0bb 1dce 06bc d42e e6bb 6355 fbbb
00000060: 88f0 c8bb b292 5ebb 7107 fab9 075a 343b
00000070: b923 1b3c f8c3 5b3c 0641 9f3c c7fe e73c
00000080: 744d 1a3d 9046 223d 23dd 453d 233a 813d
00000090: ded4 953d 83a5 a43d 5741 d93d 69af fe3d
000000a0: d5af 113e 99f5 243e 59c8 353e e63e 423e
000000b0: 4f6f 503e 1e8b 563e f394 5e3e 87f2 6f3e
000000c0: a5e9 613e c84a 743e a1ae 693e 6536 623e
000000d0: 5a49 6a3e 08d4 523e 486a 503e 2492 413e
000000e0: 7859 2f3e 1565 1c3e 63bf 173e 7dbd 093e
000000f0: 7cfa 053e 94d9 f83d 0275 ef3d 6fa9 ec3d
00000100: b371 d83d 08d4 d83d 4e56 bb3d 055e c63d
00000110: 7f90 ca3d e66e b43d 31cd 973d 0857 9d3d
00000120: 7901 af3d 57a0 9b3d 932b af3d 81f7 9c3d
00000130: de96 ab3d e72e b23d e33b aa3d 85ba b13d
00000140: 6a48 da3d 031b f83d 096f 003e 284a 0d3e
00000150: 9ea7 1b3e e432 213e ab8b 303e 1a90 343e
00000160: b108 3e3e 2c67 3b3e 3840 3b3e e89e 3b3e
00000170: 35b2 373e d45b 303e 6566 2c3e f007 293e
00000180: a66c 243e 3d56 1a3e 1f1a 1b3e 9c66 1d3e
00000190: 04c9 193e 8578 1f3e 6a97 233e 43e7 263e
000001a0: 1c8c 263e c66e 2a3e ed14 323e 73b9 333e
000001b0: 2e1a 3d3e 13f4 423e 258f 453e f8e6 4a3e
000001c0: 3b98 4a3e 6ef9 4f3e b259 4f3e a174 623e
000001d0: 8415 5c3e 47aa 613e 554d 643e 1ae2 6a3e
000001e0: 0462 7b3e 106a 793e 54d1 7d3e f703 7a3e
000001f0: 468f 833e 9669 823e 7dab 813e 24f3 853e
00000200: 9abc 843e 4bb8 843e b9b4 813e 061b 813e
00000210: 687f 803e 6f6d 7d3e 9ac4 773e 7e24 813e
00000220: 7d1e 7d3e aa5e 7b3e 0479 773e 499b 723e
00000230: 71ba 743e 05e6 6f3e 0c5c 5b3e 63ee 543e
00000240: 60a0 5a3e eb35 593e 8a99 523e 4f41 593e
00000250: ebc9 493e 8090 4f3e 992f 433e e515 4e3e
00000260: 195e 493e ad27 3b3e 456d 403e d6b1 3e3e
00000270: 5ff9 3c3e b73a 3e3e 0bfa 383e bb96 383e
00000280: 053b 373e 06bf 3a3e e5ed 333e 4aa2 303e
00000290: 8be2 313e 1b04 2d3e 40a0 2c3e 890a 2c3e
000002a0: 785b 253e 4d8a 283e 337e 263e 2396 233e
000002b0: 33c1 283e e921 283e 974b 2c3e 3f2a 2b3e
000002c0: 68f5 303e 065e 2d3e 2b19 343e 4803 383e
000002d0: 909a 363e 52c0 3f3e 5b20 443e fd79 423e
000002e0: b579 423e 2b98 423e 6669 403e 30ed 433e
000002f0: 64bc 3b3e a0b6 3c3e 740d 333e e111 3a3e
00000300: e47e 393e c724 373e 5827 343e 4ed5 333e
00000310: 38b3 313e ac0c 323e 97a4 303e ce04 2e3e
-7.769527e-06 -9.499818e-05 -4.5589873e-05 -0.00050051155 -0.00029498275 -0.00047663896 -0.00048642466 -0.0008385349
-0.0023638082 -0.0022405526 -0.007802656 -0.0032658752 -0.0042909677 -0.0054001426 -0.004511183 -0.005410574
-0.0038731662 -0.0053482135 -0.0059931288 -0.0050404496 -0.0068530533 -0.008227852 -0.0070246253 -0.007670091
-0.006132189 -0.003396195 -0.0004768926 0.002751948 0.009468966 0.013413422 0.019440185 0.02831973
0.03767152 0.039618075 0.048306596 0.06309917 0.07315992 0.08039381 0.10608166 0.124358006
0.14227231 0.16109313 0.17752208 0.18969306 0.20354961 0.20951506 0.21736507 0.2343236
0.22061785 0.23856652 0.22820522 0.22091062 0.22879544 0.20588696 0.20353043 0.18903404
0.17123973 0.15272935 0.14819102 0.1345119 0.13083833 0.12150875 0.11692239 0.115557544
0.105685614 0.10587317 0.09147321 0.096859016 0.09890842 0.08810215 0.07412184 0.076826155
0.08545203 0.07598942 0.08553233 0.07664395 0.08378385 0.08700352 0.08312204 0.08678154
0.10658343 0.12114527 0.12542357 0.1379782 0.1520066 0.1574207 0.17240779 0.17633095
0.18558003 0.18301076 0.18286216 0.18322337 0.17939074 0.1722253 0.16835935 0.16506934
0.16057071 0.1507196 0.15146683 0.15371174 0.15018088 0.15573318 0.15975729 0.16299157
0.16264385 0.16643819 0.17390795 0.17551212 0.18467018 0.1903842 0.19292887 0.1981467
0.19784634 0.20309994 0.2024906 0.22114803 0.21492583 0.22037612 0.22295125 0.22937813
0.24549109 0.24356866 0.24786884 0.24415575 0.25695246 0.2547118 0.25326148 0.26162064
0.25925142 0.25921854 0.25333193 0.2521593 0.25097203 0.24748777 0.24196091 0.25223154
0.24718662 0.2454783 0.24167258 0.23692049 0.23899247 0.23427589 0.21421832 0.20794062
0.2135024 0.21211974 0.20566383 0.2121632 0.19705932 0.20269966 0.19061126 0.2012554
0.19664802 0.18276854 0.18791683 0.18622527 0.18454503 0.18577085 0.18064134 0.18026249
0.17893608 0.18236932 0.17571218 0.17249408 0.17371576 0.16896097 0.16858006 0.16800894
0.16148174 0.16459008 0.16259079 0.15975241 0.1647995 0.16419186 0.1682571 0.16715334
0.17281115 0.16930398 0.17587726 0.17970002 0.17832398 0.18725708 0.19152968 0.18991847
0.1899174 0.1900336 0.18790206 0.19133449 0.18333584 0.18429041 0.174856 0.18170883
0.18114811 0.17885123 0.17593133 0.17561838 0.17353523 0.17387646 0.17250286 0.1699402
