best_model/xasnet_gnn_model_13.pt (torch, 102230 bytes, 14 tensors)

batch_norms.0.weight f4 [128]
0.14531752 0.18486689 0.23914292 0.5529493 0.44717216 0.23595475 0.1531326 0.22015247
0.1428379 0.3605957 0.2507496 0.18826419 0.16475424 0.32569182 0.15692645 0.26780635
0.12181757 0.20376603 0.15424356 0.15372378 0.27157566 0.23386918 0.17702581 0.23127148
0.23402467 0.17749447 0.16224188 0.24184442 0.2325655 0.18617493 0.25745547 0.213496
0.3533869 0.2101718 0.13999222 0.36792538 0.19974385 0.63313955 0.12772466 0.22904882
0.14577904 0.18976942 0.22005007 0.2472658 0.25664392 0.1895908 0.17030372 0.1931592
0.29480398 0.1812081 0.18988967 0.16888812 0.47141913 0.5110445 0.10023494 0.25246814
0.17484584 0.13665713 0.1800639 0.2310956 0.2631859 0.16024017 0.4041769 0.31520143
0.18777329 0.13160373 0.2577906 0.24739581 0.14415845 0.2294911 0.2616516 0.18586752
0.17942996 0.5194891 0.24907054 0.2649815 0.28820664 0.36368018 0.18701516 0.124297425
0.25554043 0.1694745 0.28128368 0.18103507 0.1678768 0.20473343 0.34036043 0.1478875
0.21700305 0.21563385 0.18473774 0.23171844 0.27998933 0.23038349 0.27055055 0.36725333
0.17789318 0.13153379 0.35552943 0.22836079 0.15034449 0.19281511 0.27598828 0.23502165
0.20807774 0.3377599 0.11484612 0.16564876 0.28829578 0.30366662 0.2889339 0.28005865
0.5516428 0.2085701 0.14727427 0.1858404 0.12545598 0.12469148 0.23034827 0.7369682
0.16772935 0.35074565 0.25252303 0.20360158 0.24332152 0.14343098 0.23089556 0.20652084
00000000: 1ece 143e bf4d 3d3e e2e1 743e 168e 0d3f
00000010: c0f3 e43e 1f9e 713e cbce 1c3e a66f 613e
00000020: 1944 123e 00a0 b83e 4062 803e 54c8 403e
00000030: 56b5 283e 14c1 a63e 54b1 203e ea1d 893e
00000040: 7d7b f93d 0ba8 503e 06f2 1d3e c469 1d3e
00000050: f70b 8b3e 677b 6f3e 4146 353e 6ed2 6c3e
00000060: 2aa4 6f3e 1cc1 353e bc22 263e 10a6 773e
00000070: a725 6e3e a4a4 3e3e 34d1 833e b29e 5a3e
00000080: 21ef b43e 4737 573e 1f5a 0f3e b760 bc3e
00000090: a789 4c3e 6f15 223f 41ca 023e c68b 6a3e
000000a0: 1a47 153e ea52 423e ce54 613e 3f33 7d3e
000000b0: d566 833e 1724 423e 1964 2e3e 86cb 453e
000000c0: 8cf0 963e 9e8e 393e 7072 423e 02f1 2c3e
000000d0: d95d f13e d0d3 023f fa47 cd3d 8143 813e
000000e0: ca0a 333e d9ef 0b3e ac62 383e 53a4 6c3e
000000f0: 4dc0 863e 0016 243e 46f0 ce3e 1562 a13e
00000100: a447 403e 21c3 063e 21fd 833e 5455 7d3e
00000110: 469e 133e b7ff 6a3e 33f7 853e 0e54 3e3e
00000120: 7dbc 373e 3dfd 043f 590c 7f3e a8ab 873e
00000130: d28f 933e 4a34 ba3e e780 3f3e a68f fe3d
00000140: 32d6 823e b98a 2d3e 6a04 903e 4261 393e
00000150: e5e7 2b3e a4a5 513e b943 ae3e d26f 173e
00000160: 0c36 5e3e 1fcf 5c3e e42b 3d3e 9947 6d3e
00000170: c35a 8f3e a6e9 6b3e 9a85 8a3e a108 bc3e
00000180: a129 363e cbb0 063e f407 b63e 69d7 693e
00000190: e8f3 193e 5371 453e 564e 8d3e 84a9 703e
000001a0: 5512 553e deee ac3e 7134 eb3d d49f 293e
000001b0: 819b 933e 317a 9b3e 25ef 933e d963 8f3e
000001c0: 7638 0d3f 6693 553e 11cf 163e f24c 3e3e
000001d0: 8877 003e 3f5e ff3d 6be0 6b3e f3a9 3c3f
000001e0: 3ec1 2b3e ef94 b33e b34a 813e ef7c 503e
000001f0: 4729 793e 92df 123e e36f 6c3e 337a 533e

batch_norms.0.bias f4 [128]
-0.026283678 -0.037513364 -0.13169615 -0.0563915 -0.040610228 -0.06626999 -0.06470124 -0.07549956
-0.02618356 -0.06123607 -0.16162913 -0.06799862 -0.11292332 -0.13335973 -0.09709497 -0.07588262
0.009361315 -0.042740967 -0.10281787 -0.09851681 -0.08656161 -0.01797115 -0.10425782 -0.12828305
-0.15773559 -0.030363413 -0.022081772 -0.099352 -0.14465755 -0.0077427933 -0.12611212 -0.06424125
-0.16765839 -0.1368908 -0.0148971025 -0.07915682 -0.07796002 -0.1386388 -0.022917476 -0.07979175
-0.012905493 -0.09218088 -0.24674053 -0.13220996 -0.17127755 -0.16469815 -0.10492956 -0.04707379
-0.15918195 -0.04323731 -0.08192117 -0.065667935 -0.07295035 -0.13008699 -0.013452228 -0.1295684
-0.10627278 -0.053225663 -0.0617292 -0.07316406 -0.1766131 -0.07095501 -0.10695567 -0.072677396
-0.19816947 -0.07589664 -0.11389894 -0.12280012 -0.035726022 -0.04951996 -0.18256074 -0.09039514
-0.07167451 -0.11055762 -0.21708064 -0.18615459 -0.102776684 -0.02708943 -0.069696486 -0.034794692
-0.11867627 -0.0927507 -0.051814705 -0.11019722 -0.072851256 -0.09274553 -0.09066386 -0.05222755
-0.09016751 -0.08278581 -0.047688477 -0.09570109 -0.1666697 -0.15959911 -0.23178443 -0.09688787
-0.043470502 -0.118725374 -0.049586542 -0.22924116 -0.13290009 -0.03674863 -0.081329554 -0.05513744
-0.11628909 -0.028834721 -0.036021225 0.005001496 -0.09272216 -0.05703479 -0.1474386 -0.096667245
-0.02065221 -0.10550709 -0.04987931 -0.1299291 -0.033978883 0.00868928 -0.058145013 -0.04551834
-0.10936477 -0.24782515 -0.0927759 -0.055858966 -0.15932074 -0.09711705 -0.09430607 -0.112999775
00000000: de50 d7bc 9da7 19bd 5bdb 06be c6fa 66bd
00000010: e956 26bd 8fb8 87bd 1582 84bd 839f 9abd
00000020: e87e d6bc acd2 7abd 1b82 25be dc42 8bbd
00000030: 5744 e7bd 748f 08be bad9 c6bd 5968 9bbd
00000040: 3360 193c 2711 2fbd 2d92 d2bd 2ec3 c9bd
00000050: 3747 b1bd 3c38 93bc 2085 d5bd a25c 03be
00000060: 7085 21be b1bc f8bc d5e4 b4bc 1079 cbbd
00000070: 1c21 14be 42b7 fdbb 8923 01be eb90 83bd
00000080: a4ae 2bbe 1a2d 0cbe fa12 74bc f91c a2bd
00000090: 81a9 9fbd 54f7 0dbe 6ebd bbbc db69 a3bd
000000a0: 9071 53bc 54c9 bcbd 8da9 7cbe 0c62 07be
000000b0: 6263 2fbe a2a6 28be 4fe5 d6bd 72d0 40bd
000000c0: 9800 23be 9b19 31bd 49c6 a7bd e97c 86bd
000000d0: fe66 95bd 8635 05be bc66 5cbc 94ad 04be
000000e0: 8ba5 d9bd 2703 5abd c2d7 7cbd 0ad7 95bd
000000f0: 11da 34be dc50 91bd 930b dbbd e3d7 94bd
00000100: f0ec 4abe b36f 9bbd d943 e9bd a17e fbbd
00000110: 7355 12bd 71d5 4abd 34f1 3abe 1621 b9bd
00000120: 16ca 92bd 096c e2bd 634a 5ebe 4f9f 3ebe
00000130: 957c d2bd a7ea ddbc 08bd 8ebd e184 0ebd
00000140: 8b0c f3bd 14f4 bdbd a83b 54bd 15af e1bd
00000150: 0a33 95bd 5ef1 bdbd f9ad b9bd 8eec 55bd
00000160: bea9 b8bd 9b8b a9bd fe54 43bd effe c3bd
00000170: 76ab 2abe f36d 23be e658 6dbe 266d c6bd
00000180: 200e 32bd 4a26 f3bd 421b 4bbd 32be 6abe
00000190: f616 08be bb85 16bd 1c90 a6bd ccd7 61bd
000001a0: f928 eebd cb36 ecbc fe8a 13bd 97e3 a33b
000001b0: 1ee5 bdbd 509d 69bd 25fa 16be 7af9 c5bd
000001c0: d32e a9bc 1a14 d8bd 3f4e 4cbd 220c 05be
000001d0: 712d 0bbd 7b5d 0e3c 7729 6ebd 7071 3abd
000001e0: a3fa dfbd e0c5 7dbe 4b01 bebd 5fcc 64bd
000001f0: fa24 23be 4ee5 c6bd 8a23 c1bd 6d6c e7bd

batch_norms.0.running_mean f4 [128]
0.10056257 -0.22086456 0.14005639 -0.1751195 -0.18661186 -0.07415405 0.13739754 -0.012574843
0.020391254 -0.20532319 0.056134008 -0.041441042 0.031670175 -0.12709214 -0.121976644 -0.13772717
0.09125534 -0.107419826 -0.043718576 0.035205286 -0.08332972 -0.049408406 -0.01930961 -0.010934012
0.17122056 -0.10499369 0.07410744 0.032920837 0.027861472 -0.08548247 0.11331309 -0.035378426
-0.13021642 0.25209808 -0.032217924 -0.09529735 -0.1755626 -0.26396862 -0.051326446 0.16099398
-0.04533284 0.011742703 0.19359086 -0.087188855 -0.10870362 0.005360406 -0.0034474658 -0.24018064
0.10064062 -0.0005773264 -0.032837857 -0.047470625 -0.24986504 -0.25174958 -0.09227332 -0.16346623
-0.09277457 0.024821267 -0.06444941 -0.052407697 0.16619591 -0.091398135 -0.15442732 -0.11803472
0.0960459 0.01566366 -0.07449054 -0.1266601 -0.18883684 -0.1736359 0.031599894 0.05816395
-0.05363583 -0.29297802 0.20573163 0.06749535 -0.07229867 0.2793193 -0.22718498 0.15625761
0.009907862 -0.05358636 -0.32117504 0.121228665 -0.11023098 -0.040623453 -0.074279904 -0.13394225
0.06405166 -0.044986628 0.116914235 0.111168124 0.14666814 0.09385181 0.1761794 -0.15070815
0.0010883474 0.03560175 -0.28467804 0.06576076 0.15271948 0.08186287 -0.0991232 -0.06353355
0.0436458 -0.2577145 -0.07866495 -0.13917515 -0.07423475 -0.14171082 -0.031144138 -0.021027938
-0.30198446 0.020571856 -0.07101964 -0.0031659189 -0.23839489 -0.031900976 -0.19391285 -0.31969717
0.088976145 -0.014935206 -0.081478015 -0.13058762 0.08496974 0.011228729 0.042814255 0.032162957
00000000: c0f3 cd3d 522a 62be f16a 0f3e 8752 33be
00000010: 2e17 3fbe 14de 97bd f1b1 0c3e b706 4ebc
00000020: 8f0b a73c 3e40 52be c6ec 653d 15be 29bd
00000030: 96b8 013d 7124 02be e4ce f9bd 5a08 0dbe
00000040: 14e4 ba3d edfe dbbd 4012 33bd 6b33 103d
00000050: c6a8 aabd 7860 4abd 302f 9ebc 9224 33bc
00000060: 7154 2f3e ef06 d7bd a4c5 973d 00d8 063d
00000070: be3d e43c 6f11 afbd b110 e83d f8e8 10bd
00000080: 7457 05be 0013 813e f1f6 03bd 422b c3bd
00000090: afc6 33be e526 87be ae3b 52bd 9bdb 243e
000000a0: eeae 39bd 7764 403c af3c 463e 1290 b2bd
000000b0: 01a0 debd 58a6 af3b e1ee 61bb eaf1 75be
000000c0: ab1c ce3d b857 17ba fd80 06bd 8f70 42bd
000000d0: 9fdc 7fbe 52e5 80be cbf9 bcbd b163 27be
000000e0: 9800 bebd f855 cb3c 0dfe 83bd 74a9 56bd
000000f0: 432f 2a3e f22e bbbd 3222 1ebe 30bc f1bd
00000100: b6b3 c43d 1351 803c 7f8e 98bd 2fb3 01be
00000110: 725e 41be 9ccd 31be e46e 013d 523d 6e3d
00000120: 3eb1 5bbd 3701 96be 50ab 523e 013b 8a3d
00000130: 5311 94bd f002 8f3e 2ea3 68be ff01 203e
00000140: 9654 223c 5f7d 5bbd 0e71 a4be bc46 f83d
00000150: c8c0 e1bd c764 26bd 1020 98bd 2828 09be
00000160: 842d 833d e643 38bd bb70 ef3d 1dac e33d
00000170: 2c30 163e 6135 c03d 5f68 343e 3d53 1abe
00000180: e1a6 8e3a 24d3 113d 52c1 91be 94ad 863d
00000190: 7f62 1c3e b8a7 a73d 1b01 cbbd e11d 82bd
000001a0: f0c5 323d 28f3 83be 171b a1bd ee83 0ebe
000001b0: 6308 98bd a41c 11be fe21 ffbc c842 acbc
000001c0: b59d 9abe 4f86 a83c bf72 91bd 4e7b 4fbb
000001d0: ca1d 74be 99aa 02bd 1791 46be 59af a3be
000001e0: 2039 b63d cbb2 74bc f2dd a6bd c3b8 05be
000001f0: 9d04 ae3d b4f8 373c 005e 2f3d 4ebd 033d

batch_norms.0.running_var f4 [128]
0.0011066517 0.0033277583 0.004548056 0.007826069 0.0069253063 0.007519496 0.0007256441 0.0049470356
0.002922851 0.006308143 0.005958828 0.0050643883 0.005121412 0.008202624 0.0032378973 0.0067319977
0.0061004446 0.005401177 0.0030550384 0.0040043676 0.007335077 0.007913426 0.0030858687 0.0068326555
0.005016433 0.003884189 0.008069192 0.00852049 0.005081746 0.0069379164 0.005682643 0.008060475
0.0059639183 0.004107988 0.005429979 0.007272354 0.00756957 0.010013698 0.003921432 0.0031145301
0.0037805177 0.0037781335 0.001468913 0.0023852275 0.008072979 0.0055234837 0.0034883325 0.0050052437
0.009396927 0.008127301 0.0045450376 0.0031919682 0.0064278776 0.007764883 0.0028095806 0.0051610162
0.0038450917 0.005006654 0.0033289923 0.003297663 0.0037943013 0.001263083 0.005983972 0.004508088
0.0020965629 0.0041842777 0.009097696 0.006519301 0.0017886027 0.0048791254 0.0025476287 0.0015722469
0.00443469 0.008863252 0.002505961 0.0021901587 0.0039653913 0.0056945416 0.004995491 0.0024358095
0.0033615322 0.0044403044 0.0063618156 0.0014777017 0.0038320033 0.0034165385 0.00511701 0.0023703377
0.008254887 0.0016957695 0.003705838 0.004864402 0.006477572 0.0075316075 0.0041684997 0.011043556
0.010102335 0.006354638 0.008205347 0.0043026214 0.011181512 0.0040734312 0.0024115895 0.004022035
0.0018059936 0.0064215884 0.0020189763 0.006624195 0.0044303467 0.0039084186 0.007792718 0.008523836
0.011662198 0.007536026 0.0075854803 0.004171074 0.0074359863 0.0056644296 0.0033941488 0.010155557
0.005782243 0.0069469362 0.0073151533 0.0055871624 0.0050587063 0.00288153 0.004168694 0.0056543583
00000000: 120d 913a 8516 5a3b dc07 953b ea38 003c
00000010: aeed e23b 1b66 f63b 2739 3e3a be1a a23b
00000020: 4d8d 3f3b 8ab4 ce3b 4642 c33b 2bf3 a53b
00000030: 85d1 a73b 4c64 063c e732 543b 1798 dc3b
00000040: 3de6 c73b 5bfc b03b 0a37 483b 1237 833b
00000050: 165b f03b 50a7 013c 493c 4a3b 78e4 df3b
00000060: e460 a43b e18d 7e3b a534 043c 8699 0b3c
00000070: c684 a63b 7657 e33b 7735 ba3b 1510 043c
00000080: f96c c33b 4d9c 863b f7ed b13b ed4c ee3b
00000090: 280a f83b 7e10 243c 5b7f 803b 251d 4c3b
000000a0: 90c2 773b 909a 773b 8b88 c03a 7a51 1c3b
000000b0: 8744 043c 57fe b43b 829c 643b 0703 a43b
000000c0: 92f5 193c 5f28 053c 8aee 943b 5730 513b
000000d0: f2a0 d23b 8f70 fe3b f120 383b be1d a93b
000000e0: effd 7b3b dc0e a43b 392b 5a3b 9b1d 583b
000000f0: d0a9 783b 088e a53a 3215 c43b 95b8 933b
00000100: 7d66 093b 441c 893b 810e 153c dc9f d53b
00000110: 8c6f ea3a 12e1 9f3b 1ef6 263b da13 ce3a
00000120: e050 913b 2c37 113c 0d3b 243b c488 0f3b
00000130: 1df0 813b 4799 ba3b 37b1 a33b 1aa2 1f3b
00000140: 274d 5c3b f97f 913b c776 d03b 71af c13a
00000150: 5922 7b3b 01e8 5f3b 97ac a73b ab57 1b3b
00000160: 813f 073c 9544 de3a a5dd 723b 9065 9f3b
00000170: d041 d43b b4cb f63b e997 883b 08f0 343c
00000180: 4484 253c 913a d03b b86f 063c 01fd 8c3b
00000190: a932 373c 6b7a 853b c20b 1e3b 46cb 833b
000001a0: 17b7 ec3a 306c d23b cd50 043b c60f d93b
000001b0: 712c 913b 3112 803b 0e5a ff3b 8fa7 0b3c
000001c0: ce12 3f3c c5f0 f63b 9f8f f83b 81ad 883b
000001d0: 93a9 f33b ae9c b93b 5e70 5e3b 7e63 263c
000001e0: f878 bd3b 20a3 e33b f4b3 ef3b 8414 b73b
000001f0: 81c3 a53b 0dd8 3c3b 8a99 883b 3248 b93b

batch_norms.1.weight f4 [64]
0.6586028 0.5092512 0.6225976 0.72675395 0.5584738 0.5135794 0.6247574 0.4967679
0.5836712 0.48411053 0.67971474 0.65851027 0.63841975 0.61697054 0.57660294 0.4663733
0.59346396 0.47320765 0.5848687 0.7424848 0.59592366 0.61084753 0.70754313 0.61603343
0.6773176 0.50040704 0.6624573 0.5179107 0.54683554 0.5182788 0.73962116 0.5619622
0.5871458 0.6512043 0.57466066 0.48588273 0.54122055 0.52972937 0.6986894 0.72117805
0.57506824 0.60660964 0.6210393 0.68579185 0.5600077 0.5402942 0.5353763 0.619805
0.5306307 0.6200823 0.61478704 0.5713473 0.5992964 0.62665373 0.63420683 0.5718389
0.5897323 0.60886914 0.5629902 0.570265 0.6079263 0.49591938 0.52784264 0.6598413
00000000: 319a 283f 495e 023f 8e62 1f3f 8c0c 3a3f
00000010: 24f8 0e3f f179 033f 1af0 1f3f 5d58 fe3e
00000020: 7a6b 153f 56dd f73e c901 2e3f 2194 283f
00000030: 7a6f 233f c8f1 1d3f 409c 133f 7bc8 ee3e
00000040: 41ed 173f 4648 f23e f5b9 153f 7c13 3e3f
00000050: 748e 183f 8160 1c3f 8c21 353f 5eb4 1d3f
00000060: b064 2d3f ad1a 003f cd96 293f cc95 043f
00000070: 6afd 0b3f ebad 043f d057 3d3f c1dc 0f3f
00000080: 304f 163f 53b5 263f f61c 133f 9fc5 f83e
00000090: 6e8d 0a3f 589c 073f 4fdd 323f 209f 383f
000000a0: ac37 133f c54a 1b3f 6efc 1e3f 0e90 2f3f
000000b0: aa5c 0f3f b850 0a3f 6c0e 093f 8aab 1e3f
000000c0: 6ad7 073f b7bd 1e3f af62 1d3f d143 123f
000000d0: 7d6b 193f 616c 203f 615b 223f 0964 123f
000000e0: b2f8 163f d9de 1b3f 2020 103f e3fc 113f
000000f0: 0fa1 1b3f 25e9 fd3e b220 073f 5ceb 283f

batch_norms.1.bias f4 [64]
-0.1554177 -0.27229822 -0.22417808 -0.099524826 -0.23547298 -0.29974788 -0.17953058 -0.2784733
-0.23493423 -0.31417918 -0.12286928 -0.11437589 -0.1893503 -0.22382946 -0.24765141 -0.32043707
-0.18997544 -0.33009353 -0.23262647 -0.15132602 -0.20271707 -0.17922048 -0.11376776 -0.20928717
-0.15647359 -0.28357893 -0.15616214 -0.214899 -0.27497733 -0.23409335 -0.11570662 -0.21029365
-0.19490911 -0.19405396 -0.23745726 -0.3119467 -0.2943554 -0.2603534 -0.15206856 -0.12713817
-0.2356276 -0.22228886 -0.1782045 -0.115832426 -0.24574062 -0.28666988 -0.28569105 -0.18376374
-0.27783856 -0.2158678 -0.17407544 -0.23187318 -0.22242042 -0.18502545 -0.17620523 -0.20019306
-0.21614663 -0.18809676 -0.2527048 -0.23435153 -0.24026994 -0.30237344 -0.26170188 -0.17879428
00000000: d125 1fbe ac6a 8bbe f08e 65be acd3 cbbd
00000010: d41f 71be 8e78 99be ddd6 37be 0d94 8ebe
00000020: 9992 70be 18dc a0be e4a2 fbbd e83d eabd
00000030: 0ce5 41be 8d33 65be 5598 7dbe 5410 a4be
00000040: ec88 42be 0502 a9be a235 6ebe 35f5 1abe
00000050: 1095 4fbe 9385 37be 12ff e8bd 604f 56be
00000060: 9d3a 20be 4231 91be f8e8 1fbe 7c0e 5cbe
00000070: d4c9 8cbe 2bb6 6fbe 98f7 ecbd 3857 57be
00000080: 4196 47be 15b6 46be ff27 73be 7ab7 9fbe
00000090: c0b5 96be 0a4d 85be dcb7 1bbe 8230 02be
000000a0: 5d48 71be b19f 63be 3e7b 36be 8d39 edbd
000000b0: 6ea3 7bbe 65c6 92be 1946 92be 902c 3cbe
000000c0: db40 8ebe 730c 5dbe d540 32be 2a70 6dbe
000000d0: 2ec2 63be 5077 3dbe 256f 34be 69ff 4cbe
000000e0: 8b55 5dbe 709c 40be 8662 81be d9f9 6fbe
000000f0: 5309 76be b1d0 9abe cafd 85be d915 37be

batch_norms.1.running_mean f4 [64]
-0.1724429 -0.055874966 -0.1405049 -0.20960903 -0.13841884 -0.16335079 -0.16011477 -0.14885291
-0.14847481 -0.10565695 -0.20453139 -0.17410745 -0.14631353 -0.1435848 -0.14960152 -0.09461609
-0.13697562 -0.15155014 -0.20244041 -0.22716291 -0.18737793 -0.12138335 -0.1893559 -0.15817009
-0.17106202 -0.056778092 -0.21453886 -0.104659036 -0.19022073 -0.110078 -0.21940126 -0.12817578
-0.15094458 -0.17283861 -0.12721208 -0.1595647 -0.16280147 -0.11401752 -0.21196909 -0.26655766
-0.1771492 -0.14440978 -0.14536166 -0.220722 -0.12841147 -0.12453371 -0.22467844 -0.17620431
-0.13809039 -0.16681899 -0.16344687 -0.18125135 -0.11649387 -0.15751684 -0.20008846 -0.17812845
-0.13695529 -0.15450384 -0.14156218 -0.116188765 -0.18583073 -0.15398005 -0.18009514 -0.17396677
00000000: df94 30be 26dd 64bd 84e0 0fbe c0a3 56be
00000010: abbd 0dbe 6e45 27be 20f5 23be e66c 18be
00000020: c809 18be ac62 d8bd ad70 51be 3949 32be
00000030: 37d3 15be e507 13be 2431 19be 15c6 c1bd
00000040: 5643 0cbe f62f 1bbe 8a4c 4fbe 659d 68be
00000050: 00e0 3fbe d597 f8bd 83e6 41be 57f7 21be
00000060: e22a 2fbe 2590 68bd 13b0 5bbe 7a57 d6bd
00000070: 39c9 42be 9370 e1bd b9aa 60be 8340 03be
00000080: 3791 1abe 9bfc 30be e243 02be ee64 23be
00000090: 6eb5 26be 0482 e9bd 6d0e 59be 3f7a 88be
000000a0: 9a66 35be 28e0 13be b0d9 14be f304 62be
000000b0: 4c7e 03be 880b ffbd 1b12 66be e76e 34be
000000c0: 9167 0dbe 99d2 2abe 9e5e 27be f499 39be
000000d0: 5794 eebd 184c 21be fde3 4cbe 4e67 36be
000000e0: 023e 0cbe 4136 1ebe adf5 10be 60f4 edbd
000000f0: 694a 3ebe f2ac 1dbe dc6a 38be 5824 32be

batch_norms.1.running_var f4 [64]
0.09942987 0.012226029 0.083961084 0.12104987 0.024107896 0.026193084 0.08293573 0.036935925
0.06603725 0.020498669 0.111753576 0.08615705 0.06925176 0.08340149 0.11043336 0.018562956
0.057510566 0.024618218 0.07651603 0.1423911 0.1696595 0.051447827 0.21971688 0.0354066
0.07754382 0.014822504 0.100463286 0.027929425 0.045311786 0.04845217 0.06439366 0.046937346
0.08956347 0.049902372 0.022636281 0.02627536 0.0692301 0.028059449 0.15449387 0.14122468
0.09012365 0.03061744 0.0739137 0.15579638 0.06647355 0.025239237 0.046482 0.08912098
0.026973581 0.03631685 0.09136712 0.030162962 0.09068343 0.07808915 0.09103033 0.07547722
0.05606211 0.07172714 0.072577015 0.031634457 0.049915925 0.023832723 0.053658824 0.045583818
00000000: e3a1 cb3d af4f 483c caf3 ab3d ffe8 f73d
00000010: ec7d c53c e192 d63c 35da a93d 204a 173d
00000020: 8a3e 873d d3ec a73c 0fdf e43d 1c73 b03d
00000030: ded3 8d3d 66ce aa3d e32a e23d 5711 983c
00000040: 3390 6b3d 25ac c93c 70b4 9c3d f9ce 113e
00000050: 38bb 2d3e f5ba 523d 76fd 603e 8306 113d
00000060: 4bcf 9e3d 16da 723c b2bf cd3d 40cc e43c
00000070: da98 393d c875 463d d3e0 833d 6041 403d
00000080: 0d6d b73d 6e66 4c3d b96f b93c 6c3f d73c
00000090: 83c8 8d3d eedc e53c a433 1e3e 349d 103e
000000a0: c092 b83d 6dd1 fa3c 1160 973d 1689 1f3e
000000b0: 4923 883d 84c2 ce3c e963 3e3d 0f85 b63d
000000c0: b3f7 dc3c fac0 143d af1e bb3d 5118 f73c
000000d0: 3cb8 b93d 34ed 9f3d 1c6e ba3d cd93 9a3d
000000e0: 62a1 653d aee5 923d 42a3 943d 2293 013d
000000f0: a474 4c3d d83c c33c 5bc9 5b3d 19b6 3a3d

interaction_layers.0.bias f4 [128]
1.1892339e-05 1.5028446e-07 8.506125e-06 -1.898965e-05 1.4716791e-05 -2.2571928e-06 -3.42648e-05 -2.0281311e-06
9.161039e-07 1.2705795e-05 -1.1718869e-06 -2.0975929e-07 2.9505838e-06 -9.388902e-06 -1.0872795e-05 5.2467396e-07
1.6710829e-06 8.241321e-07 -6.005649e-06 1.6188953e-06 -3.15242e-06 -5.205495e-06 6.9556637e-07 2.8660609e-06
-3.5177077e-06 -2.0513444e-06 -4.292247e-06 -5.380292e-07 2.3797388e-06 -1.6487667e-06 3.2767903e-06 1.220834e-07
-4.2608273e-05 1.5453057e-05 8.5087225e-07 8.662497e-06 7.0766487e-07 1.5379414e-05 1.836173e-07 6.085108e-06
-3.6623599e-06 -4.5142795e-07 3.9148686e-05 -4.0895516e-06 1.8882378e-06 2.7295746e-06 -4.7736995e-07 3.7395528e-06
1.5440072e-06 2.692357e-06 -1.3467568e-06 -5.115317e-06 1.8097118e-05 1.2452413e-05 -5.7371926e-06 -1.3231187e-06
-9.761709e-07 -3.3786234e-06 -3.468537e-06 -1.0985193e-05 4.647992e-05 -1.0979321e-05 2.4992278e-06 -2.1441617e-06
1.0391918e-05 -1.1760415e-06 -9.931126e-07 -9.338094e-06 2.0716936e-05 1.2357362e-05 -6.5412673e-06 -5.7373627e-06
3.8626328e-07 3.408154e-05 -1.5532523e-05 2.154507e-05 -7.2628075e-07 -3.0700564e-06 -5.7341654e-06 -1.287077e-05
-4.2162974e-08 -4.2884976e-06 -1.1192058e-05 1.6263324e-05 -4.0494524e-06 7.837628e-06 3.1032785e-06 -6.176862e-06
-4.8409987e-07 -1.2004997e-05 5.422058e-08 2.8621866e-06 1.01820715e-05 4.3512277e-06 1.00634725e-05 -5.031504e-06
1.1937998e-06 -6.410218e-07 2.0252797e-05 4.585066e-07 -8.257806e-07 -8.202844e-06 -3.40614e-06 8.418463e-07
2.4381598e-05 1.20648e-05 2.995237e-06 -1.3499697e-06 1.399299e-06 -1.3921051e-05 -3.8672238e-06 3.2414416e-06
1.5334549e-06 1.2259125e-06 -1.0432478e-06 3.4331372e-06 5.4581534e-07 2.1305189e-07 -2.0678472e-06 4.4543893e-05
-6.027657e-06 -1.0309093e-05 -3.3369945e-06 4.3632867e-06 1.4477376e-05 1.1679439e-06 -2.2702557e-06 2.7682436e-06
00000000: 3585 4737 e15d 2134 87b5 0e37 f64b 9fb7
00000010: 23e8 7637 477a 17b6 8db7 0fb8 071b 08b6
00000020: 2eea 7535 f92a 5537 ba49 9db5 323a 61b4
00000030: a502 4636 0785 1db7 4d6a 36b7 52d7 0c35
00000040: f949 e035 ed39 5d35 2284 c9b6 d248 d935
00000050: 2a8e 53b6 ddaa aeb6 f5b6 3a35 8d56 4036
00000060: c211 6cb6 d4a9 09b6 1f06 90b6 166d 10b5
00000070: 9ab3 1f36 314b ddb5 d4e6 5b36 0816 0334
00000080: 49b6 32b8 30a1 8137 7f67 6435 2455 1137
00000090: 5cf6 3d35 0a03 8137 5728 4534 ae2e cc36
000000a0: ddc6 75b6 c95b f2b4 9533 2438 fb38 89b6
000000b0: 5b6f fd35 bc2d 3736 9d24 00b5 07f5 7a36
000000c0: af3b cf35 57ae 3436 36c2 b4b5 3da4 abb6
000000d0: 44cf 9737 b5ea 5037 1c82 c0b6 0396 b1b5
000000e0: fa04 83b5 4fbc 62b6 03c5 68b6 0b4d 38b7
000000f0: 6ff3 4238 d333 38b7 68b8 2736 6be4 0fb6
00000100: f358 2e37 7ad8 9db5 174b 85b5 cfaa 1cb7
00000110: 48c9 ad37 7752 4f37 0f7d dbb6 9283 c0b6
00000120: 9f5f cf34 c6f2 0e38 d74b 82b7 afbb b437
00000130: a2f5 42b5 2b07 4eb6 1b68 c0b6 89ef 57b7
00000140: ae16 35b3 eae5 8fb6 86c5 3bb7 396d 8837
00000150: 88e0 87b6 5b7e 0337 eb41 5036 d742 cfb6
00000160: 17f3 01b5 1269 49b7 28e0 6833 fe13 4036
00000170: aad3 2a37 c300 9236 49d6 2837 4ad4 a8b6
00000180: a63a a035 af12 2cb5 8de4 a937 ab28 f634
00000190: 36ab 5db5 f29e 09b7 0a95 64b6 3dfb 6135
000001a0: 1587 cc37 ec69 4a37 c801 4936 9b30 b5b5
000001b0: 8ccf bb35 758e 69b7 33c3 81b6 8b87 5936
000001c0: 1cd1 cd35 088a a435 b905 8cb5 d964 6636
000001d0: 2584 1235 42c3 6434 58c5 0ab6 a4d4 3a38
000001e0: 2e41 cab6 38f5 2cb7 21f1 5fb6 5968 9236
000001f0: dbe3 7237 3fc2 9c35 b25a 18b6 10c6 3936

interaction_layers.0.lin.weight f4 [128, 15]
0.011787621 0.043588765 0.15069376 0.011918592 0.020595996 -0.01843715 0.050957322 -0.011748263
0.06251529 -0.024315827 0.0027903758 -0.0002920758 0.07053257 0.042688083 -0.0107380515 -0.08167467
0.07840283 0.030049475 -0.017394328 -0.07070191 -0.013274968 -0.031517755 -0.074970044 -0.026460567
-0.024709526 -0.033869736 -0.0038538214 -0.04827573 -0.08296294 0.05791634 0.21474183 -0.013045333
0.019156745 -0.09382583 0.009366824 0.06755694 -0.090337306 -0.017330438 0.00915677 -0.071864665
0.11802227 0.0560645 0.05186392 0.00606635 0.035804246 -0.065991834 0.11431867 0.109656215
0.02118132 -0.024769077 -0.05413791 0.019023638 -0.018660786 0.02295502 0.012145901 -0.115711816
0.026239732 -0.116929136 -0.13234825 0.23360994 -0.18225834 0.092081435 0.06644264 0.038112022
-0.013549017 -0.05054531 0.025711298 0.018118378 0.050813064 0.03561572 -0.04344374 0.03676311
-0.090639554 -0.1599549 0.18444823 -0.102508396 0.10574492 -0.024222318 0.026058039 0.0075565954
0.016855398 0.047926467 0.063360475 0.0038719836 -0.09142344 0.10796792 -0.03515482 -0.013364614
-0.033438835 0.06792693 0.17168592 -0.037445318 0.11447446 0.04799455 0.008182929 0.030888777
0.026538314 0.01658607 0.045911413 0.04383189 0.027083391 0.014578589 -0.10677227 0.07633558
0.11276814 0.051625464 -0.014362779 0.05106488 0.044903606 -0.08096589 0.08211776 -0.044275753
0.023409598 0.049199842 -0.11676817 0.06343081 0.024894224 0.065989494 -0.0039688474 -0.006617032
-0.02026144 0.03878243 0.038696095 0.0016611923 -0.010806593 -0.010868119 0.03927557 -0.017441152
-0.026908975 0.08596921 -0.09043206 0.0016687359 -0.009248057 0.024280667 0.012943273 -0.13785456
0.049303833 0.100792594 -0.0907459 -0.07499531 -0.020555304 -0.06756561 -0.06299567 -0.0022679102
0.06614704 0.0028824876 0.023493119 -0.016320825 -0.08479515 0.1217623 0.08380968 -0.06732283
0.026357641 -0.035111982 0.09353768 0.1169872 -0.037629124 0.03183641 0.040473722 -0.122508176
0.010001542 0.17593652 -0.03461041 0.051727973 0.019300457 0.035470862 0.08567428 0.03109005
0.053775024 -0.06320811 0.0036740813 -0.046491675 0.008526342 0.05046039 0.017025229 0.032140113
-0.07544241 -0.050815422 -0.0072797085 0.02421433 0.051315904 0.0055952766 -0.12218744 0.05666621
-0.05709205 0.011133135 -0.058829613 0.078477845 -0.039727215 0.016133912 0.01630412 -0.047865
0.015604843 0.063907586 0.002048361 -0.144585 0.09976612 0.021707103 -0.010263746 -0.024814852
0.0085416855 0.009323472 -0.010846795 -0.019821057 0.008521654 0.038594708 -0.017703118 -0.07002034
0.0959255 0.024204612 -0.054408487 0.059992205 -0.041006118 0.013767143 0.00093753805 0.0074708164
-0.001030167 0.038263302 0.01616981 -0.03841368 0.025214946 -0.009625213 -0.10503396 0.01061005
0.058723073 -0.11517207 0.07128112 0.04558008 -0.06911543 -0.05231491 0.04480617 -0.050965652
0.005164817 -0.0056130765 0.039503314 -0.08403677 0.16432138 -0.065212995 -0.008951493 0.11034346
-0.06155373 0.07458983 0.08136992 0.025437817 -0.03681989 -0.018914903 0.026494881 -0.018591994
-0.019274538 0.12954487 -0.035300963 0.051250212 0.01324565 0.0016619142 0.07217095 -0.0634125
00000000: de20 413c 228a 323d 774f 1a3e 3346 433c
00000010: efb8 a83c 8209 97bc a0b8 503d c97b 40bc
00000020: 0408 803d fc31 c7bc bdde 363b c021 99b9
00000030: 6173 903d b3d9 2e3d a7ee 2fbc 0d45 a7bd
00000040: aa91 a03d 512a f63c 8d7e 8ebc 2acc 90bd
00000050: 407f 59bc c318 01bd e589 99bd d5c3 d8bc
00000060: a26b cabc feba 0abd 6590 7cbb c6bc 45bd
00000070: 79e8 a9bd af39 6d3d 48e5 5b3e 18bc 55bc
00000080: 9bee 9c3c c227 c0bd 4f77 193c 4b5b 8a3d
00000090: c402 b9bd 90f8 8dbc 4706 163c c82d 93bd
000000a0: a9b5 f13d e4a3 653d 436f 543d 3bc8 c63b
000000b0: 79a7 123d ba26 87bd e81f ea3d 7093 e03d
000000c0: 7384 ad3c 85e8 cabc b7bf 5dbd 76d7 9b3c
000000d0: 81de 98bc 2b0c bc3c 9aff 463c 51fa ecbd
000000e0: b5f4 d63c 8b78 efbd 4d86 07be 7237 6f3e
000000f0: eea1 3abe 3195 bc3d 1413 883d 5a1b 1c3d
00000100: b2fc 5dbc 9908 4fbd 80a0 d23c fe6c 943c
00000110: 5c21 503d cae1 113d 10f2 31bd ea94 163d
00000120: 3ba1 b9bd 38cb 23be ffdf 3c3e ecef d1bd
00000130: cb90 d83d e26d c6bc ab77 d53c 519d f73b
00000140: 5514 8a3c 8b4e 443d 23c3 813d 1bc1 7d3b
00000150: 363c bbbd 491e dd3d 80fe 0fbd 41f7 5abc
00000160: 29f7 08bd 461d 8b3d 6fce 2f3e 4360 19bd
00000170: 9671 ea3d ef95 443d b111 063c 760a fd3c
00000180: e166 d93c 83df 873c 9b0d 3c3d 1189 333d
00000190: fddd dd3c 09db 6e3c 6bab dabd d455 9c3d
000001a0: fcf2 e63d 3975 533d dd51 6bbc 6829 513d
000001b0: d8ec 373d 72d1 a5bd 5b2d a83d 7e5a 35bd
000001c0: 7cc5 bf3c c685 493d 2624 efbd 03e8 813d
000001d0: f9ee cb3c 8025 873d 1b0d 82bb b0d3 d8bb
000001e0: 52fb a5bc 53da 1e3d cc7f 1e3d 5dbc d93a
000001f0: 230e 31bc 3210 32bc 6cdf 203d bfe0 8ebc
00000200: 3670 dcbc a010 b03d 7234 b9bd 7cb9 da3a
00000210: 2a85 17bc 40e8 c63c 0610 543c bf29 0dbe
00000220: d1f2 493d 596c ce3d fdd8 b9bd 2497 99bd
00000230: 9963 a8bc d75f 8abd e003 81bd 38a1 14bb
00000240: 1978 873d 1ee8 3c3b a474 c03c 40b3 85bc
00000250: 14a9 adbd 835e f93d 69a4 ab3d 8de0 89bd
00000260: fbeb d73c 95d1 0fbd af90 bf3d fc96 ef3d
00000270: ff20 1abd e566 023d c6c7 253d 91e5 fabd
00000280: 82dd 233c b428 343e a5c3 0dbd b6e0 533d
00000290: fe1b 9e3c e549 113d ff75 af3d 8fb0 fe3c
000002a0: 3343 5c3d 4173 81bd dbc8 703b 0e6e 3ebd
000002b0: 12b2 0b3c 8eaf 4e3d 7e78 8b3c 5aa5 033d
000002c0: 8d81 9abd d523 50bd 9f8a eebb 215d c63c
000002d0: a030 523d 9558 b73b 693d fabd d41a 683d
000002e0: 5ad9 69bd c167 363c 52f7 70bd feb8 a03d
000002f0: 01b9 22bd 442b 843c 3890 853c 170e 44bd
00000300: 75ab 7f3c fbe1 823d cc3d 063b 170e 14be
00000310: 2e52 cc3d 18d3 b13c 4529 28bc 8448 cbbc
00000320: 6df2 0b3c 7ac1 183c c1b6 31bc c55f a2bc
00000330: 689e 0b3c 7c15 1e3d 2106 91bc d366 8fbd
00000340: 9774 c43d c048 c63c 6fdb 5ebd 63ba 753d
00000350: 08f6 27bd 958f 613c 1dc5 753a c0cd f43b
00000360: ab06 87ba fbb9 1c3d 8d76 843c aa57 1dbd
00000370: 938f ce3c 12b3 1dbc 0b1c d7bd c6d5 2d3c
00000380: 9b87 703d 56df ebbd d6fb 913d 2eb2 3a3d
00000390: 648c 8dbd 2948 56bd ad86 373d 5cc1 50bd
000003a0: a03d a93b e6ed b7bb 3ace 213d 781b acbd
000003b0: dd43 283e 648e 85bd 48a9 12bc c1fb e13d
000003c0: c41f 7cbd 8ec2 983d 46a5 a63d f862 d03c
000003d0: 74d0 16bd 6df3 9abc cb0b d93c 3d4e 98bc
000003e0: a3e5 9dbc 69a7 043e be97 10bd beeb 513d
000003f0: 4804 593c 96d4 d93a 5dce 933d 6ade 81bd

interaction_layers.1.bias f4 [64]
-7.0317337e-06 1.2533454e-08 -3.0853505e-06 -2.2789822e-05 -5.0156896e-06 -1.1396929e-05 -8.285738e-06 -1.9218824e-05
-2.0715486e-06 -6.853824e-06 -4.95992e-06 -7.5854077e-06 3.3754338e-06 1.6482006e-06 5.0250346e-06 1.4635166e-05
-5.005157e-06 4.056751e-06 -3.5996216e-06 -1.110681e-05 -5.8713465e-07 1.4125136e-06 -4.240521e-07 -2.516526e-06
-2.8159806e-05 2.0879842e-10 -6.804218e-06 4.5264096e-06 -2.7374523e-05 1.4022125e-06 7.004289e-06 -3.3626827e-06
-3.666475e-06 3.080721e-06 -8.0482105e-06 -2.6495487e-05 7.586864e-07 -3.6107635e-06 -8.81157e-06 -1.33061385e-05
-1.0852396e-05 -3.9062625e-06 -7.653206e-06 -1.2184212e-06 3.2974867e-06 -4.4972267e-06 8.045878e-06 8.0701113e-07
-6.5053478e-06 -3.272075e-05 -1.4612799e-05 -4.415151e-06 -2.9900357e-07 -4.1949993e-06 -3.540732e-06 2.2151858e-06
3.401898e-06 -6.0023644e-06 -4.8038337e-06 6.687084e-06 -8.643697e-07 8.220103e-06 1.1919375e-05 -1.2051733e-05
00000000: 22f2 ebb6 b752 5732 eb0d 4fb6 c52c bfb7
00000010: 724c a8b6 7035 3fb7 f902 0bb7 1c38 a1b7
00000020: ef04 0bb6 e6f9 e5b6 636d a6b6 2886 feb6
00000030: 8385 6236 be37 dd35 b89c a836 8f89 7537
00000040: f9f1 a7b6 3a1f 8836 0791 71b6 6357 3ab7
00000050: 969b 1db5 9995 bd35 47a9 e3b4 96e1 28b6
00000060: b938 ecb7 8893 652f ca4f e4b6 90e1 9736
00000070: 57a2 e5b7 a833 bc35 6206 eb36 73aa 61b6
00000080: 900d 76b6 62be 4e36 cd06 07b7 a042 deb7
00000090: 88a8 4b35 7250 72b6 68d5 13b7 6e3d 5fb7
000000a0: b012 36b7 8a12 83b6 4566 00b7 a288 a3b5
000000b0: 644a 5d36 e2e6 96b6 c8fc 0637 62a1 5835
000000c0: 8348 dab6 a33d 09b8 7e29 75b7 dc25 94b6
000000d0: bd86 a0b4 c5c2 8cb6 509d 6db6 9aa8 1436
000000e0: 2a4c 6436 eb67 c9b6 9e30 a1b6 9d61 e036
000000f0: 0907 68b5 13e9 0937 53f9 4737 cd31 4ab7

interaction_layers.1.lin.weight f4 [64, 128]
-0.011777617 -0.025077198 0.031123664 -0.062049594 -0.04877002 -0.022277089 0.0007304091 -0.009727069
-0.037452765 -0.046113394 0.018577382 -0.013467449 -0.028250696 -0.026915535 -0.02400857 -0.016701344
-0.0038898725 -0.030992137 -0.014198247 -0.0067215846 0.0094664395 -0.106124654 0.00017990725 0.031256963
0.016842686 -0.02047323 -0.06245278 -0.008257781 0.002539221 -0.041187417 0.016836394 -0.009310104
-0.031492002 -0.037801843 -0.06678776 -0.042275738 0.001418383 -0.09825949 -0.01550097 0.010536229
-0.022238227 -0.024889851 -0.0033332056 -0.007853877 -0.024081092 0.007992404 -0.025122901 -0.028262047
0.013583528 0.023309074 0.008082505 -0.016310912 -0.03683036 -0.05438744 -0.007951572 -0.017963482
-0.004682148 -0.013714771 0.0010043195 -0.029526077 -0.0077738753 -0.02390832 -0.044362076 -0.052686207
0.019959025 -0.00041053642 -0.024100758 -0.0071424837 -0.013114857 -0.035491493 -0.0101086395 -0.02243373
-0.028556988 -0.047027543 -0.018104168 0.030030517 -0.029981952 0.018251117 -0.016601223 -0.02056006
0.021735262 -0.026353886 -0.029861314 -0.032505006 -0.014286365 -0.015411727 -0.0055519673 0.008438828
-0.012442954 -0.018330798 -0.0137223145 -0.017837366 0.054837074 0.03833544 0.00044648605 -0.016894687
-0.0033439924 -0.0030391577 -0.04505145 0.023691002 -0.002562799 -0.0067883907 -0.032487057 -0.05378451
-0.01433842 -0.024375068 -0.028866913 -0.039967008 0.022816604 -0.036711972 0.0028706987 0.0072728703
-0.09149613 0.009243804 -0.04151131 -0.022910932 -0.011159402 -0.0046688137 -0.0126522435 -0.06423418
0.0045104236 0.06034717 0.005764379 0.008925495 0.019876199 0.01823462 0.011685023 0.0023080225
-1.975993e-06 -0.0030607458 0.0012657092 -0.027942713 -0.008620874 -0.00049270527 0.00025786815 0.0008956736
-0.0003156997 -0.0041168686 -0.0010544948 0.0010019637 -0.0005475644 -0.001473455 0.0018134314 -0.00088430423
-0.002187912 -0.0025781624 -0.0019041497 -0.0043260255 -0.0014558538 -0.0008889612 -0.0023173708 -0.002157304
0.0037215983 -0.0038110863 -0.0015495839 0.0015165794 -0.0002616216 -0.014554277 0.0007253731 -5.4828808e-05
-0.0012737691 -0.00029499165 -0.0043942407 -0.016605968 -0.00025334998 -0.027605837 -0.00090443966 -0.000714516
-0.00020014847 -3.420595e-05 -0.00039843394 0.0006339455 -0.005886455 0.00043809306 -0.0011476252 -0.0063874978
8.2158615e-05 -0.0017832763 -0.0029579254 -0.00034100894 -0.0046745082 -0.018065086 -0.0002623601 -0.0025082754
-0.0001177569 -0.001075941 0.002596725 -0.007251448 0.00025747775 -0.0005710738 -0.013164547 -0.0058718557
0.0006555087 0.0005530877 0.0062827007 0.00023384237 -0.0011333426 -0.011153497 -0.008837413 0.0015845837
-0.0005391608 -0.028158428 9.647886e-05 -0.00095246464 -0.002738054 -0.0008865183 -0.0001917701 0.00090122625
0.0004895564 -0.0005289047 -0.0038576962 -0.00091762934 0.0019010917 0.0002904935 -0.008635309 -0.0017284829
-0.0034142025 -0.0048421114 -0.0014893002 -0.0030922825 0.0015859322 0.0023749836 0.00069668866 0.003778034
0.0032468485 0.00067915657 -0.06815451 0.00025165724 0.00063975854 -0.008754053 -0.001711926 -0.009900492
-0.00070452824 -0.008110572 -0.018228808 -0.029024903 -0.0009676825 -0.0011646969 0.0047678193 -0.0009946511
-0.023981811 -0.003313132 0.0021488222 -0.00020071657 -0.028580321 -0.0036720166 6.841504e-05 -0.012535147
-0.0010520655 -0.0018691765 0.0011019348 -0.0017837896 -0.00070073403 0.0032360777 -0.0039178315 0.0044471435
00000000: e8f6 40bc b26e cdbc 0ef7 fe3c b727 7ebd
00000010: 13c3 47bd 717e b6bc ed78 3f3a 495e 1fbc
00000020: 1268 19bd 66e1 3cbd 982f 983c 93a6 5cbc
00000030: 016e e7bc f87d dcbc 9fad c4bc 42d1 88bc
00000040: 3bed 7ebb 39e3 fdbc c49f 68bc bd40 dcbb
00000050: 2019 1b3c e257 d9bd 7ca5 3c39 4d07 003d
00000060: acf9 893c 7ab7 a7bc 7cce 7fbd a54b 07bc
00000070: 0f69 263b 23b4 28bd 7aec 893c 6889 18bc
00000080: c2fd 00bd 1bd6 1abd 05c8 88bd 5329 2dbd
00000090: 09e9 b93a 463c c9bd c8f7 7dbc 26a0 2c3c
000000a0: f12c b6bc cde5 cbbc e971 5abb 8cad 00bc
000000b0: b645 c5bc 92f2 023c 8bce cdbc cf85 e7bc
000000c0: 728d 5e3c acf2 be3c 7c6c 043c 769e 85bc
000000d0: 6edb 16bd 5dc5 5ebd 4f47 02bc 2728 93bc
000000e0: b46c 99bb ebb3 60bc 5fa3 833a ace0 f1bc
000000f0: febb febb 62db c3bc 02b5 35bd 7ecd 57bd
00000100: 1c81 a33c 443d d7b9 f46e c5bc 7f0b eabb
00000110: b2df 56bc 875f 11bd b59e 25bc f1c6 b7bc
00000120: 58f0 e9bc f49f 40bd 314f 94bc 8f02 f63c
00000130: b69c f5bc 5e83 953c 4aff 87bc 926d a8bc
00000140: 260e b23c 1be4 d7bc b79f f4bc f823 05bd
00000150: 5c11 6abc 7881 7cbc 47ed b5bb 0343 0a3c
00000160: 88dd 4bbc 782a 96bc 8fd3 60bc ab1f 92bc
00000170: d79c 603d 9f05 1d3d 5816 ea39 ba66 8abc
00000180: e226 5bbb 9b2c 47bb df87 38bd a213 c23c
00000190: a2f4 27bb 2671 debb 2611 05bd 254d 5cbd
000001a0: b1eb 6abc 39ae c7bc 4e7a ecbc 72b4 23bd
000001b0: e3e9 ba3c 4b5f 16bd 5522 3c3b 4251 ee3b
000001c0: 5362 bbbd 5373 173c c307 2abd b5af bbbc
000001d0: edd5 36bc d9fc 98bb 5b4b 4fbc 368d 83bd
000001e0: 2dcc 933b 982e 773d 1ee3 bc3b 3d3c 123c
000001f0: 69d3 a23c c560 953c 8a72 3f3c 3142 173b
00000200: 4d9b 04b6 cb96 48bb 27e6 a53a 1ee8 e4bc
00000210: 913e 0dbc e428 01ba 7a32 8739 a3cb 6a3a
00000220: 7f84 a5b9 cce6 86bb f936 8aba 5354 833a
00000230: 6d8a 0fba f220 c1ba a9b0 ed3a a7d0 67ba
00000240: 1263 0fbb 63f6 28bb a994 f9ba 55c1 8dbb
00000250: 59d2 beba 2d09 69ba 08df 17bb 8e61 0dbb
00000260: 0fe6 733b 6bc3 79bb 681b cbba f6c7 c63a
00000270: 422a 89b9 1075 6ebc f726 3e3a fcf7 65b8
00000280: 99f4 a6ba 1ca9 9ab9 90fd 8fbb 3d09 88bc
00000290: 0fd4 84b9 a325 e2bc eb17 6dba 5b4e 3bba
000002a0: f2de 51b9 5c78 0fb8 e6e4 d0b9 5d2f 263a
000002b0: 2ae3 c0bb dbaf e539 e96b 96ba 374e d1bb
000002c0: 924c ac38 d3bc e9ba c1d9 41bb 72c9 b2b9
000002d0: 9e2c 99bb 3bfd 93bc 608d 89b9 e161 24bb
000002e0: 41f4 f6b8 9706 8dba d12d 2a3b 8e9d edbb
000002f0: 14fe 8639 1db4 15ba 1db0 57bc b268 c0bb
00000300: 72d6 2b3a 16fd 103a 1ddf cd3b 9533 7539
00000310: ab8c 94ba 28bd 36bc ccca 10bc ceb1 cf3a
00000320: 7856 0dba 81ac e6bc b254 ca38 d2ae 79ba
00000330: ec70 33bb 3c65 68ba e515 49b9 4540 6c3a
00000340: 9355 003a 32a6 0aba 67d1 7cbb 108d 70ba
00000350: 0d2e f93a 614d 9839 1c7b 0dbc 438e e2ba
00000360: d0c0 5fbb 93aa 9ebb 9f34 c3ba e4a7 4abb
00000370: 0edf cf3a 9da5 1b3b fca1 363a e498 773b
00000380: 14c9 543b 6d09 323a 9794 8bbd ddf0 8339
00000390: 78b5 273a 296d 0fbc b462 e0ba ac35 22bc
000003a0: 17b0 38ba 34e2 04bc 9554 95bc a2c5 edbc
000003b0: 13ac 7dba bea8 98ba 5e3b 9c3b f45e 82ba
000003c0: 8175 c4bc 2221 59bb 41d3 0c3b 7277 52b9
000003d0: 4721 eabc 37a6 70bb 0b7a 8f38 3860 4dbc
000003e0: 76e5 89ba 28ff f4ba cc6e 903a 0cce e9ba
000003f0: 77b1 37ba 6014 543b 2761 80bb 58b9 913b

out.weight f4 [200, 64]
0.0016894338 0.011506826 -0.0020913908 -0.00023168101 -0.007729255 -0.0057331636 -0.005409305 0.005856689
0.019153472 0.0014905 -0.0038830393 -0.0036118818 0.0032370368 -0.0011994336 0.002467323 -0.00010172778
0.008457936 -0.0038904885 0.00053440477 -0.0034774127 -0.0031797192 -0.003326739 0.0021227205 -2.069013e-05
0.0054159546 -0.020582104 -0.00054967374 -0.0009009439 0.00297563 -0.0019678276 0.0014219539 -0.005886634
0.005617908 -0.002506866 0.011280955 0.0012122283 -0.0051607816 -0.001901947 -0.013479285 -0.007007066
-0.016791707 0.0004578414 -0.0022410436 0.009800586 -0.0046144943 -0.0051401616 -0.00268117 -0.0077366745
0.0080249505 -0.002951986 -0.0034921982 -0.0015545175 -0.0007706391 -0.010221019 0.0041090976 -0.0022679437
-2.8777944e-05 -0.0013029563 0.0015522218 -0.0050498345 0.012378369 -0.0016429432 0.010531529 -0.0018875238
-0.0013153362 0.00033828022 -0.0032947175 -0.0040962673 -0.0004377817 0.0010670273 -0.00054978486 0.0019755678
-0.00028398365 0.0026439663 -0.0019750353 0.00041188826 0.0011167657 0.0014710927 -0.0026584214 0.0003006911
0.0004260192 0.0011135708 0.0030406576 0.0042534852 0.013733911 0.0010577537 -0.002787261 0.0011743505
-0.002367283 0.0023033754 -0.0016180489 0.0010849161 -0.0018432047 0.00073476275 0.0005997982 0.0015756674
0.0019880014 -0.0024347412 -0.0046519074 -0.00019429221 -0.002605094 0.00054093933 0.0016638618 -0.0013214782
0.0011417128 0.00053135416 -0.0022332752 -0.0042110714 0.0018767578 -0.0026228484 -0.00091329566 -0.0016050667
0.0036203407 0.0019661342 0.00081246195 0.00016084006 -0.0032300176 -0.003954584 0.00023161988 0.0006811135
0.00086285407 -0.00076399744 -0.0051406794 0.0015208373 -0.0012431731 3.8624265e-05 0.0013062914 0.0017903129
-0.002682111 -0.022140782 -0.0036616914 -0.007235411 0.006074024 0.0050176713 0.008102243 -0.033560984
-0.039800655 -0.027313726 -0.025620103 -0.014871661 0.04251634 0.035684355 0.04403913 0.036428683
-0.0035447907 -0.016411671 -0.023457276 0.0124884 -0.042527705 -0.023458436 0.029432992 0.015579325
0.005076922 -0.013693453 -0.021085124 -0.0028725548 0.007232688 0.01338549 -0.00583792 0.011686066
-0.025860738 -0.027572466 -0.03292958 0.019679297 -0.02180856 -0.021519348 -0.02504863 -0.0031427152
-0.004818315 0.03559531 -0.023837525 -0.0070281066 0.05019596 0.04055876 0.002025113 -0.0059136674
-0.036189463 0.020714136 0.018498246 -0.006263543 -0.01797332 -0.013166178 -0.019818109 -0.0429642
-0.02478616 0.00010498394 0.01960227 -0.01555228 0.055946507 0.00728899 0.016459506 0.002000599
-0.026084458 -0.006914232 -0.04482181 -0.0039578304 0.014104291 0.021740276 -0.015179856 -0.052379876
-0.024815448 0.007993269 -0.01605647 -0.004418018 0.0008255298 0.015565724 -0.009466653 0.031057835
-0.030028263 0.00330991 -0.0031729923 -0.03364031 0.04136012 -0.054026436 0.014140087 -0.013105279
-0.013769172 -0.010746885 0.01223422 0.020408541 -0.016421067 0.02375074 0.017258193 0.017539313
-0.03318565 -0.009863717 0.022706114 0.064290255 -0.008023527 0.021580512 0.06730596 0.04521151
-0.04366467 -0.035558444 0.0006341286 -0.0039589945 -0.011915608 0.008576295 -0.01717487 0.058711063
-0.0006042556 -0.021936893 -0.00095991575 -0.0061175423 -0.005276784 0.0143156815 0.034132134 -0.06383926
0.0053272117 0.017453276 -0.011457764 -0.052380525 -0.022055296 -0.045828775 -0.014717757 -0.013195475
00000000: fe6f dd3a 2087 3c3c b70f 09bb 66ef 72b9
00000010: b145 fdbb 43dd bbbb 8a40 b1bb 78e9 bf3b
00000020: bee7 9c3c e25c c33a 977a 7ebb 52b5 6cbb
00000030: 7724 543b 5036 9dba d0b2 213b b056 d5b8
00000040: 2893 0a3c 91f7 7ebb 4c17 0c3a 4ee5 63bb
00000050: d662 50bb 6b05 5abb 571d 0b3b b78f adb7
00000060: 5278 b13b cd9b a8bc fb17 10ba 522d 6cba
00000070: ca02 433b abf6 00bb db60 ba3a aae4 c0bb
00000080: 6e16 b83b 3b4a 24bb c1d3 383c a2e3 9e3a
00000090: c61b a9bb c04a f9ba 38d8 5cbc 889b e5bb
000000a0: c38e 89bc 6f0a f039 79de 12bb a392 203c
000000b0: 2f35 97bb cd6e a8bb 91b6 2fbb ee83 fdbb
000000c0: 157b 033c 1b76 41bb 5ddd 64bb f4c0 cbba
000000d0: b704 4aba 1076 27bc 9ca5 863b c8a1 14bb
000000e0: 2a68 f1b7 f5c7 aaba ec73 cb3a 1579 a5bb
000000f0: a5ce 4a3c 0758 d7ba 6f8c 2c3c ca66 f7ba
00000100: 5c67 acba 345b b139 30ec 57bb fb39 86bb
00000110: 1186 e5b9 7fdb 8b3a 701f 10ba 8778 013b
00000120: a4e3 94b9 6546 2d3b 986f 01bb b5f2 d739
00000130: 7060 923a aed1 c03a e938 2ebb 14a6 9d39
00000140: 545b df39 3cf5 913a c545 473b d260 8b3b
00000150: 3304 613c 53a4 8a3a 7baa 36bb aaec 993a
00000160: 6b24 1bbb 3af4 163b b614 d4ba be33 8e3a
00000170: b097 f1ba 189d 403a c73b 1d3a a086 ce3a
00000180: 2149 023b 2e90 1fbb 076f 98bb ebba 4bb9
00000190: 3aba 2abb d3cd 0d3a f015 da3a 7335 adba
000001a0: 86a5 953a 934a 0b3a 245c 12bb 07fd 89bb
000001b0: 8bfd f53a 18e4 2bbb 3c6a 6fba 1a61 d2ba
000001c0: 3d43 6d3b 42da 003b 66fb 543a 2da7 2839
000001d0: b4ae 53bb 7495 81bb fdde 7239 c18c 323a
000001e0: 2831 623a 0047 48ba 2573 a8bb d556 c73a
000001f0: f8f1 a2ba 7d00 2238 de37 ab3a efa8 ea3a
00000200: 5bc6 2fbb 9660 b5bc fdf8 6fbb 0717 edbb
00000210: 9b08 c73b 476b a43b 45bf 043c 3e77 09bd
00000220: 0306 23bd 09c1 dfbc 40e1 d1bc 44a8 73bc
00000230: 9d25 2e3d c229 123d 6062 343d 3e36 153d
00000240: b84f 68bb c571 86bc 7929 c0bc 259c 4c3c
00000250: 8831 2ebd e82b c0bc 751d f13c 6d40 7f3c
00000260: 4f5c a63b 815a 60bc b6ba acbc 7941 3cbb
00000270: 2f00 ed3b d04e 5b3c 064c bfbb ea76 3f3c
00000280: e6d9 d3bc a7df e1bc 2be1 06bd 7a36 a13c
00000290: dda7 b2bc 5849 b0bc c932 cdbc 03f6 4dbb
000002a0: f5e2 9dbb 63cc 113d ea46 c3bc 084c e6bb
000002b0: 479a 4d3d f120 263d c2b7 043b 70c7 c1bb
000002c0: 673b 14bd b1b0 a93c a289 973c 683e cdbb
000002d0: c93c 93bc f4b6 57bc 9659 a2bc 3bfb 2fbd
000002e0: 580c cbbc d32a dc38 f194 a03c fdce 7ebc
000002f0: 2a28 653d 7bd8 ee3b 16d6 863c 7b1c 033b
00000300: 13af d5bc c890 e2bb 1397 37bd b0b0 81bb
00000310: af15 673c aa18 b23c eeb4 78bc 488c 56bd
00000320: c449 cbbc 33f6 023c dc88 83bc 05c5 90bb
00000330: 5e68 583a 6107 7f3c 051a 1bbc 006d fe3c
00000340: d5fd f5bc 13eb 583b faf1 4fbb 6cca 09bd
00000350: 3b69 293d d34a 5dbd d3ab 673c 86b7 56bc
00000360: 1898 61bc b413 30bc 0a72 483c d02f a73c
00000370: 7985 86bc e990 c23c 0e61 8d3c 9bae 8f3c
00000380: aded 07bd 6d9b 21bc 2c02 ba3c 9caa 833d
00000390: 1d75 03bc 9dc9 b03c b5d7 893d b42f 393d
000003a0: bad9 32bd bba5 11bd a63b 263a 74ba 81bb
000003b0: af39 43bc 9783 0c3c 50b2 8cbc 037b 703d
000003c0: e866 1eba 00b5 b3bc dba2 7bba aa75 c8bb
000003d0: dfe8 acbb 528c 6a3c 23ce 0b3d 28be 82bd
000003e0: e48f ae3b 2cfa 8e3c 58b9 3bbc f68c 56bd
000003f0: 4fad b4bc f4b6 3bbd bf22 71bc d531 58bc

out.bias f4 [200]
-0.00092916936 0.00022001668 -0.000701682 -0.0020758803 -0.00017907677 0.0005281558 0.00017076683 0.0066963797
-0.00038478055 -0.0020794624 -7.947523e-05 0.024631536 -0.0006160165 -0.0071591646 0.0014620739 0.08850247
-0.0026364822 0.0071101715 0.0058813617 -0.00681213 0.026268 0.007872816 -0.0043388326 0.0014189427
-0.014115727 -0.0054854914 -0.0006962999 -0.004420878 -0.00022285938 -0.0011808546 -0.008678763 0.012551936
-0.0044202516 -0.012362075 0.0024948085 -0.0027709913 -0.006569485 0.007008383 0.013518345 0.0235663
0.05577392 0.021784032 0.03462903 0.064242974 0.07033001 0.075924136 0.0648661 0.088859655
0.0849002 0.059298232 0.07695284 0.07508765 0.06641061 0.046611864 0.07469512 0.071127534
0.07148011 0.0398137 0.037523445 0.05052869 0.055422768 0.05711557 0.042000115 0.038906533
0.034588806 0.017760534 0.034733698 0.030427363 0.023348643 0.020576572 0.008060343 0.073539935
0.005045965 0.002739277 0.015402806 0.020748727 0.012797735 0.021307679 0.049463384 0.034643915
0.043928813 0.09383962 0.07209635 0.08052666 0.07882627 0.08748926 0.07368934 0.0925638
0.09167503 0.09371548 0.070310235 0.0712502 0.07426668 0.050876133 0.05720998 0.06710668
0.060813636 0.035649892 0.05252964 0.055916414 0.054438878 0.051476534 0.056167103 0.068209484
0.071020916 0.059726063 0.06373481 0.06197886 0.051227055 0.077386774 0.06071896 0.061216086
0.041237116 0.05243517 0.05752263 0.059681572 0.058497924 0.08045652 0.07829537 0.1113131
0.121695414 0.08913255 0.17643389 0.12678085 0.12906393 0.16662681 0.17026575 0.17353252
0.1469641 0.13194413 0.14054365 0.12015326 0.14824384 0.124574006 0.11703212 0.08620779
0.10223585 0.10788045 0.08715697 0.06609901 0.069927074 0.06989205 0.0717117 0.07339893
0.08246061 0.0810915 0.07796402 0.0589851 0.077532776 0.05564366 0.07143661 0.053977698
0.038195066 0.05669498 0.03336316 0.04360438 0.05601146 0.053734776 0.06880631 0.041050706
0.04867815 0.051402997 0.10369675 0.050293226 0.030740155 0.063979864 0.04968068 0.071455166
0.039338756 0.053063188 0.04854923 0.038419303 0.053070012 0.07146477 0.060688343 0.0445033
0.047029346 0.06095138 0.063465506 0.052434795 0.079237215 0.15415238 0.07035503 0.067494236
0.062662266 0.056451607 0.07674837 0.06869045 0.07338299 0.06418763 0.054190867 0.050377294
0.07362139 0.053794153 0.10978518 0.07522982 0.06990506 0.057064645 0.053998977 0.06891743
00000000: 8093 73ba 47b4 6639 15f1 37ba 7e0b 08bb
00000010: 8ec6 3bb9 f073 0a3a df0f 3339 4e6d db3b
00000020: 5fbc c9b9 9747 08bb f0ab a6b8 13c8 c93c
00000030: 2b7c 21ba 6d97 eabb 0fa3 bf3a c840 b53d
00000040: d5c8 2cbb 71fc e83b 70b8 c03b 4a38 dfbb
00000050: fd2f d73c fcfc 003c c42c 8ebb d1fb b93a
00000060: a645 67bc a3bf b3bb e587 36ba 03dd 90bb
00000070: 5caf 69b9 e8c6 9aba 5f31 0ebc a3a6 4d3c
00000080: c2d7 90bb 4d8a 4abc f17f 233b 8599 35bb
00000090: d644 d7bb 94a6 e53b 0c7c 5d3c 1d0e c13c
000000a0: 3273 643d 6d74 b23c 2bd7 0d3d d291 833d
000000b0: 2e09 903d 1d7e 9b3d 85d8 843d 0dfc b53d
000000c0: 28e0 ad3d b4e2 723d 7399 9d3d 8ec7 993d
000000d0: 4902 883d 15ec 3e3d c1f9 983d 50ab 913d
000000e0: 2a64 923d b113 233d 2fb2 193d 2cf7 4e3d
000000f0: fc02 633d 04f2 693d 5008 2c3d 755c 1f3d
00000100: feac 0d3d 8a7e 913c ec44 0e3d ce42 f93c
00000110: a745 bf3c 3390 a83c 870f 043c 1b9c 963d
00000120: 9f58 a53b 7185 333b 0d5c 7c3c 3cf9 a93c
00000130: 97ad 513c 718d ae3c 1e9a 4a3d c7e6 0d3d
00000140: b3ee 333d fd2e c03d 40a7 933d 29eb a43d
00000150: ab6f a13d 922d b33d 70ea 963d 1792 bd3d
00000160: 1ec0 bb3d e7ed bf3d d0fe 8f3d a0eb 913d
00000170: 2119 983d 7e63 503d 0355 6a3d 3a6f 893d
00000180: b817 793d 9f05 123d 5229 573d 9c08 653d
00000190: 4dfb 5e3d 0fd9 523d 7a0f 663d 6ab1 8b3d
000001a0: 6a73 913d 51a3 743d 6587 823d 8cdd 7d3d
000001b0: 76d3 513d f57c 9e3d 72b4 783d b8bd 7a3d
000001c0: 40e8 283d 43c6 563d d99c 6b3d aa74 743d
000001d0: 859b 6f3d 63c6 a43d 5359 a03d 1ff8 e33d
000001e0: 723b f93d 208b b63d 16ab 343e d7d2 013e
000001f0: 5629 043e 38a0 2a3e 255a 2e3e 82b2 313e
00000200: c27d 163e 5d1c 073e adea 0f3e ea12 f63d
00000210: 3ccd 173e a820 ff3d 89ae ef3d b68d b03d
00000220: 0861 d13d 6df0 dc3d 5a7f b23d eb5e 873d
00000230: ed35 8f3d 9023 8f3d 95dd 923d 2e52 963d
00000240: 1ce1 a83d 4d13 a63d 9aab 9f3d 5c9a 713d
00000250: 81c9 9e3d 9bea 633d 5b4d 923d b817 5d3d
00000260: 6e72 1c3d ff38 683d cfa7 083d 829a 323d
00000270: 466c 653d ff18 5c3d 53ea 8c3d c924 283d
00000280: bd62 473d f38b 523d f65e d43d 4500 4e3d
00000290: c7d2 fb3c e007 833d f87d 4b3d 1657 923d
000002a0: ad21 213d c958 593d 8fdb 463d 8f5d 1d3d
000002b0: f15f 593d 1f5c 923d 5794 783d 1849 363d
000002c0: d8a1 403d 27a8 793d 34fa 813d dec5 563d
000002d0: 1f47 a23d 1fda 1d3e 4c16 903d 6b3a 8a3d
000002e0: 1355 803d cd39 673d 402e 9d3d 94ad 8c3d
000002f0: d249 963d ce74 833d 3ef7 5d3d 6c58 4e3d
00000300: d0c6 963d 4257 5c3d 0dd7 e03d 1812 9a3d
00000310: 622a 8f3d 9ebc 693d 082e 5d3d 9524 8d3d
