best_model/xasnet_gnn_model_test.pt (torch, 236840 bytes, 8 tensors)

interaction_layers.0.bias f4 [256]
0.0058769323 0.0076927817 -0.027799403 0.010589824 0.0104283 -0.0028427397 0.0068942998 0.0031122854
0.0059503634 -0.008978003 -0.013727883 0.009282192 -0.014942133 0.012654518 -0.0031224557 0.006415729
-0.0063841143 0.00019188947 0.006879065 0.027422963 0.0 -0.0030009558 0.012346356 -0.0049797655
-0.0044700666 0.004787477 0.0 0.0062030917 -0.0016717225 -0.014207627 0.006831066 0.005313437
-0.0027181949 -0.0030472511 0.0077817217 0.015977073 -0.0166478 -0.00013109656 0.007096103 -0.00039651844
0.0034674753 -0.020141307 0.02189957 0.0008589072 0.003987578 0.0046706605 0.025905384 0.025105102
0.0 -0.00534174 0.00073865906 0.0043647713 0.014398389 0.004845297 -0.006889501 0.0029831815
0.01615323 -0.017820075 0.006909256 0.004459756 0.0076212445 -0.0032528907 0.004649537 0.0062007625
-0.00066777156 0.0068379026 0.0020842815 0.009212224 0.005176963 0.0010015419 0.007119202 0.007909654
0.01088452 0.008088748 0.0075838855 -0.0042312397 -0.003204498 0.004914592 -0.00045341856 0.0067617083
0.002733009 0.026114479 0.0014543748 -0.0148839075 -0.004138158 0.0028337527 -0.015021632 -0.0012674675
-0.0052710017 0.0 0.0 0.013161692 0.006340507 -0.00437894 0.0102482345 0.0065534827
0.0068177027 -0.018249372 0.0 0.03296814 0.016173737 -0.02938019 -0.011431305 0.008684476
0.012053076 0.0008081626 0.021748332 -0.00066063023 0.01262135 0.009731024 8.792767e-07 0.004053145
-0.00842609 -0.0019597472 0.0015218918 0.0038130165 0.0063295965 -0.0054547116 0.0 0.006430587
0.0037485398 0.01680455 -0.013447069 0.0025441777 0.0061530243 0.019593805 0.009605634 -0.009613446
-0.012706226 0.008016238 -0.016628478 -0.0043655513 0.004922544 0.0 -0.0068810554 -0.018548176
0.008509578 0.0025247864 -0.0028305924 0.008477919 0.0068233507 -0.007991899 -0.017857239 -0.003923078
0.004695504 -0.001311501 0.0016621938 0.000792043 0.027209587 0.0035314155 -0.018883321 0.00041137173
-0.008098169 0.0038647202 0.01525087 0.0035844878 -0.016303852 -0.0261798 -0.006026575 0.007192887
0.018488677 0.0026560903 -0.0031514044 -0.00785836 0.004207153 -0.0034399568 0.0 0.0041870815
-0.01275718 -0.00859384 -0.012101325 0.0 -0.019858971 -0.016015174 0.004614724 0.005901126
-0.00033841757 -0.020119568 0.0 0.004329581 0.0037486178 0.01065372 0.0038930767 0.026819253
0.0066336086 0.0095237065 0.006343417 -0.01430466 0.0046811784 0.011743527 -0.009464089 2.7823933e-05
-0.0041075386 0.015961824 0.005276277 0.02970135 -0.004744708 0.006160575 -0.010696386 0.0058312067
-0.022567473 0.005882012 0.0040918486 0.0 0.010209353 -0.0075823274 0.0033538132 0.0012472154
0.0037279266 0.01001817 0.005571253 -0.013278145 0.012488238 0.007025844 0.008886299 0.034997035
0.008717606 -0.0050753397 0.016496053 -0.019570649 0.005929738 0.010100293 -1.1393369e-05 0.00861383
0.01721204 0.0155890435 -0.016472267 0.00648715 0.029306052 -0.019311627 0.0 0.002918363
-0.00288998 -0.021960068 -0.015379573 -0.02101627 0.01743286 0.005346514 -0.0021495288 -0.020873047
-0.017173087 0.004403614 0.0023670678 0.005193207 0.012247633 -0.014418515 -0.0061823833 0.0056010364
0.0040162704 0.0 -0.010459141 0.0011258464 -0.00025617148 0.0 0.0 -0.013896194
00000000: 4893 c03b bb13 fc3b 93bb e3bc f180 2d3c
00000010: 76db 2a3c 424d 3abb 94e9 e13b 7cf7 4b3b
00000020: 44fb c23b 7918 13bc eaea 60bc 5614 183c
00000030: d9cf 74bc e554 4f3c 1da2 4cbb 093b d23b
00000040: d531 d1bb f035 4939 c869 e13b 1fa6 e03c
00000050: 0000 0000 afab 44bb 5f48 4a3c 4d2d a3bb
00000060: a379 92bb 45e0 9c3b 0000 0000 4e43 cb3b
00000070: b31d dbba 1bc7 68bc 23d7 df3b 571c ae3b
00000080: be23 32bb 64b4 47bb d0fd fe3b 5ae2 823c
00000090: f860 88bc f776 09b9 6d86 e83b cee3 cfb9
000000a0: 953e 633b 62ff a4bc ba66 b33c 4928 613a
000000b0: 3baa 823b 570c 993b 8737 d43c 37a9 cd3c
000000c0: 0000 0000 c309 afbb 92a2 413a 5b06 8f3b
000000d0: 38e7 6b3c 4cc5 9e3b 53c1 e1bb 7b81 433b
000000e0: c753 843c 68fb 91bc 0a67 e23b 2523 923b
000000f0: a2bb f93b 732e 55bb 255b 983b c42f cb3b
00000100: 640d 2fba 7c10 e03b 7198 083b deee 163c
00000110: 83a3 a93b 2b46 833a 3248 e93b 7e97 013c
00000120: fc54 323c ab86 043c 3e82 f83b 36a6 8abb
00000130: 8e02 52bb 960a a13b cfb8 edb9 5291 dd3b
00000140: 481c 333b 08ee d53c b8a0 be3a a2db 73bc
00000150: 6399 87bb 7bb6 393b 4b1d 76bc 2721 a6ba
00000160: 5eb8 acbb 0000 0000 0000 0000 23a4 573c
00000170: 07c4 cf3b 367d 8fbb 36e8 273c 99be d63b
00000180: 0967 df3b b57f 95bc 0000 0000 9a09 073d
00000190: c97e 843c b9ae f0bc 5e4a 3bbc 5549 0e3c
000001a0: 447a 453c e0da 533a 8f29 b23c 252e 2dba
000001b0: c7c9 4e3c df6e 1f3c 6f07 6c35 3fd0 843b
000001c0: 950d 0abc 1a6f 00bb 377a c73a cde3 793b
000001d0: 8168 cf3b 70bd b2bb 0000 0000 acb7 d23b
000001e0: 10aa 753b b2a9 893c 1851 5cbc 38bc 263b
000001f0: 4f9f c93b 3083 a03c f360 1d3c b781 1dbc
00000200: c62d 50bc 8a56 033c 7238 88bc e60c 8fbb
00000210: 4b4d a13b 0000 0000 7a7a e1bb 58f2 97bc
00000220: c26b 0b3c e376 253b 7681 39bb f8e6 0a3c
00000230: 6a96 df3b 74f0 02bc 5849 92bc 2a8d 80bb
00000240: bedc 993b ace6 abba f8dd d93a 1ba1 4f3a
00000250: a4e6 de3c 526f 673b 32b1 9abc 61ad d739
00000260: 2fae 04bc 3f47 7d3b c9de 793c bae9 6a3b
00000270: a88f 85bc 0577 d6bc 937a c5bb 4fb2 eb3b
00000280: 9175 973c cd11 2e3b cb87 4ebb 5ac0 00bc
00000290: 28dc 893b e670 61bb 0000 0000 c933 893b
000002a0: 7e03 51bc 2dcd 0cbc a344 46bc 0000 0000
000002b0: 48af a2bc 4132 83bc 1c37 973b 3c5e c13b
000002c0: a36d b1b9 cbd1 a4bc 0000 0000 28df 8d3b
000002d0: 5fab 753b f18c 2e3c fd22 7f3b 0db4 db3c
000002e0: be5e d93b 5209 1c3c 70dc cf3b 185e 6abc
000002f0: 9264 993b ec67 403c 440f 1bbc 7167 e937
00000300: 8898 86bb 5fc2 823c 9fe4 ac3b 3f50 f33c
00000310: 7f79 9bbb a6de c93b e53f 2fbc b513 bf3b
00000320: 6cdf b8bc e5bd c03b ea14 863b 0000 0000
00000330: 2145 273c 2c75 f8bb a6cb 5b3b 9b79 a33a
00000340: 3b50 743b 4023 243c 0f8f b63b 948c 59bc
00000350: 779b 4c3c 0d39 e63b d797 113c 0d59 0f3d
00000360: 4ad4 0e3c 094f a6bb bb22 873c a052 a0bc
00000370: 3f4e c23b b37b 253c 2626 3fb7 0621 0d3c
00000380: 4400 8d3c 3069 7f3c d9f0 86bc 2992 d43b
00000390: 3f13 f03c 6b33 9ebc 0000 0000 0242 3f3b
000003a0: d265 3dbb 9ae5 b3bc 9bfa 7bbc 502a acbc
000003b0: 5bcf 8e3c cf31 af3b 1cdf 0cbb f4fd aabc
000003c0: 93ae 8cbc 314c 903b cf20 1b3b c72b aa3b
000003d0: 4caa 483c a33b 6cbc 9795 cabb e688 b73b
000003e0: eb9a 833b 0000 0000 d15c 2bbc 2391 933a
000003f0: c14e 86b9 0000 0000 0000 0000 ddac 63bc

interaction_layers.0.lin.weight f4 [256, 15]
0.117121205 -0.01963943 -0.017059807 -0.08236103 0.044903386 0.08411999 -0.0014315139 0.0042631314
0.101213105 -0.033308875 0.11719623 0.0074724774 -0.0033917706 0.008971385 0.0044759996 0.065120615
0.006885853 -0.028668439 -0.044367082 0.051286712 -0.026797 0.005477283 -0.034529276 0.10312843
-0.08465355 0.09650786 0.06691124 -0.08195108 0.009869317 0.017037284 -0.10776065 -0.03594535
-0.0062213754 -0.062223133 0.104588866 -0.042066507 0.03226252 -0.02475929 -0.0046301936 -0.08122333
-0.009451357 0.06460261 0.0104675265 -0.06868707 -0.010788366 -0.030660255 0.07667704 0.01817524
0.0011828726 0.13258493 -0.01857464 0.02038786 0.029571561 -0.048796453 -0.051131085 0.021498268
-0.083334126 0.015941385 -0.0027572587 0.014085605 -0.025513843 0.04734552 0.10910133 0.033095013
-0.048259027 0.022459237 -0.03839386 0.071199186 -0.13904288 -0.02461909 -0.060546495 0.18650477
0.06102638 0.1323716 -0.06272517 0.07397389 -0.00993671 -0.041824564 0.07348675 0.043264017
0.058327816 0.011770944 -0.015022695 -0.021264264 -0.056567393 0.017338853 0.028161122 -0.0053629884
0.09439835 -0.06693609 0.07889277 0.0035207993 0.015798487 -0.036771823 -0.0041415254 0.014641175
0.0041105985 0.016231991 0.07011572 0.011729127 0.026851987 0.00020482643 -0.07308772 0.0064769797
-0.0008103393 -0.018833848 -0.12355192 -0.06861994 0.056027118 0.07979647 -0.061282374 0.031054614
-0.03740063 -0.020427903 -0.018892687 -0.01958206 -0.01135922 -0.068250224 0.1056993 0.11254902
0.029553121 -0.03383867 -0.0351724 0.06717576 0.03657627 0.08721775 -0.0076894765 0.040450957
0.068288386 0.0028827277 0.003730225 0.14591525 -0.026550222 0.07195865 0.06861059 0.059808727
0.12885351 -0.05800665 0.096331544 -0.09840751 -0.000993919 0.09040416 0.015361705 -0.02364511
0.025836414 -0.12253798 0.041655514 -0.009252016 0.0006638782 0.053471465 0.09532426 -0.06825686
-0.05388907 -0.1257335 -0.006423757 -0.098605625 -0.06517217 0.018406412 -0.0026625877 0.085612744
0.026821557 0.13300031 -0.055097308 0.0032173507 0.013101417 -0.10235249 0.11833629 0.047590032
-0.08719685 0.052087832 -0.011990422 0.033105858 0.013602583 0.047029145 -0.03356729 0.10201486
0.09470243 0.015015582 0.08059005 -0.010933857 0.009986321 -0.062253065 -0.019692428 0.041272882
-0.06723501 -0.026752884 0.066850685 -0.12412061 -0.056076974 0.074876696 -0.03215577 -0.004422133
-0.07320579 0.020307802 -0.042045686 -0.038086478 0.036647975 0.08938084 -0.053056814 -0.007268643
0.03466028 -0.00980236 0.023274407 0.07008187 -0.016981654 0.043428767 0.024610465 0.040227555
0.027810097 -0.07359103 -0.042009562 -0.048529085 -0.00696827 -0.07963133 0.062926814 -0.062370647
0.058394786 -0.043927554 -0.046274174 0.022173012 0.015591647 0.038864486 -0.014840017 -0.08089472
0.030066982 0.019622117 -0.058518212 -0.04707025 -0.063880235 -0.10471301 0.054518532 -0.02462372
0.21054752 -0.04900032 -0.05293738 0.021182684 -0.0078211855 -0.014702989 0.06428396 0.030761195
-0.023347637 0.13517153 -0.04774064 0.0022664194 0.012244662 -0.03976675 0.06527765 0.114701234
-0.028737852 0.0371548 0.0288989 -0.014771241 0.01702583 0.03703322 -0.037002925 -0.015044752
00000000: 3edd ef3d dfe2 a0bc 02c1 8bbc e6ac a8bd
00000010: 9dec 373d 1a47 ac3d a3a1 bbba bdb1 8b3b
00000020: d148 cf3d e36e 08bd 9404 f03d afdb f43b
00000030: 7848 5ebb b7fc 123c 68ab 923b f55d 853d
00000040: b9a2 e13b 13da eabc 42ba 35bd 0412 523d
00000050: 6285 dbbc c87a b33b 926e 0dbd 0035 d33d
00000060: d75e adbd eaa5 c53d c308 893d f8d5 a7bd
00000070: eab2 213c c691 8b3c 9eb1 dcbd 6e3b 13bd
00000080: aedc cbbb afdd 7ebd b032 d63d ee4d 2cbd
00000090: b425 043d ffd3 cabc e1b8 97bb 6b58 a6bd
000000a0: ddd9 1abc 604e 843d fd7f 2b3c ceab 8cbd
000000b0: b0c1 30bc 372b fbbc da08 9d3d 3ee4 943c
000000c0: 9e0a 9b3a 58c4 073e d829 98bc 7104 a73c
000000d0: 0f40 f23c cade 47bd d46e 51bd 231d b03c
000000e0: 15ab aabd 8297 823c 20b3 34bb 4fc7 663c
000000f0: 6802 d1bc 60ed 413d 8570 df3d a38e 073d
00000100: 42ab 45bd 6ffc b73c e142 1dbd e1d0 913d
00000110: 4261 0ebe f9ad c9bc 9aff 77bd 1bfb 3e3e
00000120: ccf6 793d 6c8c 073e 0e76 80bd 9f7f 973d
00000130: 95cd 22bc 3c50 2bbd 3980 963d 9c35 313d
00000140: 26e9 6e3d ebda 403c c021 76bc 6532 aebc
00000150: 36b3 67bd 360a 8e3c 27b2 e63c 02bc afbb
00000160: ec53 c13d ca15 89bd 8892 a13d 36bd 663b
00000170: d46b 813c 0d9e 16bd a2b5 87bb 8ae1 6f3c
00000180: 33b2 863b f4f8 843c d598 8f3d 862b 403c
00000190: b3f8 db3c adc6 5639 04af 95bd d83c d43b
000001a0: f36c 54ba 7149 9abc ca08 fdbd 9c88 8cbd
000001b0: b17c 653d 556c a33d 3a03 7bbd 3f66 fe3c
000001c0: 6731 19bd 6b58 a7bc d6c4 9abc 8e6a a0bc
000001d0: 061c 3abc c6c6 8bbd e078 d83d 1a80 e63d
000001e0: 6319 f23c 6b9a 0abd ef10 10bd 7293 893d
000001f0: 00d1 153d 389f b23d 01f8 fbbb e7af 253d
00000200: c8da 8b3d 25ec 3c3b ca76 743b cf6a 153e
00000210: da7f d9bc 0f5f 933d b683 8c3d fff9 743d
00000220: 2df2 033e 6298 6dbd 7949 c53d e089 c9bd
00000230: 6346 82ba d125 b93d a9af 7b3c 64b3 c1bc
00000240: e3a6 d33c 31f5 fabd f99e 2a3d c595 17bc
00000250: 1d08 2e3a e504 5b3d 5e39 c33d 41ca 8bbd
00000260: c9ba 5cbd 48c0 00be 617e d2bb bff1 c9bd
00000270: fd78 85bd 0bc9 963c cf7e 2ebb bc55 af3d
00000280: e2b8 db3c 3c31 083e b7ad 61bd 30da 523b
00000290: 53a7 563c 2f9e d1bd 4c5a f23d c4ed 423d
000002a0: 4394 b2bd 0d5a 553d 7a73 44bc 029a 073d
000002b0: 5edd 5e3c a2a1 403d db7d 09bd 2bed d03d
000002c0: 59f3 c13d ea03 763c 650c a53d ec23 33bc
000002d0: ab9d 233c 12fd 7ebd 0452 a1bc c10d 293d
000002e0: 82b2 89bd dd28 dbbc 03e9 883d f232 febd
000002f0: f8b0 65bd f458 993d c5b5 03bd 8ae7 90bb
00000300: ebec 95bd 8c5c a63c 1938 2cbd 9100 1cbd
00000310: 301c 163d 4d0d b73d 1a52 59bd cc2d eebb
00000320: f0f7 0d3d 149a 20bc f8a9 be3c 1587 8f3d
00000330: 1c1d 8bbc 5de2 313d e39b c93c a6c5 243d
00000340: 00d2 e33c e5b6 96bd 3812 2cbd 6fc6 46bd
00000350: 1656 e4bb c015 a3bd c6df 803d 5d78 7fbd
00000360: 5f2f 6f3d 61ed 33bd fd89 3dbd 2da4 b53c
00000370: 1b74 7f3c 5e30 1f3d 8b23 73bc 22ac a5bd
00000380: 084f f63c 90be a03c cbb0 6fbd bccc 40bd
00000390: a4d3 82bd c673 d6bd d34e 5f3d afb7 c9bc
000003a0: c599 573e 8fb4 48bd ded4 58bd 4f87 ad3c
000003b0: 6e24 00bc cee4 70bc 4fa7 833d e7fe fb3c
000003c0: 8b43 bfbc 686a 0a3e b08b 43bd 3588 143b
000003d0: d69d 483c 76e2 22bd 4ab0 853d 7be8 ea3d
000003e0: a56b ebbc a22f 183d 63bd ec3c 1303 72bc
000003f0: c179 8b3c 25b0 173d 6190 17bd 437e 76bc

interaction_layers.2.bias f4 [128]
0.017236266 0.0073698387 0.0053595896 0.009810166 -0.011113227 0.014994416 0.009335396 -0.012269164
-0.01094543 -0.015498866 0.012299968 -0.0064379396 0.011255076 0.008648613 -0.01192211 0.009622499
-0.012786204 -0.0030439189 -0.01090117 -0.003643537 -0.009965751 0.046091896 0.014012611 0.011476318
0.019253267 0.0128962025 0.010500224 0.012110012 0.008667646 0.00959725 0.007052925 0.00028233702
0.009141084 0.0054536597 0.009512786 -0.010680644 0.0030462858 -0.010570653 -0.010798871 0.00935073
0.009471051 -0.016073024 -0.007987882 -0.005786025 0.010863064 -0.0096903015 0.009956285 0.014573068
-0.017204802 -0.0011991658 -0.0075371102 -0.0019210788 0.012679321 0.0053805327 0.00089706975 0.00882247
0.008593177 -0.010073875 0.011803982 0.0091733225 0.002297179 -0.0023171871 0.011177497 -0.0046073473
-0.007547055 0.0042443518 0.012983662 0.011191428 -0.0117397215 -0.0057585477 0.011733433 0.006704117
0.010458421 0.010497209 0.0097222505 0.0060041505 0.0017859257 0.009288716 0.012162063 0.010548303
-0.01340622 -0.0010499391 0.013453634 0.0077679288 0.00085156725 0.0051591005 0.002408171 0.004326055
-0.012658063 0.012085709 0.014583867 0.00055750296 0.0057419054 0.00580906 0.013550852 0.008697154
0.010153951 0.009553859 0.008247118 -0.0096981665 0.007162628 0.008759795 0.013364434 -0.012368186
0.008845452 -0.011057004 0.0030866605 -0.014000051 0.008506392 0.0044164406 0.0009933582 0.004732195
-0.013341075 0.011950964 0.010366365 0.0018440293 0.0051724114 0.006451893 0.011205005 -0.008294089
-0.009194526 0.0013046454 0.009235989 0.00053251063 0.012468216 0.028883742 0.0048242398 -0.007823584
00000000: 1233 8d3c b07e f13b 7f9f af3b d2ba 203c
00000010: 4114 36bc 24ab 753c 7df3 183c 9b04 49bc
00000020: 7654 33bc f5ee 7dbc ce85 493c 5af5 d2bb
00000030: 3667 383c e9b2 0d3c f454 43bc b0a7 1d3c
00000040: 3a7d 51bc 7c7c 47bb d29a 32bc 68c8 6ebb
00000050: 6447 23bc dbca 3c3d 2695 653c 2b07 3c3c
00000060: 07b9 9d3c 984a 533c 2209 2c3c 1269 463c
00000070: be02 0e3c c93d 1d3c 391c e73b a206 9439
00000080: 7cc4 153c 9db4 b23b 84db 1b3c defd 2ebc
00000090: 32a4 473b 8830 2dbc bfed 30bc ce33 193c
000000a0: 782c 1b3c 93ab 83bc 9bdf 02bc b298 bdbb
000000b0: fefa 313c 12c4 1ebc b01f 233c e1c3 6e3c
000000c0: 16f1 8cbc 542d 9dba ddf9 f6bb b5cc fbba
000000d0: edbc 4f3c 2e4f b03b 5529 6b3a 1f8c 103c
000000e0: 66ca 0c3c e50c 25bc 7d65 413c b44b 163c
000000f0: 458c 163b f3db 17bb d221 373c 3bf9 96bb
00000100: 494d f7bb 3414 8b3b 6db9 543c 405c 373c
00000110: f657 40bc 33b2 bcbb 963d 403c 36ae db3b
00000120: cc59 2b3c 7cfc 2b3c 134a 1f3c 77be c43b
00000130: b915 ea3a b32f 183c 6443 473c cad2 2c3c
00000140: c3a5 5bbc 1c9e 89ba a26c 5c3c 1c8a fe3b
00000150: b63b 5f3a ac0d a93b 68d2 1d3b 94c1 8d3b
00000160: c463 4fbc 2303 463c 2cf1 6e3c 6425 123a
00000170: 9826 bc3b ed59 be3b 6504 5e3c 827e 0e3c
00000180: c25c 263c ca87 1c3c ec1e 073c 0fe5 1ebc
00000190: 7bb4 ea3b 3e85 0f3c 80f6 5a3c efa3 4abc
000001a0: 84ec 103c 7028 35bc 9249 4a3b 7860 65bc
000001b0: 655e 0b3c cab7 903b 9233 823a 8710 9b3b
000001c0: 8694 5abc facd 433c b0d7 293c 5bb3 f13a
000001d0: 557d a93b 676a d33b 3395 373c eee3 07bc
000001e0: a3a4 16bc a300 ab3a 8c52 173c 2f98 0b3a
000001f0: 7d47 4c3c 999d ec3c a814 9e3b 7d2e 00bc

interaction_layers.2.lin.weight f4 [128, 256]
0.03237851 0.0013922281 -0.012806626 0.03680794 -0.089867674 0.0019347263 0.034004614 -0.03256347
-0.028213313 -0.05462945 -0.108662695 0.011757324 0.034917187 0.090150125 -0.06581261 0.03567149
0.02236664 0.0022103966 -0.040750913 0.035059486 1.4801318e-09 0.06948715 0.13746859 -0.027281307
-0.05657249 0.065285094 1.06459455e-08 -0.018936252 -0.01316329 0.041518442 0.01949599 0.016003735
3.5954066e-09 0.024580255 0.022902774 0.11098182 0.01844413 0.04105596 0.050657548 -0.007730136
0.0830264 0.0025669555 0.052013967 0.09474304 0.08517841 -0.012947659 0.064989656 0.020688469
9.936482e-09 0.031114021 0.04665864 0.0012018788 0.10725463 0.068624765 1.4771068e-08 -0.02119524
0.03656994 -0.022279425 -0.02796025 0.05423154 0.034278657 -0.041118287 0.0022940729 0.058223236
-1.0711485e-06 0.049059387 -0.050044864 0.059786897 -0.023095088 0.010623441 0.020897258 0.03888336
0.07440768 0.055416882 -0.032635335 -0.0047325115 0.11627328 0.06746316 -0.013540388 0.028981872
0.075531855 0.040114317 0.022908732 0.02622393 -0.060267486 0.01325898 -0.014288148 -0.015993664
0.07067253 -7.887183e-09 4.3580833e-08 0.064468876 0.024521032 -0.02000406 0.0005990226 -0.018000878
-0.006343668 0.0002048761 -2.3314306e-10 0.05876846 -0.025638837 -0.0525821 -3.7006858e-09 0.030379022
0.030059904 0.051643576 0.063508004 -3.8229814e-08 0.0603875 -0.0043990063 3.6829493e-07 0.042383794
0.010746125 0.015099599 -0.055854723 -0.016795656 -0.010994069 0.0382129 -2.6128285e-08 0.119944125
0.0050143977 -0.034417193 -0.00018763186 0.065672554 -0.052776128 0.07920735 0.068724975 1.0954628e-08
-0.0020044586 0.011589636 -0.00059255987 1.3186675e-08 -0.024111189 2.7790934e-08 -3.6425654e-09 -0.010762076
0.09559686 -0.09745979 -0.023411022 0.07550486 -0.005603363 0.002948922 0.0627092 0.014327923
0.08864987 -0.018342778 0.063663006 0.004128755 0.04239623 -0.0069260374 -0.00012597362 0.067957394
-2.5921778e-09 0.012274995 0.1274397 0.032868728 0.033538565 0.03441443 -0.007030403 0.06698013
0.08217976 -0.057097882 2.6714042e-09 0.0047271447 0.035271462 1.2747315e-09 -4.02613e-09 -0.002664008
0.0004725066 0.058408935 -3.7056358e-09 -0.0009518056 0.007053018 -3.7176844e-09 0.03686295 0.0038360902
-0.010129679 0.0007477435 -2.6436153e-08 -0.043236062 -0.0036673488 0.056228362 0.043472454 0.11792939
0.029596495 0.027330888 -0.012571078 1.2474088e-09 0.024538679 0.05098572 0.0012620758 0.13936329
-3.3665188e-08 0.039525546 0.038699705 -0.030244421 -0.05253521 -0.040006485 -0.012850674 0.0023419661
-0.00014237978 0.11151488 0.05104924 1.6091395e-08 0.057920594 0.026059117 -0.08275357 0.019304022
0.02907892 0.05594624 -0.010203415 -0.028189221 0.02910685 0.052277233 0.04105679 0.070555806
-0.0474043 -0.049934816 0.07645994 -0.008892419 -0.0017357485 0.0461824 8.6146024e-08 0.07694459
0.09171166 0.051625032 0.014619812 -0.0070337653 0.039875165 -0.0005808807 8.528404e-07 -0.018817047
-2.5138863e-05 -0.005532632 -5.468027e-08 -0.06813358 0.06608821 0.014813484 -6.22343e-09 -0.0357026
-0.0012299321 0.008015602 -0.002699781 0.005487932 0.07653396 -0.026222052 -0.001922574 0.071590126
0.026134666 4.7103604e-10 0.016618023 -0.003106641 -1.9502241e-10 5.8193746e-07 -1.6866437e-09 -0.00011764151
00000000: 549f 043d 6c7b b63a e2d2 51bc ecc3 163d
00000010: 8b0c b8bd a496 fd3a 6c48 0b3d 4661 05bd
00000020: 9b1f e7bc 21c3 5fbd 8c8a debd cba1 403c
00000030: 5305 0f3d a1a0 b83d c3c8 86bd 451c 123d
00000040: 3e3a b73c 4ddc 103b 6eea 26bd 899a 0f3d
00000050: 826d cb30 474f 8e3d 91c4 0c3e 0c7d dfbc
00000060: 8eb8 67bd 31b4 853d 5de5 3632 3320 9bbc
00000070: d7aa 57bc 3e0f 2a3d 0eb6 9f3c 441a 833c
00000080: 1013 7731 885c c93c 999e bb3c 704a e33d
00000090: 2518 973c 4b2a 283d 4a7e 4f3d 154d fdbb
000000a0: bf09 aa3d 5e3a 283b 990c 553d a408 c23d
000000b0: 0572 ae3d 6b22 54bc 4c19 853d dd7a a93c
000000c0: 1cb5 2a32 d5e2 fe3c 211d 3f3d 5c88 9d3a
000000d0: 51a8 db3d 248b 8c3d d8c3 7d32 a4a1 adbc
000000e0: 5dca 153d 5783 b6bc e50c e5bc e421 5e3d
000000f0: c767 0c3d a66b 28bd 2858 163b 7d7b 6e3d
00000100: 62c4 8fb5 7ff2 483d d8fb 4cbd 1be3 743d
00000110: e931 bdbc f10d 2e3c ba30 ab3c 2844 1f3d
00000120: 0e63 983d d0fc 623d a1ac 05bd 2f13 9bbb
00000130: af20 ee3d 202a 8a3d 81d8 5dbc 646b ed3c
00000140: 72b0 9a3d e94e 243d 18ab bb3c 91d3 d63c
00000150: 0adb 76bd 313c 593c d618 6abc 2505 83bc
00000160: c2bc 903d 3380 07b2 a22d 3b33 4208 843d
00000170: 55e0 c83c 8edf a3bc ba07 1d3a 9476 93bc
00000180: 8bde cfbb 02d4 5639 f82b 80af 32b7 703d
00000190: 8a08 d2bc 5460 57bd 274f 7eb1 6ddd f83c
000001a0: 3040 f63c 3788 533d 7c10 823d 2032 24b3
000001b0: e258 773d 8a25 90bb 12ba c534 a19a 2d3d
000001c0: 8410 303c 4f64 773c ecc7 64bd 0b97 89bc
000001d0: 7820 34bc 2185 1c3d b570 e0b2 44a5 f53d
000001e0: d14f a43b 0bf9 0cbd 0bbf 44b9 557f 863d
000001f0: c82b 58bd 7737 a23d aebf 8c3d f732 3c32
00000200: 3c5d 03bb 75e2 3d3c 0556 1bba 9c8b 6232
00000210: d484 c5bc e9b8 ee32 b050 7ab1 6b53 30bc
00000220: 49c8 c33d 0099 c7bd 79c8 bfbc 4ba2 9a3d
00000230: 6a9c b7bb b442 413b ae6d 803d aabf 6a3c
00000240: 108e b53d 9843 96bc c061 823d 824a 873b
00000250: aba7 2d3d d0f3 e2bb c917 04b9 3f2d 8b3d
00000260: 1322 32b1 101d 493c 8d7f 023e 5ca1 063d
00000270: bc5f 093d 25f6 0c3d 4b5f e6bb e12c 893d
00000280: dd4d a83d 78df 69bd d793 3731 2ae6 9a3b
00000290: cf78 103d a132 af30 3756 8ab1 a396 2ebb
000002a0: c3ba f739 353e 6f3d 3ca6 7eb1 9882 79ba
000002b0: 011d e73b 327a 7fb1 9bfd 163d ea66 7b3b
000002c0: f4f6 25bc 3804 443a b715 e3b2 4c18 31bd
000002d0: e757 70bb b64f 663d 2c10 323d f784 f13d
000002e0: 5974 f23c 07e5 df3c ecf6 4dbc 4c71 ab30
000002f0: 5705 c93c 67d6 503d 3d6c a53a 40b5 0e3e
00000300: 4497 10b3 8ae5 213d 9583 1e3d 26c3 f7bc
00000310: 292f 57bd d7dd 23bd a28b 52bc ac7b 193b
00000320: c84b 15b9 ea61 e43d 0219 513d 5a39 8a32
00000330: 253e 6d3d ee79 d53c b47a a9bd 7823 9e3c
00000340: ea36 ee3c e227 653d 392c 27bc 15ed e6bc
00000350: 7d71 ee3c a720 563d 2a2b 283d 907f 903d
00000360: 032b 42bd 7388 4cbd 0797 9c3d 82b1 11bc
00000370: 0e82 e3ba c229 3d3d 47ff b833 2095 9d3d
00000380: 53d3 bb3d c574 533d f087 6f3c 807b e6bb
00000390: 2454 233d 3e46 18ba bfee 6435 3526 9abc
000003a0: 4ce1 d2b7 154b b5bb 98d9 6ab3 9e89 8bbd
000003b0: 4159 873d 41b4 723c dfd5 d5b1 e43c 12bd
000003c0: ac35 a1ba df53 033c cfee 30bb 1cd4 b33b
000003d0: d6bd 9c3d a1cf d6bc e1fe fbba d89d 923d
000003e0: 5e18 d63c 377a 0130 8522 883c c998 4bbb
000003f0: ee6d 56af 7036 1c35 80cf e7b0 4eb6 f6b8

interaction_layers.4.bias f4 [64]
0.017351834 0.025900424 0.017204935 -0.014044796 -0.019999849 -0.010463108 0.020192394 -0.03153836
-0.0014482314 0.014118394 -0.017833492 0.013746242 0.0048276195 -0.0016741825 0.01906916 0.01140329
0.015708359 -0.008737568 0.018272625 -0.011755299 -0.015833167 -0.008118886 -0.00812757 -0.014235165
0.026442703 0.013555297 0.018743265 -0.01470326 0.014955279 0.019143099 -0.011981069 -0.018383168
0.014928682 -0.014489815 -0.005504591 0.017935304 0.0013402535 -0.022375103 0.018085614 0.020454904
0.02434014 0.011511274 0.0150243845 -0.012638816 0.010056739 0.005958821 -0.01647143 -0.0066125975
-0.018125521 -0.009919366 -0.009728536 0.019217718 -0.013324266 -0.016666824 -0.0077263233 0.020954335
-0.01306378 0.016353723 0.017516514 0.011538574 0.011522051 -0.01675545 -0.022107095 -0.01788218
00000000: 6f25 8e3c 202d d43c 5df1 8c3c 251c 66bc
00000010: b9d6 a3bc 756d 2bbc 856a a53c 5e2e 01bd
00000020: 95d2 bdba d650 673c 8b17 92bc eb37 613c
00000030: 0231 9e3b 3e70 dbba ed36 9c3c ddd4 3a3c
00000040: d1ae 803c 0428 0fbc 79b0 953c 4c99 40bc
00000050: 8fb4 81bc 1305 05bc 8029 05bc 9c3a 69bc
00000060: 5e9e d83c 0917 5e3c 7a8b 993c f1e5 70bc
00000070: fd06 753c fdd1 9c3c 3f4c 44bc 4c98 96bc
00000080: 6e97 743c b066 6dbc db5f b4bb 0fed 923c
00000090: 72ab af3a fe4b b7bc 4828 943c 0b91 a73c
000000a0: f964 c73c c899 3c3c d628 763c 0913 4fbc
000000b0: 05c5 243c 3742 c33b 18ef 86bc 7dae d8bb
000000c0: f97b 94bc d684 22bc 7064 1fbc 7a6e 9d3c
000000d0: 064e 5abc dd88 88bc 192d fdbb 6da8 ab3c
000000e0: 7709 56bc 3ef8 853c cb7e 8f3c 490c 3d3c
000000f0: fcc6 3c3c ba42 89bc f019 b5bc a67d 92bc

interaction_layers.4.lin.weight f4 [64, 128]
-0.07996157 0.02213556 0.11816652 -0.088498235 -0.14044902 -0.14265786 -0.00813156 -0.02640433
-0.07594642 0.041188538 0.08469598 -4.539616e-05 -0.093475394 0.12127755 -0.015597356 0.112606786
-0.11221885 0.11906893 0.023151176 0.15146631 0.03589639 -0.032852706 0.01275135 -0.06961871
-0.057235613 0.0038507367 -0.117318794 -0.08318509 -0.04296109 0.09784858 0.111742616 0.0030611206
0.022548424 0.010730948 0.029844351 0.18638939 0.09599449 0.086143404 0.041951936 0.017958378
0.19843028 -0.056191143 7.984905e-06 0.040259633 -0.028885389 -0.035061557 0.0426288 0.00628781
0.03726932 9.230491e-06 -0.019022275 0.0040412853 0.024304556 0.13050383 0.10220648 -0.08071813
-0.02346024 4.633899e-06 -0.13852495 0.05704764 0.027583255 -0.020532928 -0.0151176825 -0.022106552
-0.0003989182 0.07248305 0.055080127 -0.0004769308 0.020365058 -0.008147547 0.14124207 -0.08937441
-0.11839645 0.027954776 0.09236899 0.11075653 -0.087596245 0.06489215 -0.11779925 0.004650498
0.1152009 0.11217147 0.04583585 -0.071496725 -0.04932675 0.118028134 -0.08258443 -0.070160806
0.00037620318 -0.03264552 -0.04166514 0.052073035 -0.048838302 0.1903211 0.027630674 0.039555546
0.010365087 0.05079685 0.22327565 0.0012434381 0.059105407 0.07875844 0.023306321 -0.06979844
-0.07155286 0.020016579 0.044288505 -0.036881603 0.16532056 0.1324154 -0.01595405 -0.0647289
-0.045857314 -0.03747394 0.22449505 -0.007639391 0.08156588 -0.041712277 -0.007925047 -0.037016477
-3.8251193e-05 0.11320778 0.07548094 0.109208435 -0.021336485 0.040570952 0.09062426 -0.050804805
0.02483722 -0.037435636 -0.12987731 -0.062412854 -0.0027122754 0.022518752 -0.04529602 -0.060444936
0.04870413 -0.035882555 -0.18474294 7.82875e-05 -0.013521925 -0.06813077 -0.042301696 -0.009608234
0.0122414995 -0.030561317 0.00438402 0.020308085 0.00397451 0.109610856 -0.10680373 0.016377527
0.1506295 0.046367597 0.06390712 0.15835685 0.02849007 0.0032859023 -0.08031358 -0.18873823
0.024387227 -0.028171893 -0.030255599 -0.010934837 0.061322913 0.07648461 0.005824061 0.114393756
0.08586166 0.01650144 -0.034523945 0.0077914125 0.025033707 -3.7936356e-05 -0.056876816 0.018778184
-0.09641989 7.2068033e-06 -0.0018120916 -2.3017697e-06 -0.021458598 -0.15405902 0.00680929 0.06543783
-0.009958471 -0.022894274 -0.1579943 0.025708579 -0.025243707 0.10380371 0.026862629 0.017577004
-0.00023278307 -0.12698832 0.06787413 -0.06281311 -0.056860197 -0.0046548243 0.006216134 -0.10823137
-0.025956208 -0.0013620661 -0.09517003 0.00400233 0.0025937036 -0.075730965 -0.023860503 0.10949519
-0.023807958 0.05569049 0.036033038 -0.040433634 -0.09843179 0.060088582 0.02668144 0.03635177
-0.0014933338 0.009067278 0.12295034 -0.026208995 -0.032368936 0.04399844 -0.01487978 0.03409111
-0.014519713 -0.0658067 -0.012733211 0.014959414 0.07801941 0.11090478 0.16007641 -0.083363816
0.09517773 0.09267674 -0.030817073 0.08776887 0.1137595 0.09210435 -0.055055313 -0.023145324
-0.14739043 0.18298255 0.10216911 0.025592903 0.076151386 -0.13182679 0.037196327 0.0041583097
0.00029282254 0.19616662 -0.10608631 -0.091293216 -0.095662914 -0.05322057 -0.06960455 -0.049006645
00000000: e4c2 a3bd a255 b53c 4a01 f23d 903e b5bd
00000010: ded1 0fbe e714 12be 3c3a 05bc e54d d8bc
00000020: cc89 9bbd 50b5 283d 1675 ad3d c167 3eb8
00000030: 0770 bfbd 5d60 f83d 0d8c 7fbc 639e e63d
00000040: ffd2 e5bd 69da f33d 89a7 bd3c fc19 1b3e
00000050: 1808 133d 8f90 06bd 0aeb 503c 4194 8ebd
00000060: e46f 6abd a45c 7c3b d644 f0bd f25c aabd
00000070: f8f7 2fbd d664 c83d 50d9 e43d 159d 483b
00000080: 79b7 b83c dcd0 2f3c 247c f43c dcdc 3e3e
00000090: c298 c43d f46b b03d cbd5 2b3d 731d 933c
000000a0: 4f31 4b3e af28 66bd e8f6 0537 49e7 243d
000000b0: 0da1 ecbc b59c 0fbd 899b 2e3d f909 ce3b
000000c0: b7a7 183d a8dc 1a37 9ad4 9bbc c26c 843b
000000d0: 591a c73c cca2 053e a251 d13d 8c4f a5bd
000000e0: b02f c0bc e47c 9b36 7cd9 0dbe c9aa 693d
000000f0: 47f6 e13c ac34 a8bc 28b0 77bc cd18 b5bc
00000100: e525 d1b9 fe71 943d b39b 613d 920c fab9
00000110: 9fd4 a63c 4a7d 05bc c3a1 103e ee09 b7bd
00000120: d779 f2bd 6a01 e53c f42b bd3d 52d4 e23d
00000130: a965 b3bd 2de6 843d bc40 f1bd 3463 983b
00000140: 73ee eb3d 28ba e53d 5fbe 3b3d e06c 92bd
00000150: d90a 4abd bcb8 f13d 0722 a9bd 78b0 8fbd
00000160: 233d c539 4fb7 05bd 11a9 2abd 894a 553d
00000170: ac0a 48bd 89e3 423e b959 e23c ff04 223d
00000180: 53d2 293c 5c10 503d 5fa2 643e dcfa a23a
00000190: 8318 723d 1b4c a13d e6ec be3c 7cf2 8ebd
000001a0: 4e8a 92bd cff9 a33c dd67 353d 2a11 17bd
000001b0: cb49 293e e797 073e 11b2 82bc 9690 84bd
000001c0: e1d4 3bbd 467e 19bd 08e2 653e db53 fabb
000001d0: 030c a73d 7eda 2abd 0ed8 01bc 979e 17bd
000001e0: e86f 20b8 7bd9 e73d c095 9a3d aca8 df3d
000001f0: dac9 aebc ba2d 263d 3699 b93d b318 50bd
00000200: 6d77 cb3c 1c56 19bd 8ffe 04be 9fa4 7fbd
00000210: 6ec0 31bb 3f79 b83c 5288 39bd 1c95 77bd
00000220: fb7d 473d 96f9 12bd 412d 3dbe 482e a438
00000230: 108b 5dbc 2588 8bbd 8b44 2dbd db6b 1dbc
00000240: 9290 483c ba5b fabc d3a7 8f3b 245d a63c
00000250: 9b3c 823b a87b e03d eabb dabd 2a2a 863c
00000260: 9f3e 1a3e f3eb 3d3d bce1 823d 4c28 223e
00000270: 0264 e93c 4b58 573b 727b a4bd 9844 41be
00000280: b9c7 c73c bec8 e6bc 97da f7bc 0828 33bc
00000290: bc2d 7b3d f7a3 9c3d c4d7 be3b 4647 ea3d
000002a0: 3dd8 af3d 072e 873c fb68 0dbd 1b4f ff3b
000002b0: 7d13 cd3c da1d 1fb8 aaf7 68bd b5d4 993c
000002c0: cb77 c5bd f8d1 f136 b483 edba 1a78 1ab6
000002d0: f1c9 afbc a6c1 1dbe 7720 df3b 4504 863d
000002e0: db28 23bc c68c bbbc 42c9 21be cc9a d23c
000002f0: e4cb cebc 0a97 d43d 040f dc3c a6fd 8f3c
00000300: 3b17 74b9 3a09 02be 9801 8b3d 29a4 80bd
00000310: 3de6 68bd 7f87 98bb b6b0 cb3b 69a8 ddbd
00000320: 1da2 d4bc 5b87 b2ba 81e8 c2bd fa25 833b
00000330: 20fb 293b d618 9bbd 1a77 c3bc 043f e03d
00000340: e808 c3bc b61b 643d 6197 133d bd9d 25bd
00000350: 9b96 c9bd 721f 763d 0993 da3c 98e5 143d
00000360: f8bb c3ba ec8e 143c 63cd fb3d 3fb4 d6bc
00000370: 4a95 04bd b537 343d 52ca 73bc 1fa3 0b3d
00000380: 17e4 6dbc aac5 86bd f59e 50bc 5418 753c
00000390: a4c8 9f3d 0c22 e33d 12eb 233e a6ba aabd
000003a0: 8bec c23d 4dcd bd3d 1674 fcbc 2ac0 b33d
000003b0: befa e83d 35a1 bc3d ae81 61bd 439b bdbc
000003c0: 84ed 16be c75f 3b3e 0a3e d13d 35a8 d13c
000003d0: 42f5 9b3d 9afd 06be 2d5b 183d 6e42 883b
000003e0: fa85 9939 e7df 483e c843 d9bd f0f7 babd
000003f0: ebea c3bd d0fd 59bd d58c 8ebd 31bb 48bd

out.weight f4 [200, 64]
0.04191159 0.0010207683 -0.0013918969 -0.020480385 0.0043415013 -0.00032203743 0.031471763 -0.012019502
-0.001427863 -0.054020885 0.006125089 0.0024977042 -0.0002638482 -0.016848588 0.017704703 0.035608295
-0.024370179 -0.002818903 0.063599944 0.008219748 -0.0012951859 0.03000683 0.0047593424 0.0062654926
-0.0016659093 0.024093913 -0.0054755956 -0.003177806 -0.05050354 0.014300842 0.00906957 -0.026234843
-0.0035595938 0.03985695 -0.06454473 0.002848398 -0.016025951 -0.018890055 0.00047566052 -0.0036041064
-0.0006054323 -0.032670178 -0.0052085705 -0.016236797 0.00043665338 -0.04309918 0.006899453 -0.0024808533
-0.0031324336 0.02352451 -0.020598661 -0.003774226 -0.0031504522 0.017158834 0.015200162 -0.0031721778
0.0025693069 0.0010516549 -0.010623401 0.00072020775 -0.024364632 -0.011543388 -0.01141117 -0.0060239644
0.023620311 -0.0037887096 -0.00052025315 0.0064959205 -0.0034686264 0.00074041734 0.0010729656 0.0011557115
-0.04689735 0.0018794297 -0.009567974 -0.0125537515 -0.008241298 -0.00299766 -0.012919471 0.0040698536
0.00056046486 0.0064699072 0.0062753414 -0.012653064 -0.004548683 0.04206706 0.002154166 0.016345983
0.001426457 -0.008582518 -0.0033322175 -0.0020126968 0.0021149237 0.013439949 0.009909908 0.007094068
-0.0007711798 0.025611855 0.0014815426 -0.002480952 -0.0008752871 0.0046892883 0.024208363 -0.005425042
-6.880499e-05 0.0067893793 0.0630053 -0.013586659 -0.0040811896 -0.0065374114 0.004424664 -0.0025212644
-1.6790338e-05 0.012201463 0.015334828 0.0031054504 0.016583974 0.0110124815 -0.04308839 -0.0038546268
0.010452938 0.0005906951 -0.005854327 -0.001990639 -0.04839043 0.0032265396 -0.10624442 -0.00854866
-0.016044667 2.6765101e-06 -0.013724512 -0.0038652697 0.0003395992 0.006995699 -0.030331368 0.007960208
0.0038837085 -0.022173196 -0.0066656414 0.036459845 -0.014038272 0.007909261 0.0027130004 0.050006185
-0.03759318 0.048173115 -0.024700949 0.03785312 0.0025850185 -0.03693643 0.00038470305 0.009490338
0.004685338 -0.035077855 -0.0065912222 -0.001240892 -0.011660718 0.006444721 0.012886438 -0.032644354
-7.824406e-05 0.0052789804 0.007104283 0.009337765 -0.0024929303 -0.006923132 -0.011122281 -0.04052139
-0.0029867373 0.0024317494 0.0057056416 0.002975951 0.093714766 0.0079923095 -0.00042793405 0.0034717636
0.00053725427 -0.012106908 -0.04127608 -0.010125795 0.012984114 -0.023057029 -0.03191051 0.015294637
-0.007515841 -0.0048191645 -0.022085117 0.0041837436 -0.03573002 -0.000887363 -0.0074978066 -0.017109578
-0.006264665 0.0046555055 -0.007316276 0.00068194437 -0.00913131 0.004818421 0.002971555 0.010366453
0.023301708 -0.046581354 -0.031825617 -0.03413333 0.010423272 -0.008534301 -0.0072334604 0.010597369
0.012122403 -0.059738427 0.032286827 0.00886777 -0.0012355389 -0.024084745 -0.00042926156 0.02726621
0.0013253711 -0.0033326868 -0.001926453 0.0057386 -0.009174118 -0.027850404 0.005264822 0.008398758
-8.50594e-06 -0.022611717 -0.014112677 -0.028786741 -0.006755813 -0.007200385 0.0007871127 0.020278078
0.01988108 -0.0074639716 0.010641745 -0.0013252689 -0.0020384458 -0.054058947 -0.006117151 0.0023468784
0.004545703 -0.00091602 -0.016256897 -0.0063071735 0.0004345439 0.0017699865 -0.0036368126 -0.0017156184
0.007871127 0.01998263 -0.015281626 -0.0020205793 -0.018560737 -0.03672879 0.0038549926 -0.004587264
00000000: 7dab 2b3d 4dcb 853a 4f70 b6ba 7bc6 a7bc
00000010: 2743 8e3b 22d7 a8b9 89e8 003d 72ed 44bc
00000020: 2227 bbba 0145 5dbd f8b4 c83b 86b0 233b
00000030: 1b55 8ab9 0d06 8abc 7409 913c 01da 113d
00000040: f8a3 c7bc 58bd 38bb b040 823d 1fac 063c
00000050: 3ac3 a9ba e2d0 f53c 42f4 9b3b c34e cd3b
00000060: a45a daba 9960 c53c a06c b3bb bd42 50bb
00000070: cddc 4ebd 144e 6a3c 8998 143c 74ea d6bc
00000080: 1348 69bb 0b41 233d 0730 84bd 30ac 3a3b
00000090: db48 83bc 51bf 9abc 1362 f939 df32 6cbb
000000a0: e0b5 1eba 2ad1 05bd a8ac aabb 0803 85bc
000000b0: a0ee e439 c488 30bd ce14 e23b d095 22bb
000000c0: 8449 4dbb 79b6 c03c 86be a8bc 0159 77bb
000000d0: d177 4ebb af90 8c3c 1a0a 793c 50e4 4fbb
000000e0: d161 283b afd7 893a c60d 2ebc 53cc 3c3a
000000f0: 5698 c7bc 7a20 3dbc eaf5 3abc ad64 c5bb
00000100: 627f c13c 004c 78bb 9961 08ba bbdb d43b
00000110: e551 63bb 9118 423a c0a2 8c3a 3e7b 973a
00000120: 7017 40bd 3257 f63a fec2 1cbc 40ae 4dbc
00000130: 8206 07bc 6474 44bb 30ac 53bc 685c 853b
00000140: 29ec 123a 8401 d43b 61a1 cd3b cc4e 4fbc
00000150: 1e0d 95bb 824e 2c3d e92c 0d3b 03e8 853c
00000160: f4f7 ba3a b19d 0cbc 5561 5abb 73e7 03bb
00000170: 889a 0a3b 3b33 5c3c 2b5d 223c 5b75 e83b
00000180: 0029 4aba f4cf d13c 5230 c23a 7897 22bb
00000190: 8673 65ba 9aa8 993b 9e50 c63c 8dc4 b1bb
000001a0: 664b 90b8 7179 de3b ec08 813d 949a 5ebc
000001b0: 80bb 85bb c837 d6bb c6fc 903b cc3b 25bb
000001c0: fad8 8cb7 a5e8 473c ee3e 7b3c d084 4b3b
000001d0: 1ddb 873c b26d 343c 747d 30bd e89d 7cbb
000001e0: cd42 2b3c e1d8 1a3a a8d5 bfbb 6175 02bb
000001f0: 0b35 46bd 5a74 533b ad96 d9bd ae0f 0cbc
00000200: 1b70 83bc 189e 3336 c7dc 60bc 7750 7dbb
00000210: 3c0c b239 2d3c e53b 7d79 f8bc 886b 023c
00000220: d185 7e3b 90a4 b5bc 746b dabb eb56 153d
00000230: c800 66bc d895 013c 98cc 313b 49d3 4c3d
00000240: 4efb 19bd 2c51 453d a559 cabc e00b 1b3d
00000250: 6a69 293b a74a 17bd f8b1 c939 5d7d 1b3c
00000260: 7787 993b ccad 0fbd 2efb d7bb 6da5 a2ba
00000270: 990c 3fbc 3d2e d33b a321 533c 16b6 05bd
00000280: f616 a4b8 4cfb ac3b 0ccb e83b 6dfd 183c
00000290: 6e60 23bb 71db e2bb 3a3a 36bc c2f9 25bd
000002a0: 23bd 43bb fc5d 1f3b 64f6 ba3b 2c08 433b
000002b0: 87ed bf3d 2df2 023c 565c e0b9 8786 633b
000002c0: 86d6 0c3a 0d5c 46bc 1b11 29bd aae6 25bc
000002d0: 52bb 543c 18e2 bcbc 98b4 02bd 5b96 7a3c
000002e0: 7247 f6bb 15ea 9dbb d9eb b4bc c917 893b
000002f0: a459 12bd ec9d 68ba 29b0 f5bb 6329 8cbc
00000300: d247 cdbb 368d 983b 5fbd efbb 83c4 323a
00000310: 7d9b 15bc d8e3 9d3b 6cbe 423b 0ed8 293c
00000320: 39e3 be3c 17cc 3ebd 945b 02bd 64cf 0bbd
00000330: 5fc6 2a3c 74d3 0bbc aa06 edbb 96a0 2d3c
00000340: 0b9d 463c 48b0 74bd 313f 043d 204a 113c
00000350: cef1 a1ba 5f4d c5bc 830e e1b9 635d df3c
00000360: 13b8 ad3a 3569 5abb 0981 fcba de0a bc3b
00000370: 0a4f 16bc 8826 e4bc 8784 ac3b f29a 093c
00000380: bcb4 0eb7 353c b9bc dc38 67bc 2cd2 ebbc
00000390: de5f ddbb 35f1 ebbb 3d56 4e3a 361e a63c
000003a0: a6dd a23c 5594 f4bb b75a 2e3c a5b4 adba
000003b0: 7297 05bb ea6c 5dbd 6272 c8bb 16ce 193b
000003c0: 1ff4 943b 1021 70ba 2f2d 85bc 68ac cebb
000003d0: 7fd3 e339 e4fe e73a 9757 6ebb 9ade e0ba
000003e0: e6f5 003c 9db2 a33c c95f 7abc b26b 04bb
000003f0: b00c 98bc ed70 16bd 0ba4 7c3b c250 96bb

out.bias f4 [200]
-0.0046881083 -0.0164874 0.013241004 0.008935862 -0.011009052 0.01896824 -0.0058057755 -0.005827616
-0.008556822 -0.007726702 0.003757037 -0.012615575 -0.009054737 -0.008241037 0.009130051 -0.016811464
-0.0060603726 0.013514648 -0.007884187 -0.009744814 -0.002197498 0.0004802491 0.016060114 -0.0047943476
0.024225911 0.0056909504 0.018402934 0.013938579 0.01869871 0.027140643 0.013829328 0.0007574422
0.028702462 0.028588045 0.026719725 0.033845466 0.0306477 0.020137917 0.035057697 0.03565396
0.03888826 0.036094535 0.036099125 0.046812605 0.0379166 0.038180355 0.051298633 0.04249524
0.051820844 0.045024585 0.04535058 0.04455852 0.040023822 0.03955432 0.039404016 0.036273733
0.036032148 0.034850575 0.0443808 0.027232744 0.032658156 0.029610423 0.036430348 0.028465698
0.02704287 0.028119726 0.02859514 0.026749028 0.038923502 0.024369298 0.035356365 0.027144147
0.026659727 0.0088302335 0.025079839 0.016947633 0.025100866 0.026224056 0.026128972 0.029990343
0.027703198 0.026186287 0.02590011 0.027141886 0.029042292 0.02924166 0.027811084 0.032235984
0.031306274 0.031395223 0.035667617 0.032809038 0.032502547 0.031301662 0.030870456 0.03595187
0.03949174 0.031900052 0.03166634 0.033215515 0.036082596 0.031517178 0.044119585 0.032034073
0.029851487 0.032430016 0.041596875 0.031392537 0.036486726 0.03162974 0.033123598 0.04365064
0.037953258 0.04484048 0.040216316 0.05838118 0.04780653 0.045960933 0.041521672 0.053125344
0.04065244 0.06039438 0.044603683 0.051336903 0.05768276 0.044844195 0.059292138 0.06460503
0.045647297 0.049007446 0.055927064 0.048245974 0.06312833 0.054525547 0.058147185 0.06471274
0.041378606 0.049418475 0.053379994 0.038500674 0.047309656 0.04340772 0.039082035 0.042007007
0.03861502 0.053643413 0.03999084 0.055410106 0.03895271 0.053174436 0.042961515 0.049771354
0.039462157 0.034658 0.04287842 0.047195703 0.044913996 0.03401454 0.03339356 0.03351402
0.03455029 0.040649027 0.040548626 0.040942475 0.03294659 0.045249365 0.036360387 0.033353765
0.034076795 0.030811934 0.026528262 0.047583137 0.03624543 0.043854114 0.03308713 0.042623445
0.032453235 0.03427174 0.037786406 0.03808158 0.044667564 0.03528528 0.039961975 0.038110368
0.034925602 0.042379294 0.04022027 0.036605604 0.04016131 0.039077662 0.044210702 0.033548806
0.035186853 0.03560867 0.03917416 0.038643055 0.034417223 0.036331214 0.034644093 0.034595836
00000000: b49e 99bb 9510 87bc ccf0 583c b967 123c
00000010: 505f 34bc 4863 9b3c 603e bebb 96f5 bebb
00000020: ea31 0cbc 4630 fdbb 9f38 763b 8fb1 4ebc
00000030: 525a 14bc 6a05 07bc 3696 153c 32b8 89bc
00000040: 1796 c6bb 8b6c 5d3c ad2c 01bc b6a8 1fbc
00000050: e603 10bb f1c9 fb39 8090 833c e719 9dbb
00000060: 6b75 c63c 277b ba3b c0c1 963c a35e 643c
00000070: 092e 993c 0e56 de3c 6894 623c 168f 463a
00000080: 6d21 eb3c 7a31 ea3c 53e3 da3c 8ba1 0a3d
00000090: e310 fb3c 46f8 a43c a998 0f3d e309 123d
000000a0: 4c49 1f3d ddd7 133d addc 133d 93be 3f3d
000000b0: 704e 1b3d 0163 1c3d 841e 523d 7d0f 2e3d
000000c0: 1842 543d b36b 383d 88c1 393d ff82 363d
000000d0: 05f0 233d b603 223d 1b66 213d c493 143d
000000e0: 7296 133d 7abf 0e3d a4c8 353d 3417 df3c
000000f0: 8fc4 053d 8f91 f23c fd37 153d e530 e93c
00000100: 0289 dd3c 575b e63c 5b40 ea3c c720 db3c
00000110: 406e 1f3d 1fa2 c73c d6d1 103d 675d de3c
00000120: 8065 da3c afac 103c 3c74 cd3c c3d5 8a3c
00000130: 55a0 cd3c d5d3 d63c 6d0c d63c 4fae f53c
00000140: d1f1 e23c a084 d63c 782c d43c a958 de3c
00000150: 1aea ed3c 358c ef3c 12d4 e33c e109 043d
00000160: 023b 003d 4798 003d 3518 123d c562 063d
00000170: 6421 053d 2c36 003d 0ae4 fc3c 4542 133d
00000180: 17c2 213d a1a9 023d 90b4 013d fe0c 083d
00000190: 58cb 133d 2818 013d bdb6 343d 2936 033d
000001a0: 1b8b f43c 56d5 043d 7c61 2a3d 7695 003d
000001b0: 1b73 153d 308e 013d 9cac 073d 03cb 323d
000001c0: e074 1b3d a7aa 373d ddb9 243d 1b21 6f3d
000001d0: c8d0 433d 8841 3c3d a112 2a3d f699 593d
000001e0: 2c83 263d 1960 773d 5ab2 363d a546 523d
000001f0: c244 6c3d 8cae 373d 50dc 723d a44f 843d
00000200: a9f8 3a3d 08bc 483d c713 653d 929d 453d
00000210: 6d49 813d 2e56 5f3d be2b 6e3d 1d88 843d
00000220: 9d7c 293d 076b 4a3d fba4 5a3d e2b2 1d3d
00000230: c5c7 413d 4bcc 313d 7c14 203d 8a0f 2c3d
00000240: c92a 1e3d 32b9 5b3d 6fcd 233d b5f5 623d
00000250: e08c 1f3d 70cd 593d 6af8 2f3d 0cdd 4b3d
00000260: 12a3 213d 8cf5 0d3d 48a1 2f3d 4850 413d
00000270: bdf7 373d d552 0b3d b0c7 083d ff45 093d
00000280: 9b84 0d3d 987f 263d 5116 263d 4cb3 273d
00000290: 01f3 063d 6657 393d a1ee 143d f59d 083d
000002a0: 1c94 0b3d 4f69 fc3c cc51 d93c 89e6 423d
000002b0: 1776 143d 5fa0 333d 5f86 073d ec95 2e3d
000002c0: afed 043d 8660 0c3d ebc5 1a3d 6efb 1b3d
000002d0: 56f5 363d 4c87 103d 2baf 233d 9e19 1c3d
000002e0: 260e 0f3d e995 2d3d 03be 243d c2ef 153d
000002f0: 3080 243d e60f 203d 4816 353d 796a 093d
00000300: 1720 103d 66da 113d 1675 203d 2e48 1e3d
00000310: 13f9 0c3d 0ad0 143d f7e6 0d3d 5db4 0d3d
