best_model/xasnet_gnn_model_3.pt (torch, 390266 bytes, 20 tensors)

batch_norms.0.weight f4 [64]
00000000: 8003 4a3e 101e 2c3e cb0d 623e 7014 493e
00000010: f19f 043e de3e a53e 7b92 373e e3ec e03d
00000020: c2cd 243e d934 4f3e 1b4d be3d 0839 393e
00000030: 2b7e 293e 3532 293e ab89 633e b063 193e
00000040: 7048 3b3e 454d a33e b3f8 1b3e df79 3c3e
00000050: 8c92 473e 7bc8 0e3e 6d96 973e 7e90 553e
00000060: f8d4 853e 2004 2c3e 7f39 353e 00a9 cd3d
00000070: 9807 f23d 851a 5c3e cc0a 603e 3fbd dc3d
00000080: e547 253e 7192 213e 9c1b 463e 2bb6 3d3e
00000090: ed9a d73d 77d7 803e 1ca2 313e 8b3b e83d
000000a0: 207d 1b3e 19db 413e a8f2 f43d fffe 013e
000000b0: 5a7c 0b3e 5755 303e b1aa 533e eee2 123e
000000c0: d5d7 353e 2964 373e 5b20 213d 2493 263e
000000d0: d675 283e 2228 713e 1717 b43e 908d 2e3e
000000e0: cadc f53d 23ed f83d a682 2e3e 7f3d 913d
000000f0: 6efa 203e 2f11 fe3d f1dd 053e f309 2e3e
0.19727898 0.16808343 0.22075574 0.19636703 0.12951638 0.32274526 0.17926972 0.109826826
0.16094115 0.20235004 0.092920505 0.18088162 0.16552036 0.16523059 0.22220485 0.14979434
0.18289351 0.3189489 0.1523159 0.18405865 0.19489497 0.13943665 0.29606953 0.208559
0.26139045 0.16798449 0.17697714 0.10042 0.11817855 0.21494491 0.21879119 0.10778283
0.16140707 0.15778519 0.1934647 0.18526523 0.105275966 0.25164387 0.17346996 0.11339482
0.1518445 0.18931235 0.119603455 0.1269493 0.13621655 0.17220055 0.20670582 0.1434438
0.17758115 0.17909302 0.039337497 0.16267067 0.16451201 0.23550466 0.35173866 0.1704619
0.12005003 0.12154605 0.17042026 0.070918076 0.15720531 0.12405621 0.13072945 0.16995983

batch_norms.0.bias f4 [64]
00000000: 077a 2ebe d860 c6bd 5e2a 0bbe 2881 94bd
00000010: bfe9 cabd 823e 49be b9be abbd 7e77 7bbd
00000020: 5a64 39be 93b2 83be 7fd7 d4bc e3a6 02be
00000030: 0115 54be b001 e7bd 4b42 3dbe f23b 0abd
00000040: a565 06be da09 40be 15aa e1bd 0540 32be
00000050: e773 18be f3e4 acbd 7202 67be 3d1b 01be
00000060: be68 46be 88f4 15be a0fe 14be c397 c6bc
00000070: fa1d afbd c740 25be 454f 27be 18de a0bd
00000080: 0565 90bd 9799 71bd 4e3a 31be a3fb babd
00000090: e241 86bd 7035 64be 3141 a6bd c0d6 b3bd
000000a0: 21b3 3fbe 0009 83be 7c4c 7cbd 3690 b3bd
000000b0: c4c8 46bd a103 f0bd d7c2 14be 4115 1dbe
000000c0: ff27 f1bd f7cf 61be 6c6b 24be 7a35 18be
000000d0: 2ef4 9fbd 6b2f 2cbe b3e3 77be e1d2 2fbe
000000e0: 5e44 b1bd 347b 99bd e850 b1bd e0d0 11bd
000000f0: 85d0 0cbe 827f 3abd 3fb7 99bd a58a 08be
-0.17038737 -0.0968644 -0.1359038 -0.07251197 -0.09907865 -0.19652751 -0.08385987 -0.061393254
-0.18104687 -0.2572218 -0.025981663 -0.12758975 -0.20711137 -0.11279619 -0.1848232 -0.033748575
-0.13124712 -0.18753758 -0.11018769 -0.17407234 -0.14887963 -0.08442106 -0.22559527 -0.12608047
-0.19375893 -0.14644063 -0.14550257 -0.024242288 -0.085506395 -0.16137992 -0.16338833 -0.07854861
-0.07050518 -0.058984365 -0.17307398 -0.09130027 -0.06555535 -0.2228601 -0.08117903 -0.08781195
-0.18720676 -0.25592804 -0.06159638 -0.087677404 -0.04853131 -0.11719442 -0.1452745 -0.15340139
-0.11775207 -0.22051989 -0.16056603 -0.1486415 -0.078102455 -0.16814964 -0.24207954 -0.17170288
-0.08655618 -0.07494202 -0.0865801 -0.03559959 -0.13751419 -0.045531757 -0.075056545 -0.13334139

batch_norms.0.running_mean f4 [64]
00000000: ff79 5abb ada4 1e3e a5b4 143e 83f8 503e
00000010: 915f 763c 5cad 8ebb 73ff 22bc 82e7 3b3d
00000020: f6b1 fa3d 9cfe aa3d 62e3 b83c e0ec 1d3d
00000030: 08e8 3e3e 4d57 1abd d591 39bd d703 343e
00000040: f1f8 b53d 3187 c6bd 24ef ff3d 9e0c 11bd
00000050: c94d 793c a9de 573b de15 8b3d c47c b2bc
00000060: c21a 0e3d 441e 033e b019 583c 8961 2abd
00000070: 9d97 2f3e 1f9f 133d 2a15 cf3c 17c1 943d
00000080: a2e5 65bc ed74 7a3e ce85 043d dc6c b73d
00000090: 961d 82bc e9b5 85bc df62 c93d 8928 ca3d
000000a0: d34c af3d 66ce ee3d 756d 173d 781d 9b3c
000000b0: 6abb 11bd ca49 943d 5521 843c bc43 9d3d
000000c0: fb8d 803d 1317 e93d cd97 f43c 35ee b03d
000000d0: b3b7 043e b8ce a93c 481a 063d 6426 903d
000000e0: 12a7 d0bd 9085 d43d 55bc 893c a295 20ba
000000f0: 1420 473b 4654 983d 4aea 263d 3c0d 0f3e
-0.0033336875 0.15492506 0.14522035 0.204073 0.015037433 -0.004354162 -0.009948599 0.04587508
0.122409746 0.08349344 0.022569362 0.03855598 0.186432 -0.037680913 -0.045305092 0.1757959
0.088853724 -0.096937545 0.12496784 -0.035412423 0.015216299 0.0032939112 0.0679128 -0.021788009
0.034693487 0.12804514 0.013189718 -0.041596923 0.1714768 0.03604042 0.025278646 0.072633915
-0.0140317995 0.24458666 0.03235417 0.0895631 -0.015883248 -0.016322093 0.09833311 0.09871013
0.08559575 0.11660461 0.03696962 0.01893495 -0.035579123 0.07240637 0.016129175 0.07678935
0.062770806 0.11381354 0.02985754 0.086391844 0.129607 0.020728454 0.032739908 0.070385724
-0.10188116 0.103770375 0.016813437 -0.00061258127 0.003038411 0.07437949 0.04075078 0.13969892

batch_norms.0.running_var f4 [64]
00000000: 7398 0d3b bc83 b33b e1f3 a03b f2b4 513b
00000010: be34 863b b597 153c 198e 533b 1056 ea3a
00000020: ffca 833b 99dd 033b 29d0 823b 6443 ec3b
00000030: 37ec 7b3b 1405 a43b 45ac 5e3b d804 643b
00000040: 4a41 9a3b b598 b03b 4ad3 fa3a d0ee ba3b
00000050: 665f 633b b042 5c3b 6668 9a3b cfc2 d23b
00000060: b80e 9b3b 56b9 a03b 9bce 193b 8755 af3b
00000070: d32a af3b 7fe1 9b3b 7c12 b83b dfe9 063b
00000080: 533a c53b 5dcb 5a3b 2719 ec3a fd40 ff3b
00000090: f9c4 f23a 4910 a43b 73a6 9a3b 75aa a43b
000000a0: b7b8 253b 3379 173b d94a a93a 8400 383b
000000b0: 0670 0a3c 3439 783b 22f0 cc3b 3df3 1a3a
000000c0: 514b 023c f89e 073b 13b0 483b 28f5 a63b
000000d0: 1739 823b 1178 ce3b 1307 f13b 2582 ca3b
000000e0: b2c9 3d3b e3c5 1d3b 5305 413b 2054 f73a
000000f0: 92d1 ac3b ddc2 4d3b f45a 3c3b 1e77 8b3b
0.002160576 0.0054783504 0.004911885 0.003199872 0.004095643 0.009130408 0.0032280742 0.0017878432
0.0040220018 0.0020121096 0.0039921 0.007210182 0.0038440356 0.005005488 0.0033977192 0.0034792926
0.00470749 0.005389298 0.0019136455 0.005704738 0.0034694313 0.0033609085 0.0047121523 0.0064319144
0.004731979 0.0049049063 0.0023469094 0.005350772 0.005345681 0.004757106 0.005617438 0.0020586175
0.0060189157 0.0033385374 0.0018012867 0.0077897296 0.0018521837 0.005006824 0.0047195493 0.005025203
0.00252871 0.0023113012 0.0012915983 0.002807648 0.00844956 0.0037875893 0.006254212 0.0005910879
0.007952527 0.0020694118 0.0030622527 0.005095143 0.003974091 0.006300934 0.0073555796 0.006180065
0.002895933 0.0024074249 0.0029452636 0.0018869676 0.005274006 0.0031396665 0.0028740736 0.0042561432

batch_norms.1.weight f4 [128]
00000000: ff48 493e 17bc 243e 99af ef3d 5358 f23d
00000010: d99d 423e 24e9 5d3d f317 ba3d 0ba6 bf3d
00000020: 62d4 ac3e 1804 5c3e f3f8 e53d b715 bc3d
00000030: 51e6 f53d e405 2e3e 227c c13d 823b c13d
00000040: c303 3a3e 38d2 013e deb4 933e df85 423e
00000050: 1836 d73d 613c 013e e51c 023e 9ea8 9f3d
00000060: bad7 373e 11dd 963d 80de 203e 0067 c23d
00000070: 05bc 213e c2e7 553e 1a79 cf3d 7bbb 533d
00000080: b433 bb3d 71ac 123e 2997 fe3d e798 4a3e
00000090: 76b1 503e af88 713d 9d63 9c3d 5a87 003e
000000a0: 259b 133e 5ff4 e03d a0ec 5f3e f915 b53d
000000b0: 137f 423e 1c67 0e3e d37e 683d 0138 9a3d
000000c0: 81e0 113e 1a1b 323e c811 093e 56dc cf3d
000000d0: 0146 0f3e 3391 013e e5ae 283e dfe1 eb3d
000000e0: 1bcd df3d 66cd 373e 4076 c53d 788f 9d3d
000000f0: b06d ec3d 0527 e03d 1e1e 053d 11bb 2b3e
00000100: 2b63 4a3e 005d d93d 6570 3c3d b941 e03d
00000110: befa 9e3d f347 0c3e 358d db3d 8145 3e3e
00000120: 0872 463e 8945 3c3e c90d f03d 6938 483e
00000130: 4896 083e e238 173e ce81 bd3d 38a6 d73d
00000140: 8938 f73d f2fa ad3d a968 0e3e d5af 9e3b
00000150: fa27 c53d 0111 da3d d9a5 163e a53a ba3d
00000160: 95e0 d73d c310 953d b7af bf3d 7a42 0f3e
00000170: 1546 9e3d 12de 503e e2e6 ad3d 99a1 a83d
00000180: 8662 843d 4cbc 843d 9885 1d3e 254e 4f3d
00000190: c34a c33d fdbd ac3d 0699 bb3d f2b7 6c3e
000001a0: 794e a73d eec2 ff3d 7177 d33d bfa1 613e
000001b0: fd43 b83d 5ece e23d 2ee8 ca3d 9f78 bd3d
000001c0: 78b6 463e cb37 b13d 545b af3d fbee 103e
000001d0: c984 5c3e ad44 a73d 002f 913d 3766 9d3d
000001e0: 87c2 a63d eb9b f33d 993f e93d cfe8 c13d
000001f0: 3eef a93d d530 dc3d 63d4 433e a2f9 eb3d
0.19656752 0.16087376 0.117034145 0.11833253 0.19005527 0.05417742 0.09086599 0.09357842
0.33755785 0.21485937 0.11229124 0.09183829 0.1200682 0.16994435 0.094475046 0.09435178
0.18165497 0.12677848 0.28848928 0.1899638 0.105083644 0.12620689 0.12706335 0.07795833
0.17953387 0.07366384 0.15709877 0.09492302 0.1579438 0.2088919 0.1013052 0.051692467
0.09140721 0.14323594 0.12431175 0.1978489 0.20380196 0.058968242 0.07636187 0.12551633
0.14414652 0.1098411 0.21867609 0.088420816 0.18993787 0.1390652 0.056761574 0.07530213
0.14245798 0.17393151 0.1338569 0.101494476 0.13991548 0.12653045 0.16472967 0.11517691
0.10927793 0.17949447 0.09641695 0.0769338 0.11544359 0.109449424 0.032499425 0.16770579
0.19764392 0.106134415 0.046005625 0.109500356 0.07762669 0.13699321 0.107202925 0.18581201
0.19379437 0.183859 0.11721379 0.19552769 0.13338578 0.14767793 0.09253274 0.105297506
0.1207133 0.0849513 0.13907112 0.004842738 0.096267655 0.106477745 0.14711703 0.09093217
0.105408825 0.07278588 0.09359687 0.13990203 0.07728211 0.20397213 0.08491303 0.08233947
0.06464104 0.06481227 0.15382993 0.050611634 0.09535744 0.08434675 0.09160046 0.23117045
0.08169264 0.12488352 0.10325516 0.22034357 0.08997343 0.11074518 0.09907566 0.09251522
0.19405544 0.0865322 0.08562341 0.14153664 0.21535029 0.08167396 0.07089043 0.076855116
0.08142572 0.11894973 0.113890834 0.09468233 0.08297585 0.107515015 0.19123988 0.11522223

batch_norms.1.bias f4 [128]
00000000: 2d0b debd b0e8 88bd e230 4dbc 7c49 8cbd
00000010: 640a 2fbd 7f6e b23c fedc d8bc aa32 293d
00000020: 72ff f7bd 1726 a8bd 7f3c d3bc 7f63 8a3a
00000030: ef1b b6bd 015f edbd e343 16bc d208 9bbc
00000040: 767e c1bd 6058 38bb 1320 3fbe 1827 23bd
00000050: c272 b5bd f059 a4bd 2087 b1bc 18ac aabd
00000060: e5a8 cdbd f85e 843c efd8 85bd 50aa 08bc
00000070: 24d7 52bd 92da b9bd b3ec 5cbd c1b6 b2bd
00000080: 96ad 173d 9bdf 6ebd a242 30bd d591 adbd
00000090: 5090 39be 89e2 0ebd 1ea3 d3bd e157 3d3b
000000a0: 9e55 55bd 24b9 13bd 14bb 00be e2de 62bd
000000b0: 1802 a8bd e586 54bd 64d9 babc a33d 2cbd
000000c0: 1891 84bd 07ba e9bd 3546 3dbc 2d27 40bd
000000d0: 3412 1bbd 34bb 71bd 6533 bbbd 253c 83bd
000000e0: c41e 7cbd e471 c8bd 7a49 9cbd 6ea3 c8bc
000000f0: 0a1e d6bd ee7b aabd 54da c1bd e89e d3bd
00000100: f4cb d8bd 4f3e a1bc 1330 ecbc 4d0d 06bd
00000110: 0ee2 cebc 7465 3dbd 3829 46bc 9ee6 44be
00000120: dba0 1abd 40ac 9cbd 854c 1abd c2c3 d6bd
00000130: 5fc2 9dbd e8a1 a9bd 8fb2 ccbc a5ff 84bd
00000140: 300f 94bd f4bf 00bd 33ab b2bd b5ba 3cbd
00000150: bc6c f1bc 91ce 88bd 388f 3abd d6ad a0bd
00000160: 693e 08bd 11aa e7bc 4583 3bbd 51c6 57bd
00000170: f071 2a3c b933 ccbd 34c8 16bd 0fd4 92bd
00000180: 6b1c 393c 2115 9dbc 344b 8bbd 80c0 abbb
00000190: 1a8d 04bd 157c 86bb 110c 71bb 5a37 e9bd
000001a0: 2499 86bd f49f fdbd 0c09 c3bd 3c77 e9bd
000001b0: 18f1 113c d26e 3bbd fa8a ccba cff6 c3bb
000001c0: 16b2 fbbd 64c0 42bd aebd 63bd 2b02 cabc
000001d0: b7a6 0cbe f2e5 e83c 926a be3a e88a 3eba
000001e0: c0b4 11bc 180c 4ebd 57cf 25bc 95ed 89bd
000001f0: c5a2 1fbd 0b9b e9bc d785 d7bd 235c 8abd
-0.10841975 -0.066850066 -0.012523862 -0.068499535 -0.04273452 0.021781204 -0.026472565 0.041308083
-0.12109269 -0.0821039 -0.025785683 0.0010558217 -0.08892047 -0.11590386 -0.009171459 -0.018925104
-0.09447949 -0.0028128847 -0.18664579 -0.039832205 -0.08859779 -0.08024967 -0.021670878 -0.083336055
-0.1004198 0.016158566 -0.065355174 -0.008341387 -0.051474705 -0.09074892 -0.05393667 -0.08726264
0.03703078 -0.058318716 -0.043032296 -0.08475081 -0.18121457 -0.03488401 -0.103338465 0.0028891491
-0.052083604 -0.036065236 -0.12571365 -0.05538834 -0.08203524 -0.051886458 -0.022808738 -0.04205097
-0.06472987 -0.11412435 -0.011552383 -0.04691236 -0.037859157 -0.05901642 -0.09140662 -0.06407956
-0.061552778 -0.09787348 -0.07631202 -0.024491992 -0.10454948 -0.08324419 -0.09465471 -0.10333043
-0.10585776 -0.019683031 -0.028831517 -0.03272753 -0.025254276 -0.04623933 -0.012094788 -0.19228598
-0.03775106 -0.076500416 -0.03767063 -0.104865566 -0.07703089 -0.08282834 -0.024987487 -0.06494073
-0.07229459 -0.03143306 -0.0872406 -0.046076495 -0.029470794 -0.066800244 -0.04554674 -0.078456566
-0.033262644 -0.028279336 -0.045779485 -0.052679364 0.010403141 -0.09970803 -0.036812022 -0.07169353
0.011298279 -0.019175114 -0.06801453 -0.0052414536 -0.032361127 -0.004104147 -0.0036780874 -0.113875106
-0.06572178 -0.12384024 -0.0952321 -0.11399695 0.008907579 -0.045759983 -0.0015605383 -0.0059803496
-0.122898266 -0.04754676 -0.055600815 -0.024659237 -0.13735472 0.028429959 0.001452761 -0.00072686234
-0.008893192 -0.050304502 -0.010120234 -0.06734768 -0.03897359 -0.028516313 -0.10523575 -0.06755855

batch_norms.1.running_mean f4 [128]
00000000: 5351 61bc dcde 4cbd 7b4c 52bc c699 90bb
00000010: a7ff 1bbd 6749 0cbc 4e16 7fbc f22e 8dbb
00000020: cb7c 0fbd 1ac6 2bbd 95df ecbb 2796 a3bc
00000030: 9c8b 85bc 392a 19bd 1cd4 68bc 6677 8fbb
00000040: d292 05bd a00f b0bc 59e4 1fbd 8a5e 71bc
00000050: e394 08bc a8c5 48bd 8666 90bc b780 babc
00000060: 640b f6bc 87b9 4ebc 1180 8fbc 7cc0 39bc
00000070: c1dd e7bc 39f1 d4bc 55b6 76bc 874d 8abc
00000080: 0c5c 12bc 945c 21bd 759e cabc 8d95 3fbd
00000090: 519a edbc b450 afbc 73f2 8ebc 9446 b5bc
000000a0: bb42 04bd 09fa 03bd 4728 debc ea2a 73ba
000000b0: 0e27 b6bc 3935 1fbc 58c5 423c d06b 5cbc
000000c0: 2c83 c7bc 9bae 3dbd a204 e1bc c43e 1fbc
000000d0: 52d0 d0bc 8fe7 60bc f535 c3bc 0c13 abbc
000000e0: 2ce9 8cbc 9625 13bd bc2c 7bbc c75c cf3b
000000f0: 62d1 aa3c eb65 1abc 4125 90bc 6606 fabc
00000100: f904 2abd e569 2bbc 7dda 25bc 0088 d2bc
00000110: 3303 48b9 c20d c6bc 98d4 babc 3194 a0bc
00000120: a8df 42bc 379c 45bd 036b 20bc 6c7d 00bd
00000130: 66f1 a2bb c212 36bd a40c 36bc 7168 9ebc
00000140: e229 1abc 080b 65bc 406f cdbc 09fb fabb
00000150: 373c b13b 8ded 1abc 0046 f6bc e3a9 253c
00000160: d7b7 81bc 6512 48bc 6b58 d43a b394 a3bc
00000170: de3d 59bc fa0f 31bd 18dc 1b3c b4d6 4c3b
00000180: 389d 8abc d4b2 53bc fcbb f7bc dce1 e3bb
00000190: 7043 4fbc 11c4 b5bb 401b 10bc ef5f 24bd
000001a0: 67da ca3b 5b59 a33b dcf0 dabc d51c 23bd
000001b0: 4e9f f4bb 65dd f0bb 89c0 84bc 6b0f 6cbc
000001c0: 26c1 01bd d7ce f8bb 4d89 87bc c4a8 aebc
000001d0: d445 0cbd b555 6cbc d4eb 233b 066f 69bc
000001e0: 5851 0e3b e388 7cbc d71d 8dbc c2df 97bc
000001f0: ce8b 9cbc 8200 37bc 2f35 b3bc 7a98 56ba
-0.013752299 -0.050017223 -0.012835617 -0.0044128625 -0.038085606 -0.008562422 -0.015569283 -0.004308575
-0.03503112 -0.04193697 -0.0072288015 -0.01996906 -0.016301923 -0.037393782 -0.014210727 -0.004378247
-0.032610722 -0.021491826 -0.03903613 -0.0147320125 -0.008336279 -0.049016625 -0.017627012 -0.022766454
-0.030034728 -0.012617475 -0.017517122 -0.011337396 -0.028303983 -0.02599393 -0.01505812 -0.016882671
-0.0089330785 -0.03939493 -0.024733761 -0.046773482 -0.029004248 -0.021400787 -0.017449593 -0.02212838
-0.0322902 -0.032220874 -0.027118815 -0.0009276109 -0.02223542 -0.009717279 0.011887871 -0.013453439
-0.02435454 -0.046309095 -0.02746803 -0.009719554 -0.02548996 -0.013727083 -0.02382944 -0.020883106
-0.017201029 -0.035924517 -0.01533049 0.0063281986 0.020851795 -0.009423713 -0.017595889 -0.03052063
-0.04150865 -0.010462259 -0.010122892 -0.025699615 -0.00019074678 -0.024176482 -0.02280645 -0.019601913
-0.011894144 -0.04824468 -0.009791139 -0.03136961 -0.0049726246 -0.044451483 -0.011111412 -0.01933691
-0.0094094 -0.013979681 -0.025077462 -0.0076593203 0.0054087895 -0.009456051 -0.030062675 0.010111305
-0.015834732 -0.012211417 0.0016200667 -0.019968366 -0.013259379 -0.043228127 0.009512924 0.0031255903
-0.01692067 -0.012921054 -0.030241005 -0.006954415 -0.012650356 -0.0055470546 -0.008795559 -0.040130552
0.0061905864 0.0049850172 -0.026726179 -0.03982242 -0.0074652797 -0.007350611 -0.01620509 -0.014407973
-0.03167834 -0.0075930166 -0.016544962 -0.021320708 -0.03424628 -0.014424731 0.002501239 -0.014247661
0.0021715965 -0.015413496 -0.017226143 -0.018539313 -0.019109633 -0.011169555 -0.021875946 -0.0008186173

batch_norms.1.running_var f4 [128]
00000000: 2b02 923a b749 873a cc02 ad39 9d45 e739
00000010: 00bb 693a 1740 f339 7b41 093a 6c3d 9239
00000020: 02da b63a 9531 0e3a 18ce d839 3304 ea39
00000030: 5497 2b3a 2229 2f3a 970e e639 e21d b239
00000040: 0891 4e3a 14da 043a 9d7f 443a 1a73 cb3a
00000050: 4888 d039 f6ab a63a 21bc 5a3a 3d88 2a3a
00000060: 3daf 433a d64a cd39 0636 7f3a 7d5f 1a3a
00000070: 19c9 803a 68c9 383a 5527 153a 7a0f 563a
00000080: f849 0c3a 23e2 1b3a 223b 143a 6d2f 953a
00000090: 3671 333a 484b 333a bb1f 6939 86c9 0f3a
000000a0: fa5a e239 60bd f139 50fd 863a 5842 303a
000000b0: c5fd 613a 2a70 223a 1fdd a639 c456 e739
000000c0: 0fff 223a 86dc 383a 0c87 0b3a 7941 7739
000000d0: b048 4f3a ef1c f439 f809 033a 1639 433a
000000e0: 198c fc39 22d3 3e3a 3db7 063a e88f b539
000000f0: 3622 c939 1a48 9139 4c6c 8639 6fa7 923a
00000100: c4f8 593a 8ceb a739 e543 b039 37bb eb39
00000110: d8ed 7339 aab2 e739 584e 803a e702 f239
00000120: 5eb1 763a 115d 713a 19a0 9839 79aa 493a
00000130: 5397 153a a5ee b43a 7667 0f3a 0d87 8a3a
00000140: dd6f a03a 9f13 8639 c160 143a 2a74 5a39
00000150: 016d a739 f2bd e039 a603 cd39 53f1 ec39
00000160: 2207 143a f40c 393a 343b 243a 7865 643a
00000170: 020c ef39 97c3 963a 098a 4839 ccc6 b039
00000180: d511 573a 2d6b b039 4222 193a 5006 a139
00000190: f459 9839 c671 8739 bd0b 643a 39fb 9d3a
000001a0: aa44 9639 6f83 063a 6ec6 043a ef50 933a
000001b0: 3990 d939 e9a0 ac39 8fe5 063a 77b5 bf39
000001c0: d49a 7b3a ebf4 013a 25c7 043a 308e 9a3a
000001d0: 75b7 3c3a 049b db39 81ca eb39 c5e4 8939
000001e0: a0b1 0139 214a 173a fe41 d939 bd06 233a
000001f0: 6a9c 043a fcd2 0d3a a1f4 753a 0b32 023a
0.0011139562 0.0010321651 0.00032999215 0.0004411162 0.000891611 0.00046396322 0.00052358926 0.00027893053
0.001395047 0.00054242584 0.00041352282 0.00044635087 0.0006545682 0.00066818495 0.0004387989 0.0003397307
0.00078798877 0.00050678966 0.00074958225 0.0015521974 0.0003977439 0.0012716043 0.00083440734 0.00065052864
0.0007464772 0.00039156404 0.0009735528 0.00058888627 0.0009825557 0.0007049055 0.000568976 0.00081657583
0.00053515984 0.0005946478 0.00056545634 0.0011381932 0.0006845178 0.0006839526 0.00022232432 0.00054850464
0.00043173862 0.00046108197 0.0010298882 0.0006723753 0.00086208835 0.00061965233 0.00031826735 0.000441244
0.0006217816 0.00070519035 0.0005322553 0.00023580146 0.00079072546 0.00046560864 0.0004998739 0.0007447166
0.00048169566 0.0007279386 0.0005138999 0.0003463023 0.00038363197 0.00027710275 0.0002563916 0.0011188815
0.0008314962 0.00032028218 0.0003361992 0.0004496218 0.0002326289 0.00044192869 0.0009788973 0.0004616
0.0009410585 0.00092072884 0.0002911098 0.0007692944 0.0005706448 0.0013804032 0.0005470434 0.0010568813
0.0012240369 0.0002557309 0.00056601694 0.00020833375 0.00031933936 0.0004286613 0.00039103365 0.00045193228
0.0005646815 0.000705912 0.00062649255 0.000871263 0.0004559458 0.0011502382 0.00019124908 0.0003371745
0.00082042563 0.00033649188 0.00058415916 0.00030713016 0.0002905872 0.00025833974 0.0008699259 0.001205302
0.00028661388 0.00051312795 0.0005064969 0.001123933 0.0004149692 0.00032926284 0.0005145901 0.0003656556
0.00095979613 0.0004957455 0.0005065075 0.0011791643 0.0007198968 0.0004188643 0.0004497357 0.00026301123
0.00012368569 0.0005771239 0.00041438633 0.00062189606 0.0005058708 0.0005410162 0.0009382461 0.00049665634

batch_norms.2.weight f4 [256]
00000000: 117d 223e 60ee 243e f673 083e f87f eb3d
00000010: 0cf9 393e c9b0 883d 67a3 603e 37b4 a03d
00000020: 8dc7 493e ff38 b83d 6053 783e 583a fd3d
00000030: 87f0 1e3e cfed 5b3e 697b 013e 1426 f03d
00000040: 372f 263e db4b 3e3d 9490 063e 0fa6 ed3d
00000050: 46e5 013e 0777 e53d 2a7c 353e 8b91 033e
00000060: 7cbf d83d 7c54 6a3e bea1 1f3e 23d1 b73d
00000070: 0724 263e 129b 743d 09e5 043e 1d57 073e
00000080: 93a4 423e e9a6 f13d 17ac 173e 566b e73d
00000090: c3e5 113e b92c 4d3e 28b3 113e 4064 393e
000000a0: db61 f83d 841c 103e af27 003e 69ad 9e3d
000000b0: ed54 133e 467c 2d3e 86e6 a93d 8e1e 5a3e
000000c0: 63ed ca3d 9bd2 ce3d 874c 303e 81fc 043e
000000d0: ead0 233e 93f9 003e e2f7 363e c748 c63d
000000e0: db8c fd3d 0807 4d3e c573 073e ee28 253e
000000f0: ec1d c33d 416c 3b3e 2db8 ec3d 8213 153e
00000100: e205 3a3d efd7 f03d 0452 223e 36eb 063e
00000110: 9c0b 803e 009a d23d 57b2 b53d e816 0a3e
00000120: 5945 4d3e f600 993d 9579 be3d c357 bf3d
00000130: 9a6d 083e 5e2f 1c3e 914e 203e 2857 a83e
00000140: 25a1 de3d 572a e63d 0ee8 3f3e 59e0 3b3e
00000150: 28e3 343e 93cb 6a3e f84a 313e e1d7 593e
00000160: 2b3f 2f3e 94a5 073e dad3 663e fba2 273d
00000170: 927a 263e 8b32 2e3e b7ce 1e3e 60e6 1e3e
00000180: 9ce6 a13d b6a3 4e3e f025 eb3d e0f7 9b3d
00000190: 808e cb3d 3682 133e 321e e43d 8ed1 f73d
000001a0: 1b3f 5d3e 13cb 2a3e 0fd4 033e 2597 0c3e
000001b0: 7d13 333e bf18 c83d b677 563e 02fa 293e
000001c0: 66b4 423e db53 9d3d 49d8 c63d 6439 373e
000001d0: b71d cc3d 6532 853d 4cdf 093e 91d7 0f3e
000001e0: 6bb9 503e 5f14 343e 4e72 0f3e c41c 123e
000001f0: 7584 0d3e d1ce 7f3d e2f2 aa3d 97e3 0b3e
00000200: be84 0a3e 5a1d 9b3d 7e62 2d3e 58e8 213e
00000210: 8a45 193e c06e 883d bab1 303e d6d0 263d
00000220: 3aa1 193e 0acc fa3d c033 193e 52f4 1e3e
00000230: 5e84 493e feaa 0e3e 0b91 313e 63f1 6c3e
00000240: 8ca7 4b3e 4155 403e 3ab1 a03d 1990 da3d
00000250: 8580 433e 5dca 043e 97ec 073e 3a8e 5f3e
00000260: 5422 9a3d c452 2b3e 7056 bd3d 5f10 823d
00000270: a557 633e 2df1 213e 50be 133e 7e41 683e
00000280: 230f 1c3e 7ba4 7d3e 55b3 4e3e 9114 1b3e
00000290: 0595 553d 3fdb 2e3e de39 9f3d d991 503e
000002a0: cbd6 563e c81c 213e f5b8 043e 3fa4 083e
000002b0: 8969 0e3e f26e 443e 6f56 f83d 1c45 663e
000002c0: 7f92 413e de51 2b3e 663a f43c 9d3a aa3b
000002d0: 40f8 de3d 0a3e 103e 1c7c 0f3e 12cf 463e
000002e0: 1487 8e3d a09c 803e 21b7 9e3d 5749 0f3e
000002f0: 70bb 1b3e 3e29 153e e49c de3d 25d2 253e
00000300: 1c71 c53d 4ab4 e13d 62ef ed3d 842f ea3d
00000310: 5227 033e 4ae5 9c3d c289 253e 42a1 1f3e
00000320: 85d9 683e 8603 033e c536 233e 5cb9 743e
00000330: 52d0 623e db7c 293e c1e5 ed3d 5dd2 2f3e
00000340: 00eb fa3d 6211 ee3d de5f 1d3e b64c ef3d
00000350: b439 c13d eab3 0e3e 5b5c 2d3e 687a a33d
00000360: 1808 233e 5287 a03d b02f 463e 6bb4 3d3e
00000370: f8bf cb3d 3f55 c83d db2e 3c3e b693 b73d
00000380: 92b3 9d3d 3d47 bf3d c3f4 ab3d 942b 043e
00000390: 8f45 3d3e 8956 073e a5e1 2d3e 1326 bd3d
000003a0: cb0e 333e f8a5 583e a488 503e 1c9e 393e
000003b0: f574 2d3e 280e 4d3e 5da3 223e 2d94 b23d
000003c0: e266 d63d cb32 d43d 18ab 233e 66ad 1b3e
000003d0: 516d 983d 49e4 283e 00ba e63d ce41 103e
000003e0: 69a2 2a3e 44a7 323d 95f4 923e e53c db3d
000003f0: d0ac 5b3e e3c2 513e 26c6 a83d e761 853e
0.15868022 0.16106558 0.13325486 0.114990175 0.1816141 0.06674344 0.21937333 0.07846873
0.19705029 0.08995246 0.24250555 0.12364644 0.15521441 0.21477436 0.12644733 0.11726013
0.16228949 0.04645906 0.1314109 0.11603939 0.12685117 0.11204343 0.17723146 0.12848489
0.10583398 0.2288379 0.15589043 0.089754365 0.16224681 0.0597182 0.12977995 0.13216825
0.19008093 0.11799414 0.14811741 0.112997696 0.14247803 0.20036592 0.14228499 0.18104649
0.121280394 0.14073378 0.12515138 0.07747919 0.14387865 0.16941938 0.08295922 0.21300718
0.09908559 0.100987636 0.17216693 0.12986948 0.15997663 0.12595205 0.17867997 0.0968185
0.12380382 0.20022213 0.13227756 0.16128895 0.095271915 0.18303014 0.11558566 0.14558223
0.045415767 0.11759936 0.15851599 0.13175663 0.25008857 0.102832794 0.08871906 0.134853
0.20045985 0.074708864 0.09300534 0.09342911 0.1332306 0.15252444 0.1565497 0.32878995
0.1087058 0.112385444 0.18740866 0.183473 0.17664778 0.2292922 0.17313755 0.21273758
0.1711394 0.13246757 0.22541752 0.040926915 0.16257694 0.17011468 0.15508543 0.15517569
0.079053134 0.20179638 0.114818454 0.07615638 0.09939289 0.1440514 0.11138572 0.12100516
0.21606104 0.16679029 0.12873863 0.13729532 0.17487903 0.09770345 0.20944104 0.16599277
0.19014129 0.0768201 0.09709222 0.17892987 0.09966605 0.065037526 0.13464087 0.14047076
0.20383231 0.17585896 0.14008448 0.14268786 0.1382006 0.062453095 0.083471075 0.13661037
0.135272 0.07573958 0.16932103 0.15811288 0.14967933 0.06661749 0.17255297 0.040726505
0.1500291 0.122459486 0.14961147 0.15522888 0.196794 0.13932416 0.17340486 0.23138957
0.19888133 0.18782522 0.07846303 0.10672016 0.19091995 0.1296782 0.13273846 0.21831599
0.07526079 0.16730791 0.09245002 0.06350779 0.22201402 0.15814658 0.14428067 0.22681233
0.15240149 0.24769776 0.20185597 0.15144564 0.05214407 0.17075823 0.07774709 0.20368136
0.20980375 0.15733635 0.1296118 0.13343905 0.13907446 0.19182947 0.12125861 0.224873
0.1890354 0.16730449 0.029813003 0.0051949755 0.10887194 0.14086166 0.14012188 0.19414929
0.06959358 0.25119495 0.07749773 0.1399282 0.1520822 0.14566514 0.10869768 0.16193445
0.096407145 0.110207155 0.11617924 0.11434844 0.12807968 0.07660921 0.16165832 0.15588859
0.22739227 0.12794313 0.15938862 0.23898834 0.2214978 0.16551535 0.11616088 0.17170091
0.12251854 0.11624409 0.15368602 0.11684553 0.09434834 0.1393582 0.16929762 0.079823315
0.15921056 0.0783831 0.19354129 0.18525855 0.099487245 0.097818844 0.18377249 0.089637205
0.07700266 0.093397595 0.08396294 0.12907249 0.18483566 0.13216604 0.16980608 0.09235778
0.17486112 0.21157062 0.20364624 0.1812672 0.16939147 0.20024931 0.1588263 0.087196685
0.10468842 0.103612505 0.15983236 0.15202865 0.074427254 0.16493334 0.112659454 0.14087602
0.16663517 0.04361655 0.28702226 0.10704974 0.21452641 0.204845 0.08240919 0.26051256

batch_norms.2.bias f4 [256]
00000000: d776 37be b70a 293e a6d3 483e 6a64 26be
00000010: 1585 46be 5165 1cbe e7c6 d33d 911a 21be
00000020: bf4a 28be f1d0 2e3e 91e1 273e ba92 20be
00000030: 72a6 263e ad1c 35be 5b1b 0c3e 9825 353d
00000040: 53ee 2ebe 56ee 34be 7d9d f53d 3e88 04be
00000050: 36ed 3fbd 2785 99bd fbb1 0abe f63a f3bd
00000060: 6c77 113d b97d 70bd fcd4 743c 6913 32be
00000070: d5c2 34be 53db 57be 0804 36be 38e6 053e
00000080: 65b7 88bd ee7a f1bd a709 eabb 5431 133e
00000090: f607 27be a4f2 19be 0018 4cbe d6cb 3abe
000000a0: 3ea5 25be ceae 44be 2159 af3d 4714 523e
000000b0: 8f33 aa3d b2f0 fc3b cd67 13be e366 1bbe
000000c0: d8dd 35be e255 21be ffbf 3b3e 84e7 04be
000000d0: 7d4b 343e 17b4 e23c aa09 723d 78c8 d83d
000000e0: 4fe7 33be 5dc3 5dbd 9e83 3a3e a533 e5bd
000000f0: f518 04be c34a 2cbe b5e0 343e 3e55 153e
00000100: 20fb 3a3e e665 0cbe 67fc 8c3c a228 323e
00000110: 8cf9 293e eb84 3ebe 9b74 053e de2f cb3d
00000120: cfc6 cd3b 64bb 35be df89 453e e859 0ebe
00000130: 91ef 273e 1810 d53c 153f 30be 6c60 493e
00000140: 0f88 3c3e 404d 373e 7f2b 0e3e 6112 edbc
00000150: 029c 443e 25cb 24be 0553 1b3e ebd4 353e
00000160: f659 463e 3cb9 183e 98be 233e 93c0 243e
00000170: 6d3a 0ebe e729 26be 3c9e 393e 3610 3f3e
00000180: 7f59 20be 966f ae3d 892f 2e3e 2481 493e
00000190: c933 2e3e e6ab 633e faac 393e 77fd 2bbe
000001a0: b0b6 283e 56cb 363e 8ee9 0c3e 3b14 51be
000001b0: 773a 213e 3881 2bbe 095f 32be f4a0 263e
000001c0: 6d8f 8b3d 11ca 323e b72d 263e 3087 0dbe
000001d0: 1703 35be 7753 483e 0c35 3a3e a457 443d
000001e0: adab 1cbe 09c7 3a3e b1f5 febd f656 353e
000001f0: 298b b53d 082a 2d3e 13a3 233e 2942 f8bd
00000200: 5add 383e 74d5 2f3e 68f1 2d3e 2e63 5dbd
00000210: 379f 373e 8995 2bbe 681f 363e c1b4 083e
00000220: 426e 293e 7bf5 31be 5c59 e6bd f5af 30be
00000230: c7d6 2bbe 7036 b03d f541 273e dcdd 233e
00000240: d93e 313e a4fe 4c3c 2e7a 21be d8e2 d53c
00000250: 31cf 203e dcb8 303d 2b25 1c3e 11df 2fbe
00000260: 0c8e 1dbe ed64 7f3d 8c63 28be c7cd eb3d
00000270: dacb 25be ed13 583e 3e3a 1c3e f16d 3fbe
00000280: c664 0a3e 900f 2a3e acd2 1dbe 549e 013e
00000290: aaff 183e a483 223e 7178 353d 8b83 c03d
000002a0: 9b4e 3d3e 7db7 293e 23ad 403e 9263 47be
000002b0: 72b4 e63c 5bd5 7ebc 32ef 34be 6412 ff3d
000002c0: 7f39 3abe 90bc 42be 072d 1e3e 9443 30be
000002d0: ef93 1e3e 4b1f 05bd e093 86bd 6518 c7b9
000002e0: 48f0 35bd 6810 12be 221b 383e e3e0 d23d
000002f0: 9e32 21be 5197 3e3e 67b0 31be 4aee f23c
00000300: e8e4 4fbe c9ad 0ebe 75d3 913d 9073 1abe
00000310: c85a 3f3e b50f 25be 5443 35be e128 34be
00000320: 7ff2 353e 22d7 333e cac5 383e b614 31be
00000330: ff1e 10be c564 2fbe 22ec 2c3e cea8 a63d
00000340: 5289 11be 8fbf 393e 38b1 e63c 092b 46be
00000350: 4ef3 403e ec9e c63d 50ae 2d3e 13e0 403e
00000360: 4097 4ebe cde0 353e 345d 32be c595 363e
00000370: 7257 243e 66b6 513e ba42 c63d 91e0 ffbd
00000380: 0614 09be e4ab 3ebe 1767 20be a1c3 083e
00000390: 8fa2 103e 9372 f53d a925 2e3e 26a1 d93d
000003a0: 5f34 9cbd 57c5 29be 9086 37be 729b 413e
000003b0: f16b 2e3e b6ea 37be 4797 a53d 5b22 733d
000003c0: 747e 37be b38a 46be 95b6 203e 54e1 fabd
000003d0: 41c9 f1bd 9d80 1c3e 78b2 2ebe c571 273e
000003e0: 556b 243e 284c 53be 147c 21be c134 053e
000003f0: 6b3e 213e 7875 fa3d dd43 3e3e c7f6 24be
-0.17916428 0.16507994 0.19611987 -0.16249242 -0.19386704 -0.15273024 0.10340672 -0.1573279
-0.16434763 0.17071892 0.1639464 -0.15680972 0.16274431 -0.1768672 0.1368231 0.044225305
-0.17083101 -0.17669043 0.11992929 -0.12942597 -0.04685708 -0.074961 -0.13544457 -0.1187648
0.03551428 -0.05871365 0.014943358 -0.17390217 -0.17652448 -0.2107976 -0.17774975 0.13076103
-0.06675605 -0.11791025 -0.007142264 0.14374286 -0.1631163 -0.15033966 -0.1993103 -0.1824182
-0.16176316 -0.19207308 0.08561922 0.20515548 0.08310615 0.007719123 -0.14395066 -0.15175967
-0.17760408 -0.15755418 0.1833496 -0.12978941 0.17606921 0.027673764 0.059091248 0.105851114
-0.17568706 -0.05414139 0.1821427 -0.11191491 -0.12900145 -0.16825394 0.17663844 0.14583299
0.18259859 -0.13710746 0.017210199 0.17398313 0.16599101 -0.18605392 0.13032763 0.09921239
0.0062798033 -0.17747265 0.19290875 -0.13901484 0.16399981 0.02600865 -0.17211564 0.19665688
0.18411277 0.17900562 0.1388378 -0.028939428 0.19200137 -0.16093118 0.15168388 0.17757003
0.19370255 0.14914411 0.15990674 0.16089086 -0.13889475 -0.16226922 0.18126768 0.18658528
-0.1565914 0.08517377 0.1701032 0.1967817 0.17011942 0.22233543 0.18132392 -0.16795908
0.1647594 0.17851004 0.13760969 -0.20417874 0.15744959 -0.16748512 -0.17419066 0.16272336
0.06814466 0.17459895 0.16228376 -0.13821101 -0.1767696 0.1956309 0.18184298 0.047935143
-0.15299864 0.18239988 -0.12449206 0.17708954 0.08864433 0.16910565 0.15980177 -0.12121994
0.18053189 0.1717127 0.1698662 -0.054049663 0.1793183 -0.16756262 0.17785418 0.13350202
0.16545966 -0.173788 -0.11247513 -0.17254622 -0.1678115 0.08604133 0.16333754 0.16002601
0.1730913 0.012511883 -0.15769264 0.026109144 0.15704037 0.043145046 0.15248553 -0.17174937
-0.15386218 0.06235211 -0.16444224 0.11513858 -0.16191044 0.21101351 0.15256593 -0.18694283
0.13515005 0.16607499 -0.15412396 0.12658054 0.14941278 0.1587053 0.044304315 0.0940009
0.18487017 0.16573901 0.18816046 -0.19471577 0.028162215 -0.015553798 -0.17669371 0.124546796
-0.18185996 -0.19017243 0.15446864 -0.17213279 0.1548612 -0.032500546 -0.06571174 -0.00037974413
-0.044418603 -0.14264071 0.179791 0.102968 -0.15741965 0.1861241 -0.17352448 0.02965464
-0.20302165 -0.13933481 0.0712041 -0.15083146 0.18686974 -0.16119273 -0.17701465 -0.17593719
0.17768286 0.17562535 0.180442 -0.17293057 -0.14074324 -0.17128284 0.16886953 0.08137666
-0.1421254 0.1813948 0.028160676 -0.19352354 0.18842813 0.09698281 0.16961026 0.18835478
-0.20174885 0.17761536 -0.17418367 0.1783057 0.16048983 0.20479736 0.09680696 -0.124940045
-0.13386545 -0.18620259 -0.15664326 0.13355877 0.14124511 0.11984744 0.17006554 0.1062644
-0.076271765 -0.16579185 -0.17922425 0.18906954 0.17033364 -0.17960629 0.080854945 0.059358936
-0.17919332 -0.19388847 0.1569465 -0.12250009 -0.11805964 0.15283437 -0.17060268 0.16351993
0.16056569 -0.2063452 -0.15769988 0.13008405 0.15746467 0.12229437 0.18580575 -0.16109763

batch_norms.2.running_mean f4 [256]
00000000: be6a 4e3b 8937 4fbb bf7f c8bb 5286 4db7
00000010: e543 c63b d017 b03b 28f5 0cbc 2836 0c3c
00000020: 654b b5bb 220e cfbb 56e9 9cbc c2b4 2a3a
00000030: ecd9 76bc 832c 013b 283f 02bc 2953 d8bb
00000040: f97b 9d3b 016b a93b ee0b bc3a bbc7 adbb
00000050: 2046 1f3c 0872 b93b 2607 f139 b425 b9ba
00000060: d331 4b3c d66b 553b 473d 173b 45b2 6e39
00000070: 0749 8b3c 63be 763a 3140 6d3b d51c 2d3c
00000080: 5327 89b9 7372 d53b ccca ba3b b592 e0bb
00000090: b4d6 adbb b95f 80bb 1446 993b 6733 13ba
000000a0: 48b9 e83b 6a27 7c3c a124 11bb bce2 37bc
000000b0: e8c3 013c 14ef 0ebc 19ab 293c a7b0 91bb
000000c0: 372a cfbb 67f2 453c 664b 07bd 221c 783c
000000d0: 1f12 53bb 2438 14bc 3f20 86bc 42e5 d93b
000000e0: 5fc7 cc3b c9de 7cbb 5be0 263c 4803 20bb
000000f0: d0f3 283c bfca b23c e2fb 6d3b 23d1 efbb
00000100: 5447 60bc ec34 cd3a 8ed8 8c38 9dac 33bc
00000110: 64b3 a43c f533 d23b 15c4 abbb a7aa a4bb
00000120: 8f2a 283c d821 b33a 25bb 3dbc 74f9 5a3c
00000130: 5266 e83b 15d6 06bc 90ab f83b 1226 04bc
00000140: 57bb 7ebc 2cda 29bc c952 86bb 6282 8d3a
00000150: 68dd e9bc 5d50 89bb eb63 4cba a23b e2ba
00000160: 26ef 2dbc 39d8 84bc a348 1abc 69fa ceba
00000170: cbf2 e13b 473f 33bb fc73 2bbc 7022 5bbc
00000180: 020c 633a 368f 4bbc f76a 9dbb a4a1 09bc
00000190: 8fec 203b 692a 8abc 6a2c d4bb 1992 cd3b
000001a0: 3a3b 00bc f09f acbc 08ac a0bb 38bb 9d3c
000001b0: 2700 daba a46d 763c 0fff f53b 23c5 29bb
000001c0: ab26 70bc 4fc3 b4bb 1c83 61ba bc16 943b
000001d0: 843c 3f3b b6fd 74bb 0e5f 67bb 051e dd3b
000001e0: ef4a 61bc 9f01 c2bb 484f 25bc e663 d3bb
000001f0: 69b4 b33b a5a5 14bb ec7c a4bc be71 0ebc
00000200: ef61 033c e414 fb3a edf5 74bb c054 1a3b
00000210: c815 3ebc 58fa 2a3c dbd4 8f3b e246 d7bb
00000220: 9012 5e3b 2fc9 fd3b 5574 22bb 3b0f 0e3c
00000230: 4756 be3c 2f1d 0f3a 6bd9 2ebb ae64 b7bc
00000240: 2a29 2fbc a888 c1bc b9e2 633b 11a3 193c
00000250: daf0 11bc 5d94 b3bb 9d89 edbb ea5c 323b
00000260: 2087 5f3c 10fe ec39 6f2c 0f3c 8ee2 59bb
00000270: f509 77bb 33c4 17bc 458a 84bb 2374 0bbc
00000280: bd49 8cbc 2f09 85bc 9539 c63b f3c4 74b8
00000290: 39af 2abc e6e9 fcbb f14a fe3a 1090 113c
000002a0: dd6c b6bb e240 a0bb 5e15 cdba ccf0 f43b
000002b0: 9151 0dbc 2278 3cbc 2b04 413c e252 003c
000002c0: aab0 783c c535 da3a 9943 c23a 2500 eb3a
000002d0: 8900 8bbb fc64 973c d971 a2bb 830d 9a3b
000002e0: 2070 383b 1bca 09bc 04c6 fdbb dc99 d0bb
000002f0: 07d0 a03b 6cc6 34bc 7245 1ebb c840 8fbb
00000300: dfc0 ed3a c36b 92bb e380 e4b7 58c0 c73a
00000310: 4108 78bb 5bcb 403a 3862 303c eebc 403c
00000320: c6dc 7cbc 4f93 dd3a 3294 c6bb 10ea ae3b
00000330: f124 e63b 4f46 5f3c cd31 b7ba 3d3c 3e3b
00000340: d5ab ae3b b922 17ba 3bd7 c4bb 27bf e23b
00000350: 0393 0abc 8bc9 deba 885c b8bb 28f9 a3bb
00000360: 3125 623c d99e 54bc 534c 063c 2358 f9bb
00000370: ee30 52bc 6714 2ebc 0832 843a 5fa1 873b
00000380: 224a 273c be68 3b3b ae7a 0bba 8299 bb3b
00000390: cdaf 2c3a 1046 0c3c 81ef a83b a604 9abb
000003a0: 4789 553c 8b00 2e3b 5bc6 ec3b 2777 11bc
000003b0: 503d 43b8 2b04 183b 608c 1e3c 74ed ddbb
000003c0: 879f b33c e8ec 983b adac b63b c8da e3bb
000003d0: 1503 803c b412 403a 524b cc3c 07b9 c03b
000003e0: 9c9a 813c 4791 fc3a 7cda fd3b 06a2 f33b
000003f0: 69b0 ddbb d4d9 913b e9c4 0fbc de9e 31bc
0.0031496729 -0.0031618795 -0.006118744 -1.2250226e-05 0.006050574 0.0053739324 -0.008603372 0.008557834
-0.0055326694 -0.0063188234 -0.019154232 0.00065119204 -0.015066605 0.001971037 -0.007949628 -0.0066017103
0.0048060385 0.0051702266 0.0014346817 -0.0053033507 0.009721309 0.0056593455 0.00045972428 -0.0014125616
0.012402016 0.0032565496 0.0023077296 0.0002276386 0.017002596 0.0009412525 0.003620159 0.010565956
-0.00026159975 0.0065138876 0.005700445 -0.0068534263 -0.0053051356 -0.003917661 0.0046775434 -0.00056152645
0.0071021654 0.015390256 -0.0022147077 -0.011223491 0.007920243 -0.008723993 0.010355734 -0.0044461074
-0.006322171 0.012081719 -0.03303089 0.015143426 -0.0032206846 -0.009046588 -0.016372798 0.006649644
0.006249353 -0.0038584939 0.010185326 -0.0024416018 0.010312036 0.021825192 0.0036313464 -0.007318632
-0.013688881 0.0015656031 6.716057e-05 -0.010966447 0.020105071 0.006414885 -0.0052418807 -0.005025226
0.010264053 0.0013666702 -0.011580263 0.013365138 0.0070922757 -0.008229752 0.007588811 -0.008065717
-0.015547595 -0.010366958 -0.004099224 0.0010796303 -0.028547958 -0.0041904883 -0.00077968714 -0.0017260204
-0.010616099 -0.016216384 -0.009416732 -0.0015791181 0.0068953983 -0.0027350949 -0.010464665 -0.01337491
0.0008661152 -0.012424281 -0.004804011 -0.008400355 0.0024555062 -0.016865926 -0.006475021 0.0062735197
-0.007826621 -0.021072358 -0.00490332 0.019254312 -0.0016632125 0.015040789 0.007507212 -0.0025904856
-0.014657657 -0.0055164467 -0.00086026057 0.0045193117 0.0029180357 -0.0037382669 -0.003530446 0.0067479634
-0.013750776 -0.0059206034 -0.010089703 -0.006451118 0.005484153 -0.002268174 -0.020079099 -0.00869411
0.008018955 0.0019156006 -0.0037378029 0.002354905 -0.011601873 0.010435663 0.004389388 -0.006569729
0.0033885576 0.00774493 -0.0024788578 0.008670623 0.0232345 0.0005459366 -0.0026679884 -0.022386875
-0.010690967 -0.023624733 0.0034772588 0.009377257 -0.008907521 -0.0054803328 -0.007249071 0.0027216026
0.013643056 0.0004520272 0.008738621 -0.003324661 -0.0037695144 -0.009263086 -0.0040448033 -0.008511576
-0.017125005 -0.01623973 0.006049345 -5.8357557e-05 -0.010417753 -0.0077183126 0.0019400996 0.008884445
-0.0055671767 -0.004890547 -0.0015646627 0.0074749943 -0.008625404 -0.011503251 0.011780779 0.007832261
0.015178839 0.0016648105 0.0014821171 0.001792912 -0.004242007 0.01848077 -0.0049574194 0.0047013178
0.0028143004 -0.008410002 -0.0077445526 -0.0063659977 0.0049076113 -0.011033636 -0.002415028 -0.004371736
0.0018139145 -0.0044684126 -2.7239736e-05 0.0015239818 -0.0037846717 0.0007354521 0.010765605 0.011763794
-0.015433496 0.0016904863 -0.0060601467 0.005337961 0.0070234467 0.013627603 -0.0013976634 0.0029027604
0.0053305426 -0.0005765367 -0.006007103 0.00691976 -0.008457902 -0.001699732 -0.005626265 -0.005004067
0.013802812 -0.012977325 0.008196908 -0.0076093837 -0.012829049 -0.0106249815 0.0010085711 0.00413911
0.010210546 0.0028596367 -0.000532071 0.0057250867 0.00065874757 0.008561626 0.005155504 -0.004700261
0.013033218 0.0026550617 0.0072257943 -0.008878506 -4.6548725e-05 0.0023195844 0.009677023 -0.0067726914
0.021926655 0.0046669133 0.005574784 -0.006953571 0.01562647 0.0007327006 0.02493826 0.005881432
0.015820794 0.001926937 0.0077469926 0.007435086 -0.0067654145 0.004451016 -0.008774974 -0.0108411

batch_norms.2.running_var f4 [256]
00000000: f351 f639 5514 1d3a e3e4 f539 13e3 9b39
00000010: 9dac 7b3a 4039 a439 b537 9e39 2f3f d139
00000020: 9b42 393a 3295 083a bfab 7e3a 1e8e e139
00000030: bba5 423a 1ec8 b739 bba2 2a3a eac4 0239
00000040: 22c2 a939 b4db 9239 27f7 b839 d8aa 8239
00000050: 5981 8839 d0a1 8e39 99e9 9a39 baeb 4439
00000060: 8d9c 3f39 26d3 d339 1442 3f39 f7d1 b039
00000070: 5957 ee39 0133 6e39 7e9a 353a d09a e339
00000080: 6f39 363a a727 cd39 3346 bc39 528e a739
00000090: 9d30 0b3a f87b 013a 0841 163a 3b7f 193a
000000a0: 6e54 cc39 8c03 483a 3089 a739 9c01 063a
000000b0: 75c4 a439 ede7 6a39 2df5 a139 d787 d639
000000c0: 39e4 b739 9e43 013a 1a0f 473a f258 e639
000000d0: 0ed5 4f3a ef14 4139 c50a a739 9d20 9939
000000e0: d445 c939 6fcb b939 df58 0f3a 8b56 f539
000000f0: d35d 8c39 6051 f039 c0e2 d339 262c 4b3a
00000100: 04ce 6a39 8c56 9339 5cee 4439 69a0 d639
00000110: e33e 473a 2686 c239 fc86 d039 964a 5539
00000120: b3fb 8339 5ce5 f239 f436 c439 c976 ab39
00000130: 23c3 b339 9fea 7b39 9e09 283a 2398 643a
00000140: e6fc 4a3a 9c6d 053a 83cb b139 7d78 9a39
00000150: 1a16 ff39 7ee5 4a3a 70ad 083a adce 233a
00000160: 4991 663a b1df 0c3a b252 e939 3155 8139
00000170: 9c35 bb39 0dd3 cf39 3e88 643a e357 523a
00000180: ea98 8c39 e6e1 aa39 8c3d f239 f901 033a
00000190: dfbe c139 d6fc 743a 7532 ad39 fd92 c939
000001a0: e734 f639 50b0 423a 281d 0c3a 390b 4c3a
000001b0: cbe9 f439 1ef7 9739 5019 563a 7891 cd39
000001c0: 9e69 9639 3c0f 003a 47c6 8439 a86f 033a
000001d0: 2773 ca39 2d38 fd39 df0c 373a 3acf 4339
000001e0: edb9 b339 0001 d939 23a0 023a 2f37 4c3a
000001f0: 4482 6d39 85d0 9339 bbf6 ab39 c159 bd39
00000200: 5ec3 093a e0d1 9a39 2d12 313a 966d 103a
00000210: 0481 243a f8e1 d439 6c56 053a f52e 7339
00000220: 2473 273a a610 9839 0568 c039 65da 413a
00000230: 4879 3d3a 7fce 083a c34b e339 dd73 113a
00000240: 398d 0d3a 6ec0 8a39 0bca ab39 5a2e 5639
00000250: c4ad 0f3a 5be0 4539 22d9 323a d2f2 083a
00000260: 5e91 c739 b901 9b39 68aa 013a 6eff 0539
00000270: 8572 0c3a bca9 6a3a 7347 de39 8a99 2c3a
00000280: aeb2 0f3a 1d55 5c3a 59cb 413a d0df 9239
00000290: db09 5439 4c13 c139 a516 3c39 be67 bb39
000002a0: 9b5f 593a 5aec f439 f33e be39 c8ce 223a
000002b0: 9f6c 9039 1ae7 8c39 be10 183a ef60 d239
000002c0: 7de4 9a3a eed3 d339 7c5b 2439 9c1d 2438
000002d0: 487b fb39 4b0f 6439 0064 0e39 dc22 ac39
000002e0: 6720 1439 857c 513a 6a10 8339 2f8f 7039
000002f0: 7880 153a 189d ea39 9893 d139 6217 6239
00000300: 43b7 db39 3411 9c39 d21c 3e39 0a66 073a
00000310: 6c00 373a 0565 b239 c17c e739 774f 843a
00000320: a26d 003a 111e c939 753f 813a a098 4d3a
00000330: a18a f239 3982 2e3a 9e2d 233a 0b1c b639
00000340: 2b44 0c3a 425e 9e39 f0d2 3839 32df be39
00000350: 68fd 093a 7369 9c39 b299 b239 1ecd b639
00000360: b7db 1a3a dc4a af39 d199 353a 21f5 e339
00000370: df5a 293a 2e24 073a 962b f439 d2e7 af39
00000380: 33e1 033a aeeb 9739 5aa2 ad39 2869 ea39
00000390: 005a 2a3a 8e72 9139 3a69 f339 414b f739
000003a0: cd6c c439 6507 843a adc3 643a 6c53 c539
000003b0: 1396 433a 03f6 433a 39ea 9039 3826 8b39
000003c0: bd36 323a ef2b 0d3a ae2e 373a 0ef5 a739
000003d0: 1567 df39 d9a9 f239 9ff6 123a dde6 e839
000003e0: 96cc c439 2bb8 ca39 dd31 213a b1d4 d239
000003f0: 727b a639 4fcc cb39 911e ac39 0138 e439
0.00046981833 0.00059921044 0.00046900575 0.00029733087 0.00096006115 0.00031323172 0.00030177613 0.00039910662
0.0007067115 0.000521022 0.0009714923 0.0004302123 0.00074252085 0.0003505358 0.0006509234 0.00012471122
0.00032378832 0.00028010982 0.00035279358 0.0002492282 0.00026036313 0.0002720491 0.00029547213 0.00018779832
0.00018273499 0.00040402374 0.00018239795 0.00033725772 0.00045459977 0.00022716449 0.0006927623 0.00043412158
0.00069513073 0.0003913019 0.00035910457 0.0003195876 0.0005309673 0.0004939432 0.00057317363 0.00058554456
0.00038972817 0.0007629923 0.00031954935 0.0005111934 0.0003142689 0.00022402378 0.00030890983 0.0004091847
0.0003507452 0.0004931035 0.0007593498 0.00043935288 0.0007928171 0.00018413713 0.00031860746 0.00029206733
0.00038389734 0.0003543752 0.000546826 0.0004679452 0.00026772785 0.00045836996 0.00040413998 0.0007750414
0.00022392726 0.00028102507 0.00018780812 0.00040936776 0.00076006184 0.00037102512 0.00039773423 0.00020341048
0.00025173798 0.00046328723 0.00037424976 0.00032704163 0.0003428693 0.00024024629 0.00064101245 0.000872018
0.0007743373 0.00050898804 0.000339117 0.0002946294 0.00048653857 0.00077398855 0.00052138325 0.00062487536
0.0008795453 0.0005373909 0.00044502836 0.0002466827 0.00035707362 0.00039639362 0.00087178114 0.00080239604
0.0002681681 0.00032593234 0.00046203693 0.00049975474 0.0003695404 0.0009345537 0.00033034725 0.00038447222
0.00046960192 0.00074267853 0.0005344921 0.0007783655 0.00046713496 0.0002898508 0.0008167224 0.0003920903
0.0002868892 0.00048850826 0.0002532473 0.00050138915 0.00038614238 0.00048297775 0.0006982814 0.00018673847
0.00034280066 0.0004139021 0.00049829687 0.00077902054 0.00022650609 0.00028193384 0.0003279949 0.0003611576
0.0005255247 0.00029529538 0.00067547226 0.00055094936 0.00062753283 0.0004060415 0.0005086425 0.00023191779
0.0006387702 0.00029004103 0.00036698594 0.0007394909 0.000722785 0.00052187586 0.0004335326 0.0005548576
0.0005399767 0.00026464782 0.00032766195 0.00020425898 0.000548091 0.00018870963 0.00068225164 0.00052241713
0.00038064545 0.00029565187 0.0004946352 0.00012779023 0.0005357641 0.0008951684 0.00042396373 0.00065841584
0.00054816424 0.0008405017 0.0007392667 0.00028014043 0.00020221567 0.00036826206 0.00017937513 0.00035744713
0.00082921394 0.00046715402 0.00036286525 0.00062106224 0.0002754675 0.00026875065 0.00058008346 0.00040126542
0.0011817362 0.00040402956 0.0001567434 3.9128223e-05 0.00047966302 0.00021749471 0.00013579428 0.0003283237
0.0001412645 0.0007991272 0.00024998497 0.00022941524 0.0005703042 0.00044749002 0.00039973552 0.0002156175
0.00041907476 0.00029767456 0.00018130548 0.00051650463 0.0006980959 0.0003402607 0.00044152702 0.0010094483
0.0004899149 0.0003836011 0.0009860831 0.00078428723 0.00046261123 0.0006656978 0.0006224754 0.0003473464
0.0005350734 0.00030206336 0.00017626188 0.00036405917 0.0005263896 0.00029833204 0.00034065318 0.0003486657
0.0005907374 0.00033434376 0.00069275225 0.0004347945 0.0006460379 0.00051552325 0.0004657178 0.0003355132
0.0005030811 0.0002897656 0.00033118093 0.00044710306 0.00064983964 0.00027741905 0.00046426972 0.0004716758
0.00037465096 0.0010073005 0.0008726668 0.00037636922 0.00074610225 0.0007475318 0.0002764033 0.0002654062
0.0006798318 0.000538527 0.0006987852 0.00032035302 0.00042610677 0.00046284383 0.00056062074 0.00044422495
0.00037536462 0.00038665658 0.0006149093 0.0004021279 0.0003175396 0.000388714 0.0003282917 0.00043529275

interaction_layers.0.bias f4 [64]
00000000: 5643 d1b5 1140 c3b6 0490 0737 c4fd 0136
00000010: fe86 cab6 6dd6 15b6 6ee3 10b7 1683 df36
00000020: be7b f836 bcf3 aab7 869b 6bb5 d994 9ab6
00000030: cb1e ffb5 9f4c 0b36 a419 feb6 e117 92b6
00000040: d750 a8b5 1d15 3ab7 5523 9936 7086 ba36
00000050: 1c71 d236 eb0c dbb4 9c69 1b37 64b2 0637
00000060: c5d6 b335 8b32 44b6 f5c0 9eb6 cc68 1f34
00000070: 4480 0637 aedc 78b6 2b6e c836 40ea dfb5
00000080: 1ab5 bfb5 0f0b a6b6 9fe3 4c36 e379 4936
00000090: 7dfc 9434 823a e2b5 c833 86b6 486f c735
000000a0: b630 3136 cfee 12b6 4684 a236 19a1 1136
000000b0: 9a38 9836 97b2 9e36 861c c3b5 817b 3037
000000c0: bfd1 d3b5 7f37 5eb7 4c38 03b4 f79c 4136
000000d0: 6330 8036 6fa4 d736 7a90 8335 3417 9536
000000e0: 10d7 0fb7 7e36 1f36 ae6f 9eb5 c131 fdb5
000000f0: 51ef 6a36 d4a0 0c36 95a8 de35 3c80 0eb5
-1.5591311e-06 -5.818911e-06 8.080158e-06 1.937021e-06 -6.0357843e-06 -2.2327542e-06 -8.636021e-06 6.6611783e-06
7.4053814e-06 -2.0379077e-05 -8.777064e-07 -4.606886e-06 -1.9007942e-06 2.0757213e-06 -7.572775e-06 -4.353919e-06
-1.2540503e-06 -1.109138e-05 4.5638685e-06 5.5588825e-06 6.2716554e-06 -4.0801328e-07 9.263309e-06 8.028557e-06
1.3399045e-06 -2.9235696e-06 -4.73123e-06 1.4846154e-07 8.016887e-06 -3.7083332e-06 5.9732897e-06 -1.668297e-06
-1.4283316e-06 -4.948473e-06 3.0530862e-06 3.0022281e-06 2.7750858e-07 -1.685534e-06 -3.9995393e-06 1.4859042e-06
2.6403409e-06 -2.18947e-06 4.843375e-06 2.1700455e-06 4.5365423e-06 4.7295575e-06 -1.4536934e-06 1.0519173e-05
-1.5781769e-06 -1.3245152e-05 -1.2220806e-07 2.8850607e-06 3.82033e-06 6.426642e-06 9.802309e-07 4.4432472e-06
-8.573537e-06 2.3724565e-06 -1.180442e-06 -1.8864449e-06 3.5008018e-06 2.095524e-06 1.6589353e-06 -5.308573e-07
