best_model/xasnet_gnn_model_9.pt (torch, 102210 bytes, 14 tensors)

batch_norms.0.weight f4 [128]
0	0x3e14d172	0.14533022
1	0x3e0cba0e	0.13742849
2	0x3e5ad6c1	0.21370985
3	0x3e0a12f7	0.13483797
4	0x3dd540f8	0.104127824
5	0x3e525877	0.20541559
6	0x3df6fe33	0.120602034
7	0x3de69177	0.11258214
8	0x3d0ff17f	0.035142418
9	0x3e3fb6bd	0.18722053
10	0x3dbbde3b	0.091732465
11	0x3df594b9	0.11991257
12	0x3d97bb6c	0.07408795
13	0x3e231b96	0.15928492
14	0x3e02cd7b	0.12773697
15	0x3e070cb4	0.1318844
16	0x3e2a42f1	0.16627099
17	0x3e04d9ce	0.12973711
18	0x3e3e1ddb	0.18566076
19	0x3e13407c	0.14380068
20	0x3da29057	0.07937687
21	0x3e51b5ce	0.20479509
22	0x3dc722c9	0.097234316
23	0x3d9b955c	0.075968474
24	0x3e07fd6c	0.13280267
25	0x3dbd4949	0.09242494
26	0x3e0291d0	0.12750936
27	0x3df1fd91	0.11815942
28	0x3de4d7b7	0.11173957
29	0x3e0178fa	0.12643805
30	0x3d6dbc3c	0.058040842
31	0x3e2a2e57	0.1661924
32	0x3e2c204d	0.16809197
33	0x3dacc866	0.084366605
34	0x3d7975d4	0.060903385
35	0x3ddba0ec	0.10724053
36	0x3dd92b4b	0.106039606
37	0x3e4842fc	0.19556803
38	0x3e523999	0.20529784
39	0x3ddab9ab	0.106799446
40	0x3da23563	0.07920339
41	0x3e4cd8dc	0.200046
42	0x3e1e7b49	0.15476717
43	0x3e5aa8a2	0.21353391
44	0x3e77bea9	0.24193825
45	0x3e585e79	0.21129788
46	0x3e82ed17	0.2557151
47	0x3e3ac25b	0.18238203
48	0x3e5354d1	0.20637824
49	0x3dfdf544	0.12400296
50	0x3e0b254a	0.13588443
51	0x3dd147b2	0.10218753
52	0x3d7b78b6	0.061394416
53	0x3e176a01	0.14786531
54	0x3e95472b	0.2915586
55	0x3e7a1973	0.2442377
56	0x3dad45db	0.084605895
57	0x3dda5130	0.106600165
58	0x3e1bddbe	0.15221307
59	0x3db8aff1	0.09017933
60	0x3e0130cc	0.12616271
61	0x3de6cb6c	0.112692684
62	0x3e12ad24	0.1432386
63	0x3e05ec8e	0.1307852
64	0x3d17952b	0.037007492
65	0x3d5cf3cb	0.053943437
66	0x3e886ca6	0.26645392
67	0x3da1b3ba	0.07895608
68	0x3e7bf2db	0.24604361
69	0x3d7134d0	0.058888257
70	0x3dddc5c5	0.10828737
71	0x3e1e5125	0.15460642
72	0x3d98c996	0.074603245
73	0x3d8d0349	0.06885392
74	0x3e04f205	0.12982948
75	0x3e7e8a0c	0.24857348
76	0x3dc33b56	0.09532802
77	0x3df80577	0.12110417
78	0x3ddab7cd	0.106795885
79	0x3db41b1e	0.08794235
80	0x3e722bfe	0.23649594
81	0x3e3d5515	0.18489487
82	0x3df3cc7f	0.11904239
83	0x3e08d321	0.1336179
84	0x3e4ef7d5	0.20211728
85	0x3ec68330	0.38771963
86	0x3d8b7ba4	0.06810692
87	0x3e8f2617	0.27958748
88	0x3da77f55	0.081785835
89	0x3dd14fa4	0.10220268
90	0x3dd8cec2	0.10586311
91	0x3e0be76d	0.136625
92	0x3e05d119	0.13068046
93	0x3e2d6bc0	0.16935635
94	0x3d9b0591	0.07569421
95	0x3eb13990	0.3461423
96	0x3ded3d43	0.1158395
97	0x3e87386c	0.26410234
98	0x3dce949e	0.1008694
99	0x3df662c5	0.120305575
100	0x3de1c528	0.11023933
101	0x3df32b50	0.118734956
102	0x3de043a7	0.10950404
103	0x3e295343	0.16535668
104	0x3da11218	0.07864779
105	0x3de284ee	0.110605106
106	0x3e5b432d	0.21412344
107	0x3df62fb0	0.120208144
108	0x3df83b55	0.12120692
109	0x3e00c96d	0.12576838
110	0x3ce73c8d	0.028227115
111	0x3de3e937	0.111284666
112	0x3de22386	0.11041932
113	0x3e12f6f6	0.1435202
114	0x3e1355ab	0.14388148
115	0x3df3841e	0.11890434
116	0x3e1b6b68	0.15177691
117	0x3e17965d	0.14803453
118	0x3df0958e	0.11747275
119	0x3e17bc24	0.14817864
120	0x3e0b6e86	0.1361638
121	0x3dce23f4	0.10065451
122	0x3e9ec950	0.31012964
123	0x3dfb69d1	0.12276042
124	0x3d908977	0.07057469
125	0x3ecaff0f	0.3964772
126	0x3db3bca8	0.08776218
127	0x3e156df0	0.14592719

batch_norms.0.bias f4 [128]
0	0xbdc43990	-0.09581292
1	0xbe0a3c42	-0.13499549
2	0xbde2444d	-0.110481836
3	0xbd82ae00	-0.06380844
4	0xbcebf109	-0.028801458
5	0xbe9914e0	-0.2989874
6	0xbd823393	-0.06357493
7	0xbd8bec8a	-0.068322256
8	0x3b8559f2	0.00406956
9	0xbe1c5b3e	-0.15269181
10	0xbd2f6df2	-0.04282946
11	0xbd62ae09	-0.055341754
12	0xbb90cf17	-0.0044192183
13	0xbdc00ba7	-0.093772225
14	0xbcdba28b	-0.026810905
15	0xbdc85dd6	-0.09783523
16	0xbd4427b1	-0.047889415
17	0xbdb7e1ec	-0.08978638
18	0xbdfc9a27	-0.1233409
19	0xbdf05662	-0.11735226
20	0xbc6ee163	-0.014580104
21	0xbe470431	-0.19435193
22	0xbc16902e	-0.009189649
23	0xbdb99201	-0.09061051
24	0xbdc54860	-0.09632945
25	0xbcc228f1	-0.023701163
26	0xbe24c12f	-0.16089319
27	0xbdae2cd8	-0.08504647
28	0xbcdab529	-0.026697712
29	0xbdca4bdb	-0.098777495
30	0xbca84887	-0.020542396
31	0xbe68495c	-0.22684234
32	0xbe447848	-0.19186509
33	0xbcd7ecfb	-0.026358118
34	0xbd561faf	-0.05227631
35	0xbe123e3a	-0.1428155
36	0xbdb59370	-0.08866012
37	0xbe6b8bca	-0.23002544
38	0xbe20f4d8	-0.157184
39	0xbd5458bd	-0.05184244
40	0xbce4a987	-0.027912868
41	0xbdd133e4	-0.102149755
42	0xbd5c737a	-0.053821065
43	0xbe466ddf	-0.1937785
44	0xbdb86bda	-0.09004946
45	0xbd959853	-0.07304444
46	0xbe453e37	-0.19262014
47	0xbddb7a18	-0.10716647
48	0xbe4f3320	-0.20234346
49	0xbdeb55a5	-0.11490945
50	0xbd4f3fab	-0.050597828
51	0xbd494c7f	-0.049145218
52	0xbca952bb	-0.020669332
53	0xbdd4e5cb	-0.10395392
54	0xbe2939b2	-0.16525915
55	0xbe23268b	-0.15932672
56	0xbd61a52a	-0.055089153
57	0xbdcc1338	-0.09964603
58	0xbe1ab489	-0.15107931
59	0xbd9e3823	-0.07725551
60	0xbdd5740a	-0.10422523
61	0xbd315ac1	-0.04329944
62	0xbda496ae	-0.08036552
63	0xbd984d8d	-0.07436667
64	0xbd098d62	-0.0335821
65	0xbcf8904e	-0.030342247
66	0xbde94d89	-0.11391742
67	0xbd73a23f	-0.0594809
68	0xbda4c664	-0.080456525
69	0xbd06ec25	-0.03294005
70	0xbd922150	-0.0713526
71	0xbe043062	-0.12909082
72	0xbda6f528	-0.081522286
73	0xbd39f068	-0.045395285
74	0xbdf293d6	-0.11844604
75	0xbe266287	-0.16248523
76	0x3cb2ebe7	0.021841003
77	0xbd74dbfe	-0.059780113
78	0xbd96bedf	-0.073606245
79	0xbd6d58bc	-0.05794595
80	0xbe299033	-0.16558914
81	0xbd4c041e	-0.049808614
82	0xbdb46734	-0.08808747
83	0xbd3066cc	-0.043066785
84	0xbe1168a5	-0.14200075
85	0xbe64e1ed	-0.22351809
86	0xbd026168	-0.031831175
87	0xbe4acbe4	-0.1980434
88	0xbce9bf4a	-0.028533597
89	0xbd62789f	-0.055290814
90	0xbd251548	-0.0403035
91	0xbdc8a13d	-0.09796379
92	0xbdc5be3b	-0.09655424
93	0xbdde6c28	-0.10860473
94	0xbc758650	-0.014985636
95	0xbe38c14e	-0.1804249
96	0xbd40b8c7	-0.047051217
97	0xbe4375d9	-0.19087924
98	0xbe28dfd6	-0.16491637
99	0xbd3812fa	-0.044939972
100	0xbd3cfe3a	-0.046140887
101	0xbd83fe9e	-0.06445049
102	0xbce64df2	-0.02811334
103	0xbe06b6d7	-0.13155685
104	0xbd781cf3	-0.060574483
105	0xbd3eb306	-0.04655745
106	0xbe0e0a6a	-0.1387116
107	0xbd92aa08	-0.07161337
108	0xbdbaaf20	-0.09115434
109	0xbe0a5285	-0.13508041
110	0xbcebb605	-0.028773317
111	0xbd061191	-0.032731596
112	0xbd135ebf	-0.03597903
113	0xbddc279a	-0.10749741
114	0xbd98c7f5	-0.07460014
115	0xbd78ce1b	-0.060743432
116	0xbde6a621	-0.11262155
117	0xbde2d1f4	-0.11075202
118	0xbd839773	-0.06425371
119	0xbdf303e0	-0.118659735
120	0xbd383db0	-0.044980705
121	0xbe0826f2	-0.13296106
122	0xbe60a425	-0.21937616
123	0xbd9c236c	-0.07623944
124	0xbd02fc4a	-0.031978883
125	0xbe207783	-0.1567059
126	0xbc8bcb7e	-0.017064806
127	0xbe00fc09	-0.12596144

batch_norms.0.running_mean f4 [128]
0	0xbc2bf284	-0.010494832
1	0x3d55d08a	0.05220083
2	0xbc697675	-0.014249434
3	0xbd0e5a2e	-0.03475397
4	0xbc0be24a	-0.008537838
5	0x3e007350	0.12543988
6	0x3e0db481	0.13838388
7	0x3dd5aff7	0.10433953
8	0x3cc2ef8c	0.023795865
9	0xbc84d410	-0.0162144
10	0xbe140d36	-0.14458165
11	0x3cd6d8fe	0.026226517
12	0x3db2ebb7	0.08736365
13	0xbcf45888	-0.029827371
14	0x3d201653	0.03908379
15	0x3d703ade	0.05864989
16	0x3d84706e	0.06466757
17	0xbca9fb0e	-0.020749595
18	0xbc26063d	-0.010133323
19	0x3e073b71	0.13206269
20	0x3d8415ce	0.064494714
21	0x3e474e54	0.19463474
22	0x3ce353aa	0.027749855
23	0x3dacc540	0.0843606
24	0xbe228718	-0.15871847
25	0x3d6cf7aa	0.05785338
26	0x3d53482e	0.051582508
27	0x3ca72716	0.02040438
28	0x3d851a85	0.06499199
29	0x3dcda141	0.10040522
30	0x3deb5f35	0.11492769
31	0xbd633268	-0.055467993
32	0x3da39c2e	0.07988773
33	0x3de1b04f	0.11019956
34	0x3d68ca8f	0.0568338
35	0x3e31b7f6	0.17355332
36	0x3c5d433d	0.0135048
37	0xbc9caf40	-0.019126534
38	0x3d6c5088	0.057693988
39	0x3c528dbe	0.012851177
40	0x3db0236c	0.08600506
41	0xbdb5ff51	-0.08886588
42	0x3d474f35	0.048659522
43	0x3cc5d5ac	0.024149738
44	0xbdcf96f5	-0.10136215
45	0x3d81c729	0.06336815
46	0xbc2b7a99	-0.010466241
47	0x3d9e505a	0.077301696
48	0x3da41ee9	0.08013708
49	0x3cf0dc5d	0.029401952
50	0x3dc493a9	0.095984764
51	0xbbd1e4ed	-0.006405464
52	0xbd8281ae	-0.06372391
53	0x3de50ffe	0.11184691
54	0x3db232f1	0.087011226
55	0xbde5fbe8	-0.11229688
56	0xbc3819dc	-0.011236634
57	0xbb386e5e	-0.0028141956
58	0x3dea407d	0.114380814
59	0xbd94bc71	-0.07262505
60	0x3c9e91f0	0.019356698
61	0x3dc6fb6b	0.09715923
62	0x3e3bce7e	0.1834049
63	0x3d894fee	0.067046985
64	0x3cec7cea	0.028868157
65	0xbc7d68cb	-0.015466879
66	0xbe66d2de	-0.22541377
67	0x3a41a814	0.00073874113
68	0x3ca3297e	0.019917246
69	0xbcab9313	-0.020944154
70	0x3d1d0864	0.03833808
71	0x3d6ac8e8	0.057320505
72	0xbd482269	-0.04886094
73	0xbcbef273	-0.023308968
74	0xbd3fe531	-0.046849433
75	0xbccbfbae	-0.024900284
76	0xbcc32fba	-0.023826469
77	0x3dc2d65f	0.09513544
78	0x3cdf2810	0.027240783
79	0xbcb671f3	-0.022271132
80	0x3e467773	0.19381504
81	0x3db85071	0.08999718
82	0x3d896b8a	0.067099646
83	0x3cf30f70	0.029670447
84	0x3b67d6ab	0.0035375755
85	0x3d0f5922	0.034997113
86	0x3d7d73cc	0.06187801
87	0x3e4e1936	0.20126805
88	0x3bed1690	0.0072353557
89	0x3da0644a	0.078316286
90	0xbc1b863c	-0.009492453
91	0xbd640091	-0.055664603
92	0x3d5622e8	0.052279383
93	0xbcf4084c	-0.029789113
94	0x3ccb835a	0.024842907
95	0x3d48596d	0.048913408
96	0x3c8aa059	0.016922163
97	0xbcae1061	-0.021248044
98	0xbc0530ab	-0.008129279
99	0x3d527bf4	0.051387742
100	0x3d7e702e	0.0621187
101	0x3d17c723	0.037055146
102	0x3dc9d6b9	0.09855408
103	0xb8090b9b	-3.2674154e-05
104	0x3c43d254	0.011952002
105	0xbc92c3a2	-0.01791555
106	0xbdffa516	-0.124826595
107	0x3d464c94	0.048412874
108	0xbd03a246	-0.032137178
109	0x3d1ea498	0.038731188
110	0xbc15c668	-0.009141542
111	0x3d9172ae	0.071019515
112	0x3dabfa02	0.083972946
113	0xbc3fd608	-0.011708744
114	0xbc7571f0	-0.014980778
115	0xbd46046a	-0.048344053
116	0x3d1f8cba	0.038952567
117	0x3cbed0dd	0.023292953
118	0xbc3d8e7f	-0.011569618
119	0x3d59196c	0.05300276
120	0x3d519a1e	0.05117237
121	0x3c76798c	0.0150436275
122	0x3e59d2fd	0.21271892
123	0x3d7c2fdb	0.061569076
124	0x3da00527	0.07813483
125	0x3d47cfab	0.048782032
126	0x3d163601	0.036672596
127	0xbcc0a5e7	-0.023516608

batch_norms.0.running_var f4 [128]
0	0x3b71921c	0.003686077
1	0x3ae731ad	0.0017638706
2	0x3bb2eef3	0.005460614
3	0x3b45819f	0.0030137075
4	0x3afa08a8	0.0019076066
5	0x3a88fdab	0.0010451576
6	0x3ade09bb	0.0016940156
7	0x3b221625	0.0024732437
8	0x3a9e3275	0.0012069481
9	0x3b21c16e	0.0024681943
10	0x3bf266c8	0.0073975064
11	0x3b26edbd	0.0025471293
12	0x3b80388e	0.003912992
13	0x3b5de489	0.0033858141
14	0x3b41c6c0	0.0029567927
15	0x3bb9564a	0.0056560384
16	0x3baf32f2	0.0053466493
17	0x3b7873a5	0.0037910726
18	0x3b627b18	0.0034558233
19	0x3bc73baa	0.0060801106
20	0x3af788d8	0.0018885387
21	0x3b15ada0	0.0022839084
22	0x3ad173a7	0.0015979902
23	0x3adeec17	0.0017007616
24	0x3bae57f7	0.005320545
25	0x3aa4b837	0.0012567107
26	0x3ae85da1	0.0017728099
27	0x3b1e9ccd	0.0024202347
28	0x3b6a1b26	0.0035721748
29	0x3aeb5823	0.0017955344
30	0x3a2b38ea	0.0006531613
31	0x3b038a4b	0.0020071443
32	0x3a8defa3	0.0010828864
33	0x3b5d2d91	0.0033749084
34	0x3a85ffda	0.0010223344
35	0x3a256b5f	0.000631025
36	0x3aaa5a8a	0.0012996953
37	0x3ae7c5c5	0.0017682841
38	0x3aca7fb8	0.001544944
39	0x3b28ab5d	0.0025736906
40	0x3aa4b00b	0.0012564672
41	0x3b4c840f	0.0031206643
42	0x3bdded97	0.0067727077
43	0x3b238c17	0.0024955326
44	0x3b8655f7	0.0040996033
45	0x3b9d9f13	0.004810223
46	0x3a9ba185	0.0011873698
47	0x3ad67e68	0.0016364576
48	0x3aa108c3	0.0012285936
49	0x3acbfad4	0.0015562424
50	0x3b1ff5d9	0.0024408011
51	0x3a909d50	0.0011033211
52	0x3b3da791	0.0028938989
53	0x3a93d95f	0.0011279992
54	0x3b84f6be	0.0040577343
55	0x3b7be1a1	0.0038434046
56	0x3a765264	0.00093964324
57	0x3b57756d	0.0032876388
58	0x3a8e9ec7	0.001088106
59	0x3b107456	0.0022041998
60	0x3b21875f	0.0024647338
61	0x3b4896a8	0.0030607376
62	0x3b30f65d	0.0027002313
63	0x3ad9971a	0.0016600818
64	0x3aa36ac4	0.0012467732
65	0x3a5a30c3	0.0008323306
66	0x3b76f661	0.0037683474
67	0x3b03ad41	0.002009228
68	0x3b5db59f	0.0033830178
69	0x3abc75ad	0.0014378332
70	0x3b59ded4	0.0033244388
71	0x3b4b0270	0.0030976795
72	0x3b256299	0.002523577
73	0x3a728807	0.0009251837
74	0x3b1acc76	0.0023620403
75	0x3b4069ef	0.0029360016
76	0x3b801eaf	0.003909908
77	0x3b2affc9	0.0026092401
78	0x3acb4e54	0.0015511014
79	0x3af63872	0.0018785133
80	0x3af256bb	0.0018488982
81	0x3b3085f5	0.0026935313
82	0x3a8c08bd	0.0010683757
83	0x3b4b5912	0.0031028432
84	0x3b5cdaa6	0.003369966
85	0x3b748a82	0.0037314002
86	0x3afa455c	0.0019094157
87	0x3b868a12	0.0041058147
88	0x3b36f199	0.0027915
89	0x3ad68822	0.0016367475
90	0x3b56bbb0	0.003276568
91	0x3b29bee7	0.002590114
92	0x3b5c3501	0.0033600929
93	0x3bb19af2	0.0054200822
94	0x3a948709	0.0011331748
95	0x3ba6dfcb	0.005092596
96	0x3aefe9e1	0.0018303954
97	0x3bab2928	0.005223412
98	0x3b113522	0.0022156914
99	0x3b56352c	0.0032685502
100	0x3b121975	0.0022293006
101	0x3af39e25	0.001858656
102	0x3ae493c5	0.0017439058
103	0x3a66c250	0.00088027585
104	0x3ac4ec6f	0.0015024076
105	0x3b090509	0.0020907542
106	0x3af7123a	0.0018850036
107	0x3bae844e	0.0053258305
108	0x3b4d051d	0.0031283565
109	0x3ae46cf6	0.0017427492
110	0x3a9b4cf5	0.0011848497
111	0x3abfc5db	0.0014631109
112	0x3a8b39f3	0.0010622129
113	0x3b38e840	0.0028214604
114	0x3b0d3e2d	0.0021551952
115	0x3abb4abd	0.0014289242
116	0x3ba26837	0.004956271
117	0x3b94a127	0.0045358124
118	0x3b47bbd8	0.0030476954
119	0x3aae5230	0.001329964
120	0x3b5b79c6	0.003348933
121	0x39f02f14	0.00045811443
122	0x3b82f8ed	0.0039969594
123	0x3aae1cf4	0.0013283775
124	0x3b0f6876	0.0021882332
125	0x3b85ed55	0.00408713
126	0x3b518a7c	0.0031973412
127	0x3b54cb06	0.0032469644

batch_norms.1.weight f4 [64]
0	0x3e55b99c	0.20871586
1	0x3e82c351	0.2553964
2	0x3e8eb527	0.27872583
3	0x3e9f2e8f	0.3109021
4	0x3e94d839	0.29071215
5	0x3ec36723	0.38164625
6	0x3e7b47a9	0.24539055
7	0x3e895fb7	0.26830837
8	0x3e2f7fbf	0.17138575
9	0x3e83773e	0.25676912
10	0x3ee71945	0.45136467
11	0x3eb3bbdf	0.35104272
12	0x3ec46ba7	0.38363382
13	0x3e056631	0.13027264
14	0x3ebeead5	0.37288538
15	0x3ebc0d24	0.36728776
16	0x3e65a5ea	0.22426572
17	0x3f049398	0.5178771
18	0x3f106155	0.56398517
19	0x3eaf2cab	0.34213766
20	0x3ec635ea	0.38713008
21	0x3ece6307	0.40309927
22	0x3e2b378e	0.16720411
23	0x3e7d6533	0.24745636
24	0x3ef5003c	0.4785174
25	0x3e74bae1	0.23899414
26	0x3eb11b45	0.34591118
27	0x3eb99434	0.36245883
28	0x3eab5dc6	0.3346998
29	0x3ed6c7c6	0.4194929
30	0x3edfe7ad	0.43731442
31	0x3ec444be	0.38333696
32	0x3e9bb71a	0.30413133
33	0x3e902542	0.28153425
34	0x3eb8c83b	0.36090264
35	0x3ed1fc86	0.41012973
36	0x3e33758b	0.17525308
37	0x3e5f53fb	0.2180938
38	0x3e6f5480	0.23372078
39	0x3e8f5889	0.27997234
40	0x3eb11c6a	0.3459199
41	0x3e51b1cf	0.20477985
42	0x3ea6127a	0.32435971
43	0x3e99d26b	0.3004335
44	0x3ec90de0	0.39268398
45	0x3e833523	0.25626478
46	0x3e9f05ba	0.31059057
47	0x3ede10f0	0.43372297
48	0x3e4485bb	0.19191639
49	0x3eb33cbd	0.35007277
50	0x3ec8881e	0.3916635
51	0x3e68cec9	0.22735132
52	0x3e888709	0.26665524
53	0x3ec4e65b	0.38456997
54	0x3ec4ca83	0.38435754
55	0x3ed9195c	0.4240216
56	0x3ebb9142	0.3663426
57	0x3eac72d5	0.3368136
58	0x3e81bfbc	0.25341594
59	0x3e5b3183	0.21405606
60	0x3e8826d0	0.26592112
61	0x3e864562	0.2622481
62	0x3e6d784e	0.23190424
63	0x3ec84965	0.39118496

batch_norms.1.bias f4 [64]
0	0xbe7ae049	-0.2449962
1	0x3e598cc7	0.21245109
2	0x3e4637c7	0.19357215
3	0x3e7bb9d4	0.24582607
4	0x3e740557	0.23830162
5	0xbe7ede48	-0.24889481
6	0xbe686be9	-0.22697414
7	0xbe87609a	-0.2644089
8	0xbe8a08ad	-0.26959744
9	0xbe800e60	-0.25010967
10	0x3e70d19c	0.2351746
11	0xbe75a903	-0.23990254
12	0xbe6f56db	-0.23372976
13	0x3e7f6fa4	0.24944931
14	0x3e6e2c18	0.23259008
15	0xbe7d721d	-0.24750562
16	0x3e7c881f	0.24661301
17	0xbd93c13b	-0.0721459
18	0xbd6b5af4	-0.057459787
19	0xbe7980b6	-0.24365506
20	0x3e687dd9	0.22704257
21	0xbe085fa7	-0.13317738
22	0x3e7af5f7	0.2450789
23	0x3e72fb94	0.23728782
24	0x3e82c091	0.25537542
25	0xbe7d2c66	-0.24723968
26	0xbe70b871	-0.23507859
27	0xbe860127	-0.26172754
28	0xbe5813a1	-0.21101238
29	0x3e72949e	0.23689505
30	0x3e7dbce8	0.24779093
31	0xbe77cbf7	-0.241989
32	0xbe4f570f	-0.20248054
33	0x3e79d0c3	0.24396043
34	0xbe169996	-0.14707026
35	0x3e3ac0b0	0.18237567
36	0xbe660768	-0.22463763
37	0x3e5d3ca2	0.21605161
38	0xbe7db044	-0.24774271
39	0x3e420c46	0.18949994
40	0x3e6ca354	0.2310918
41	0x3e799235	0.2437218
42	0xbe7fb3a0	-0.24970865
43	0xbe65dbd0	-0.22447133
44	0xbe5f9624	-0.21834618
45	0x3e75a67d	0.23989291
46	0x3e6b98c5	0.23007496
47	0x3e53751a	0.2065014
48	0x3e6f477f	0.23367117
49	0x3e9517b9	0.2911966
50	0x3e6c9d76	0.23106942
51	0x3e86b280	0.2630806
52	0xbe799eb8	-0.24376953
53	0x3e7c123c	0.24616331
54	0xbe686042	-0.2269297
55	0xbe85c1ca	-0.26124412
56	0xbe78a3f9	-0.242813
57	0xbe7969d4	-0.24356776
58	0xbe704ae9	-0.23466076
59	0xbe77d679	-0.24202909
60	0x3e6e18cf	0.23251651
61	0xbe689b42	-0.22715476
62	0xbe387cac	-0.18016309
63	0x3e40b272	0.18818071

batch_norms.1.running_mean f4 [64]
0	0x3c6757f9	0.014120095
1	0xbbb6a9a0	-0.00557442
2	0x3b6e39c0	0.003635034
3	0x3c54ff09	0.013000258
4	0xbc68000e	-0.014160169
5	0xbc0bcb29	-0.008532324
6	0x3caf75d6	0.021418493
7	0xbb590620	-0.0033115223
8	0x3c37c993	0.011217493
9	0xb8234ace	-3.8931896e-05
10	0xbc32ffe7	-0.01092527
11	0x3c79d8de	0.015249459
12	0x398ddcac	0.0002705803
13	0x3b61e1da	0.0034466893
14	0xba8d2f1b	-0.0010771485
15	0xbbf9e442	-0.0076260874
16	0x3b3bc257	0.002864977
17	0xbb14f0aa	-0.0022726455
18	0x3b9861cf	0.0046503316
19	0x3c1933fb	0.009350772
20	0xbb9ff00e	-0.0048809117
21	0x3c84e7e3	0.016223853
22	0xbb0132ce	-0.001971412
23	0xbbaa72b0	-0.00520166
24	0xbcd18c56	-0.025579613
25	0xbc26df6b	-0.010185103
26	0x3c18546a	0.00929747
27	0xbb7cbb17	-0.0038563663
28	0xbc343da0	-0.011001021
29	0x3cfe863b	0.031069865
30	0xb983042a	-0.0002498937
31	0x3c9ccdb4	0.019141056
32	0xbc4d83fa	-0.012543673
33	0xbb837548	-0.0040117837
34	0xbb954576	-0.0045553995
35	0xbb7bf71c	-0.003844685
36	0x3aa4fa2e	0.0012586766
37	0x3b4482b7	0.0029985139
38	0x3c84d9ae	0.016217079
39	0xbbd5edc2	-0.006528587
40	0xba0c3303	-0.00053481775
41	0xb9d78805	-0.00041109338
42	0x3a8e254c	0.0010844856
43	0xbc3edd67	-0.011649466
44	0x3c0c65ba	0.008569175
45	0xbc82f310	-0.015985042
46	0x3c603be2	0.013686152
47	0xbd08cca1	-0.033398274
48	0x3c36ed15	0.011164923
49	0x3c865d86	0.016402017
50	0x3c4901e3	0.012268516
51	0xbbc8aa97	-0.0061238515
52	0x3c67ac88	0.014140256
53	0xbc8f1c4f	-0.017469553
54	0xbc36ce57	-0.011157594
55	0x3b63ab26	0.0034739464
56	0xbb243143	-0.0025053776
57	0xbc1e9e3e	-0.009681283
58	0x3a3819af	0.000702287
59	0x3c92ab40	0.017903924
60	0x3b1fb30a	0.002436819
61	0x3b967f30	0.0045927987
62	0xbbef12c5	-0.0072959387
63	0x3adb7e61	0.0016746038

batch_norms.1.running_var f4 [64]
0	0x3a48ac4b	0.0007655068
1	0x3a649507	0.00087197166
2	0x39b91019	0.00035297943
3	0x3a8933e0	0.001046773
4	0x3a59bde4	0.0008306189
5	0x3a620d73	0.000862322
6	0x39fac821	0.00047832823
7	0x3a96861f	0.0011484063
8	0x3a11290d	0.0005537428
9	0x3a948023	0.0011329692
10	0x39ebcbf3	0.00044974647
11	0x3a9d34bb	0.0011993864
12	0x39e17f4a	0.00043010182
13	0x39c9dbe5	0.00038501542
14	0x3a05fec2	0.0005111509
15	0x3a96e883	0.0011513386
16	0x3a5f7df8	0.00085255457
17	0x39bf8679	0.0003653055
18	0x3a0430b3	0.0005042657
19	0x3a4bebc2	0.0007778966
20	0x3abe59a7	0.0014522568
21	0x3986d8c3	0.00025719972
22	0x39d639ce	0.0004086033
23	0x3a82bf37	0.0009975199
24	0x3a9405f6	0.001129328
25	0x3a7a3807	0.0009545092
26	0x3a8e33f3	0.0010849222
27	0x3ac630d9	0.0015120759
28	0x3a3d92cd	0.0007231653
29	0x3a3daba5	0.0007235355
30	0x3a8a424d	0.0010548324
31	0x3a5f4185	0.0008516538
32	0x3a7a6a54	0.0009552587
33	0x3a963245	0.0011459073
34	0x397e2d67	0.00024240241
35	0x39f3225a	0.00046374166
36	0x39cabd5e	0.00038669532
37	0x3a3d2ad0	0.00072161574
38	0x3a164fe0	0.0005733948
39	0x39f6e0c4	0.0004708824
40	0x3a9f0a42	0.0012133794
41	0x3a1db56f	0.00060161104
42	0x3a694759	0.0008898876
43	0x3a00e64d	0.000491713
44	0x3a5bdccd	0.0008387089
45	0x3a5e989c	0.00084913685
46	0x3a38ae4a	0.0007045014
47	0x3a1c7efa	0.0005969849
48	0x39d39335	0.00040354734
49	0x3a8c57dc	0.0010707336
50	0x3a821642	0.0009924846
51	0x3a46c29e	0.0007582101
52	0x3a8589f3	0.0010188207
53	0x3a4f64f4	0.00079114665
54	0x3a72b507	0.00092585426
55	0x3a34eb38	0.00069015054
56	0x3aa8e5fd	0.0012885925
57	0x3a196299	0.0005851179
58	0x3a4ffbb8	0.00079339324
59	0x3a2e0e65	0.0006639718
60	0x3a27814c	0.0006389811
61	0x3a874f23	0.0010323267
62	0x39f1f147	0.00046146868
63	0x39c2d04a	0.0003715775

interaction_layers.0.bias f4 [128]
0	0xb6dbbb00	-6.5484783e-06
1	0x36a08a45	4.7844683e-06
2	0xb6e27028	-6.7483816e-06
3	0x359ee99c	1.1839907e-06
4	0x36579893	3.2126306e-06
5	0x384591f3	4.7104386e-05
6	0xb75415e5	-1.2641282e-05
7	0xb6e54d81	-6.8337545e-06
8	0xb5c66a5f	-1.4783108e-06
9	0x36482379	2.982297e-06
10	0x3642e870	2.904355e-06
11	0x36e28014	6.750235e-06
12	0xb70282c9	-7.779055e-06
13	0xb6805ba2	-3.8253647e-06
14	0x36c98c01	6.0065654e-06
15	0xb6b3a596	-5.3538924e-06
16	0x35eacc8c	1.749389e-06
17	0x37032d56	7.818764e-06
18	0x37721729	1.4429716e-05
19	0x37014ca4	7.7068435e-06
20	0xb65e370b	-3.3112617e-06
21	0xb8a969d0	-8.078257e-05
22	0xb70b115d	-8.289088e-06
23	0x35293d01	6.304618e-07
24	0xb573c39f	-9.080922e-07
25	0xb6444c37	-2.9250639e-06
26	0xb78809cc	-1.6217025e-05
27	0xb6040a09	-1.9675374e-06
28	0xb6740090	-3.635916e-06
29	0xb570e3dc	-8.9738546e-07
30	0xb72414fb	-9.780047e-06
31	0xb72b8c55	-1.0225068e-05
32	0xb7a5f7d7	-1.9784942e-05
33	0x3642cac9	2.902629e-06
34	0xb66f1740	-3.5627309e-06
35	0xb83c1ea3	-4.4851226e-05
36	0xb6340046	-2.682225e-06
37	0xb6753d40	-3.6543497e-06
38	0x37abbfe0	2.0474137e-05
39	0xb6a4e9b8	-4.9147893e-06
40	0x37036580	7.831841e-06
41	0xb75e2792	-1.3241444e-05
42	0x36a34c9b	4.8666966e-06
43	0xb56ad6ec	-8.7484545e-07
44	0xb6fd67fd	-7.5520934e-06
45	0xb70744c1	-8.062635e-06
46	0x376db265	1.41678365e-05
47	0xb6884010	-4.0605737e-06
48	0xb734ef1c	-1.0784508e-05
49	0xb7159878	-8.9165915e-06
50	0x370d36a2	8.416975e-06
51	0xb6e0fd7d	-6.70523e-06
52	0x36d0f97a	6.227926e-06
53	0x374ffe6a	1.2397397e-05
54	0x37483018	1.1932127e-05
55	0xb5423989	-7.2354356e-07
56	0x360f50a9	2.135561e-06
57	0x359934ab	1.1414717e-06
58	0x37131a02	8.767938e-06
59	0xb72f4245	-1.0446242e-05
60	0xb65c9f11	-3.2875143e-06
61	0x36df15d1	6.6484577e-06
62	0xb7ba5d9a	-2.2216514e-05
63	0xb562a7e3	-8.443587e-07
64	0xb575c5b2	-9.1557297e-07
65	0xb5eacb45	-1.7493518e-06
66	0xb7a5c529	-1.9761343e-05
67	0xb58c00a3	-1.0430998e-06
68	0x367b9402	3.7488066e-06
69	0x3677e7e8	3.6940855e-06
70	0x35dd2588	1.6476706e-06
71	0x35ea5b26	1.7460886e-06
72	0xb48272ce	-2.4297918e-07
73	0x3715e319	8.933967e-06
74	0x373f69fe	1.1409165e-05
75	0x369ccfe4	4.673364e-06
76	0x34f87710	4.628023e-07
77	0x37482161	1.1928701e-05
78	0x364f4f27	3.0891476e-06
79	0xb6d0f37e	-6.2272293e-06
80	0xb7b4c79d	-2.1550624e-05
81	0xb7264afc	-9.91183e-06
82	0x3709ee26	8.221285e-06
83	0xb71b4173	-9.2539585e-06
84	0x37d4ce21	2.5368356e-05
85	0xb7a11228	-1.920115e-05
86	0xb5d3b434	-1.5773171e-06
87	0xb691d351	-4.345937e-06
88	0xb6838f11	-3.9207594e-06
89	0x368771eb	4.0365753e-06
90	0xb701a3d2	-7.727142e-06
91	0x37413e06	1.1518137e-05
92	0x3620c00c	2.3953644e-06
93	0xb69e43d0	-4.7166614e-06
94	0xb66595fb	-3.421096e-06
95	0xb770b654	-1.4347566e-05
96	0xb52300bb	-6.0723295e-07
97	0xb75d1282	-1.3176936e-05
98	0x3525d397	6.1775194e-07
99	0xb550e6a6	-7.7821676e-07
100	0xb7150097	-8.881229e-06
101	0x369c2a8d	4.654116e-06
102	0x36ce49e8	6.1478822e-06
103	0x372d3384	1.0323598e-05
104	0x36009ca9	1.9164675e-06
105	0xb5a21084	-1.2074747e-06
106	0xb78c0164	-1.6689948e-05
107	0x36c30973	5.812553e-06
108	0x3651281f	3.116678e-06
109	0xb6d51c02	-6.351155e-06
110	0xb4c57776	-3.678103e-07
111	0x376ae23d	1.4000162e-05
112	0x37130dd8	8.765106e-06
113	0xb6c23de7	-5.788857e-06
114	0x33eda1d7	1.1065611e-07
115	0xb700bc0a	-7.673176e-06
116	0xb60e4d1a	-2.1204528e-06
117	0xb5215e5b	-6.011448e-07
118	0xb532e2b0	-6.664004e-07
119	0xb6d52098	-6.351689e-06
120	0xb64a36d1	-3.0132253e-06
121	0x376cfe5e	1.4125921e-05
122	0xb74a7c87	-1.2069132e-05
123	0x36afb1ab	5.2360897e-06
124	0x369f933f	4.755711e-06
125	0x35ec6aac	1.7614416e-06
126	0x35bf3081	1.4244725e-06
127	0xb6619c49	-3.3618583e-06

interaction_layers.0.lin.weight f4 [128, 15]
0	0x3cb63a51	0.022244604
1	0xbd7d48e0	-0.061837077
2	0xbc93b797	-0.018031878
3	0xbb8fd801	-0.0043897633
4	0xbd833005	-0.064056434
5	0x3d0c5002	0.03425599
6	0x3d9e3bc9	0.07726247
7	0xbd851542	-0.06498195
8	0x3c9e1ddf	0.019301353
9	0xbc032891	-0.008005277
10	0xbd25f1ae	-0.040513687
11	0x3d4bcc8a	0.04975561
12	0xbc1d66f9	-0.00960707
13	0xbdbed473	-0.09317865
14	0x3d8393de	0.06424688
15	0xbd18ab81	-0.037272934
16	0x3ce12ca3	0.027487105
17	0x3cd97564	0.026545234
18	0xbdef44b3	-0.11683025
19	0x3da1ab73	0.078940295
20	0x3c68bb16	0.014204761
21	0xbd43c3c0	-0.047794104
22	0x3daabe5a	0.08337088
23	0xbd80a184	-0.06280807
24	0x3c42b328	0.0118835345
25	0x3d9eea54	0.07759538
26	0x3d19b1fe	0.037523262
27	0x3d91c4e5	0.07117633
28	0xbd7c28c6	-0.061562322
29	0xbced05f9	-0.028933512
30	0xbc3b07a4	-0.011415396
31	0xbd1dc5a9	-0.03851858
32	0xbca0c279	-0.019623982
33	0x3c47507c	0.012165185
34	0x3b49dd5f	0.0030802113
35	0xbd0896b1	-0.033346836
36	0x3d398ab8	0.045298308
37	0xbdb1bd01	-0.08678628
38	0x3c9c419f	0.01907426
39	0x3d8b315d	0.06796525
40	0xbdf2a191	-0.118472226
41	0x3d75adc6	0.059980176
42	0xbd91ec71	-0.07125176
43	0x3da50fd8	0.080596626
44	0xbdbdf897	-0.092759304
45	0xbb96bcdb	-0.00460015
46	0xbd39cdb3	-0.045362186
47	0x3a854650	0.001016805
48	0x3a240810	0.0006257305
49	0xbd791fcb	-0.060821336
50	0x3ce4faeb	0.027951678
51	0x3d0687af	0.03284424
52	0xbd9c8dad	-0.0764421
53	0x3b9ce35c	0.0047878455
54	0x3b91955d	0.0044428543
55	0xbd1991d6	-0.037492596
56	0x3d8fefba	0.07028146
57	0x3c5b3219	0.013378643
58	0xbdd1db14	-0.10246864
59	0x3d40d6bf	0.047079798
60	0x3c1f7df0	0.009734616
61	0x3c8094b0	0.0156959
62	0x3d9ecdb9	0.07754082
63	0xbd05e56d	-0.0326895
64	0x3b49a231	0.003076684
65	0x3c665621	0.014058621
66	0x3d1603f0	0.03662485
67	0xbb892dd8	-0.004186373
68	0xbd048236	-0.03235074
69	0x3d1c56d8	0.03816876
70	0xbc94f1ae	-0.018181648
71	0xbd6d7098	-0.057968706
72	0xbbce98af	-0.0063048224
73	0xbc62e24c	-0.013847899
74	0x3d4559de	0.048181407
75	0x3e13167a	0.14364043
76	0xbdcf5739	-0.10124058
77	0x3df6ebe9	0.12056715
78	0xbdebdf39	-0.11517186
79	0xbd712ea4	-0.05888237
80	0x3df14075	0.11779872
81	0x3b5d1db4	0.0033739628
82	0x3daaace4	0.083337575
83	0xbc872d0d	-0.016500974
84	0x3d9f3e46	0.077755496
85	0x3d85960e	0.06522761
86	0x3d1b62eb	0.037936132
87	0xbd865905	-0.06559948
88	0x3d18f3a8	0.037341744
89	0x3e0a1fc3	0.13488679
90	0x3d664eb0	0.056227386
91	0x3c1add10	0.0094521195
92	0x3cec44c5	0.028841386
93	0xbc350930	-0.011049554
94	0x3af6af5b	0.001882057
95	0x3d2844b6	0.041081153
96	0xbcd593e0	-0.026071489
97	0x3dcabf39	0.09899754
98	0xbc9e8178	-0.019348845
99	0x3d239136	0.039933406
100	0x3a2876b3	0.0006426379
101	0x3beb3db4	0.0071789864
102	0xbd00c9b0	-0.031442344
103	0x3de39c14	0.11113754
104	0x3c9d7787	0.019222034
105	0x3d616e2f	0.05503672
106	0x3b1d492f	0.002399992
107	0xbc6c0ec3	-0.014407816
108	0xbc193d15	-0.009352942
109	0xbd381214	-0.044939116
110	0x3d18ccf8	0.03730485
111	0x3d9949e0	0.07484794
112	0x3c96320f	0.018334417
113	0xbd1a7222	-0.0377065
114	0xbd84e1e2	-0.06488396
115	0x3d86abec	0.0657576
116	0x3dd4fbb9	0.10399575
117	0x3cf1d2d0	0.029519469
118	0x3c6e3c67	0.014540768
119	0xbc76b7cd	-0.01505847
120	0x3cf9faa5	0.030515024
121	0xbccf7a50	-0.025326878
122	0xbd794502	-0.060856827
123	0xbc7b4457	-0.015336118
124	0x3d55e624	0.052221432
125	0x3cd5701d	0.026054436
126	0x3d3f74fe	0.04674243
127	0xbc530b9a	-0.012881184
128	0xbd0a16c4	-0.033713117
129	0xbc83af63	-0.016074842
130	0xbabee26a	-0.0014563326
131	0x3c6ec2fe	0.014572857
132	0xbd23080f	-0.039802607
133	0x3d148244	0.036257043
134	0xb8dddebb	-0.00010579588
135	0x3d984e10	0.07436764
136	0xbd6f46d6	-0.058417164
137	0x3d4c7904	0.049920097
138	0xbcd5a849	-0.026081221
139	0x3d7f1294	0.062273577
140	0x3afde4e5	0.0019370584
141	0xbc34c32d	-0.011032862
142	0xbd9c86ff	-0.07642936
143	0x3e012076	0.12610039
144	0xbcb62eaf	-0.022239057
145	0x3cd2ef87	0.025748981
146	0xbcd2e093	-0.025741851
147	0xbdb141d4	-0.08655134
148	0x3c77cab9	0.015124016
149	0x3e2c0156	0.16797385
150	0xbd5318d2	-0.051537342
151	0xbc668ed3	-0.014072138
152	0x3dea8252	0.11450638
153	0xbdb6eac5	-0.089314975
154	0xbbe70e4f	-0.0070512663
155	0x3d81df8c	0.06341466
156	0x3d2e8afb	0.04261301
157	0xbd6cef83	-0.057845604
158	0xbbe63a1c	-0.00702597
159	0x3c507d72	0.012725221
160	0x3ca910ce	0.020637896
161	0xbddffc58	-0.109368026
162	0xbd536eb1	-0.051619235
163	0xbd522d40	-0.051312685
164	0x3c6cf14e	0.014461828
165	0xbb96ce8d	-0.0046022595
166	0xbc84929f	-0.016183196
167	0x3cea4ddf	0.028601585
168	0x3d312c68	0.04325524
169	0xbd7aa3b2	-0.06119127
170	0xbd6dcf8b	-0.058059257
171	0x3db3b7fd	0.08775327
172	0xbd8a8057	-0.0676276
173	0xbd146067	-0.03622475
174	0x3d2e9ca7	0.042629864
175	0xbdc64088	-0.09680277
176	0xbc63e5fe	-0.013909815
177	0xb97ab20c	-0.00023908186
178	0x3d97d4e7	0.07413655
179	0xbd803dfb	-0.06261822
180	0x3d1a43dd	0.037662376
181	0xbd1d1cb0	-0.038357437
182	0x39d64432	0.0004086807
183	0x3cccf083	0.025017029
184	0x3c123a07	0.008924968
185	0xbd392127	-0.045197632
186	0x3d3346b3	0.043768596
187	0xbcde50f1	-0.027138205
188	0x3a193e83	0.0005845802
189	0x3da6f098	0.08151358
190	0xbdb2a955	-0.08723704
191	0xbcbf369b	-0.023341468
192	0x3ce15ed6	0.027511042
193	0xbbf2ebc9	-0.0074133617
194	0xbc312bb9	-0.010813647
195	0x3cd08213	0.02545265
196	0xbc072b2a	-0.008250037
197	0xbdab94f6	-0.083780214
198	0x3d582424	0.05276884
199	0x3db29e0e	0.08721553
200	0xbcb4beb1	-0.022063585
201	0x3c8f496a	0.017491061
202	0xbd242fda	-0.040084697
203	0x3e001129	0.12506546
204	0xbdc27d78	-0.094965875
205	0xbd15910c	-0.03651528
206	0x3d536aad	0.051615406
207	0xbdb0a855	-0.08625857
208	0x3d8f0967	0.06984215
209	0xbd6f6a61	-0.05845106
210	0x3cca75d4	0.024714388
211	0xbd361c06	-0.04446032
212	0x3d06ea26	0.032938145
213	0x3c99e0a8	0.018783882
214	0xbcb36028	-0.021896437
215	0xbb99a93b	-0.0046893633
216	0x3ce22fa6	0.027610611
217	0xbd382e9f	-0.044966336
218	0x3be3510d	0.0069371522
219	0x3d81000d	0.06298838
220	0xbdaa59fd	-0.08317945
221	0xbd044cac	-0.032299682
222	0x3cf2b215	0.029625932
223	0xbc91e92b	-0.017811378
224	0xbbe37dfa	-0.006942508
225	0x3c26d6ac	0.010183018
226	0xbc72718f	-0.014797582
227	0x3d244553	0.040105175
228	0xbd65132e	-0.055926494
229	0x3c9f64ae	0.019457188
230	0xbbe990d6	-0.0071278615
231	0x3d2e1846	0.042503618
232	0xbd067e31	-0.03283519
233	0xbcc0386e	-0.023464408
234	0x3d926541	0.07148219
235	0xbdad7e93	-0.08471408
236	0x3d783465	0.060596842
237	0x3d242eeb	0.040083807
238	0xbd019a95	-0.03164156
239	0xbc9f1818	-0.019420668
240	0x3d6da2bc	0.058016524
241	0xbd9385a8	-0.07203227
242	0x3ce093fb	0.027414313
243	0xbd39eb97	-0.04539069
244	0xbc8fcfd3	-0.017555153
245	0x3d1096ab	0.03529994
246	0x3c6c8b73	0.014437544
247	0xbd85629a	-0.065129474
248	0x3dca969f	0.0989201
249	0x3ddd0bb9	0.107932515
250	0xbdba5b38	-0.0909943
251	0xbcf2ea3a	-0.029652704
252	0x3cf0db70	0.029401511
253	0xbc9f63e3	-0.01945681
254	0xbcd4ed81	-0.025992157
255	0xbc686799	-0.014184856

interaction_layers.1.bias f4 [64]
0	0x377ab2b8	1.4942772e-05
1	0xb6d817ca	-6.440071e-06
2	0x36f84829	7.3993765e-06
3	0xb79fec94	-1.9064442e-05
4	0xb76b9054	-1.40406955e-05
5	0x37ac99f4	2.0575688e-05
6	0xb70f54ed	-8.5432375e-06
7	0xb5cd26ff	-1.528504e-06
8	0xb61ff680	-2.3836328e-06
9	0x3741c7cf	1.1550218e-05
10	0x382ff2d3	4.19494e-05
11	0x3706836c	8.017621e-06
12	0xb556c387	-8.000574e-07
13	0x375b4697	1.3069853e-05
14	0xb7d2bf77	-2.5123109e-05
15	0x368df1d2	4.230279e-06
16	0xb72913c2	-1.0077785e-05
17	0xb824336a	-3.914853e-05
18	0x3802fe60	3.123132e-05
19	0xb70bcdad	-8.332933e-06
20	0x371ebb47	9.461138e-06
21	0xb77ed5b9	-1.5189341e-05
22	0x35cd7e85	1.5310512e-06
23	0x36446b28	2.926865e-06
24	0xb77579fa	-1.4631538e-05
25	0xb6cd5b53	-6.1201076e-06
26	0x365b0ff7	3.2642836e-06
27	0x36b72025	5.457567e-06
28	0xb780b5b2	-1.5343398e-05
29	0x37842e23	1.575711e-05
30	0x363c9b72	2.8104664e-06
31	0xb6b8a048	-5.5022865e-06
32	0xb6cd69c7	-6.12179e-06
33	0x3745c63e	1.1788272e-05
34	0x36de12a7	6.618287e-06
35	0xb63a6781	-2.7776407e-06
36	0x36ff11df	7.6016727e-06
37	0x340de653	1.321544e-07
38	0xb69a7764	-4.6034565e-06
39	0x375666ea	1.27793555e-05
40	0x36d38abf	6.304442e-06
41	0xb6ba21cb	-5.547166e-06
42	0x3669d16a	3.48416e-06
43	0xb709a948	-8.20525e-06
44	0xb6914bed	-4.3301757e-06
45	0xb6b473ed	-5.3779136e-06
46	0x361dfb70	2.354118e-06
47	0x3646857f	2.9582004e-06
48	0x377e7b4b	1.5168286e-05
49	0xb6ab88b7	-5.112113e-06
50	0xb71928ec	-9.1290385e-06
51	0x370815f9	8.111348e-06
52	0x37600a2e	1.3353811e-05
53	0xb74ae713	-1.2093939e-05
54	0x37fcbd80	3.0128984e-05
55	0x366ce423	3.5299533e-06
56	0x37c9c99b	2.4054947e-05
57	0xb766f47b	-1.3765991e-05
58	0xb60b8484	-2.0789748e-06
59	0x3696edff	4.4980548e-06
60	0xb70ce33c	-8.397557e-06
61	0x37294d60	1.00912e-05
62	0x364b178b	3.026306e-06
63	0xb5c1479a	-1.4400459e-06

interaction_layers.1.lin.weight f4 [64, 128]
0	0xbd2ad5c2	-0.04170776
1	0x3bef3a75	0.00730067
2	0x3cbcb667	0.023036195
3	0x3965127e	0.0002184603
4	0x3ca3157f	0.019907711
5	0x3cc414b2	0.02393565
6	0x3bc81ffe	0.0061073294
7	0xb805887f	-3.1836793e-05
8	0xbb87e287	-0.004146877
9	0x3b92d41c	0.004480852
10	0xbbcd65cf	-0.00626824
11	0x3d09b834	0.033622935
12	0x3c7aad23	0.015300068
13	0xbbcb51fb	-0.006204841
14	0x3c3fda8f	0.011709823
15	0x3cf82e2d	0.030295456
16	0x3ca4f96d	0.020138467
17	0xbadf6907	-0.001704485
18	0x3cc4edec	0.024039231
19	0xbc35a41a	-0.011086488
20	0x3c864750	0.016391426
21	0xbc108e25	-0.008822952
22	0x3ca9488f	0.020664481
23	0x3c30ddad	0.010795039
24	0xbcd7b5d9	-0.026331829
25	0x3bd068d0	0.006360151
26	0xba93d250	-0.0011277888
27	0xbc977b38	-0.018491372
28	0x3c273944	0.010206524
29	0x3cfcb712	0.030849013
30	0x398d7983	0.0002698415
31	0x3cfb7d08	0.030699268
32	0x3c224b0f	0.009905591
33	0x3c0be5f1	0.008538709
34	0x3b00405b	0.001956961
35	0x3d283d9e	0.041074388
36	0x3bc8be37	0.006126191
37	0x3c91a4fa	0.017778862
38	0x3b46016b	0.0030213248
39	0xbb7810bc	-0.0037851771
40	0x3c1e9115	0.009678145
41	0x3bd543eb	0.0065083406
42	0xbb3fb5ab	-0.002925257
43	0xba33a724	-0.0006853214
44	0x3d3e5ff3	0.046478223
45	0x3bb760e3	0.0055962666
46	0xbca742fc	-0.020417683
47	0xbc1cfdd4	-0.009582002
48	0x3c4708ce	0.012148095
49	0xbc7f76b3	-0.015592265
50	0x3d1cf4f2	0.038319536
51	0x39c9e7f1	0.00038510517
52	0xbc2b5492	-0.010457175
53	0x3c67d250	0.0141492635
54	0xbd3d8789	-0.046271835
55	0xbc81d785	-0.015849838
56	0xbbdc2f67	-0.006719518
57	0x3be4432a	0.0069660144
58	0x3d3dc30f	0.0463286
59	0x3c36563a	0.011128956
60	0x3c6dfd0f	0.014525666
61	0x3ca2fc73	0.019895768
62	0xbc20e55e	-0.00982031
63	0x3c6c7018	0.014431022
64	0xbb73b73f	-0.003718808
65	0x3cb9271e	0.02260166
66	0xbc5d169f	-0.013494163
67	0x3cec98c3	0.028881436
68	0xbc642c0d	-0.013926518
69	0x3ca60d90	0.020270139
70	0xbb1b1ecb	-0.0023669477
71	0xbd584c32	-0.05280704
72	0x3cd3725c	0.025811367
73	0x3b8fa8b4	0.0043841247
74	0xbcb20f18	-0.021735713
75	0xbca0ea0f	-0.019642858
76	0xbb522fb1	-0.0032071883
77	0x3c338cb9	0.010958844
78	0x3ce5f2a7	0.028069807
79	0xbcd94a25	-0.026524613
80	0x3d137907	0.036004093
81	0x3ce9132a	0.028451521
82	0x3bb78f75	0.005601818
83	0x3c68ddbc	0.014213022
84	0xbc0a2697	-0.008432052
85	0x3d284283	0.041079056
86	0x3d12404a	0.035705842
87	0xbd4b246a	-0.049595274
88	0x3cfac363	0.030610746
89	0x3c5b8bb2	0.013400005
90	0x3c27d420	0.010243446
91	0xbc0137a7	-0.007886804
92	0x3d3187d6	0.043342434
93	0x3cdd169b	0.026988318
94	0x3b1a529c	0.0023547774
95	0x3c51933b	0.01279145
96	0xbc3a0ccc	-0.01135559
97	0xbd253fa0	-0.04034388
98	0xba134d6e	-0.0005619143
99	0xbd2b93a5	-0.04188885
100	0xbbb31d42	-0.0054661343
101	0xbb05350d	-0.002032581
102	0x3ade7285	0.0016971385
103	0x3d112009	0.03543094
104	0xbb1b560d	-0.0023702413
105	0xbc8f0b89	-0.017461555
106	0xbc1ad143	-0.009449306
107	0xbcccf69c	-0.025019936
108	0xbc3cc579	-0.0115216905
109	0xbbdc8367	-0.0067295316
110	0x3af0ce89	0.0018372099
111	0x3bef33f1	0.007299893
112	0xbc90fb44	-0.017697938
113	0x3ba09f62	0.0049018124
114	0xbcb7abde	-0.02242082
115	0xbc3803b5	-0.011231353
116	0x3b84036d	0.0040287287
117	0x3c4744c3	0.01216239
118	0xbb9f4c58	-0.004861396
119	0x3d0a8995	0.033822615
120	0xbc601f03	-0.013679269
121	0x3baefc6d	0.00534015
122	0xbd2ed717	-0.042685594
123	0xbc21d22b	-0.009876768
124	0xbd0d6076	-0.03451582
125	0x3cc3c491	0.023897441
126	0x3c510060	0.012756437
127	0x3b0ff956	0.0021968684
128	0xbb5c9367	-0.0033657195
129	0x3d1acc67	0.03779259
130	0xbc99830a	-0.018739242
131	0xbc694d01	-0.014239551
132	0x3d13ca9b	0.03608189
133	0x3d1495ed	0.036275793
134	0xbd1ddf39	-0.03854296
135	0xbba09122	-0.0049001137
136	0x3b621feb	0.0034503888
137	0x3cce6b3f	0.025197623
138	0x3d0e9ab1	0.034815494
139	0x3c363f43	0.011123481
140	0x3c1a4410	0.009415641
141	0xbbdc74dc	-0.006727798
142	0x3bd1d744	0.0064038355
143	0x3c35db55	0.011099656
144	0x3d0bffd3	0.03417952
145	0xbc84cb81	-0.01621032
146	0x3c1e131e	0.009648113
147	0xbc41c8cf	-0.011827662
148	0xb8a90a20	-8.060434e-05
149	0xbc820a66	-0.015874099
150	0xbc013f77	-0.007888666
151	0x3d105bf6	0.03524395
152	0x3b274014	0.0025520371
153	0x3c68390f	0.01417376
154	0xbca017c8	-0.01954259
155	0xbd1411c2	-0.036149748
156	0x3c5331f1	0.012890325
157	0x3d2f1c5e	0.042751662
158	0xbc913ac3	-0.017728215
159	0x3cab8e90	0.020942003
160	0x3c8b742e	0.017023172
161	0xbbd9115c	-0.006624384
162	0xbc55e3ad	-0.01305477
163	0x3c974512	0.018465552
164	0xb9911811	-0.00027674486
165	0x3d12c097	0.0358282
166	0xbc33810e	-0.010956062
167	0x39241c1e	0.00015650733
168	0x3b9d3af1	0.004798286
169	0xbbf415d8	-0.007448893
170	0xbc71c38d	-0.014756096
171	0xbcefa6c6	-0.029254328
172	0x3ce71d10	0.0282121
173	0x3d1ec3f9	0.038761113
174	0xbd185a58	-0.037195534
175	0xbd01f383	-0.03172637
176	0x3d0c82f1	0.034304563
177	0x3ca6daed	0.020368064
178	0x3bcb4ffa	0.0062046023
179	0x3c5a9d0c	0.013343107
180	0x3c636489	0.01387895
181	0xbbe3294a	-0.0069324123
182	0xbcf9cf7e	-0.030494448
183	0x3c5b006a	0.013366798
184	0x3c22dcb9	0.00994032
185	0xbb39db92	-0.0028359634
186	0x39e221e6	0.00043131335
187	0x3cf8d500	0.030375004
188	0xbae974e3	-0.0017811324
189	0x3c2e59f7	0.0106415665
190	0xbd0f13e5	-0.034931082
191	0xbaecefd2	-0.0018076843
192	0x3c877fde	0.016540464
193	0x3ba0a23a	0.0049021514
194	0xbc534f1b	-0.012897278
195	0x3cdb3388	0.02675797
196	0x3b983400	0.0046448708
197	0x3ca5f208	0.020257011
198	0xbc9b4616	-0.018954318
199	0xbb709136	-0.0036707646
200	0xbc37a6a8	-0.011209168
201	0x3c8b689e	0.017017659
202	0x3c1139e1	0.008863897
203	0x3ca12854	0.01967255
204	0xbc71570d	-0.014730227
205	0xbc813f95	-0.015777389
206	0x3cc3bb8c	0.02389314
207	0xbcabd964	-0.020977683
208	0x3bcbc7e4	0.006218897
209	0xbc73ede9	-0.014888265
210	0x3cc88722	0.024478499
211	0xbb1d3178	-0.0023985785
212	0xbc83ad30	-0.016073793
213	0x3c5c0b17	0.013430378
214	0xbb8d6801	-0.0043153767
215	0x3c0f3860	0.008741468
216	0xba996b53	-0.0011704959
217	0x3b890cd7	0.004182439
218	0x3c90ca20	0.017674506
219	0x3ce717f6	0.028209668
220	0x3d3b8561	0.045781497
221	0x3bad96f5	0.0052975365
222	0x3acc8079	0.0015602253
223	0x3bac9850	0.0052671805
224	0xbceb7634	-0.028742887
225	0x3d179e63	0.037016284
226	0xbc512e21	-0.012767346
227	0xbcef32ee	-0.02919909
228	0x3bfa1aa4	0.0076325703
229	0xbd1a025c	-0.037599906
230	0xbc7f8e34	-0.015597869
231	0x3d683921	0.056695107
232	0xbcbdf4a2	-0.02318794
233	0xbc41a0fb	-0.011818166
234	0x3c614438	0.013749175
235	0x3bfc02d7	0.007690768
236	0xbd274576	-0.040837727
237	0xbc450ef1	-0.012027488
238	0x3c0a008d	0.008422983
239	0x3c9773a0	0.018487751
240	0xbc511207	-0.012760646
241	0xbc58a380	-0.013222575
242	0xbced7123	-0.028984612
243	0xbaf83dc3	-0.0018939305
244	0x3b82b534	0.0039888863
245	0xb93f5b39	-0.00018249163
246	0xbd096955	-0.033547718
247	0x3c7a53e2	0.015278788
248	0x3a924478	0.0011159321
249	0x3a51ed20	0.00080080517
250	0xbd3f68f0	-0.046730936
251	0x3b2c0928	0.0026250575
252	0xbca329b9	-0.019917356
253	0xbd71f21d	-0.059068788
254	0x3cdd4293	0.027009284
255	0xbcb57ef1	-0.022155257

out.weight f4 [200, 64]
0	0x37283f61	1.0028337e-05
1	0xb69a0b82	-4.5908973e-06
2	0xb70c57e6	-8.365116e-06
3	0x36cba3a1	6.0689204e-06
4	0xb4924dba	-2.7251173e-07
5	0xb70433e9	-7.879899e-06
6	0x35b29d01	1.3307728e-06
7	0x3660120e	3.338911e-06
8	0xb63cf24f	-2.8155225e-06
9	0x362c6f09	2.5694628e-06
10	0xb76ae5cb	-1.400099e-05
11	0x34b7399d	3.4128325e-07
12	0xb70586b6	-7.958783e-06
13	0xb569081d	-8.681107e-07
14	0xb74a1e6d	-1.2047222e-05
15	0xb60d2122	-2.1029923e-06
16	0xb67414ce	-3.6370943e-06
17	0x372fface	1.0489208e-05
18	0x3646935f	2.959008e-06
19	0x359740c5	1.1269227e-06
20	0x3610cd9f	2.157736e-06
21	0x3643c24f	2.9170367e-06
22	0x354a3d2e	7.533989e-07
23	0x34493e02	1.8742142e-07
24	0xb630a761	-2.632347e-06
25	0x3659327f	3.2364912e-06
26	0xb65898f7	-3.2275545e-06
27	0x36d50a18	6.3490697e-06
28	0xb61adb6a	-2.3075504e-06
29	0x3757189a	1.2820727e-05
30	0x367b180e	3.7415916e-06
31	0x3709dfff	8.2179895e-06
32	0x364fbe64	3.0956226e-06
33	0x368920b7	4.0867267e-06
34	0x378251d0	1.5535305e-05
35	0x3621f9ec	2.4136343e-06
36	0xb5a0800d	-1.1958197e-06
37	0xb607e652	-2.0250632e-06
38	0xb61e7319	-2.361083e-06
39	0xb5a1ab95	-1.2045372e-06
40	0xb6c93117	-5.9959816e-06
41	0x3623ef94	2.4428346e-06
42	0xb785efea	-1.5966554e-05
43	0x373f71c8	1.1410979e-05
44	0xb5b7de86	-1.3699325e-06
45	0x35d29295	1.568888e-06
46	0x3740b0d9	1.1485267e-05
47	0xb6bfff48	-5.721962e-06
48	0x35bdd7dc	1.4144421e-06
49	0x35f3486f	1.8125992e-06
50	0x370b487b	8.301921e-06
51	0xb574afb4	-9.1152765e-07
52	0x36a15f9c	4.8093043e-06
53	0x362bfc76	2.5627937e-06
54	0x35457a63	7.3566315e-07
55	0xb6b91c0b	-5.5166943e-06
56	0xb488b53c	-2.546384e-07
57	0x35a37494	1.2178375e-06
58	0x35b415f2	1.3417432e-06
59	0x371eb039	9.458564e-06
60	0xb6a5ecd1	-4.9449523e-06
61	0x35fcb1b4	1.8827182e-06
62	0xb6b2c0ec	-5.3272724e-06
63	0x377507c9	1.4604951e-05
64	0xb81731d0	-3.6047597e-05
65	0x3731f520	1.0607095e-05
66	0x38288067	4.0173905e-05
67	0x382aa6f6	4.0686653e-05
68	0x384573fc	4.707648e-05
69	0xb866af86	-5.4999742e-05
70	0xb8207121	-3.8252332e-05
71	0xb7f7bfec	-2.9534065e-05
72	0xb8610744	-5.3650947e-05
73	0xb8221557	-3.8643684e-05
74	0x3705971b	7.9626e-06
75	0xb71cca23	-9.345388e-06
76	0xb82fd71c	-4.1923588e-05
77	0x3829d559	4.0491435e-05
78	0xb58295a4	-9.729306e-07
79	0xb80c750b	-3.3487606e-05
80	0x3808a7f8	3.258136e-05
81	0x38068eb7	3.2081003e-05
82	0xb71e252d	-9.4261895e-06
83	0xb7cb46fa	-2.4232537e-05
84	0x37865b49	1.6016553e-05
85	0xb7fbcb5c	-3.0016228e-05
86	0x383c9e4f	4.497013e-05
87	0x37bbdd8b	2.2395301e-05
88	0x386ed45b	5.6941393e-05
89	0xb7da6c3a	-2.6038022e-05
90	0xb823314c	-3.890814e-05
91	0xb739cd4e	-1.10746605e-05
92	0xb81c41eb	-3.725469e-05
93	0x3888a7a0	6.516208e-05
94	0x37e9cc11	2.787079e-05
95	0x36e9c793	6.9671746e-06
96	0xb6fd2d01	-7.5452267e-06
97	0x37fcf62f	3.015538e-05
98	0x37b125d8	2.1117667e-05
99	0x3878f2fe	5.935411e-05
100	0xb85320e4	-5.0336952e-05
101	0x37c1e16c	2.3112363e-05
102	0xb856b517	-5.119023e-05
103	0x37c5ee17	2.35951e-05
104	0x35fd0b13	1.8853192e-06
105	0x385cebb8	5.2671618e-05
106	0xb8b0d24b	-8.431504e-05
107	0xb7bd5439	-2.2569775e-05
108	0xb82c6b2b	-4.1107804e-05
109	0x3887df55	6.4789005e-05
110	0x387f5a77	6.088099e-05
111	0xb6f9cf34	-7.4449e-06
112	0x38700339	5.722346e-05
113	0x38332dae	4.271947e-05
114	0x382d6b83	4.1346542e-05
115	0x385ceb88	5.2671443e-05
116	0xb825d0ac	-3.9533406e-05
117	0x3835159e	4.3173895e-05
118	0xb80c0158	-3.3379853e-05
119	0xb85afe44	-5.2212054e-05
120	0xb7c1d5d3	-2.3106963e-05
121	0xb83aa09c	-4.4495435e-05
122	0xb7c3da6a	-2.3347518e-05
123	0xb586c175	-1.0040081e-06
124	0x37e97b02	2.7833044e-05
125	0xb7d149bb	-2.4949075e-05
126	0xb8481898	-4.770662e-05
127	0x38c24503	9.263495e-05
128	0x37dd7d7b	2.6403684e-05
129	0xb752179f	-1.2522475e-05
130	0xb7fe5f60	-3.0323572e-05
131	0x380f2757	3.4130495e-05
132	0xb68fd21d	-4.2861925e-06
133	0xb81191d3	-3.4706503e-05
134	0x35fb1e16	1.8709713e-06
135	0x36e5b00d	6.845227e-06
136	0xb7afabcf	-2.094163e-05
137	0xb6b478f2	-5.378498e-06
138	0xb867fe60	-5.5311597e-05
139	0x36ddb897	6.6078023e-06
140	0xb84b3171	-4.8445017e-05
141	0xb58e8fd7	-1.0621687e-06
142	0xb87d83dd	-6.0442708e-05
143	0xb7abac16	-2.0464922e-05
144	0x3517efb3	5.660069e-07
145	0x384096a8	4.5916677e-05
146	0x362aeb32	2.5468876e-06
147	0x35cbbca7	1.5179584e-06
148	0x3765b307	1.3691147e-05
149	0x377ffd91	1.5258222e-05
150	0x371cd0dc	9.346953e-06
151	0x371847b5	9.076602e-06
152	0xb54d5354	-7.648971e-07
153	0x37410213	1.1504179e-05
154	0xb72dcb44	-1.035893e-05
155	0x37a68f12	1.9855364e-05
156	0xb7b58d53	-2.164269e-05
157	0x389775f9	7.222215e-05
158	0x377ae449	1.4954313e-05
159	0x38257246	3.944549e-05
160	0x377943f2	1.4857376e-05
161	0x3763a463	1.3568529e-05
162	0x38900f19	6.869267e-05
163	0x377015c9	1.4310187e-05
164	0xb6935396	-4.390672e-06
165	0xb5f62c78	-1.834137e-06
166	0xb792471d	-1.7437671e-05
167	0xb6e19145	-6.722434e-06
168	0xb7c387f8	-2.3309127e-05
169	0x37656750	1.3673518e-05
170	0xb8a359f9	-7.7892044e-05
171	0x3848aa6f	4.7842444e-05
172	0xb76bfdc9	-1.40661805e-05
173	0x37b06c6a	2.103132e-05
174	0x38812a1f	6.159045e-05
175	0xb7c20e95	-2.3133392e-05
176	0x3794d2ae	1.774108e-05
177	0x377b812a	1.4990839e-05
178	0x383a633d	4.443828e-05
179	0x36d291ff	6.275484e-06
180	0x376d2e9c	1.4137153e-05
181	0x37495656	1.2000635e-05
182	0xb5fd837f	-1.8888239e-06
183	0xb8011a98	-3.0780764e-05
184	0xb73078d5	-1.0518551e-05
185	0xb7078903	-8.078528e-06
186	0xb69f688e	-4.750741e-06
187	0x3813d7a8	3.5248377e-05
188	0xb76bef2c	-1.4062778e-05
189	0x36ad847c	5.171225e-06
190	0xb7f30f6e	-2.8975042e-05
191	0x38995b23	7.312584e-05
192	0x38937f04	7.033165e-05
193	0xb843bfa7	-4.6670113e-05
194	0xb88861ea	-6.503223e-05
195	0x38859a02	6.3706204e-05
196	0xb6b97d6c	-5.5280307e-06
197	0xb8af2529	-8.351572e-05
198	0x374b3dbf	1.2114119e-05
199	0x37850dd5	1.5861277e-05
200	0xb810ed35	-3.455319e-05
201	0xb760f76b	-1.3409047e-05
202	0xb8f3a935	-0.0001161866
203	0x37aff3a6	2.0975083e-05
204	0xb8bf0a8f	-9.1095564e-05
205	0xb69377e2	-4.3948976e-06
206	0xb906b97f	-0.00012848339
207	0xb822120e	-3.8640625e-05
208	0xb69a0772	-4.5904244e-06
209	0x38e4c511	0.00010908594
210	0xb55b6328	-8.172815e-07
211	0x36f8daab	7.4164323e-06
212	0x380022a2	3.0549832e-05
213	0x37cdd764	2.4538203e-05
214	0x37b4df53	2.1561666e-05
215	0x3751a9e1	1.2496924e-05
216	0x35f8b23d	1.8529314e-06
217	0x37bf370a	2.2794604e-05
218	0xb8274e86	-3.9889033e-05
219	0x381e687e	3.776745e-05
220	0xb8083f99	-3.2484157e-05
221	0x3919f808	0.00014683616
222	0x38041833	3.149379e-05
223	0x38aff12a	8.3895706e-05
224	0x380b2066	3.3170356e-05
225	0x37bef014	2.276156e-05
226	0x391da28d	0.00015033242
227	0x3681c561	3.8674775e-06
228	0xb7293931	-1.0086501e-05
229	0xb5071481	-5.0321256e-07
230	0xb8026c1f	-3.109511e-05
231	0xb78074ed	-1.5313237e-05
232	0xb8703d9a	-5.727783e-05
233	0x3799bbb9	1.8326436e-05
234	0xb9132885	-0.00014034107
235	0x38b72f07	8.7348795e-05
236	0xb7bc4c6c	-2.2446933e-05
237	0x3825e2d5	3.955032e-05
238	0x3901338e	0.00012321604
239	0xb8181521	-3.6259302e-05
240	0x37d8ca3e	2.5843383e-05
241	0x37e97160	2.7828559e-05
242	0x38bab4dd	8.9028596e-05
243	0x37573871	1.282814e-05
244	0x380622be	3.1980446e-05
245	0x37ba852f	2.2234946e-05
246	0xb7beb5e6	-2.2734468e-05
247	0xb883b6b2	-6.2805964e-05
248	0xb7a49314	-1.9618812e-05
249	0xb79651aa	-1.7919421e-05
250	0xb6f8d7cd	-7.4160985e-06
251	0x38811dbb	6.156737e-05
252	0xb7ee27d0	-2.839035e-05
253	0x37891a1e	1.6343834e-05
254	0xb876f736	-5.8881204e-05
255	0x391859da	0.00014529322
