best_model/xasnet_gnn_model_11.pt (torch, 102230 bytes, 14 tensors)

batch_norms.0.weight f4 [128]
000000 07 7d 3f 3e 01 4a c8 3d 70 9b 09 3e 11 16 01 3e
       0.18700038 0.0977974 0.13438201 0.12606074
000010 67 23 b3 3d 27 66 14 3e e9 4e 0e 3e c0 b8 3e 3c
       0.08746987 0.14492093 0.1389729 0.0116407275
000020 f5 e8 fe 3d 46 9d ac 3d 97 d6 ca 3d c6 0a e1 3d
       0.12446777 0.08428435 0.09904211 0.10988383
000030 e8 03 e3 3d c8 62 22 3e e8 00 c7 3d c9 a5 16 3e
       0.110847294 0.15857995 0.0971697 0.1471168
000040 c0 cf 1b 3e 2e 5b 93 3d de 07 ce 3d 4e b6 7a 3d
       0.15215969 0.071951255 0.10060094 0.061209016
000050 aa 6b ef 3d f7 53 94 3d bd 68 05 3e 5c 70 04 3e
       0.11690457 0.072425775 0.13028236 0.12933487
000060 65 74 03 3e 38 7b 2d 3e 4d cd 61 3e 54 f8 df 3d
       0.1283737 0.16941535 0.22050972 0.10936037
000070 69 12 f1 3d d2 fa 11 3e 35 39 36 3e 8a 35 0b 3e
       0.117710896 0.14255837 0.1779526 0.13594642
000080 36 a4 b6 3d a2 1c 37 3e 08 cc f3 3d 55 f9 f2 3d
       0.089180395 0.17882016 0.1190415 0.118639626
000090 60 68 7e 3d 55 f0 ef 3d c9 26 52 3d ea 5d c0 3d
       0.06211126 0.117157616 0.05130652 0.09392913
0000a0 5d 45 6d 3e 0d 3f d0 3d 7e 32 61 3d a9 55 df 3d
       0.23170991 0.10168276 0.054979794 0.1090501
0000b0 09 aa 4e 3e d5 b7 02 3e da 6b e8 3d e9 4f a3 3d
       0.20182051 0.12765439 0.11348696 0.07974226
0000c0 da 8a d7 3d 16 67 f5 3d 82 05 a0 3d 09 70 b5 3d
       0.10524531 0.11982553 0.078135505 0.0885926
0000d0 f5 cc 03 3e b5 7b f6 3d 09 1b e7 3d 7f 29 29 3e
       0.12871154 0.12035314 0.112844534 0.16519736
0000e0 0d ac 0b 3e ce 52 24 3e 3c 11 d4 3d 26 a7 e1 3d
       0.13639851 0.16047212 0.1035485 0.11018209
0000f0 13 8a 5d 3e d1 28 a6 3d c8 1e 0a 3e f2 aa 03 3e
       0.21634702 0.08113254 0.13488305 0.12858179
000100 6f 35 fd 3d 39 11 0f 3e 9b b6 47 3e 6e 9e cb 3d
       0.12363707 0.13971414 0.19503252 0.099423274
000110 38 c0 29 3e f5 8c d9 3d d4 93 04 3e d3 b1 77 3e
       0.16577232 0.106225885 0.12947017 0.24188928
000120 df 20 1d 3e 23 72 bd 3d ef 1b f3 3d 99 a7 e2 3d
       0.1534457 0.092502855 0.11870562 0.11067123
000130 c8 4e 06 3e 2a 1d e0 3d 2c d5 ed 3d 36 a8 4c 3e
       0.1311599 0.109430626 0.11612925 0.19986042
000140 d3 0d ce 3d 3d 3d ab 3d a2 ca c8 3d b8 70 04 3e
       0.100612305 0.0836129 0.09804274 0.12933624
000150 f8 4a 45 3d 6f 5a e9 3d f0 c5 06 3e c0 31 0c 3e
       0.0481672 0.11394202 0.13161445 0.13690853
000160 62 f4 60 3e 13 d4 dc 3b f1 15 c6 3d bc 2c 14 3d
       0.21968225 0.0067391484 0.09672154 0.036175475
000170 90 33 b1 3d bc 2c 81 3d 83 d7 05 3e d8 05 08 3e
       0.08652413 0.063073605 0.13070492 0.13283479
000180 87 5a f0 3d ee 15 1a 3e a4 ea 3f 3d 2a 39 da 3d
       0.11736017 0.15047428 0.04685463 0.106554344
000190 6a ed 05 3e 89 32 90 3c 67 ac 15 3e 9c 55 2b 3e
       0.13078848 0.017602222 0.14616548 0.16731876
0001a0 9f 53 d7 3d e4 31 ef 3d 5e 6e 97 3d 73 f9 cd 3d
       0.10513996 0.11679438 0.07394098 0.10057344
0001b0 dc 72 6c 3e b4 cd af 3d 8b bd 3e 3e cb 21 2d 3e
       0.2309069 0.08584157 0.18626992 0.16907422
0001c0 f2 68 13 3e cf 73 32 3e e2 bd 36 3e 97 66 61 3e
       0.14395502 0.1742699 0.17845872 0.22011791
0001d0 82 b4 20 3e 0f 0c b8 3d d7 ea 3e 3e a6 e0 12 3e
       0.15693858 0.08986675 0.18644272 0.14343509
0001e0 5b ba be 3d 0e 82 a8 3d 70 e7 d9 3d f3 a4 90 3d
       0.09312888 0.08227931 0.10639846 0.070627116
0001f0 33 51 70 3d 5e 4c 23 3e 7d 42 1e 3e b5 71 68 3e
       0.058671188 0.159471 0.15455051 0.22699626

batch_norms.0.bias f4 [128]
000000 34 40 ca bd 10 16 ab bd 84 e6 9b bd 16 40 30 bd
       -0.09875527 -0.083538175 -0.07612327 -0.043029867
000010 0d 5a fe bc 23 91 87 bd a6 f7 dc bd 40 9e 42 bd
       -0.031048799 -0.066194795 -0.10789423 -0.0475142
000020 a7 98 0d be 1d b2 97 bb bf 70 48 bd 90 ea d1 bd
       -0.13827763 -0.004629387 -0.048935648 -0.10249817
000030 69 c0 0f be db d3 01 be 32 bc a1 bc 89 31 b8 bc
       -0.14038242 -0.12678473 -0.019743059 -0.022484558
000040 f4 96 b1 bd 40 e6 12 bd 87 ec 8e bd cf 43 63 bd
       -0.0867137 -0.035864115 -0.06978708 -0.05548459
000050 fc c6 b6 bd 8f 38 00 bd 74 85 c4 bd 2a db 93 bd
       -0.08924672 -0.03130394 -0.09595767 -0.072195366
000060 03 b6 0d bb 43 25 e4 bd cc 98 01 be b1 f4 9d bd
       -0.002162338 -0.111399196 -0.12655944 -0.07712687
000070 1e 2e d5 bd 7f 60 f4 bd 04 ae 0c be b6 2c 6b bd
       -0.10409187 -0.11932468 -0.13738257 -0.057415687
000080 59 2f a6 bd 89 71 32 be 73 19 ed bd 1e be dc bd
       -0.081144996 -0.17426123 -0.1157712 -0.107784495
000090 bf ad 05 bd dd 52 b0 bd 19 58 91 bd af ee cc bc
       -0.0326364 -0.08609555 -0.070968814 -0.025016157
0000a0 70 12 2e be da c9 12 bd 5f 7a f7 bc 41 0f ca bd
       -0.16999221 -0.035837032 -0.030209718 -0.09866191
0000b0 29 01 ec bd 60 cd 91 bd ee d7 09 be 97 dc 7d bd
       -0.11523659 -0.0711925 -0.13461277 -0.06197795
0000c0 9b 9e 31 bc 56 b8 c6 bd a6 92 8f bd 33 01 a9 bd
       -0.010841037 -0.09703128 -0.07010393 -0.08252182
0000d0 92 de ad bd 61 84 f2 bc b0 f5 30 bd f5 0a 23 be
       -0.084897175 -0.029604139 -0.043203056 -0.15922149
0000e0 9b 8b 0d be 1e fd 06 be ef 83 9a bd 65 18 b4 bd
       -0.13822787 -0.13182494 -0.075446956 -0.087937154
0000f0 10 91 14 be 1f 2c aa bd e8 d4 b4 bd cd f0 7a bd
       -0.14508462 -0.08309197 -0.08829671 -0.0612648
000100 f8 eb 89 3b c0 28 f3 bd 29 99 2d be 07 de 89 bd
       0.004209038 -0.11873007 -0.16952957 -0.067318015
000110 2f af 9f bd 63 b4 cf bd b9 8d a6 bc 18 38 31 be
       -0.077970855 -0.10141828 -0.02033125 -0.17306554
000120 bb 5e 38 be 96 3c ce bd c9 1b 9c bd 27 8f d3 bd
       -0.18004887 -0.100701496 -0.07622487 -0.103300385
000130 4f 98 22 be e4 42 60 bd 5d 9e a3 bb a8 55 37 be
       -0.15878414 -0.054751292 -0.0049932436 -0.17903769
000140 bd eb 5b bd 76 d8 b9 3b 12 e4 20 bc d7 6b e9 bd
       -0.053691614 0.005671556 -0.009820001 -0.11397522
000150 33 9f 9e bd 06 cf 24 bd 08 ba 28 be 9a 31 2a be
       -0.077452086 -0.040236495 -0.16477215 -0.16620484
000160 ce 53 19 be 19 47 fb bc af ba 19 bc 3e 8f 9c bd
       -0.14973375 -0.03067355 -0.009382888 -0.07644509
000170 c7 3e 54 bd e2 02 39 3b 5b 14 08 be 73 46 fc bd
       -0.05181768 0.0028230478 -0.13289015 -0.123181246
000180 40 3a 86 bd a9 37 28 be eb 34 85 bd 65 f9 57 bd
       -0.06554079 -0.16427483 -0.06504234 -0.052728076
000190 3f bf 16 be 1c 0e e8 bd 92 df cf bd 69 98 8d bd
       -0.14721392 -0.11330816 -0.101500645 -0.069138356
0001a0 54 d8 79 bd aa fb ba bd ea dd 84 bd 1a 61 cf bc
       -0.060997322 -0.09130032 -0.06487639 -0.025314856
0001b0 cd 2c f8 bd 40 e3 29 bd f0 1d fc bd 3a 3d 2d be
       -0.1211792 -0.041476488 -0.123103976 -0.16917887
0001c0 3a ba 38 be bc 65 11 be 2d 95 80 be e8 ec 57 be
       -0.1803979 -0.14198965 -0.25113812 -0.21086466
0001d0 dd f2 d0 bd 98 94 7c bd 95 ab e0 bd 4f 8c a5 bd
       -0.102025725 -0.061665148 -0.10970227 -0.08083402
0001e0 7b d6 50 bd e0 24 bd bd bb e4 60 bd dc d5 20 be
       -0.050985795 -0.09235549 -0.054905634 -0.15706581
0001f0 45 fa 47 bd c6 dc fa bd c6 b6 ac bc 95 ae 03 be
       -0.04882266 -0.122491404 -0.021083247 -0.12859567

batch_norms.0.running_mean f4 [128]
000000 d1 b5 c1 3c a5 94 17 bd 8a 70 aa 3c cf b6 96 3d
       0.023646267 -0.037006993 0.020805616 0.07359087
000010 df fa 87 3d 6b bb c5 3d 12 32 93 bb a9 93 d5 3c
       0.06639647 0.09654888 -0.004492053 0.026071386
000020 8f 17 d6 3d 93 c6 db 3c b9 b9 82 3d 0b d7 b0 bd
       0.10453712 0.026828086 0.0638308 -0.08634766
000030 b0 03 e7 3c bb 6a 1e bd 1c 3d 08 3e 91 2a e2 3d
       0.0282 -0.038676005 0.13304561 0.11043275
000040 41 14 de bc 0f e4 e4 bb 1d 55 93 bb 25 61 a0 bd
       -0.027109267 -0.0069851945 -0.0044962303 -0.07831029
000050 a1 c3 1f 3e 7e 12 33 3d 3d 61 70 3d 29 6e 6d 3d
       0.1560197 0.043718807 0.058686484 0.057966385
000060 eb 36 ef bc 8b 71 0e 3d fc 55 52 3e 7f 2a 2d 3d
       -0.029200992 0.03477625 0.20540613 0.042276856
000070 06 e1 60 3d da 62 36 3d 1a d2 a3 3d ff 0e 5b bd
       0.0549021 0.044527866 0.07999058 -0.0534811
000080 ae 84 17 3d a9 68 0a 3d f6 98 30 bc 14 5a ca bd
       0.036991768 0.033791218 -0.010778656 -0.09880462
000090 7a 67 62 3c 4a ce f3 3c ce f2 82 bd d2 be 70 3d
       0.013818616 0.029761452 -0.063939676 0.05877573
0000a0 83 ea 7b 3e 18 ab f9 bc d8 e8 1e 3d d8 90 da bd
       0.24601178 -0.030477092 0.038796276 -0.10672158
0000b0 fb a0 64 3d 19 ec 45 bd 1c 54 c5 3d 70 57 5a 3c
       0.055817585 -0.048320863 0.09635183 0.013326511
0000c0 29 37 81 bc 6f 5c 93 3c 4a 94 d1 3d 5c a5 3a bd
       -0.015773373 0.017988412 0.10233362 -0.045567855
0000d0 f4 c2 be 3d d2 7d e6 3d 08 88 25 3d ce 35 1f 3d
       0.09314528 0.11254467 0.040412933 0.03886967
0000e0 d5 ab 44 3e 3a 25 55 bc 47 5b cf 3d 39 cf 67 bd
       0.19206174 -0.013009364 0.10124832 -0.056594107
0000f0 dd d5 69 bd 65 fb 3c bd 7c f1 6c 3d b1 79 ce 3d
       -0.05708872 -0.046138186 0.057847485 0.100818045
000100 ea 06 fe 3c 01 24 c9 3c 31 30 a3 3d 6c 0b dd bc
       0.031009156 0.0245533 0.07968176 -0.026982985
000110 43 14 c4 3d 8b 4f 9a bc 67 1a 6d 3e be 33 9e bd
       0.09574177 -0.018836757 0.23154603 -0.07724713
000120 2d 03 fa 3d 44 0c 92 3d 28 a8 e5 3d 91 75 81 3d
       0.12207637 0.07131246 0.11213714 0.06321252
000130 b5 9f 9d 3d 76 5a 4e 3c 74 bc d7 3d 83 a6 45 bd
       0.07696477 0.01259481 0.105339915 -0.0482545
000140 94 58 72 bd 92 c6 cd bc ef 29 fb 3c c3 cb ee bd
       -0.059166506 -0.0251191 0.030659644 -0.11659958
000150 01 fc 8d 3d 37 1b d2 bc 87 69 86 bd 73 49 67 bb
       0.069328316 -0.025647743 -0.065630965 -0.0035291582
000160 2c 73 68 3d 61 21 72 bc 13 78 b5 3d d3 d3 c6 3d
       0.05675046 -0.014778466 0.08860793 0.09708371
000170 bd f1 ec 3c 3a ac 81 3d d5 22 1a 3e 06 38 30 3d
       0.028923864 0.06331678 0.1505235 0.043022178
000180 8b d0 a7 3d a8 8c 8c 3d 0b 75 55 3d 70 f4 0b 3d
       0.08194073 0.068627656 0.052113574 0.03416866
000190 21 50 16 3d 49 b9 a2 3d f7 1f 8a bd 43 31 0b be
       0.03669751 0.079454966 -0.06744378 -0.1359301
0001a0 3c c6 fa bc a3 54 35 3d 46 63 6d 3d 55 80 98 3d
       -0.030612104 0.04427017 0.057956003 0.074463524
0001b0 5c 1a 5c bd 2d fc 8f bd c1 fc 3b 3d 12 f6 9a 3d
       -0.053736076 -0.070305206 0.04589534 0.075664654
0001c0 fd 7f 42 bd 70 02 b7 3c 68 b9 ee 3d ce 1b a7 3d
       -0.04748534 0.02234003 0.11656457 0.081596
0001d0 57 f8 01 3d 0a b8 82 3c b9 e9 87 3d f9 a5 98 bb
       0.031730976 0.015956897 0.06636376 -0.0046584574
0001e0 46 76 11 bd 1c da f1 bc 4b 01 ba 3d 4b 38 47 3d
       -0.035513185 -0.029522948 0.09082278 0.04863767
0001f0 a6 33 ea 3b 54 f2 83 bd b0 24 9b 3d f4 41 a3 bc
       0.0071472703 -0.06442705 0.07575357 -0.01992891

batch_norms.0.running_var f4 [128]
000000 b2 13 eb 3b 05 b7 05 3b 6d d2 89 3a 35 00 fb 3a
       0.0071739787 0.0020403278 0.0010514982 0.0019149842
000010 ae 15 da 3a 2f d4 44 3b de 68 0d 3b 85 55 72 3a
       0.0016638541 0.0030033698 0.0021577398 0.0009244311
000020 e7 27 a4 3b 32 18 55 3b 0c b1 71 3b 42 10 af 3b
       0.0050096395 0.0032515642 0.003687921 0.0053425143
000030 b0 68 89 3b 92 20 a3 3b 01 9b 49 3c 0c 41 12 3b
       0.004193388 0.004978248 0.012305022 0.0022316603
000040 e2 ba 61 3b ee 2f d5 3a 7b cc ff 3a 0f ca e1 3b
       0.0034443666 0.0016264895 0.0019515896 0.0068905423
000050 02 ef 60 3b 52 c1 ba 3b 65 9c 77 3b db 25 01 3b
       0.0034322147 0.005699315 0.0037782427 0.0019706402
000060 f5 ef c8 3a 44 e6 66 3b bb 1f 9a 3b 8c d5 04 3b
       0.0015330302 0.0035232464 0.0047034896 0.0020268885
000070 6f 19 22 3b 34 ad a8 3a 1d 4c 1e 3c a4 ae 90 3b
       0.0024734398 0.0012869001 0.0096617015 0.00441535
000080 cb 45 84 3a fe 53 47 3b ae 9f a9 3b d0 2c 8b 3b
       0.0010091601 0.0030415053 0.005176506 0.0042472854
000090 3e a3 81 3b 46 e6 a5 3a 39 0b 04 3b 46 34 0b 3b
       0.0039562276 0.0012657128 0.002014829 0.0021240874
0000a0 91 0a 81 3b 07 f8 2b 3b 29 ab 9b 3a 9c 18 8d 3b
       0.003938027 0.0026240365 0.0011876571 0.004305912
0000b0 64 a1 16 3c d3 6a 1e 3b b5 db df 3a 24 af b6 3b
       0.009193752 0.002417256 0.0017079028 0.0055750776
0000c0 f4 48 3f 3b 97 94 63 3b 95 23 ba 3b b9 b1 3d 3b
       0.002918777 0.0034726018 0.0056805112 0.0028945042
0000d0 1d b8 5f 3b b7 88 62 3b 56 f3 91 3b 3d 19 51 3b
       0.003413684 0.0034566352 0.0044540567 0.0031905912
0000e0 e8 b0 5a 3b 06 cd 55 3b 47 17 ab 3a c3 cd 73 3b
       0.0033369604 0.0032623424 0.0013053202 0.00372015
0000f0 76 8a 73 3b bc bb b4 3b de 1a 2e 3b db 67 a4 3b
       0.0037161387 0.0055155437 0.0026566307 0.0050172633
000100 39 8a 2f 3b 92 8d aa 3b 61 de 2f 3b 84 29 95 3b
       0.0026785268 0.005204865 0.002683543 0.004552068
000110 6b ec fc 3a 80 20 36 3b 08 d1 a9 3b 9e be e0 3b
       0.0019296532 0.0027790368 0.005182389 0.006858661
000120 3e 49 ed 3a c1 3e bf 3b 4f 8d 10 3c 72 f1 9e 3a
       0.0018103493 0.0058363383 0.008822753 0.00121264
000130 dc 2c 29 3b 86 00 e8 3a f9 cf 92 3b 0a 7a 91 3b
       0.0025814092 0.0017700351 0.0044803587 0.004439597
000140 0e d3 f1 3a 3a 18 e8 3a ff 9e 60 3b 60 6e 17 3b
       0.001844974 0.0017707415 0.0034274457 0.002310656
000150 91 c0 1b 3c 62 60 f7 3a e6 38 57 3b c3 d1 9c 3a
       0.009506361 0.0018873329 0.003284031 0.0011964369
000160 26 ec c7 3b 2b 56 3a 3a 65 d8 74 3b 0d fe bf 3b
       0.006101149 0.0007108177 0.0037360427 0.0058591426
000170 64 75 b0 3a 4f 38 47 3b be c6 2b 3b 0c 6b f8 3a
       0.001346272 0.0030398553 0.002621099 0.0018952801
000180 87 c2 ad 3b 77 ee 4e 3b 7f ca 6e 3b 1b 64 82 3a
       0.0053027305 0.0031575242 0.0036436615 0.0009948047
000190 b2 dd ee 3a 1e 56 8a 3b 9a 4e 2c 3b f1 61 c0 3b
       0.0018224029 0.0042216917 0.0026291967 0.0058710505
0001a0 50 0e e8 3a 60 ac 6a 3a e8 e2 39 3a 07 95 f0 3b
       0.0017704461 0.00089520775 0.00070910016 0.007341984
0001b0 48 47 74 3b 2c 20 8f 3b 26 cd a0 3b ea 1c 0b 3b
       0.0037273932 0.004367849 0.004907268 0.002122695
0001c0 98 c6 a6 3b 8e 57 a9 3b 93 fc 05 3b ea 74 91 3b
       0.005089592 0.005167908 0.0020444735 0.004438986
0001d0 fc e7 96 3b b0 2d 84 3b 4b c4 86 3b 7c 9e fe 3a
       0.0046052914 0.0040337667 0.0041127554 0.0019425894
0001e0 bf 82 71 3b 12 6a c9 3b cb 41 c7 3a c0 a8 94 3b
       0.0036851612 0.006146678 0.0015202103 0.004536718
0001f0 c4 d7 ad 3a 74 84 d3 3a 0a 04 2f 3b a3 6d ac 3b
       0.0013263156 0.0016137497 0.0026705288 0.005262093

batch_norms.1.weight f4 [64]
000000 6d a9 46 3e 69 32 40 3e 0b 2a a4 3e 63 a9 c3 3e
       0.19400568 0.1876923 0.32063326 0.3821517
000010 f4 64 7a 3e 69 00 99 3e 3a b2 90 3e 26 d2 04 3e
       0.24452573 0.29883125 0.28260976 0.1297079
000020 b3 d8 99 3e 93 55 81 3e 39 b9 7c 3e 40 b8 90 3e
       0.3004814 0.252606 0.24680032 0.28265572
000030 45 08 37 3e b3 81 38 3e 52 11 d6 3e 43 bd b5 3e
       0.17874248 0.18018226 0.4181009 0.35495958
000040 80 c2 5b 3e 49 97 a1 3e 87 10 15 3e 90 96 5b 3e
       0.21460915 0.31560734 0.14557086 0.21444154
000050 aa 63 a1 3e df ec 69 3e c6 0d c3 3e 0c e3 87 3e
       0.3152135 0.22844265 0.38096446 0.2654041
000060 d5 2b 88 3e f8 69 b2 3e 14 d4 b5 3e b0 1c 3a 3e
       0.2659594 0.34846473 0.35513365 0.18175006
000070 04 26 bb 3e 97 0b 90 3e be a4 86 3e 45 f8 a3 3e
       0.3655244 0.28133842 0.26297563 0.32025352
000080 af 07 b7 3e b9 c8 8d 3e 58 31 90 3e c8 4d 36 3e
       0.3574805 0.27692202 0.28162646 0.17803109
000090 b5 66 8f 3e 3f 46 96 3e 4e 40 39 3e c7 4c 75 3e
       0.28008047 0.2935047 0.18090937 0.2395507
0000a0 b6 2f 5f 3e 50 02 9f 3e 0d 75 8d 3e c3 ac 40 3e
       0.21795544 0.31056452 0.27628365 0.18815903
0000b0 2a 2b 23 3e 29 bc be 3e 34 0b 96 3e ca 11 ad 3e
       0.15934435 0.3725293 0.29305422 0.33802634
0000c0 10 db 96 3e eb 69 8d 3e 59 4c 2b 3e 8b b6 9d 3e
       0.29464006 0.27619871 0.16728343 0.30803332
0000d0 64 b0 78 3e 27 e4 82 3e ce d7 aa 3e 29 24 15 3e
       0.24286038 0.2556469 0.3336777 0.14564575
0000e0 77 f7 2a 3e 2c 9b 95 3e 08 6a 8a 3e 2a 5a 8f 3e
       0.16695963 0.2921995 0.2703402 0.27998477
0000f0 0d 83 83 3e 87 29 63 3e 4b b1 4e 3e 29 48 88 3e
       0.2568592 0.2218381 0.2018482 0.26617554

batch_norms.1.bias f4 [64]
000000 5e 52 83 be c4 f4 8e 3e f6 33 87 be 59 a4 d0 3d
       -0.2564878 0.27921116 -0.2640683 0.10187597
000010 5b f8 88 be 5b 00 82 3e 5e 4c 87 be 66 60 a1 3e
       -0.2675198 0.25390896 -0.2642545 0.3151886
000020 81 a4 87 be 76 f8 84 be b0 71 88 be 10 fa 02 3e
       -0.26492694 -0.2597081 -0.26649237 0.12790704
000030 23 11 8d 3e cc 73 9a be 8d e4 04 3d 36 73 f4 bd
       0.27552137 -0.3016647 0.032444526 -0.11936037
000040 f4 bf 83 3e 4a e8 81 be 97 99 94 3e b2 89 86 be
       0.25732386 -0.25372535 0.2902343 -0.26276928
000050 46 2b 80 be 34 37 95 3e 78 b3 86 3e 5d 80 87 3e
       -0.25033015 0.2914368 0.263088 0.2646512
000060 77 a3 8b be 25 35 4b be 1f d3 39 be ea ae 6c be
       -0.2727315 -0.19844492 -0.18146943 -0.231136
000070 20 02 0a 3e a5 bd 8a be ff 79 92 be 0e fd 89 be
       0.13477373 -0.27097812 -0.286087 -0.26950878
000080 15 ee 9e 3d be fc 8b 3e bf 0b 4c be 10 ef 82 3e
       0.07760254 0.27341264 -0.19926356 0.25573015
000090 76 78 8d 3e cb b1 71 3e 90 9e 76 be 47 f0 80 be
       0.27630967 0.23602979 -0.24083924 -0.25183317
0000a0 ee 90 7a 3e fb 0f 8d 3e 8e 10 8e be 8f 89 8a be
       0.24469349 0.27551255 -0.27747005 -0.27058074
0000b0 ee a9 8f 3e 3c 59 f2 3c 82 d6 1b be dc 99 81 3e
       0.28059334 0.029583566 -0.15218547 0.25312698
0000c0 40 03 86 3e fc 47 8c 3e b9 7c 8b be 6a 07 88 3e
       0.26174355 0.2739867 -0.27243593 0.26568156
0000d0 77 91 93 be 34 58 90 3e a6 11 0a be 67 75 95 be
       -0.28821918 0.28192294 -0.13483295 -0.29191133
0000e0 39 a4 8f 3e 85 2d 75 3e ab 28 86 3e fa 80 87 be
       0.2805498 0.23943146 0.26202902 -0.2646559
0000f0 81 00 8c 3e 35 e7 8d be 5d b8 76 3e c3 4f 8b be
       0.27344134 -0.2771546 0.24093767 -0.2720929

batch_norms.1.running_mean f4 [64]
000000 39 33 8a 3b 1d 67 4f bb 43 26 0e 3c 80 31 fb 3b
       0.004217532 -0.0031647154 0.0086761145 0.007665813
000010 01 29 1e bc a1 3f dd ba b2 fb f3 3b 99 2b 15 ba
       -0.009653331 -0.0016879925 0.007445776 -0.00056903955
000020 c6 c7 71 bc 98 6f e5 3b 46 9e 42 bc 20 3c 65 bb
       -0.014757102 0.0070018284 -0.011878556 -0.0034978464
000030 8d f2 1f 3c bd e9 f1 bb d3 af de bb c4 f4 0c 3b
       0.009762418 -0.0073826 -0.006795862 0.0021508196
000040 f5 8d 80 3b 88 aa 14 bc d0 16 95 bb 85 da 84 bb
       0.0039231726 -0.009073861 -0.0045498386 -0.00405437
000050 81 2d 80 bc 46 db 71 3a f2 f1 3c bc cc bf 3a bc
       -0.015646698 0.00092260947 -0.011532294 -0.011398267
000060 2a 05 59 bc 1f ab 06 3c 85 7e 8f 3c 9a 0d e8 ba
       -0.01324586 0.008219509 0.017516384 -0.0017704249
000070 92 26 d6 bc d4 fd 1b bc 09 d2 e9 3b 78 05 b3 3b
       -0.026141439 -0.009520967 0.007135634 0.0054632984
000080 91 6b e3 bc 8d 1e c7 bb 77 75 6a 3c 92 06 47 bc
       -0.027761253 -0.00607664 0.014310232 -0.012147563
000090 56 89 0b 3c f8 98 8e bc 18 c5 07 3c 90 5b 8c 3b
       0.00851663 -0.017406926 0.008286737 0.004283376
0000a0 53 10 8a bc c2 0e 0e 3b e7 bc b2 b7 6f 4a d6 bb
       -0.016853487 0.0021676277 -2.1307218e-05 -0.006539635
0000b0 4a 05 98 3b 25 ce 4e bc 96 ab 30 bc ba 2b 0c 3c
       0.0046393024 -0.012622391 -0.010783097 0.008555347
0000c0 20 c2 52 bb 82 66 1d 3c 19 cb 05 3c e9 88 1d bc
       -0.0032159165 0.009606959 0.008166098 -0.009615161
0000d0 22 aa 11 3c a8 c7 02 bb ad c3 92 bc ef 5a 10 39
       0.0088906605 -0.001995543 -0.017915571 0.00013766786
0000e0 8f 14 ac 3b 0f 85 bb bc 6b 12 c8 bb 40 a4 93 bb
       0.005251474 -0.022890596 -0.006105711 -0.004505664
0000f0 d6 c8 a4 3b 83 5f b9 3b b0 2a 98 3b cf 23 21 bb
       0.0050288243 0.005657138 0.0046437606 -0.0024587994

batch_norms.1.running_var f4 [64]
000000 97 5e 8a 3a cb 6b a6 3a b5 69 92 3a c2 5e 46 3a
       0.0010556754 0.001269692 0.0011170419 0.00075672206
000010 23 0e a6 3a d1 58 d6 3a 8e b4 47 3a 25 24 a1 3a
       0.0012669008 0.0016353374 0.00076181523 0.0012294097
000020 e7 44 de 3a b5 60 a0 3a 72 5c c5 3a 61 e2 27 3a
       0.001695779 0.0012235852 0.0015057458 0.00064042775
000030 f4 c9 83 3a f4 46 ce 3a 4e c2 73 3a ee 01 8c 3a
       0.0010054694 0.0015737698 0.0009298668 0.0010681727
000040 16 c3 a1 3a 32 66 d3 3a 0d c6 5b 3a ad 92 da 3a
       0.0012341465 0.0016128479 0.0008383699 0.0016675793
000050 ae 0f 6d 3a 0d 6f e4 3a 02 08 85 3a e0 84 86 3a
       0.0009043169 0.0017428115 0.0010149481 0.0010262989
000060 af 05 b3 3a 48 f9 65 3a cf d5 8a 3a 0d b8 4a 3a
       0.001365831 0.00087728025 0.0010592284 0.0007733114
000070 f2 40 7c 3a 99 60 b8 3a a6 c7 97 3a 22 56 a8 3a
       0.0009622715 0.0014066874 0.0011579886 0.0012843052
000080 77 33 75 3a 30 e5 84 3a d2 07 a8 3a 47 0a 3f 3a
       0.0009353677 0.0010139104 0.0012819713 0.0007287603
000090 88 3c d5 3a 49 28 7c 3a bc 0a 46 3a 5f d0 2e 3a
       0.001626865 0.000961904 0.00075547 0.0006668623
0000a0 bc 3f 71 3a 41 bb e5 3a bb 81 22 3b 38 52 4e 3a
       0.00092029176 0.001752712 0.0024796564 0.0007870528
0000b0 9e 65 45 3a d4 b4 59 3a 85 79 65 3a b2 94 a1 3a
       0.0007530096 0.00083048386 0.00087537646 0.001232764
0000c0 cf 7e 81 3a ba 80 b8 3a 89 9c 0f 3a b2 9e 85 3a
       0.0009879711 0.001407645 0.00054783426 0.001019439
0000d0 d4 13 c3 3a e3 70 9b 3a b5 14 59 3a fc 5a 86 3a
       0.0014883229 0.0011859204 0.00082809787 0.0010250504
0000e0 bc 15 8d 3a 92 36 3d 3a 35 22 45 3a 22 77 c4 3a
       0.0010763924 0.00072179094 0.0007520051 0.0014989118
0000f0 1d 2b 92 3a 4c b4 7d 3a 08 55 82 3a 2a 37 74 3a
       0.0011151765 0.00096780504 0.0009943554 0.00093160814

interaction_layers.0.bias f4 [128]
000000 4b 63 a1 b7 4d f3 54 36 fb 2e 02 37 c8 93 ab b6
       -1.9238933e-05 3.1732081e-06 7.759542e-06 -5.113401e-06
000010 46 69 d4 35 71 64 1f 37 ab 2a 64 36 24 fe 6d b3
       1.582587e-06 9.500524e-06 3.3999484e-06 -5.5412002e-08
000020 7a 93 47 33 cd ed e3 b4 cc 69 69 b5 05 9b 80 35
       4.6467427e-08 -4.2455068e-07 -8.695322e-07 9.58186e-07
000030 87 c5 40 b6 77 04 bc b5 01 44 82 b6 d9 64 26 b8
       -2.8725206e-06 -1.4008391e-06 -3.8822186e-06 -3.9671406e-05
000040 f9 50 81 36 52 52 7d 36 c4 74 e8 b6 3a 59 5f b4
       3.853926e-06 3.7747855e-06 -6.927732e-06 -2.0800954e-07
000050 7b ac 12 b7 2c d2 25 35 b2 c6 ee b6 15 9c 3f b5
       -8.742437e-06 6.177313e-07 -7.116084e-06 -7.1380174e-07
000060 22 74 94 b6 65 24 c4 b5 a3 56 58 36 7f fe 04 36
       -4.4242634e-06 -1.461373e-06 3.2236937e-06 1.981767e-06
000070 cd e2 ae b6 61 fa 54 b6 92 d7 fa 35 9f 71 9e 36
       -5.212007e-06 -3.1736201e-06 1.8689191e-06 4.721994e-06
000080 b3 b2 0c 37 32 7c 9e 32 ac 06 a1 34 2f 3f 83 b6
       8.386257e-06 1.8450098e-08 2.999344e-07 -3.9114598e-06
000090 38 84 32 b5 79 2d 35 37 31 d6 93 b5 7d 14 1c 36
       -6.650257e-07 1.0799028e-05 -1.1014691e-06 2.3257737e-06
0000a0 8d cb cc b5 92 ad 03 34 2d a0 ba b5 a4 2e 05 37
       -1.5258425e-06 1.226347e-07 -1.3904697e-06 7.938277e-06
0000b0 2f 6b 0c 36 86 29 a4 36 60 35 c9 b5 b8 30 7a b5
       2.0924015e-06 4.892415e-06 -1.4991201e-06 -9.320315e-07
0000c0 13 8c 34 b5 26 ac d6 b6 26 b7 d4 b4 7b 85 03 37
       -6.725906e-07 -6.3977377e-06 -3.9621335e-07 7.839287e-06
0000d0 86 4d 24 33 e5 32 6b 36 84 cc a7 36 b2 52 d9 35
       3.8254733e-08 3.5047353e-06 5.0007966e-06 1.6191827e-06
0000e0 73 fe 6e b7 c7 40 61 b7 48 b9 39 b5 ff 81 b9 b5
       -1.4245149e-05 -1.3426127e-05 -6.918749e-07 -1.3821408e-06
0000f0 44 d9 89 36 c0 f4 df 35 a2 b7 47 36 ba 0b ac b4
       4.108211e-06 1.6686026e-06 2.97602e-06 -3.204603e-07
000100 d1 5c a1 35 da 40 0d b5 1f cf 8f 35 2b 00 c0 b6
       1.2022448e-06 -5.2620965e-07 1.071461e-06 -5.7220655e-06
000110 05 d2 0c b6 8c 10 8e b6 28 e2 60 35 6b ae 1d 36
       -2.0983873e-06 -4.233856e-06 8.3775603e-07 2.3496348e-06
000120 96 5d 59 38 71 8b 09 b6 dd 7e 0d 36 66 bd 86 36
       5.182399e-05 -2.0495756e-06 2.1084481e-06 4.01556e-06
000130 f4 9b 82 b6 f9 1b b5 b4 c9 01 90 b6 86 9c 00 37
       -3.8924572e-06 -3.373423e-07 -4.2917422e-06 7.665838e-06
000140 ef ce 46 34 0b b8 16 b6 44 cf d8 35 32 38 3e 37
       1.8515469e-07 -2.245887e-06 1.6153576e-06 1.13379665e-05
000150 8d df 8b b5 f4 9b 83 37 a8 f2 3f b6 bf 7f f9 33
       -1.0421369e-06 1.5689038e-05 -2.8602462e-06 1.1618203e-07
000160 68 7d 0f 37 23 17 95 b3 d1 d6 66 36 5d 00 7c 35
       8.552663e-06 -6.942562e-08 3.439771e-06 9.3877844e-07
000170 d9 e3 5b b5 d8 fa 9c 35 ab 4c 35 b6 44 28 f9 36
       -8.191542e-07 1.1695911e-06 -2.7015728e-06 7.425466e-06
000180 84 a9 6a 36 08 e3 2a b7 15 2a aa b5 e8 51 f7 b4
       3.4967388e-06 -1.0185649e-05 -1.2678234e-06 -4.606693e-07
000190 50 3e e1 36 b4 4f 03 b5 11 33 05 36 76 55 ff 36
       6.7127767e-06 -4.8917286e-07 1.984827e-06 7.609541e-06
0001a0 61 1c d3 b6 a0 19 63 37 29 96 0e b7 e7 5f d6 b5
       -6.2915938e-06 1.3536221e-05 -8.498821e-06 -1.5972154e-06
0001b0 e9 40 76 37 d3 46 2d 35 5a 99 30 b6 1b 64 8d 36
       1.4677856e-05 6.4550585e-07 -2.6315306e-06 4.2137813e-06
0001c0 46 85 27 b6 da 8c 89 b6 2f 14 b9 b4 96 f6 51 b7
       -2.4962515e-06 -4.0993154e-06 -3.447362e-07 -1.25147835e-05
0001d0 74 42 32 35 9e 12 78 b5 e8 d3 52 b6 33 e8 cb 36
       6.640687e-07 -9.241429e-07 -3.1415784e-06 6.076903e-06
0001e0 53 35 c2 b5 96 7b 53 34 5e 17 0f 34 fd 4f a4 34
       -1.4469646e-06 1.9695867e-07 1.3326414e-07 3.060558e-07
0001f0 06 b0 26 35 62 5c 5f 35 73 07 a0 b6 01 90 2b b7
       6.2095967e-07 8.320841e-07 -4.769239e-06 -1.0225923e-05

interaction_layers.0.lin.weight f4 [128, 15]
000000 e6 a9 8d 3d 29 ee 36 bd a3 61 e5 bd c1 52 ef bc
       0.06917171 -0.04466072 -0.11200263 -0.029214265
000010 f8 21 8a 3d 5a b3 2d 3d a5 40 aa 3c b4 06 55 bc
       0.0674476 0.04240737 0.020782778 -0.013002086
000020 b1 ee d8 3c 74 b6 d3 bd 59 70 ba 3d ce 8f f9 3d
       0.026481004 -0.103375345 0.0910346 0.12185632
000030 ea d4 99 bd 1f a0 86 3d c4 50 cd 3c 2e 0c de bc
       -0.07511313 0.065735094 0.025062926 -0.027105417
000040 4e b2 2f bb 5d 32 98 bd fa 8e 66 3d 84 0e 1e bb
       -0.0026809159 -0.07431481 0.056288697 -0.0024117539
000050 13 94 83 bb 05 c5 36 bd 20 fc 73 3d 08 73 1b bd
       -0.0040154546 -0.044621486 0.059566617 -0.0379515
000060 53 69 d5 3c 2f 88 42 bd fc 2a 0b bd 9f 7f 12 bd
       0.026051199 -0.047493156 -0.03397654 -0.03576624
000070 cb 07 28 3d 33 94 3d bc 85 7c cd bc f9 68 70 3d
       0.041023057 -0.011570978 -0.02508379 0.05869386
000080 c6 c2 82 bd d2 16 c9 3d ea 86 4f bc 8a d2 15 3d
       -0.06384806 0.09818806 -0.012666443 0.03657774
000090 10 9d 12 3d 3e 01 64 3c 48 b9 35 bd f0 3d 9f 3c
       0.035794318 0.013916312 -0.04436615 0.019438714
0000a0 ce d4 e3 bb 2e ed a2 3d 56 99 ee bc ce 1b 82 3c
       -0.0069528585 0.07955395 -0.02912585 0.015882399
0000b0 ff b5 28 3d 16 b3 f5 3b 18 21 75 3d 7e 65 48 bd
       0.04118919 0.0074981553 0.059846014 -0.048924915
0000c0 2b c9 cf 3d 1b 02 4e 3b 9f 4e 61 3c 56 8f e5 3b
       0.101457916 0.003143436 0.013751655 0.0070056124
0000d0 d2 39 0b 3d 1e 42 39 3d 88 b1 dc 3c 2b 9d 3c 3c
       0.03399069 0.04522907 0.026940122 0.011512081
0000e0 e5 aa 83 3d ed c0 a6 bd fa c1 01 3e ee 08 b8 3c
       0.0642908 -0.081422664 0.12671652 0.022465196
0000f0 93 7a af 3c 4f 54 20 3d 83 34 4d 3c 2a 23 84 bd
       0.021420753 0.039142903 0.012524727 -0.064520195
000100 7a 50 3c 3d 2b 11 8d 3d 8a 3f b4 bc e8 a0 c8 3d
       0.045975186 0.0688804 -0.022002954 0.097963154
000110 23 5f b3 3b 15 fc f2 3c 56 09 16 ba 3c b0 8d 3c
       0.0054739877 0.029661218 -0.0005723437 0.01729595
000120 30 e8 8a bd 5e 75 ed 3d f6 fa d5 3c 6e 6e e5 3d
       -0.067825675 0.11594652 0.026120644 0.112027034
000130 7f a5 4b bb cd 2d 4e 3d bc c9 e8 bd 0f af 3f 3c
       -0.0031073985 0.050336648 -0.11366603 0.011699452
000140 64 f8 19 3e b7 14 e8 3c 3e 58 82 3d 66 21 a0 3a
       0.1503616 0.02833019 0.06364487 0.0012216985
000150 8b 0c 88 3d 8e fd 89 3a 23 2c 36 bd d7 71 5e bd
       0.066430174 0.0010527836 -0.044475686 -0.054307785
000160 2e c2 04 3e b2 68 c4 3d 12 68 52 bd 68 c1 35 3d
       0.12964699 0.095902815 -0.05136878 0.0443739
000170 f7 ba 03 3d 83 4a f4 bb 90 49 13 3d b8 8b 7b bc
       0.032160725 -0.0074551716 0.035958827 -0.015353136
000180 fa 9c b9 bd 1e 49 b0 3d 86 92 26 3c 3a a4 2e 3d
       -0.09063144 0.08607696 0.01016677 0.042637087
000190 c5 a4 49 bd 10 0f be bc b4 70 25 3c 3b 76 80 3c
       -0.049229402 -0.023200542 0.010097671 0.015681377
0001a0 6c f3 5b bd b4 1f a0 3c 51 2d 0b bc 25 b4 66 3d
       -0.053698942 0.019546367 -0.008494691 0.056324143
0001b0 b2 87 61 bd 9d 82 83 bc 43 48 07 bc a0 8f 29 3d
       -0.05506105 -0.016053492 -0.008256975 0.041396737
0001c0 fd f8 47 bc 37 cf f7 3a 35 fb fb 3b 6e 53 4a bc
       -0.0122053595 0.0018906359 0.0076898583 -0.012348993
0001d0 f3 90 40 bb 5c f1 f4 3b a0 18 44 3a e1 c9 5a 3b
       -0.0029383271 0.0074750613 0.0007480476 0.003338449
0001e0 1d ee 64 3d ad b9 bb 3c 71 a0 1c bd cc 36 ed 3d
       0.055891145 0.022915686 -0.038238946 0.11582717
0001f0 0e ec c5 bc 38 cd 8b bb 4e 63 7d bd d0 19 06 3e
       -0.024160411 -0.0042664073 -0.061862282 0.13095784
000200 77 d1 51 3d 5b a1 de 3c 4e 8d 8b 3c 01 20 a9 3d
       0.051225152 0.02717655 0.017035153 0.082580574
000210 ba 00 f1 b9 7c 8e c3 3d 69 bb 8b bc 2b 28 90 bc
       -0.00045967643 0.09548661 -0.017057138 -0.017597279
000220 65 7e 3f 3c 29 3e 4a 3d 9d fd ce bc 0c c4 2e 3c
       0.01168785 0.049375687 -0.025267417 0.010666858
000230 e3 e1 84 bd b0 20 49 3d 3e 72 08 bc 35 65 25 3d
       -0.06488397 0.04910344 -0.008328019 0.04037972
000240 7a 90 97 3d 9a a7 67 bd da ba bf 39 f2 4c cf bc
       0.074006036 -0.05655632 0.00036569574 -0.025305245
000250 e5 a7 18 bd 39 9e aa 3d 51 48 eb 3b 61 9a 8b 3c
       -0.03726949 0.0833096 0.0071802516 0.017041387
000260 a2 0b 33 bd e0 36 98 3d 4a 66 3b bc 9b d0 86 3c
       -0.043712266 0.074323416 -0.011437962 0.016456893
000270 2f 96 98 3b 95 d5 1a 3d ab 31 6d bd 13 1c 89 3d
       0.004656575 0.037801344 -0.057908695 0.06694808
000280 af fe a4 bd 40 73 42 bd 36 db 72 3c 5e 0c 4e bc
       -0.080563895 -0.047473192 0.014822772 -0.012576191
000290 99 b2 e5 3c 74 a2 52 bd 85 ef 08 3d 8a ee ac 3c
       0.028039264 -0.05142446 0.03343155 0.021109838
0002a0 9f c0 28 3d db 93 8d bd 34 42 f6 bb 8a 87 b4 bd
       0.041199323 -0.06912967 -0.0075152162 -0.088149145
0002b0 16 5c 9d 3d 0d ea 6a bc ad 75 42 3d 88 16 1e bd
       0.076835796 -0.014338029 0.047475506 -0.038595706
0002c0 46 f5 d5 bc d2 23 16 bd 25 9d ca 3c 9d fd a6 bb
       -0.026117932 -0.036655255 0.024733135 -0.005096151
0002d0 da 6e 9f 3d 87 38 e8 bc 0e 60 4b 3d c1 d5 54 bd
       0.07784815 -0.028347267 0.04965215 -0.051961664
0002e0 8e 6e 47 3d dd 8c b1 3c 9a ce 97 3c 10 5f 5a bd
       0.048689418 0.021673614 0.018531132 -0.053313315
0002f0 42 5a aa 3d 35 d1 65 bc 45 b9 6e 3d 56 62 00 3d
       0.083179966 -0.01402693 0.058282156 0.03134378
000300 c1 02 c0 bd d1 2b b9 3d 5f b9 55 3d 7f 0f 29 bd
       -0.09375525 0.090415604 0.052178737 -0.041274544
000310 9e 64 6a 3d c0 86 1d 3d 1e ba 8e 3c 37 9d 80 bc
       0.057224862 0.038458586 0.017422732 -0.015699966
000320 48 fa 30 bd 5d ce a1 bd ec a2 ae 3d 1a 2a 6d 3b
       -0.043207437 -0.07900689 0.08527169 0.0036188425
000330 ef 93 a3 3d 9c 74 86 bd 5c 19 59 bd 44 3c c2 bc
       0.079872005 -0.0656521 -0.0530027 -0.023710378
000340 d1 f9 7e 3d 11 7a 56 bc 56 65 94 3c 02 4c 51 bc
       0.062249962 -0.013090626 0.018114727 -0.012774469
000350 d9 86 0f 3d 6b 1e 14 3d 30 df a5 bc 1f 42 53 bd
       0.03504071 0.03616182 -0.020248026 -0.05157673
000360 84 e0 47 3d 77 77 76 bd 65 c9 1c 3d f0 b5 d2 3d
       0.0487981 -0.060172524 0.038278002 0.10288608
000370 5d a9 ce bd 52 27 0d 3d e2 69 21 3d f6 b5 64 bd
       -0.10090897 0.034461327 0.03940762 -0.055837594
000380 32 72 ee 3c d1 fa 84 3d 61 92 0c 3d c4 0b 5c 3d
       0.029107187 0.06493152 0.034319285 0.053722158
000390 38 84 5a bd 76 63 bc 3c 90 05 95 3d 7b 44 0b 3d
       -0.05334875 0.022996645 0.072764516 0.034000855
0003a0 00 5b 8e 3d de f4 10 3c 85 f3 90 3d 17 81 b0 bc
       0.069509506 0.008847443 0.07077698 -0.02154593
0003b0 83 df 6d bc 95 fc a7 bd 48 7a 21 3e 34 3a 0b 3d
       -0.014518621 -0.08202473 0.15769303 0.033991054
0003c0 c5 aa 8e bd f3 cb 87 3d a0 a1 d5 3c e8 48 80 bc
       -0.069661655 0.06630697 0.026078045 -0.015659764
0003d0 59 67 dd bc dc 3b 06 bd 35 bc 99 bd eb 88 aa 3d
       -0.027026819 -0.03277193 -0.07506601 0.08326896
0003e0 57 0f 3a 3c d4 21 6c 3d 18 70 51 bd c2 b4 6e bd
       0.011356196 0.05764945 -0.05113229 -0.058277853
0003f0 cd 98 50 bc 2d 6b e3 3c 00 8e b0 bc 2b 84 e8 bc
       -0.012731743 0.027761066 -0.021552086 -0.028383335

interaction_layers.1.bias f4 [64]
000000 7e a3 ff b6 f7 ab 02 36 f6 ca 44 37 60 ff f2 34
       -7.618625e-06 1.9471606e-06 1.1729766e-05 4.5261822e-07
000010 10 92 99 b7 79 84 f2 b5 10 32 61 37 a2 e6 cc b5
       -1.8307037e-05 -1.806896e-06 1.3422701e-05 -1.5266307e-06
000020 24 cf 9c 37 4c 19 4a b4 f9 50 53 b6 b4 03 84 b6
       1.8693107e-05 -1.8821919e-07 -3.1488582e-06 -3.9343377e-06
000030 7a 54 da 36 ea 8e 9b b5 a9 12 14 b7 da 5c a7 b5
       6.5067406e-06 -1.1589993e-06 -8.825832e-06 -1.2469493e-06
000040 3b dd a3 b6 ae 3d 7b 35 37 bb e5 b6 a1 69 40 b6
       -4.883533e-06 9.359454e-07 -6.8465265e-06 -2.8671714e-06
000050 b2 4f 96 37 2f 60 e2 b5 a9 bc 0f 37 13 1a c9 b5
       1.7918504e-05 -1.6866305e-06 8.56739e-06 -1.4983256e-06
000060 cb 74 63 36 58 ba 91 35 55 40 2d b7 cb f9 ae b6
       3.3893618e-06 1.0857575e-06 -1.0326582e-05 -5.214684e-06
000070 4f 7a 5c 37 fb 8b 80 36 2b 12 5e 35 d0 53 33 b7
       1.3141499e-05 3.830993e-06 8.272788e-07 -1.06887455e-05
000080 b4 52 6f 37 03 17 7a 36 19 96 6e b6 99 f3 cd 36
       1.4264766e-05 3.7266298e-06 -3.5552132e-06 6.1378346e-06
000090 a5 fe d2 b5 b2 1a 7b b6 46 6a 16 37 b4 f9 67 b7
       -1.572033e-06 -3.7417453e-06 8.96544e-06 -1.38268115e-05
0000a0 b5 06 82 b5 35 9b 42 37 f3 99 e8 35 50 c9 71 36
       -9.687707e-07 1.1599438e-05 1.7330152e-06 3.6028978e-06
0000b0 ec f2 c8 36 9f 5c a6 36 21 75 35 36 e4 a7 e5 b6
       5.9887443e-06 4.957968e-06 2.703928e-06 -6.844277e-06
0000c0 dc 7e 1e b7 3a 32 c1 b6 cc 4e 7e b6 2f 0f 84 b7
       -9.447071e-06 -5.7576954e-06 -3.7894815e-06 -1.5742697e-05
0000d0 50 de 8c b6 95 05 90 b6 97 29 5a 37 d8 d9 45 35
       -4.1982057e-06 -4.2921843e-06 1.3003496e-05 7.3705223e-07
0000e0 95 78 a9 b6 90 39 21 b6 89 6d c1 36 ff 86 e2 b5
       -5.05063e-06 -2.4024375e-06 5.7646e-06 -1.6877601e-06
0000f0 51 1a 2d b6 e5 ab 5d b5 75 ac f3 36 4d 65 e4 b1
       -2.5794327e-06 -8.2579055e-07 7.262041e-06 -6.64719e-09

interaction_layers.1.lin.weight f4 [64, 128]
000000 09 52 99 3c dd 2f 05 bc 42 04 0c bd a9 12 bf ba
       0.018715875 -0.008129087 -0.034183748 -0.0014577705
000010 6c 3f 4e 3c 9f 4b 66 3c c3 90 ba bc 6c ea de 3b
       0.012588363 0.014056115 -0.022774106 0.0068028476
000020 7a 6b f6 bc 62 63 75 bc 18 e2 22 bd d0 8b aa bc
       -0.030080546 -0.014977308 -0.0397664 -0.02081862
000030 1b 0b 41 3c 50 47 1f bd 49 5c 77 3c 55 5b 86 bb
       0.011782433 -0.03888637 0.015097686 -0.004100243
000040 5e d6 09 bd 66 18 0f 3d bb 31 b4 3c e7 f8 f1 3c
       -0.033651702 0.034935378 0.02199637 0.029537631
000050 21 50 53 3b f8 3f 18 bc 7e 7d a8 3c 83 f6 21 3c
       0.0032243805 -0.009292595 0.020567652 0.009885433
000060 ef f9 64 3c 3f 94 3e bd 5e d5 e7 bc 65 d5 c3 bb
       0.013975604 -0.046528097 -0.028299984 -0.0059763663
000070 fb bf a6 ba 8c 23 e9 bc 17 10 5e 3c 1f 62 f7 3c
       -0.001272201 -0.028459333 0.013553641 0.030198155
000080 5a 2b 3a 3b c8 43 00 bd 99 b2 dc bc 18 ea 0f bc
       0.0028407187 -0.03131464 -0.02694063 -0.00878384
000090 c0 dd 8d bb 63 b9 16 3d 10 42 29 bc c7 c4 d9 bc
       -0.004329413 0.036797892 -0.010330692 -0.026583089
0000a0 3e 0f 0a bd 8c 49 bf 3c 38 1d 93 3c 7f af 0c bd
       -0.033705942 0.0233505 0.017958269 -0.034347054
0000b0 10 33 20 bb e6 ac 0b bd 44 2e 93 3c c6 ab 96 3b
       -0.0024444498 -0.034100436 0.017966397 0.0045981137
0000c0 0d 38 0f bd 0c 1f db 3c f3 ec 19 bd 25 b1 eb bb
       -0.034965564 0.026748203 -0.037579488 -0.007192748
0000d0 56 7d 09 bc a3 b6 25 bc 88 ee 75 bb 8b fb c1 bc
       -0.008391699 -0.010114345 -0.003752621 -0.023679515
0000e0 ee eb 8b 3c 86 2d 08 bd 60 ca 3b 3c 2e 3e fd 3b
       0.017080273 -0.03324654 0.011461824 0.0077283597
0000f0 a4 d9 30 3a 94 83 70 3c 9f 63 8b 3b 9d 89 b7 ba
       0.0006746298 0.014679808 0.004253819 -0.0014002804
000100 6e eb 98 bc 03 0e f8 3c 51 a7 fa 3c 07 28 59 3d
       -0.01866695 0.030280119 0.03059736 0.05301669
000110 6b d0 11 bc 9f a0 bb bc 04 7d 6f 3c 42 65 1e 3c
       -0.008899788 -0.022903739 0.014617208 0.009667696
000120 6a 1f 71 3c 4a 01 f7 bc 1f 6e 16 bc bd 07 69 3c
       0.014716962 -0.030151982 -0.009181528 0.014223036
000130 e9 33 0b bd ed ee 05 3d ea ed 09 bc 34 fd fa 3c
       -0.033985052 0.03269856 -0.00841854 0.030638315
000140 60 19 3a bc 1e 55 e1 3c 29 a4 56 bc 2f b3 2e 3d
       -0.011358589 0.027506407 -0.013100662 0.04265135
000150 f0 97 5c ba 31 f3 be 3c c3 47 f9 3c b5 82 88 bc
       -0.00084149744 0.023309322 0.030429726 -0.016663888
000160 cb 63 ef bb 38 45 1b bb 05 02 c7 3a 25 fa d6 3b
       -0.0073055974 -0.002369238 0.0015183097 0.0065605813
000170 c0 f0 5f 3c a0 8c 17 bd d8 06 bd 3c 37 a2 45 3c
       0.013668239 -0.036999345 0.023074552 0.012062601
000180 9b 67 77 bb 22 ea 36 3c 82 cc a6 bb 13 00 02 bb
       -0.0037750963 0.01116422 -0.005090297 -0.001983647
000190 00 11 b1 3b bd b4 e8 3b 66 fb 00 3d 30 6f 6d 3b
       0.005403638 0.007101624 0.031489752 0.0036229603
0001a0 a9 89 36 3d cf 74 20 3c aa ad 96 3c de 2c c6 bb
       0.044564877 0.009793474 0.018393356 -0.006047829
0001b0 cd 8e 03 3d 22 f4 bb 3b 63 13 cf 3c f3 67 b5 3b
       0.032118607 0.00573589 0.025277799 0.0055360734
0001c0 ce 90 cd bc a2 79 b2 3c fa 0a 14 3d 80 ea a5 39
       -0.025093462 0.021786515 0.03614328 0.0003164597
0001d0 4b a0 4f ba 1d b6 f4 bc d2 b2 67 3a 64 8b ee 3c
       -0.0007920309 -0.029871995 0.0008838597 0.029119201
0001e0 f9 6c 92 3a 15 19 4e 3d 6f 19 c0 3c 47 74 1d 3c
       0.0011171392 0.05031689 0.023449628 0.009610242
0001f0 85 a3 9b 3c eb 8f 39 3c e3 3d 8d bb 2f 54 f4 3c
       0.01899887 0.011325817 -0.004310356 0.029825298
000200 97 cc b8 3c 64 7e 63 bc 0f 06 0b bd 3e a5 b5 bc
       0.022558494 -0.013885114 -0.033941325 -0.02217352
000210 e9 76 35 3c 50 ab 56 39 e6 2d ad bc 3e a4 71 3b
       0.011075714 0.00020472449 -0.02114005 0.0036871578
000220 22 5b 73 bc c7 2b 17 bd 33 ec cf ba 1f bf e1 bc
       -0.014853271 -0.036906984 -0.001586324 -0.027556954
000230 8d fa e6 3b f6 31 e9 3a be c2 cf bc 53 4f 4e 3d
       0.007048911 0.0017791379 -0.025361415 0.05036862
000240 9f 17 7e ba 7f 65 fe 3c ae 47 ca 3c eb 63 7a 3c
       -0.0009692851 0.031054256 0.024692383 0.015282611
000250 97 60 11 bc 88 ad 67 bd 80 59 92 3c fa 68 a0 b8
       -0.0088731265 -0.056561977 0.017864943 -7.648948e-05
000260 e0 a5 27 3a 03 93 19 bd 7b 2b 0c bb 2c 18 42 bc
       0.0006395262 -0.037493717 -0.002138822 -0.011846583
000270 8b 28 ff 3c fc 55 48 3c b2 53 84 bd 01 b9 fb bc
       0.031147262 0.0122275315 -0.06461276 -0.030727865
000280 0c 82 bb bc a1 87 11 bd fb 08 19 3b e3 3a 8c bc
       -0.02288916 -0.035529736 0.00233513 -0.017117923
000290 29 c3 8e bc 82 fe 40 3b d6 c3 d2 bc f7 9a 17 bd
       -0.017427044 0.0029448573 -0.025728147 -0.03701302
0002a0 8f 4d 32 bd 08 3a 5c 3d 42 0e 08 bc 53 6f 5b 3b
       -0.043530997 0.05376628 -0.008304181 0.0033483102
0002b0 08 fc 09 bd 47 30 6d bc 11 3c fe 3c 97 31 67 3c
       -0.03368762 -0.014476842 0.031034501 0.014110944
0002c0 1c f9 b2 3b 0a e0 ad 3c 9c 6b f8 3b de a6 24 3d
       0.005461825 0.021224994 0.0075811874 0.0401982
0002d0 6a 72 4a bc c5 8a 83 bc 6f d3 64 3c 0a d5 87 bd
       -0.01235638 -0.016057381 0.013966425 -0.06632431
0002e0 47 cb 35 3c 7f 1f e0 bc b2 ce f6 3c 31 01 e9 3b
       0.011095828 -0.027358769 0.030127857 0.0071107377
0002f0 6e ce 76 3c 07 2b 30 3c 9e d7 79 3b 01 e6 bd bc
       0.015063865 0.010752446 0.0038122903 -0.023180963
000300 99 41 03 3b 28 e8 28 bd 63 99 4c 3d fb 88 cf 3d
       0.0020028113 -0.041237026 0.04995097 0.10133549
000310 a5 8f 34 bd 2c 2d 37 bd e4 13 04 ba 3e 30 62 3c
       -0.044082303 -0.044720814 -0.00050383643 0.013805447
000320 47 f0 e6 3c ce 54 08 bd 42 c6 7c bd 59 2c 24 3d
       0.028190745 -0.033284 -0.06171251 0.040081356
000330 61 ec 96 bc d7 a3 9d bc 43 7f 8f bb 85 e4 9c bc
       -0.018423261 -0.019243164 -0.0043791845 -0.019151935
000340 6a 54 f9 bb 38 ef 7b bc ac 72 aa bb 78 1c 01 3d
       -0.00760894 -0.015376858 -0.0052016582 0.03152129
000350 33 91 ad bc f4 d9 51 3c ab 34 d5 3c d6 39 ab 3d
       -0.0211874 0.012808312 0.02602609 0.08360641
000360 71 18 b6 3c bf 00 9e 3a ac 65 87 bc 76 83 c8 bc
       0.022228451 0.0012054666 -0.016527973 -0.024476748
000370 ab bd 8b 3a 18 93 45 bd 19 65 56 3c da 33 2e 3d
       0.0010661384 -0.048235983 0.013085627 0.04252992
000380 5b b1 6f bd ec 9a d7 3c f0 fa 87 3c 4d dd ca 3c
       -0.05851875 0.02631899 0.016599149 0.024763728
000390 64 19 f2 3c d6 4f 2c 3b b8 8d 99 3c fc 05 19 bd
       0.029553123 0.0026292703 0.018744335 -0.037359223
0003a0 22 02 e8 bb 00 ae e9 3c df 2d 17 bb a5 2b 3b bb
       -0.0070803324 0.028525352 -0.0023068113 -0.002855995
0003b0 0c 07 0e 3d df 28 36 bc 3b 3c 87 3c b5 03 32 3d
       0.03467469 -0.011118143 0.016508212 0.043460567
0003c0 ac e3 54 3d 90 43 95 bb 10 ef 4d bb 05 0e 13 3c
       0.051974937 -0.004555173 -0.003142301 0.0089755105
0003d0 a0 b8 75 bb 25 1a bf bc 8f d4 10 bd 9e d6 19 3d
       -0.0037494078 -0.023327896 -0.03535896 0.03755819
0003e0 5b b2 87 3c e9 1a 2d 3d 6c 61 97 3b 80 c7 88 3c
       0.016564539 0.04226199 0.004619768 0.016696692
0003f0 9c c1 55 ba 32 2a bb 3d 6e a3 c2 bb 32 1b f8 bc
       -0.0008154155 0.091389075 -0.0059398925 -0.030286405

out.weight f4 [200, 64]
000000 ef f4 bd b6 26 96 83 35 d2 99 df b5 2b 2e 0a 36
       -5.661153e-06 9.80396e-07 -1.6659562e-06 2.0590476e-06
000010 6e 69 23 b6 41 ea 1e b6 60 95 02 b6 02 7c 64 b5
       -2.435026e-06 -2.3680188e-06 -1.9458457e-06 -8.5117074e-07
000020 e1 00 b0 36 48 3d 0e 36 44 63 ef 35 1a df 85 36
       5.245311e-06 2.119532e-06 1.7835778e-06 3.9896813e-06
000030 08 2d 96 b6 a4 b5 4e b5 6b a4 d7 36 50 6d 9f b7
       -4.4755907e-06 -7.70053e-07 6.42664e-06 -1.900518e-05
000040 7f a2 10 37 05 82 b7 36 9a 6d b6 b5 0a 69 80 36
       8.620903e-06 5.4689613e-06 -1.3591955e-06 3.8269254e-06
000050 71 3d 23 b7 7a c2 29 b6 53 77 27 37 73 33 71 b3
       -9.7298625e-06 -2.5296163e-06 9.981758e-06 -5.6158978e-08
000060 c8 bd ef b5 f4 09 9d 36 e9 1c 15 b7 b5 65 4b b7
       -1.7862121e-06 4.6801233e-06 -8.887823e-06 -1.2123423e-05
000070 39 4d 6b b7 55 44 be 34 2d 2c 54 34 0e 64 51 b3
       -1.4025071e-05 3.5439976e-07 1.976011e-07 -4.8752604e-08
000080 90 24 e7 36 6d e5 60 36 b0 2c 75 b6 b1 7d a6 37
       6.888593e-06 3.3512144e-06 -3.6533856e-06 1.9847272e-05
000090 a0 80 eb 34 c8 06 d9 b6 69 a0 67 35 9f 2f c3 b6
       4.3865748e-07 -6.4678934e-06 8.6287633e-07 -5.8169967e-06
0000a0 8d dc 19 37 2a 3e 93 b6 a5 ce ee 35 70 4e e6 b6
       9.170862e-06 -4.3881782e-06 1.7792523e-06 -6.8636655e-06
0000b0 af 33 32 b6 d8 22 cc b6 5f 29 82 b7 66 00 36 37
       -2.655415e-06 -6.08373e-06 -1.5516473e-05 1.0848138e-05
0000c0 28 06 e3 35 3e 37 16 b7 d4 d4 34 b7 0d 93 1f b6
       1.691461e-06 -8.953559e-06 -1.0778389e-05 -2.377844e-06
0000d0 ab a4 e4 35 2a b1 78 36 c6 5c 85 37 b0 13 47 b5
       1.7035248e-06 3.7058003e-06 1.5898037e-05 -7.4161926e-07
0000e0 df 8a ad b6 a9 79 3a 36 e2 fc b1 36 fe 96 62 36
       -5.1719685e-06 2.7786975e-06 5.3044505e-06 3.3764513e-06
0000f0 b2 9d 76 b6 9e ed 8a b6 01 30 8c 36 3e 11 b3 b5
       -3.6748647e-06 -4.1403828e-06 4.1779135e-06 -1.3341557e-06
000100 cc 99 86 b7 c7 fe 5e 37 5b a7 e3 b6 16 a1 6d 36
       -1.6045662e-05 1.3291551e-05 -6.78461e-06 3.5409516e-06
000110 28 cf 62 b7 a7 d1 f0 35 c7 88 2e b7 1c 63 04 37
       -1.3518882e-05 1.794241e-06 -1.0403054e-05 7.890889e-06
000120 f5 db 26 b7 67 d7 d6 b5 5a a1 ec b5 ed e0 98 37
       -9.945584e-06 -1.6006933e-06 -1.763033e-06 1.8224551e-05
000130 b4 6b 6a b3 0a aa 29 b7 1e 60 b8 37 65 b9 46 b8
       -5.4580326e-08 -1.0112775e-05 2.1979267e-05 -4.737954e-05
000140 33 be ce 37 99 cd ff 34 ec 28 13 37 62 43 36 b5
       2.4645682e-05 4.7647043e-07 8.771411e-06 -6.789834e-07
000150 18 4f 0a b8 a8 bd 32 36 cf d7 36 38 0d 89 01 37
       -3.2975426e-05 2.6634461e-06 4.359317e-05 7.720909e-06
000160 21 8a 1e b7 11 ad d3 36 b8 8a f5 b7 ae 98 cb b7
       -9.4496945e-06 6.3084376e-06 -2.9270872e-05 -2.4270583e-05
000170 c2 b0 c6 b7 bf 29 dc b6 f0 b3 66 b7 d9 15 73 b7
       -2.3685749e-05 -6.561371e-06 -1.3750963e-05 -1.44890155e-05
000180 6d f6 37 38 59 2f 84 37 07 e1 64 b7 d5 a3 4f 38
       4.3860102e-05 1.5757674e-05 -1.3642252e-05 4.9505226e-05
000190 a5 a5 d6 36 54 0b a6 b6 70 bc 32 b7 81 10 fb b7
       6.3969806e-06 -4.9485043e-06 -1.0653501e-05 -2.9929217e-05
0001a0 d6 8e e8 37 ef 0d ba b5 1a 8d 95 b6 35 c0 e9 b7
       2.7723068e-05 -1.3862135e-06 -4.4569724e-06 -2.7865268e-05
0001b0 ca 56 9d 36 2b 23 86 b7 13 c0 1d b8 cf 81 14 38
       4.689068e-06 -1.5990421e-05 -3.76106e-05 3.5406843e-05
0001c0 8d bf 0b 37 65 65 f7 b5 d9 7e 07 b8 2a 3c a4 b5
       8.3296445e-06 -1.8432444e-06 -3.2304644e-05 -1.2236462e-06
0001d0 6f 9e bd b6 99 ed 8f 37 58 2e 50 b5 4b 76 55 b7
       -5.651083e-06 1.7157568e-05 -7.755348e-07 -1.2723332e-05
0001e0 e7 b8 e2 b6 c5 47 91 37 a0 94 c2 37 33 40 32 b6
       -6.7568503e-06 1.7318767e-05 2.3195811e-05 -2.6561436e-06
0001f0 f1 fc 92 b6 6c 52 b3 b7 47 46 a5 37 3c 5d 06 b7
       -4.3805853e-06 -2.1376844e-05 1.9702258e-05 -8.00873e-06
000200 e7 fb ef 38 dc 34 fa 38 dc 8a 42 b8 96 d6 06 39
       0.000114433285 0.00011930775 -4.6382527e-05 0.00012859175
000210 fe 75 a1 b8 0b 00 f7 38 c5 47 ec b8 19 a5 25 b8
       -7.699056e-05 0.00011777886 -0.00011266725 -3.9492825e-05
000220 3a 83 96 b8 c2 67 47 b8 2c 62 b1 b7 4e 28 3a 38
       -7.177e-05 -4.754193e-05 -2.114576e-05 4.4383392e-05
000230 24 f9 43 b8 0a e0 36 b8 eb 04 b1 b8 5f 17 d4 39
       -4.6723653e-05 -4.3600834e-05 -8.440934e-05 0.00040453204
000240 8a 5e 11 b9 b5 92 86 b8 17 b8 46 b7 e4 cd 41 b9
       -0.00013863496 -6.416944e-05 -1.1844581e-05 -0.00018482615
000250 14 ca e7 b6 91 87 31 38 47 52 e9 b8 dd 4a 1c b8
       -6.9078615e-06 4.2326345e-05 -0.00011125631 -3.726302e-05
000260 c3 99 f8 b8 43 9b 68 38 e8 28 1f 39 29 b5 3f 39
       -0.00011854202 5.545771e-05 0.0001517866 0.00018282667
000270 d3 7f d7 36 c8 15 04 b9 ca a0 85 38 e5 ca 8a 38
       6.42238e-06 -0.00012596615 6.3718835e-05 6.618145e-05
000280 65 48 73 b9 df 80 86 b8 ba 39 a4 38 51 14 01 ba
       -0.00023201255 -6.413622e-05 7.830882e-05 -0.0004923987
000290 5a 24 bf 38 63 7b 8a b8 4b 33 9c 38 50 64 38 b8
       9.114361e-05 -6.603335e-05 7.448214e-05 -4.3962442e-05
0002a0 11 14 bd b8 d7 98 c8 38 7a ce 9f b8 09 00 29 39
       -9.01596e-05 9.565212e-05 -7.62017e-05 0.00016117109
0002b0 cb da af b7 8c ad 27 b8 88 cd f8 38 b7 f7 03 b8
       -2.0963509e-05 -3.997753e-05 0.00011863845 -3.1463536e-05
0002c0 a3 54 c8 b8 db 05 a3 b8 a7 17 b8 38 e6 87 cb 38
       -9.552508e-05 -7.773536e-05 8.778209e-05 9.7051074e-05
0002d0 a1 55 73 b8 84 cb d3 38 c5 f3 80 38 7c 3c 3b 36
       -5.8015463e-05 0.00010099172 6.148921e-05 2.7900378e-06
0002e0 fe d5 e4 b8 f3 22 38 b9 8c 08 71 b7 17 10 45 b8
       -0.00010911746 -0.00017560627 -1.4366709e-05 -4.6983445e-05
0002f0 26 1b d6 38 a8 22 98 38 31 d1 aa b7 58 d6 4f 38
       0.00010209372 7.25438e-05 -2.0362992e-05 4.955227e-05
000300 05 5d 0a 39 6e c4 66 b9 8f 84 41 39 49 f7 93 b8
       0.00013195358 -0.00022007685 0.00018455296 -7.055567e-05
000310 41 72 50 39 d0 89 6d b9 1c ee 38 39 d1 eb 48 b9
       0.00019878989 -0.0002265342 0.0001763631 -0.00019161335
000320 43 3b 83 39 b7 3e 54 39 ef 47 46 39 9d 88 8e b8
       0.0002503042 0.00020241259 0.00018909549 -6.796534e-05
000330 b1 19 6c b9 1d 9a 59 39 6b 8e 14 38 f5 d1 96 38
       -0.00022516285 0.00020752144 3.5418587e-05 7.191665e-05
000340 32 bf 4a b9 f6 af 3f 39 68 51 85 b9 23 8f 52 39
       -0.00019335447 0.0001828073 -0.0002542839 0.00020080483
000350 f4 32 81 39 2f cb 7f b9 88 48 13 b9 59 22 3c b9
       0.0002464276 -0.00024394387 -0.00014046032 -0.00017941873
000360 7d a6 9c 39 4d 87 92 39 b8 87 a8 38 e6 28 4f 39
       0.00029878682 0.00027948097 8.036144e-05 0.00019756294
000370 04 fb 2d b9 63 f5 ad 39 7d 65 89 39 38 89 69 39
       -0.00016592076 0.0003317996 0.0002620629 0.0002227173
000380 3b 82 61 b8 38 23 2c b9 65 f2 21 39 3c 23 bd b9
       -5.3765467e-05 -0.00016416318 0.00015444455 -0.0003607514
000390 7e ec 5f b9 d4 18 73 b9 86 f6 53 39 e2 06 6a 39
       -0.00021355037 -0.00023183535 0.00020214365 0.00022318543
0003a0 ea f5 28 b9 47 4e 3f b9 c3 aa 2f 39 4d a2 26 39
       -0.00016113339 -0.0001824434 0.00016752914 0.00015891455
0003b0 d2 3e 58 b9 d4 a2 e3 b7 4d 9a 8c b7 3f 47 53 b9
       -0.00020622768 -2.7136331e-05 -1.6761152e-05 -0.0002014907
0003c0 a5 e8 1e b9 5e 78 43 b9 bd cb 33 39 1d 79 8c b9
       -0.00015154721 -0.0001864149 0.00017146669 -0.00026793117
0003d0 e4 bc 0b 39 0e c6 1d b9 3a 4b 2a 39 7a 0b 50 39
       0.0001332644 -0.00015046468 0.00016240487 0.00019840701
0003e0 0b 7d 57 b9 1f 4d 31 b9 98 10 32 b9 a9 ae 2c 39
       -0.0002055058 -0.00016908765 -0.00016981584 0.00016468264
0003f0 bc 14 a7 b9 cb ae 6d 39 38 7a 21 b9 87 c5 18 39
       -0.0003186817 0.00022667197 -0.00015399687 0.00014569434
