best_model/xasnet_gnn_model_17.pt (torch, 105210 bytes, 20 tensors)

batch_norms.0.weight f4 [128]
0	0x3f4a697d	0.7906721
1	0x3f4ee485	0.80817443
2	0x3f4ada6d	0.7923954
3	0x3f4b9f49	0.79539925
4	0x3f4d01f6	0.8008112
5	0x3f4ac113	0.7920086
6	0x3f49f5f6	0.7889093
7	0x3f4999aa	0.787501
8	0x3f4859c9	0.78262
9	0x3f4812e8	0.7815385
10	0x3f46f22a	0.77713263
11	0x3f48a65a	0.7837883
12	0x3f49cf17	0.7883162
13	0x3f4da450	0.80328846
14	0x3f4a4424	0.79010224
15	0x3f53e957	0.82777923
16	0x3f456904	0.77113366
17	0x3f4e4600	0.8057556
18	0x3f48c2a9	0.7842203
19	0x3f46aee5	0.7761062
20	0x3f4c7f99	0.798822
21	0x3f4a1675	0.78940517
22	0x3f47cad5	0.7804387
23	0x3f4c0a7a	0.79703486
24	0x3f48b06e	0.7839421
25	0x3f4b7608	0.79476976
26	0x3f4a07a0	0.78917885
27	0x3f4a3460	0.7898617
28	0x3f479a6f	0.7797002
29	0x3f455e79	0.7709728
30	0x3f4b9327	0.7952141
31	0x3f483af6	0.7821497
32	0x3f4774df	0.77912706
33	0x3f494a17	0.7862868
34	0x3f5159ce	0.81777656
35	0x3f4a6596	0.7906126
36	0x3f483e8c	0.7822044
37	0x3f4d6697	0.80234665
38	0x3f4b4fa1	0.7941838
39	0x3f4e5256	0.80594385
40	0x3f48aca2	0.78388417
41	0x3f47a5fa	0.77987635
42	0x3f47aac1	0.77994925
43	0x3f498b58	0.78728247
44	0x3f456233	0.77102965
45	0x3f4a3142	0.7898141
46	0x3f49efc0	0.78881454
47	0x3f4943a1	0.7861882
48	0x3f49d94e	0.78847206
49	0x3f4b8de5	0.7951339
50	0x3f471c57	0.7777762
51	0x3f53543c	0.82550406
52	0x3f497aa5	0.78702766
53	0x3f491cb1	0.78559405
54	0x3f45aed8	0.77219915
55	0x3f4a0b11	0.78923136
56	0x3f45825d	0.77152044
57	0x3f4b05d9	0.793058
58	0x3f4a7926	0.7909111
59	0x3f4bcaf2	0.79606545
60	0x3f46ec1f	0.7770404
61	0x3f4e5600	0.80599976
62	0x3f46423a	0.77444804
63	0x3f4ab53a	0.7918278
64	0x3f4d50c8	0.8020139
65	0x3f485636	0.7825655
66	0x3f489f83	0.78368396
67	0x3f4baf05	0.79563934
68	0x3f4a309c	0.7898042
69	0x3f4cf8fe	0.8006743
70	0x3f4f9b46	0.81096303
71	0x3f4d376b	0.80162686
72	0x3f47d078	0.78052473
73	0x3f48307d	0.7819899
74	0x3f4ae40a	0.7925421
75	0x3f47df86	0.78075445
76	0x3f4783da	0.77935565
77	0x3f4f0a8b	0.8087546
78	0x3f499588	0.7874379
79	0x3f534e48	0.8254132
80	0x3f49a305	0.78764373
81	0x3f4983c6	0.78716695
82	0x3f49acb2	0.7877914
83	0x3f49429d	0.7861727
84	0x3f5528e2	0.8326551
85	0x3f512d8f	0.8171014
86	0x3f51ae9d	0.81907064
87	0x3f4c8865	0.7989562
88	0x3f4b75e8	0.79476786
89	0x3f52a6ec	0.8228595
90	0x3f486a38	0.78287077
91	0x3f516809	0.8179937
92	0x3f53f18c	0.82790446
93	0x3f469013	0.7756359
94	0x3f461e9f	0.77390474
95	0x3f49b2a7	0.78788227
96	0x3f4bcfde	0.79614055
97	0x3f4fd766	0.81188047
98	0x3f47529d	0.7786043
99	0x3f4a7e2b	0.7909877
100	0x3f4ab6da	0.7918526
101	0x3f46ed05	0.77705413
102	0x3f47fc7a	0.78119624
103	0x3f46d822	0.7767354
104	0x3f4c0b11	0.79704386
105	0x3f4bd532	0.79622185
106	0x3f4b19b5	0.793361
107	0x3f477640	0.7791481
108	0x3f4b2560	0.79353905
109	0x3f501878	0.81287336
110	0x3f4e0ecf	0.80491346
111	0x3f47324d	0.7781113
112	0x3f4ad448	0.79230165
113	0x3f4c2f0c	0.7975929
114	0x3f49e54b	0.788655
115	0x3f4b2c3c	0.7936437
116	0x3f4c417a	0.7978741
117	0x3f51ab65	0.8190215
118	0x3f48526c	0.78250766
119	0x3f47fb69	0.78117996
120	0x3f47964d	0.77963716
121	0x3f490f23	0.7853872
122	0x3f48ba3d	0.7840918
123	0x3f49e0e3	0.78858775
124	0x3f48ca11	0.7843333
125	0x3f4588a9	0.7716165
126	0x3f4bbf1c	0.79588485
127	0x3f47664f	0.77890486

batch_norms.0.bias f4 [128]
0	0xbd6a1e29	-0.05715767
1	0xbd7d0747	-0.06177452
2	0xbcb152e1	-0.021645965
3	0x3b91ebdf	0.004453167
4	0xbc24ee8a	-0.010066638
5	0xbcb8b37f	-0.022546528
6	0x3c1375a3	0.009000215
7	0xbbbba629	-0.005726595
8	0xbd341e76	-0.043974362
9	0x3ba4df3b	0.005031494
10	0xbd731a3e	-0.0593512
11	0x3ccb3780	0.024806738
12	0xbd21b412	-0.03947837
13	0xbaf10ced	-0.0018390693
14	0xbcf9320a	-0.030419368
15	0xbc21cd1a	-0.00987556
16	0x3d16e0b0	0.036835372
17	0xbd48d02a	-0.049026646
18	0x3cc384cf	0.023867039
19	0x3c42c6ba	0.0118882
20	0xbd17eb41	-0.03708959
21	0xbc86f2cf	-0.016473202
22	0xbd3323a1	-0.04373515
23	0xbb06fd43	-0.0020597733
24	0xbc315502	-0.01082349
25	0xbd7ca320	-0.061679006
26	0xbcf51804	-0.029918678
27	0xbd0285d4	-0.03186591
28	0x3bc848f5	0.006112213
29	0x3ceb9df8	0.028761849
30	0xbcd02c4b	-0.025411746
31	0x3cacf454	0.021112598
32	0xbd756899	-0.059914205
33	0xbcd52ec3	-0.026023274
34	0xbb1624ec	-0.002291019
35	0xbd21a62f	-0.039465126
36	0xbc65daef	-0.014029249
37	0xbd256a69	-0.040384684
38	0x3d0085a1	0.03137744
39	0x3b8d1b5c	0.00430624
40	0x3c1a9cd0	0.009436801
41	0x3b7c86ce	0.0038532498
42	0xbc775926	-0.015096938
43	0xbd0b5cba	-0.034023978
44	0x3d1430c1	0.036179308
45	0xbc8b2330	-0.016984552
46	0xbbf0cf87	-0.007348958
47	0xbd88e442	-0.06684162
48	0xbd2c7aa8	-0.04210916
49	0xbd819444	-0.063271075
50	0xbd482ace	-0.048868947
51	0x3d546bb8	0.05186054
52	0xbd0b3bee	-0.0339927
53	0xbc2abf92	-0.0104216505
54	0x3d89f7a2	0.06736685
55	0xbc1837cf	-0.00929065
56	0xbce4d52b	-0.027933678
57	0x3d2382e4	0.03991975
58	0x3d9b9d4c	0.075983614
59	0xbc096e21	-0.008388073
60	0x3d3b133c	0.04567264
61	0xbcce31ac	-0.02517017
62	0xbbca85c6	-0.006180498
63	0x3bf2a05b	0.00740437
64	0xbc9b75f9	-0.018977152
65	0xbc0eb756	-0.008710703
66	0x3c93bda1	0.018034758
67	0xbd50543a	-0.050861575
68	0xbce525f3	-0.027972197
69	0xbd213cff	-0.03936481
70	0xbcc32bcc	-0.023824595
71	0xbd4aab4c	-0.049479768
72	0xbd09cf09	-0.03364471
73	0xbb8948a3	-0.004189567
74	0xbd387c17	-0.045040216
75	0x3c5f5e72	0.013633357
76	0xbb27dc6c	-0.002561356
77	0xbce8933e	-0.028390523
78	0xbce2b218	-0.027672812
79	0xbb8ffe06	-0.0043942956
80	0xbd549fe4	-0.051910296
81	0x3bdafa32	0.0066826576
82	0xbd325c83	-0.043545257
83	0xbd821391	-0.06351388
84	0xbba81e48	-0.005130563
85	0xbc31e791	-0.010858432
86	0x3d54cdbb	0.051954012
87	0xbd05cf1e	-0.032668225
88	0x3bd323bc	0.006443469
89	0xbba299cc	-0.0049621817
90	0xbd49f3f3	-0.049304914
91	0x3cef2298	0.0291913
92	0xbd88df19	-0.066831775
93	0x3c5cae18	0.013469242
94	0x3c129eaf	0.008948966
95	0x39cecece	0.00039445463
96	0xbca7b540	-0.020472169
97	0x3becc248	0.0072253086
98	0xbc05a6ce	-0.008157445
99	0xba46f16d	-0.0007589076
100	0x3ce2fdbf	0.027708886
101	0xbce0bffc	-0.027435295
102	0x3d031f66	0.032012366
103	0xbd25564a	-0.040365495
104	0xbcf65130	-0.03006801
105	0xbcd28eec	-0.025702916
106	0xbcd2672b	-0.02568396
107	0xbcfed7e3	-0.031108802
108	0xbd815e7a	-0.06316848
109	0x3c3221fb	0.010872359
110	0x3c7c57d2	0.015401797
111	0x3ca15f76	0.01969884
112	0x3ca5f3a4	0.020257778
113	0xbd0bebf3	-0.034160566
114	0xbd2befcc	-0.041976735
115	0xbcdddcd1	-0.027082833
116	0x3bf25613	0.0073955148
117	0xbd00a138	-0.03140375
118	0x3c2b0945	0.010439222
119	0x3d24a80e	0.040199332
120	0xbd924a3c	-0.07143065
121	0xbbdaf07f	-0.0066815014
122	0x3d5ad451	0.053425137
123	0xbd77e569	-0.060521517
124	0xbc9362ff	-0.017991541
125	0xbcbf1249	-0.023324149
126	0xbca8c792	-0.020602975
127	0x3cbe0db0	0.023199886

batch_norms.0.running_mean f4 [128]
0	0x3c958ffd	0.018257136
1	0x3d2de5a7	0.04245534
2	0x3dbebe00	0.093135834
3	0x3d5cc62f	0.05389994
4	0xbe087720	-0.13326693
5	0xbdd53094	-0.10409656
6	0x3d816465	0.06317977
7	0xbdb9118a	-0.090365484
8	0x3e5f29dc	0.21793312
9	0xbd616f2a	-0.055037655
10	0x3ea3fda3	0.32029447
11	0x3dcd3ebb	0.100217305
12	0xbdc9ee2c	-0.09859881
13	0xbe10f8c4	-0.14157397
14	0x3e5b9a16	0.21445498
15	0xbdb1e707	-0.08686643
16	0x3d3ec58b	0.04657511
17	0xbe91aeae	-0.28453583
18	0xbe652c53	-0.2238019
19	0x3aed78c3	0.0018117655
20	0x3e0e73aa	0.1391131
21	0xbe1e80e0	-0.1547885
22	0xbdb258d7	-0.08708351
23	0xbe34ee5c	-0.17669052
24	0xbcdbe5c2	-0.026842955
25	0xbdcd24cc	-0.10016784
26	0x3e21b877	0.15793024
27	0x3e431ad5	0.19053204
28	0x3eba4e2f	0.36387774
29	0x3dc928e3	0.09822252
30	0x3e4137c6	0.18868932
31	0xbd8bcfc9	-0.06826741
32	0x3e38b729	0.1803862
33	0xbd10733b	-0.035266142
34	0xbe330be2	-0.17485002
35	0x3e766b98	0.24064481
36	0xbe738be8	-0.23783839
37	0xbd524154	-0.051331833
38	0x3dfdae14	0.123867184
39	0x3d665b4a	0.056239404
40	0x3d17f03f	0.03709435
41	0x3c82054d	0.015871668
42	0x3c877d11	0.016539128
43	0x3e2be781	0.1678753
44	0xbd4812c2	-0.048846014
45	0x3d1325dd	0.03592478
46	0xbd8ed344	-0.069738895
47	0xbe5ece09	-0.21758284
48	0xbe4d8e69	-0.20073856
49	0xbdca1fd6	-0.098693535
50	0x3d218e75	0.0394425
51	0xbe254417	-0.16139255
52	0xbd63981d	-0.05556499
53	0xbd102324	-0.035189763
54	0x3e3a82cc	0.18213958
55	0x3d7449ac	0.05964057
56	0x3eaf84c9	0.34280995
57	0xbd66b393	-0.0563236
58	0xbddd0e60	-0.107937574
59	0xbe17103a	-0.14752284
60	0xbd7027a8	-0.05863157
61	0x3e446e0a	0.19182602
62	0xbe14b476	-0.14521965
63	0x3cdc2df1	0.026877375
64	0x3c41373c	0.011792954
65	0xbc98d4d1	-0.018656166
66	0xbc8df3db	-0.017328193
67	0xbdfb9ef9	-0.12286181
68	0x3df6c20e	0.12048732
69	0x3e470184	0.19434172
70	0x3d8ecb5c	0.069723815
71	0xbe8e82b2	-0.27834088
72	0xbc718f3c	-0.014743622
73	0x3e428444	0.18995768
74	0x3d8b4604	0.06800464
75	0xbca22095	-0.019790927
76	0xbdedc67d	-0.11610124
77	0xbc49c14c	-0.012314152
78	0x3e879ee7	0.2648842
79	0x3d25d5b6	0.040487014
80	0x3d45a998	0.04825744
81	0x3e35a669	0.17739262
82	0xbdf07e77	-0.11742871
83	0xbe00cfb4	-0.12579232
84	0x3bfdab6d	0.007741383
85	0xbe6e4f62	-0.2327247
86	0xbe18ad40	-0.1490984
87	0xbe329b99	-0.17442168
88	0x3dd7bc0d	0.10533915
89	0x3e03f32b	0.1288573
90	0xbdb3a062	-0.08770825
91	0x3db3ff7c	0.08788964
92	0x3e09cdb1	0.13457371
93	0x3ea983d9	0.33108404
94	0x3d2dd8b2	0.042442985
95	0x3b86c50e	0.004112846
96	0x3dd5cfee	0.1044005
97	0x3d7486be	0.059698813
98	0x3e5c936a	0.21540609
99	0xbd18db3c	-0.037318453
100	0x3e0c6a9b	0.13712542
101	0x3dac6c1a	0.08419056
102	0x3d45036b	0.048098963
103	0xbda2ade3	-0.079433225
104	0x3d29dd27	0.041470673
105	0x3e1a5e56	0.15075049
106	0x3bba1269	0.005678464
107	0x3dc1b259	0.09457845
108	0xbd7f0fea	-0.062271036
109	0xbc5bc5d3	-0.013413864
110	0x3c6cde62	0.014457317
111	0xbd0711cc	-0.032975957
112	0x3d8112c3	0.06302407
113	0x3e007580	0.12544823
114	0xbd91ae35	-0.071133055
115	0xbc9d5cf1	-0.019209357
116	0xbdf5a8ba	-0.11995073
117	0x3d24159c	0.04005967
118	0x3e131fe8	0.1436764
119	0xbd56e687	-0.05246594
120	0xbe3c36c8	-0.18380272
121	0x3dc47f47	0.09594589
122	0x3dd52be9	0.10408766
123	0x3cb6fb3c	0.022336595
124	0x3e141a0d	0.14463063
125	0xbc830fca	-0.01599874
126	0x3d898296	0.067143604
127	0xbdb36c2f	-0.08760869

batch_norms.0.running_var f4 [128]
0	0x3c105411	0.0088091055
1	0x3b520e69	0.0032052046
2	0x3be2cc56	0.0069213314
3	0x3be252f6	0.0069068624
4	0x3b78f35f	0.0037986857
5	0x3b6d99fe	0.0036255117
6	0x3c03a4b6	0.008034876
7	0x3c0f7aa0	0.008757263
8	0x3b620caf	0.0034492423
9	0x3b9f5532	0.004862451
10	0x3beb3496	0.0071778996
11	0x3c9d0efc	0.019172184
12	0x3c2633de	0.010144202
13	0x3b9084d5	0.004410366
14	0x3c149ab7	0.00907009
15	0x3be6cd76	0.007043536
16	0x3bac5dbc	0.0052601974
17	0x3c17e0d7	0.009269915
18	0x3b8e81e1	0.004348979
19	0x3bfc780c	0.0077047404
20	0x3acb8587	0.0015527465
21	0x3c07b2ed	0.008282405
22	0x3b725851	0.003697891
23	0x3b825d20	0.0039783865
24	0x3b06fff3	0.0020599335
25	0x3c02717c	0.007961627
26	0x3c0f7e77	0.008758179
27	0x3bdc9c7e	0.0067325225
28	0x3be59486	0.0070062308
29	0x3b9563f7	0.004559036
30	0x3b234495	0.0024912704
31	0x3b988068	0.004653979
32	0x3c2ca3a6	0.010537064
33	0x3b8cef5b	0.0043009943
34	0x3bb9be58	0.0056684427
35	0x3c38a5ca	0.011269996
36	0x3c2277f2	0.0099162925
37	0x3a97e3a2	0.0011588226
38	0x3c2f7f4d	0.010711503
39	0x3b04be9c	0.0020255214
40	0x3ba268eb	0.004956355
41	0x3b7488d0	0.0037312992
42	0x3b22e8ab	0.002485792
43	0x3be0b208	0.0068571605
44	0x3ba3b8bd	0.0049963878
45	0x3bb4f8c6	0.00552282
46	0x3c019616	0.007909318
47	0x3b8e38a0	0.0043402463
48	0x3c570787	0.013124353
49	0x3bf4c811	0.007470139
50	0x3b86ca9b	0.004113508
51	0x3b1d26de	0.0023979465
52	0x3bdc3395	0.0067200162
53	0x3bb3ceef	0.005487315
54	0x3c75d468	0.015004255
55	0x3be85923	0.007090704
56	0x3be1666d	0.006878665
57	0x3be7162f	0.007052205
58	0x3be902b5	0.0071109184
59	0x3bd26aa6	0.006421405
60	0x3ae5eef3	0.0017542526
61	0x3b36a7f7	0.002787111
62	0x3b910f9e	0.0044269105
63	0x3b309202	0.0026942496
64	0x3c1753f1	0.009236322
65	0x3bcd38c8	0.0062628724
66	0x3c1012b3	0.008793521
67	0x3c5beb59	0.0134228105
68	0x3bf2a726	0.0074051796
69	0x3b55d403	0.003262759
70	0x3a9dda6b	0.0012043243
71	0x3bb61b20	0.005557433
72	0x3bb846b0	0.005623661
73	0x3c49bc34	0.0123129375
74	0x3b0c2812	0.0021386188
75	0x3bcfff4c	0.0063475724
76	0x3b732d41	0.003710583
77	0x3b4f2ff6	0.003161428
78	0x3bc90236	0.006134297
79	0x3b8b0bdc	0.004243357
80	0x3b9e62bd	0.004833548
81	0x3ba5618a	0.005047028
82	0x3bc8ab1d	0.006123914
83	0x3b21f973	0.0024715334
84	0x3bc75979	0.006083664
85	0x3afa9eca	0.0019120809
86	0x3b6c3fa5	0.0036048677
87	0x3b9fd3d8	0.0048775487
88	0x3b671de7	0.0035265626
89	0x3b831b67	0.0040010693
90	0x3be63622	0.007025496
91	0x3c4b6670	0.01241456
92	0x3ba611c7	0.005068037
93	0x3c48f42c	0.012265246
94	0x3c552d9e	0.013011364
95	0x3b939222	0.0045035044
96	0x3b2bb0de	0.002619795
97	0x3bb5a2bc	0.005543081
98	0x3c0e9359	0.008702123
99	0x3bba1c38	0.0056796335
100	0x3afc8493	0.0019265584
101	0x3ba624ff	0.0050703282
102	0x3ba6b4fc	0.005087493
103	0x3bb28f5f	0.00544922
104	0x3c0c3398	0.008557223
105	0x3bfc4fae	0.0076999282
106	0x3bfb8610	0.0076758936
107	0x3c5c2479	0.01343643
108	0x3b6cd363	0.0036136738
109	0x3bb81088	0.005617205
110	0x3b53ab9b	0.003229833
111	0x3bc9c2c9	0.0061572534
112	0x3be64ecd	0.0070284368
113	0x3aec5763	0.0018031414
114	0x3c17ab68	0.009257175
115	0x3c09b122	0.008404048
116	0x3b976dd8	0.0046212487
117	0x3b1b5a43	0.0023704923
118	0x3b4f0e98	0.0031594392
119	0x3bee3989	0.0072700423
120	0x3b9a3140	0.004705578
121	0x3b8a1efd	0.00421512
122	0x3b8bd186	0.0042669205
123	0x3b988a98	0.0046551935
124	0x3b97d6f2	0.004633778
125	0x3b96c05f	0.004600569
126	0x3bf6acc5	0.00752792
127	0x3c356156	0.01107057

batch_norms.1.weight f4 [64]
0	0x3f435fd4	0.763181
1	0x3f454ba3	0.7706854
2	0x3f46e668	0.7769532
3	0x3f3d9011	0.7404795
4	0x3f43c0af	0.76465887
5	0x3f40a58e	0.75252616
6	0x3f452fbf	0.7702598
7	0x3f4b2b74	0.7936318
8	0x3f43ca93	0.7648098
9	0x3f4b73f6	0.7947382
10	0x3f453c57	0.77045196
11	0x3f49dbf2	0.78851235
12	0x3f465607	0.7747502
13	0x3f41a279	0.7563854
14	0x3f40fa26	0.75381696
15	0x3f46eb28	0.7770257
16	0x3f4988fd	0.7872465
17	0x3f4d0ec2	0.80100644
18	0x3f472570	0.777915
19	0x3f462751	0.7740374
20	0x3f50a675	0.81503993
21	0x3f42cca5	0.7609351
22	0x3f4807c0	0.78136826
23	0x3f4859e7	0.7826218
24	0x3f4aa36d	0.7915562
25	0x3f41bf66	0.75682676
26	0x3f4c8480	0.7988968
27	0x3f465ed7	0.77488464
28	0x3f49eb89	0.78875023
29	0x3f44f3d3	0.76934546
30	0x3f50b7f2	0.8153068
31	0x3f47852e	0.7793759
32	0x3f439ca5	0.76410896
33	0x3f48bcb7	0.78412956
34	0x3f47feba	0.78123057
35	0x3f48a682	0.7837907
36	0x3f3ffc0e	0.7499398
37	0x3f48aae4	0.7838576
38	0x3f3f7075	0.7478097
39	0x3f447683	0.76743335
40	0x3f47f4f6	0.78108156
41	0x3f3f611e	0.74757564
42	0x3f4303f5	0.7617791
43	0x3f4e24fd	0.8052519
44	0x3f4925ce	0.7857331
45	0x3f41d905	0.7572177
46	0x3f413d98	0.7548461
47	0x3f448222	0.76761067
48	0x3f416472	0.7554389
49	0x3f436a7b	0.7633435
50	0x3f49a62e	0.78769195
51	0x3f48847e	0.7832717
52	0x3f4b7522	0.79475605
53	0x3f497e39	0.78708225
54	0x3f4a2970	0.7896948
55	0x3f4733f3	0.77813643
56	0x3f483287	0.782021
57	0x3f4f5778	0.8099284
58	0x3f4c0185	0.7968982
59	0x3f48d2d8	0.7844672
60	0x3f466fbf	0.7751426
61	0x3f4c46da	0.7979561
62	0x3f4b9ee2	0.7953931
63	0x3f468ddb	0.77560204

batch_norms.1.bias f4 [64]
0	0xbe26cf82	-0.16290095
1	0x3e1be6cb	0.1522476
2	0x3e28678a	0.16445747
3	0xbe339e06	-0.1754075
4	0xbe2806b3	-0.16408806
5	0x3e35fd60	0.17772436
6	0xbe1f83a0	-0.15577555
7	0xbe3a41ef	-0.18189214
8	0xbe2c66a1	-0.16836025
9	0x3e26e130	0.1629684
10	0xbe2dbbd6	-0.16966185
11	0xbe27a255	-0.16370519
12	0xbe2a6b90	-0.16642594
13	0xbe378fac	-0.179259
14	0x3e2cb374	0.16865331
15	0x3e2d8384	0.169447
16	0x3e2d79e8	0.16941035
17	0x3e36f93b	0.17868511
18	0xbe22cf64	-0.15899426
19	0x3e26fca2	0.1630731
20	0xbe34dbb6	-0.17661938
21	0xbe2e3cef	-0.17015432
22	0x3e2d1b95	0.16905053
23	0xbe2e9555	-0.17049153
24	0x3e23e7b3	0.16006355
25	0x3e3246be	0.17409799
26	0xbe2bb9df	-0.16770123
27	0x3e323c1d	0.17405744
28	0x3e3b0e4e	0.18267176
29	0xbe32218d	-0.17395611
30	0xbe2eda3a	-0.17075434
31	0xbe312e3c	-0.17302793
32	0xbde9ee1e	-0.114223704
33	0xbe263706	-0.16231927
34	0xbe366f19	-0.17815818
35	0xbe2debb9	-0.16984452
36	0xbe31f742	-0.17379478
37	0x3e37991d	0.17929502
38	0x3e31d560	0.17366552
39	0x3e2723e7	0.1632229
40	0x3e2e7505	0.17036827
41	0x3e29c52c	0.16579121
42	0x3e2b1c4c	0.16710013
43	0x3e2d72e4	0.16938359
44	0xbe2b9ef9	-0.16759862
45	0x3e2e5a03	0.17026524
46	0xbe339f59	-0.17541255
47	0x3e1dca09	0.15409102
48	0xbe32d6d0	-0.17464757
49	0x3e3b1d67	0.18272935
50	0x3e2cb114	0.16864425
51	0x3e2b9fc3	0.16760163
52	0x3e2daf29	0.1696135
53	0xbe37433f	-0.17896746
54	0xbe2ad6c7	-0.16683494
55	0xbe1cd03e	-0.15313813
56	0x3e20403f	0.15649508
57	0xbe24ffcb	-0.16113202
58	0x3e2f51ac	0.17120999
59	0x3e2ac1e5	0.16675527
60	0xbe31dce7	-0.17369424
61	0xbe319fb1	-0.17346074
62	0xbe31a043	-0.17346291
63	0xbe34be4a	-0.17650715

batch_norms.1.running_mean f4 [64]
0	0xbea9d4c9	-0.33170155
1	0xbe538f77	-0.20660196
2	0x3e312dd2	0.17302635
3	0x3e92c7b9	0.28668
4	0xbd367bd4	-0.044551685
5	0xbe95c660	-0.2925291
6	0x3daba787	0.08381563
7	0xbe371052	-0.1787732
8	0x3eec080f	0.46099898
9	0xbdc29ded	-0.09502778
10	0x3d087dd2	0.033323117
11	0xbe5da8f9	-0.21646489
12	0x3e8da79d	0.2766694
13	0xbf2929bc	-0.66079307
14	0x3e323dd7	0.17406403
15	0x3e1c5064	0.15265042
16	0xbe26d29d	-0.1629128
17	0xbe891050	-0.26770258
18	0x3e4b9c90	0.19883943
19	0x3e3dac35	0.18522723
20	0x3f06bad8	0.5262885
21	0x3e9e9dea	0.30979854
22	0x3e1f9023	0.15582328
23	0xbdf9bdea	-0.12194426
24	0x3bd28721	0.0064248
25	0xbdaf1ad3	-0.08550038
26	0xbde27703	-0.11057856
27	0xbd6bef48	-0.057601243
28	0x3f26d1f4	0.65164113
29	0x3f04711a	0.5173508
30	0xbe285972	-0.1644037
31	0x3ee2b2d2	0.44277054
32	0xbdefac12	-0.11702742
33	0x3dbe8fb5	0.09304754
34	0xbec17300	-0.3778305
35	0x3e9cb113	0.30603847
36	0x3ea32573	0.3186451
37	0x3ed4a26d	0.4153017
38	0x3cf65bce	0.030073073
39	0x3e79e588	0.24403965
40	0x3e99fdd4	0.30076468
41	0xbd41853b	-0.0472462
42	0x3e291ab5	0.16514094
43	0x3ee44981	0.4458733
44	0x3e8a8e5c	0.27061737
45	0xbe9461fd	-0.2898101
46	0xbf02ab60	-0.5104275
47	0x3e82f2d0	0.25575876
48	0x3e1edb8d	0.1551344
49	0x3f1a2c68	0.6022401
50	0x3d4b88f7	0.049691167
51	0xbf3a3095	-0.7273038
52	0x3e1830a2	0.14862302
53	0x3d324744	0.043524995
54	0xbd6b592c	-0.057458088
55	0x3dd44786	0.103652045
56	0xbe8f0d57	-0.27939865
57	0x3e84e70c	0.25957525
58	0xbea52d44	-0.32261097
59	0xbeec8bae	-0.46200317
60	0xbe8074de	-0.25089163
61	0x3e6dadea	0.23210874
62	0xbe823e67	-0.25438234
63	0xbf03e294	-0.51517606

batch_norms.1.running_var f4 [64]
0	0x3f037910	0.513566
1	0x3f0b14e8	0.54328775
2	0x3efe60e1	0.49683288
3	0x3f72202e	0.9458035
4	0x3f48292c	0.78187823
5	0x3f74fc34	0.9569733
6	0x3ee01b96	0.43771046
7	0x3f199d20	0.6000538
8	0x3f1ba80c	0.60803294
9	0x3f7962d2	0.9741641
10	0x3f49d690	0.7884302
11	0x3f3b3619	0.7312942
12	0x3f151a88	0.5824361
13	0x3f2e7bfe	0.6815795
14	0x3f16f524	0.58967805
15	0x3f1578ae	0.5838727
16	0x3f428151	0.7597857
17	0x3f184a1d	0.5948809
18	0x3f316edf	0.693098
19	0x3f3682c8	0.71293306
20	0x3f0ea22b	0.557162
21	0x3f5fb015	0.87378055
22	0x3f3b2afb	0.7311246
23	0x3f082d35	0.5319398
24	0x3f3a47a0	0.7276554
25	0x3f545e7a	0.8295666
26	0x3f2f83d1	0.6856051
27	0x3f8d6a68	1.1048098
28	0x3f1a07ea	0.60168326
29	0x3f4c2d33	0.7975647
30	0x3f5e8777	0.8692545
31	0x3f253ffa	0.64550745
32	0x3e3fa8de	0.18716761
33	0x3ec3b6db	0.38225445
34	0x3f4fa2a8	0.8110757
35	0x3f36c5ae	0.71395385
36	0x3f75e08e	0.9604577
37	0x3f45ba81	0.7723771
38	0x3eec0f5d	0.4610547
39	0x3ec052b3	0.37563094
40	0x3f19f8cf	0.60145277
41	0x3f831dc6	1.0243461
42	0x3f40fc12	0.7538463
43	0x3f4d9601	0.8030701
44	0x3f5efb3c	0.87102103
45	0x3f3d842e	0.74029815
46	0x3f4593c7	0.77178615
47	0x3f0b52bc	0.5442312
48	0x3f411743	0.7542612
49	0x3f3909f0	0.7228079
50	0x3f12b9c0	0.5731468
51	0x3edc8134	0.43067324
52	0x3f56bf93	0.8388607
53	0x3f2498ca	0.6429564
54	0x3f1dacd2	0.6159183
55	0x3eff7938	0.4989717
56	0x3f0c6ffb	0.5485837
57	0x3f549f87	0.8305592
58	0x3f7c53ea	0.9856554
59	0x3f954d5c	1.1664233
60	0x3f549b3f	0.83049387
61	0x3ec73ee8	0.3891518
62	0x3f48480a	0.7823492
63	0x3f1e8417	0.61920303

interaction_layers.0.att_src f4 [1, 1, 128]
0	0xbca93205	-0.020653734
1	0x3d1f76a7	0.038931515
2	0xbdc0789a	-0.09398003
3	0xbdb0581e	-0.08610557
4	0x3d4c7bc5	0.049922723
5	0x3dd48f47	0.103788905
6	0xbb122c41	-0.002230421
7	0xbdc14d51	-0.09438575
8	0xbd3780a3	-0.044800412
9	0x3b9308bd	0.0044871257
10	0x3d13e229	0.036104355
11	0x3ddcd344	0.10782483
12	0xbdfe6bd1	-0.12422908
13	0x3dcb3689	0.09922511
14	0xbd3fb5fd	-0.046804417
15	0x3d879e3e	0.06621979
16	0xbdf8af07	-0.12142759
17	0xbe140b44	-0.14457422
18	0xbdfe1ff5	-0.12408439
19	0xbdd01969	-0.101610966
20	0x3d9fda99	0.07805366
21	0xbd1d836b	-0.038455408
22	0x3c847525	0.01616914
23	0x3ddf72f9	0.10910601
24	0x3dbff8be	0.09373616
25	0xbdd213c8	-0.10257679
26	0x3d019863	0.031639468
27	0xbb7157c5	-0.0036825996
28	0xbd5de506	-0.054173492
29	0xbde1dd40	-0.11028528
30	0x3df336ad	0.11875663
31	0xbe10b737	-0.14132391
32	0xbe07c07f	-0.13257025
33	0xbd962ada	-0.07332392
34	0xbd40d82f	-0.04708117
35	0x3ddc539f	0.10758137
36	0xbdb7991c	-0.0896475
37	0xbd837fa5	-0.06420831
38	0xbe1fed50	-0.15617871
39	0x3d9258c1	0.07145835
40	0x3da596b5	0.08085386
41	0xbb222e99	-0.0024747013
42	0x3c8a5818	0.01688771
43	0x3ddf781a	0.109115794
44	0xbdebe251	-0.11517776
45	0x3e28ca6d	0.1648347
46	0x3c1fc787	0.009752161
47	0xbd3d98d6	-0.046288334
48	0x3d62d66a	0.055380262
49	0x3de28c30	0.11061895
50	0x3d1c0520	0.038090825
51	0xbd0af417	-0.03392419
52	0xbd9723db	-0.07379886
53	0x3d3053fd	0.043048847
54	0xbe169cb1	-0.1470821
55	0xbd826a7b	-0.06367966
56	0x3deb1537	0.11478656
57	0x3dbe2a3c	0.09285399
58	0xbe23a646	-0.15981397
59	0xbde3bc77	-0.11119931
60	0xbe14af74	-0.14520055
61	0x3d9ffa81	0.07811452
62	0x3dbb0884	0.091324836
63	0xbdd5a435	-0.10431711
64	0x3e0e7acf	0.13914035
65	0x3ca00ad1	0.019536408
66	0xbe2b0298	-0.16700208
67	0xbce76f64	-0.028251357
68	0xbe10653d	-0.1410112
69	0x3dd5b59a	0.104350284
70	0xbcbcfb28	-0.02306898
71	0x3d6a6ec6	0.057234548
72	0x3d2d7c02	0.04235459
73	0x3e37fd43	0.17967705
74	0xbc30a6e6	-0.010781979
75	0xbe27d701	-0.16390611
76	0x3bc2ceee	0.005945078
77	0xbbad298a	-0.005284493
78	0xbb7fc061	-0.003902458
79	0x3c8c8f86	0.017158281
80	0xbd39dbdd	-0.045375694
81	0x3d440123	0.047852647
82	0x3c3b2b94	0.011423964
83	0xbe09bbff	-0.13450621
84	0x3ded4006	0.11584477
85	0x3ca01f26	0.019546103
86	0xbe57f304	-0.21088797
87	0x3c9ed588	0.019388929
88	0x3b11b471	0.0022232796
89	0x3e17f8ae	0.14840958
90	0xbd888fb0	-0.06668031
91	0x3d526782	0.051368244
92	0x3c7bc39f	0.015366464
93	0x3e0a5b8f	0.1351149
94	0xbd2148bb	-0.039376
95	0xbdc68ddc	-0.09695026
96	0x3dd136fc	0.102155656
97	0x3ca33e84	0.01992727
98	0x3d56c442	0.05243326
99	0x3e11e2c3	0.14246659
100	0xbd329274	-0.0435967
101	0x3d2ff151	0.042954747
102	0x3ced67cd	0.02898016
103	0x3ddb30c3	0.1070266
104	0x3decf92e	0.11570965
105	0x3e0e1566	0.1387535
106	0x3e06f096	0.13177714
107	0x3d661306	0.056170486
108	0x3e04513c	0.12921613
109	0x3e50ec77	0.20402704
110	0x3e1a8cd8	0.1509279
111	0xbca16977	-0.01970361
112	0xbd55d953	-0.05220921
113	0xbd021d9e	-0.031766526
114	0x3e1e80ab	0.1547877
115	0x3db54291	0.08850587
116	0xbde53b5a	-0.11192961
117	0xbccdb53d	-0.025110835
118	0x3d911665	0.070843495
119	0xbe3a6786	-0.18203554
120	0xbdb5c173	-0.08874788
121	0x3e4c228a	0.1993505
122	0xbe2f92a7	-0.17145787
123	0xbbefe069	-0.007320453
124	0x3deaccff	0.11464881
125	0xbcbda50d	-0.023149991
126	0x3df32d4f	0.11873876
127	0xbe1664a6	-0.14686832

interaction_layers.0.att_dst f4 [1, 1, 128]
0	0xbd554564	-0.05206813
1	0xbd05eee7	-0.03269854
2	0x3dc5ef29	0.09664757
3	0xbc1d0c15	-0.0095854
4	0xbd73369c	-0.05937825
5	0x3a06431e	0.00051216956
6	0x3cdf9487	0.027292503
7	0xbd053910	-0.032525122
8	0xbd9a5af6	-0.07536881
9	0x3d9f9014	0.077911526
10	0x3da022de	0.078191504
11	0x3de06d97	0.109584026
12	0xbdb0d584	-0.08634475
13	0xbdd684c1	-0.104745395
14	0xbd945b6b	-0.07243999
15	0x3db32598	0.08747405
16	0xbdac7329	-0.084204026
17	0xbe21bfe7	-0.15795861
18	0x3d4212a9	0.047381077
19	0xbd029801	-0.031883243
20	0xbcd45d05	-0.025923261
21	0xbd466c94	-0.048443392
22	0xbd0cd5d3	-0.034383606
23	0xbdefea2e	-0.11714588
24	0xbc95d396	-0.018289369
25	0xbdc9304d	-0.09823666
26	0xbc2e1cb9	-0.010626965
27	0xbcc5ffea	-0.02416988
28	0x3dc62017	0.096740894
29	0x3c8cb1b7	0.017174585
30	0xbd5bb34e	-0.053637795
31	0xbd60003d	-0.054687727
32	0xbd078b43	-0.033091795
33	0xbd4bc89c	-0.049751863
34	0xbdc18540	-0.094492435
35	0x3d901c31	0.07036627
36	0xbc929422	-0.0178929
37	0xbd43f39d	-0.04783975
38	0x3da6be74	0.08141795
39	0x3b4520f6	0.003007946
40	0x3a4e3673	0.000786639
41	0xbd38e0f1	-0.045136396
42	0xbdb45055	-0.088043846
43	0x3d94b53a	0.07261129
44	0xbd952f1e	-0.072843775
45	0x3cf86dda	0.030325819
46	0x3d3d728c	0.04625182
47	0xbd7bddd5	-0.061490852
48	0x3dbd7849	0.09251458
49	0xbcf49deb	-0.029860457
50	0xbc56e50f	-0.013116135
51	0x3d3afc7b	0.04565094
52	0xbc335e99	-0.010947847
53	0xbba96eae	-0.0051706648
54	0x3c770c73	0.015078652
55	0x3d34ebfe	0.044170372
56	0x3da2eacb	0.079549395
57	0xbdb7bb58	-0.0897128
58	0x3d8ceb2b	0.06880792
59	0x3c1aab90	0.009440318
60	0xbd9c262d	-0.07624469
61	0x3d4d59f5	0.050134618
62	0xbd8f1b1b	-0.06987592
63	0x3c427055	0.011867602
64	0x3cd624d0	0.0261406
65	0x3d328c69	0.043590937
66	0x3d1f2700	0.038855553
67	0xbcd15874	-0.025554873
68	0xbd9b7a46	-0.07591681
69	0xbd11f6ef	-0.035635885
70	0xbcc36799	-0.02385311
71	0xbe18a897	-0.14908062
72	0xbd2b777d	-0.041862
73	0x3dad2bb9	0.08455605
74	0x3d632fb2	0.055465408
75	0x3d1bd587	0.038045432
76	0xbda1fa19	-0.079090305
77	0x3c53187a	0.012884254
78	0x3ce7f02e	0.028312769
79	0x3d72e4f5	0.05930038
80	0x3dd99009	0.10623176
81	0x3e0e403d	0.13891692
82	0xbd9bc450	-0.07605803
83	0xbc251b2f	-0.010077282
84	0x3d6af139	0.057358954
85	0xbd0891cd	-0.03334217
86	0xbd82e5c6	-0.06391482
87	0xbdbc8904	-0.09205821
88	0x3cfdfa5c	0.03100317
89	0x3d4c6196	0.049897753
90	0x3d59a132	0.053132243
91	0x3c0d846a	0.008637527
92	0x3d05308b	0.032516997
93	0x3e1259d4	0.14292079
94	0x3dde7850	0.108627915
95	0x3da60378	0.0810613
96	0x3db6ac69	0.089196034
97	0xbd2e9d5e	-0.042630546
98	0xbda67a0c	-0.08128747
99	0x3d849b0c	0.06474885
100	0xbd9f8966	-0.077898785
101	0xbcb4e856	-0.022083443
102	0x3d31de1b	0.043424707
103	0xbdf5cc62	-0.120018736
104	0x3cf339e3	0.029690688
105	0x3d57c223	0.052675378
106	0xbccce19d	-0.025009925
107	0xbd134af0	-0.035960138
108	0xbdb1dfff	-0.08685302
109	0x3d80de7f	0.06292438
110	0x3d2a87ec	0.04163353
111	0x3dd88ccf	0.10573732
112	0x3d4f1926	0.050561093
113	0x3d08342b	0.033252876
114	0xbd87deb9	-0.06634278
115	0xbd912b2b	-0.07088312
116	0xbd845945	-0.06462339
117	0xbd335aee	-0.04378789
118	0x3d95ee9f	0.07320904
119	0x3b89543f	0.004190951
120	0xbcbb2cb3	-0.022848463
121	0x3d9ba784	0.076003104
122	0x3d2781f7	0.04089543
123	0xb9d5b634	-0.00040762278
124	0xbd03f4f3	-0.032216024
125	0x3c80d9f7	0.015728934
126	0x3d404afb	0.046946507
127	0x3d1ddbe3	0.03853978

interaction_layers.0.bias f4 [128]
0	0xb4b8e7f2	-3.4441433e-07
1	0x35951dc9	1.1110034e-06
2	0x350ac377	5.1693445e-07
3	0x32ba762e	2.1706992e-08
4	0xb5f7a144	-1.8449869e-06
5	0xb4920f56	-2.7205778e-07
6	0x35bc10ae	1.4011946e-06
7	0x33ae879d	8.127174e-08
8	0x352ba51e	6.394274e-07
9	0x3551b0e6	7.811599e-07
10	0xb5a370ab	-1.2177237e-06
11	0xb4d33d58	-3.9346446e-07
12	0xb5ccbfd6	-1.5255016e-06
13	0x354f381e	7.719517e-07
14	0xb4dd383d	-4.1205377e-07
15	0x363a8152	2.7791434e-06
16	0xb4d1e0dc	-3.909289e-07
17	0xb483928d	-2.450728e-07
18	0x3511d99e	5.4333384e-07
19	0x358ea5dd	1.0628097e-06
20	0xb69c5c89	-4.659935e-06
21	0x3580ea00	9.604846e-07
22	0x35392cb5	6.898293e-07
23	0xb5bebb7d	-1.4210669e-06
24	0x362108c0	2.3995963e-06
25	0x35397e05	6.9101253e-07
26	0xb48f4a77	-2.6690006e-07
27	0x319c2524	4.54442e-09
28	0xb6214e46	-2.403643e-06
29	0x35f20c1f	1.8033933e-06
30	0xb441726b	-1.801615e-07
31	0x363de083	2.8293878e-06
32	0x35db844a	1.6355273e-06
33	0x3595f990	1.1173997e-06
34	0x3622649e	2.4198448e-06
35	0x34d9e889	4.058859e-07
36	0x350af994	5.177219e-07
37	0x339cc953	7.300937e-08
38	0x3527caa4	6.250723e-07
39	0x32ddbc98	2.5813549e-08
40	0xb598273b	-1.13363e-06
41	0xb5ddf66f	-1.6537505e-06
42	0x35bc2146	1.4016775e-06
43	0xb4c83117	-3.728862e-07
44	0xb5f9924c	-1.8594524e-06
45	0xb5a2017b	-1.2070371e-06
46	0x3541e190	7.222634e-07
47	0x35827b38	9.721616e-07
48	0xb5bf23e4	-1.4241054e-06
49	0x337b0abc	5.8450254e-08
50	0x3537672e	6.832296e-07
51	0x35cd32f8	1.5288524e-06
52	0x34d51476	3.968923e-07
53	0x351a15fb	5.7401456e-07
54	0x356a7edc	8.73564e-07
55	0xb2cb6dba	-2.3682208e-08
56	0xb5f6a8f2	-1.8377598e-06
57	0xb18891e6	-3.9747077e-09
58	0xb54452bc	-7.3136084e-07
59	0x348ee2cf	2.6614586e-07
60	0x35fa5a30	1.86527e-06
61	0x34629d64	2.1105149e-07
62	0xb4660818	-2.1423364e-07
63	0xb3afb0dd	-8.181244e-08
64	0x35568173	7.9909586e-07
65	0x349e8892	2.952916e-07
66	0xb3edd4f5	-1.1074909e-07
67	0x34380346	1.7137526e-07
68	0xb5e8bbed	-1.7340041e-06
69	0x34b7c99a	3.423309e-07
70	0x323431fe	1.0488746e-08
71	0xb60f4106	-2.134651e-06
72	0xb48ec85b	-2.659534e-07
73	0xb54f2e3f	-7.7180806e-07
74	0xb6093e00	-2.045068e-06
75	0x354c04a0	7.600265e-07
76	0x356123db	8.387121e-07
77	0xb5f1d50c	-1.8017904e-06
78	0x365656a1	3.193891e-06
79	0xb5296c91	-6.311539e-07
80	0x3481a8cf	2.4150947e-07
81	0xb55b3a88	-8.166903e-07
82	0xb5b01ff4	-1.3122321e-06
83	0xb5df05ef	-1.6616522e-06
84	0xb41819b2	-1.4165451e-07
85	0x3596e49a	1.1242403e-06
86	0xb406e31a	-1.2562342e-07
87	0x35ca9464	1.509336e-06
88	0x3482583e	2.4278592e-07
89	0xb5e5cda6	-1.7121681e-06
90	0xb462f987	-2.1138668e-07
91	0x3481cc94	2.4176973e-07
92	0x352da92d	6.4693705e-07
93	0x3515e302	5.5837165e-07
94	0xb4ac5e86	-3.210627e-07
95	0xb511c8eb	-5.4309083e-07
96	0xb61096eb	-2.1545518e-06
97	0x352624ec	6.189355e-07
98	0x3319d292	3.58146e-08
99	0x35f20466	1.8031685e-06
100	0xb673d652	-3.6334573e-06
101	0xb48d5b41	-2.6329693e-07
102	0x3599b348	1.1451566e-06
103	0xb557c475	-8.0379624e-07
104	0x34a9bf4c	3.161789e-07
105	0x34d9400d	4.0466003e-07
106	0x31a05c41	4.667101e-09
107	0xb50adf76	-5.1734185e-07
108	0x362aef4b	2.547126e-06
109	0xb553fffc	-7.897613e-07
110	0xb4329e89	-1.6635217e-07
111	0x35124545	5.449004e-07
112	0xb5447138	-7.3180445e-07
113	0xb6458b6c	-2.9436442e-06
114	0xb5bd5eb2	-1.4109157e-06
115	0xb2e1062f	-2.619626e-08
116	0xb5b527cc	-1.3497133e-06
117	0xb352a54d	-4.9044775e-08
118	0x344e9e5f	1.924286e-07
119	0xb522ad5e	-6.0601985e-07
120	0x3660f9d4	3.352402e-06
121	0xb5878e94	-1.009978e-06
122	0xb49b4927	-2.8924225e-07
123	0xb4e5c3ed	-4.279713e-07
124	0x356f209f	8.908191e-07
125	0x3417b126	1.4127417e-07
126	0xb5874f8b	-1.0081434e-06
127	0x34fa58fd	4.6630876e-07

interaction_layers.0.lin_src.weight f4 [128, 15]
0	0xbce9d1e1	-0.02854246
1	0xbd116fcf	-0.03550702
2	0xbd56b269	-0.05241624
3	0xbdec8f95	-0.115508236
4	0x3d0e44fc	0.034733757
5	0xbc9846a6	-0.018588375
6	0x3d341afa	0.04397104
7	0xbdf14af6	-0.11781876
8	0xbcf343a0	-0.029695332
9	0x3d55419b	0.05206452
10	0x3d949e34	0.07256737
11	0x3df07e34	0.11742821
12	0xbb5244de	-0.0032084505
13	0xbd9503a7	-0.07276087
14	0x3c994345	0.018708834
15	0x39980289	0.00028993588
16	0xbd58079c	-0.052741632
17	0xbd3c67f1	-0.045997564
18	0x3e1a6e6d	0.15081187
19	0xbc051b84	-0.008124236
20	0xbc53d629	-0.012929478
21	0x3b55a858	0.0032601561
22	0xbac63b05	-0.001512379
23	0xbd03fae0	-0.032221675
24	0x3dfe5d04	0.12420085
25	0x3b065c00	0.0020501614
26	0xbdf367cb	-0.11885031
27	0xbd0eebca	-0.034892835
28	0x3c766b49	0.015040227
29	0x3c69816c	0.014252048
30	0x3d83e3a3	0.06439903
31	0xbc513962	-0.012770029
32	0xbd338e90	-0.04383713
33	0xbaa0e6be	-0.0012275798
34	0x3d3c1639	0.04591963
35	0xbc3d62dc	-0.011559214
36	0x3deb91e7	0.11502438
37	0xbdfca9f2	-0.12337102
38	0xbb81cd29	-0.0039612246
39	0x3d02ea80	0.031961918
40	0x3c7d9ba5	0.015479003
41	0x3d02bb69	0.03191701
42	0xbd34b4c2	-0.044117697
43	0xbd43fb1a	-0.04784689
44	0xbb40f38d	-0.0029442043
45	0xbc78fa52	-0.0151964
46	0xbd9f1590	-0.077677846
47	0xbd6ba343	-0.057528745
48	0xbcc36e3c	-0.023856275
49	0x3e1acd8f	0.15117477
50	0x3db99238	0.09061092
51	0x3ca74d06	0.02042247
52	0xbd3d9698	-0.046286196
53	0x3d3c6417	0.04599389
54	0x3e0a4999	0.13504638
55	0xbd1f3dbf	-0.038877245
56	0xbcb05f6d	-0.021529878
57	0xbdb4d6f3	-0.08830061
58	0xbc8a0b51	-0.0168511
59	0x3d01b574	0.031667188
60	0xbd8e1e0e	-0.06939326
61	0x3e079dd2	0.13243797
62	0x3d072390	0.0329929
63	0xbd3fd8ab	-0.04683749
64	0x3d4ad4ed	0.049519468
65	0x3ce2259b	0.027605822
66	0xbcb9e56f	-0.02269241
67	0xbc6dcbe8	-0.014513947
68	0x3d07d77d	0.03316449
69	0xbd0d5eb9	-0.034514163
70	0xbd941eb7	-0.07232421
71	0xbcaec4c4	-0.02133406
72	0xbd41a219	-0.04727373
73	0xbd324150	-0.043519318
74	0x3b912ad7	0.0044301557
75	0x3d566e28	0.052351147
76	0x3c9c9e4c	0.01911845
77	0xbe00456c	-0.12526482
78	0xbd9b9ab6	-0.07597868
79	0xbad173c5	-0.0015979937
80	0x3c8d7074	0.017265536
81	0xbb8bcb33	-0.0042661666
82	0xbdb434d6	-0.0879914
83	0xbc390a56	-0.011293968
84	0x3c06324a	0.008190701
85	0xbd8f412a	-0.06994851
86	0x3cd79042	0.026313905
87	0xbd9fb1de	-0.07797597
88	0xbdc073fa	-0.09397121
89	0x3e065b56	0.1312078
90	0x3b477eb1	0.0030440504
91	0x3da69062	0.081330076
92	0x3d54854e	0.05188494
93	0x3c5c7e63	0.013457867
94	0x3c78ac9f	0.015177875
95	0xbdc50805	-0.0962067
96	0xbdad1762	-0.084517255
97	0xbd855fc3	-0.06512406
98	0xbc8ecdf6	-0.017432194
99	0x3e302ad4	0.17203838
100	0xbd4eaded	-0.050458837
101	0x3d3f1134	0.046647266
102	0xbcfac791	-0.030612739
103	0x3d2ccedd	0.042189468
104	0xbcb2e992	-0.02183989
105	0xbd97074f	-0.07374441
106	0x3d3e47c8	0.046455175
107	0x3c0933b3	0.008374142
108	0x3d512b43	0.05106665
109	0xbd80fb6c	-0.06297955
110	0xbda69746	-0.08134322
111	0xbd8bfb35	-0.06835023
112	0x3e15949b	0.1460747
113	0xbc30a17b	-0.010780687
114	0x3c872b79	0.016500222
115	0xbdbbc37e	-0.091681466
116	0x3d901045	0.07034353
117	0xbcfd3cf0	-0.030912846
118	0xbd81b6f8	-0.06333727
119	0x3d3b0240	0.045656443
120	0x3ca3d3d5	0.01999847
121	0x3d83687c	0.06416413
122	0xbdaca8c1	-0.08430625
123	0x3e1761b5	0.14783366
124	0xbcd9513c	-0.026527993
125	0x3a41c306	0.00073914265
126	0x3d495234	0.04915066
127	0xbd0883bf	-0.033328768
128	0x3d1544b3	0.03644247
129	0x3e0abe14	0.13549072
130	0x3d82f769	0.06394846
131	0x3b598a7b	0.0033194113
132	0x3d77bcec	0.060482904
133	0xbda67145	-0.08127073
134	0x3d87bf8c	0.066283315
135	0xbd95478f	-0.07289039
136	0x3c6fcfdd	0.014636961
137	0x3c7b1a4a	0.015326092
138	0x3d927c32	0.071525946
139	0x3cd46bca	0.025930304
140	0xbceede9c	-0.029158883
141	0x3db28f0d	0.08718691
142	0xbe16c500	-0.14723587
143	0x3d054a88	0.03254178
144	0x3d31faae	0.043451957
145	0xbdbf4b91	-0.09340585
146	0xbd95fe0d	-0.07323847
147	0xbc792caa	-0.015208403
148	0x3b64b365	0.0034896967
149	0x3ddc7dcf	0.107661836
150	0x3d8777c2	0.06614639
151	0x3d01ca2c	0.031686947
152	0xbd168078	-0.03674361
153	0x3de52471	0.11188591
154	0x3e10f717	0.14156757
155	0x3e56d2b1	0.2097881
156	0xbd6051d8	-0.054765552
157	0x3d834785	0.06410126
158	0xbb112156	-0.0022145114
159	0xbd4569d5	-0.048196632
160	0x3dddb995	0.108264126
161	0x3d764469	0.060123835
162	0x3e19c518	0.15016592
163	0x3dd1fa84	0.1025286
164	0xbcaaf436	-0.020868402
165	0x3cda7a2f	0.02666959
166	0x3cf85e14	0.030318297
167	0x3be52deb	0.0069939992
168	0xbe087fd3	-0.13330011
169	0x3d38f613	0.04515655
170	0x3b815d56	0.003947894
171	0xbda29149	-0.07937867
172	0x3d25f565	0.04051723
173	0xbba70352	-0.0050968314
174	0x3da1ca62	0.078999296
175	0xbe20d5f1	-0.15706612
176	0x3dbe9bad	0.093070365
177	0x3dd10d2e	0.10207592
178	0xbd0944cf	-0.033512887
179	0xbcc13139	-0.023583042
180	0xbd179fe6	-0.037017725
181	0xbd5c78f7	-0.0538263
182	0x3a81fbb5	0.0009916933
183	0xbd76b388	-0.060229808
184	0xbd638f23	-0.055556428
185	0x3c61e0c6	0.0137865
186	0x3d57b720	0.052664876
187	0xbe37fdeb	-0.17967956
188	0xbc7597d5	-0.014989813
189	0x3beeae00	0.007283926
190	0xbdb90278	-0.09033674
191	0x3e11a08d	0.14221402
192	0xbcd4c162	-0.025971118
193	0xbba8c1e7	-0.005150068
194	0x3d0b7c07	0.03405383
195	0x3c9adf7e	0.018905398
196	0x3d76e27f	0.060274597
197	0xbdf2b92f	-0.11851727
198	0xbe10a714	-0.14126235
199	0xbc8dfd27	-0.017332627
200	0xbd233a1d	-0.039850343
201	0xbca81aee	-0.020520654
202	0xbdcdd3d4	-0.10050169
203	0x3e04e185	0.12976654
204	0x3ccf2d65	0.0252902
205	0xbd1f7b55	-0.038935978
206	0xbdd3b1ec	-0.1033667
207	0xbd7b26d6	-0.061316334
208	0x3ddf3445	0.108986415
209	0xbdb8677a	-0.090041116
210	0x3e009847	0.12558089
211	0x3dc52c78	0.09627622
212	0xbc8c5a39	-0.017132865
213	0xba977f04	-0.0011558239
214	0x3de32dbc	0.110927075
215	0xbc40bda5	-0.011763965
216	0x3de32557	0.110911064
217	0xbddbae46	-0.107265994
218	0xbe09dd7c	-0.13463396
219	0x3d9c4c47	0.07631736
220	0x3d007a77	0.03136679
221	0xbc3f8e12	-0.011691587
222	0xbc98e65d	-0.018664533
223	0xbe339b2c	-0.17539662
224	0xbbf83482	-0.007574619
225	0xbd9e7cf7	-0.07738679
226	0x3d865287	0.065587096
227	0x3dc93790	0.09825051
228	0xbcd09960	-0.02546376
229	0xbcde3d8b	-0.027128955
230	0xbd56a49c	-0.052403077
231	0x3b12d7cd	0.002240646
232	0xbd91c5b0	-0.07117784
233	0xbbd7a351	-0.006580748
234	0x3d58e7ad	0.05295532
235	0xbdbae61f	-0.09125923
236	0xbd31d665	-0.043417353
237	0x3c154926	0.009111678
238	0xbc0451fb	-0.008076186
239	0xbc5a30ca	-0.013317296
240	0xbc6f24e5	-0.014596199
241	0xbd0a6e45	-0.033796567
242	0xb83b6835	-4.4681325e-05
243	0xbd4c3b8b	-0.049861472
244	0x3db32176	0.087466165
245	0xbd41270a	-0.04715637
246	0xbe141cbd	-0.14464088
247	0x3d1f5dd9	0.03890786
248	0xbd02ca56	-0.031931244
249	0x3e012752	0.12612656
250	0x3d04a917	0.03238782
251	0x3d046f0b	0.03233246
252	0x3c1a4013	0.009414691
253	0xbc5642c5	-0.0130774425
254	0x3cf1eaae	0.02953085
255	0xbdc386dd	-0.095472075

interaction_layers.0.lin_dst.weight f4 [128, 15]
0	0xbce9d1e1	-0.02854246
1	0xbd116fcf	-0.03550702
2	0xbd56b269	-0.05241624
3	0xbdec8f95	-0.115508236
4	0x3d0e44fc	0.034733757
5	0xbc9846a6	-0.018588375
6	0x3d341afa	0.04397104
7	0xbdf14af6	-0.11781876
8	0xbcf343a0	-0.029695332
9	0x3d55419b	0.05206452
10	0x3d949e34	0.07256737
11	0x3df07e34	0.11742821
12	0xbb5244de	-0.0032084505
13	0xbd9503a7	-0.07276087
14	0x3c994345	0.018708834
15	0x39980289	0.00028993588
16	0xbd58079c	-0.052741632
17	0xbd3c67f1	-0.045997564
18	0x3e1a6e6d	0.15081187
19	0xbc051b84	-0.008124236
20	0xbc53d629	-0.012929478
21	0x3b55a858	0.0032601561
22	0xbac63b05	-0.001512379
23	0xbd03fae0	-0.032221675
24	0x3dfe5d04	0.12420085
25	0x3b065c00	0.0020501614
26	0xbdf367cb	-0.11885031
27	0xbd0eebca	-0.034892835
28	0x3c766b49	0.015040227
29	0x3c69816c	0.014252048
30	0x3d83e3a3	0.06439903
31	0xbc513962	-0.012770029
32	0xbd338e90	-0.04383713
33	0xbaa0e6be	-0.0012275798
34	0x3d3c1639	0.04591963
35	0xbc3d62dc	-0.011559214
36	0x3deb91e7	0.11502438
37	0xbdfca9f2	-0.12337102
38	0xbb81cd29	-0.0039612246
39	0x3d02ea80	0.031961918
40	0x3c7d9ba5	0.015479003
41	0x3d02bb69	0.03191701
42	0xbd34b4c2	-0.044117697
43	0xbd43fb1a	-0.04784689
44	0xbb40f38d	-0.0029442043
45	0xbc78fa52	-0.0151964
46	0xbd9f1590	-0.077677846
47	0xbd6ba343	-0.057528745
48	0xbcc36e3c	-0.023856275
49	0x3e1acd8f	0.15117477
50	0x3db99238	0.09061092
51	0x3ca74d06	0.02042247
52	0xbd3d9698	-0.046286196
53	0x3d3c6417	0.04599389
54	0x3e0a4999	0.13504638
55	0xbd1f3dbf	-0.038877245
56	0xbcb05f6d	-0.021529878
57	0xbdb4d6f3	-0.08830061
58	0xbc8a0b51	-0.0168511
59	0x3d01b574	0.031667188
60	0xbd8e1e0e	-0.06939326
61	0x3e079dd2	0.13243797
62	0x3d072390	0.0329929
63	0xbd3fd8ab	-0.04683749
64	0x3d4ad4ed	0.049519468
65	0x3ce2259b	0.027605822
66	0xbcb9e56f	-0.02269241
67	0xbc6dcbe8	-0.014513947
68	0x3d07d77d	0.03316449
69	0xbd0d5eb9	-0.034514163
70	0xbd941eb7	-0.07232421
71	0xbcaec4c4	-0.02133406
72	0xbd41a219	-0.04727373
73	0xbd324150	-0.043519318
74	0x3b912ad7	0.0044301557
75	0x3d566e28	0.052351147
76	0x3c9c9e4c	0.01911845
77	0xbe00456c	-0.12526482
78	0xbd9b9ab6	-0.07597868
79	0xbad173c5	-0.0015979937
80	0x3c8d7074	0.017265536
81	0xbb8bcb33	-0.0042661666
82	0xbdb434d6	-0.0879914
83	0xbc390a56	-0.011293968
84	0x3c06324a	0.008190701
85	0xbd8f412a	-0.06994851
86	0x3cd79042	0.026313905
87	0xbd9fb1de	-0.07797597
88	0xbdc073fa	-0.09397121
89	0x3e065b56	0.1312078
90	0x3b477eb1	0.0030440504
91	0x3da69062	0.081330076
92	0x3d54854e	0.05188494
93	0x3c5c7e63	0.013457867
94	0x3c78ac9f	0.015177875
95	0xbdc50805	-0.0962067
96	0xbdad1762	-0.084517255
97	0xbd855fc3	-0.06512406
98	0xbc8ecdf6	-0.017432194
99	0x3e302ad4	0.17203838
100	0xbd4eaded	-0.050458837
101	0x3d3f1134	0.046647266
102	0xbcfac791	-0.030612739
103	0x3d2ccedd	0.042189468
104	0xbcb2e992	-0.02183989
105	0xbd97074f	-0.07374441
106	0x3d3e47c8	0.046455175
107	0x3c0933b3	0.008374142
108	0x3d512b43	0.05106665
109	0xbd80fb6c	-0.06297955
110	0xbda69746	-0.08134322
111	0xbd8bfb35	-0.06835023
112	0x3e15949b	0.1460747
113	0xbc30a17b	-0.010780687
114	0x3c872b79	0.016500222
115	0xbdbbc37e	-0.091681466
116	0x3d901045	0.07034353
117	0xbcfd3cf0	-0.030912846
118	0xbd81b6f8	-0.06333727
119	0x3d3b0240	0.045656443
120	0x3ca3d3d5	0.01999847
121	0x3d83687c	0.06416413
122	0xbdaca8c1	-0.08430625
123	0x3e1761b5	0.14783366
124	0xbcd9513c	-0.026527993
125	0x3a41c306	0.00073914265
126	0x3d495234	0.04915066
127	0xbd0883bf	-0.033328768
128	0x3d1544b3	0.03644247
129	0x3e0abe14	0.13549072
130	0x3d82f769	0.06394846
131	0x3b598a7b	0.0033194113
132	0x3d77bcec	0.060482904
133	0xbda67145	-0.08127073
134	0x3d87bf8c	0.066283315
135	0xbd95478f	-0.07289039
136	0x3c6fcfdd	0.014636961
137	0x3c7b1a4a	0.015326092
138	0x3d927c32	0.071525946
139	0x3cd46bca	0.025930304
140	0xbceede9c	-0.029158883
141	0x3db28f0d	0.08718691
142	0xbe16c500	-0.14723587
143	0x3d054a88	0.03254178
144	0x3d31faae	0.043451957
145	0xbdbf4b91	-0.09340585
146	0xbd95fe0d	-0.07323847
147	0xbc792caa	-0.015208403
148	0x3b64b365	0.0034896967
149	0x3ddc7dcf	0.107661836
150	0x3d8777c2	0.06614639
151	0x3d01ca2c	0.031686947
152	0xbd168078	-0.03674361
153	0x3de52471	0.11188591
154	0x3e10f717	0.14156757
155	0x3e56d2b1	0.2097881
156	0xbd6051d8	-0.054765552
157	0x3d834785	0.06410126
158	0xbb112156	-0.0022145114
159	0xbd4569d5	-0.048196632
160	0x3dddb995	0.108264126
161	0x3d764469	0.060123835
162	0x3e19c518	0.15016592
163	0x3dd1fa84	0.1025286
164	0xbcaaf436	-0.020868402
165	0x3cda7a2f	0.02666959
166	0x3cf85e14	0.030318297
167	0x3be52deb	0.0069939992
168	0xbe087fd3	-0.13330011
169	0x3d38f613	0.04515655
170	0x3b815d56	0.003947894
171	0xbda29149	-0.07937867
172	0x3d25f565	0.04051723
173	0xbba70352	-0.0050968314
174	0x3da1ca62	0.078999296
175	0xbe20d5f1	-0.15706612
176	0x3dbe9bad	0.093070365
177	0x3dd10d2e	0.10207592
178	0xbd0944cf	-0.033512887
179	0xbcc13139	-0.023583042
180	0xbd179fe6	-0.037017725
181	0xbd5c78f7	-0.0538263
182	0x3a81fbb5	0.0009916933
183	0xbd76b388	-0.060229808
184	0xbd638f23	-0.055556428
185	0x3c61e0c6	0.0137865
186	0x3d57b720	0.052664876
187	0xbe37fdeb	-0.17967956
188	0xbc7597d5	-0.014989813
189	0x3beeae00	0.007283926
190	0xbdb90278	-0.09033674
191	0x3e11a08d	0.14221402
192	0xbcd4c162	-0.025971118
193	0xbba8c1e7	-0.005150068
194	0x3d0b7c07	0.03405383
195	0x3c9adf7e	0.018905398
196	0x3d76e27f	0.060274597
197	0xbdf2b92f	-0.11851727
198	0xbe10a714	-0.14126235
199	0xbc8dfd27	-0.017332627
200	0xbd233a1d	-0.039850343
201	0xbca81aee	-0.020520654
202	0xbdcdd3d4	-0.10050169
203	0x3e04e185	0.12976654
204	0x3ccf2d65	0.0252902
205	0xbd1f7b55	-0.038935978
206	0xbdd3b1ec	-0.1033667
207	0xbd7b26d6	-0.061316334
208	0x3ddf3445	0.108986415
209	0xbdb8677a	-0.090041116
210	0x3e009847	0.12558089
211	0x3dc52c78	0.09627622
212	0xbc8c5a39	-0.017132865
213	0xba977f04	-0.0011558239
214	0x3de32dbc	0.110927075
215	0xbc40bda5	-0.011763965
216	0x3de32557	0.110911064
217	0xbddbae46	-0.107265994
218	0xbe09dd7c	-0.13463396
219	0x3d9c4c47	0.07631736
220	0x3d007a77	0.03136679
221	0xbc3f8e12	-0.011691587
222	0xbc98e65d	-0.018664533
223	0xbe339b2c	-0.17539662
224	0xbbf83482	-0.007574619
225	0xbd9e7cf7	-0.07738679
226	0x3d865287	0.065587096
227	0x3dc93790	0.09825051
228	0xbcd09960	-0.02546376
229	0xbcde3d8b	-0.027128955
230	0xbd56a49c	-0.052403077
231	0x3b12d7cd	0.002240646
232	0xbd91c5b0	-0.07117784
233	0xbbd7a351	-0.006580748
234	0x3d58e7ad	0.05295532
235	0xbdbae61f	-0.09125923
236	0xbd31d665	-0.043417353
237	0x3c154926	0.009111678
238	0xbc0451fb	-0.008076186
239	0xbc5a30ca	-0.013317296
240	0xbc6f24e5	-0.014596199
241	0xbd0a6e45	-0.033796567
242	0xb83b6835	-4.4681325e-05
243	0xbd4c3b8b	-0.049861472
244	0x3db32176	0.087466165
245	0xbd41270a	-0.04715637
246	0xbe141cbd	-0.14464088
247	0x3d1f5dd9	0.03890786
248	0xbd02ca56	-0.031931244
249	0x3e012752	0.12612656
250	0x3d04a917	0.03238782
251	0x3d046f0b	0.03233246
252	0x3c1a4013	0.009414691
253	0xbc5642c5	-0.0130774425
254	0x3cf1eaae	0.02953085
255	0xbdc386dd	-0.095472075

interaction_layers.1.att_src f4 [1, 1, 64]
0	0x3df87ac3	0.1213279
1	0x3de2c97a	0.11073585
2	0xbe0a13a5	-0.13484056
3	0xbdfb49c9	-0.12269933
4	0xbd4fa718	-0.050696462
5	0x3d83e1e1	0.06439567
6	0xbe2bd416	-0.16780123
7	0xbdce98f3	-0.100877665
8	0xbdc21690	-0.0947696
9	0xbd07e645	-0.033178587
10	0xbdf0a7d2	-0.11750759
11	0xbe08e52e	-0.13368675
12	0xbd72e87e	-0.059303753
13	0x3e3d8381	0.18507196
14	0x3d10b77e	0.03533124
15	0xbe5a6378	-0.21327007
16	0x3db4fd68	0.08837396
17	0x3e039f09	0.12853636
18	0x3df615d7	0.12015884
19	0x3cb5cba7	0.022191836
20	0xbd9bdb16	-0.07610147
21	0x3e0d599b	0.13803713
22	0x3d8b136f	0.06790816
23	0x3e2e6c21	0.17033435
24	0xbd2a5e75	-0.041593987
25	0xbe24916e	-0.16071102
26	0x3c03742f	0.008023306
27	0x3e03744a	0.1283733
28	0xbe36bede	-0.17846248
29	0xbe0e4c62	-0.13896325
30	0xbe07ff12	-0.13280895
31	0xbd4fd83e	-0.050743334
32	0xbc815daa	-0.015791733
33	0x3e15faa9	0.146464
34	0xbe119f4c	-0.14220923
35	0xbdad1848	-0.08451897
36	0x3def4570	0.11683166
37	0x3d9f8a02	0.07789995
38	0x3de3744c	0.11106166
39	0xbd99a00a	-0.07501228
40	0xbe643135	-0.22284396
41	0x3e71d1f2	0.23615244
42	0xbe6f9ea6	-0.23400363
43	0xbdfc453e	-0.123178944
44	0xbe66e776	-0.22549233
45	0x3e27ea87	0.16398059
46	0x3e278f33	0.1636322
47	0xbe241d3f	-0.16026781
48	0x3d665888	0.056236774
49	0xbde62026	-0.112366006
50	0xbc883263	-0.016625589
51	0x3e4c965a	0.1997923
52	0xbe3124f0	-0.17299247
53	0xbb954f12	-0.004556545
54	0xbe2d09fb	-0.16898338
55	0xbe21b478	-0.157915
56	0x3e6b5134	0.22980195
57	0xbe530d21	-0.20610477
58	0x3dd82768	0.10554391
59	0x3d91d60f	0.071209066
60	0xbd09f918	-0.03368482
61	0x3d0dd4e2	0.03462685
62	0x3e967e8f	0.29393432
63	0x3e4de05d	0.20105119

interaction_layers.1.att_dst f4 [1, 1, 64]
0	0x3e44c557	0.19215904
1	0x3e1ef828	0.15524352
2	0xbe23419d	-0.15942998
3	0xbdb77e54	-0.08959642
4	0xbdf65d04	-0.1202946
5	0xbba6b494	-0.0050874446
6	0xbbea798e	-0.0071556037
7	0x3e8c261b	0.27372822
8	0xbd859845	-0.06523184
9	0xbd6bdc9f	-0.057583448
10	0x3e79cb7c	0.2439403
11	0xbe5b553a	-0.2141923
12	0x3e559532	0.20857695
13	0xbd5e5373	-0.054278802
14	0xbe3db0a2	-0.18524411
15	0xbd840b6d	-0.06447492
16	0xbd507939	-0.050896857
17	0x3e07f366	0.13276443
18	0xbd62511f	-0.055253144
19	0xbe4302d0	-0.19044042
20	0xbcd41706	-0.025889885
21	0x3d2efc5c	0.042721137
22	0x3cfc3a42	0.030789498
23	0xbcbf8d1e	-0.02338272
24	0xbe08604e	-0.13317987
25	0x3da0774b	0.07835253
26	0x3cc72817	0.024311109
27	0xbc88c4b3	-0.016695356
28	0xbe3291c4	-0.17438418
29	0x3e4dfaeb	0.20115249
30	0xbe4b9589	-0.19881262
31	0x3e0ed3f2	0.13948038
32	0x3c5772fb	0.013149972
33	0x3e6cfb2b	0.23142688
34	0x3b7444b9	0.0037272407
35	0xbdab7c0f	-0.08373272
36	0xbd535898	-0.05159816
37	0xbde4c6da	-0.111707404
38	0xbd0784a8	-0.033085495
39	0x3dd9ffd4	0.106444985
40	0x3e09ba5c	0.13449997
41	0xbe87f968	-0.2655747
42	0x3e20e6ce	0.15713045
43	0xbe58c52f	-0.2116897
44	0xbd95fe2b	-0.07323869
45	0x3dc59691	0.09647859
46	0x3d563af7	0.052302327
47	0x3dec3c0c	0.115348905
48	0x3e0ed7e7	0.13949548
49	0xbe136178	-0.1439265
50	0xbe87f61f	-0.26554963
51	0x3e0b8edc	0.13628715
52	0x3e6711ce	0.22565386
53	0xbbca5403	-0.0061745658
54	0xbde8e520	-0.11371827
55	0xbcd81440	-0.026376843
56	0xbdf691a7	-0.120395
57	0xbdd89345	-0.105749644
58	0x3e2c5305	0.16828544
59	0x3d592dc4	0.05302216
60	0xbe20ded1	-0.15709998
61	0xbd2c764c	-0.042105004
62	0xbe5cbc39	-0.21556176
63	0xbdd57cb9	-0.104241796

interaction_layers.1.bias f4 [64]
0	0xb4eb0fdd	-4.3783703e-07
1	0x34638d91	2.1192524e-07
2	0xb32fcfeb	-4.0934463e-08
3	0x34b7ff2d	3.427207e-07
4	0x3325026b	3.8419255e-08
5	0x3524b67a	6.13603e-07
6	0x346cc0c1	2.2049336e-07
7	0xb4df34f7	-4.1575524e-07
8	0x3503f40d	4.9156444e-07
9	0x34d156a5	3.8992326e-07
10	0x354cc353	7.6280156e-07
11	0xb4820d27	-2.4223957e-07
12	0x3521d79f	6.0290944e-07
13	0xb59006fe	-1.0730871e-06
14	0xb3ebca64	-1.0979855e-07
15	0xb51d9a0f	-5.871124e-07
16	0x344fa315	1.9337706e-07
17	0xb33f05ee	-4.4476046e-08
18	0xb42162ef	-1.5030285e-07
19	0x34a1330d	3.002573e-07
20	0xb487e70f	-2.5313827e-07
21	0xb4b10b2d	-3.297695e-07
22	0x3418695c	1.4194433e-07
23	0x34a0eee2	2.9976133e-07
24	0x34bf6bbc	3.565491e-07
25	0xb55b10d8	-8.160837e-07
26	0x34401d60	1.789208e-07
27	0xb40495b9	-1.2347927e-07
28	0xb50b28d2	-5.1840937e-07
29	0xb546a1cf	-7.399621e-07
30	0x32fca687	2.9412389e-08
31	0x351a58d1	5.7498715e-07
32	0x34d83bdc	4.027669e-07
33	0xb5699aae	-8.702435e-07
34	0xb3675371	-5.3859768e-08
35	0xb4b030a2	-3.281794e-07
36	0x33ae3cbb	8.113553e-08
37	0x33cc38f2	9.5098486e-08
38	0x34eb0300	4.3774344e-07
39	0xb4793512	-2.3209239e-07
40	0xb5714808	-8.9884315e-07
41	0x34a62ec7	3.0953944e-07
42	0x33c80f9d	9.316066e-08
43	0xb440c219	-1.7952006e-07
44	0x349b7e9f	2.896313e-07
45	0xb50851f7	-5.078322e-07
46	0x3534ccdc	6.7353335e-07
47	0xb344eadf	-4.584842e-08
48	0xb36bb507	-5.4879845e-08
49	0x34e0caf4	4.187092e-07
50	0xb521924b	-6.019006e-07
51	0x35aab8a5	1.2719726e-06
52	0xb3d087a6	-9.710429e-08
53	0xb4676702	-2.1551025e-07
54	0xb466db28	-2.1500148e-07
55	0x34eba12e	4.3889435e-07
56	0xb445d0d1	-1.8423022e-07
57	0xb4f44264	-4.5496847e-07
58	0xb26acf1f	-1.36676865e-08
59	0x33303076	4.102227e-08
60	0x3503955e	4.901866e-07
61	0xb5a8586f	-1.2542713e-06
62	0x352e8722	6.5016695e-07
63	0x350fe187	5.3599837e-07
