best_model/xasnet_gnn_model_18.pt (torch, 147358 bytes, 22 tensors)

batch_norms.0.weight f4 [128]
00000000: 2a03 473f 90e5 4d3f 47f4 493f 8839 433f
00000010: a4ad 423f 195b 593f a1ff 433f 893f 483f
00000020: 628d 423f 38de 433f 8410 423f 0f8f 463f
00000030: ae72 443f 0b1b 433f 8877 4d3f e293 4a3f
00000040: c031 493f ee5d 453f d2e6 483f d199 473f
00000050: d7f8 543f fb65 463f 3333 4a3f 7a08 463f
00000060: c25b 523f 9f98 4b3f 39db 443f d03f 453f
00000070: 8e3d 443f 4634 4c3f 4eea 453f 6fa7 483f
00000080: 22a4 473f bdb7 4a3f e5c6 4b3f 7103 4b3f
00000090: 7f1a 463f f175 463f 9871 443f 265e 463f
000000a0: a34e 423f 0027 463f d02c 433f f7ba 543f
000000b0: 1dec 463f 0338 453f c386 4b3f 3882 413f
000000c0: 0ea4 4a3f a7a6 453f a31c 423f b23b 493f
000000d0: 5de5 493f 2404 4d3f 5590 473f 3839 4e3f
000000e0: dd68 473f b189 433f d3da 453f a3a4 4b3f
000000f0: 0b6c 453f 5c03 483f b761 463f a535 4f3f
00000100: 2b4a 443f 8292 433f 2266 473f 1813 423f
00000110: 2771 403f 5aff 4a3f e426 4a3f 55b4 433f
00000120: 2576 4d3f 2542 433f a22d 4a3f 6b96 4a3f
00000130: 1046 463f a6f3 433f 0666 443f 3e80 513f
00000140: 3b5c 4e3f 2746 493f c67c 483f 196e 453f
00000150: 1e7b 423f 649b 483f 7447 443f a394 453f
00000160: 93c9 473f 4ffd 433f 98f3 403f 1f34 473f
00000170: f45e 543f 8666 4f3f fac9 473f 71b2 4f3f
00000180: e237 453f ea54 493f d83c 463f dbac 423f
00000190: e146 4e3f 40f5 463f 1b9d 4b3f a11e 473f
000001a0: 9513 503f 5f0f 4b3f 5c9e 433f 60af 4b3f
000001b0: 769e 433f baf6 453f 5029 453f 745e 433f
000001c0: bd8d 463f 15c4 453f 14d8 473f 337d 4b3f
000001d0: f216 423f ae9d 443f 28c7 503f 7aad 463f
000001e0: 3182 4b3f ddfc 4d3f 7352 413f adad 423f
000001f0: fd09 433f 4454 453f c3be 4e3f 4687 423f
0.777392 0.8042841 0.7888836 0.7625966 0.76046205 0.8490463 0.76561934 0.78221947
0.75996983 0.76510954 0.7580645 0.7756204 0.7673749 0.7621314 0.80260515 0.791319
0.7859154 0.7709645 0.78477204 0.7796908 0.831922 0.7749936 0.78984374 0.77356684
0.8217126 0.79529756 0.7689701 0.77050495 0.76656425 0.7976726 0.77310646 0.78380483
0.7798482 0.7918661 0.79600364 0.79302126 0.7738418 0.77523714 0.7673583 0.7748741
0.7590124 0.7740326 0.76240253 0.83097786 0.7770403 0.7703859 0.79502505 0.75589323
0.7915658 0.77207416 0.75824946 0.7860671 0.78865606 0.80084443 0.7795461 0.8055606
0.77894384 0.76381975 0.77287024 0.7954809 0.77117985 0.78130126 0.7749285 0.8094123
0.7667567 0.7639543 0.7789022 0.75810385 0.75172657 0.79295886 0.7896559 0.7644704
0.802584 0.76272804 0.7897588 0.7913577 0.77450657 0.76543653 0.76718175 0.8183631
0.8060948 0.7862267 0.7831539 0.7712112 0.7596911 0.7836211 0.7667153 0.77179927
0.7804195 0.76558393 0.75371695 0.77813905 0.82957387 0.81015813 0.78042567 0.81131655
0.77038395 0.78645194 0.7743659 0.76045007 0.805769 0.7771797 0.795366 0.7778111
0.8127988 0.7932033 0.7641351 0.79564476 0.7641367 0.773296 0.7701616 0.76316
0.77560025 0.7725232 0.78064084 0.79487914 0.7581626 0.768031 0.8155389 0.77608454
0.7949553 0.80463964 0.7551643 0.7604626 0.76187116 0.77081704 0.8075983 0.7598766

batch_norms.0.bias f4 [128]
00000000: 59ee 93bb 4b5a 9abd 16a7 a63c a74c a8bc
00000010: 0c52 76bc 5acf 9ebd 0bb5 cc3c 8834 31bd
00000020: 55ab 88bb bfa2 63bd c7e7 4ebd ed15 86bd
00000030: 3400 1abc 8b8c 13bd 699c 75bc 7f7c 47bd
00000040: 8d21 a73d e40b 2cbd a90f 22bd 481a abbc
00000050: f013 01bd f438 60bc 9462 d2bc 72d0 053d
00000060: 0657 b8bd d596 8dbd c702 d23c eb76 2abd
00000070: 73b5 ac3a 0cba a4bc effc 6fbc 202a a43c
00000080: f5d6 79bd 74be 513a cd4f d7bc a340 f1bb
00000090: cab7 d5bc b2b7 f13b 6047 8dbc 4159 eebc
000000a0: f4be 7c3c 5ab5 21bd 7de6 afb9 5238 bfbb
000000b0: 7b83 62bd 2bc5 e9bb 8f6d 213c cb3f 56bd
000000c0: 6a1f 1a3d 6429 40bd 853f 20bb efc9 873d
000000d0: 1b65 6e3a 581a 44bd 216c 8f3c 5dbf 1cbc
000000e0: 5bb5 e1bb e99a 7fbd 7396 b5bb a8bc 3839
000000f0: 3a38 b4bc 16ac 07bd 1b2b 11bc 2f1c 2a3c
00000100: aa7e fcbc afa6 443b 9781 d63b b21d aebb
00000110: b70d c8bc 21bc 06bd a0eb 7cbd 3087 27bc
00000120: f572 4fbd 5ffd 153d 352e ab3b a5b6 b13b
00000130: 09f9 c73b ec59 71bd f6ba 9b3c 0445 2fbc
00000140: fcac 453d a95e fd3c e9f2 b9bc 0312 0f3d
00000150: 6429 35bd f9dc 1bbc 8e5b 1fbd b10b 233d
00000160: 0777 36bd 6488 2cbd da84 02bb 29c3 4ebd
00000170: 08a8 dbbc 15a4 23bd cbf5 8cbc 4e7e 2d3c
00000180: 8799 3fbd 539e d0bc 8d5c 6b3d c0a5 993c
00000190: d649 9bbd 7c1a 3c3d 21d5 933b 2360 6a3b
000001a0: 5f2a 173d 0112 a3bc f2af 85bc 1219 043d
000001b0: 23b6 86b9 1378 af3b 9d5f 6cbd 68d6 90bd
000001c0: 4417 153c 22cb d93c eddb 0fbd 10f7 ddbc
000001d0: 9e89 82bd 4681 223d 656c c1bc f97f c2bc
000001e0: 4847 bb3b 95f2 593a 36c0 88bc db32 6abd
000001f0: dc30 e0bb 3ed8 45bd 7c68 2d3d b05f 65bd
-0.0045144972 -0.07536753 0.020343345 -0.020544363 -0.01503421 -0.07754393 0.024988672 -0.04326299
-0.004170815 -0.05557513 -0.05051401 -0.06547151 -0.0093994625 -0.036022704 -0.014990904 -0.048702713
0.08160696 -0.042003527 -0.039565716 -0.020886555 -0.031513155 -0.013685454 -0.025681771 0.032669492
-0.090009734 -0.069135346 0.02563609 -0.041617315 0.0013176635 -0.020108245 -0.014647706 0.020039618
-0.060996015 0.0008001097 -0.02628317 -0.0073624416 -0.026088614 0.0073766345 -0.017245948 -0.029095294
0.015426386 -0.03947959 -0.00033550328 -0.0058355713 -0.05530117 -0.0071341 0.009852781 -0.05230693
0.037627615 -0.046914473 -0.0024451923 0.06630313 0.00090940454 -0.047876686 0.017507615 -0.009567109
-0.0068880743 -0.062403593 -0.0055416166 0.00017617887 -0.021999467 -0.0331231 -0.008860375 0.010382696
-0.030822117 0.0030006578 0.00654621 -0.0053135986 -0.024420602 -0.032894257 -0.061748147 -0.010225102
-0.05064674 0.036618587 0.005224014 0.0054233843 0.0061026854 -0.058923647 0.019010048 -0.010697607
0.048260674 0.030928927 -0.022698836 0.034929287 -0.044228926 -0.009513133 -0.038905673 0.03980607
-0.044547107 -0.04212226 -0.0019915611 -0.050479088 -0.026813522 -0.039951403 -0.017207047 0.010589195
-0.046777274 -0.02546612 0.05746131 0.018755794 -0.075824425 0.045923695 0.004511491 0.0035762868
0.036905643 -0.019906046 -0.016319249 0.03225047 -0.00025694174 0.00535489 -0.05770837 -0.07072145
0.009099785 0.02658612 -0.035121847 -0.027095348 -0.06373905 0.039674066 -0.023611257 -0.023742663
0.0057152845 0.00083140406 -0.016693216 -0.057177406 -0.006841762 -0.048301928 0.042335972 -0.055999458

batch_norms.0.running_mean f4 [128]
00000000: 4abf 93bd d226 30be a0e3 19bd dda5 fc3c
00000010: f7ec 973d 6538 8f3d 007b aa3e d075 3bbe
00000020: bbc3 4a3e 1ce6 133d f780 e3bd 3eb1 83bd
00000030: 17eb 4a3e 301d 203e 717f 4bbe 5919 84bd
00000040: ac0a 833e b2f1 3c3e 5a27 723d df9c 923c
00000050: c16c c0bb 6ddd 713e 6ccb dd3d 4932 4d3d
00000060: 6aac 273e c984 3c3d 8980 073e 72f3 69bb
00000070: 8822 9a3d a749 8c39 c462 52bd 1e45 c43d
00000080: 0058 77bc 56a6 503e e73e b83d 1beb c53d
00000090: eba5 293e 357c 7a3e 7b8d 743e af3e 23be
000000a0: c87f fa3c 8791 ddbc 39ac 7c3c ee3d 443d
000000b0: 8924 40be e19d ab3d c339 b6bc ad59 663d
000000c0: 8aa3 0e3e cee2 1ebe baa4 4bbe 71ef 6d3b
000000d0: d30b 863a 3aeb 303d 8c0b 613e 7df1 813d
000000e0: 6015 70bd 5f44 523e d975 9dbd b9ec 6f3e
000000f0: 0631 963d 8802 edbd ecf1 0dbe bafb dbbd
00000100: 8be8 3fbc ab4d 87bc 835a 443c f375 903e
00000110: 0028 40bd e4c8 f2bd c752 0d3c 7d62 8a3e
00000120: 6c09 8dbd 3885 e73d 7594 023e 3a95 44be
00000130: f31b 173e 48d8 993e b069 11bd e1b4 3fbd
00000140: 2bb2 303e 3845 823d e5fa c0bd 6427 5f3e
00000150: 93ff 2d3e 40de b83d 3111 a2bd 0349 bb3b
00000160: e6a1 7b3d a0cb b7bd 2ae9 be3d 9e87 673d
00000170: 1c68 33bd 48ee bb3b 0605 2139 de08 e3bc
00000180: 8ab6 44be 51de 0f3e e395 a73e 2260 4b3d
00000190: c90b a73d c8bb 353e 43d5 f83d fc5d 103e
000001a0: 7cc3 15be 1c73 933c e20d 12be 1e1e 953d
000001b0: 7911 0ebe e393 e53c e013 27be 0d60 d53d
000001c0: e434 cc3e ea4d e8bc 81ae 913d 6776 033e
000001d0: bcf7 6abd 25cd 693e d89a 8bbc d1a8 23be
000001e0: 13d8 93bd 214b 983b 27ef 433e c1ae 3c3d
000001f0: 8317 06bd 66fa d23d eae0 a7bd 1f6f 8f3e
-0.0721422 -0.17202309 -0.037570596 0.030840809 0.07418244 0.06993178 0.33296967 -0.1830666
0.19801228 0.03610812 -0.111085825 -0.06430291 0.19816242 0.15636134 -0.19872834 -0.06450147
0.2559408 0.18451574 0.05911956 0.017897068 -0.0058723395 0.23619623 0.10829815 0.050096784
0.16374364 0.04602507 0.13232626 -0.0035698083 0.075261176 0.00026757756 -0.05136372 0.095834956
-0.015096664 0.20375952 0.08996373 0.096639834 0.16567199 0.24461444 0.23882096 -0.1594188
0.030578509 -0.027046932 0.01542192 0.047910623 -0.18763937 0.083797224 -0.02224434 0.056237865
0.13929573 -0.15516207 -0.19887057 0.0036306048 0.0010226913 0.04319308 0.21977061 0.06344888
-0.058614135 0.20533894 -0.07688493 0.23430146 0.07333569 -0.115727484 -0.13861817 -0.107413724
-0.011713157 -0.016516527 0.01198447 0.28214988 -0.046913147 -0.11854723 0.008625693 0.27028266
-0.06886563 0.11304706 0.12751944 -0.1919755 0.14756756 0.30047822 -0.035501182 -0.04680336
0.17255466 0.06360859 -0.09422854 0.2179237 0.16992025 0.09026766 -0.07913435 0.005715491
0.061433695 -0.08974385 0.09321816 0.05652582 -0.04380046 0.0057351924 0.00015356028 -0.02771419
-0.19210258 0.1404965 0.32731542 0.049652226 0.08156545 0.17747414 0.121500514 0.14098352
-0.14625353 0.017999224 -0.14263108 0.07281135 -0.13873853 0.02802462 -0.16316175 0.10418711
0.39884102 -0.028357465 0.07113362 0.12838136 -0.057365164 0.22832163 -0.017041609 -0.15982367
-0.07218947 0.004647628 0.19134198 0.046065096 -0.032737266 0.10301666 -0.08197196 0.28014466

batch_norms.0.running_var f4 [128]
00000000: 4e4d 4d3b fd6e 973b f9da 503b 160e 493b
00000010: 2ee3 e53a ad6b 8c3b 792e 693c e175 9e3b
00000020: a7ff 9b3b ea76 ef3b 3591 9d3b 41a5 8f3b
00000030: ceb3 ac3b 0a4f d03a a690 063c c568 2a3c
00000040: 9c91 6f3b 88d4 993b c2cf 3d3a 55be 723b
00000050: d3e9 b13a 4d49 893c 8f18 3f3c 110a cd3b
00000060: e4ad 163c e9a4 493c 84ec 643b 47da 1f3c
00000070: d10c 6e3b c621 623b ff56 f43b f561 793b
00000080: 181d e03b be49 d13b 7bf3 033c 245f c23b
00000090: 5ab4 ac3b 2170 313b 99dc e23b f6ca 623b
000000a0: 7a5f 8a3b 941e 253c 7849 913b ad5a aa3b
000000b0: 8ed4 273c 0d4a c93b 6e29 c23a 2209 a03b
000000c0: 3232 a03b 4823 403b 14f2 0f3c 9764 083c
000000d0: 592d 343b c4b9 973a c347 c83b f4a5 893b
000000e0: fea6 973b e203 453b d3fb ad3b 4929 9c3b
000000f0: 0f5e 673b dd94 2f3c a193 843b 1685 da3b
00000100: a91e 1a3c ea30 9b3b 21d8 0d3b e217 a33b
00000110: 3e57 3b3b db71 a33b bedf 8f3b 4407 6a3c
00000120: 88f9 133c e6a6 a83b 477e bb3b b1ff b23b
00000130: 575c 443b 35af 933b b718 6b3b 60ef 653b
00000140: 8bf7 e23b 682d 7a3b 8ba7 f13b 8f77 113c
00000150: aafe eb3b 9056 473b 9ee1 973b 1655 1f3c
00000160: 07b2 953b c069 3d3c b1e2 5c3c 0550 c03b
00000170: e4dd c23a 7bb3 2f3b b0f3 393b ffce cf3b
00000180: cd74 803b 08e1 4a3c ddfe 903c 3308 f23b
00000190: 0fef 973c 34bc 223c cc17 873b 4218 7f3b
000001a0: 3a30 d73b e359 153b af12 8c3b 8dfb 8e3b
000001b0: 5d7e d23b e41d 9d3b a365 133c 0fd9 ba3b
000001c0: ea6e 053c 895c b13b c9d1 e03a 521d e73b
000001d0: d6da 033c 3380 683c e442 773b bf07 f93b
000001e0: bb00 083b 096a bd3b 88c5 173c a8e7 623b
000001f0: a65c 273c 1be0 2c3c 11fb be3b 36b5 863b
0.0031326595 0.004621385 0.00318688 0.0030678562 0.0017539018 0.004285297 0.014232271 0.0048358296
0.0047607007 0.007307877 0.00480857 0.0043837135 0.005270458 0.0015892696 0.008213198 0.010400956
0.0036555296 0.004694525 0.0007240736 0.0037039716 0.0013573713 0.016758585 0.01166357 0.0062573035
0.009196732 0.012307384 0.0034931013 0.009756631 0.0036323557 0.0034504994 0.00745666 0.0038052772
0.0068394057 0.0063869646 0.008053656 0.005931752 0.005270523 0.002707489 0.00692327 0.0034605837
0.0042228075 0.010078091 0.004433807 0.0051987977 0.010243548 0.0061428607 0.0014813372 0.004883901
0.0048887962 0.0029317904 0.008785743 0.008324764 0.002749285 0.0011575748 0.0061120703 0.0042006914
0.0046280613 0.0030062129 0.005309561 0.0047656638 0.0035303866 0.010716644 0.004045919 0.006668697
0.009406724 0.0047360556 0.0021643715 0.0049772123 0.0028585936 0.004987938 0.004390686 0.014283959
0.009031661 0.005146849 0.0057218405 0.0054626097 0.0029962265 0.0045069703 0.0035872885 0.0035085306
0.006926482 0.0038174037 0.007374709 0.008878603 0.007201989 0.0030416586 0.00463505 0.009724876
0.0045683417 0.011560857 0.013481782 0.005868914 0.0014867154 0.002680986 0.0028374009 0.0063418145
0.0039201737 0.012382753 0.017699653 0.0073862313 0.01854661 0.009932566 0.00412271 0.003892437
0.0065670284 0.0022789172 0.004274688 0.0043634833 0.006423755 0.004794823 0.0089964 0.005702145
0.00814412 0.0054126424 0.0017152365 0.007053056 0.00804778 0.014190721 0.003772908 0.0075998004
0.0020752389 0.0057804626 0.009263404 0.0034622941 0.01021496 0.010551478 0.0058282693 0.0041109575

batch_norms.1.weight f4 [64]
00000000: 0999 443f a58a 413f bfe7 413f 7658 4a3f
00000010: b873 3f3f 9482 423f 96ac 463f bb0b 453f
00000020: 081f 423f fed6 483f 04cd 473f 6e34 413f
00000030: 2bbd 443f 6bd1 413f e77a 453f 4993 423f
00000040: 0c8a 523f a579 4b3f c21f 403f 426d 423f
00000050: 3781 403f 07e2 4f3f e3b0 433f 1ded 4c3f
00000060: fe7a 433f e6b3 413f 950c 433f 8206 433f
00000070: 1646 423f 2c78 3d3f a221 4b3f 581b 4b3f
00000080: 8ce9 4a3f 8378 463f d032 4b3f bb33 4d3f
00000090: 07db 443f 3ed6 3d3f 4b25 423f f5ea 403f
000000a0: 5423 4b3f 0a7b 423f 7cef 433f cd9d 433f
000000b0: 9f80 493f 9538 3f3f b0da 493f 206e 4b3f
000000c0: 8af8 433f 1f1d 433f b2ba 473f a55b 473f
000000d0: ac7d 403f aa34 4d3f fb40 423f 01d6 403f
000000e0: ff86 473f 249f 4c3f d881 3c3f 768f 3f3f
000000f0: 50d3 3e3f 389e 3f3f 4343 413f 88a6 443f
0.76796013 0.7560218 0.7574424 0.7904123 0.7478595 0.75980496 0.77607095 0.76971024
0.758286 0.7845305 0.78047204 0.75470626 0.7685115 0.7571017 0.7714066 0.7600599
0.8224189 0.7948249 0.7504846 0.75947964 0.75197166 0.81204265 0.7644178 0.80049306
0.76359546 0.7566513 0.76191074 0.76181805 0.7588819 0.7401149 0.79348195 0.793386
0.79262614 0.77527636 0.7937441 0.8015706 0.7689671 0.7415503 0.75838155 0.75358516
0.7935078 0.7596899 0.765373 0.7641266 0.78711885 0.7469571 0.78849316 0.7946491
0.76551116 0.7621631 0.7801925 0.77874213 0.7519176 0.80158484 0.758804 0.75326544
0.7794036 0.7993033 0.73635626 0.7482828 0.7454119 0.748508 0.7549326 0.76816607

batch_norms.1.bias f4 [64]
00000000: a985 2a3e 316b 413e 273d 36be db55 3dbe
00000010: b85d 3a3e 8769 2dbe 3421 3a3e f8be 36be
00000020: 08a1 2f3e 13ef 313e 56dc 34be 793b 2b3e
00000030: 2f53 323e d209 3b3e 9092 32be d889 2ebe
00000040: 0917 31be 7cfd 313e dc7b 3bbe e704 3b3e
00000050: 0423 cebd aa07 3cbe cb8e 39be 7fcf 333e
00000060: ceeb 2fbe d9a4 333e 1dba 333e f227 333e
00000070: 71ed 1c3e 1123 32be d2bb 35be 11f1 29be
00000080: b372 3b3e 45d7 25be 2235 2c3e 9d3d 37be
00000090: 9739 313e cac9 38be 3dc3 1cbe f309 443e
000000a0: 3e8d 2c3e 1e46 3abe 60d2 3d3e 6ece 39be
000000b0: 7589 273e c9b4 373e e1da 3fbe eab8 34be
000000c0: a2a0 e73d 1cf9 363e ac17 25be 05d3 333e
000000d0: 8329 23be 8e51 37be 3862 363e 7599 2e3e
000000e0: 1c07 32be 674a 2ebe 6ccd 31be 39fc 26be
000000f0: 974d 2f3e 7f9e 323e c060 323e f92f 3b3e
0.1665255 0.18888547 -0.17796765 -0.18489783 0.18199813 -0.16934787 0.18176728 -0.17846286
0.17151272 0.17376356 -0.17662176 0.16721906 0.17414545 0.18265465 -0.17438722 -0.1704477
-0.17293943 0.17381853 -0.18308967 0.18263589 -0.100652725 -0.18362299 -0.18120877 0.17559622
-0.17179796 0.17543353 0.17551465 0.17495707 0.15324952 -0.1739619 -0.17747429 -0.16595866
0.18305473 -0.161954 0.16817144 -0.17894597 0.17307125 -0.18045726 -0.15308852 0.1914442
0.16850755 -0.1819081 0.18537283 -0.18145153 0.1636103 0.17940058 -0.1873584 -0.17648664
0.11309935 0.17868465 -0.16122311 0.17560966 -0.15933804 -0.17902204 0.17810905 0.17050727
-0.17385525 -0.1702057 -0.17363518 -0.16307153 0.17119442 0.17443274 0.1741972 0.18280019

batch_norms.1.running_mean f4 [64]
00000000: 29c3 763d b62b d53e daed 4bbe 0281 38bd
00000010: d4f6 a2bd af63 8cbd 7457 2bbd bc46 8b3e
00000020: 6b35 22bd 221a 3fbd 1616 c63e bc73 15bd
00000030: fa12 a5be 1783 053e ca13 473f 40bf dd3e
00000040: f477 3cbd cfb4 213f 647c ecbe 617b 9bbd
00000050: e657 e23e 0d80 2cbe 50fc 5cbe a7d2 c33e
00000060: e340 debe 038c dc3c e4dc 0cbe 87b1 d0be
00000070: 1d0b 593e c977 443e 3b6f f7bb d4b6 3e3d
00000080: 2b48 693e aaec 213e a023 69be cada cf3d
00000090: b062 293e d85c efbc ca49 98bd 0ec4 843d
000000a0: a5ef 9f3e 1995 84bd 19d3 a8bd 6763 ce3c
000000b0: 01c3 743e 7542 1cbe 2dfd 2bbe 0f65 c53c
000000c0: 72e7 9a3e 670f 6d3e 9271 49be 777d 90bd
000000d0: bd22 953e 5a80 9abd 40fb 913d 8d12 4bbe
000000e0: 8203 8fbe 7168 b33d ea11 943e 46cb da3d
000000f0: b3c5 7fbe 14a2 5bbe 4692 093d aac0 753e
0.060244713 0.4163491 -0.19914952 -0.045044906 -0.07957235 -0.06854951 -0.04183145 0.27202404
-0.039601725 -0.04665578 0.38688725 -0.036487326 -0.3224104 0.13038288 0.7776457 0.43309975
-0.046012834 0.63166517 -0.46188653 -0.07591892 0.44207686 -0.16845722 -0.21580625 0.38246652
-0.4340888 0.026922232 -0.13756138 -0.40760443 0.21195646 0.1918632 -0.0075511015 0.046561077
0.22781436 0.15812936 -0.22767496 0.101491526 0.16541553 -0.029219076 -0.07435949 0.06482707
0.31237522 -0.064737506 -0.08243389 0.025193883 0.23902513 -0.15259726 -0.16795798 0.02409604
0.30254704 0.23150407 -0.1967223 -0.070551805 0.29128066 -0.07544012 0.07128 -0.19831295
-0.27932364 0.08760155 0.28919917 0.106833026 -0.2497776 -0.21448547 0.033586763 0.23999277

batch_norms.1.running_var f4 [64]
00000000: b487 1b3f c12b de3e 52a0 d53e bfba 133f
00000010: 100a 033f aa49 223f 4c66 f03e bd56 353f
00000020: 61b9 853e cf57 ba3e d436 363f 1a62 143f
00000030: 8d36 063f d569 0e3f 747b d33e b39d 1e3f
00000040: f73a 213f 3270 863e 1c47 093f e694 0c3f
00000050: 6e3e fc3d 1b7a d83e 995f c13e 99dd db3e
00000060: aacf b93e b56c 573e 7da4 153f 935f a03e
00000070: 28ae a03e 3c8c ef3e 689e 233f 1b24 2b3f
00000080: f19c c03e ac46 ba3e 29ec 0b3f 7fb2 1f3f
00000090: e9cd c73e e252 dd3e e5a9 b13e bd26 e03e
000000a0: 2bf6 5d3f 2680 203f c207 d43e eecb 2e3f
000000b0: f99c 003f b342 a13e 4c48 a13e f9ca 3f3f
000000c0: aee5 b43e 371c fa3e 829e f23e 18d5 bc3e
000000d0: b699 dd3e e6a3 023f 3d91 0b3f 1284 e23e
000000e0: b8c2 db3e 81ff 0d3f f4a6 c33e a5bb e03e
000000f0: 757a f33e b9a6 d73e 7fb0 c63e 80c6 133f
0.6075394 0.43392757 0.41723877 0.57706827 0.5118723 0.6339365 0.46953046 0.7083548
0.26117995 0.36395118 0.7117741 0.5796219 0.5242699 0.55630237 0.41305125 0.6195938
0.629806 0.26257473 0.5362413 0.549147 0.12316595 0.4228066 0.37768248 0.42942503
0.36291248 0.21037562 0.58454114 0.31322917 0.3138287 0.46786678 0.63913584 0.6685197
0.37619737 0.36382043 0.54657227 0.6238174 0.39024284 0.43227297 0.34699932 0.43779555
0.8670375 0.6269554 0.4141217 0.6827992 0.5023952 0.314962 0.3150047 0.74919087
0.35331482 0.4884965 0.47386557 0.36881328 0.43281335 0.5103134 0.5451849 0.44241387
0.42921996 0.55467993 0.38213313 0.4389316 0.47554365 0.42119387 0.3880653 0.5772476

interaction_layers.0.att f4 [1, 1, 128]
00000000: f928 483d c5c6 4cbe b46d 60bd 047e 8e3d
00000010: 70f5 80bd 8028 243d a6d2 fb3d 54ac eb3c
00000020: 243b c73d 7fd9 f93d ce2a 3a3d 821c 05be
00000030: 4ba5 df3d b6f0 21bd da73 c7bb 6975 be3d
00000040: 9f48 b23d 7944 26be 309d 9e3d 4a8f 9a3d
00000050: d077 0dbe 5b30 6a3c f6f4 303e 4e44 c4bc
00000060: 8ceb c7bc b06d 55be 6d38 a23d 7a51 903d
00000070: 19a7 083e b27a 2cbd 1194 7a3d 273c 00bd
00000080: 6097 313e 1946 cf3d 2175 0cbd 564a 013d
00000090: 4a08 9d3d b2b8 a73d 00f8 f03d 7a83 09be
000000a0: c970 e63d ae5a 8cbd 6498 2fbd c787 ea3d
000000b0: ecf3 0e3e 4219 2a3e 0bbe eb3d d7f4 cebd
000000c0: 48ff ca3d b1bd 7a3d bb28 95bd 2d17 5d3d
000000d0: af52 a23d 16b9 0dbd b2b0 aabc 5f2c f53c
000000e0: 959d 983c 1ff7 573c 333d 5c3d 93c2 86bd
000000f0: 4215 0fbd 6ba1 bcbd 8ab2 be3d d55b cd3d
00000100: e6a4 a9bd 99ac 52bd ca18 193e 66e4 d93c
00000110: 128e ff3c 4b2e da3d 2285 f13c 962a 15be
00000120: 2450 aabd a5fc 523d 2d5e c23b f2c1 7c3d
00000130: 4522 c73d fa51 ca3d 607f 59bd 7f68 b2bd
00000140: 1759 ec3b ea1a d4ba db15 273e ba2d 22be
00000150: cfd7 dc3d 6f88 003e 50b6 0bbd 92e8 a33d
00000160: cbcd abbd a0d6 ab3d 309a f3bc 1641 2ebe
00000170: 2e01 99bd 7eb9 2fbe 64f9 853d 2a9c 6c3d
00000180: c403 833d 1a1e 1dbe 5dfd 243e ad51 b63d
00000190: af13 34be 0516 82bd 3967 813d ce8b a83d
000001a0: 99f6 2ebd 39fc fa3c b6ac 1b3e 00bd 423c
000001b0: ade2 033e 489d fcbb c930 c63c f591 17bd
000001c0: d86e 1f3e 3c54 c8bd 5fc0 f63d b725 d93d
000001d0: 250b 303d 0439 003e 1a80 e63d 2ea7 22bd
000001e0: 6576 42bd 9f4a 18bc 2918 ba3c 7f46 c7bd
000001f0: b9ca 35be b741 8d3c 17e8 c33c 39f0 40be
0.0488672 -0.199977 -0.05479212 0.06957629 -0.062968135 0.040077686 0.122960374 0.028768696
0.09728077 0.12199687 0.045450978 -0.12999156 0.10920199 -0.0395362 -0.0060868086 0.09299738
0.087052576 -0.16237058 0.07744825 0.075468615 -0.13815236 0.014293755 0.17280945 -0.023958351
-0.02440431 -0.20842624 0.079209186 0.070467904 0.13344993 -0.0421092 0.061176363 -0.031307366
0.17342901 0.10120792 -0.03429139 0.031565033 0.07667597 0.08189525 0.11766052 -0.1342906
0.11251981 -0.06853233 -0.04286994 0.11451679 0.13960236 0.16611198 0.11510857 -0.10105293
0.09911972 0.06121606 -0.07283159 0.05397718 0.07925927 -0.03460034 -0.020836208 0.029928384
0.018629828 0.013181477 0.0537693 -0.06580081 -0.034932382 -0.092104755 0.093113974 0.10027281
-0.08283405 -0.051434133 0.14950863 0.026598167 0.031195674 0.10653361 0.029482428 -0.14567026
-0.08316067 0.05151047 0.005931637 0.0617084 0.09723333 0.09878917 -0.05309999 -0.08711337
0.007212769 -0.0016182337 0.16316931 -0.15837756 0.1078335 0.12552045 -0.034109414 0.08003344
-0.08388861 0.08390546 -0.029736608 -0.17017016 -0.07470928 -0.17160603 0.06541708 0.057766117
0.063972026 -0.15343514 0.16112275 0.08902297 -0.17585634 -0.06351856 0.06318516 0.08229791
-0.042715643 0.030637847 0.15202603 0.011885881 0.12879439 -0.007709179 0.024193184 -0.03700443
0.15569627 -0.097816914 0.120484106 0.10602897 0.04297938 0.1252175 0.11254902 -0.039710216
-0.04747619 -0.009295135 0.022716599 -0.09730243 -0.17753114 0.01724325 0.02391438 -0.18841638

interaction_layers.0.bias f4 [128]
00000000: afe8 2e35 1d9f 3eb3 efee 2534 6346 ac35
00000010: c452 6434 7709 42b6 1904 7ab5 d5db 5b32
00000020: acb1 8fb5 6ab7 59b3 f178 a1b5 01bf a635
00000030: ce60 3db5 c950 e9b3 c43b 2f35 8320 71b5
00000040: 764c 1336 a5ef 6d35 a1c1 03b5 3d20 bf35
00000050: d674 88b6 65b0 db34 3f4d a735 d56a 5535
00000060: ea02 0f35 baa8 ad34 4acb 0c36 d4e4 e634
00000070: 7469 5033 e1e8 a435 2b33 42b5 9011 c6b5
00000080: 380b 42b5 55e2 7db4 d4ee e6b4 1a39 8635
00000090: 53b0 0b36 480f a4b6 f259 8435 0443 36b3
000000a0: 462a 8b35 fbd1 a333 cdba 94b1 76c7 ceb5
000000b0: 6f2b 1934 d5dd 58b4 53a7 8135 40a6 4a34
000000c0: 1690 4bb5 a5b7 1636 889e 51b5 f18b 22b1
000000d0: 83da 04b6 91e6 3136 31ea bc35 a614 d835
000000e0: c076 5636 fc0c 0d36 03cc 9135 0387 04b5
000000f0: be34 dd34 6239 84b4 d0de eab4 c0d4 8935
00000100: b8b0 c135 8344 5333 11e8 20b6 7240 cdb5
00000110: ec5e 3fb6 436a 8d36 9247 e6b3 b070 1035
00000120: 3ac8 fc34 e73d c0b4 3f8f c4b3 17d4 06b5
00000130: 0360 bc35 94bb ad35 2530 4135 164d 0436
00000140: 06dc 46b5 0d41 bcb3 da83 9e34 c215 9bb4
00000150: f9fa fa33 7da1 3e36 335a 89b5 2726 c335
00000160: 8a98 dd35 3502 9233 67ae 0db3 05f4 d535
00000170: ab44 ad35 2a78 c035 186d 9135 c9d3 4535
00000180: 186a efb4 0eb5 7935 93d5 41b3 834e 5db5
00000190: 22cb b1b3 67ee 5bb5 c58c 9034 539d 6b35
000001a0: 6e9e 0ab5 8ee0 a9b5 3e76 a036 b9ef 8a35
000001b0: fba4 7c35 c41c fd33 4309 eab3 427b 1435
000001c0: db78 acb5 adbc 4b35 9a16 a736 8761 a034
000001d0: c625 c934 2fb3 c535 dab6 75b5 84bf e0b5
000001e0: 7646 77b6 ef9e 8d33 2d94 5a35 27ef 0834
000001f0: c339 57b4 9e97 eab4 92ee 20b2 22f9 d6b3
6.515865e-07 -4.4382535e-08 1.5453746e-07 1.2835484e-06 2.1264265e-07 -2.8913762e-06 -9.313822e-07 1.2797462e-08
-1.070604e-06 -5.0691064e-08 -1.2030633e-06 1.2423553e-06 -7.0548856e-07 -1.0864603e-07 6.527955e-07 -8.9826807e-07
2.1949213e-06 8.863811e-07 -4.908307e-07 1.4239992e-06 -4.0667173e-06 4.0920273e-07 1.2464951e-06 7.9504144e-07
5.327589e-07 3.2346526e-07 2.0979955e-06 4.3007333e-07 4.8524683e-08 1.2286729e-06 -7.234509e-07 -1.4757261e-06
-7.228696e-07 -2.36448e-07 -4.301461e-07 1.0000397e-06 2.0815248e-06 -4.88936e-06 9.860944e-07 -4.2436128e-08
1.036861e-06 7.628474e-08 -4.3286037e-09 -1.5406247e-06 1.4265036e-07 -2.019727e-07 9.659947e-07 1.8873197e-07
-7.5833066e-07 2.2458637e-06 -7.808926e-07 -2.365365e-09 -1.9796723e-06 2.6509263e-06 1.407525e-06 1.6099264e-06
3.1957607e-06 2.1018195e-06 1.0862717e-06 -4.93703e-07 4.1202833e-07 -2.4628667e-07 -4.3748014e-07 1.0269214e-06
1.4431052e-06 4.9189577e-08 -2.3976938e-06 -1.5292446e-06 -2.851647e-06 4.214498e-06 -1.0723228e-07 5.380816e-07
4.7084342e-07 -3.5807827e-07 -9.1530175e-08 -5.022752e-07 1.4035035e-06 1.2944097e-06 7.196816e-07 1.9714403e-06
-7.4080924e-07 -8.766265e-08 2.9525728e-07 -2.888683e-07 1.1687184e-07 2.8406205e-06 -1.0233547e-06 1.4539736e-06
1.6510178e-06 6.799056e-08 -3.298774e-08 1.5940756e-06 1.290949e-06 1.4340087e-06 1.0835092e-06 7.3696407e-07
-4.4594412e-07 9.30232e-07 -4.513056e-08 -8.2443165e-07 -8.2791544e-08 -8.193078e-07 2.6924513e-07 8.777326e-07
-5.163955e-07 -1.2656835e-06 4.782137e-06 1.035157e-06 9.4117394e-07 1.1786463e-07 -1.0898159e-07 5.531366e-07
-1.2850172e-06 7.589795e-07 4.979619e-06 2.9873283e-07 3.746665e-07 1.4729793e-06 -9.1535696e-07 -1.6745039e-06
-3.6846882e-06 6.594734e-08 8.142695e-07 1.275299e-07 -2.0044449e-07 -4.3696213e-07 -9.36747e-09 -1.00104685e-07

interaction_layers.0.lin_l.weight f4 [128, 15]
00000000: bace 1bbd 4cf1 99bc 5567 cabc 73f3 113e
00000010: eaa6 a93d 21cb 913d e660 5b3d 23c3 aabd
00000020: 5805 b3bc 10fe ddbb 31f8 ab3c 0652 9f3d
00000030: ba49 2dbe 9b60 4bbb 7fcd 593d 1a5b 043d
00000040: 4104 3bbd fca2 a2bd df3d 8bbd 384d 193d
00000050: 226e 9fbb cf5c 7fbd 33b2 e2bc de25 e33d
00000060: 38ee 553c ba84 b13c 7490 57bd 6a39 80be
00000070: a430 e63d c639 8b3d 3c03 79bd e35e 3f3d
00000080: 7ebb 9bbc b90a b6bb 61c8 433d bbbc 243d
00000090: ed4e f33c 45b0 93bd b6f2 c23c 8704 b03c
000000a0: 0c49 a6bd d36a a83c f71d 843c e9aa 50bd
000000b0: 3c28 a13d 91c2 c43d d177 03be c1f9 4d3d
000000c0: 2f6f b53c 4960 ffbc 41e9 babc 59bc 843d
000000d0: 4fa1 a8bd bc1a 88bc 7124 4f3c 20d1 fcbc
000000e0: a6df 68bd 5064 a4b9 0b8e c8bd 4d50 203d
000000f0: 8f4d ad3c a915 b73c 2b82 c13c d311 883c
00000100: 33e6 9b3d 8bd2 b5bd 4fb9 a13d 0583 c33d
00000110: 3569 6ebd c016 46bd b967 673c 4a56 843d
00000120: ce03 05bd 8ed6 97bd e2e4 9b3c 97f4 56bd
00000130: f80f 2c3c d34c 163b bd09 7c3c 9345 4a3d
00000140: 7e83 663b 9454 613d 5195 ecbc f336 303d
00000150: 0684 593d 9b7a 483d 5985 0d3e c692 fdbc
00000160: 6488 deba 6f0b 0c3e c277 393e 6ef8 853c
00000170: 5f57 913c 0530 afbd 7f1f 96bd e3bc b6bd
00000180: 30b0 1a3d a273 bb3d e47e 3abc a4f3 173e
00000190: cb7d 54bd 41bc 6f3d c2ae ae3d dc55 c9bb
000001a0: 55e8 f23c 8579 b4bc afa2 6d3d 17f6 f7bd
000001b0: 5015 20bc 302a ae3d 54f3 b43d e2bd 7abd
000001c0: 4973 e4bd ac0a 6b3b ad20 91bd ecf5 08be
000001d0: 1e74 c83d f2f1 a2bd 08de cabd 682b a5bc
000001e0: 225d 69bd 1ed7 41bd ff5c 76bd 9de7 84bd
000001f0: dc4f 853c 96ee ddbc 3936 fa3d 2839 933b
00000200: 9f2c 343c 4e5f 053e 0187 ed3d be7d 843d
00000210: 7a91 8f3d de25 cabc fc26 b5bc e217 a6bc
00000220: 0f7b 313e 5691 44bd 2d17 08b8 cf4d aebd
00000230: 1c01 453d 0340 5fbd 1442 e33d f7f4 223e
00000240: 1433 7cbd e708 a93d b9c7 523d 9f64 533d
00000250: 279c b6bd 1585 23bc b0a9 a93d 3f73 e7bc
00000260: 1395 febc 32fe 14bb 1e4b 863c 2c52 343d
00000270: 90f8 17be ca0e 0abd 768f 503d 27a3 bfbd
00000280: ddca d5bd 5ee4 e53d e307 66bd a11a d93c
00000290: 023d 38bc d0ae a7bd 9c70 c9bd 20d1 7fbd
000002a0: e3e6 d8bd 0910 143b 71e2 51bc 7227 7bbd
000002b0: bdc9 bfbd 9a1c 953d b6d7 2ebc 22d1 cc3d
000002c0: d348 003e d61a 293d 10d5 1e3d d7f9 e13c
000002d0: f8b2 eabc 3e06 21bd 06c3 ce3c 9e02 703d
000002e0: 3894 bfbd 6c30 d5bb 77b6 a63d b536 ac3d
000002f0: 03c7 dfbc 4f3e f83d 8b08 afbb 16ae b63c
00000300: 706e 9b3d 3d82 35bd 29f5 373c ccd1 7f3d
00000310: 9506 50bb 5721 89bc c822 f0bb 563b 733d
00000320: 548e e53d 4990 ffbc b78b 753d bfd7 21bd
00000330: 1c61 edbc 5dea 353d 3656 bb3b 6396 bc3d
00000340: 854e 88bb 1400 c8bb 55ab b0bd 58a1 3abd
00000350: 232a 0b3e 9648 2ebd ad92 cc3c d3b3 913d
00000360: a523 b13d f6bb 19bd 036c 7fbc fddf debc
00000370: fc3c 32be d72b cebd 3251 9ebd 6d18 d93b
00000380: 0ef5 4f3d c154 9abd 0b69 853d d69b d8bd
00000390: 2b47 cb3d 4740 0fbd 824f 5e3d 3acc 61bc
000003a0: 150a 443c 8814 b7bd 20c3 983c 67da 18bd
000003b0: 9d70 51be c39e 093d e5e0 483c 5601 3abd
000003c0: 9105 5bbc fa31 f1bc 74db 88bd b531 413d
000003d0: 046d 85bd e592 28bd 8dbe 1a3e c136 cd3d
000003e0: b933 ecbc 425f 2b3d ce6f fa3b 08ba ab3d
000003f0: 1772 ea3d 48cc 573d 1705 8f3d a7df 9b3d
-0.038038947 -0.018791817 -0.024707476 0.14253025 0.082837895 0.07118822 0.053559206 -0.083380006
-0.021853134 -0.0067746714 0.02099237 0.077793166 -0.16922656 -0.0031032923 0.053174492 0.032313444
-0.045658354 -0.07941243 -0.0679891 0.037427157 -0.004865424 -0.06234437 -0.027672863 0.11091207
0.013057284 0.021669734 -0.052627996 -0.25043803 0.11239746 0.06798129 -0.0607941 0.04672135
-0.019010302 -0.0055554775 0.047798518 0.04021905 0.02970072 -0.07211355 0.023797374 0.021486534
-0.08119401 0.02055875 0.01612757 -0.050944243 0.07869002 0.09607423 -0.12838675 0.050287012
0.022147743 -0.031173842 -0.022816302 0.06481237 -0.08233892 -0.01661431 0.012642966 -0.030861437
-0.056853913 -0.00031355256 -0.097927175 0.03913908 0.021155147 0.022349196 0.02362164 0.016610062
0.076122664 -0.088780485 0.07896673 0.09546474 -0.058205802 -0.04836154 0.0141238505 0.06461771
-0.03247433 -0.0741397 0.019030038 -0.052479353 0.010501854 0.0022933974 0.015383181 0.049382757
0.003517359 0.0550123 -0.028879793 0.043021154 0.053104423 0.04894505 0.138204 -0.030953776
-0.0016977903 0.13676237 0.1811209 0.016353812 0.017741857 -0.08554081 -0.07330226 -0.08922746
0.03776568 0.091529146 -0.011382792 0.14839035 -0.051877778 0.058529142 0.08529426 -0.0061442684
0.0296518 -0.022030601 0.058016475 -0.12107485 -0.009770706 0.085041404 0.08835474 -0.061216243
-0.111548014 0.0035864515 -0.070863105 -0.13375062 0.097877726 -0.07956304 -0.0990563 -0.0201623
-0.056973584 -0.047324292 -0.06014728 -0.06489489 0.016273431 -0.027091306 0.122173734 0.0044928975
0.010996967 0.13024637 0.115980156 0.06469296 0.07010169 -0.02467626 -0.022113316 -0.02027506
0.173321 -0.047990166 -3.244651e-05 -0.085109346 0.04809676 -0.054504406 0.11096588 0.15913759
-0.06157215 0.08253651 0.05146 0.05160963 -0.089165024 -0.00998046 0.082843184 -0.028253196
-0.031076944 -0.002273452 0.01639324 0.044023678 -0.14840913 -0.03370551 0.050918065 -0.09357291
-0.10439084 0.11225198 -0.056159865 0.026501955 -0.011245014 -0.0818764 -0.09835932 -0.062455297
-0.10590913 0.0022592566 -0.0128103355 -0.061316915 -0.093646504 0.07280846 -0.010671547 0.100008264
0.1252778 0.04128536 0.03877741 0.027584953 -0.028649792 -0.039312594 0.025239479 0.058596246
-0.09354442 -0.0065060165 0.08140271 0.08408872 -0.027316576 0.121212594 -0.0053415946 0.022299808
0.07589424 -0.044313658 0.011227884 0.062455937 -0.0031742204 -0.01673953 -0.007328365 0.05938276
0.112087876 -0.03119673 0.059947696 -0.039512392 -0.02897697 0.04441296 0.0057170643 0.092083715
-0.004159751 -0.006103525 -0.08626429 -0.045564026 0.13590293 -0.042549692 0.024972284 0.07114377
0.08649377 -0.03753277 -0.015589717 -0.027206415 -0.17406076 -0.100669555 -0.077303305 0.0066252262
0.05077081 -0.07535697 0.06514176 -0.10576598 0.099256836 -0.03497341 0.054275043 -0.013781602
0.011965294 -0.08939463 0.01864773 -0.03731766 -0.20453115 0.033598673 0.01226065 -0.04541143
-0.013368026 -0.029442776 -0.06682482 0.047166545 -0.06514934 -0.041155715 0.15111752 0.10020209
-0.028833257 0.04183889 0.0076427227 0.08385092 0.11447542 0.052685052 0.06983393 0.07611018

interaction_layers.0.lin_l.bias f4 [128]
00000000: 82ed a5bc 9e10 653d 7120 5dbc d57e 3a3c
00000010: cfe3 a6bc 1012 abbc 19ae 11bb 7d08 073c
00000020: 6664 7d3b a39c ce3c 1bb3 913b 6441 013d
00000030: 2eb0 5b3c bd14 113b 0ce3 f0bb 5358 e03c
00000040: b053 8cb5 e8d6 febb 92cd 8b3b c280 0f3b
00000050: 3599 793c 1ecf 05bb 23d5 fb3c 926b ddbb
00000060: a1aa e63b 4789 683d 224a 343c 1c17 1b3c
00000070: c1a7 f73c a75a cfbc 2e64 823c c1c6 a4bc
00000080: 7bad 26ba 31a9 653c a580 4cbc 0bbd 32bc
00000090: ec18 d839 e830 b6b6 33e5 913a bb81 e13c
000000a0: 0132 533c 392d 9f3c 129a 8abb a389 2b3d
000000b0: 93c4 fabb f52b 42bb c678 59bb 1876 3aba
000000c0: 196c 573b 3c6a 143b df29 77bc 0367 08bc
000000d0: 7cfa 993c ddc8 0abd d2e4 cfbb 0695 e33b
000000e0: c48d 33bc 20cc 533a 44b5 a23c c0ce 5f3b
000000f0: e60b d13b 6df9 9a3c 52c9 143d c08b 883c
00000100: 0252 c73c adc3 da3a fabc 4fbd 4a5f 86b5
00000110: 474c 1b3b d9a3 9a3c e666 daba 61c1 c13b
00000120: 8377 9a3c 442d edbc 8980 66bc 00d8 9b3c
00000130: 8603 133c 6d9a ff3a 959a abbc 30a3 acbc
00000140: 6e4f 62b9 79f3 46ba bcf4 4abd c449 ad3b
00000150: f50d 2e3c e3e5 0f3d 8aa4 cd3b 1f74 d63c
00000160: 2284 063c 012b 513c 926d e7bb 07be e13b
00000170: d04e 2ebc d7a7 ca3c c99b 9d3c 99f7 643c
00000180: 6936 faba 3f9c 1b3d e880 f43c b4b7 87bb
00000190: cc7f bc3b 9f9e 003c 8e69 b73b ddcc 6bbc
000001a0: 7038 c2bb 2b07 a13b ad48 b8bc c1eb 0f3b
000001b0: eef6 003c d415 7ebb 429d 92bc bc82 423b
000001c0: 7919 a23a 4415 e03c cb94 28bc 14bb 16b5
000001d0: 0849 143a 0c41 dabc 4a01 39bb 4422 0fbc
000001e0: 20a5 afbc 55d2 86bb 8049 c3bb 4fc5 9bba
000001f0: 5331 47bd 5822 5e3c 3593 3fbc fcfa a5ba
-0.020254854 0.05592405 -0.013496504 0.011382778 -0.0203723 -0.020882636 -0.0022229014 0.00824177
0.0038664578 0.025221175 0.0044464 0.031556502 0.013408704 0.0022137605 -0.007351285 0.027385866
-1.0455169e-06 -0.0077770837 0.0042664493 0.0021896814 0.015234281 -0.002041764 0.03074128 -0.006757208
0.0070393835 0.056771543 0.011004003 0.009465959 0.030231358 -0.025311781 0.01591691 -0.020114304
-0.0006358248 0.014017389 -0.012481843 -0.010909329 0.000412173 -5.429716e-06 0.0011130929 0.02752768
0.01289034 0.019430744 -0.0042297924 0.041879307 -0.007652828 -0.0029628251 -0.003318356 -0.0007112934
0.0032870828 0.0022646328 -0.015085666 -0.008325341 0.018796198 -0.033882964 -0.006344416 0.006945255
-0.0109590925 0.0008079428 0.019861825 0.0034150332 0.006379592 0.018917764 0.036324807 0.0166682
0.024331097 0.0016690396 -0.05071733 -1.0011511e-06 0.0023696588 0.018876957 -0.0016662746 0.005912945
0.018855816 -0.028952248 -0.014068731 0.019023895 0.008973008 0.0019500979 -0.020947734 -0.021073908
-0.0002158263 -0.0007589381 -0.049549803 0.0052883346 0.010623445 0.035131346 0.006275718 0.026178418
0.008210214 0.012766601 -0.0070626223 0.006889108 -0.010638908 0.024738235 0.019239323 0.0139750475
-0.0019089702 0.037990805 0.029846624 -0.004141772 0.0057525393 0.007850318 0.0055973 -0.014392105
-0.005927138 0.0049141846 -0.022495592 0.0021960589 0.007871373 -0.0038770335 -0.017897252 0.0029679975
0.0012367211 0.02735389 -0.010289381 -5.615159e-07 0.00056566345 -0.026642345 -0.0028229528 -0.008736197
-0.021441042 -0.004114429 -0.0059596896 -0.0011884364 -0.048631024 0.013557993 -0.011692812 -0.00126633

interaction_layers.0.lin_r.weight f4 [128, 15]
00000000: ec49 5cbc fed4 ab3b d097 2abc 8d76 cebb
00000010: c088 79bc 98fa ae3b a0ff 63bc 4c00 4fbc
00000020: f71e 03bb ab68 e9bc 782e 5fbc 6edd 1fbc
00000030: 96d3 49bc 1ad1 313c 2e0b e43a eb2b 923d
00000040: 0d14 823d 9642 2f3d 2b0c 7a3d f2f2 453d
00000050: ae19 f1bc 9ae4 ac3d 58f5 4c3d 0dbb fcba
00000060: 2bee c3bc 3416 f23c f5be 513b 0963 533d
00000070: f5a6 c73c bfd8 2abc 991a 053b 7fd3 c039
00000080: 553d e6ba f83b 6dbb 35c3 abbb f2e8 4fb9
00000090: f1b0 15bd da5a 223c 2985 55bb 8ddc 3abc
000000a0: 8e33 0e3c 98c6 8e3c a8d8 753c 6e53 00bd
000000b0: e717 abba 7f20 0b3d e223 cfbc d111 b8bc
000000c0: 8b21 493c adcb db3c 9897 613c 5e96 ae3c
000000d0: 7c5e f9bb e081 2bbc 9522 7c3c 5ade 0fbc
000000e0: bcf8 203c 8416 f6bc 9206 d63c 1137 8c3b
000000f0: ad15 bfbc 5b4b 69bc 5d3d 14bc 8512 0b3c
00000100: 9639 0dbb ccc0 283c dd71 17bc afc0 2dbc
00000110: e5a7 48bc 9bcc 4fbc b3cd 2cbc de58 fdbb
00000120: e6af a4bc 478b ff3d b2bb 59bc 64eb 12bc
00000130: 8664 9e3b 7c03 e3ba aab6 fd3b 790a d9bc
00000140: 9818 e9bb 15bb 1abb bb75 94bb 7c87 42b9
00000150: 1f34 c6bc 7f47 a1bc f032 81bc 8461 dcbc
00000160: c890 7d3a 6201 d63b 663f 3d3c ab7c c9bc
00000170: 703f 413c 2fca b1bc d15f 903c 9299 713c
00000180: f6ea 27bc 43d7 72bb b168 2e3a 99e3 9b3b
00000190: 3e57 01bd 0cae 16bb 0b1a 27bb f79b b63c
000001a0: e962 d73b bf10 2cba e2ec b93c 67d2 173c
000001b0: 2daa 123b 349a b6ba 5e08 53bc 97d6 11bb
000001c0: 3296 3c3c c978 0bba 8a82 b23c 2574 cf38
000001d0: cd9e 823c db9f 2f3b ac2f 3b3a 3b15 2f3d
000001e0: 2c8c c73a 4c60 893b a0fe 643a 41ce 77ba
000001f0: 6650 ca3b 21cb 933a 3f52 fc3b ec17 fdba
00000200: d8bf 63b2 3252 813b a550 4d3a c5e5 523b
00000210: 19bc 0f3c ce5f 85bb b34b d033 503d ef3c
00000220: 9d4a 583c dfe2 463c 64ae 3dbc 53eb 193b
00000230: 2965 cf3c 82fa 193d 6df0 7e3c 6be1 9bbb
00000240: 877d da3a eebc 453c 67a9 fd3c 2a0a 10bc
00000250: 43b4 6b3c 7923 43bb c560 f2bb 887e 823c
00000260: 0b65 0d3c 6a7d e6bc 5795 24bb 9f56 94bb
00000270: fb07 3abc f99f 793c 478f 7abc f161 103c
00000280: 4a22 17bc 528d 0d3d b917 5f3c f652 4ebc
00000290: 7a50 e3b9 a608 943d a8d2 30bc 05a7 90bc
000002a0: 4f2b 743c 980f dabc 2d9a 683c 5654 6b3c
000002b0: 4035 fdbc 5867 25bb a277 153c 1f78 573d
000002c0: 2a8b d43c 22e2 5d3c 3081 143d f551 debc
000002d0: 6b91 b63b c211 453c 61a3 9f3b e965 bb39
000002e0: 5514 8ebb f3d7 4daf 6816 283d ff1b 003d
000002f0: 4417 84bc 89ca 123c 7d66 b5bb 5e80 033c
00000300: fdf2 053c c7d3 063d 008e 303c b144 b3bc
00000310: 7fb0 a13a 1262 a8b9 e52c e139 0e0c 783b
00000320: 7bc9 3b3c fbbb 113a 57d5 f4ba 749f 8a38
00000330: f0f5 4a3b faea 7538 a7c3 e13b ea25 f7ba
00000340: 7533 533b 6588 d838 60eb edbb d8af a2ba
00000350: a470 9f3a 1ef5 beba 07c2 9cbb 188d 23b8
00000360: 15e9 34bc 00bc f53a c3dd 87b4 88e2 97bb
00000370: e41b 6f38 cc89 07bb a0b2 aeb7 17d0 aebb
00000380: 8709 383a 7d68 d6bc dd3c 203c de20 083c
00000390: 20c6 91bc c7ba ae3c 373e c7bb 3bbf 97bc
000003a0: c050 f43c a480 78bc bc0e 33bd a7e2 583d
000003b0: e3d9 ce3b 6e89 1d3d 241f 4dbc 5044 82bb
000003c0: de2d 3e34 28db 0f39 dadc de35 dfc4 9cb6
000003d0: 8a08 a9b3 15de a736 670c aeb9 cd1c b7b2
000003e0: 286d a4b8 f9c7 e732 48f1 4cb8 9ca8 4b3b
000003f0: af36 26b1 9a80 8f38 478b 6f35 9ed0 d3bc
-0.013445359 0.0052438965 -0.0104121715 -0.0063007534 -0.015230358 0.0053399317 -0.013915926 -0.012634348
-0.002000747 -0.028492292 -0.013621919 -0.009757383 -0.012318512 0.010853076 0.0017398351 0.07137283
0.06351481 0.04278811 0.06104676 0.048327394 -0.02943119 0.0844204 0.050038666 -0.001928182
-0.023917278 0.029551603 0.0032004688 0.05160812 0.024371604 -0.010427653 0.0020310043 0.0003677867
-0.0017565886 -0.0036199074 -0.0052417764 -0.00019827837 -0.036545698 0.009909356 -0.003258059 -0.0114051225
0.008679284 0.017428681 0.015005268 -0.031329565 -0.0013053388 0.033966538 -0.025285665 -0.022469433
0.012276064 0.026830519 0.013769053 0.021311935 -0.0076101404 -0.010467976 0.015389104 -0.00878104
0.009824928 -0.030040033 0.02612618 0.0042790254 -0.023325766 -0.014239158 -0.009047833 0.008488302
-0.0021549216 0.010299873 -0.009243456 -0.010605021 -0.01224706 -0.012683059 -0.010547089 -0.007731541
-0.020103406 0.12477737 -0.013289379 -0.008967254 0.0048337607 -0.0017319764 0.0077427225 -0.026494252
-0.0071135275 -0.0023610045 -0.004530636 -0.00018551754 -0.024194775 -0.019687412 -0.01577136 -0.026901968
0.0009672758 0.0065309266 0.01155076 -0.02459558 0.01179491 -0.021702854 0.017623814 0.014746087
-0.01024889 -0.0037054576 0.00066531735 0.0047573564 -0.03157734 -0.0022991924 -0.00254977 0.022291167
0.0065730703 -0.00065637747 0.022695962 0.009266472 0.0022379265 -0.0013931454 -0.012880413 -0.002225315
0.011510419 -0.00053204276 0.021790762 9.892163e-05 0.015944863 0.0026798162 0.00071405875 0.042744856
0.001522427 0.0041923877 0.0008735452 -0.00094530365 0.006174135 0.0011275747 0.007700234 -0.0019309497
-1.3256759e-08 0.003946566 0.00078321464 0.003218041 0.008772873 -0.0040702587 9.6995244e-08 0.02920404
0.013201383 0.012139051 -0.0115772225 0.0023486211 0.025316792 0.03759242 0.015560252 -0.0047570965
0.001666949 0.01206897 0.030964566 -0.008791486 0.014386239 -0.0029775782 -0.0073967897 0.015929475
0.008630048 -0.028135974 -0.0025113428 -0.0045269276 -0.011354442 0.015235894 -0.015292949 0.008812414
-0.009224484 0.0345586 0.013616496 -0.012593022 -0.00043356774 0.07228212 -0.010792412 -0.017657766
0.014902904 -0.026618764 0.014196915 0.014363369 -0.03090918 -0.00252386 0.009122761 0.05260479
0.025945265 0.013542684 0.036256015 -0.02713869 0.0055715344 0.01202816 0.004871771 0.00035743348
-0.00433592 -1.8721362e-10 0.041036993 0.0312767 -0.016124375 0.008959421 -0.005535899 0.008026211
0.008175609 0.03291681 0.010776043 -0.02188334 0.0012335925 -0.00032116525 0.00042948793 0.0037848982
0.011461611 0.00055593223 -0.0018679303 6.610053e-05 0.0030969344 5.863139e-05 0.0068897787 -0.0018855904
0.0032226716 0.00010325088 -0.007260725 -0.0012412025 0.0012164307 -0.00145689 -0.004783872 -3.8993632e-05
-0.011041899 0.0018748045 -2.5307062e-07 -0.004635159 5.7008016e-05 -0.0020681499 -2.0825595e-05 -0.005334865
0.00070204627 -0.02617287 0.009780136 0.008308617 -0.017794669 0.021329297 -0.0060804146 -0.018523803
0.02982366 -0.015167389 -0.043715224 0.052950528 0.006312595 0.03846114 -0.012519632 -0.0039754286
1.7711815e-07 0.00013719185 1.6604565e-06 -4.672081e-06 -7.871229e-08 5.0028416e-06 -0.00033197107 -2.1317101e-08
-7.840461e-05 2.6982876e-08 -4.88621e-05 0.003107584 -2.4187263e-09 6.842725e-05 8.9237113e-07 -0.025856312

interaction_layers.0.lin_r.bias f4 [128]
00000000: 15ed a5bc 3b10 653d cf1f 5dbc 077f 3a3c
00000010: 7be3 a6bc bb12 abbc e4ac 11bb 1406 073c
00000020: f164 7d3b 559c ce3c 20b1 913b 2e41 013d
00000030: abb0 5b3c 2518 113b c6e3 f0bb 4458 e03c
00000040: 4212 81b3 f2d1 febb fcca 8b3b 0784 0f3b
00000050: 6999 793c 8bcc 05bb 8cd5 fb3c 4d6b ddbb
00000060: c1ae e63b 3e89 683d fc48 343c 3716 1b3c
00000070: caa7 f73c e05a cfbc 3463 823c 5ac7 a4bc
00000080: a1ae 26ba a2a9 653c aa80 4cbc f2bc 32bc
00000090: cf28 d839 841d c2b2 f1ef 913a 9082 e13c
000000a0: 9b32 533c 562d 9f3c d799 8abb 5689 2b3d
000000b0: 4ec6 fabb e82c 42bb fc72 59bb 8976 3aba
000000c0: 1468 573b f25c 143b d329 77bc 1367 08bc
000000d0: 5efa 993c 1cc9 0abd ede7 cfbb 9493 e33b
000000e0: d78d 33bc 2de0 533a 86b4 a23c abcb 5f3b
000000f0: 220b d13b 3ff9 9a3c 76c9 143d 8b8c 883c
00000100: 0552 c73c 40c2 da3a 05bd 4fbd 7ca2 afb2
00000110: 4e47 1b3b 14a3 9a3c 0964 daba 6bc1 c13b
00000120: 9c76 9a3c 6c2d edbc 1981 66bc c7d7 9b3c
00000130: 8b04 133c ea9f ff3a d59a abbc 21a3 acbc
00000140: d87f 62b9 a9f7 46ba b3f4 4abd e946 ad3b
00000150: b60e 2e3c c0e5 0f3d 6aa5 cd3b b273 d63c
00000160: dc81 063c a22a 513c 8a6d e7bb 04bf e13b
00000170: 5b4e 2ebc d0a7 ca3c b79b 9d3c 3bf7 643c
00000180: ba46 faba 369c 1b3d dc80 f43c fcb7 87bb
00000190: 4d7f bc3b e69e 003c 4a68 b73b f9cc 6bbc
000001a0: e034 c2bb 4a06 a13b c448 b8bc 88eb 0f3b
000001b0: abf6 003c 1316 7ebb 329d 92bc 2b88 423b
000001c0: 980c a23a 5415 e03c b794 28bc 8a66 7eb4
000001d0: a73e 143a 3c41 dabc 26fc 38bb 6422 0fbc
000001e0: 52a5 afbc 62d1 86bb b549 c3bb 26c3 9bba
000001f0: 5c31 47bd dc21 5e3c ed92 3fbc a6eb a5ba
-0.020254651 0.05592368 -0.013496353 0.011382825 -0.020372143 -0.020882955 -0.0022228295 0.008241195
0.0038664902 0.02522103 0.004446164 0.0315563 0.01340882 0.0022139635 -0.0073513715 0.027385838
-6.010352e-08 -0.0077764923 0.004266141 0.0021898763 0.01523433 -0.0020416107 0.030741476 -0.006757176
0.0070398753 0.05677151 0.011003729 0.009465746 0.030231375 -0.025311887 0.015916444 -0.02011459
-0.0006358419 0.014017494 -0.012481848 -0.010909306 0.00041229135 -2.2597995e-08 0.001113413 0.027528077
0.012890483 0.019430798 -0.004229765 0.04187902 -0.0076530343 -0.0029628817 -0.0033180108 -0.0007113
0.0032868432 0.0022638408 -0.015085655 -0.008325356 0.018796142 -0.0338832 -0.0063447864 0.006945083
-0.01095911 0.0008082416 0.01986147 0.0034148495 0.006379501 0.018917678 0.03632494 0.016668579
0.024331102 0.0016689971 -0.050717372 -2.044657e-08 0.0023693624 0.01887659 -0.0016661893 0.00591295
0.018855385 -0.028952323 -0.014068865 0.01902379 0.008973251 0.0019502614 -0.020947853 -0.02107388
-0.00021600665 -0.0007590005 -0.04954977 0.005287994 0.010623625 0.035131216 0.0062758224 0.026178215
0.008209672 0.012766512 -0.0070626186 0.006889226 -0.010638799 0.024738222 0.01923929 0.01397496
-0.0019094564 0.03799077 0.029846601 -0.0041418057 0.00575248 0.007850384 0.005597149 -0.014392131
-0.0059267133 0.00491408 -0.022495635 0.0021960456 0.00787131 -0.0038770481 -0.017897222 0.0029683213
0.0012363372 0.02735392 -0.010289363 -2.3692897e-07 0.0005655088 -0.026642434 -0.0028226464 -0.008736227
-0.021441136 -0.004114316 -0.0059597143 -0.001188372 -0.048631057 0.013557877 -0.011692745 -0.001265873

interaction_layers.1.att f4 [1, 1, 64]
00000000: 818f 7bbe 82f3 d3bc 2772 073e 1550 693e
00000010: 1098 61be 1a48 4b3d e708 08be 84ee d13d
00000020: 63da d3bd 0c13 2dbe c03f 7fbe 8738 d63d
00000030: 3989 0ebe 0d3d bdbd 40a7 9d3d e0ad f7bd
00000040: 22b3 31be fa9d 59be bb24 383e 9365 9fbd
00000050: 6da3 af3d 705b 90bd 2bc0 363e 84ae 2dbe
00000060: 527e 493e 5197 a9bd f0dc dfbd daad 663d
00000070: 954e f3bd b7f0 24be 11f6 85be 034c 5f3d
00000080: 8039 87bd ae9e 2c3e 9e12 1f3e 9737 85bd
00000090: bcf1 053e 8a1a 2ebe 3727 1c3d 2efc 283d
000000a0: 88cc 95be e2e0 4abe b5b6 bf3d c5aa 1abe
000000b0: 5c83 c23d 62eb 493e 002f 9e3d 7de2 d1bd
000000c0: 183b 05be 60e2 063e 23a2 fc3d c7e6 2c3e
000000d0: c0ec 64be 7427 22be 8704 86bc 6abb b43d
000000e0: d74b 093e cfc7 cebd 65cb eb3d d12e 45bd
000000f0: b59b 0f3e 65b8 0e3e f151 2abd 2ee2 37be
-0.24566461 -0.02587295 0.1322714 0.22784455 -0.22030663 0.04962931 -0.13284646 0.10250571
-0.10344388 -0.16901797 -0.24926662 0.104600005 -0.13919534 -0.0924016 0.07697916 -0.12093711
-0.1735349 -0.2125167 0.17982762 -0.077830456 0.08576093 -0.0704869 0.17846744 -0.16961104
0.19677094 -0.082808144 -0.10930812 0.05631814 -0.11880223 -0.1610745 -0.26164296 0.05451585
-0.06602764 0.16857406 0.15534446 -0.065047435 0.13080496 -0.17002311 0.038123336 0.041256122
-0.29257607 -0.19812348 0.093610205 -0.15104206 0.09497711 0.19718698 0.07723808 -0.10248277
-0.13010824 0.13172293 0.123356126 0.1688491 -0.22355938 -0.15835363 -0.01635958 0.08824809
0.13407837 -0.10096704 0.11513404 -0.04814035 0.14024241 0.13937528 -0.04158205 -0.17957374

interaction_layers.1.bias f4 [64]
00000000: eb6e 57b5 729f 3cb5 5236 a034 9ee8 2035
00000010: 3dac 4d34 a17c 9434 19f8 87b4 81a5 73b3
00000020: d98c c435 a1d3 eeb4 c9cb 2435 bfd6 ad34
00000030: a9eb e5b4 6764 d0b3 7dd7 8cb5 0138 50b4
00000040: a8c1 7cb2 e341 8db5 c1aa 9235 5c03 4fb5
00000050: 1819 3935 680f c534 5df6 9c34 fc03 d3b4
00000060: c3a9 bab4 7a4d c635 3292 7c33 8939 0b34
00000070: 14ff ff34 4e4f 4835 00af 80b4 9087 6d32
00000080: a0e8 7035 4c69 9ab4 9a8e 1d35 0ca3 4b34
00000090: 1513 03b5 b2c3 a435 4d77 3035 6ffe 3db5
000000a0: 4028 8cb4 9177 b933 bc74 bcb4 b124 8c35
000000b0: ac9b 1433 caa5 deb4 f8ee a135 140c c434
000000c0: d117 06b5 e33d 3734 b142 5bb4 b637 6ab5
000000d0: 53d7 9033 56c4 81b4 8095 7634 e423 d330
000000e0: 7901 4734 74ce b0b4 95c1 b231 4f08 7434
000000f0: 73bd 5033 7af2 6db5 bb9f 7cb3 f01b b6b3
-8.025515e-07 -7.026748e-07 2.9841846e-07 5.994315e-07 1.9154773e-07 2.7657828e-07 -2.5326224e-07 -5.672837e-08
1.464413e-06 -4.4484935e-07 6.139131e-07 3.238001e-07 -4.282604e-07 -9.704018e-08 -1.0493528e-06 -1.9391884e-07
-1.4712363e-08 -1.0524494e-06 1.0927544e-06 -7.71184e-07 6.8954387e-07 3.670532e-07 2.9236517e-07 -3.9304712e-07
-3.4768718e-07 1.4774698e-06 5.8806286e-08 1.2966315e-07 4.7683045e-07 7.462121e-07 -2.3969187e-07 1.3826039e-08
8.974548e-07 -2.876135e-07 5.869457e-07 1.8965164e-07 -4.882907e-07 1.2275907e-06 6.5738715e-07 -7.0778236e-07
-2.6106318e-07 8.636483e-08 -3.5102664e-07 1.0441491e-06 3.4600518e-08 -4.147135e-07 1.2064984e-06 3.6516633e-07
-4.995355e-07 1.7065717e-07 -2.0420227e-07 -8.7252863e-07 6.74469e-08 -2.4170976e-07 2.2964923e-07 1.5362471e-09
1.8533855e-07 -3.293277e-07 5.2024896e-09 2.2727293e-07 4.8601077e-08 -8.864223e-07 -5.8818596e-08 -8.480117e-08
